03_hw/Pix2Pix/checkpoints/pix2pix_model_epoch_440.pth (torch, 99191 bytes, 32 tensors)

conv1.0.weight f4 [8, 3, 4, 4]
-0.10086833 -0.11517318 -0.054383412 -0.18617375 0.057774507 -0.10331991 -0.021764286 0.061477747
-0.1419284 -0.045698278 -0.0037780204 0.040003616 -0.02189522 0.07353329 0.07074907 -0.13622604
0.13347538 0.18761252 0.055209287 -0.007692783 0.03444946 -0.026278337 -0.078409925 0.049242556
0.11858302 0.052892238 0.03997026 -0.040974688 -0.073774904 0.028985277 -0.06463324 0.16614851
-0.10413738 0.03970397 -0.14789404 0.0523696 -0.110480934 -0.106601305 -0.005915181 -0.120483436
0.025888694 -0.024188489 -0.0010807824 -0.036698315 -0.04569097 0.04409179 0.07288405 0.046026748
-0.070009016 0.06914631 -0.018801522 -0.018524716 -0.0039856457 0.113332324 0.033977076 -0.011518753
0.14588377 0.08764459 -0.0997674 -0.072799 0.034803327 0.12719283 -0.02977954 -0.021668319
-0.002468033 0.13488998 0.0113063175 -0.08405997 -0.045317017 -0.07665997 0.037956312 -0.032762717
0.03093503 -0.008624755 0.03715811 -0.1277021 0.062148828 -0.027306229 0.06039401 0.09253659
0.0020200172 -0.06304828 0.048106436 -0.12982164 -0.056456987 0.08316571 -0.07279721 0.06551454
-0.005607052 -0.004497918 -0.017808562 0.004780241 -0.0628075 -0.09307163 -0.028987702 -0.09623468
-0.13130836 0.055502936 0.013189958 -0.056747254 0.014393761 -0.02292267 0.064649 0.13887356
-0.07691963 0.0459393 -0.11139277 -0.050009515 0.15364303 0.03544347 0.04031334 -0.055802234
-0.05739863 0.0024188743 0.10094506 -0.11213418 0.13076407 -0.031904425 0.012807358 0.12955955
0.030902924 0.07234634 -0.09258563 -0.10769769 0.038245283 0.03238972 -0.0062248954 0.11584822
-0.10260181 0.09413209 -0.015380155 0.038772497 0.016939681 0.065484196 0.09276273 -0.012579971
0.07691252 0.1703998 0.122933865 0.07742682 -0.08886407 0.02749379 0.10266727 0.11898342
0.060454745 0.11375609 0.17320855 0.050438546 0.0044476697 -0.050855525 -0.0012792983 -0.05111606
0.038372118 -0.0673508 0.14329761 -0.05772948 0.053204983 0.11320492 0.10241225 -0.15854189
-0.109261975 0.08684025 0.15574709 0.02559732 0.06737469 0.097383276 0.0003252537 -0.039576653
-0.09289895 -0.08814967 0.06838847 0.10064201 -0.08641269 -0.05705177 -0.0138564445 -0.08506755
0.07991906 -0.17570052 0.017361013 0.031241704 -0.055960808 -0.11277294 -0.04315802 0.017999748
-0.11571196 0.10788473 -0.07929265 0.11081543 -0.05796838 -0.041612107 -0.10919913 0.12810357
-0.091508076 -0.13970503 0.040190775 0.049203247 0.13493252 -0.015670285 -0.0005642822 -0.13916537
0.09393569 -0.08012923 0.11140948 0.049923044 0.046756536 -0.17674454 -0.094442114 -0.020450104
-0.026036268 0.061006576 0.039178465 0.0946758 -0.09504047 -0.07720944 -0.0040284637 0.079425566
-0.032692708 -0.1299168 -0.19533148 -0.2306369 -0.10994525 -0.020766428 -0.19656202 0.030348064
0.10990007 0.01727869 0.06141254 -0.1047532 0.072995 -0.05937631 0.09349089 -0.07561859
-0.056361943 0.09233377 -0.053009685 0.06400536 0.098605566 0.030145237 -0.005274125 -0.057903998
0.038609695 -0.11550138 -0.06835417 -0.04135235 -0.056988038 -0.09651482 0.11912325 -0.001885226
0.10063546 0.015406655 0.09480747 -0.11322193 -0.038667914 0.108198404 0.12591805 0.055349562
00000000: 0e94 cebd ebdf ebbd 24c1 5ebd 55a4 3ebe
00000010: f6a4 6c3d 6499 d3bd 044b b2bc 17d0 7b3d
00000020: ae55 11be 1e2e 3bbd aa98 77bb d5da 233d
00000030: 9b5d b3bc 9f98 963d e3e4 903d d77e 0bbe
00000040: c5ad 083e 7f1d 403e 2223 623d be13 fcbb
00000050: e11a 0d3d ab45 d7bc 6295 a0bd 90b2 493d
00000060: a8db f23d 88a5 583d dbb7 233d 13d5 27bd
00000070: 4c17 97bd 8872 ed3c 6f5e 84bd d622 2a3e
00000080: fb45 d5bd a1a0 223d 8971 17be 8181 563d
00000090: d443 e2bd c951 dabd 22d4 c1bb 05c0 f6bd
000000a0: 8714 d43c f026 c6bc 0aa9 8dba f950 16bd
000000b0: 7426 3bbd 9899 343d 3c44 953d 8b86 3c3d
000000c0: e360 8fbd 959c 8d3d a605 9abc 25c1 97bc
000000d0: 059a 82bb c71a e83d 8c2b 0b3d 27b9 3cbc
000000e0: 8e62 153e 027f b33d da52 ccbd a417 95bd
000000f0: ef8d 0e3d d63e 023e 39f4 f3bc c281 b1bc
00000100: b9be 21bb 9920 0a3e 223e 393c a227 acbd
00000110: 569e 39bd e7ff 9cbd 1478 1b3d 3332 06bd
00000120: 766b fd3c d84e 0dbc 1a33 183d 57c4 02be
00000130: c58f 7e3d 50b1 dfbc b65f 773d d383 bd3d
00000140: 4462 043b 751f 81bd 410b 453d f7ef 04be
00000150: 713f 67bd c952 aa3d b416 95bd 7d2c 863d
00000160: 5cbb b7bb 4563 93bb 43e3 91bc 91a3 9c3b
00000170: 38a1 80bd 579c bebd 9e77 edbc b016 c5bd
00000180: b375 06be 0c57 633d b21a 583c cf6f 68bd
00000190: cfd3 6b3c 53c8 bbbc b266 843d df34 0e3e
000001a0: 0a88 9dbd d92a 3c3d e521 e4bd c7d6 4cbd
000001b0: 9954 1d3e 2c2d 113d 9a1f 253d e290 64bd
000001c0: d31a 6bbd fa85 1e3b 49bc ce3d 9ba6 e5bd
000001d0: 04e7 053e 37ae 02bd f4d5 513c 42ab 043e
000001e0: 2128 fd3c 512a 943d 899d bdbd 9b90 dcbd
000001f0: 16a7 1c3d 15ab 043d 35fa cbbb d541 ed3d
00000200: e620 d2bd 53c8 c03d 0cfd 7bbc e9cf 1e3d
00000210: 16c5 8a3c 941c 863d 63fa bd3d 391c 4ebc
00000220: 5084 9d3d 497d 2e3e c0c4 fb3d f491 9e3d
00000230: 5efe b5bd a83a e13c 3843 d23d 94ad f33d
00000240: 659f 773d f4f8 e83d 955d 313e a698 4e3d
00000250: c2bd 913b e24d 50bd 21ae a7ba 135f 51bd
00000260: 152c 1d3d 37ef 89bd 9cbc 123e bf75 6cbd
00000270: 78ed 593d fbd7 e73d 84bd d13d ce58 22be
00000280: bec4 dfbd 4dd9 b13d 2a7c 1f3e 79b1 d13c
00000290: befb 893d e270 c73d d086 aa39 211b 22bd
000002a0: ce41 bebd d087 b4bd 410f 8c3d 661d ce3d
000002b0: 23f9 b0bd 1eaf 69bd 2406 63bc e537 aebd
000002c0: 9bac a33d d6ea 33be af38 8e3c 9aee ff3c
000002d0: 2937 65bd 80f5 e6bd 77c6 30bd 3574 933c
000002e0: 64fa ecbd abf2 dc3d 2f64 a2bd 33f3 e23d
000002f0: 4170 6dbd 7571 2abd cba3 dfbd 952d 033e
00000300: 9668 bbbd d60e 0fbe 159f 243d 5889 493d
00000310: c02b 0a3e f85e 80bc 56ec 13ba 5e81 0ebe
00000320: 5b61 c03d cb1a a4bd a72a e43d 1b7c 4c3d
00000330: c883 3f3d 85fc 34be de6a c1bd fa86 a7bc
00000340: 034a d5bc 08e2 793d 9979 203d 63e5 c13d
00000350: 94a4 c2bd fc1f 9ebd 3401 84bb dfa9 a23d
00000360: cae8 05bd e908 05be fa04 48be 142c 6cbe
00000370: fa2a e1bd 5b1e aabc 8e47 49be 819c f83c
00000380: 4a13 e13d 0a8c 8d3c b78b 7b3d d988 d6bd
00000390: 677e 953d 9334 73bd 2778 bf3d ebdd 9abd
000003a0: c8db 66bd 7d19 bd3d af20 59bd 3e15 833d
000003b0: b7f1 c93d 25f3 f63c 91d2 acbb be2c 6dbd
000003c0: 3325 1e3d fd8b ecbd 45fd 8bbd 1561 29bd
000003d0: 4a6c 69bd 90a9 c5bd e4f6 f33d b019 f7ba
000003e0: f719 ce3d 326c 7c3c 6b2a c23d e6e0 e7bd
000003f0: 3f62 1ebd 2097 dd3d a9f0 003e 39b6 623d

conv1.0.bias f4 [8]
0.13314284 0.0044429735 -0.035014898 0.12448531 0.07114543 0.10089549 -0.10861061 -0.011893678
00000000: 9956 083e 5d96 913b c86b 0fbd 27f2 fe3d
00000010: b2b4 913d 4ba2 ce3d 3d6f debd b4dd 42bc

conv1.1.weight f4 [8]
1.0062034 0.9824659 0.9976258 0.9555581 1.0063735 0.9503624 1.0203618 1.0577679
00000000: 46cb 803f e382 7b3f 6864 7f3f 759f 743f
00000010: d9d0 803f f34a 733f 379b 823f f064 873f

conv1.1.bias f4 [8]
4.0342427e-05 -0.04290605 -0.03130437 -0.008179054 -0.0052282307 0.07870504 -0.04370507 0.10208477
00000000: 5a35 2938 41be 2fbd 0339 00bd 7001 06bc
00000010: 9451 abbb 1c30 a13d 1604 33bd d211 d13d

conv1.1.running_mean f4 [8]
0.20089483 -0.02815171 -0.1027165 0.058341656 0.17681342 0.07804583 -0.114661776 -0.011219112
00000000: 60b7 4d3e 6a9e e6bc 075d d2bd a9f7 6e3d
00000010: 940e 353e 7ed6 9f3d cbd3 eabd 5ed0 37bc

conv1.1.running_var f4 [8]
0.049820278 0.0141393095 0.25550538 0.025062626 0.1436401 0.03395219 0.019992385 0.030176522
00000000: 5910 4c3d 90a8 673c 9ad1 823e 2350 cd3c
00000010: 6416 133e 7411 0b3d 12c7 a33c c134 f73c

conv2.0.weight f4 [16, 8, 4, 4]
0.06814595 0.096103 0.03037942 0.045363065 -0.08025037 0.07326274 -0.04700648 0.071025796
-0.07657604 0.06901565 0.05142392 0.017629962 -0.028419176 -0.10111528 -0.10192999 0.018095724
-0.01667295 0.09918224 0.07271109 -0.022344911 0.054885842 -0.06789581 0.02567631 -0.024657218
0.02789596 0.008418284 -0.052906252 0.022399737 0.037776597 0.02782846 -0.025404599 -0.08887346
-0.04231406 0.018219162 0.041951146 -0.038708795 -0.08704227 -0.019188736 -0.009865624 0.047859848
-0.037258826 -0.069821194 -0.012408794 -0.025834082 -0.10626363 -0.09261787 -0.076598346 -0.09546625
0.04240177 -0.025111208 0.031500533 0.0153578445 0.018711181 0.026871303 -0.05998738 -0.047787357
0.0016819345 -0.03071462 0.010136268 -0.0017850101 0.088283464 -0.019119162 0.005184923 -0.00010119334
0.06007822 -0.027288036 0.0037816323 0.044742744 0.040177315 0.0031833444 0.10086928 -0.009832672
0.053459 -0.03387573 0.082606316 0.049410857 -0.077498235 -0.024682727 -0.05282702 -0.039111987
-0.08284654 -0.09766443 0.006316354 0.0008721234 -0.005073002 -0.02154487 0.04250249 0.008499662
0.0037167068 0.06679324 0.04705176 0.0708653 -0.0054815025 0.007899058 -0.06812818 0.011423686
0.06965641 0.0013499768 0.08904216 0.04838784 0.07574992 0.039130304 0.025229579 0.053920016
-0.016571788 0.029776393 -0.011788132 0.056067884 -0.0033590926 0.09495877 0.027640633 0.09301036
0.000778013 0.016061813 -0.03213873 0.0064633028 -0.033005696 -0.005465124 -0.028563201 -0.024203459
0.073944405 0.01984012 0.049911313 0.047881942 0.05397489 -0.010134278 0.050072815 -0.033889778
0.025841314 0.0060135233 -0.031382576 -0.059867974 -0.046836812 -0.073118255 -0.037075277 0.0760783
0.051729966 0.0008123167 -0.007523596 0.07171323 -0.054191094 -0.0056728288 0.09370097 -0.049848337
0.019376986 0.034060974 -0.051318754 -0.07346287 -0.09213257 -0.05245766 -0.08466561 -0.03308878
0.010873895 -0.049825028 0.0600791 0.02914782 0.00065514364 -0.032136414 0.08145164 0.114594646
-0.10242694 -0.029854015 0.06560118 -0.019679455 0.06425228 0.034508515 0.04360424 -0.06070488
0.018386396 -0.011310944 -0.0850389 0.035979025 0.013985483 -0.05434891 0.020225525 0.062280584
-0.024071729 -0.03317464 0.0998474 -0.0076844012 -0.05348507 -0.04148935 -0.052943423 0.04221249
-0.026855204 -0.06177482 -0.08133402 0.014590937 -0.07027222 0.008297212 0.03836968 -0.011039139
-0.026548507 -0.063046 -0.004619852 0.003487095 -0.018097525 0.042660236 0.03441405 -0.051044043
-0.061253134 -0.065528296 -0.078068115 0.04698849 -0.007130385 -0.024519946 0.0967643 -0.03454435
-0.02899564 -0.03751045 -0.07443223 -0.052461468 0.038990203 -0.0351214 -0.090785116 -0.117586136
0.019604651 -0.03709778 -0.029538793 -0.014827909 0.013446264 -0.06744849 -0.038289163 0.014814892
0.015322618 -0.0030248463 -0.030305188 0.07037817 0.050138596 -0.051177688 -0.041771464 0.02140302
-0.0829978 -0.013413449 -0.17756465 -0.06049025 0.002061823 -0.07407167 -0.08509893 0.02511643
0.0251767 -0.059489768 0.004577855 -0.013678511 -0.16822617 -0.14036913 -0.09242087 0.016816854
-0.027992552 -0.21119714 -0.124239355 -0.074717514 -0.0023152283 -0.019228047 -0.07221984 0.028189234
00000000: 1b90 8b3d a6d1 c43d 43de f83c 9fce 393d
00000010: 4e5a a4bd c70a 963d de89 40bd f975 913d
00000020: e6d3 9cbd 1458 8d3d e3a1 523d b66c 903c
00000030: 55cf e8bc 8715 cfbd acc0 d0bd 7c3d 943c
00000040: b695 88bc 0f20 cb3d 8de9 943d ad0c b7bc
00000050: facf 603d f50c 8bbd 2057 d23c effd c9bc
00000060: 1186 e43c d8ec 093c 3ab4 58bd a77f b73c
00000070: a2bb 1a3d 83f8 e33c 4e1d d0bc 4a03 b6bd
00000080: 8251 2dbd 5a40 953c f7d4 2b3d 1d8d 1ebd
00000090: 3843 b2bd b231 9dbc 6da3 21bc b008 443d
000000a0: b69c 18bd 6afe 8ebd 414e 4bbc ffa1 d3bc
000000b0: bfa0 d9bd 70ae bdbd 98df 9cbd cf83 c3bd
000000c0: 7aad 2d3d 05b6 cdbc b406 013d 789f 7b3c
000000d0: 3148 993c 3521 dc3c 54b5 75bd adbc 43bd
000000e0: 5b74 dc3a 3a9d fbbc 9712 263c 00f7 e9ba
000000f0: f6cd b43d ca9f 9cbc 49e6 a93b c337 d4b8
00000100: 9414 763d 298b dfbc 43d5 773b 2b44 373d
00000110: f890 243d a89f 503b 8e94 ce3d 3719 21bc
00000120: d3f7 5a3d 47c1 0abd 802d a93d 0a63 4a3d
00000130: 65b7 9ebd 6e33 cabc 2561 58bd e433 20bd
00000140: 72ab a9bd 4a04 c8bd 6bf9 ce3b 369f 643a
00000150: 6d3b a6bb de7e b0bc 1717 2e3d 2b42 0b3c
00000160: fe93 733b e5ca 883d 59b9 403d d421 913d
00000170: 2d9e b3bb 0d6b 013c ca86 8bbd 692a 3b3c
00000180: 05a8 8e3d b4f1 b03a bc5b b63d 5432 463d
00000190: c622 9b3d 1947 203d 43ae ce3c 3cdb 5c3d
000001a0: 8fc1 87bc 9fed f33c 0223 41bc 70a7 653d
000001b0: 3924 5cbb be79 c23d 9c6e e23c 377c be3d
000001c0: 92f3 4b3a 1094 833c e7a3 03bd 1dca d33b
000001d0: fb30 07bd c814 b3bb 60fd e9bc 5546 c6bc
000001e0: 2a70 973d bf87 a23c ce6f 4c3d db1f 443d
000001f0: c614 5d3d 3e0a 26bc 2719 4d3d 02d0 0abd
00000200: 2ab1 d33c 170d c53b 048b 00bd 1f38 75bd
00000210: f5d7 3fbd 06bf 95bd 3fdc 17bd f1ce 9b3d
00000220: cde2 533d a7f1 543a 7f88 f6bb 63de 923d
00000230: 7bf7 5dbd 23e3 b9bb 4be6 bf3d c52d 4cbd
00000240: 7cbc 9e3c 8583 0b3d 9d33 52bd b473 96bd
00000250: 00b0 bcbd d8dd 56bd 2a65 adbd 1a88 07bd
00000260: 6c28 323c 5415 4cbd 8115 763d 69c7 ee3c
00000270: f2bd 2b3a 79a1 03bd 1ed0 a63d 99b0 ea3d
00000280: 37c5 d1bd 6890 f4bc e959 863d cf36 a1bc
00000290: b396 833d cd58 0d3d 5c9a 323d aea5 78bd
000002a0: 119f 963c 8a51 39bc e028 aebd be5e 133d
000002b0: 5e23 653c f69c 5ebd 00b0 a53c ed19 7f3d
000002c0: 1332 c5bc 22e2 07bd cb7c cc3d 6ecd fbbb
000002d0: 2913 5bbd bdf0 29bd 34db 58bd 01e7 2c3d
000002e0: 72ff dbbc 9807 7dbd 7392 a6bd d30e 6f3c
000002f0: e2ea 8fbd 08f1 073c 8729 1d3d 81dd 34bc
00000300: 417c d9bc 431e 81bd 2162 97bb bf87 643b
00000310: 4341 94bc 80bc 2e3d bff5 0c3d 8f13 51bd
00000320: 91e4 7abd b333 86bd 2de2 9fbd 0177 403d
00000330: 01a6 e9bb 0ede c8bc 5c2c c63d 607e 0dbd
00000340: 4488 edbc 8fa4 19bd ed6f 98bd d6e1 56bd
00000350: 31b4 1f3d 75db 0fbd 8ced b9bd 00d1 f0bd
00000360: ef99 a03c d7f3 17bd 57fb f1bc c2f0 72bc
00000370: b84d 5c3c 6f22 8abd 19d5 1cbd 29ba 723c
00000380: b80b 7b3c 803c 46bb 9642 f8bc 6e22 903d
00000390: 215e 4d3d b29f 51bd 8e18 2bbd 6355 af3c
000003a0: c0fa a9bd 15c4 5bbc 82d3 35be a0c4 77bd
000003b0: a61f 073b e3b2 97bd 5948 aebd f9c0 cd3c
000003c0: 5e3f ce3c 8bab 73bd d501 963b d51b 60bc
000003d0: 7b43 2cbe edbc 0fbe 2747 bdbd 80c3 893c
000003e0: a350 e5bc 1044 58be 3471 febd 7f05 99bd
000003f0: 16bb 17bb 2384 9dbc ffe7 93bd 1ced e63c

conv2.0.bias f4 [16]
-0.086979896 0.08312846 0.066480294 -0.012025188 -0.03513437 0.006950767 -0.035966538 -0.058301985
-0.020477295 0.042038165 -0.05908791 -0.033107344 -0.043593924 -0.084610686 0.068784036 -0.072059184
00000000: 8422 b2bd 413f aa3d d226 883d 4b05 45bc
00000010: 0fe9 0fbd 42c3 e33b a651 13bd 10ce 6ebd
00000020: 00c0 a7bc 3630 2c3d 2a06 72bd 919b 07bd
00000030: 8b8f 32bd 5e48 adbd a5de 8c3d c493 93bd

conv2.1.weight f4 [16]
0.97219443 1.0678737 0.981081 0.9832795 0.9903761 0.9816396 1.000836 1.0207874
0.9592403 1.0018752 1.0081561 1.0101049 1.0792087 0.99324316 1.0017259 0.99823314
00000000: bce1 783f 16b0 883f 2028 7b3f 35b8 7b3f
00000010: 4a89 7d3f bc4c 7b3f 651b 803f 29a9 823f
00000020: c690 753f 723d 803f 420b 813f 1e4b 813f
00000030: 8323 8a3f 2f45 7e3f 8e38 803f 358c 7f3f

conv2.1.bias f4 [16]
-0.0063777314 -0.0072314553 0.008928882 -0.08139991 -0.010446423 -0.041020736 -0.03318729 -0.042010713
-0.027958604 0.020837251 0.011098708 -0.0115637025 -0.041479915 0.020486832 0.021193335 -0.004301114
00000000: 4afc d0bb d8f5 ecbb 724a 123c ffb4 a6bd
00000010: 7927 2bbc 5c05 28bd 65ef 07bd 6d13 2cbd
00000020: 7109 e5bc e2b2 aa3c 5bd7 353c af75 3dbc
00000030: d8e6 29bd 00d4 a73c a59d ad3c 5cf0 8cbb

conv2.1.running_mean f4 [16]
0.06745773 -0.82624996 -0.18056768 1.0666769 -0.20895745 -0.22403786 -0.004989103 0.035045784
-0.1558389 -0.68908846 -0.02064739 0.5127874 -0.052770756 -0.4734278 0.06007828 0.14371416
00000000: 4727 8a3d 1e85 53bf bce6 38be de88 883f
00000010: f1f8 55be 2e6a 65be a17b a3bb 2b8c 0f3d
00000020: 3c94 1fbe 1a68 30bf b724 a9bc 0946 033f
00000030: 2626 58bd 2165 f2be a414 763d ce29 133e

conv2.1.running_var f4 [16]
0.27226588 0.35914683 0.51189995 0.34381342 0.21834868 0.121925026 0.07553032 0.17880845
0.49234104 0.42339045 0.15904653 0.21586871 0.3971268 0.2450375 0.22284953 0.2654141
00000000: 6f66 8b3e 18e2 b73e e00b 033f 5008 b03e
00000010: cc96 5f3e d4b3 f93d a4af 9a3d 9019 373e
00000020: 2014 fc3e a2c6 d83e 18dd 223e b00c 5d3e
00000030: 3454 cb3e 1ceb 7a3e ab32 643e 5be4 873e

conv3.0.weight f4 [32, 16, 4, 4]
0.022198504 -0.0043565454 -0.055622578 -0.06585582 -0.050034773 -0.0011070748 0.0022567706 -0.016566359
-0.040392194 -0.015321656 -0.0027010648 -0.046483453 -0.03697377 0.029518494 0.026834412 0.0112651065
-0.08098294 -0.03355519 -0.010480404 -0.0005816334 -0.022033498 -0.0301536 0.034913212 -0.039150037
-0.042953793 -0.06691902 -0.018032162 0.0013450979 -0.03318233 0.0072499556 -0.040701337 -0.06173223
0.051759496 -0.0044097914 -0.0023643728 0.02894438 0.018438358 -0.012806251 0.008293418 0.058416314
0.010804786 0.0455617 0.013603735 -0.0060622925 0.009335493 0.019665362 0.021196628 0.012292862
-0.0010466886 -0.009404371 -0.031173803 -0.067277186 -0.01038444 0.055817425 -0.02802532 -0.03807
0.02372568 -0.0281653 -0.03944009 -0.053630017 0.04198584 -0.029078148 0.046739664 -0.06080246
0.047346298 0.014304296 0.03105729 0.025375996 0.003535835 0.00825048 0.035984658 -0.015391222
-0.008526882 -0.023891347 -0.015688049 0.025446037 -0.048204288 0.059421062 -0.0090072965 -0.01043947
-0.0054088756 0.033184577 0.009851868 -0.023308262 -0.030383822 0.030401265 0.0053409557 0.0017978457
0.056861833 -0.028284645 0.01142185 0.024444599 -0.01144879 -0.052001398 -0.009282019 -0.033178326
0.07444854 0.035453 0.006183392 0.0011175917 0.03482598 -0.0015536872 -0.033362936 -0.0179575
0.025459465 -0.0639338 -0.06298791 -0.018964939 0.04832426 -0.024501817 -0.03967898 0.019176763
0.008529074 0.04751918 -0.05417672 -0.062208336 0.06551038 -0.0039110593 -0.049286757 -0.03813546
-0.06908945 0.008175975 -0.07644876 -0.11842241 -0.011077041 0.06970178 -0.0019535115 -0.04822931
-0.008591037 -0.05159562 -0.026917325 -0.044702962 -0.009026827 0.04301447 -0.015502294 -0.027749011
-0.045462217 -0.017148625 -4.2194602e-05 -0.050193045 -0.035676017 0.02798967 0.0097012175 -0.075391866
-0.015744299 0.03205145 0.0408681 -0.04592064 -0.0055949483 -0.052697435 -0.0012655326 -0.038617272
-0.05279938 -0.046690244 -0.011973669 0.06786849 0.016965862 0.027627688 -0.046995368 -0.069782935
0.044641577 0.07956997 0.007468271 0.036533777 -0.022162115 0.006567937 -0.007318141 0.010116133
0.06790934 0.046095937 0.042320922 -0.029184148 0.042423043 -0.038973853 0.016822314 0.027281595
0.016412545 0.04267243 -0.0008222044 -0.0738183 -0.008098461 0.017557055 -0.08469807 -0.05739655
0.06844336 0.029483981 0.04521705 0.0052855737 0.05359985 -0.04364467 -0.057692062 0.004372167
-0.03725881 0.008134219 0.042995505 -0.07573579 0.026220132 -0.014263691 -0.045555323 -0.08603534
-0.017153665 -0.089762956 -0.04015614 -0.12533064 -0.057350285 0.04240047 -0.061596356 -0.05290519
0.051797245 0.012469525 0.03487428 -0.026217015 0.019649258 0.0043149036 -0.002989693 -0.027111482
0.03347696 0.03336714 0.03560733 -0.010430016 -0.017199673 -0.07684338 0.032376926 -0.010570306
0.07065295 0.05379473 -0.038756993 -0.032439154 0.019254696 -0.04981119 -0.037599698 0.02358144
0.004916556 0.04112958 0.052120507 -0.04648701 -0.037882227 0.042347893 -0.07305408 -0.012355352
-0.008822228 0.005879514 0.018517187 0.001465617 0.0641587 -0.027734973 0.041168354 0.044672303
0.041352205 0.046031307 -0.076197244 -0.08639846 -0.0328077 -0.0054586967 -0.0564052 -0.048915062
00000000: a3d9 b53c 5ac1 8ebb 80d4 63bd 6bdf 86bd
00000010: 43f1 4cbd 441b 91ba 54e6 133b 2cb6 87bc
00000020: 4972 25bd af07 7bbc 5904 31bb 6f65 3ebd
00000030: cf71 17bd c5d0 f13c d7d3 db3c 4891 383c
00000040: 62da a5bd 2b71 09bd 00b6 2bbc c278 18ba
00000050: 987f b4bc af04 f7bc 2801 0f3d ca5b 20bd
00000060: 51f0 2fbd d70c 89bd 2fb8 93bc ff4d b03a
00000070: 32ea 07bd 0991 ed3b 72b6 26bd efda 7cbd
00000080: c401 543d 0380 90bb 98f3 1abb c41c ed3c
00000090: 0a0c 973c 4fd1 51bc 1ee1 073c f245 6f3d
000000a0: 8f06 313c e89e 3a3d 33e2 5e3c 32a6 c6bb
000000b0: e5f3 183c 4119 a13c 8da4 ad3c 0068 493c
000000c0: 0b31 89ba ca14 1abc 3460 ffbc 9fc8 89bd
000000d0: 8023 2abc d0a0 643d 5b95 e5bc 4aef 1bbd
000000e0: 5b5c c23c eaba e6bc ef8b 21bd 26ab 5bbd
000000f0: 58f9 2b3d 4c35 eebc 1772 3f3d 000c 79bd
00000100: 31ee 413d 915c 6a3c dc6b fe3c 52e1 cf3c
00000110: 78b9 673b 052d 073c a664 133d 772b 7cbc
00000120: 56b4 0bbc c9b7 c3bc 3984 80bc 3574 d03c
00000130: dc71 45bd 8063 733d 5793 13bc 500a 2bbc
00000140: f03c b1bb 8dec 073d bb69 213c f8f0 bebc
00000150: 7ee7 f8bc 130c f93c 2f03 af3b b1a5 eb3a
00000160: f4e7 683d 33b5 e7bc b622 3b3c 0a40 c83c
00000170: b593 3bbc 6bff 54bd 9c13 18bc ffe5 07bd
00000180: 7a78 983d 2a37 113d 0d9e ca3b 287c 923a
00000190: b0a5 0e3d 17a5 cbba 93a7 08bd 9b1b 93bc
000001a0: 5e90 d03c b9ef 82bd ceff 80bd 5c5c 9bbc
000001b0: a9ef 453d 09b8 c8bc 6d86 22bd 9618 9d3c
000001c0: 87bd 0b3c 79a3 423d 69e8 5dbd 2bce 7ebd
000001d0: 4e2a 863d 5828 80bb e9e0 49bd ee33 1cbd
000001e0: c57e 8dbd 86f4 053c 2b91 9cbd 7387 f2bd
000001f0: 7a7c 35bc cfbf 8e3d 7c06 00bb 198c 45bd
00000200: 6cc1 0cbc ee55 53bd b981 dcbc 741a 37bd
00000210: 42e5 13bc f12f 303d 55fd 7dbc e551 e3bc
00000220: 9736 3abd 467b 8cbc 1cfa 30b8 3997 4dbd
00000230: 0421 12bd 984a e53c dbf1 1e3c 0d67 9abd
00000240: 30fa 80bc 6248 033d 4f65 273d 4817 3cbd
00000250: d455 b7bb 44d9 57bd 3ae0 a5ba 252d 1ebd
00000260: 2a44 58bd 453e 3fbd 352d 44bc a3fe 8a3d
00000270: fefb 8a3c 7653 e23c 377e 40bd 5bea 8ebd
00000280: 16da 363d 95f5 a23d 66b8 f43b 71a4 153d
00000290: 538d b5bc d937 d73b 04cd efbb 23be 253c
000002a0: 0d14 8b3d 18cf 3c3d b458 2d3d 9813 efbc
000002b0: c9c3 2d3d 0ca3 1fbd f3ce 893c a77d df3c
000002c0: 9a73 863c 49c9 2e3d 3489 57ba 0d2e 97bd
000002d0: 68af 04bc d0d3 8f3c 2f76 adbd a518 6bbd
000002e0: 082c 8c3d 6488 f13c 8335 393d 9b32 ad3b
000002f0: 848b 5b3d c1c4 32bd 834e 6cbd 6544 8f3b
00000300: b29c 18bd 6345 053c 0e1c 303d 5e1b 9bbd
00000310: 9acb d63c 42b2 69bc 3898 3abd 4c33 b0bd
00000320: d885 8cbc a4d5 b7bd c47a 24bd ad56 00be
00000330: 22e8 6abd 1dac 2d3d 764c 7cbd 1db3 58bd
00000340: 5929 543d fb4c 4c3c 55d8 0e3d 11c5 d6bc
00000350: 7bf7 a03c 0964 8d3b baee 43bb e618 debc
00000360: 231f 093d fbab 083d fed8 113d a8e2 2abc
00000370: 54e6 8cbc 1060 9dbd ab9d 043d 142f 2dbc
00000380: 7eb2 903d dd57 5c3d a7bf 1ebd ebde 04bd
00000390: 06bc 9d3c d206 4cbd 2402 1abd dd2d c13c
000003a0: 101b a13b 7e77 283d 507c 553d 2a69 3ebd
000003b0: 652a 1bbd fc74 2d3d 619d 95bd 1a6e 4abc
000003c0: 1b8b 10bc f0a8 c03b 5bb1 973c f219 c03a
000003d0: a365 833d 7434 e3bc 26a0 283d 4efa 363d
000003e0: ee60 293d 538b 3c3d 4d0d 9cbd adf1 b0bd
000003f0: 5e61 06bd dede b2bb 2409 67bd 295b 48bd

conv3.0.bias f4 [32]
0.014410104 0.057896942 0.01412831 -0.059077673 0.004110524 -0.05510814 -0.023652487 0.06103899
0.034488093 0.020831192 -0.014882198 0.031059733 0.031211687 -0.0072636902 -0.06155256 0.010479846
-0.031744644 0.018385531 0.04713799 0.02564063 0.04617474 0.05081587 0.011198728 0.04684492
0.011688248 -0.0406483 -0.011644425 -0.012944499 -0.06227673 -0.05070178 -0.053773377 0.05977496
00000000: 5b18 6c3c 5825 6d3d 6d7a 673c 6efb 71bd
00000010: 93b1 863b 13b9 61bd dcc2 c1bc 0504 7a3d
00000020: 6343 0d3d 2da6 aa3c 76d4 73bc fb70 fe3c
00000030: a7af ff3c 4004 eebb 8a1e 7cbd a9b3 2b3c
00000040: ac06 02bd 419d 963c c413 413d 4c0c d23c
00000050: b921 3d3d 4d24 503d df7a 373c 75e0 3f3d
00000060: 1180 3f3c d57e 26bd 42c8 3ebc 2a15 54bc
00000070: e215 7fbd abac 4fbd 7941 5cbd 97d6 743d

conv3.1.weight f4 [32]
0.98781145 0.99138033 1.0039357 1.0364622 0.9773643 0.99143445 0.9869999 0.9840894
0.9736931 1.0078996 0.9873351 0.98832315 1.0343102 0.97374743 1.0097773 1.0172213
1.0087626 1.0114228 0.9984119 0.9993758 0.9833751 1.0502522 1.0003864 1.0039951
0.9769438 0.97442526 1.0456023 1.011388 0.98937535 1.0389748 1.0654149 1.0082058
00000000: 36e1 7c3f 1acb 7d3f f780 803f cbaa 843f
00000010: 8c34 7a3f a6ce 7d3f 07ac 7c3f 48ed 7b3f
00000020: f343 793f db02 813f fec1 7c3f bf02 7d3f
00000030: 4764 843f 8347 793f 6240 813f 4f34 823f
00000040: 221f 813f 4d76 813f ec97 7f3f 18d7 7f3f
00000050: 78be 7b3f aa6e 863f a90c 803f e982 803f
00000060: fd18 7a3f ef73 793f 4cd6 853f 2975 813f
00000070: b447 7d3f 20fd 843f 845f 883f e30c 813f

conv3.1.bias f4 [32]
-0.070571624 -0.007399428 -0.018668175 -0.16745123 -0.026362235 -0.009425232 0.022926783 0.00053363084
0.023564111 -0.01748466 -0.003198348 0.051554695 0.07508542 -0.027656177 -0.016179862 -0.041444764
0.013311588 -0.011128193 -0.005203131 -0.05837312 -0.013822669 -0.035890426 0.008405218 -0.013564989
-0.006107627 -0.014531048 -0.012805904 0.009428191 -0.045305595 -0.039881207 -0.062839665 0.002514426
00000000: db87 90bd e776 f2bb 00ee 98bc 5678 2bbe
00000010: 9df5 d7bc 4a6c 1abc f3d0 bb3c 5ce3 0b3a
00000020: 8609 c13c fd3b 8fbc 609b 51bb 042b 533d
00000030: 62c6 993d 358f e2bc a18b 84bc fcc1 29bd
00000040: d918 5a3c 0653 36bc 077f aabb a718 6fbd
00000050: 7a78 62bc d701 13bd 0ab6 093c b03f 5ebc
00000060: 7d22 c8bb a213 6ebc dbcf 51bc b378 1a3c
00000070: 5c92 39bd 7a5a 23bd 15b2 80bd 11c9 243b

conv3.1.running_mean f4 [32]
-0.5478157 -0.6165488 -0.15293038 -0.070175685 -0.38196367 0.28949508 -0.11082656 0.034273088
-0.078307 -0.28068396 -0.25798586 -0.5537285 -0.48680258 -0.88233864 -0.38744658 -0.32142428
-0.4314496 -0.15835536 0.061075944 0.15250371 -0.5795393 -0.030599924 -0.27389607 -0.27436927
0.17081223 -0.39633113 -0.30910596 -0.5282626 -0.118471 0.16518988 -0.5151644 -0.4336319
00000000: a63d 0cbf 24d6 1dbf c899 1cbe 45b8 8fbd
00000010: be90 c3be b338 943e 09f9 e2bd f061 0c3d
00000020: 6c5f a0bd cfb5 8fbe b916 84be 27c1 0dbf
00000030: 303e f9be f2e0 61bf 665f c6be b991 a4be
00000040: f6e6 dcbe e827 22be c52a 7a3d ef29 1c3e
00000050: b05c 14bf b1ac fabc 1b3c 8cbe 217a 8cbe
00000060: 67e9 2e3e eaeb cabe 2343 9ebe 383c 07bf
00000070: eca0 f2bd 8927 293e d0e1 03bf 0005 debe

conv3.1.running_var f4 [32]
0.20296998 0.28418472 0.13274482 0.19697522 0.23987451 0.21179336 0.41670254 0.25662956
0.10935041 0.308429 0.20684744 0.28488967 0.39884222 0.1623254 0.18920852 0.14400655
0.18135652 0.18308161 0.16516027 0.120832875 0.19184528 0.13157694 0.2512752 0.24410427
0.18626554 0.1867084 0.12673837 0.3919317 0.22683376 0.15885253 0.14089967 0.23438032
00000000: 5dd7 4f3e a980 913e 42ee 073e dfb3 493e
00000010: aaa1 753e 5ce0 583e 095a d53e f364 833e
00000020: 1cf3 df3d 68ea 9d3e d1cf 533e 0fdd 913e
00000030: 0c35 cc3e a138 263e e1bf 413e 7476 133e
00000040: 86b5 393e bf79 3b3e c61f 293e 3a77 f73d
00000050: 1773 443e 1bbc 063e 25a7 803e 78f6 793e
00000060: 65bc 3e3e 7d30 3f3e b4c7 013e 46ab c83e
00000070: 1c47 683e 3daa 223e 0148 103e 6501 703e

deconv2.0.weight f4 [32, 16, 4, 4]
-0.07961872 0.0124258725 -0.018491112 0.010972973 -0.04202826 0.015438921 -0.023690535 0.0015338347
-0.04808834 0.0029728755 -0.038631268 -0.062647596 -0.0364804 0.040116962 -0.05531998 0.031723227
0.0119374255 -0.014727784 0.021894358 -0.08866387 -0.028133344 0.025342789 0.1125818 0.014102856
0.026276242 -0.02509263 0.043012116 0.012247106 -0.064268105 0.055428736 0.043327585 0.0047429306
0.048556227 0.0023523828 0.04822143 0.0031071277 0.0285239 0.04574619 0.0016367894 0.022555487
0.039467737 0.0318341 0.00045453047 0.021918572 0.011355055 -0.05524748 0.004422761 0.004612624
-0.02548914 0.032877292 -0.0358538 0.036692478 -0.07160547 -0.09584771 0.106424004 -0.03137566
-0.08047698 0.017708952 -0.07185722 -0.0029208078 -0.015303937 -0.12037579 0.074025154 -0.12035423
0.011902361 0.053964756 -0.007952989 0.001768973 -0.033190805 -0.07465391 -0.03520763 -0.020075724
0.0026313243 0.037590012 -0.010334895 0.02628176 0.06278586 0.038963474 0.010688202 0.020939535
-0.025498075 0.02012002 -0.040184874 -0.06652494 0.0553576 0.032137096 0.04537549 -0.0015266816
0.0055540246 -0.009006197 -0.06546615 -0.08423638 -0.019752348 0.01527194 0.025828194 0.008647921
-0.012099759 -0.043140072 -0.07687214 0.014123494 0.05449529 -0.07467091 0.010169902 -0.019395597
-0.023590844 -0.022297295 -0.0021271044 0.009807448 0.023466716 0.04421543 0.036603212 -0.013729543
-0.0782785 0.022081299 0.0014316387 0.011337643 -0.017166529 0.012936859 0.011535582 0.0062557342
-0.06883825 0.0056083687 0.04921839 0.016883573 -0.024020173 0.0319325 -0.026067728 0.0074640717
0.006351528 -0.00968647 -0.013414379 -0.008141705 -0.048605647 -0.046043947 0.005360462 -0.036582623
0.03341984 -0.033712424 0.030275831 -0.04989629 -0.02052863 0.046639282 0.020439759 -0.047046337
-0.0065193386 -0.017706506 0.014795997 -0.04367866 0.04628055 -0.018486034 -0.1253692 0.012569883
0.059268657 -0.020856349 0.047132365 -0.09703892 0.06467857 -0.010569733 -0.1245548 -0.01070697
-0.047097236 -0.084334135 -0.051363736 -0.08233403 0.027148254 -0.018651228 -0.037892573 -0.02369186
-0.034248512 -0.09526888 -0.0057860157 -0.03706835 0.036823727 -0.0068007805 0.014802908 0.0044786236
-0.059953514 -0.030558156 -0.05905881 -0.07112842 -0.0029125009 -0.05255209 0.016335573 -0.10101637
-0.07540196 -0.0648913 -0.0572902 -0.025946971 -0.040352624 -0.0367287 0.014508884 -0.021089142
-0.011523568 0.018739874 -0.0631136 0.034928437 -0.06014651 -0.008721574 -0.0022106601 -0.043616064
-0.010691884 0.061967034 -0.06149418 0.0416705 -0.011543622 -0.020815713 0.011600867 -0.007963188
0.0008939795 -0.013661826 -0.063207865 -0.009394801 0.072410926 0.046685766 -0.01859451 0.027147356
0.015517421 -0.015743596 -0.06128669 0.008475324 0.0760073 0.0054787262 0.038624343 0.033139735
-0.07002941 -0.004032116 -0.016382316 -0.038298517 0.008820802 -0.020308685 0.019495917 -0.004137414
-0.044026993 -0.05642447 -0.054185253 -0.08137735 -0.00037993578 -0.04313631 -0.005286173 -0.031092433
-0.03298405 -0.061558492 0.0041440576 0.021124301 -0.015541186 -0.023293655 -0.10071126 0.029145163
-0.03490732 -0.04646508 0.014737423 -0.069408774 0.08732395 -0.024338212 -0.06438803 0.0061566345
00000000: 240f a3bd e395 4b3c ac7a 97bc fcc7 333c
00000010: d325 2cbd 87f3 7c3c a712 c2bc f40a c93a
00000020: 47f8 44bd 93d4 423b d23b 1ebd 624d 80bd
00000030: 796c 15bd af51 243d 3497 62bd 37f0 013d
00000040: 3195 433c ce4c 71bc cc5b b33c 6795 b5bd
00000050: e677 e6bc ae9b cf3c 4991 e63d aa0f 673c
00000060: 4641 d73c 0f8f cdbc 792d 303d 16a8 483c
00000070: ff9e 83bd 3e09 633d 4478 313d 966a 9b3b
00000080: e5e2 463d 6f2a 1a3b d683 453d f4a0 4b3b
00000090: f4aa e93c 5b60 3b3d 8a89 d63a 49c6 b83c
000000a0: eca8 213d 7964 023d 0c4e ee39 948e b33c
000000b0: 8d0a 3a3c 2e4b 62bd cfec 903b 7f25 973b
000000c0: 9ace d0bc 57aa 063d 6fdb 12bd da4a 163d
000000d0: e3a5 92bd ce4b c4bd d4f4 d93d c483 00bd
000000e0: 1dd1 a4bd 5d12 913c e129 93bd 066b 3fbb
000000f0: 5dbd 7abc 9587 f6bd 809a 973d 477c f6bd
00000100: 1f02 433c 260a 5d3d 414d 02bc e2dc e73a
00000110: 15f3 07bd 26e4 98bd e035 10bd d875 a4bc
00000120: 4c72 2c3b fcf7 193d b153 29bc d84c d73c
00000130: df95 803d 2a98 1f3d 921d 2f3c 6389 ab3c
00000140: 57e1 d0bc bdd2 a43c e598 24bd 3a3e 88bd
00000150: a7be 623d 30a2 033d a6db 393d ef1a c8ba
00000160: 89fe b53b ba8e 13bc 1e13 86bd 2084 acbd
00000170: adcf a1bc 2937 7a3c a695 d33c 02b0 0d3c
00000180: 113e 46bc a5b3 30bd 246f 9dbd 3a66 673c
00000190: 7436 5f3d 10ed 98bd a99f 263c 84e3 9ebc
000001a0: 9641 c1bc d1a8 b6bc e466 0bbb 6baf 203c
000001b0: 453d c03c 3d1b 353d 40ed 153d e1f1 60bc
000001c0: 7a50 a0bd d7e3 b43c d3a5 bb3a 85c1 393c
000001d0: d2a0 8cbc 1ff5 533c bdff 3c3c e7fc cc3b
000001e0: 12fb 8cbd 68c6 b73b 3999 493d 6b4f 8a3c
000001f0: f4c5 c4bc a7cb 023d fd8b d5bc 2c95 f43b
00000200: 7b20 d03b 00b4 1ebc fcc7 5bbc c964 05bc
00000210: b716 47bd 9498 3cbd d0a6 af3b a9d7 15bd
00000220: 3ee3 083d 0a16 0abd 0505 f83c 0d60 4cbd
00000230: a82b a8bc d508 3f3d 4871 a73c a9b3 40bd
00000240: 2da0 d5bb 3c0d 91bc e96a 723c 65e8 32bd
00000250: ad90 3d3d 0670 97bc c960 00be e9f1 4d3c
00000260: b1c3 723d efda aabc de0d 413d 57bc c6bd
00000270: 3376 843d ac2c 2dbc 9616 ffbd 496c 2fbc
00000280: 08e9 40bd 60b7 acbd c862 52bd be9e a8bd
00000290: 0466 de3c 76ca 98bc 3e35 1bbd 6e15 c2bc
000002a0: 2b48 0cbd 551c c3bd 9e98 bdbb fbd4 17bd
000002b0: 7ad4 163d 15d9 debb e587 723c 6bc1 923b
000002c0: d191 75bd 1955 fabc a7e7 71bd c7ab 91bd
000002d0: a8df 3ebb dc40 57bd 2ed2 853c ace1 cebd
000002e0: 586c 9abd bbe5 84bd 21a9 6abd be8e d4bc
000002f0: cb48 25bd d570 16bd acb6 6d3c 23c3 acbc
00000300: 59cd 3cbc 5d84 993c b441 81bd 1f11 0f3d
00000310: 305c 76bd efe4 0ebc b9e0 10bb c2a6 32bd
00000320: 032d 2fbc 25d1 7d3d 52e1 7bbd b0ae 2a3d
00000330: 7621 3dbc b785 aabc 9011 3e3c 0878 02bc
00000340: f359 6a3a dad5 5fbc 2073 81bd a7ec 19bc
00000350: 2e4c 943d 9339 3f3d 8453 98bc 2264 de3c
00000360: c83c 7e3c b7f8 80bc c107 7bbd 16dc 0a3c
00000370: b7a9 9b3d e386 b33b 8f34 1e3d 88bd 073d
00000380: 946b 8fbd d71f 84bb 3534 86bc e8de 1cbd
00000390: 2085 103c 665e a6bc e7b5 9f3c 2593 87bb
000003a0: a655 34bd 581d 67bd 5bf1 5dbd 2ba9 a6bd
000003b0: 1e32 c7b9 b3af 30bd a237 adbb 8fb5 febc
000003c0: 491a 07bd c224 7cbd e0ca 873b df0c ad3c
000003d0: 75a0 7ebc 56d2 bebc b541 cebd d6c1 ee3c
000003e0: fafa 0ebd 2b52 3ebd 3b75 713c 3026 8ebd
000003f0: e6d6 b23d ee60 c7bc dfdd 83bd 98bd c93b

deconv2.0.bias f4 [16]
0.0295212 -0.060233794 0.030091118 0.02662103 0.038659517 -0.056255896 0.048499778 -0.016368063
-0.060531363 0.05169536 0.02737827 -0.055334862 0.02560795 -0.014358213 0.014948785 0.016252201
00000000: 72d6 f13c b6b7 76bd a681 f63c 5914 da3c
00000010: 7159 1e3d 956c 66bd b4a7 463d 5116 86bc
00000020: bcef 77bd 84be 533d 6548 e03c cfa6 62bd
00000030: c3c7 d13c b63e 6bbc c0eb 743c 5623 853c

deconv2.1.weight f4 [16]
0.9519065 1.0110736 1.0038989 0.9741627 0.9884578 0.9473225 0.94876724 0.9428116
0.9650808 1.0258415 0.9633037 1.1106632 0.9840811 0.95377016 1.0444367 1.0012114
00000000: 25b0 733f dc6a 813f c27f 803f ba62 793f
00000010: 920b 7d3f ba83 723f 69e2 723f 1a5c 713f
00000020: 890f 773f c64e 833f 129b 763f 362a 8e3f
00000030: bdec 7b3f 482a 743f 1ab0 853f b227 803f

deconv2.1.bias f4 [16]
0.008611091 0.09001862 0.05481065 0.013439505 0.02117563 0.015387781 0.028850557 -0.04375604
-0.014591989 0.13447966 0.031923633 -0.049791425 -0.03425451 0.027089441 0.044135325 0.017978124
00000000: 8915 0d3c af5b b83d 2281 603d 5f31 5c3c
00000010: 8478 ad3c 081d 7c3c 0158 ec3c 8939 33bd
00000020: 3d13 6fbc 09b5 093e 5bc2 023d 18f2 4bbd
00000030: 754e 0cbd adea dd3c 3ec7 343d dc46 933c

deconv2.1.running_mean f4 [16]
-0.71657825 -0.58145255 -0.2883658 -0.59526765 -0.26284707 -0.83853334 -0.52662235 -0.39696974
-0.70399725 -0.828122 -0.9282039 -0.77183646 -0.036661625 -0.2411771 -0.8163378 -0.910208
00000000: ac71 37bf 13da 14bf afa4 93be 7663 18bf
00000010: e493 86be 1faa 56bf b9d0 06bf 9e3f cbbe
00000020: 2a39 34bf ceff 53bf c59e 6dbf 1397 45bf
00000030: 802a 16bd 21f7 76be 84fb 50bf 6403 69bf

deconv2.1.running_var f4 [16]
0.7880239 0.87417555 0.89766973 0.6815061 0.5368774 1.458089 1.3082365 0.7148904
0.5453261 2.1675682 1.811694 0.12193859 0.34434247 1.1821296 0.56337255 0.7876268
00000000: efbb 493f f8c9 5f3f afcd 653f 2f77 2e3f
00000010: cc70 093f a9a2 ba3f 4b74 a73f 0f03 373f
00000020: 7e9a 0b3f 70b9 0a40 97e5 e73f f1ba f93d
00000030: a84d b03e 0650 973f 2f39 103f e9a1 493f

deconv3.0.weight f4 [16, 8, 4, 4]
-0.05652122 0.01894669 -0.012278581 -0.09229438 -0.0850446 -0.05130068 0.021025674 -0.018200954
-0.05656458 0.021059627 0.021924788 0.07162694 -0.061559312 -0.032928433 0.035257656 -0.0063065398
-0.00755456 -0.038067747 0.022578042 0.08154371 0.036456 0.02743873 0.056304764 0.02168334
-0.0063281893 0.0947416 0.050921015 0.040160898 0.0014847022 0.067736164 0.06328573 -0.02800278
0.05310548 0.032151055 -0.02886773 0.06318666 0.04956021 0.13122064 0.014594541 0.028205505
0.019763146 0.072105676 -0.05349714 0.06838663 0.0147048645 0.028823404 -0.008389791 -0.010366121
0.02823824 0.09234086 -0.06691669 0.0005613517 0.0068142265 -0.03617703 0.028994082 0.08616967
0.035626035 0.08339147 -0.023403177 0.076113485 0.030806128 0.030634113 0.01850667 0.023041736
0.033977356 0.053747673 -0.009632087 -0.04998633 0.035070375 0.012884627 0.018048164 -0.06454707
-0.019384988 0.039937183 -0.034711976 0.004970922 0.0030317078 0.017889094 -0.012057412 0.046950907
0.019008417 -0.020025074 0.0018273245 -0.0013449523 0.008563525 -0.010521958 0.017400894 0.07034674
-0.00064250035 0.043632127 -0.03959228 -0.0065110615 0.051628124 0.011000358 0.028337665 0.02050469
-0.028550483 -0.08026361 -0.031162843 -0.061733212 0.044503022 -0.04127789 -0.0051075565 -0.018272502
0.008034446 0.08140859 0.032938655 0.006832108 0.0039128684 -0.03278908 -0.021768386 -0.046417728
0.04037222 0.0786367 0.03343036 0.0304342 0.021741157 0.100618035 -0.058849964 -0.029129794
0.047777288 -0.07463202 -0.025574768 -0.009287027 0.04613521 0.056450073 -0.030421305 0.038160406
-0.0124969175 0.005825046 0.063338734 -0.09103183 -0.040394682 -0.03575117 0.13866886 0.050338782
0.017466938 0.013472769 0.03272197 -0.009238184 -0.0052799345 -0.035487566 0.051377326 0.0030340478
0.049381956 -0.096355304 0.0019075494 -0.03570412 -0.028065998 -0.07842425 0.09685955 -0.047830235
0.016275119 -0.0024716945 0.009641961 0.017086549 0.000931509 0.0031412928 0.043006364 0.030551368
0.010095453 0.021454839 0.11133119 -0.0025501454 -0.0024826885 0.0064383755 -0.010585808 0.053587712
-0.01660917 0.03491716 0.00178772 -0.0068178284 -0.021256998 -0.022726802 0.029954053 -0.05783095
-0.07806279 -0.032729816 0.060203545 -0.03397288 0.078293435 -0.049246665 -0.04832549 0.041546647
-0.049920883 0.03347248 0.106559664 0.0131237935 0.05134314 0.0031603433 -0.050524395 0.041131716
0.048829306 -0.0028687362 0.020536873 0.05160416 0.07940462 0.057266157 -0.033638004 0.026136985
0.04985237 0.0378911 0.03480043 0.110705204 0.008491581 -0.032601252 0.044668183 0.015623062
0.022959776 -0.057584748 -0.036877383 0.061254084 -0.04307049 0.04388431 0.12256614 0.12592617
0.010123492 0.0537855 0.0018912648 0.11501389 0.092822656 0.028436484 0.083851315 0.120334536
-0.034341414 -0.088314 -0.019288413 0.02464083 0.036600206 0.020613415 0.10677629 -0.00089409365
0.02647966 -0.028598892 0.019094184 0.019617336 -0.004183787 0.0034820526 0.10738892 0.034747917
0.021870043 0.047767907 -0.0069707264 0.051468283 0.01326424 -0.015885755 -0.07625741 -0.08401267
-0.04942351 -0.010234382 -0.04177467 -0.064737044 -0.01420899 -0.011498306 -0.09815615 -0.07877965
00000000: cb82 67bd 1736 9b3c 1a2c 49bc d604 bdbd
00000010: dd2b aebd a920 52bd 093e ac3c 2b1a 95bc
00000020: 43b0 67bd 3d85 ac3c 9d9b b33c 25b1 923d
00000030: 9e25 7cbd f7df 06bd 556a 103d 17a7 cebb
00000040: 3e8c f7bb edec 1bbd 96f5 b83c 6300 a73d
00000050: e352 153d 30c7 e03c d39f 663d 43a1 b13c
00000060: b35c cfbb e207 c23d 8e92 503d c17f 243d
00000070: 579a c23a 42b9 8a3d f39b 813d 1666 e5bc
00000080: 2285 593d d3b0 033d 057c ecbc 0268 813d
00000090: a6ff 4a3d b45e 063e f11d 6f3c 3b0f e73c
000000a0: 52e6 a13c 24ac 933d d11f 5bbd 4a0e 8c3d
000000b0: acec 703c 0f1f ec3c 5575 09bc aad6 29bc
000000c0: e253 e73c 341d bd3d 9e0b 89bd ad27 133a
000000d0: e049 df3b 5e2e 14bd ff84 ed3c b979 b03d
000000e0: 9bec 113d 26c9 aa3d 05b8 bfbc 63e1 9b3d
000000f0: 225d fc3c 64f4 fa3c 4d9b 973c 06c2 bc3c
00000100: d72b 0b3d 8526 5c3d e7cf 1dbc 77be 4cbd
00000110: f4a5 0f3d 0b1a 533c bed9 933c 4131 84bd
00000120: 44cd 9ebc 2c95 233d 252e 0ebd 1ee3 a23b
00000130: 9eaf 463b 268c 923c 748c 45bc 984f 403d
00000140: 8ab7 9b3c a00b a4bc d682 ef3a 1c49 b0ba
00000150: 074e 0c3c 4a64 2cbc 528c 8e3c f411 903d
00000160: 786d 28ba 9ab7 323d 842b 22bd be5a d5bb
00000170: 0378 533d d83a 343c 6424 e83c 74f9 a73c
00000180: b4e2 e9bc 3f61 a4bd 3849 ffbc f7db 7cbd
00000190: cd48 363d 0113 29bd 4a5d a7bb 37b0 95bc
000001a0: e9a2 033c 8cb9 a63d afea 063d e0df df3b
000001b0: 8537 803b d84d 06bd 9d53 b2bc 8420 3ebd
000001c0: 575d 253d 470c a13d 46ee 083d 2551 f93c
000001d0: 831a b23c d410 ce3d a90c 71bd 9ba1 eebc
000001e0: 1eb2 433d acd8 98bd 2d82 d1bc 9d28 18bc
000001f0: 46f8 3c3d 3138 673d 1a36 f9bc 164e 1c3d
00000200: dfbf 4cbc 07e0 be3b bdb7 813d e56e babd
00000210: e574 25bd d26f 12bd 36ff 0d3e 0a30 4e3d
00000220: d316 8f3c e4bc 5c3c 7907 063d c15b 17bc
00000230: 4d03 adbb 695b 11bd 0871 523d e0d6 463b
00000240: bc44 4a3d ee55 c5bd bd06 fa3a 7c3e 12bd
00000250: aaea e5bc e59c a0bd 4d5e c63d a3e9 43bd
00000260: 6653 853c 27fc 21bb 51f9 1d3c 17f9 8b3c
00000270: 8330 743a 26de 4d3b 7127 303d dd46 fa3c
00000280: 6667 253c 0fc2 af3c 9b01 e43d 5720 27bb
00000290: 9ab4 22bb 02f9 d23b 1970 2dbc ca7e 5b3d
000002a0: f40f 88bc 4c05 0f3d ee51 ea3a 1768 dfbb
000002b0: 2823 aebc 8f2d babc 3462 f53c 25e0 6cbd
000002c0: 62df 9fbd b30f 06bd fe97 763d 2627 0bbd
000002d0: 4f58 a03d dfb6 49bd f3f0 45bd d12c 2a3d
000002e0: d779 4cbd 701a 093d f43b da3d 2e05 573c
000002f0: 2f4d 523d c31d 4f3b abf2 4ebd bb79 283d
00000300: 3d01 483d 6801 3cbb f23c a83c e25e 533d
00000310: e49e a23d eb8f 6a3d 01c8 09bd 3b1d d63c
00000320: 0032 4c3d b333 1b3d e58a 0e3d 69b9 e23d
00000330: 4620 0b3c e488 05bd fcf5 363d dff7 7f3c
00000340: 2416 bc3c fcdd 6bbd bd0c 17bd 90e5 7a3d
00000350: af6a 30bd 09c0 333d f503 fb3d caf2 003e
00000360: 01dd 253c 2f4e 5c3d 51e4 f73a 678c eb3d
00000370: ce19 be3d a1f3 e83c 3dba ab3d f471 f63d
00000380: 95a9 0cbd f8dd b4bd bc02 9ebc 91db c93c
00000390: 19ea 153d 77dd a83c 87ad da3d 9c61 6aba
000003a0: dfeb d83c 3948 eabc 686b 9c3c 89b4 a03c
000003b0: 2618 89bb 2633 643b b9ee db3d d553 0e3d
000003c0: ce28 b33c 48a8 433d b16a e4bb 68d0 523d
000003d0: 4152 593c d822 82bc d82c 9cbd d60e acbd
000003e0: 4e70 4abd 1cae 27bc eb1b 2bbd db94 84bd
000003f0: d3cc 68bc 6463 3cbc 1706 c9bd 3a57 a1bd

deconv3.0.bias f4 [8]
-0.07062327 0.07680608 -0.053500134 0.047881532 0.02546386 0.06242285 0.03290819 0.06312549
00000000: efa2 90bd 824c 9d3d f522 5bbd 6d1f 443d
00000010: 9699 d03c 1aaf 7f3d bdca 063d f047 813d

deconv3.1.weight f4 [8]
1.2406387 1.2181766 1.2224425 1.2227315 1.1970155 1.2218984 1.2347834 1.1822001
00000000: 40cd 9e3f 36ed 9b3f ff78 9c3f 7782 9c3f
00000010: ce37 993f 2b67 9c3f 620d 9e3f 5552 973f

deconv3.1.bias f4 [8]
0.23765147 0.2116851 0.21591732 0.21808827 0.19907619 0.21571939 0.2307522 0.18805754
00000000: e85a 733e fbc3 583e 6e19 5d3e 8852 5f3e
00000010: a1da 4b3e 8be5 5c3e 4e4a 6c3e 2892 403e

deconv3.1.running_mean f4 [8]
-0.18285617 -0.03781111 0.0799204 0.12555717 0.40816686 0.4586443 0.03347691 -0.11838916
00000000: a63e 3bbe d3df 1abd 4fad a33d 0f92 003e
00000010: 3ffb d03e 6dd3 ea3e 161f 093d 0476 f2bd

deconv3.1.running_var f4 [8]
0.077587746 0.05897288 0.09527951 0.06903912 0.04915797 0.06250968 0.07682434 0.074215405
00000000: 53e6 9e3d 8c8d 713d e721 c33d 6264 8d3d
00000010: de59 493d 1305 803d 1456 9d3d 3ffe 973d

deconv4.0.weight f4 [8, 3, 4, 4]
-0.051224407 0.070495926 0.12648676 0.061816264 -0.04561601 0.0745982 0.08329649 0.018037906
0.004108772 0.13794692 0.103686154 -0.06261793 -0.06625569 0.021237887 0.18780293 0.0037576226
-0.2657887 -0.27584523 -0.2150321 -0.042938545 -0.091475636 -0.1602555 -0.26510048 -0.022910148
-0.11422811 -0.23828276 -0.13007773 -0.0320739 -0.082536206 -0.108861916 -0.26838374 -0.09223032
-0.07110011 -0.10944504 -0.14771418 -0.1771568 -0.14091225 -0.13646823 -0.27214807 -0.06784378
-0.24996087 -0.13759173 -0.28051892 -0.15881963 -0.16625367 -0.23190475 -0.047438692 -0.20605753
0.17430869 -0.10744651 -0.039890148 -0.102856755 0.030080255 -0.01255274 0.11634957 0.05934599
-0.066524066 0.10683175 0.1257584 0.15635587 0.192595 0.09550027 -0.014466572 -0.051165186
-0.16884446 -0.2552197 -0.03072737 -0.27434257 -0.038800485 -0.073440574 -0.12163189 -0.18059194
-0.26699573 -0.22562276 -0.22469401 -0.12203257 -0.0071538365 -0.1802098 -0.16142875 -0.15492216
-0.15006192 -0.11053548 -0.19080114 -0.16687141 -0.11721526 -0.1874986 -0.27415338 -0.26253265
-0.09405095 -0.08378514 -0.26637414 -0.17858894 -0.1860748 -0.21360408 -0.15338102 -0.07481259
0.00032545812 -0.0020869873 0.077019274 0.13109867 0.1836832 0.15225638 0.18868674 0.15884376
0.012444346 0.036397286 0.19332121 0.028183237 -0.021673547 0.0684538 0.11522032 -0.00091121945
-0.2846554 -0.1760953 -0.2310593 -0.0974863 -0.033779647 -0.115912445 -0.17645948 -0.15921293
-0.23633273 -0.27504542 -0.02638188 -0.109121524 -0.1683396 -0.1877789 -0.05452621 -0.29162198
-0.07262541 -0.23918232 -0.096478246 -0.09321479 -0.14914295 -0.10487725 -0.26028237 -0.26928207
-0.106402524 -0.07014989 -0.121719606 -0.120550424 -0.10092522 -0.0026095442 -0.08388111 -0.1538394
0.20340925 0.049421016 0.038201645 0.088733226 0.047851577 0.074652284 0.026160106 0.016863605
0.12363571 0.15989916 0.047398392 0.10258901 0.1506937 0.036447357 0.030773384 0.008277427
-0.18847777 -0.18386364 -0.20441912 -0.18328246 -0.09157659 -0.20797215 -0.04673523 -0.13093363
-0.18123017 -0.13158228 -0.03917165 -0.0787448 -0.26907402 -0.064924434 -0.15139313 -0.17759998
-0.26023707 -0.18448706 -0.25817373 -0.23476832 -0.13680573 -0.037522998 -0.17788744 -0.09013818
-0.1365585 -0.28735292 -0.014560586 -0.034935284 -0.25031227 -0.05039173 -0.08380134 -0.2680025
0.23328897 0.20427619 0.23172991 0.07499422 0.1720846 0.12459539 0.051386274 0.14247388
0.1429961 0.03191253 -0.0062131016 0.21295239 0.23599203 0.2553195 0.07825078 0.093868144
-0.22267736 -0.12073014 0.0044296696 -0.25243026 -0.23217702 -0.27972612 -0.078479655 -0.22653112
-0.202672 -0.03332582 -0.116656095 -0.055131078 -0.05894435 -0.2722367 -0.22456141 -0.18986103
-0.10135627 -0.25851518 -0.19780944 -0.18119171 -0.048939873 -0.22458228 -0.108346134 -0.20771013
-0.26447272 -0.07412294 -0.023668962 -0.19385414 -0.07148545 -0.1389151 -0.09530435 -0.12507954
0.21383663 0.19409525 0.08846788 0.23506528 0.081866115 0.10790401 0.11224405 0.008946392
-0.009547283 -0.0064497697 0.09001086 0.17043309 0.20174137 0.17478597 -0.0016311199 0.029290525
00000000: afd0 51bd 2b60 903d bf85 013e 0d33 7d3d
00000010: dad7 3abd f1c6 983d 5a97 aa3d 3bc4 933c
00000020: e1a2 863b f541 0d3e 6859 d43d d43d 80bd
00000030: 10b1 87bd 14fb ad3c 694f 403e 7242 763b
00000040: 7515 88be 963b 8dbe 6031 5cbe 54e0 2fbd
00000050: 9457 bbbd 051a 24be 40bb 87be 10ae bbbc
00000060: 6df0 e9bd 6500 74be 1933 05be ec5f 03bd
00000070: be08 a9bd fff2 debd 9869 89be 40e3 bcbd
00000080: ef9c 91bd b924 e0bd 6342 17be 9868 35be
00000090: 4d4b 10be 54be 0bbe fe56 8bbe aef1 8abd
000000a0: bef5 7fbe d9e4 0cbe 2da0 8fbe 9da1 22be
000000b0: 673e 2abe 7078 6dbe 134f 42bd bf00 53be
000000c0: fa7d 323e ea0c dcbd da63 23bd 90a6 d2bd
000000d0: de6a f63c 02aa 4dbc af48 ee3d c814 733d
000000e0: c53d 88bd 9bca da3d cfc6 003e c11b 203e
000000f0: a037 453e a595 c33d 3305 6dbc 9692 51bd
00000100: 90e5 2cbe 28ac 82be f7b7 fbbc a176 8cbe
00000110: 42ed 1ebd 0368 96bd 241a f9bd 18ed 38be
00000120: aab3 88be a709 67be 3016 66be 36ec f9bd
00000130: bb6a eabb eb88 38be 944d 25be eaa3 1ebe
00000140: d5a9 19be 6d60 e2bd 6061 43be 57e0 2abe
00000150: 8e0e f0bd a2ff 3fbe d55d 8cbe ae6a 86be
00000160: c99d c0bd 8b97 abbd 3162 88be 05e0 36be
00000170: 648a 3ebe 07bb 5abe ea0f 1dbe 5837 99bd
00000180: 40a2 aa39 d6c5 08bb 48bc 9d3d bb3e 063e
00000190: 7317 3c3e 19e9 1b3e 1937 413e f0a7 223e
000001a0: 5fe3 4b3c 5215 153d fff5 453e 88e0 e63c
000001b0: b98c b1bc 8231 8c3d a2f8 eb3d e7de 6eba
000001c0: 5abe 91be 5452 34be cf9a 6cbe e6a6 c7bd
000001d0: 875c 0abd 8163 edbd cbb1 34be b708 23be
000001e0: 3501 72be c1d2 8cbe d01e d8bc 1b7b dfbd
000001f0: 3761 2cbe 1d49 40be e056 5fbd 7a4f 95be
00000200: a2bc 94bd 36ec 74be 6396 c5bd 65e7 bebd
00000210: eeb8 18be e2c9 d6bd bb43 85be 57df 89be
00000220: 91e9 d9bd bfaa 8fbd 2148 f9bd 24e3 f6bd
00000230: e2b1 cebd e304 2bbb dcc9 abbd 1388 1dbe
00000240: 844a 503e b16d 4a3d 5479 1c3d c4b9 b53d
00000250: 0400 443d 4ce3 983d b84d d63c 8b25 8a3c
00000260: b834 fd3d 9bbc 233e d124 423d 301a d23d
00000270: 734f 1a3e d349 153d 7718 fc3c 0c9e 073c
00000280: 5100 41be c046 3cbe 3f53 51be 66ae 3bbe
00000290: 828c bbbd a7f6 54be 716d 3fbd 7713 06be
000002a0: 6794 39be 81bd 06be 7472 20bd f444 a1bd
000002b0: 12c4 89be 1af7 84bd cd06 1bbe c5dc 35be
000002c0: cb3d 85be 2dea 3cbe 592f 84be 1b67 70be
000002d0: cd16 0cbe b7b1 19bd 2028 36be 5e9a b8bd
000002e0: fed5 0bbe ec1f 93be 868f 6ebc 4d18 0fbd
000002f0: ee28 80be 8f67 4ebd 09a0 abbd a037 89be
00000300: 4ee3 6e3e c72d 513e 9b4a 6d3e 9296 993d
00000310: f236 303e de2b ff3d 6a7a 523d ace4 113e
00000320: 926d 123e b7b6 023d 4697 cbbb 3110 5a3e
00000330: e5a7 713e 3db9 823e f241 a03d f13d c03d
00000340: 8905 64be 5d41 f7bd c326 913b 8a3e 81be
00000350: d0bf 6dbe 4338 8fbe f1b9 a0bd c6f7 67be
00000360: 4089 4fbe a880 08bd 64e9 eebd 20d1 61bd
00000370: a16f 71bd 9c62 8bbe 6df3 65be ee6a 42be
00000380: e093 cfbd 1a5c 84be 8f8e 4abe 528a 39be
00000390: 2d75 48bd e6f8 65be 94e4 ddbd f7b1 54be
000003a0: f868 87be c5cd 97bd 69e5 c1bc b381 46be
000003b0: f766 92bd c33f 0ebe ed2e c3bd da14 00be
000003c0: fdf7 5a3e e8c0 463e a62e b53d f4b4 703e
000003d0: 6ca9 a73d c7fc dc3d 35e0 e53d e393 123c
000003e0: 356c 1cbc 9758 d3bb 9d57 b83d 0386 2e3e
000003f0: 4a95 4e3e 18fb 323e 4dcb d5ba aff2 ef3c

deconv4.0.bias f4 [3]
-0.104499064 -0.018569833 -0.061805844
00000000: 9b03 d6bd c31f 98bc 2028 7dbd
