03_hw/Pix2Pix/checkpoints/pix2pix_model_epoch_540.pth (torch, 99191 bytes, 32 tensors)

conv1.0.weight f4 [8, 3, 4, 4]
-0.09961977 -0.11453551 -0.05372743 -0.18479554 0.05888855 -0.101587236 -0.021397762 0.060712013
-0.14178684 -0.04544296 -0.0043085655 0.040244743 -0.023025729 0.072869785 0.07043337 -0.13635716
0.13427474 0.1878364 0.055194393 -0.006400568 0.035476774 -0.024865054 -0.078118846 0.049301747
0.11897763 0.05345394 0.039674886 -0.04029858 -0.07437671 0.028824737 -0.0646347 0.16651979
-0.104079306 0.039320588 -0.14844027 0.052702654 -0.11035291 -0.10631691 -0.0064075836 -0.121107504
0.025815342 -0.024237225 -0.0018323039 -0.03666026 -0.04638806 0.043676097 0.07260597 0.046027444
-0.06992585 0.06919975 -0.018751878 -0.018383864 -0.0038494251 0.113459624 0.034044 -0.01153422
0.14598623 0.08779941 -0.09962573 -0.07285309 0.03480832 0.12720111 -0.029762313 -0.021919418
-0.0025289662 0.13474973 0.011154729 -0.084139325 -0.04532099 -0.07671761 0.03782461 -0.033000235
0.030923497 -0.00862591 0.037133057 -0.1279453 0.062062893 -0.027419176 0.06028114 0.09214771
0.002173372 -0.06294792 0.048228905 -0.12949532 -0.056303322 0.08328291 -0.072727054 0.06556555
-0.0055336407 -0.0043898397 -0.017701311 0.00473703 -0.062816285 -0.093100235 -0.028976457 -0.096462145
-0.13186055 0.05528484 0.013573506 -0.056703735 0.01286495 -0.023818145 0.06474938 0.13866505
-0.077353984 0.04582793 -0.11162026 -0.050029155 0.15445963 0.035300095 0.040844716 -0.054865852
-0.05784598 0.0021506108 0.101127215 -0.11270301 0.1288225 -0.03250684 0.013747383 0.12942855
0.031076333 0.073015146 -0.09257696 -0.10735007 0.039455183 0.031703964 -0.0055499594 0.11694663
-0.10211947 0.0945364 -0.014929082 0.03788654 0.016266068 0.06539432 0.09403245 -0.013749544
0.07744186 0.1710266 0.12225829 0.076570585 -0.088590324 0.026186055 0.10150932 0.11761025
0.060365032 0.11422941 0.17329152 0.0498607 0.004533964 -0.0507389 -0.00090412045 -0.051125105
0.03839978 -0.06744543 0.14308235 -0.058337525 0.05314165 0.1128806 0.10175184 -0.15871824
-0.10910591 0.08758148 0.15599585 0.025794776 0.06784615 0.09788497 0.0009242921 -0.03899821
-0.09245531 -0.08785257 0.06848094 0.100544035 -0.08577484 -0.056800112 -0.014051904 -0.0846274
0.079329625 -0.17575978 0.017174965 0.03151138 -0.0562125 -0.11290973 -0.042926747 0.018600782
-0.115907095 0.10768704 -0.079510935 0.110702455 -0.057974853 -0.041902993 -0.1096749 0.1284842
-0.09248887 -0.13927643 0.039514735 0.04964239 0.13421644 -0.015207094 -0.00036863232 -0.13965449
0.09429094 -0.07591005 0.11501148 0.05336647 0.046791576 -0.17319639 -0.09086693 -0.017132128
-0.027026962 0.060872547 0.038105063 0.0942267 -0.09591004 -0.07762214 -0.004817831 0.07811867
-0.033240028 -0.12897655 -0.19526826 -0.2310367 -0.11061921 -0.0207136 -0.19736163 0.03023281
0.110013425 0.018011652 0.06142426 -0.10431175 0.07311777 -0.058916185 0.09365936 -0.07601006
-0.056050014 0.09341476 -0.052476782 0.06406416 0.098512836 0.030376615 -0.005645795 -0.058150917
0.038584914 -0.11542086 -0.06829834 -0.041116454 -0.05716676 -0.09640357 0.118920036 -0.0024130242
0.10071408 0.015351457 0.094582416 -0.11354781 -0.03842423 0.107947566 0.12597346 0.05462747
00000000: 7305 ccbd 9891 eabd 4b11 5cbd 0b3b 3dbe
00000010: 1f35 713d f80c d0bd 5c4a afbc 29ad 783d
00000020: 9230 11be 6622 3abd de2e 8dbb acd7 243d
00000030: 74a0 bcbc c13c 953d 5f3f 903d 36a1 0bbe
00000040: 517f 093e 2f58 403e 8413 623d dbbb d1bb
00000050: 1850 113d ccb1 cbbc c6fc 9fbd a1f0 493d
00000060: 8baa f33d 85f2 5a3d 2282 223d 2010 25bd
00000070: d152 98bd db21 ec3c 335f 84bd 2a84 2a3e
00000080: 8827 d5bd a00e 213d ba00 18be bdde 573d
00000090: b500 e2bd aebc d9bd b5f6 d1bb 3607 f8bd
000000a0: b27a d33c 258d c6bc eb29 f0ba 1229 16bd
000000b0: 6801 3ebd b5e5 323d 70b2 943d 4687 3c3d
000000c0: 4935 8fbd 99b8 8d3d 8a9d 99bc c299 96bc
000000d0: a346 7cbb 855d e83d b971 0b3d 06fa 3cbc
000000e0: 6a7d 153e 2dd0 b33d 9308 ccbd 0034 95bd
000000f0: 2b93 0e3d 0241 023e 18d0 f3bc 5a90 b3bc
00000100: 03bd 25bb d5fb 093e 53c2 363c 3d51 acbd
00000110: 81a2 39bd 1f1e 9dbd faed 1a3d 412b 07bd
00000120: 4653 fd3c b053 0dbc d518 183d 1804 03be
00000130: a935 7e3d 2e9e e0bc 5be9 763d f0b7 bc3d
00000140: 226f 0e3b d7ea 80bd ac8b 453d 6c9a 04be
00000150: 509e 66bd 3b90 aa3d ecf1 94bd 3b47 863d
00000160: 8b53 b5bb a5d8 8fbb 5702 91bc 1639 9b3b
00000170: d3a5 80bd 56ab bebd 0960 edbc f28d c5bd
00000180: 7406 07be 5b72 623d 6963 5e3c 2d42 68bd
00000190: 83c7 523c 451e c3bc 539b 843d 36fe 0d3e
000001a0: c46b 9ebd 11b6 3b3d 2a99 e4bd 5feb 4cbd
000001b0: aa2a 1e3e d596 103d ca4c 273d 04bb 60bd
000001c0: e8ef 6cbd 43f1 0c3b c91b cf3d d6d0 e6bd
000001d0: 0cea 033e e425 05bd b43c 613c eb88 043e
000001e0: cb93 fe3c f788 953d fd98 bdbd 5ada dbbd
000001f0: c29b 213d 04dc 013d 6fdc b5bb b781 ef3d
00000200: 0324 d1bd 4d9c c13d 1c99 74bc eb2e 1b3d
00000210: 6b40 853c 75ed 853d 1694 c03d c445 61bc
00000220: d799 9e3d 9921 2f3e 8e62 fa3d 0ad1 9c3d
00000230: d86e b5bd 2384 d63c 1ee4 cf3d a5dd f03d
00000240: 5341 773d 1cf1 e93d 5573 313e bc3a 4c3d
00000250: a691 943b 98d3 4fbd 7f02 6dba 8f68 51bd
00000260: 1649 1d3d d420 8abd 2e84 123e 54f3 6ebd
00000270: 0fab 593d f22d e73d 4563 d03d 0987 22be
00000280: eb72 dfbd eb5d b33d 60bd 1f3e 914f d33c
00000290: ecf2 8a3d ea77 c83d 314c 723a 96bc 1fbd
000002a0: 3659 bdbd 0cec b3bd bc3f 8c3d 08ea cd3d
000002b0: b8aa afbd 3ca7 68bd f539 66bc 2151 adbd
000002c0: 9277 a23d 5ffa 33be 83b2 8c3c 1412 013d
000002d0: 143f 66bd 373d e7bd f5d3 2fbd ab60 983c
000002e0: b360 edbd 068b dc3d a1d6 a2bd f8b7 e23d
000002f0: 0a77 6dbd 79a2 2bbd 3c9d e0bd 5d91 033e
00000300: ce6a bdbd 7b9e 0ebe 34da 213d d255 4b3d
00000310: 0970 093e 2d27 79bc fe44 c1b9 9601 0fbe
00000320: 9c1b c13d ba76 9bbd 248b eb3d cd96 5a3d
00000330: 86a8 3f3d 655a 31be 7118 babd ad58 8cbc
00000340: a667 ddbc 7e55 793d 0e14 1c3d eef9 c03d
00000350: 7c6c c4bd 5bf8 9ebd e5de 9dbb aefc 9f3d
00000360: b226 08bd 6e12 04be 67f4 47be e294 6cbe
00000370: 538c e2bd 91af a9bc 2b19 4abe ccaa f73c
00000380: b84e e13d 2c8d 933c 0198 7b3d 66a1 d5bd
00000390: c5be 953d 1952 71bd 7bd0 bf3d 2aab 9bbd
000003a0: b394 65bd 3d50 bf3d e5f1 56bd 1234 833d
000003b0: 19c1 c93d 61d8 f83c 5c00 b9bb a82f 6ebd
000003c0: 370b 1e3d c661 ecbd 00e0 8bbd ba69 28bd
000003d0: b127 6abd 3c6f c5bd 598c f33d d423 1ebb
000003e0: 2f43 ce3d ad84 7b3c 6db4 c13d c18b e8bd
000003f0: ba62 1dbd 9d13 dd3d 30ff 003e 0ec1 5f3d

conv1.0.bias f4 [8]
0.13318811 0.0043790773 -0.034967203 0.12441689 0.07115045 0.10086281 -0.10867337 -0.011905901
00000000: 7762 083e 5d7e 8f3b c539 0fbd 48ce fe3d
00000010: 54b7 913d 2991 ce3d 2590 debd f810 43bc

conv1.1.weight f4 [8]
1.0062488 0.983044 0.99850816 0.955198 1.0066462 0.9485522 1.0206058 1.056171
00000000: c3cc 803f c6a8 7b3f 3b9e 7f3f db87 743f
00000010: c8d9 803f 51d4 723f 36a3 823f 9c30 873f

conv1.1.bias f4 [8]
-0.0012921733 -0.042145155 -0.03176232 -0.009389645 -0.004384458 0.07864441 -0.043982804 0.10346626
00000000: 245e a9ba 66a0 2cbd 3519 02bd 07d7 19bc
00000010: 80ab 8fbb 5210 a13d 5027 34bd 1ee6 d33d

conv1.1.running_mean f4 [8]
0.19987169 -0.028259415 -0.102338836 0.058115724 0.17393231 0.07829805 -0.114762545 -0.011313366
00000000: 2aab 4c3e 4a80 e7bc 0697 d1bd c10a 6e3d
00000010: 501b 323e ba5a a03d a008 ebbd b25b 39bc

conv1.1.running_var f4 [8]
0.048492327 0.014154597 0.2535288 0.025278945 0.13803661 0.03371744 0.019983903 0.030181315
00000000: e49f 463d afe8 673c 87ce 813e ca15 cf3c
00000010: 7859 0d3e 4c1b 0a3d 48b5 a33c ce3e f73c

conv2.0.weight f4 [16, 8, 4, 4]
0.06742431 0.09573403 0.03024366 0.044970486 -0.08046753 0.07323485 -0.04670598 0.07105026
-0.07626311 0.069455445 0.051404603 0.01800789 -0.0284948 -0.101482645 -0.10200076 0.017877989
-0.016853163 0.101178475 0.07339981 -0.02139665 0.05489607 -0.06640694 0.024628807 -0.0236651
0.028623769 0.008293326 -0.052769937 0.021795262 0.03793259 0.027689772 -0.02542538 -0.0889153
-0.04246208 0.017773747 0.041495077 -0.03909679 -0.087243885 -0.019305522 -0.010214106 0.04821942
-0.037764776 -0.070164144 -0.012498215 -0.025861135 -0.106746085 -0.09285226 -0.076692365 -0.09574917
0.04118125 -0.02561973 0.029576015 0.015366578 0.01733835 0.026475038 -0.061294213 -0.048317306
0.0013218824 -0.031299684 0.010016236 -0.002225377 0.089282736 -0.018968925 0.0064696358 0.00014296011
0.059744023 -0.027436977 0.0035769194 0.044439755 0.040296353 0.0035497535 0.10097649 -0.009791498
0.05367489 -0.033896744 0.082766436 0.049276274 -0.07734795 -0.024128264 -0.05251196 -0.038700923
-0.082902014 -0.0978455 0.006296147 0.0011782984 -0.0058890237 -0.021785637 0.043325473 0.008033557
0.0035027429 0.06661032 0.047038972 0.070309624 -0.006121724 0.007539724 -0.067364275 0.011426798
0.068552375 0.0019437356 0.08933551 0.048212446 0.07475416 0.039875913 0.025749192 0.054892465
-0.015884414 0.029796427 -0.011054195 0.055854626 -0.0027323377 0.094558075 0.027907073 0.094062954
0.0020623126 0.015482545 -0.032025557 0.0060117743 -0.032580487 -0.0064617344 -0.028816052 -0.023320222
0.07426179 0.019856282 0.04970912 0.047912426 0.053496912 -0.010408242 0.048974965 -0.03320113
0.025652578 0.005888895 -0.031737402 -0.060234476 -0.046578888 -0.07306204 -0.037063655 0.07573624
0.05130804 0.0006632469 -0.0076948456 0.071487494 -0.054054823 -0.005936383 0.09386678 -0.050297588
0.019702611 0.035024017 -0.05228589 -0.07277306 -0.0923943 -0.052670397 -0.08495171 -0.032493547
0.009793104 -0.050900508 0.06003123 0.029377634 0.00036044783 -0.031598292 0.0821897 0.115228
-0.10322519 -0.030208308 0.065747544 -0.018990923 0.06378263 0.03449837 0.04393217 -0.060140513
0.018171066 -0.011152613 -0.08459169 0.036461927 0.013872538 -0.054020427 0.020667126 0.06265968
-0.024720514 -0.034581427 0.09961026 -0.0075684795 -0.05437006 -0.04261335 -0.05299272 0.04458997
-0.025911165 -0.060146153 -0.08138082 0.01663089 -0.070654266 0.010118097 0.039249055 -0.00906833
-0.02598541 -0.06276543 -0.004455871 0.003611352 -0.017798536 0.042809118 0.03439989 -0.050937798
-0.060986243 -0.06562384 -0.07807372 0.04665235 -0.006551145 -0.02371502 0.09679514 -0.034613203
-0.029103663 -0.03769345 -0.074274085 -0.052086137 0.039506335 -0.034823693 -0.09114725 -0.11729842
0.019502925 -0.035934754 -0.028873663 -0.013406334 0.013357829 -0.06749518 -0.037537802 0.014766394
0.014142547 -0.0052291667 -0.031024247 0.06906186 0.04950831 -0.05149375 -0.041757867 0.021567013
-0.08264249 -0.013335697 -0.17740916 -0.06048522 0.0017963554 -0.07451167 -0.084524974 0.025778424
0.025576005 -0.05960982 0.004065594 -0.014080696 -0.16965844 -0.14041041 -0.09167557 0.016961705
-0.026999429 -0.21078219 -0.12325101 -0.07440175 -0.0006338522 -0.01835964 -0.07379713 0.026407916
00000000: c215 8a3d 3410 c43d 8dc1 f73c f932 383d
00000010: 29cc a4bd 27fc 953d c54e 3fbd cc82 913d
00000020: d52f 9cbd a83e 8e3d a28d 523d 4885 933c
00000030: ed6d e9bc 22d6 cfbd c6e5 d0bd dc74 923c
00000040: a50f 8abc a936 cf3d a452 963d 0748 afbc
00000050: b4da 603d 5d00 88bd 5ac2 c93c 50dd c1bc
00000060: 657c ea3c bbe0 073c 4a25 58bd fa8b b23c
00000070: 345f 1b3d a9d5 e23c e348 d0bc 3a19 b6bd
00000080: b8ec 2dbd 409a 913c bef6 293d f523 20bd
00000090: ecac b2bd 9d26 9ebc 1159 27bc ba81 453d
000000a0: 3daf 1abd 38b2 8fbd 50c5 4cbc bbda d3bc
000000b0: b19d dabd 5329 bebd e310 9dbd 2418 c4bd
000000c0: acad 283d 78e0 d1bc 6649 f23c 19c4 7b3c
000000d0: 2809 8e3c 2ee2 d83c a40f 7bbd 5ee8 45bd
000000e0: 0343 ad3a 1934 00bd 241b 243c a1d7 11bb
000000f0: ded9 b63d b864 9bbc 3dff d33b 90e7 1539
00000100: 26b6 743d 83c3 e0bc c06a 6a3b 7606 363d
00000110: ca0d 253d fba2 683b c3cc ce3d 856c 20bc
00000120: 34da 5b3d 50d7 0abd 7381 a93d ebd5 493d
00000130: 9a68 9ebd a3a8 c5bc c816 57bd dc84 1ebd
00000140: 88c8 a9bd 3963 c8bd e94f ce3b 2271 9a3a
00000150: b6f8 c0bb cb77 b2bc 0d76 313d 2e9f 033c
00000160: 468e 653b fe6a 883d f0ab 403d 7efe 8f3d
00000170: be98 c8bb ca0f f73b 48f6 89bd 7737 3b3c
00000180: 3065 8c3d f2c4 fe3a 89f5 b63d 6a7a 453d
00000190: b618 993d ed54 233d f8ef d23c ecd6 603d
000001a0: 0820 82bc a317 f43c a81c 35bc d2c7 643d
000001b0: 0511 33bb aaa7 c13d 609d e43c 14a4 c03d
000001c0: dd27 073b 80aa 7d3c 3b2d 03bd 6bfe c43b
000001d0: 1e73 05bd f5bc d3bb a40f ecbc 0d0a bfbc
000001e0: 9116 983d a4a9 a23c ca9b 4b3d d23f 443d
000001f0: 941f 5b3d 5587 2abc f999 483d e8fd 07bd
00000200: 5b25 d23c a2f7 c03b 14ff 01bd 6db8 76bd
00000210: 81c9 3ebd 8da1 95bd 0fd0 17bd 9a1b 9b3d
00000220: 6128 523d bfdd 2d3a 0b25 fcbb 0968 923d
00000230: 9768 5dbd fd85 c2bb 3a3d c03d d804 4ebd
00000240: 5f67 a13c 5875 0f3d bb29 56bd 0b0a 95bd
00000250: 3939 bdbd eabc 57bd 2afb adbd f417 05bd
00000260: 4173 203c 0d7d 50bd 4fe3 753d 5da9 f03c
00000270: 7dfa bc39 366d 01bd 1353 a83d a8fc eb3d
00000280: ba67 d3bd 6a77 f7bc a6a6 863d da92 9bbc
00000290: 78a0 823d 2a4e 0d3d 38f2 333d e655 76bd
000002a0: 7ddb 943c 73b9 36bc 683e adbd 1a59 153d
000002b0: a449 633c 8644 5dbd 1b4e a93c b853 803d
000002c0: ad82 cabc 41a5 0dbd 7700 cc3d 0201 f8bb
000002d0: 24b3 5ebd 568b 2ebd e50e 59bd f9a3 363d
000002e0: a743 d4bc d05b 76bd fdaa a6bd 813d 883c
000002f0: 2fb3 90bd 60c6 253c 9ec3 203d 5593 14bc
00000300: 5bdf d4bc 298b 80bd 8e02 92bb 6fac 6c3b
00000310: 3cce 91bc 9d58 2f3d e6e6 0c3d 27a4 50bd
00000320: b6cc 79bd cb65 86bd 1de5 9fbd 8916 3f3d
00000330: fdaa d6bb 0046 c2bc 883c c63d 93c6 0dbd
00000340: ce6a eebc 7264 1abd 031d 98bd 4658 55bd
00000350: 65d1 213d 4aa3 0ebd 69ab babd 273a f0bd
00000360: 99c4 9f3c 5230 13bd 7688 ecbc 3ea6 5bbc
00000370: ccda 5a3c ea3a 8abd 3dc1 19bd bfee 713c
00000380: 24b6 673c 6e59 abbb 9026 febc 4e70 8d3d
00000390: 3ac9 4a3d 1ceb 52bd 4c0a 2bbd 4ead b03c
000003a0: 7740 a9bd f87d 5abc bfaa 35be 5abf 77bd
000003b0: af73 eb3a 9399 98bd 6e1b adbd 462d d33c
000003c0: c584 d13c 6d29 74bd ad38 853b b8b2 66bc
000003d0: f1ba 2dbe bfc7 0fbe 67c0 bbbd 46f3 8a3c
000003e0: e82d ddbc 49d7 57be 076b fcbd f25f 98bd
000003f0: 1a29 26ba f566 96bc f322 97bd 6a55 d83c

conv2.0.bias f4 [16]
-0.08699322 0.08310247 0.066478506 -0.0120247 -0.035137404 0.0069481605 -0.03598538 -0.058337007
-0.020476868 0.0420472 -0.059110228 -0.033106554 -0.043580346 -0.084639765 0.068792984 -0.07205922
00000000: 8029 b2bd a131 aa3d e225 883d 3f03 45bc
00000010: 3dec 0fbd 65ad e33b 6865 13bd c9f2 6ebd
00000020: 1bbf a7bc af39 2c3d 911d 72bd bd9a 07bd
00000030: 4e81 32bd 9d57 adbd 56e3 8c3d c993 93bd

conv2.1.weight f4 [16]
0.9720585 1.0693803 0.98091006 0.9829718 0.9904618 0.9821385 1.0010214 1.0199287
0.95979184 1.0018501 1.0082605 1.0098399 1.0784957 0.99347115 1.0018817 0.99762845
00000000: d3d8 783f 74e1 883f ec1c 7b3f 0aa4 7b3f
00000010: e88e 7d3f 6e6d 7b3f 7821 803f 068d 823f
00000020: ebb4 753f a03c 803f ae0e 813f 6f42 813f
00000030: 260c 8a3f 2054 7e3f a93d 803f 9464 7f3f

conv2.1.bias f4 [16]
-0.0060400735 -0.007226848 0.0086956695 -0.08223641 -0.011338181 -0.04149945 -0.03416583 -0.04319976
-0.027538767 0.021073796 0.011248913 -0.011104567 -0.042480152 0.021078777 0.020973455 -0.004471711
00000000: cfeb c5bb 32cf ecbb 4878 0e3c 906b a8bd
00000010: c7c3 39bc 54fb 29bd 78f1 0bbd 3bf2 30bd
00000020: fb98 e1bc f4a2 ac3c 5c4d 383c eeef 35bc
00000030: abff 2dbd 66ad ac3c 86d0 ab3c 6e87 92bb

conv2.1.running_mean f4 [16]
0.065533295 -0.821207 -0.17533746 1.060407 -0.21225445 -0.22858042 -0.003182776 0.034517128
-0.15067896 -0.68976736 -0.024134586 0.50896186 -0.05225571 -0.4750295 0.058023784 0.14552885
00000000: 5236 863d 9f3a 52bf aa8b 33be 6bbb 873f
00000010: 3b59 59be fc10 6abe 1f96 50bb d561 0d3d
00000020: 964b 1abe 9894 30bf e5b5 c5bc 534b 023f
00000030: 150a 56bd 1137 f3be 59aa 6d3d 8405 153e

conv2.1.running_var f4 [16]
0.27677214 0.3567256 0.5043465 0.3414172 0.21640754 0.12333326 0.07576731 0.17639208
0.4873299 0.4234787 0.15778112 0.21624908 0.39740297 0.24562043 0.22154835 0.26435044
00000000: 14b5 8d3e bda4 b63e da1c 013f 3cce ae3e
00000010: f099 5d3e 2696 fc3d e42b 9b3d 20a0 343e
00000020: 4e83 f93e 33d2 d83e 6091 213e 6670 5d3e
00000030: 6778 cb3e ec83 7b3e 92dd 623e f158 873e

conv3.0.weight f4 [32, 16, 4, 4]
0.022025343 -0.0046611247 -0.05511442 -0.06551474 -0.050636083 -0.0013184688 0.0018453081 -0.016707124
-0.040935107 -0.015693914 -0.002879257 -0.04650016 -0.037314095 0.029115595 0.026695658 0.011519073
-0.082251914 -0.034822125 -0.011380421 -0.0023420372 -0.022839805 -0.03029803 0.03459255 -0.039186127
-0.04291816 -0.06738701 -0.018484553 0.0007718 -0.033445317 0.0072134933 -0.040192593 -0.061922524
0.052051667 -0.004205637 -0.0021436235 0.029067492 0.018624058 -0.012756485 0.008378213 0.05826042
0.011050595 0.04576135 0.013610445 -0.006175936 0.010100959 0.019919844 0.02119393 0.012191582
-0.0013464229 -0.009466133 -0.030720776 -0.067628436 -0.010748607 0.05589274 -0.027370729 -0.038079005
0.023813492 -0.027599007 -0.03899094 -0.053748127 0.042501234 -0.02872625 0.04723085 -0.060848735
0.04694355 0.014234046 0.031640884 0.025230356 0.0029561853 0.008130512 0.035929546 -0.01590793
-0.008809634 -0.023777487 -0.015528217 0.024977691 -0.048475936 0.059099775 -0.008992892 -0.011148912
-0.005269036 0.032630917 0.008831068 -0.025224037 -0.03039626 0.029163033 0.0048510064 0.00060706004
0.056800466 -0.028299248 0.010931856 0.023454497 -0.012759683 -0.052572474 -0.010751866 -0.033997387
0.0752757 0.033980384 0.007937631 0.0043536834 0.035847265 -0.0022659465 -0.0318312 -0.01827101
0.024194775 -0.06525409 -0.063564256 -0.019247558 0.048546653 -0.025285823 -0.040131804 0.019156242
0.0083490815 0.046824288 -0.054151244 -0.06252896 0.06634497 -0.0031522822 -0.049040694 -0.037925255
-0.06908351 0.009120346 -0.07653712 -0.11897988 -0.011312999 0.069475584 -0.003363881 -0.047505185
-0.009218357 -0.051768813 -0.026489886 -0.04494135 -0.00894881 0.043027077 -0.0154875675 -0.028002635
-0.045236517 -0.016917286 7.933967e-05 -0.050250243 -0.03572509 0.027941383 0.009677409 -0.0754233
-0.015005358 0.032129414 0.040658303 -0.04647305 -0.0053876913 -0.052498687 -0.0011618765 -0.03852948
-0.0526843 -0.04650774 -0.01203404 0.06809194 0.017538361 0.028030152 -0.0464562 -0.069561765
0.043930437 0.07932811 0.007689332 0.036379464 -0.022765752 0.0053543285 -0.0076744696 0.009731373
0.06812532 0.046442445 0.043000564 -0.028431796 0.042389244 -0.038831513 0.016327245 0.02706415
0.016935498 0.042278793 -0.00076801446 -0.073075995 -0.008575698 0.016603269 -0.08508429 -0.056467365
0.06870762 0.029676832 0.04518867 0.0058465404 0.05437651 -0.043628715 -0.05745929 0.005141914
-0.036397666 0.008195938 0.042813722 -0.07372177 0.026338208 -0.013992124 -0.046341803 -0.08558143
-0.016586687 -0.09009157 -0.04004848 -0.124674976 -0.056893904 0.04172862 -0.063215494 -0.053451017
0.05193689 0.0130203245 0.034708906 -0.025323873 0.019637324 0.004724677 -0.003089551 -0.026334798
0.033768605 0.0337165 0.035880476 -0.009767392 -0.016988011 -0.0770885 0.031697534 -0.010653551
0.06994566 0.05302481 -0.039194472 -0.033603057 0.018201347 -0.049915787 -0.038263362 0.023130588
0.0041944147 0.039893594 0.05266373 -0.04597055 -0.038263727 0.0420704 -0.074109785 -0.012396436
-0.008394361 0.005293043 0.018305106 0.0014973952 0.064058 -0.028088702 0.040754087 0.044666868
0.04114608 0.04610173 -0.07661422 -0.08571878 -0.032293726 -0.005414383 -0.056267776 -0.047257353
00000000: 7e6e b43c 59bc 98bb a8bf 61bd 982c 86bd
00000010: c867 4fbd 79d0 acba 44de f13a 61dd 88bc
00000020: 92ab 27bd 8690 80bc ebb1 3cbb f476 3ebd
00000030: aad6 18bd d483 ee3c dab0 da3c 7eba 3c3c
00000040: b173 a8bd a5a1 0ebd f274 3abc dd7c 19bb
00000050: 8b1a bbbc 9333 f8bc ebb0 0d3d a281 20bd
00000060: f4ca 2fbd 3302 8abd eb6c 97bc 9f52 4a3a
00000070: f5fd 08bd 2b5f ec3b fda0 24bd 79a2 7dbd
00000080: 2134 553d 71cf 89bb 097c 0cbb f31e ee3c
00000090: 7b91 983c 9300 51bc c644 093c 7aa2 6e3d
000000a0: 8e0d 353c 4170 3b3d 58fe 5e3c 825f cabb
000000b0: 7e7e 253c f12e a33c e59e ad3c 33bf 473c
000000c0: 757a b0ba d717 1bbc 23aa fbbc c780 8abd
000000d0: ed1a 30bc c9ef 643d 9438 e0bc bbf8 1bbd
000000e0: 8314 c33c 5017 e2bc f7b4 1fbd ff26 5cbd
000000f0: c615 2e3d 5053 ebbc 2375 413d 863c 79bd
00000100: e147 403d eb35 693c df99 013d e4af ce3c
00000110: 8fbc 413b d735 053c dc2a 133d 5951 82bc
00000120: 4856 10bc 01c9 c2bc 106a 7ebc 049e cc3c
00000130: b48e 46bd 9b12 723d ec56 13bc eda9 36bc
00000140: e1a7 acbb ffa7 053d 2fb0 103c a4a2 cebc
00000150: 9401 f9bc 50e7 ee3c 31f5 9e3b 1c23 1f3a
00000160: 9ba7 683d d3d3 e7bc 871b 333c a523 c03c
00000170: fd0d 51bc 3c56 57bd 9828 30bc d840 0bbd
00000180: 252a 9a3d 042f 0b3d d60c 023c 58a9 8e3b
00000190: 95d4 123d 4680 14bb 6f61 02bd 16ad 95bc
000001a0: 1f34 c63c f0a3 85bd fa2d 82bd 0ead 9dbc
000001b0: dbd8 463d 3724 cfbc 3f61 24bd 8ded 9c3c
000001c0: 96ca 083c d3ca 3f3d b2cd 5dbd 2f0f 80bd
000001d0: dfdf 873d 8596 4ebb e5de 48bd 8357 1bbd
000001e0: a87b 8dbd 816d 153c 7ebf 9cbd b9ab f3bd
000001f0: 285a 39bc 3749 8e3d 8f74 5cbb cc94 42bd
00000200: 9708 17bc 890b 54bd 5101 d9bc 6c14 38bd
00000210: 089e 12bc 293d 303d 91bf 7dbc c865 e5bc
00000220: ed49 39bd 1f96 8abc 2963 a638 33d3 4dbd
00000230: 7954 12bd 54e5 e43c ff8d 1e3c 8877 9abd
00000240: 08d9 75bc 229a 033d 5289 263d 865a 3ebd
00000250: 3b8b b0bb dd08 57bd 1b4a 98ba 17d1 1dbd
00000260: 7ecb 57bd e67e 3ebd 6c2a 45bc c973 8b3d
00000270: 9cac 8f3c 7d9f e53c db48 3ebd 6676 8ebd
00000280: 67f0 333d c776 a23d cbf6 fb3b a202 153d
00000290: 3e7f babc 5d73 af3b 1e7a fbbb 5670 1f3c
000002a0: 4a85 8b3d 6f3a 3e3d 5c21 303d cce9 e8bc
000002b0: 58a0 2d3d cb0d 1fbd b7c0 853c a3b5 dd3c
000002c0: 50bc 8a3c 872c 2d3d 9454 49ba dea8 95bd
000002d0: 1681 0cbc 9403 883c ac40 aebd 534a 67bd
000002e0: 95b6 8c3d d41c f33c c117 393d 5694 bf3b
000002f0: e7b9 5e3d 06b4 32bd 6f5a 6bbd 807d a83b
00000300: b815 15bd 4148 063c 715d 2f3d 70fb 96bd
00000310: 3ac3 d73c 393f 65bc e7d0 3dbd 5145 afbd
00000320: cee0 87bc ee81 b8bd e009 24bd 9855 ffbd
00000330: 9509 69bd a1eb 2a3d 2077 81bd 74ef 5abd
00000340: c7bb 543d 3353 553c ed2a 0e3d 0374 cfbc
00000350: 74de a03c 77d1 9a3b 117a 4abb 13bc d7bc
00000360: f350 0a3d 501a 0a3d 68f7 123d 6907 20bc
00000370: 712a 8bbc 93e0 9dbd 46d5 013d 3b8c 2ebc
00000380: ac3f 8f3d 8b30 593d 628a 20bd 5ca3 09bd
00000390: fe1a 953c 7f74 4cbd 0bba 1cbd 5c7c bd3c
000003a0: 4d71 893b 7767 233d ecb5 573d 9e4b 3cbd
000003b0: 6dba 1cbd 0352 2c3d dfc6 97bd 6c1a 4bbc
000003c0: 8088 09bc 4371 ad3b 97f4 953c 3f44 c43a
000003d0: d730 833d 471a e6bc c2ed 263d 9bf4 363d
000003e0: cb88 283d 2bd5 3c3d ebe7 9cbd 548d afbd
000003f0: 6d46 04bd 236b b1bb 0a79 66bd ed90 41bd

conv3.0.bias f4 [32]
0.01441757 0.05789753 0.014121922 -0.059075486 0.0041082785 -0.0551194 -0.023649348 0.061035898
0.034486532 0.02082668 -0.014893529 0.031055478 0.03121761 -0.0072580995 -0.061548483 0.010482555
-0.031741258 0.018392473 0.047144014 0.025639366 0.04617664 0.050818168 0.011205306 0.04684389
0.011690454 -0.040652487 -0.011643786 -0.012940871 -0.06228213 -0.050696917 -0.05377665 0.0597623
00000000: ac37 6c3c f625 6d3d a25f 673c 23f9 71bd
00000010: bd9e 863b e1c4 61bd 47bc c1bc c700 7a3d
00000020: c041 0d3d b79c aa3c fd03 74bc 0f68 fe3c
00000030: 13bc ff3c 5ad5 edbb 431a 7cbd 06bf 2b3c
00000040: 1f03 02bd d0ab 963c 151a 413d a609 d23c
00000050: b723 3d3d b626 503d 7696 373c 61df 3f3d
00000060: 5189 3f3c 3983 26bd 94c5 3ebc f205 54bc
00000070: 8c1b 7fbd 92a7 4fbd e844 5cbd 50c9 743d

conv3.1.weight f4 [32]
0.98757863 0.9911549 1.0037518 1.0388926 0.97736007 0.99134946 0.9867491 0.984239
0.9741832 1.00754 0.98777604 0.9887084 1.0363791 0.9736563 1.0094377 1.0172992
1.0085888 1.011768 0.9984101 0.99949193 0.9830306 1.0499619 1.0002213 1.0037255
0.9762784 0.97457117 1.0447828 1.0117075 0.98940706 1.0386646 1.0651392 1.008087
00000000: f4d1 7c3f 54bc 7d3f f07a 803f 6ffa 843f
00000010: 4534 7a3f 14c9 7d3f 979b 7c3f 16f7 7b3f
00000020: 1264 793f 12f7 803f e4de 7c3f fe1b 7d3f
00000030: 12a8 843f 8a41 793f 4135 813f dc36 823f
00000040: 7019 813f 9d81 813f ce97 7f3f b4de 7f3f
00000050: e5a7 7b3f 2765 863f 4007 803f 147a 803f
00000060: 62ed 793f 7f7d 793f 71bb 853f a27f 813f
00000070: c849 7d3f f6f2 843f 7b56 883f ff08 813f

conv3.1.bias f4 [32]
-0.07135214 -0.008552094 -0.020005822 -0.17043605 -0.027281689 -0.0099851005 0.02216414 -6.7284454e-05
0.024878616 -0.019228421 -0.003666568 0.05266004 0.07773299 -0.028205499 -0.018247161 -0.043616593
0.013052328 -0.012784663 -0.005228578 -0.058127627 -0.01502078 -0.034309253 0.007807793 -0.013752881
-0.006983425 -0.014919262 -0.013896449 0.009200014 -0.04609312 -0.039914057 -0.06294713 0.0020526766
00000000: 1221 92bd 151e 0cbc 40e3 a3bc ca86 2ebe
00000010: d97d dfbc 8c98 23bc 9291 b53c 111b 8db8
00000020: 3dce cb3c ec84 9dbc ce4a 70bb 0eb2 573d
00000030: 7932 9f3d 380f e7bc 127b 95bc 50a7 32bd
00000040: 6ed9 553c c376 51bc 7e54 abbb 3c17 6ebd
00000050: b819 76bc dc87 0cbd 84d8 ff3b c453 61bc
00000060: 37d5 e4bb ec6f 74bc eead 63bc a8bb 163c
00000070: 24cc 3cbd ec7c 23bd 6dea 80bd 3386 063b

conv3.1.running_mean f4 [32]
-0.5535737 -0.61317503 -0.16113971 -0.07358349 -0.3835855 0.28214985 -0.10696003 0.0415267
-0.06950751 -0.28245887 -0.2546876 -0.58051944 -0.48269585 -0.87969387 -0.3895953 -0.32121232
-0.42446488 -0.15918998 0.060968254 0.14058687 -0.5775021 -0.011565932 -0.27035087 -0.25888863
0.17055762 -0.38773775 -0.3054504 -0.5198306 -0.11132315 0.16331781 -0.5190427 -0.41861892
00000000: 02b7 0dbf 0af9 1cbf cf01 25be f1b2 96bd
00000010: 5265 c4be f275 903e dc0d dbbd e717 2a3d
00000020: f459 8ebd 739e 90be 6a66 82be ec9c 14bf
00000030: e923 f7be 9e33 61bf 0979 c7be f175 a4be
00000040: 7653 d9be b302 23be d9b9 793d 01f6 0f3e
00000050: 2dd7 13bf 097f 3dbc 6e6b 8abe 0d8d 84be
00000060: a8a6 2e3e 9085 c6be ff63 9cbe 9e13 05bf
00000070: 64fd e3bd c93c 273e fbdf 04bf 3855 d6be

conv3.1.running_var f4 [32]
0.2019473 0.28189605 0.13086863 0.19556451 0.23466617 0.20915076 0.41193825 0.2512935
0.1089538 0.3092338 0.20392787 0.2893629 0.3881257 0.16176787 0.18829645 0.14332263
0.18056047 0.18570143 0.16527474 0.119811095 0.18983471 0.13041504 0.2529492 0.23899914
0.18229307 0.18235986 0.12550955 0.39126056 0.22353028 0.15866266 0.14033413 0.23125759
00000000: 46cb 4e3e ae54 903e 6d02 063e 1042 483e
00000010: 544c 703e 9e2b 563e 92e9 d23e 8ba9 803e
00000020: 2b23 df3d e553 9e3e 78d2 503e 6027 943e
00000030: 69b8 c63e 7aa6 253e c9d0 403e 2bc3 123e
00000040: d8e4 383e 8428 3e3e c83d 293e 855f f53d
00000050: 0864 423e 858b 053e 8f82 813e 31bc 743e
00000060: 09ab 3a3e 8bbc 3a3e 9385 003e 4e53 c83e
00000070: 1fe5 643e 7778 223e c0b3 0f3e cace 6c3e

deconv2.0.weight f4 [32, 16, 4, 4]
-0.08014315 0.013242046 -0.018005291 0.011642245 -0.04275134 0.014998098 -0.024159612 0.0006332674
-0.04943065 0.0032794334 -0.038306803 -0.06332681 -0.037423458 0.039795805 -0.056012157 0.03150637
0.013206296 -0.014615289 0.021734748 -0.088575095 -0.027189659 0.02556839 0.11206832 0.013307301
0.025709689 -0.02498128 0.04088941 0.012354219 -0.06332238 0.05669026 0.042731617 0.00610557
0.050067823 0.0018731891 0.047847714 0.0026350084 0.028071985 0.04567006 0.0011798549 0.022517595
0.040293004 0.030350372 -0.00042638555 0.020713465 0.012069729 -0.055329967 0.0042596515 0.0045627356
-0.02560586 0.033775605 -0.033692233 0.03706213 -0.071603976 -0.09594075 0.10690362 -0.032382276
-0.08204998 0.017926969 -0.0717439 -0.0023723922 -0.01466997 -0.120649226 0.07426012 -0.12032546
0.012059605 0.053735904 -0.008260006 0.0016505155 -0.033471514 -0.07352205 -0.03415033 -0.019165266
0.0031569349 0.036216583 -0.011144163 0.025542602 0.061012425 0.04024657 0.009864716 0.022060135
-0.025592443 0.020123985 -0.040412497 -0.06654401 0.055713996 0.033133104 0.045004807 -0.001318851
0.00546247 -0.009157786 -0.065206364 -0.08453469 -0.01959531 0.014745739 0.025544321 0.0080822315
-0.012263629 -0.042492878 -0.07703371 0.014179454 0.053811822 -0.07484571 0.009528617 -0.019525757
-0.023739811 -0.022992492 -0.0022609662 0.00914557 0.023565453 0.044067495 0.036545623 -0.01387893
-0.07857982 0.021955881 0.0015262035 0.012008591 -0.017615674 0.015015944 0.010615728 0.007258957
-0.06912937 0.00599847 0.049415287 0.016947534 -0.024608823 0.032075386 -0.027504966 0.008277606
0.007395855 -0.008766792 -0.012648215 -0.008545541 -0.049300585 -0.04494384 0.004585672 -0.037007824
0.0330761 -0.034309246 0.029304052 -0.0507871 -0.020375744 0.047415283 0.019948682 -0.04837028
-0.0059886477 -0.018242924 0.014991116 -0.044141702 0.047216564 -0.018045248 -0.124719895 0.011834141
0.058896158 -0.021448813 0.045597322 -0.097493276 0.064180695 -0.011390514 -0.12634164 -0.011159475
-0.047570255 -0.08516768 -0.051797993 -0.08284438 0.02749732 -0.018682959 -0.03776073 -0.023865407
-0.034740426 -0.09658986 -0.006443971 -0.038008813 0.036711693 -0.006836168 0.014812397 0.0049322005
-0.06009196 -0.029972415 -0.060083304 -0.0698279 -0.0028166824 -0.05282059 0.016406894 -0.10047308
-0.07614375 -0.062497385 -0.056836225 -0.026881753 -0.03983756 -0.038493857 0.0130802635 -0.023581164
-0.011569052 0.019179087 -0.060699854 0.03376368 -0.05985376 -0.0067002 -0.0055756797 -0.04096239
-0.0076145693 0.061601967 -0.0607094 0.040101755 -0.008098617 -0.018229572 0.010767255 -0.005298114
0.0013675723 -0.012796755 -0.06273635 -0.008990713 0.07222957 0.046785478 -0.019478707 0.025828533
0.015983667 -0.015438726 -0.06083124 0.008043307 0.07629907 0.0063828654 0.03828708 0.033216067
-0.06894468 -0.0035448216 -0.016345613 -0.039351255 0.008964556 -0.02015746 0.018259728 -0.0036583378
-0.043842502 -0.055122096 -0.054811496 -0.08298798 0.0012059505 -0.042687144 -0.005852755 -0.03045689
-0.032708 -0.061768256 0.0048785713 0.020839937 -0.017304529 -0.022852218 -0.101525284 0.029001398
-0.035054248 -0.04711972 0.014979225 -0.07018881 0.089186296 -0.024130793 -0.06408934 0.007133829
00000000: 1822 a4bd 2bf5 583c d57f 93bc 1dbf 3e3c
00000010: 071c 2fbd 95ba 753c 61ea c5bc db01 263a
00000020: cb77 4abd c3eb 563b 98e7 1cbd 7db1 81bd
00000030: 5749 19bd ed00 233d 016d 65bd d30c 013d
00000040: 385f 583c f774 6fbc 120d b23c dc66 b5bd
00000050: d9bc debc cd74 d13c 1384 e53d de06 5a3c
00000060: 209d d23c 8ba5 ccbc a77b 273d 5a69 4a3c
00000070: 2aaf 81bd 0c34 683d 5907 2f3d 3c11 c83b
00000080: eb13 4d3d cc85 f53a f7fb 433d 1bb0 2c3b
00000090: 38f7 e53c 8710 3b3d 5ca5 9a3a d276 b83c
000000a0: 470a 253d 58a1 f83c 808c dfb9 49af a93c
000000b0: 1dc0 453c ada1 62bd 8c94 8b3b 0083 953b
000000c0: 61c3 d1bc 4a58 0a3d de00 0abd 76ce 173d
000000d0: 1ba5 92bd 957c c4bd 49f0 da3d 47a3 04bd
000000e0: d209 a8bd 94db 923c 77ee 92bd 237a 1bbb
000000f0: 505a 70bc f116 f7bd b115 983d 326d f6bd
00000100: a695 453c 2e1a 5c3d fa54 07bc 1c56 d83a
00000110: 6d19 09bd bb92 96bd 37e1 0bbd 7a00 9dbc
00000120: 94e4 4e3b d757 143d 0296 36bc b83e d13c
00000130: 2ae8 793d 96d9 243d 9e9f 213c 75b7 b43c
00000140: 3ea7 d1bc 0edb a43c 9387 25bd 3a48 88bd
00000150: 5c34 643d 94b6 073d f656 383d 4cdd acba
00000160: 85fe b23b 8a0a 16bc ea8a 85bd 8620 adbd
00000170: 5886 a0bc 1d98 713c 5342 d13c 566b 043c
00000180: 63ed 48bc 030d 2ebd dac3 9dbd f150 683c
00000190: c969 5c3d b548 99bd eb1d 1c3c 7bf4 9fbc
000001a0: fe79 c2bc c05a bcbc b82c 14bb 4dd7 153c
000001b0: 560c c13c 1e80 343d ddb0 153d 7464 63bc
000001c0: 75ee a0bd d2dc b33c e40a c83a aebf 443c
000001d0: bf4e 90bc 6f05 763c 97ed 2d3c 8bdc ed3b
000001e0: b393 8dbd d08e c43b af67 4a3d 8ed5 8a3c
000001f0: 7198 c9bc 7b61 033d 1852 e1bc cc9e 073c
00000200: ee58 f23b 97a2 0fbc 753a 4fbc 9902 0cbc
00000210: 69ef 49bd 0817 38bd 6843 963b 8495 17bd
00000220: ce7a 073d da87 0cbd 0d0f f03c 2206 50bd
00000230: 08eb a6bc 8736 423d 6b6b a33c ea1f 46bd
00000240: 6b3c c4bb 2f72 95bc 4c9d 753c eecd 34bd
00000250: 2866 413d a1d3 93bc 256d ffbd fce3 413c
00000260: 193d 713d 6cb5 afbc 42c4 3a3d 8eaa c7bd
00000270: 2b71 833d 479f 3abc b45f 01be 3bd6 36bc
00000280: 07d9 42bd 656c aebd 222a 54bd 50aa a9bd
00000290: 0f42 e13c 010d 99bc ffaa 1abd 6381 c3bc
000002a0: fa4b 0ebd e8d0 c5bd f227 d3bb 21af 1bbd
000002b0: 005f 163d ef01 e0bb b2af 723c 4c9e a13b
000002c0: fd22 76bd b688 f5bc e919 76bd ee01 8fbd
000002d0: 1798 38bb 675a 58bd c067 863c d5c4 cdbd
000002e0: 41f1 9bbd 42fd 7fbd 1acd 68bd 1f37 dcbc
000002f0: b62c 23bd bcab 1dbd 9a4e 563c 492d c1bc
00000300: 1f8c 3dbc 761d 9d3c 69a0 78bd c94b 0a3d
00000310: 3729 75bd 5a8d dbbb 31b4 b6bb 2ec8 27bd
00000320: a383 f9bb 5852 7c3d 6baa 78bd bd41 243d
00000330: 10b0 04bc 2f56 95bc 2469 303c cd9b adbb
00000340: 1d40 b33a 7ba9 51bc ea7b 80bd c94d 13bc
00000350: 19ed 933d 21a2 3f3d cf91 9fbc 5c96 d33c
00000360: 2ef0 823c b6f2 7cbc 2e2a 79bd 13c8 033c
00000370: b042 9c3d 5b27 d13b ead2 1c3d 920d 083d
00000380: de32 8dbd 3d50 68bb 3ce7 85bc c82e 21bd
00000390: 13e0 123c 4221 a5bc 6d95 953c b9c0 6fbb
000003a0: 3294 33bd b5c7 61bd 0582 60bd 9af5 a9bd
000003b0: fc10 9e3a b7d8 2ebd 78c8 bfbb ba80 f9bc
000003c0: d3f8 05bd b600 7dbd 6cdc 9f3b 84b8 aa3c
000003d0: 3ac2 8dbc 9334 bbbc 7dec cfbd 5794 ed3c
000003e0: 0b95 0fbd 9c00 41bd 6c6b 753c 27bf 8fbd
000003f0: 4ea7 b63d f1ad c5bc 4641 83bd e5c2 e93b

deconv2.0.bias f4 [16]
0.029520111 -0.060230583 0.03009622 0.026622152 0.038661536 -0.05625469 0.048499294 -0.016367866
-0.060531948 0.051695783 0.027378697 -0.0553141 0.025603553 -0.014354462 0.014948109 0.016245851
00000000: 29d4 f13c 58b4 76bd 598c f63c b316 da3c
00000010: 8f5b 1e3d 516b 66bd 32a7 463d e715 86bc
00000020: 59f0 77bd f5be 533d 4a49 e03c 0a91 62bd
00000030: 8bbe d13c fa2e 6bbc eae8 743c 0516 853c

deconv2.1.weight f4 [16]
0.9501288 1.0103588 1.0029161 0.9730064 0.9875555 0.94660187 0.94730854 0.9424732
0.96497357 1.025632 0.962333 1.1127867 0.98473215 0.9536475 1.0453366 0.99976665
00000000: a43b 733f 7053 813f 8e5f 803f f316 793f
00000010: 70d0 7c3f 8054 723f d082 723f ec45 713f
00000020: 8208 773f e947 833f 755b 763f cb6f 8e3f
00000030: 6817 7c3f 3e22 743f 97cd 853f b5f0 7f3f

deconv2.1.bias f4 [16]
0.008802706 0.08885577 0.05411115 0.012880266 0.018682908 0.014981532 0.028117072 -0.043886196
-0.0138023095 0.13528717 0.031683486 -0.051636685 -0.035462648 0.025778417 0.042753056 0.01713178
00000000: 3a39 103c 04fa b53d a7a3 5d3d c007 533c
00000010: e60c 993c 1975 753c c655 e63c 03c2 33bd
00000020: 1523 62bc b888 0a3e 8bc6 013d fd80 53bd
00000030: 4841 11bd 422d d33c d41d 2f3d f257 8c3c

deconv2.1.running_mean f4 [16]
-0.72633135 -0.5788048 -0.29042518 -0.60241675 -0.25506684 -0.84123445 -0.53044814 -0.39842874
-0.71174365 -0.83692557 -0.9351058 -0.7695216 -0.025630744 -0.23325376 -0.8067825 -0.91315496
00000000: daf0 39bf 8d2c 14bf 9cb2 94be fc37 1abf
00000010: 1f98 82be 245b 57bf 73cb 07bf dafe cbbe
00000020: d534 36bf c140 56bf 1863 6fbf 5eff 44bf
00000030: 91f7 d1bc 13da 6ebe 4c89 4ebf 86c4 69bf

deconv2.1.running_var f4 [16]
0.8029556 0.8699972 0.90355265 0.69191384 0.5232003 1.4643693 1.3202078 0.7249819
0.5488634 2.195173 1.8393378 0.12015205 0.32638317 1.1600763 0.5441675 0.79516405
00000000: 808e 4d3f 23b8 5e3f 3a4f 673f 4421 313f
00000010: 74f0 053f 7470 bb3f 92fc a83f 6a98 393f
00000020: 5082 0c3f b77d 0c40 6c6f eb3f 4712 f63d
00000030: b21b a73e 617d 943f 904e 0b3f df8f 4b3f

deconv3.0.weight f4 [16, 8, 4, 4]
-0.056268577 0.01779027 -0.011360063 -0.092026025 -0.08430271 -0.052088223 0.021515202 -0.017836481
-0.056390863 0.020986337 0.02161323 0.07275528 -0.06337611 -0.0332788 0.035171844 -0.0061600697
-0.0074184397 -0.034992952 0.02276816 0.080966786 0.03596639 0.026763702 0.056459986 0.022037353
-0.0068024946 0.09444038 0.05015472 0.03900877 0.0015540593 0.06656215 0.062472228 -0.027693259
0.0528664 0.032262057 -0.031555675 0.06325131 0.0492722 0.12936379 0.015424351 0.02758257
0.019972574 0.07155555 -0.05312014 0.06762481 0.014224242 0.028542418 -0.007873674 -0.010129156
0.029107232 0.09507916 -0.067423 0.00010100718 0.0071204095 -0.034858298 0.029740762 0.0839459
0.03602962 0.08259394 -0.022653481 0.07545233 0.030453626 0.029517563 0.018819436 0.021429963
0.032879986 0.053025793 -0.00977273 -0.049970027 0.034801614 0.012799905 0.018209552 -0.06501242
-0.019002846 0.03916969 -0.0342604 0.0051914034 0.0033952768 0.018623067 -0.011868606 0.047477454
0.018657088 -0.019290531 0.0012499734 -0.0022372038 0.008162335 -0.009245852 0.016317645 0.069253504
-0.0003471157 0.043068167 -0.039294116 -0.0063297627 0.0515452 0.00907154 0.02812684 0.019590123
-0.029086784 -0.07910892 -0.030124217 -0.06153569 0.04359597 -0.040757213 -0.004744346 -0.017603334
0.007883632 0.08139871 0.033052724 0.006337143 0.0036734643 -0.03344831 -0.021533389 -0.04676611
0.04017483 0.07797226 0.033086915 0.030321587 0.02212739 0.098934494 -0.058391638 -0.029028019
0.047247402 -0.07454183 -0.025270842 -0.008942907 0.046317067 0.05566068 -0.030689824 0.03799472
-0.012123308 0.005414235 0.062992446 -0.08995968 -0.0380354 -0.03505175 0.1362197 0.04950372
0.018168008 0.011676649 0.03111053 -0.010433905 -0.004175781 -0.035557784 0.0503181 0.004078966
0.048827533 -0.09536926 0.002566532 -0.033924654 -0.028952261 -0.07815887 0.096838646 -0.047068413
0.01632167 -0.0037324792 0.008209872 0.0159824 -0.0011220981 0.0039057073 0.043663975 0.03095539
0.010709853 0.02040616 0.10848887 -0.0023524496 -0.0027566643 0.006358568 -0.012304632 0.054735232
-0.016321484 0.034998335 0.001534836 -0.006266112 -0.019915588 -0.023497285 0.028260728 -0.05738096
-0.07754835 -0.031363975 0.059731815 -0.034059502 0.07823536 -0.048636504 -0.048716955 0.042351805
-0.050315328 0.032235235 0.10454267 0.013181105 0.05179953 0.0038769545 -0.050519537 0.04242927
0.04815171 -0.0016018118 0.022316333 0.052124523 0.079299085 0.05770459 -0.03228814 0.026415484
0.050059397 0.039438665 0.037978515 0.11102814 0.008201161 -0.032671742 0.044753615 0.0150520075
0.022645436 -0.05917717 -0.0359627 0.06157256 -0.04219423 0.04442937 0.121667795 0.1281471
0.009680421 0.053363536 0.0023141943 0.11542564 0.09349709 0.030421432 0.08226829 0.12060645
-0.03347194 -0.087502286 -0.018786019 0.025409298 0.03750536 0.020563949 0.107536614 -0.00083286327
0.026497938 -0.02895521 0.019437157 0.020697832 -0.003281253 0.0029589385 0.10806698 0.034912862
0.021774855 0.047079436 -0.007517494 0.049939856 0.013010523 -0.017886255 -0.07639459 -0.08308197
-0.04897554 -0.012108192 -0.041924424 -0.06611693 -0.01551044 -0.012905986 -0.09863878 -0.07774748
00000000: e179 66bd e6bc 913c 8f1f 3abc 2478 bcbd
00000010: e6a6 acbd 765a 55bd a640 b03c d01d 92bc
00000020: 1bfa 66bd 8aeb ab3c 3b0e b13c b800 953d
00000030: 55cb 81bd 5a4f 08bd 5a10 103d 69da c9bb
00000040: 6216 f3bb c554 0fbd 4b84 ba3c ead1 a53d
00000050: 7e51 133d 8d3f db3c 9642 673d ae87 b43c
00000060: 76e7 debb f569 c13d 096f 4d3d a9c7 1f3d
00000070: 94b1 cb3a bd51 883d e1e2 7f3d f9dc e2bc
00000080: 708a 583d 3825 043d 8640 01bd e789 813d
00000090: a5d1 493d f177 043e 6bb6 7c3c d8f4 e13c
000000a0: 869d a33c b78b 923d 8194 59bd e07e 8a3d
000000b0: cc0c 693c cad1 e93c 9500 01bc c2f4 25bc
000000c0: 4a72 ee3c ddb8 c23d 1215 8abd d1d3 d338
000000d0: 5352 e93b 93c7 0ebd e6a2 f33c d4eb ab3d
000000e0: cb93 133d 0327 a93d cb93 b9bc c086 9a3d
000000f0: e279 f93c d1ce f13c 382b 9a3c e48d af3c
00000100: 2aad 063d 9331 593d cd1d 20bc 5fad 4cbd
00000110: 238c 0e3d b1b6 513c 332c 953c 3b25 85bd
00000120: dbab 9bbc 6670 203d a254 0cbd a61c aa3b
00000130: 4b83 5e3b 678f 983c 8b74 42bc b877 423d
00000140: c0d6 983c 2d07 9ebc 26d6 a33a 0d9e 12bb
00000150: 50bb 053c ea7b 17bc 95ac 853c c8d4 8d3d
00000160: 15fd b5b9 3f68 303d def2 20bd e669 cfbb
00000170: 0f21 533d cca0 143c 426a e63c 777b a03c
00000180: 6847 eebc dc03 a2bd 10c7 f6bc d90c 7cbd
00000190: b091 323d 09f1 26bd 7576 9bbb de34 90bc
000001a0: 592a 013c 5eb4 a63d 4b62 073d cfa7 cf3b
000001b0: 81be 703b 1801 09bd ca66 b0bc d28d 3fbd
000001c0: 5d8e 243d ecaf 9f3d 2586 073d fa64 f83c
000001d0: 8044 b53c 2b9e ca3d 122c 6fbd 2bcc edbc
000001e0: 7e86 413d 63a9 98bd cc04 cfbc 4585 12bc
000001f0: f7b6 3d3d 74fc 633d 3a69 fbbc 5aa0 1b3d
00000200: d7a0 46bc e569 b13b 2f02 813d c83c b8bd
00000210: 02cb 1bbd 6c92 0fbd 2d7d 0b3e 6ac4 4a3d
00000220: 13d5 943c 6a4f 3f3c 83db fe3c f8f2 2abc
00000230: fdd4 88bb 0aa5 11bd 5a1a 4e3d d9a8 853b
00000240: 61ff 473d f550 c3bd 4333 283b 94f4 0abd
00000250: 4b2d edbc c211 a0bd 5753 c63d cfca 40bd
00000260: 06b5 853c 9c9c 74bb b382 063c 86ed 823c
00000270: 5d13 93ba e5f6 7f3b ffd8 323d 2896 fd3c
00000280: 6178 2f3c d22a a73c 6a2f de3d 8e2b 1abb
00000290: 27a9 34bb 895b d03b 5e99 49bc 0d32 603d
000002a0: a2b4 85bc 6a5a 0f3d 8d2c c93a f553 cdbb
000002b0: 0426 a3bc 617d c0bc 0b83 e73c 4c08 6bbd
000002c0: abd1 9ebd 8377 00bd 59a9 743d fa81 0bbd
000002d0: dc39 a03d 1237 47bd 6e8b 47bd 1679 2d3d
000002e0: 7217 4ebd 1809 043d 781a d63d 90f5 573c
000002f0: be2b 543d 8114 7e3b 93ed 4ebd 50ca 2d3d
00000300: ba3a 453d e3f3 d1ba bed0 b63c 8680 553d
00000310: 8f67 a23d a65b 6c3d 9240 04bd 4965 d83c
00000320: 150b 4d3d 708a 213d 5c8f 1b3d b962 e33d
00000330: 2a5e 063c ced2 05bd 914f 373d b29c 763c
00000340: ec82 b93c c363 72bd a04d 13bd 8233 7c3d
00000350: dbd3 2cbd 92fb 353d f72c f93d fe38 033e
00000360: a19a 1e3c b993 5a3d bda9 173b 4764 ec3d
00000370: 677b bf3d 5e36 f93c 477c a83d 8400 f73d
00000380: df19 09bd 6634 b3bd 23e5 99bc 2927 d03c
00000390: 389f 193d ba75 a83c 283c dc3d 8254 5aba
000003a0: 3412 d93c 7a33 edbc ac3a 9f3c 808e a93c
000003b0: 4a0a 57bb c0ea 413b 3952 dd3d ca00 0f3d
000003c0: 2e61 b23c 5ed6 403d 4f55 f6bb bc8d 4c3d
000003d0: 172a 553c 3286 92bc c474 9cbd e126 aabd
000003e0: 939a 48bd 7061 46bc f2b8 2bbd 5068 87bd
000003f0: 801f 7ebc a173 53bc 2103 cabd 123a 9fbd

deconv3.0.bias f4 [8]
-0.0703868 0.07688221 -0.05344556 0.04790587 0.02539597 0.062296186 0.03299933 0.06327528
00000000: f426 90bd 6c74 9d3d bbe9 5abd f238 443d
00000010: 360b d03c 492a 7f3d 4e2a 073d 7896 813d

deconv3.1.weight f4 [8]
1.2432239 1.2204654 1.224743 1.2250844 1.1992759 1.2246739 1.2373434 1.1841762
00000000: f621 9f3f 3638 9c3f 61c4 9c3f 91cf 9c3f
00000010: df81 993f 1dc2 9c3f 4561 9e3f 1693 973f

deconv3.1.bias f4 [8]
0.24040781 0.21392779 0.21809292 0.22039832 0.20105201 0.2182483 0.23322274 0.19011049
00000000: 772d 763e e30f 5b3e c053 5f3e 19b0 613e
00000010: 94e0 4d3e 7b7c 5f3e f1d1 6e3e 53ac 423e

deconv3.1.running_mean f4 [8]
-0.18714511 -0.045356773 0.073064156 0.12182225 0.409589 0.45567054 0.03368448 -0.12736034
00000000: f8a2 3fbe 06c8 39bd a9a2 953d f27d f93d
00000010: a6b5 d13e a64d e93e bdf8 093d c06a 02be

deconv3.1.running_var f4 [8]
0.075542666 0.056739185 0.09231066 0.066435784 0.04828641 0.060749754 0.0743366 0.071221694
00000000: 1db6 9a3d 5967 683d 5f0d bd3d 7c0f 883d
00000010: f8c7 453d bcd4 783d ca3d 983d aedc 913d

deconv4.0.weight f4 [8, 3, 4, 4]
-0.052181646 0.068386465 0.12521382 0.060654104 -0.04683131 0.07371136 0.08199402 0.017969586
0.0031854773 0.13557707 0.102407135 -0.06304806 -0.067311004 0.020639047 0.18611847 0.003882915
-0.26727962 -0.27732095 -0.21663962 -0.044508774 -0.093158424 -0.16207492 -0.26691866 -0.024707701
-0.115921654 -0.24005803 -0.13170758 -0.033743963 -0.08423184 -0.110628895 -0.27003726 -0.09387601
-0.072463825 -0.110965475 -0.14908099 -0.17854999 -0.1423128 -0.13797906 -0.2735862 -0.06918337
-0.2513875 -0.13925818 -0.28203523 -0.16045617 -0.16755846 -0.2332165 -0.048930343 -0.2074744
0.17290922 -0.10841897 -0.04091502 -0.103419684 0.029518569 -0.01308117 0.115109555 0.05881283
-0.06690795 0.104285195 0.12452768 0.15518329 0.19144367 0.0947915 -0.015627213 -0.05143277
-0.17025538 -0.25657383 -0.03231176 -0.2758242 -0.040428407 -0.075176455 -0.12331248 -0.18230307
-0.2684231 -0.22712271 -0.22620775 -0.12358157 -0.008766378 -0.18186995 -0.16289112 -0.15650469
-0.15135427 -0.11203212 -0.19208378 -0.16818419 -0.118534215 -0.1889198 -0.27543375 -0.2637693
-0.0952953 -0.08532715 -0.26769382 -0.1799884 -0.18730815 -0.21482557 -0.15472631 -0.076074995
0.00021920097 -0.001194706 0.077157125 0.1305955 0.18409966 0.15218648 0.18879463 0.15877621
0.012686095 0.036930725 0.19349495 0.028480016 -0.021802342 0.068095334 0.11555293 -0.0005800079
-0.2859563 -0.17753164 -0.23243737 -0.09877133 -0.03526659 -0.11748753 -0.17797126 -0.16071816
-0.23761761 -0.27633622 -0.027896397 -0.11055063 -0.1696004 -0.18918699 -0.055986013 -0.2930095
-0.07385662 -0.24052502 -0.09779796 -0.09455923 -0.15051949 -0.106247045 -0.26171947 -0.27064043
-0.10773946 -0.07163168 -0.12308127 -0.12193535 -0.102190845 -0.003939801 -0.08515559 -0.15491459
0.20287025 0.049545854 0.03856557 0.088582456 0.04762265 0.074483514 0.026446976 0.017484484
0.12401118 0.16014136 0.04817589 0.10337048 0.15032741 0.036062106 0.030969815 0.009110673
-0.18980044 -0.1852368 -0.20569623 -0.18454164 -0.09290924 -0.20945777 -0.048160825 -0.1323709
-0.18270127 -0.1330578 -0.04070687 -0.08023343 -0.2703114 -0.0663629 -0.15280159 -0.17897682
-0.26150262 -0.18593203 -0.25943935 -0.23613721 -0.13814482 -0.038919125 -0.1792346 -0.09134862
-0.13804574 -0.28893754 -0.016045399 -0.03645466 -0.25150967 -0.051737245 -0.08511519 -0.26918665
0.23523752 0.20695204 0.23363885 0.07768156 0.17408818 0.12623791 0.053377595 0.14414798
0.14528318 0.03467876 -0.0039626653 0.21554531 0.23776391 0.25695488 0.08001557 0.09548309
-0.22372654 -0.121859245 0.0033943134 -0.2534937 -0.23324774 -0.28080744 -0.079534926 -0.22759412
-0.20376086 -0.034450702 -0.11783046 -0.056281723 -0.05997798 -0.27326047 -0.22562693 -0.19091706
-0.10244158 -0.25959122 -0.1989194 -0.1822761 -0.050101962 -0.22559464 -0.10951436 -0.20878404
-0.2656365 -0.075309604 -0.02483096 -0.19503008 -0.07260347 -0.13999914 -0.09643133 -0.12615393
0.21534416 0.19680747 0.09017971 0.23734336 0.08326399 0.10885816 0.113931745 0.010415099
-0.007909945 -0.004105751 0.09204912 0.17294614 0.20299879 0.17557983 0.0001849312 0.03108572
00000000: 6cbc 55bd 340e 8c3d 0d38 003e 7070 783d
00000010: 30d2 3fbd fbf5 963d 7bec a73d f434 933c
00000020: 71c3 503b b7d4 0a3e d5ba d13d 571f 81bd
00000030: 5ada 89bd 3813 a93c d795 3e3e 8178 7e3b
00000040: e0d8 88be 03fd 8dbe c7d6 5dbe d54e 36bd
00000050: d8c9 bebd f8f6 25be 90a9 88be ce67 cabc
00000060: 5568 edbd c6d1 75be 5ade 06be 1c37 0abd
00000070: be81 acbd 6791 e2bd 5342 8abe 1142 c0bd
00000080: ea67 94bd de41 e3bd b0a8 18be cfd5 36be
00000090: 72ba 11be 624a 0dbe 7e13 8cbe 03b0 8dbd
000000a0: ddb5 80be b299 0ebe ec66 90be 9f4e 24be
000000b0: 7294 2bbe 4ed0 6ebe 2f6b 48bd 2b74 54be
000000c0: 1d0f 313e c40a debd 8296 27bd b3cd d3bd
000000d0: edd0 f13c 6752 56bc 8fbe eb3d b9e5 703d
000000e0: 0907 89bd 7a93 d53d 5e08 ff3d 5ee8 1e3e
000000f0: cf09 443e 0c22 c23d a404 80bc 2bab 52bd
00000100: 6d57 2ebe a55d 83be 5659 04bd d438 8dbe
00000110: 4298 25bd 1df6 99bd 418b fcbd a8ad 3abe
00000120: c16e 89be db92 68be 01a3 67be 5618 fdbd
00000130: dba0 0fbc 1e3c 3abe eecc 26be c442 20be
00000140: 9dfc 1abe 1971 e5bd 9cb1 44be 7a38 2cbe
00000150: 11c2 f2bd 3174 41be a705 8dbe c50c 87be
00000160: 2f2a c3bd 00c0 aebd 2a0f 89be e14e 38be
00000170: b5cd 3fbe 3cfb 5bbe 9370 1ebe 35cd 9bbd
00000180: 50d9 6539 ae97 9cba 8e04 9e3d d4ba 053e
00000190: 9f84 3c3e c6d6 1b3e 6153 413e 3b96 223e
000001a0: 57d9 4f3c ac44 173d 8a23 463e ec4e e93c
000001b0: d39a b2bc 9175 8b3d 04a7 ec3d ac0b 18ba
000001c0: dd68 92be dbca 35be 1004 6ebe a048 cabd
000001d0: b373 10bd 4d9d f0bd 193e 36be 4d93 24be
000001e0: 0852 73be f17b 8dbe fc86 e4bc 5e68 e2bd
000001f0: baab 2dbe 3cba 41be 9751 65bd 5705 96be
00000200: 2442 97bd 314c 76be 4c4a c8bd 45a8 c1bd
00000210: c821 1abe 0d98 d9bd 1800 86be 6291 8abe
00000220: 82a6 dcbd a1b3 92bd 0812 fcbd 3eb9 f9bd
00000230: 6f49 d1bd 7219 81bb 0e66 aebd eea1 1ebe
00000240: 38bd 4f3e 98f0 4a3d eef6 1d3d b86a b53d
00000250: f80f 433d d08a 983d 54a7 d83c 9f3b 8f3c
00000260: 93f9 fd3d 19fc 233e 1554 453d e7b3 d33d
00000270: 6eef 193e dcb5 133d 69b4 fd3c ef44 153c
00000280: 0c5b 42be b7ae 3dbe 08a2 52be 7cf8 3cbe
00000290: 3347 bebd 197c 56be 4944 45bd 3d8c 07be
000002a0: 0b16 3bbe 4e40 08be 3fbc 26bd 6d51 a4bd
000002b0: 4166 8abe 46e9 87bd 0578 1cbe b345 37be
000002c0: ace3 85be f764 3ebe 3cd5 84be f4cd 71be
000002d0: d675 0dbe a969 1fbd 4689 37be fc14 bbbd
000002e0: dd5b 0dbe 9fef 93be a471 83bc 7b51 15bd
000002f0: e0c5 80be 6fea 53bd df50 aebd d5d2 89be
00000300: 1be2 703e 3ceb 533e 063f 6f3e 8217 9f3d
00000310: 2c44 323e 8344 013e 77a2 5a3d 879b 133e
00000320: 1dc5 143e 510b 0e3d 3fd9 81bb e9b7 5c3e
00000330: 6278 733e 978f 833e 34df a33d a38c c33d
00000340: 9218 65be 5791 f9bd 2173 5e3b edc9 81be
00000350: 7fd8 6ebe fec5 8fbe 35e3 a2bd 6f0e 69be
00000360: b0a6 50be 2e1c 0dbd 1951 f1bd aa87 66bd
00000370: 78ab 75bd cce8 8bbe bf0a 67be c37f 43be
00000380: e4cc d1bd 24e9 84be 87b1 4bbe 96a6 3abe
00000390: b737 4dbd 4802 67be 1149 e0bd 7ccb 55be
000003a0: 8201 88be ec3b 9abd 4c6a cbbc f7b5 47be
000003b0: 21b1 94bd ef5b 0fbe ca7d c5bd 7f2e 01be
000003c0: 2e83 5c3e e687 493e 24b0 b83d 230a 733e
000003d0: 5086 aa3d 07f1 de3d 0c55 e93d 17a4 2a3c
000003e0: b798 01bc 8989 86bb 4084 bc3d cb18 313e
000003f0: eade 4f3e 33cb 333e 17ea 4139 7ba7 fe3c

deconv4.0.bias f4 [3]
-0.10711148 -0.02009395 -0.06236057
00000000: 435d dbbd 119c a4bc cc6d 7fbd
