03_hw/Pix2Pix/checkpoints/pix2pix_model_epoch_720.pth (torch, 99191 bytes, 32 tensors)

conv1.0.weight f4 [8, 3, 4, 4]
00000000: 0916 cabd 0d40 e9bd 6c7f 59bd 4c2b 3cbe
00000010: e4d2 753d 325d ccbd c5ea a9bc 99e8 753d
00000020: f41b 11be d627 3abd 4d1c a2bb 7a04 253d
00000030: 605f c5bc a4d2 933d eab0 8f3d 0cdd 0bbe
00000040: 6d09 0a3e 4f8d 403e f0a2 613d 8339 b1bb
00000050: 5d98 153d c6a9 bfbc 4c06 9fbd 4b5e 4a3d
00000060: 9168 f43d 8b6c 5c3d afe6 203d 5602 23bd
00000070: c069 99bd c0b2 ea3c 7849 84bd 52d2 2a3e
00000080: 3867 d5bd 2987 1f3d 728e 18be 550a 593d
00000090: 63c1 e1bd ea00 d9bd e5da dcbb ba0e f9bd
000000a0: 0079 d23c 9534 c8bc 10b8 2bbb 5642 16bd
000000b0: a2ad 40bd b52a 313d 0745 943d 637e 3c3d
000000c0: 8812 8fbd ffd8 8d3d a91f 99bc 4a9d 95bc
000000d0: 1c5a 75bb be9e e83d 00cc 0b3d c43c 3dbc
000000e0: a88f 153e 1118 b43d 57c0 cbbd 4351 95bd
000000f0: 8582 0e3d 2444 023e 9389 f3bc e151 b5bc
00000100: 485e 29bb c5df 093e 41da 343c 5d77 acbd
00000110: 25b9 39bd 4d35 9dbd be89 1a3d f40b 08bd
00000120: c301 fd3c 407f 0dbc 9d06 183d 0140 03be
00000130: b2c4 7d3d 5b7d e1bc 0c89 763d ee04 bc3d
00000140: f34e 173b f6af 80bd c61f 463d 8647 04be
00000150: de21 66bd 7ccb aa3d 93c0 94bd 8267 863d
00000160: 1b3a b4bb a5e9 8cbb 821f 90bc 5c1b 9a3b
00000170: ceb9 80bd e2b8 bebd 8721 edbc 32eb c5bd
00000180: 667b 07be 7961 613d 37c2 623c 9488 67bd
00000190: 3315 3d3c c995 c9bc ebcf 843d 9fd6 0d3e
000001a0: ab7e 9fbd 4e40 3b3d 6e2e e5bd 57af 4dbd
000001b0: 5483 1e3e c441 0e3d 7773 283d 782a 5dbd
000001c0: 7460 6dbd aabe 003b ca4c cf3d 06ee e6bd
000001d0: 4693 023e 1126 06bd 3717 723c acc6 043e
000001e0: 6d92 ff3c da1c 973d f6a1 bdbd 2e60 dbbd
000001f0: f836 233d 8d3b f73c 3055 aebb b20b f23d
00000200: 50b3 cfbd b27c c23d 21db 6ebc 8dc6 193d
00000210: 4131 843c 1eb3 863d 446d c33d 028d 68bc
00000220: 0ea5 9f3d 77f1 2f3e da0f f93d 95c5 9a3d
00000230: acc1 b5bd 2b2e c83c 1612 cd3d 5786 ee3d
00000240: 37ba 763d f5f7 ea3d 4a7e 313e 180f 493d
00000250: 8efb 973b c45c 4fbd 60f6 ebb9 42e2 51bd
00000260: e678 1d3d dc5a 8abd b456 123e 6814 71bd
00000270: 8960 593d c46d e63d a243 cf3d 5b99 22be
00000280: e42f dfbd 9ff7 b43d 0007 203e b045 d33c
00000290: 27f2 8b3d 6982 c93d ca9c d83a a0cd 1dbd
000002a0: 1d68 bcbd b251 b3bd 499d 8c3d 22e3 cd3d
000002b0: 5a5e aebd 6ab2 67bd cec9 66bc e730 acbd
000002c0: bf10 a13d d511 34be 21d8 8a3c d81e 013d
000002d0: 1874 67bd e7a2 e7bd 9b9a 2ebd e2e9 9b3c
000002e0: a1da edbd d704 dc3d d037 a3bd 988d e23d
000002f0: a6ba 6dbd 651a 2dbd 555b e1bd 1405 043e
00000300: 9652 bfbd 3613 0ebe 770b 1f3d 3286 4c3d
00000310: 5a01 093e dddc 69bc 474f a339 de38 0fbe
00000320: 55b6 c13d 8fe5 93bd b7af f13d f32c 683d
00000330: f94a 403d 9c1f 2ebe f8e5 b3bd b8bc 64bc
00000340: 7fb0 e5bc 8dc9 783d da75 173d fac3 bf3d
00000350: 14ed c5bd 7e69 9fbd 28fd afbb 749d 9d3d
00000360: d4e0 0abd 5739 03be 6b3d 48be d1eb 6cbe
00000370: 62eb e3bd baa4 aabc e926 4bbe 061b f73c
00000380: df48 e13d d2e1 983c 0035 7b3d acfd d4bd
00000390: 91f8 953d 4250 6fbd be54 c03d 0c50 9cbd
000003a0: e51f 65bd 992f c13d cdae 55bd 3b66 833d
000003b0: 5d61 c93d 5384 f93c 538e c9bb 0be6 6ebd
000003c0: ca22 1e3d 6544 ecbd 2cbd 8bbd 2f73 27bd
000003d0: 3559 6abd 5e30 c5bd f138 f33d 0200 41bb
000003e0: a790 ce3d 7044 7b3c a83a c13d 033d e9bd
000003f0: 6147 1cbd 9baf dc3d be10 013e 8a03 5d3d
-0.09867484 -0.1138917 -0.053100035 -0.18375891 0.060015574 -0.09978713 -0.02074183 0.060036276
-0.1417082 -0.045448147 -0.0049472214 0.040287472 -0.02409333 0.07217911 0.070161656 -0.13658541
0.13480158 0.18803905 0.05508703 -0.0054084673 0.036522258 -0.023396384 -0.07764873 0.04940633
0.11934007 0.053814452 0.039282497 -0.03979715 -0.07490873 0.028649688 -0.064593256 0.16681793
-0.10420078 0.03894726 -0.14898089 0.05298837 -0.11023214 -0.105958775 -0.0067399614 -0.12161012
0.025692463 -0.024439136 -0.002620224 -0.036684357 -0.04704059 0.04325362 0.072397284 0.04601897
-0.069859564 0.06926154 -0.018691855 -0.018263478 -0.0037437743 0.11358403 0.034130096 -0.011550132
0.14605582 0.08793653 -0.09948795 -0.0729089 0.034792442 0.12721306 -0.029728686 -0.02213377
-0.002584355 0.13464268 0.011038364 -0.08421204 -0.045342583 -0.07676182 0.037729017 -0.033214524
0.03088463 -0.008636296 0.037115682 -0.12817384 0.06195516 -0.027525594 0.06018929 0.09180628
0.002308783 -0.06283562 0.048370145 -0.12917909 -0.056184642 0.08339593 -0.07263293 0.06562711
-0.005500091 -0.0043003135 -0.01759315 0.0047029685 -0.062854394 -0.09312607 -0.028946651 -0.096640006
-0.13230667 0.055024598 0.01384025 -0.056526735 0.011540699 -0.024607556 0.0648497 0.13851403
-0.07787832 0.045715623 -0.111904964 -0.050216045 0.15479785 0.034730688 0.04112574 -0.05399558
-0.057953313 0.0019644895 0.10122068 -0.11275868 0.12751493 -0.032751147 0.014776043 0.12966412
0.031197751 0.0737855 -0.09259407 -0.10711704 0.039847344 0.030179763 -0.0053202137 0.11818637
-0.10141623 0.0949644 -0.014578612 0.03754287 0.016136767 0.06577133 0.09542325 -0.014193775
0.077951536 0.17181955 0.121612266 0.07557217 -0.088748306 0.024436077 0.10013215 0.11646717
0.060236182 0.11473075 0.17333332 0.04908666 0.004638142 -0.050625578 -0.00045006257 -0.051241167
0.038445376 -0.06755611 0.14290887 -0.05885735 0.05307058 0.11251405 0.10120322 -0.15878813
-0.10897806 0.088362925 0.1562767 0.025790066 0.06833296 0.09839327 0.0016526219 -0.038526177
-0.091995455 -0.087558165 0.06865937 0.10053088 -0.0851409 -0.056566633 -0.0140862 -0.08407765
0.07864522 -0.17584927 0.016948761 0.031523556 -0.0565072 -0.11310368 -0.042627912 0.019032422
-0.11613966 0.107431106 -0.0796963 0.11062163 -0.05803933 -0.0422615 -0.11003748 0.12892562
-0.09341924 -0.13874516 0.038829293 0.049932666 0.13379422 -0.014273849 0.0003114885 -0.13986537
0.09458605 -0.07221519 0.11801093 0.056683492 0.0469465 -0.17004246 -0.087840974 -0.01396101
-0.028038261 0.06073909 0.036977626 0.093635514 -0.0966436 -0.07783793 -0.0053707547 0.076960474
-0.03390582 -0.12814842 -0.19554679 -0.23136832 -0.1112888 -0.0208305 -0.19839062 0.030164253
0.11000227 0.018662367 0.06132984 -0.103999466 0.07322801 -0.05842615 0.09391163 -0.07632455
-0.05593862 0.09432907 -0.052168656 0.06415983 0.09833024 0.030458605 -0.0061509996 -0.058324855
0.038607396 -0.11536483 -0.06823191 -0.040881332 -0.05721398 -0.09628366 0.11876095 -0.0029449468
0.10086184 0.015336141 0.09435016 -0.1138859 -0.03815401 0.107756816 0.12604043 0.053958453

conv1.0.bias f4 [8]
00000000: 1492 083e 28d4 913b 3952 0fbd 51b8 fe3d
00000010: b6c1 913d b452 ce3d 7891 debd 6e73 41bc
0.13336974 0.00445034 -0.034990523 0.12437499 0.071170256 0.10074368 -0.1086759 -0.011807306

conv1.1.weight f4 [8]
00000000: 75d0 803f a1ca 7b3f 2dd0 7f3f 6f75 743f
00000010: 88e0 803f 146f 723f 2aab 823f 99ff 863f
1.0063616 0.9835606 0.99927026 0.9549169 1.0068521 0.9470074 1.0208485 1.0546752

conv1.1.bias f4 [8]
00000000: f260 3dbb 89fd 29bd 192f 04bd b1c5 2abc
00000010: aa35 6fbb 86a5 a03d 8132 35bd 2d78 d63d
-0.0028896895 -0.041501556 -0.03227148 -0.01042311 -0.0036500492 0.07844071 -0.044237617 0.104721405

conv1.1.running_mean f4 [8]
00000000: fcdc 4b3e b0c6 e6bc 489b d0bd 2df8 6c3d
00000010: a41c 2f3e 58a0 a03d 3022 ebbd 7dfd 37bc
0.19908518 -0.028170913 -0.101858675 0.057853866 0.1710077 0.07843083 -0.1148113 -0.01122987

conv1.1.running_var f4 [8]
00000000: 2bb3 413d 210c 683c 16c5 803e 7bcc d03c
00000010: 34e2 073e b3b8 083d 1ead a33c 3960 f73c
0.04729001 0.014163048 0.25150365 0.025488129 0.13269883 0.033379268 0.01998001 0.03019725

conv2.0.weight f4 [16, 8, 4, 4]
00000000: bfaa 883d ad5e c33d 0b6e f63c 476c 363d
00000010: 8638 a5bd 10fe 953d 2d2b 3ebd e688 913d
00000020: 87a6 9bbd 9516 8f3d f063 523d bee5 953c
00000030: dc1a eabc 719c d0bd 372f d1bd a5ea 8f3c
00000040: 43ad 8abc b008 d33d d278 973d 9984 a7bc
00000050: 5cef 603d c71b 85bd a5cd c03c f9f1 babc
00000060: 9a01 f13c 22ac 053c 0d82 57bd 0e4d ad3c
00000070: a06c 1c3d b609 e23c 18f5 cfbc 40f9 b5bd
00000080: 0066 2ebd 8ac1 8d3c 648c 283d 0c97 21bd
00000090: d219 b3bd d144 9fbc 3780 2bbc 3cf6 463d
000000a0: 6b6b 1cbd 9f3d 90bd a624 4cbc 60fc d2bc
000000b0: 847c dbbd b1a1 bebd 8c22 9dbd 6958 c4bd
000000c0: 05a7 243d 55b9 d5bc 01e0 e43c 9b6a 7e3c
000000d0: d818 853c 802b d63c e56e 7fbd 55f3 46bd
000000e0: 9b2f 843a 266c 02bd e6bc 223c 47c4 29bb
000000f0: db8d b83d d4f0 9abc 0d16 fe3b f5e2 df39
00000100: 906c 733d 65cd e1bc 79f8 5d3b a0d1 343d
00000110: 2b5b 253d b0b5 7e3b acfe ce3d cf1d 21bc
00000120: 0fc1 5c3d e5dc 0abd 8bbf a93d 9a21 493d
00000130: a31f 9ebd e843 c1bc 00ec 55bd 96d7 1cbd
00000140: c6db a9bd c6a2 c8bd 74bc d13b 3205 cd3a
00000150: 1f04 d7bb 7d84 b4bc 2587 343d eb13 fb3b
00000160: 5ea3 5a3b 554d 883d 4a52 413d 350f 8f3d
00000170: 7496 debb fc88 ea3b 414d 88bd 70c4 3a3c
00000180: 7fdd 893d 0dfb 213b f6a6 b73d 066d 443d
00000190: 1008 973d 40ec 253d 1ce4 d53c 1616 643d
000001a0: 9d35 77bc 93d8 f43c 06dd 26bc 00af 643d
000001b0: 3906 0ebb 9eae c03d 31fc e53c 0e51 c23d
000001c0: c3e3 4b3b 44ad 713c 8542 03bd ecdb b23b
000001d0: b629 04bd 1139 f1bb 4fd2 eebc 66a5 babc
000001e0: 9e42 993d 9165 a43c 19e0 4a3d d86c 443d
000001f0: 9a4f 583d 9da6 2fbc c4c1 443d d997 04bd
00000200: 032f d23c 7a6e c03b 124f 03bd 35f3 77bd
00000210: f0ac 3dbd 5855 95bd 7c5a 17bd 6ea0 9a3d
00000220: e005 513d 1e38 2d3a df2e fdbb 3a12 923d
00000230: 47a8 5cbd 29d3 c6bb c1b1 c03d dd6c 4fbd
00000240: 814e a33c e5d2 123d 9a99 59bd 92c8 93bd
00000250: 31e5 bdbd b3bb 57bd 83b4 aebd 4b1a 02bd
00000260: a25d 103c 6329 54bd 25df 743d efcd f43c
00000270: 2fce 0839 0de9 fcbc 2c87 a93d f5a8 ed3d
00000280: a01e d5bd b22a fabc 2cf9 863d 79cd 95bc
00000290: 4085 813d 2639 0d3d 6d1d 353d b0fa 73bd
000002a0: 48e0 923c ca8d 34bc f46b acbd e763 173d
000002b0: dcd5 603c 392b 5cbd ad35 ac3c fa0e 813d
000002c0: f781 cfbc bef7 12bd e67c cb3d 954d f2bb
000002d0: c2e2 62bd cdcc 33bd 4a69 59bd 4942 3f3d
000002e0: 855f cdbc 7359 70bd 7d95 a6bd 6516 983c
000002f0: 70f3 91bd 507b 3b3c c5a2 243d 2b9b eebb
00000300: 9c14 d1bc 452a 80bd 6d4c 8fbb 42d4 713b
00000310: 9aaa 8fbc 66a2 2f3d 3c6a 0c3d eb92 50bd
00000320: 30eb 78bd 8ac9 86bd 1831 a0bd 0070 3d3d
00000330: 4488 c7bb fc8f bcbc 2020 c63d 915f 0ebd
00000340: 4def edbc e49b 1abd cc9a 97bd 9903 53bd
00000350: d72d 243d 055a 0ebd 718e bbbd 97bf efbd
00000360: b1b3 9f3c b16f 0fbd 2c90 e7bc 697e 46bc
00000370: 2b69 5d3c a29d 8abd 0bee 16bd fb29 703c
00000380: b173 5c3c d8e0 e2bb 15d0 00bd e554 8b3d
00000390: 67aa 473d 1a3e 54bd c55b 2bbd 5c15 b23c
000003a0: bb4b a8bd 1809 59bc 0867 35be 57a9 77bd
000003b0: e119 bd3a 016a 99bd 430d acbd bf09 d73c
000003c0: 86f7 d43c 9809 74bd fbea 753b c4b2 67bc
000003d0: 2dd8 2ebe 708c 0fbe b2b6 babd 628b 893c
000003e0: 9ad8 d2bc 2fc4 56be b084 fabd 3286 96bd
000003f0: 0d4f 383a 4911 8dbc 2851 99bd 34e6 cb3c
0.06673192 0.09539542 0.03008177 0.044536855 -0.080674216 0.07323849 -0.046427894 0.071061894
-0.07600122 0.06986729 0.05136484 0.018298026 -0.02857726 -0.10186089 -0.10214084 0.017567942
-0.01692832 0.103043914 0.073960915 -0.02044897 0.05491577 -0.06499439 0.023535559 -0.02282046
0.029419709 0.008158715 -0.05261426 0.021154907 0.03818953 0.027592521 -0.025385424 -0.08885431
-0.042577744 0.0173042 0.041149512 -0.03945069 -0.08745159 -0.019441994 -0.0104675805 0.04857467
-0.03818838 -0.07043003 -0.01245991 -0.025755107 -0.10717109 -0.09308184 -0.07672605 -0.095871754
0.040198345 -0.02608935 0.027938845 0.015528346 0.016247198 0.02614379 -0.062361617 -0.048571903
0.0010084988 -0.03184142 0.009932732 -0.0025904344 0.09011432 -0.018913664 0.0077540935 0.0004270297
0.059429705 -0.02756376 0.0033870025 0.044145226 0.040370148 0.0038865618 0.101071686 -0.009833767
0.053895053 -0.033902068 0.08288487 0.04910431 -0.07720878 -0.02359195 -0.05222702 -0.038291536
-0.082938716 -0.097966716 0.006400639 0.0015641807 -0.0065617706 -0.022035832 0.044074196 0.0076622865
0.0033361535 0.06655375 0.047197618 0.069853224 -0.0067928378 0.007157443 -0.0665536 0.011399373
0.067317 0.0024716288 0.08967392 0.047955535 0.07374585 0.04050851 0.026109748 0.055685125
-0.015088466 0.029888427 -0.010184532 0.055830956 -0.002167119 0.094083056 0.028074356 0.09488116
0.0031111098 0.014750782 -0.03204586 0.0054583456 -0.03226634 -0.007361539 -0.029153017 -0.022783946
0.07483409 0.020067962 0.049530122 0.047955364 0.05281029 -0.010720876 0.04803635 -0.032371376
0.025657183 0.005872545 -0.03205783 -0.060534675 -0.046307504 -0.07291669 -0.036951527 0.07550131
0.051030993 0.00066077884 -0.0077265347 0.07132383 -0.05387142 -0.0060676527 0.09408904 -0.05064093
0.019934895 0.035845656 -0.053125 -0.0721599 -0.092722304 -0.05266924 -0.08530524 -0.031763356
0.008811386 -0.051797282 0.05978312 0.029883353 0.0001304678 -0.030872846 0.08277735 0.116044916
-0.10406232 -0.030537937 0.065904945 -0.018286454 0.063242435 0.03447833 0.044217516 -0.059565246
0.017929211 -0.011020133 -0.08419028 0.03696051 0.013722863 -0.053752158 0.021021688 0.06301685
-0.025330527 -0.035880797 0.09935932 -0.0073945024 -0.055392034 -0.043896485 -0.053078927 0.046694074
-0.025069961 -0.058679055 -0.081339814 0.018565366 -0.0712651 0.011442974 0.04019429 -0.007281681
-0.025522523 -0.06258062 -0.0043731243 0.0036900197 -0.017537404 0.042879485 0.034281 -0.050921362
-0.060771167 -0.06581409 -0.07821864 0.04624939 -0.006089242 -0.023017876 0.09674096 -0.034759108
-0.029044772 -0.037746325 -0.07402572 -0.051517103 0.04008278 -0.034753818 -0.09158028 -0.11706465
0.019494863 -0.035018627 -0.028266989 -0.0121150995 0.0135138435 -0.06768347 -0.03684811 0.014658446
0.013455317 -0.006923776 -0.031448442 0.06803302 0.048746493 -0.051817037 -0.041835565 0.0217387
-0.082175694 -0.013246797 -0.17715085 -0.06046423 0.0014427268 -0.07490922 -0.08400967 0.026249764
0.025996935 -0.05957946 0.0037524092 -0.014141742 -0.17074652 -0.14018416 -0.091168776 0.016790096
-0.02573805 -0.20973276 -0.122323394 -0.073498145 0.00070308225 -0.017220156 -0.074861825 0.024890043

conv2.0.bias f4 [16]
00000000: 2220 b2bd 9330 aa3d 6623 883d 491a 45bc
00000010: b3f0 0fbd 9cfc e33b e064 13bd 8601 6fbd
00000020: 4ab8 a7bc 1a46 2c3d 3a0b 72bd 5f9b 07bd
00000030: e78f 32bd 9457 adbd bbe2 8c3d 6797 93bd
-0.08697535 0.08310046 0.06647377 -0.012030193 -0.035141658 0.0069576036 -0.035984874 -0.058351062
-0.020473618 0.04205904 -0.059092738 -0.033107158 -0.043594267 -0.0846397 0.06879183 -0.07206612

conv2.1.weight f4 [16]
00000000: dbcb 783f 1112 893f 5212 7b3f 4e97 7b3f
00000010: 6194 7d3f 0e8b 7b3f e123 803f 8275 823f
00000020: 1bd7 753f f13b 803f 0313 813f 8f36 813f
00000030: 12f6 893f f061 7e3f e846 803f 9046 7f3f
0.9718606 1.0708638 0.9807483 0.9827775 0.99054533 0.98259056 1.0010949 1.019211
0.9603135 1.0018293 1.0083927 1.0094775 1.077822 0.9936819 1.0021639 0.99717045

conv2.1.bias f4 [16]
00000000: 53d2 bcbb 3895 e5bb 700b 0b3c 245e a9bd
00000010: 4522 49bc 5080 2bbd 8640 10bd 51ba 35bd
00000020: a1f8 dfbc 715b ae3c d054 3e3c 4559 2ebc
00000030: 5d05 32bd 7123 b23c b24a aa3c 6ace 97bb
-0.0057623773 -0.0070063137 0.008486614 -0.08269909 -0.012276237 -0.041870415 -0.035217784 -0.04436714
-0.027340235 0.021283837 0.011616901 -0.010641401 -0.043462146 0.021745415 0.02078757 -0.004632761

conv2.1.running_mean f4 [16]
00000000: af74 833d cf81 50bf c3b9 2ebe a8eb 863f
00000010: cd6d 5cbe 84f7 6dbe c330 b4ba 5e19 0d3d
00000020: 8a0a 13be 4c27 31bf 1b1e dabc a2aa 013f
00000030: 6cd3 51bd 4433 f4be f99f 643d 5724 183e
0.0641874 -0.8144807 -0.1706305 1.0540667 -0.2152626 -0.23238951 -0.0013747442 0.03444802
-0.14359489 -0.6920059 -0.026625684 0.5065099 -0.05122702 -0.47695363 0.055816624 0.14857613

conv2.1.running_var f4 [16]
00000000: 6dca 8f3e 2ad0 b43e 2e7a fe3e 8db7 ad3e
00000010: 5421 5c3e 2776 ff3d 7daf 9b3d fae9 313e
00000020: daf6 f63e 1d05 d93e f2a0 203e d240 5e3e
00000030: 7555 cb3e 7564 7c3e e771 613e 970b 873e
0.28084126 0.35315067 0.4970259 0.339291 0.21497089 0.12473708 0.07601831 0.17374411
0.48235208 0.42386714 0.15686396 0.21704414 0.39713636 0.24647696 0.22016107 0.2637603

conv3.0.weight f4 [32, 16, 4, 4]
00000000: 45ed b13c 0213 a5bb 68fe 5fbd 31ae 85bd
00000010: 20bc 51bd f109 d2ba bc29 bc3a c697 89bc
00000020: ef6b 29bd 8dc8 82bc 6cc2 3cbb f000 3ebd
00000030: 3729 1abd 721d eb3c 3d8f d93c e65a 413c
00000040: d5b1 aabd a8a2 12bd 0400 45bc 11d3 80bb
00000050: 7e87 bfbc ba0e f7bc 3e2e 0d3d 235c 20bd
00000060: 2657 2fbd 0ec7 8abd 345c 9bbc 0f56 b839
00000070: 060f 09bd e151 f33b d22c 22bd 74d8 7dbd
00000080: 5b90 563d a4a6 82bb 67d1 f8ba aaf4 ee3c
00000090: 9157 9a3c e884 50bc f245 0a3c 99c6 6d3d
000000a0: 58f6 373c 1608 3c3d b289 5e3c 09be cfbb
000000b0: d352 313c 0840 a53c a035 ad3c 5d83 453c
000000c0: 0869 deba 95d7 1bbc b5f5 f7bc 4824 8bbd
000000d0: 4358 36bc 5511 653d 9f7a dbbc c4d5 1bbd
000000e0: dbfe c33c 09da ddbc f3d9 1dbd 5568 5cbd
000000f0: ca75 2f3d 748c e9bc 30f5 423d 0013 7abd
00000100: 83ee 3e3d a0e6 683c bae3 033d 8eff cd3c
00000110: 9899 1e3b 9b3a 043c a2f3 123d 0d6c 86bc
00000120: ed11 14bc 197b c1bc 39c2 7bbc 2225 c93c
00000130: 4371 47bd b6dc 703d e775 12bc 43f0 42bc
00000140: eb98 a6bb 92f2 033d 1c1d 043c ec08 ddbc
00000150: f451 f9bc c53c e63c 7661 963b b710 16ba
00000160: 025f 683d 45bb e6bc a970 2d3c eb75 b73c
00000170: 73a4 62bc e0e2 58bd 4168 43bc 62ed 0ebd
00000180: 3cd6 9b3d 467c 053d ecd5 1a3c a484 e83b
00000190: 4a9d 153d 34ad 40bb 1dcb fdbc ef2e 97bc
000001a0: 9a9c bc3c 5153 88bd 499f 83bd 078f a0bc
000001b0: b07c 473d 5a5c d7bc 27fe 26bd d702 9d3c
000001c0: 7e4d 083c cc98 3d3d 0413 5dbd 0665 80bd
000001d0: 7af4 893d 0c7f 19bb 19cd 47bd d731 1abd
000001e0: 4554 8dbd 92c6 223c 38ea 9cbd a037 f5bd
000001f0: 2b50 3dbc 1a4d 8d3d b806 9ebb 142f 41bd
00000200: f0ca 1fbc b35b 54bd 2a9a d4bc d9ef 38bd
00000210: 9cdc 0fbc 2fb4 303d 35e1 7bbc 7088 e6bc
00000220: 3537 38bd c75a 88bc e710 7239 0f2e 4ebd
00000230: b6f3 12bd 3b06 e43c 590a 1e3c 7196 9abd
00000240: 9c70 69bc ea49 043d 72dd 253d 1b44 40bd
00000250: 5d85 a9bb 36f2 55bd c4fc 82ba 023f 1dbd
00000260: 4b69 57bd 45c7 3dbd 10a7 45bc cae8 8b3d
00000270: 4319 943c 3354 e93c a2f7 3bbd 83f5 8dbd
00000280: 7ded 2f3d b6b5 a13d 0328 ff3b 8014 143d
00000290: e4ff bebc 2e11 893b e7b8 03bc 91c3 193c
000002a0: 4c37 8c3d 16f5 3f3d ad5d 333d be20 e2bc
000002b0: 1dc7 2d3d 5268 1ebd 144b 823c 1992 dc3c
000002c0: c9a4 8c3c 9a7e 2a3d a18c 85ba e784 94bd
000002d0: 1710 11bc c5bd 813c 0fbf aebd e384 63bd
000002e0: 9375 8d3d b7ef f53c 19a5 393d dc0e d93b
000002f0: 0d7c 623d 1a1f 32bd f8e6 69bd ebce b73b
00000300: 63f2 12bd a314 053c e69b 2d3d e240 93bd
00000310: d82a dc3c 8e22 5dbc 855a 3fbd 1bdf adbd
00000320: 863b 85bc 9e29 b9bd f271 23bd 81db fdbd
00000330: 0e88 65bd 6738 293d a9f1 83bd b8d2 5cbd
00000340: 7b89 553d 3b7a 5d3c 8375 0d3d c0f2 c7bc
00000350: a93c a03c 667e a43b 7afb 50bb e394 d1bc
00000360: 3597 0b3d 52c9 0b3d 1025 143d 440c 15bc
00000370: f2af 88bc 071e 9ebd b21b 003d 7619 2dbc
00000380: cb11 8e3d 9ea3 563d 3ae0 21bd 9db3 0dbd
00000390: 9063 8b3c 0f26 4dbd 618e 1fbd ee43 ba3c
000003a0: d6db 7a3b d65b 1e3d a551 593d dbf5 3abd
000003b0: e2ae 1ebd f2a6 2a3d 7207 9abd b87d 4bbc
000003c0: adee 02bc 3de0 993b ef39 943c 81f7 ce3a
000003d0: 356c 833d b91e e8bc 55c0 253d 5232 373d
000003e0: 973b 273d a229 3c3d 52cb 9dbd 9462 aebd
000003f0: 5bda 01bd 0dc1 b2bb 691d 66bd b141 3cbd
0.021719584 -0.0050376663 -0.05468598 -0.06527365 -0.0512048 -0.0016024691 0.00143557 -0.016796004
-0.0413627 -0.01596477 -0.0028802408 -0.046387613 -0.03763696 0.028700564 0.02655756 0.011801457
-0.083347 -0.035799652 -0.0120239295 -0.003931411 -0.023380037 -0.03015839 0.034467928 -0.03915037
-0.04280772 -0.06776248 -0.018964864 0.00035159333 -0.033461593 0.007425532 -0.039593525 -0.061974004
0.05238376 -0.0039871503 -0.0018983305 0.0291694 0.018840583 -0.012727 0.008439528 0.058050726
0.0112281665 0.04590615 0.013582634 -0.0063397926 0.0108229695 0.020172134 0.021143734 0.012055245
-0.0016968558 -0.009511848 -0.03026853 -0.067940295 -0.011129442 0.055924732 -0.026791869 -0.03804566
0.023925235 -0.027081506 -0.03853793 -0.053810436 0.04283694 -0.028509356 0.04759711 -0.061053276
0.04661418 0.014215142 0.0321996 0.025146272 0.0024200436 0.008070613 0.035876878 -0.016408945
-0.009037477 -0.023618268 -0.0153661305 0.02455384 -0.048692 0.058804236 -0.008939243 -0.011898103
-0.005084147 0.032213755 0.008063581 -0.026981793 -0.030434586 0.028105149 0.004589255 -0.00057245366
0.05673123 -0.028165469 0.010585942 0.022395095 -0.013833153 -0.05295074 -0.011926712 -0.034894355
0.07609221 0.03258922 0.009450417 0.00709589 0.036526956 -0.0029400112 -0.030980641 -0.018454997
0.023023892 -0.06656516 -0.064268656 -0.01959945 0.048702896 -0.026289154 -0.040769722 0.019166393
0.008319257 0.046288297 -0.053973213 -0.06269269 0.06736083 -0.0023421673 -0.04877958 -0.037645187
-0.06900839 0.009935038 -0.07661861 -0.119735 -0.011554758 0.068994716 -0.0048225783 -0.047164038
-0.009752974 -0.051845264 -0.025952417 -0.04515061 -0.008780625 0.043140586 -0.015373518 -0.02814123
-0.044974525 -0.016644849 0.00023085215 -0.050336894 -0.035876952 0.027835002 0.009646022 -0.07548226
-0.01424804 0.032297052 0.04049439 -0.04693995 -0.005173369 -0.052232943 -0.0009993543 -0.038390167
-0.05259065 -0.046332616 -0.012063757 0.0683151 0.018078452 0.028482532 -0.045890458 -0.06931593
0.042951096 0.07895987 0.007786752 0.036152363 -0.023315378 0.004182956 -0.00803969 0.009385006
0.068464845 0.04686459 0.043790508 -0.027603503 0.042426217 -0.038673706 0.01590494 0.026925134
0.01716842 0.041624643 -0.0010189005 -0.072519116 -0.008853934 0.01583756 -0.08532535 -0.055546653
0.06907191 0.030021532 0.045323465 0.006624086 0.055294085 -0.043486692 -0.057105035 0.0056093833
-0.03587569 0.008122596 0.042385004 -0.0719011 0.026875898 -0.013497008 -0.046717186 -0.084898196
-0.016263735 -0.09041141 -0.03990359 -0.12395383 -0.056037955 0.041313555 -0.064425774 -0.053911895
0.052133065 0.013517912 0.034535896 -0.024407744 0.019560175 0.0050199507 -0.0031888173 -0.02558369
0.03407975 0.03412754 0.036168158 -0.009097163 -0.01668546 -0.07720571 0.031276412 -0.010565152
0.069369875 0.05240213 -0.03952048 -0.03459512 0.017015249 -0.050085124 -0.038954142 0.02273747
0.0038278005 0.0386618 0.053056378 -0.045644622 -0.038741 0.041663118 -0.07520951 -0.01242011
-0.007991475 0.0046959207 0.018094031 0.0015790315 0.06417123 -0.028334962 0.040466625 0.044725724
0.040828314 0.04593814 -0.07704796 -0.08514896 -0.03170238 -0.0054551424 -0.05618039 -0.045961086

conv3.0.bias f4 [32]
00000000: fd55 6c3c 4b23 6d3d e75f 673c e2f0 71bd
00000010: aea2 863b c9c5 61bd 75c2 c1bc 9002 7a3d
00000020: 2442 0d3d ea9b aa3c d619 74bc 086e fe3c
00000030: 3bbe ff3c 4fe2 edbb 441f 7cbd aca9 2b3c
00000040: fcfc 01bd a3ad 963c 3e22 413d 1101 d23c
00000050: f326 3d3d 1923 503d 9d84 373c 72db 3f3d
00000060: 83a1 3f3c d77a 26bd 0cc5 3ebc 88f9 53bc
00000070: 181f 7fbd efaa 4fbd b64a 5cbd aecb 743d
0.014424798 0.057894986 0.014121986 -0.059067614 0.0041087484 -0.055120263 -0.023652295 0.0610376
0.034486905 0.020826299 -0.014898738 0.031058326 0.031218639 -0.007259644 -0.061553255 0.010477465
-0.031735405 0.018393343 0.047151797 0.025635274 0.046179723 0.05081472 0.011201051 0.04684014
0.011696222 -0.040644493 -0.011643659 -0.012937911 -0.062285513 -0.050700124 -0.053782187 0.059764557

conv3.1.weight f4 [32]
00000000: c2c2 7c3f e4ab 7d3f 9774 803f b73e 853f
00000010: b435 7a3f 5dc4 7d3f f88d 7c3f 0cff 7b3f
00000020: ee81 793f 08ec 803f 59fc 7c3f 0c31 7d3f
00000030: 95e5 843f 643c 793f db2b 813f c737 823f
00000040: 6115 813f 5b8a 813f 0f99 7f3f 1ce8 7f3f
00000050: 6193 7b3f ae58 863f a102 803f cf71 803f
00000060: 0ec3 793f 1b8a 793f 74a5 853f 5a89 813f
00000070: f54c 7d3f 9ce9 843f 934d 883f 7f04 813f
0.98734677 0.9909041 1.003558 1.0409764 0.97738194 0.9912775 0.9865413 0.98436046
0.9746388 1.0072031 0.9882255 0.98902965 1.0382563 0.97357774 1.0091509 1.0173272
1.0084649 1.0120348 0.99842924 0.99963546 0.9827176 1.0495813 1.0000802 1.0034732
0.97563255 0.9747636 1.0441117 1.0120041 0.9894555 1.0383792 1.0648674 1.0079497

conv3.1.bias f4 [32]
00000000: aa8f 93bd 88e7 1cbc c130 afbc be58 31be
00000010: 62a2 e6bc b2ab 2cbc 610b b03c 8d4a 25ba
00000020: 8d73 d83c 049e aabc 91eb 84bb 003e 5c3d
00000030: d15f a43d fb96 ecbc 9591 a5bc 4e96 3abd
00000040: 994c 523c 1d45 6abc 0da1 a9bb 31ae 6bbd
00000050: 678d 84bc 8d78 06bd 1e25 ee3b 479a 64bc
00000060: a2e6 fcbb d0fb 7bbc c1a7 6fbc 1d79 133c
00000070: a4c4 3fbd 1d21 23bd 3d33 81bd 14e7 cf3a
-0.07205136 -0.009576686 -0.021385552 -0.17319009 -0.028153602 -0.010538982 0.0214898 -0.00063053594
0.026422286 -0.0208273 -0.004056402 0.053770065 0.08026088 -0.028880587 -0.02021102 -0.045553498
0.012835645 -0.014298704 -0.0051766695 -0.05753917 -0.016180707 -0.03282981 0.0072676083 -0.013952798
-0.0077179233 -0.015379861 -0.014627398 0.009001044 -0.04681839 -0.0398265 -0.06308601 0.0015861713

conv3.1.running_mean f4 [32]
00000000: 3fd5 0ebf 8d7a 1cbf 164e 2dbe 35ce 9ebd
00000010: 1598 c4be 469d 8c3e 95d8 d2bd c7d7 3f3d
00000020: d385 81bd e59c 90be 3c2b 81be f886 1bbf
00000030: 5ec7 f4be 6b85 60bf 5a07 c9be 3b9d a3be
00000040: 0dd7 d5be 0899 21be a2f0 6a3d 9792 fe3d
00000050: 13a9 13bf dc1d 133c 1273 88be 0b5c 79be
00000060: 94ab 293e 43ff c1be ca2f 9bbe 8d21 03bf
00000070: 515f d7bd 5618 263e 059f 05bf b78a cfbe
-0.5579414 -0.611245 -0.16924319 -0.077541746 -0.3839728 0.2746374 -0.10295216 0.04683664
-0.06324353 -0.282447 -0.25228298 -0.6075282 -0.47808355 -0.8770358 -0.3926342 -0.31955895
-0.41765633 -0.15781033 0.05735839 0.124303035 -0.5767986 0.008979287 -0.26650292 -0.24351518
0.16569358 -0.37890062 -0.30309898 -0.5122307 -0.10516227 0.16220221 -0.5219577 -0.4053552

conv3.1.running_var f4 [32]
00000000: 0852 4e3e 1f49 8f3e be67 043e 2ca6 473e
00000010: 28be 6a3e 5435 543e 14dd d03e 17f8 7a3e
00000020: 9ee2 dd3d 4ea0 9e3e ee85 4e3e 5d74 963e
00000030: 0133 c13e 8a13 253e 32a1 3f3e 6c54 123e
00000040: 58a4 383e 514b 413e da2e 293e f440 f33d
00000050: 0e56 403e 2850 043e 8483 823e 5dfc 6e3e
00000060: 5847 373e e557 353e ff8d fe3d df1c c83e
00000070: 31b3 613e 6367 223e fd4e 0f3e 6851 693e
0.2014848 0.27985474 0.129302 0.19496983 0.22924101 0.20723468 0.4079367 0.24508701
0.108342394 0.30981678 0.20168278 0.29385653 0.37734225 0.16120735 0.18713835 0.14290017
0.18031442 0.18876387 0.16521779 0.11877623 0.18782827 0.12921202 0.25490963 0.23338456
0.17898309 0.1770931 0.12429427 0.39084527 0.22041012 0.15859751 0.13994975 0.2278496

deconv2.0.weight f4 [32, 16, 4, 4]
00000000: 0d15 a5bd f9a9 683c 21c0 8fbc 0c3a 483c
00000010: 6953 32bd 05be 6e3c 4ffc c9bc c256 81b8
00000020: 6b84 4fbd 6bcc 723b 3c63 1bbd c713 83bd
00000030: 1b35 1dbd 259b 213d 1641 68bd 1fa7 003d
00000040: 9919 6e3c 31be 6dbc 06b0 b13c 7c3c b5bd
00000050: 2a9e d6bc be28 d33c 548a e43d 2312 4f3c
00000060: bc89 ce3c e5ce cbbc 3e92 1f3d 2d10 4c3c
00000070: a032 7fbd a6d3 6c3d 32d9 2c3d a930 f03b
00000080: c115 533d 76e6 c63a 7380 423d 3265 133b
00000090: 7562 e23c 8abb 3a3d e479 5b3a 2119 b83c
000000a0: 0197 273d 3a86 ed3c 03be a1ba 5862 a03c
000000b0: 7978 4e3c 02f9 62bd fc7f 853b a9be 933b
000000c0: 0c9d cfbc d5b9 0d3d 2443 02bd ff6b 193d
000000d0: 2085 92bd fd1f c5bd e62f dc3d 033d 09bd
000000e0: 126a abbd bc7a 943c cf06 93bd f731 eeba
000000f0: 4702 6abc 8766 f7bd a17d 983d 604d f6bd
00000100: 5174 4c3c 8580 5b3d 44f9 09bc b25f da3a
00000110: e034 0abd e105 94bd 9e6a 07bd 7cee 94bc
00000120: 940a 723b 8ee0 0e3d 5cf2 43bc 6d2b cb3c
00000130: 3b6f 733d df46 2a3d d7f8 153c 0665 be3c
00000140: 422a d2bc 3ada a43c 2560 26bd b950 88bd
00000150: 9bdc 653d f828 0b3d 6703 373d d838 a6ba
00000160: c3f6 b03b bc93 18bc 9df6 84bd 3fbc adbd
00000170: 763c 9fbc af62 683c 9f82 cf3c 133f f33b
00000180: 988a 4bbc dc6d 2bbd 8316 9ebd d4d5 6a3c
00000190: c1e1 593d 18a0 99bd 7a89 123c 0718 a1bc
000001a0: 17aa c3bc a2b7 c1bc d3fb 1cbb 0cc1 0c3c
000001b0: a39f c13c e7ea 333d 8530 153d 2cc1 65bc
000001c0: fc80 a1bd c668 b33c 6dcb d03a 2c47 4b3c
000001d0: 6e04 93bc 5242 8a3c 177c 1f3c dc55 073c
000001e0: ef23 8ebd 9d50 d13b 2322 4b3d 8dd4 893c
000001f0: f2d9 cdbc d7c5 043d 0cbe ecbc 83e3 143c
00000200: 32ff 083c 2f5b 00bc d99b 44bc 9a35 10bc
00000210: debe 4cbd c0b4 33bd 4979 733b 665b 19bd
00000220: c5bc 063d 12fc 0dbd e243 e93c b112 52bd
00000230: 9c57 a5bc 384e 453d 4b2a 9f3c 9e51 4bbd
00000240: 02c2 b2bb 9742 99bc fded 773c 5772 36bd
00000250: ccf1 433d ae5b 90bc 0a0f febd e926 353c
00000260: 13d3 6f3d 4dfe b3bc 13fc 343d 3b7a c8bd
00000270: bab1 813d 8e17 48bc 882a 03be 9dbb 40bc
00000280: 1aa5 44bd 96c1 afbd f3c9 55bd f790 aabd
00000290: 3464 e43c b908 99bc 21cb 19bd 8f4b c4bc
000002a0: 1827 10bd 2346 c8bd 013c e6bb 543f 1fbd
000002b0: a4f4 153d f313 e1bb 872b 733c 4886 af3b
000002c0: 2913 76bd fe8c f1bc 267f 79bd 831b 8dbd
000002d0: 8d9e 30bb d949 59bd f9bf 863c 10a4 ccbd
000002e0: f410 9dbd 8cf3 76bd de20 66bd 23f9 e3bc
000002f0: 880f 21bd 4b89 22bd 9aac 403c 2854 cfbc
00000300: fb0f 2abc 6288 a23c 500b 6ebd ea32 053d
00000310: 5f98 72bd e599 9cbb 263f 13bc f56a 1ebd
00000320: 9de5 b7bb 5659 7b3d babc 74bd a643 1d3d
00000330: a9a0 b7bb f85e 82bc 08e6 0d3c 8772 51bb
00000340: f27d e63a 585a 42bc dc5e 7fbd f81a 0bbc
00000350: ed9b 933d bcf9 3f3d 57b9 a6bc 1203 c73c
00000360: 4018 863c 0d77 77bc 289f 77bd 83b6 fb3b
00000370: 86d3 9c3d ffbf ec3b 813f 1b3d 0996 063d
00000380: f26e 8bbd a86e 58bb 3d00 8abc 2f52 25bd
00000390: 1ffe 143c f98f a3bc 3f48 8c3c 2679 4dbb
000003a0: 4f6d 34bd b7b1 5bbd 5d17 63bd baf3 acbd
000003b0: 5aa4 343b 19fe 2cbd 9284 cdbb e107 f4bc
000003c0: 5c6a 04bd 96e4 7dbd b0f3 ba3b 145e a83c
000003d0: a5e4 9abc 73b5 b7bc 9ec7 d1bd 9e6f ed3c
000003e0: 3114 10bd eb01 43bd 5d77 793c aa22 91bd
000003f0: 89f1 b93d 5b1c c4bc 8bed 82bd a57e 053c
-0.08060656 0.014200681 -0.017547669 0.012220871 -0.043536577 0.014571671 -0.024656443 -6.167359e-05
-0.050663393 0.0037048112 -0.037936434 -0.064002566 -0.038380723 0.039454598 -0.056702696 0.03140938
0.01453247 -0.014510677 0.02169038 -0.08849427 -0.026198465 0.025776263 0.111591965 0.0126386015
0.025212161 -0.024878928 0.038957827 0.0124550285 -0.06230414 0.05781903 0.04219932 0.0073300195
0.051534418 0.0015174884 0.04748578 0.0022490737 0.027634839 0.045589007 0.000837235 0.02247292
0.040915493 0.028994668 -0.0012339953 0.019578144 0.012601965 -0.055413254 0.004074095 0.0045088124
-0.02534344 0.03460105 -0.03180231 0.03745651 -0.07154298 -0.09625242 0.107513234 -0.03350545
-0.08369841 0.01812493 -0.07179033 -0.001817285 -0.0142827695 -0.120801024 0.07445837 -0.12026477
0.012478904 0.053589363 -0.008421246 0.00166606 -0.03374183 -0.07227684 -0.033060662 -0.018180124
0.0036932575 0.03488212 -0.011959638 0.02480098 0.05943225 0.041571494 0.009153566 0.023241531
-0.025654916 0.02012359 -0.040619034 -0.066560216 0.05611859 0.033974618 0.04468098 -0.0012681736
0.00540051 -0.009312566 -0.0649235 -0.08483171 -0.01943801 0.014183684 0.02533084 0.0074232905
-0.01242318 -0.041852817 -0.077191375 0.014333207 0.05319381 -0.075012386 0.00894391 -0.019664777
-0.023884816 -0.023647133 -0.002395381 0.008590948 0.023635691 0.043925192 0.036423225 -0.014023107
-0.0788593 0.021900546 0.0015929766 0.012407105 -0.017946448 0.016877327 0.009734175 0.008260217
-0.069404475 0.0063877837 0.049593102 0.016824985 -0.025128338 0.032415237 -0.028899215 0.009087446
0.008361625 -0.00783424 -0.012000048 -0.008801842 -0.049986713 -0.04387355 0.003715115 -0.03744068
0.03289487 -0.03466422 0.028474752 -0.051287357 -0.020183377 0.0481703 0.019429347 -0.049638383
-0.0054552564 -0.01870851 0.015132424 -0.044542637 0.047838017 -0.017621841 -0.12405212 0.01105664
0.058550905 -0.021971846 0.04418571 -0.097889386 0.06332727 -0.012212647 -0.12809193 -0.0117634805
-0.048009016 -0.085818455 -0.052194547 -0.08328431 0.027879812 -0.018680917 -0.037547234 -0.02396181
-0.035193533 -0.097790025 -0.007026196 -0.038878754 0.03661026 -0.006868833 0.014841921 0.0053565837
-0.060076866 -0.029486176 -0.060912274 -0.06890013 -0.0026949972 -0.053048942 0.016448962 -0.0999223
-0.07669249 -0.06029086 -0.05618369 -0.027828759 -0.039321452 -0.039681714 0.011759901 -0.025308684
-0.010379787 0.019840423 -0.058116257 0.03251926 -0.059227344 -0.004779088 -0.008987224 -0.03867622
-0.005612089 0.061364494 -0.059750296 0.038394593 -0.005603869 -0.015914425 0.008660801 -0.0031959133
0.0017585142 -0.01186236 -0.062346324 -0.008490317 0.07207475 0.046869025 -0.020352049 0.024293456
0.016368985 -0.0151040675 -0.060454518 0.007681669 0.076575324 0.007225036 0.03790236 0.03285793
-0.068082705 -0.003302494 -0.016845817 -0.04036158 0.00909379 -0.019966112 0.017124293 -0.0031352728
-0.044049557 -0.05363628 -0.055442203 -0.08444925 0.0027563781 -0.042234514 -0.006271907 -0.029788913
-0.032327995 -0.061985575 0.0057053193 0.020552672 -0.018907854 -0.022425389 -0.10243152 0.028983887
-0.035175506 -0.04760925 0.015226212 -0.0708669 0.09079272 -0.023939302 -0.06392964 0.00814787

deconv2.0.bias f4 [16]
00000000: f4d6 f13c e8b7 76bd 3b97 f63c fd17 da3c
00000010: 3a57 1e3d 586c 66bd 34ac 463d 3f17 86bc
00000020: 19f1 77bd 0bbd 533d db4a e03c 22a1 62bd
00000030: 2abf d13c 2439 6bbc a4f1 743c 580f 853c
0.029521443 -0.06023398 0.03010141 0.026622767 0.038657404 -0.05625567 0.04850407 -0.016368506
-0.060532663 0.051693957 0.027379444 -0.05532945 0.02560385 -0.014356885 0.01495019 0.016242668

deconv2.1.weight f4 [16]
00000000: 51bc 723f f438 813f 793f 803f 1ece 783f
00000010: cf9d 7c3f db37 723f 8b27 723f a936 713f
00000020: f3ff 763f e950 833f 0919 763f dcb0 8e3f
00000030: e23c 7c3f d818 743f 4ee8 853f 998b 7f3f
0.948186 1.0095506 1.001937 0.9718951 0.98678297 0.9461648 0.9459159 0.9422403
0.964843 1.0259067 0.9613195 1.1147723 0.985304 0.9535041 1.0461519 0.99822384

deconv2.1.bias f4 [16]
00000000: b566 113c d66b b33d 6acd 5a3d e70f 4b3c
00000010: b64e 863c 4a95 713c ca8b e03c 54a6 33bd
00000020: 821c 55bc 618e 0b3e 9836 003d 7ed2 5abd
00000030: 9d07 16bd 6506 ca3c a62b 293d 8c53 843c
0.008874585 0.087608024 0.053418554 0.012393928 0.016394954 0.014745066 0.027410407 -0.043859795
-0.013007285 0.13628532 0.031302065 -0.053423397 -0.036628354 0.024661252 0.041301392 0.01615312

deconv2.1.running_mean f4 [16]
00000000: ab60 3cbf 9a55 13bf 68e4 95be bffe 1bbf
00000010: 3199 7bbe 98fb 57bf aac6 08bf 6b50 cdbe
00000020: e44b 38bf 5ed0 58bf 771f 71bf 3f4b 44bf
00000030: dac0 a2bc fb6e 67be 06f6 4bbf f875 6abf
-0.73585004 -0.5755249 -0.29275823 -0.60935587 -0.24570157 -0.84368277 -0.5342814 -0.40100417
-0.719908 -0.84692943 -0.94188637 -0.76677316 -0.01986735 -0.2260093 -0.79672277 -0.91586256

deconv2.1.running_var f4 [16]
00000000: 21e0 513f beb2 5d3f 9c07 693f 18fb 333f
00000010: a4c5 013f 72f2 bb3f 9cbb aa3f 6d13 3c3f
00000020: f2e1 0d3f b348 0e40 bf31 ef3f 9588 f23d
00000030: 31b8 9f3e 21fc 913f fe60 063f 71e0 4d3f
0.8198262 0.86600864 0.91027236 0.70305014 0.506922 1.4683363 1.3338504 0.7346714
0.5542289 2.2231872 1.8687056 0.11842457 0.31195214 1.1405069 0.5249175 0.80420595

deconv3.0.weight f4 [16, 8, 4, 4]
00000000: d5ad 64bd 8994 873c 97e0 2cbc 05df bbbd
00000010: 1e38 abbd c875 58bd 8d73 b33c 16aa 8fbc
00000020: b803 66bd 5227 ab3c d982 ae3c 783e 973d
00000030: e0d8 84bd 18d7 09bd 5141 0f3d 5e3d c8bb
00000040: f348 f4bb b0a7 f2bc fc2c ba3c 849a a43d
00000050: 5d7e 103d 8ec9 d43c b589 663d 0c48 b53c
00000060: 3d59 f0bb 4725 c03d 85b7 493d 4471 1a3d
00000070: 82ab ab3a 2f66 853d 83cf 7b3d 0add e1bc
00000080: f2f7 573d 8c72 043d b9b4 09bd fbca 813d
00000090: 3891 483d f398 023e dcdc 843c bfbd dd3c
000000a0: fb00 a63c d487 913d 8f03 58bd 7214 893d
000000b0: 4745 633c fc1a e73c e6b8 f3bb a1ea 22bc
000000c0: 22cf f43c e685 c63d 1acb 8abd 2738 68b9
000000d0: 0e67 f33b ccfc 09bd 8b11 fa3c aad9 a73d
000000e0: 6a49 153d b2c8 a73d f513 b3bc 7c51 993d
000000f0: 8b33 f73c 2f1b e93c eee2 9c3c 4592 a33c
00000100: 4fab 023d 0e7e 563d a2e5 20bc b3d3 4cbd
00000110: 238b 0d3d e20d 4d3c 43ff 953c 1a2a 86bd
00000120: e5aa 98bc 7071 1d3d 214b 0abd c395 b63b
00000130: be51 753b 6057 9d3c 790d 40bc fd60 443d
00000140: 9820 963c 8aa7 99bc 1b2f 353a 12e4 4ebb
00000150: bbbb fd3b 4b94 05bc 15b1 793c cf82 8b3d
00000160: 1e90 95b8 fa8c 2e3d eac3 1fbd 70a9 c9bb
00000170: d4e8 523d 60ec ef3b 69c5 e33c af56 993c
00000180: ae19 f2bc a6f2 9fbd b5c2 eebc c30b 7bbd
00000190: 262f 2f3d 2bd3 24bd 389c 90bb 7e87 8abc
000001a0: 2ada fa3b 41be a63d 93cb 073d b552 c03b
000001b0: 7d43 5d3b f25c 0bbd e981 aebc 4931 41bd
000001c0: 3a09 243d 5c58 9e3d 677b 063d 2f08 f83c
000001d0: 4cea b73c 5652 c73d 002b 6dbd 1544 ecbc
000001e0: 2eb2 3f3d 0629 98bd eae1 ccbc ebb7 0bbc
000001f0: 3abc 3e3d c696 603d 0ad4 fcbc 5c8f 1a3d
00000200: f96f 3fbc a67d a03b 8407 803d 4b35 b6bd
00000210: ef02 14bd 7ad0 0cbd a649 093e 71b0 473d
00000220: b528 9a3c 6a2a 223c 5ab8 f23c 875c 3bbc
00000230: 75cf 4dbb 7abf 11bd b88e 493d 6599 a43b
00000240: 31eb 443d d161 bdbd fdd3 473b f749 05bd
00000250: 5628 f6bc fdc1 9fbd 1171 c53d 52f7 3dbd
00000260: 3606 843c 7244 acbb a006 d93b 9964 5b3c
00000270: 8bf8 4abb 5f53 8e3b dad8 333d 410b 003d
00000280: 6484 3a3c 1417 a03c f682 d93d 8d74 05bb
00000290: 0c11 44bb 096b cc3b 2e1d 62bc 5d7f 643d
000002a0: 1c6d 83bc 57aa 0f3d c387 a93a d07b bbbb
000002b0: 28e8 98bc d21a c5bc dac5 da3c 3b3e 68bd
000002c0: 10be 9dbd 9d14 f9bc 305a 733d b2dd 0abd
000002d0: 612d a03d 34f7 43bd ed99 48bd 8f56 313d
000002e0: b6f2 4ebd 51d9 fe3c 0e97 d23d 6810 5e3c
000002f0: 7d21 563d a4e4 9b3b e2a9 4ebd 820f 333d
00000300: c2e6 423d f0f3 bab9 978b c33c 2b00 573d
00000310: 71fe a13d 1674 6d3d 599f febc 64cb d93c
00000320: 8bd5 4d3d 3d7d 273d d7fc 263d 0ad2 e33d
00000330: ffff 013c b2bd 05bd c8c6 373d 3d94 703c
00000340: c9e6 b63c 317e 78bd 85ea 0fbd 5b3d 7d3d
00000350: 55b9 29bd f652 393d cc2d f73d 0412 053e
00000360: 8760 173c 04d6 583d af8b 2e3b 27d0 ec3d
00000370: f995 c03d 0d8d 043d cf90 a53d 9883 f73d
00000380: 7fbd 05bd 7a93 b1bd e49c 96bc d71d d63c
00000390: b206 1d3d d138 a83c b0ba dd3d 638a 4fba
000003a0: 3c1a d93c 2832 efbc 1a18 a23c 722a b13c
000003b0: e2c5 15bb 6bf9 203b 3fb7 de3d 4aa9 0f3d
000003c0: bc52 b23c c0e7 3d3d 15bc 00bc 8940 473d
000003d0: 6896 513c 3794 a0bc 758a 9cbd 0623 a8bd
000003e0: bba8 46bd df3e 63bc 2711 2cbd 8acc 89bd
000003f0: 467b 88bc 7976 69bc f2cb cabd 96ca 9cbd
-0.05582984 0.01655032 -0.010551593 -0.09173397 -0.08360313 -0.0528467 0.021905685 -0.017537158
-0.05615589 0.020892773 0.021302627 0.07384962 -0.06486678 -0.033652395 0.0349744 -0.006110831
-0.0074549853 -0.029620975 0.022726528 0.08037284 0.03527676 0.025975015 0.05628367 0.022129081
-0.007334857 0.0938211 0.049247283 0.037705675 0.0013097378 0.065136306 0.061477195 -0.02757122
0.052726693 0.032335803 -0.033619616 0.063375436 0.048966616 0.12753658 0.016218595 0.027068017
0.02026414 0.07105985 -0.05273777 0.06693353 0.0138714975 0.02821111 -0.007437813 -0.009943635
0.029883925 0.09693508 -0.0677702 -0.00022146163 0.0074280566 -0.03368835 0.030525943 0.08195813
0.036446966 0.081925765 -0.021860102 0.07486245 0.030175945 0.028455345 0.019151177 0.019967208
0.031901654 0.05236631 -0.009820374 -0.05000658 0.03455652 0.012515517 0.018310195 -0.06550999
-0.018636176 0.03843826 -0.033763055 0.005572052 0.0037432755 0.019206703 -0.011721962 0.047944058
0.018326089 -0.018756647 0.00069116213 -0.0031569046 0.0077433265 -0.008153032 0.015239974 0.06812059
-7.1317176e-05 0.042614914 -0.039005198 -0.0061542317 0.051491573 0.0073218793 0.027804093 0.018718092
-0.02955326 -0.078099534 -0.029145578 -0.061290514 0.042769574 -0.040240448 -0.004413154 -0.01691031
0.0076554017 0.08141757 0.033153128 0.0058692344 0.003376215 -0.034024186 -0.02130218 -0.047166143
0.04004786 0.07731697 0.03283253 0.03027734 0.022450589 0.09732501 -0.057902336 -0.028841058
0.046800785 -0.074296996 -0.025010068 -0.008527736 0.046566226 0.05483129 -0.030862827 0.037734374
-0.011684411 0.004897791 0.062514335 -0.088968836 -0.03613561 -0.034378506 0.13407001 0.048752252
0.018818239 0.009897808 0.029628921 -0.011435634 -0.0031404172 -0.035582997 0.049208373 0.005023169
0.04807586 -0.092471726 0.0030491345 -0.03254124 -0.03004853 -0.07800672 0.09640706 -0.04637844
0.016116243 -0.0052571828 0.006623104 0.013390684 -0.0030970897 0.0043434347 0.043907978 0.031260733
0.011384103 0.019542255 0.10620682 -0.002036366 -0.0029917387 0.0062383455 -0.013800902 0.055785526
-0.016043238 0.035074558 0.0012934137 -0.0057215467 -0.018665388 -0.02406064 0.026705671 -0.056699973
-0.07702267 -0.030405337 0.05941218 -0.03390283 0.07821155 -0.047843173 -0.04897492 0.04329544
-0.050524436 0.031109484 0.10282718 0.013553716 0.05227803 0.0047574807 -0.05045498 0.04371596
0.04758335 -0.00035658432 0.023870273 0.052490395 0.07909859 0.057972036 -0.031081842 0.026586242
0.05025248 0.04089092 0.04076847 0.11124046 0.007934569 -0.03265161 0.044867307 0.01468378
0.022326844 -0.06066722 -0.035135765 0.06182609 -0.041436512 0.045245133 0.12069282 0.12995154
0.0092393225 0.052938476 0.002663355 0.115631394 0.09403605 0.03236108 0.08084261 0.120856464
-0.03265142 -0.08670707 -0.018385358 0.026137276 0.038336463 0.020534905 0.108266234 -0.00079170446
0.026501767 -0.029198721 0.019786883 0.021626685 -0.0022853543 0.0024562727 0.10874795 0.035073556
0.021767966 0.046363592 -0.007857342 0.04864553 0.012792207 -0.019601924 -0.07643596 -0.08209805
-0.048500758 -0.01386997 -0.042008545 -0.06728466 -0.016660344 -0.0142494375 -0.09902181 -0.07655828

deconv3.0.bias f4 [8]
00000000: 71ce 8fbd 278d 9d3d 8da4 5abd fa36 443d
00000010: e399 ce3c 4ef8 7e3d 4273 073d d0df 813d
-0.070217974 0.07692938 -0.053379584 0.047903992 0.025219863 0.06224852 0.033068903 0.06341517

deconv3.1.weight f4 [8]
00000000: 836c 9f3f c67a 9c3f 6f07 9d3f f313 9d3f
00000010: 4cc4 993f eb11 9d3f 25ab 9e3f 37cd 973f
1.245499 1.2224967 1.2267894 1.2271713 1.201303 1.2271093 1.2395979 1.1859502

deconv3.1.bias f4 [8]
00000000: 18a4 783e fa1c 5d3e fa4f 613e 9ec9 633e
00000010: 20b1 4f3e dbc4 613e 3d0d 713e 548d 443e
0.24281347 0.21593085 0.22003165 0.2224488 0.20282412 0.2204775 0.23540206 0.19194537

deconv3.1.running_mean f4 [8]
00000000: 381a 44be 6300 71bd dc15 8b3d f357 f63d
00000010: a94c d23e e3a4 e73e cb02 0d3d 460d 0abe
-0.19150627 -0.05883826 0.06791279 0.12028494 0.41074112 0.45242986 0.03442649 -0.13481626

deconv3.1.running_var f4 [8]
00000000: 3234 963d 7ba5 5d3d 8273 b73d 7a22 833d
00000010: c39e 423d 1020 723d a327 933d 3503 8c3d
0.07334174 0.054112893 0.08957578 0.0640306 0.04751469 0.05911261 0.071852945 0.06836549

deconv4.0.weight f4 [8, 3, 4, 4]
00000000: 0f86 59bd 111f 883d 6c1a fe3d 3a4d 743d
00000010: 0267 44bd 702e 953d 5a75 a53d bea5 923c
00000020: e046 183b 25b0 083e 2e43 cf3d 21f8 81bd
00000030: 6acd 8bbd 806d a43c a5f8 3c3e e43b 833b
00000040: 428a 89be b2ac 8ebe 0554 5fbe 3221 3cbd
00000050: 48e8 c1bd d9a4 27be 4380 89be 65b0 d7bc
00000060: b08a f0bd 5e74 77be f160 08be 1567 10bd
00000070: e7a3 afbd ebd3 e5bd 5406 8bbe b84f c3bd
00000080: f2ef 96bd dd11 e6bd deec 19be 6620 38be
00000090: d606 13be e5b0 0ebe c3bd 8cbe a22c 90bd
000000a0: d05e 81be d522 10be 6b1a 91be c4d1 25be
000000b0: d5c9 2cbe 0f07 70be 54f1 4dbd 7ec4 55be
000000c0: c8b0 2f3e a9f4 dfbd 4a75 2bbd aebe d4bd
000000d0: 2aa4 ed3c 9582 5fbc 0264 e93d 74bd 6e3d
000000e0: 07b3 89bd d3e9 d03d 489e fc3d 77c7 1d3e
000000f0: fef3 423e 77a9 c03d e0c6 88bc 0fa3 53bd
00000100: 24a7 2fbe 93ff 83be ae3a 0abd 0de9 8dbe
00000110: bfa2 2bbd 0a2e 9dbd 14a8 ffbd 3e43 3cbe
00000120: 8b18 8abe 98f7 69be 4f0b 69be 13f8 ffbd
00000130: 9f89 27bc 0cc6 3bbe e428 28be 9aba 21be
00000140: e02f 1cbe 5239 e8bd 7ce2 45be 6570 2dbe
00000150: 0e35 f5bd 39c7 42be ec9d 8dbe 18a0 87be
00000160: 7e79 c5bd ee9b b1bd 38ac 89be 889b 39be
00000170: 53f2 40be 811e 5dbe 84b0 1fbe 3b26 9ebd
00000180: e669 3a39 449b 89b9 b756 9e3d 953b 053e
00000190: 89f9 3c3e 2ecc 1b3e 717c 413e 0e87 223e
000001a0: 2e0d 543c 8372 193d 885c 463e c737 ec3c
000001b0: 7a4c b3bc d4cd 8a3d ca68 ed3d a59c 8bb9
000001c0: f202 93be 351e 37be 6b4a 6fbe 51aa ccbd
000001d0: ccf2 15bd 0a85 f3bd 6ba3 37be 47f7 25be
000001e0: 0683 74be 7d15 8ebe 71be efbc ac0e e5bd
000001f0: 79d6 2ebe 2c07 43be e8b3 6abd 4ea9 96be
00000200: 2e8d 99bd 398b 77be 71be cabd 5e27 c4bd
00000210: 7e69 1bbe 2024 dcbd e1aa 86be 2e33 8bbe
00000220: a824 dfbd 0374 95bd 5b9b febd 474c fcbd
00000230: 76a4 d3bd d2b7 a8bb dac4 b0bd cba2 1fbe
00000240: 5739 4f3e 24ac 4b3d 5b74 1f3d ac35 b53d
00000250: c750 423d 2b40 983d e62a db3c 33f8 933c
00000260: b5a4 fe3d 5735 243e ff84 483d 0a75 d53d
00000270: 34a1 193e 6632 123d 0a7f ff3c e439 223c
00000280: 0495 43be 63f4 3ebe 22d1 53be 0624 3ebe
00000290: 06c0 c0bd 04dc 57be 478b 4abd f2e0 08be
000002a0: 7572 3cbe ed9d 09be 1a6a 2cbd d111 a7bd
000002b0: 36f9 8abe e893 8abd aec5 1dbe 2d8c 38be
000002c0: 9a7a 86be d6bc 3fbe 1a6c 85be bc13 73be
000002d0: 9bb4 0ebe fc9c 24bd 0eca 38be c657 bdbd
000002e0: 54bd 0ebe 9dab 94be b377 8ebc 47f4 1abd
000002f0: e754 81be 3def 58bd cfc2 b0bd 6160 8abe
00000300: b7bc 723e 5c62 563e b00e 713e ba00 a43d
00000310: 462e 343e 71d8 023e 8b41 623d 8e36 153e
00000320: 83ea 163e a317 183d e414 f9ba 3e1a 5f3e
00000330: 292d 753e 0f58 843e e542 a73d 49a4 c63d
00000340: 4711 66be 82a7 fbbd 1c06 213b 2048 82be
00000350: 18d6 6fbe b345 90be fad6 a4bd ab09 6abe
00000360: ada8 51be 2146 11bd 3e7d f3bd 76ca 6abd
00000370: f57e 79bd cb61 8cbe b906 68be 5579 44be
00000380: 0cd1 d3bd 8b68 85be 2fb9 4cbe 6aa7 3bbe
00000390: bc8a 51bd ebf2 67be 3c75 e2bd bdca 56be
000003a0: bd8b 88be d96d 9cbd 4c09 d4bc 48cc 48be
000003b0: 8ec5 96bd ff5d 10be 7196 c7bd 9e2e 02be
000003c0: fbfb 5d3e 3301 4c3e 9bfd bb3d aa2c 753e
000003d0: 0341 ad3d bed1 e03d 4b97 ec3d 8437 413c
000003e0: 0f02 d1bb 7cdd feba 9569 c03d 6b75 333e
000003f0: 991e 513e 7b96 343e e1fb f93a 482f 063d
-0.053106364 0.066465504 0.12407383 0.05964396 -0.0479498 0.07284248 0.08079024 0.017901298
0.0023235604 0.13348444 0.101202354 -0.06346155 -0.06826289 0.020071745 0.18454225 0.0040049423
-0.26863295 -0.2786613 -0.21809395 -0.045930095 -0.09468132 -0.16371478 -0.26855668 -0.026329229
-0.117452025 -0.24165484 -0.1331823 -0.035254557 -0.08576184 -0.11222061 -0.27153265 -0.095366895
-0.07369985 -0.11233876 -0.15031764 -0.17981109 -0.14358076 -0.13934667 -0.27488527 -0.07039763
-0.2526765 -0.14075787 -0.28340468 -0.161933 -0.16873868 -0.23440193 -0.050278977 -0.20875737
0.1715728 -0.10935337 -0.041859902 -0.10387932 0.029008944 -0.013641973 0.11396028 0.058286145
-0.067236 0.102008484 0.12334877 0.15408121 0.19038388 0.09407323 -0.016696393 -0.051669177
-0.17153603 -0.25780925 -0.033747368 -0.27716866 -0.041903254 -0.07674797 -0.1248323 -0.18385026
-0.2697185 -0.22848356 -0.2275822 -0.12498488 -0.0102256825 -0.18337268 -0.16421849 -0.15793839
-0.15252638 -0.11339058 -0.19324678 -0.16937406 -0.1197301 -0.1902131 -0.27659547 -0.2648933
-0.096423134 -0.08672319 -0.26889205 -0.18125737 -0.1884244 -0.21593668 -0.15594679 -0.07722136
0.00017777793 -0.00026246358 0.07731383 0.1301101 0.18454565 0.15214607 0.18895127 0.15871832
0.012942595 0.037462723 0.19371235 0.02883519 -0.021887053 0.0677754 0.115922526 -0.00026628855
-0.28713185 -0.17882617 -0.23368232 -0.09993423 -0.036608502 -0.118906096 -0.17933433 -0.1620761
-0.23878106 -0.2775077 -0.029265614 -0.11184439 -0.17074002 -0.19045705 -0.05730048 -0.29426044
-0.07497631 -0.24174203 -0.09899605 -0.09577821 -0.15176961 -0.10749078 -0.26302245 -0.27187485
-0.108956635 -0.07297518 -0.124319755 -0.12319236 -0.10334103 -0.005148866 -0.086312965 -0.15589444
0.20236717 0.049724713 0.038929325 0.08848128 0.047440317 0.07434114 0.026753854 0.018062687
0.12433759 0.16035973 0.04895496 0.10422714 0.150029 0.035692595 0.031188507 0.0099014975
-0.19099814 -0.18647914 -0.20685247 -0.1856843 -0.094116256 -0.21080023 -0.04944923 -0.1336706
-0.18403037 -0.1343915 -0.042093374 -0.08157695 -0.27143258 -0.06766492 -0.1540744 -0.18022223
-0.26265413 -0.18724379 -0.26059037 -0.23737997 -0.13936083 -0.040188774 -0.18045828 -0.09245257
-0.1393941 -0.2903718 -0.017391061 -0.037830617 -0.25260088 -0.05296253 -0.08630907 -0.27026656
0.23704801 0.20935959 0.23540759 0.08007951 0.17595777 0.12777878 0.055238288 0.14571592
0.14737897 0.037131917 -0.0019003418 0.21787354 0.23943008 0.25848433 0.08167056 0.09699304
-0.22467528 -0.12287809 0.0024570292 -0.25445652 -0.23421514 -0.28178176 -0.08048816 -0.2285525
-0.20474501 -0.03546727 -0.118891224 -0.057321988 -0.06091209 -0.2741836 -0.22658814 -0.1918691
-0.10342607 -0.26056322 -0.19992517 -0.18325582 -0.051157698 -0.2265126 -0.11057517 -0.20975776
-0.26669112 -0.07638139 -0.02588334 -0.19609177 -0.07361899 -0.14098357 -0.09745491 -0.12713096
0.21678154 0.19922332 0.09179231 0.23942819 0.084596656 0.10977505 0.11552294 0.011793021
-0.006378419 -0.001944467 0.09395138 0.1752526 0.20421828 0.17635529 0.0019072258 0.032759935

deconv4.0.bias f4 [3]
00000000: 2a28 e0bd bfed afbc d8b3 80bd
-0.10945161 -0.02147567 -0.062843025
