03_hw/Pix2Pix/checkpoints/pix2pix_model_epoch_520.pth (torch, 99191 bytes, 32 tensors)

conv1.0.weight f4 [8, 3, 4, 4]
0	0xbdcca77b	-0.09992882
1	0xbdeae650	-0.1146971
2	0xbd5c95f7	-0.053853955
3	0xbe3d7940	-0.18503284
4	0x3d70047a	0.05859802
5	0xbdd0de7b	-0.10198685
6	0xbcb01ffe	-0.02149963
7	0x3d79392d	0.060845543
8	0xbe113aed	-0.14182635
9	0xbd3a4453	-0.045475315
10	0xbb891602	-0.0041835317
11	0x3d24a040	0.04019189
12	0xbcbaab48	-0.022786751
13	0x3d958b33	0.07301941
14	0x3d9065ae	0.07050644
15	0xbe0b98cb	-0.13632505
16	0x3e094a4d	0.1340725
17	0x3e4048e7	0.1877781
18	0x3d623034	0.05522175
19	0xbbd8f47d	-0.006620942
20	0x3d104254	0.035219505
21	0xbcce513e	-0.025185224
22	0xbda023bc	-0.07819316
23	0x3d49cdf2	0.04926867
24	0x3df37ad3	0.11888661
25	0x3d5a896c	0.053353712
26	0x3d22d01c	0.03974925
27	0xbd25a67f	-0.040441986
28	0xbd980fe3	-0.07424905
29	0x3cec7ab5	0.028867105
30	0xbd845bd9	-0.06462831
31	0x3e2a7030	0.16644359
32	0xbdd530f0	-0.10409725
33	0x3d216a3a	0.039407946
34	0xbe17dcd3	-0.14830332
35	0x3d57b6de	0.05266463
36	0xbde2157c	-0.11039254
37	0xbdd9df76	-0.10638325
38	0xbbcea157	-0.0063058543
39	0xbdf7c7ab	-0.120986305
40	0x3cd3a9ec	0.025837861
41	0xbcc649ae	-0.024205055
42	0xbad9a5fb	-0.0016605252
43	0xbd163131	-0.036668006
44	0xbd3d5cc0	-0.04623103
45	0x3d33508f	0.043778
46	0x3d94d58d	0.07267294
47	0x3d3c8a76	0.046030484
48	0xbd8f3f45	-0.069944896
49	0x3d8db0c9	0.06918485
50	0xbc99b917	-0.018765016
51	0xbc96d7e7	-0.018413497
52	0xbb7dee97	-0.0038746947
53	0x3de84fdd	0.11343358
54	0x3d0b6218	0.034029096
55	0xbc3ceb05	-0.011530642
56	0x3e1578de	0.14596888
57	0x3db3c0c9	0.08777005
58	0xbdcc16a8	-0.09965259
59	0xbd952d46	-0.07284026
60	0x3d0e9593	0.034810614
61	0x3e024116	0.12720141
62	0xbcf3d4ff	-0.02976465
63	0xbcb323d9	-0.02186768
64	0xbb250b8b	-0.0025183882
65	0x3e0a0282	0.13477519
66	0x3c373c25	0.011183773
67	0xbdac4863	-0.08412244
68	0xbd399dc2	-0.045316465
69	0xbd9d1734	-0.07670441
70	0x3d1b0ae8	0.037852198
71	0xbd06f60f	-0.032949504
72	0x3cfd6283	0.030930763
73	0xbc0d410f	-0.008621468
74	0x3d18228c	0.03714232
75	0xbe02f60d	-0.12789173
76	0x3d7e4d1c	0.062085256
77	0xbce06632	-0.02739248
78	0x3d7704ec	0.06030743
79	0x3dbce2dc	0.092229575
80	0x3b0c3973	0.0021396547
81	0xbd80f7dd	-0.06297276
82	0x3d456d82	0.048200138
83	0xbe04ac83	-0.12956433
84	0xbd66bbec	-0.05633156
85	0x3daa8424	0.08325985
86	0xbd94f9cd	-0.07274208
87	0x3d8641dd	0.06555531
88	0xbbb5a9da	-0.0055439295
89	0xbb90745f	-0.0044084038
90	0xbc9129ed	-0.017720187
91	0x3b9b94e8	0.0047479756
92	0xbd80a2ef	-0.06281077
93	0xbdbea70c	-0.093092054
94	0xbced61e6	-0.028977346
95	0xbdc575a8	-0.09641582
96	0xbe06e961	-0.13174964
97	0x3d62997b	0.05532215
98	0x3c5cd03a	0.013477379
99	0xbd6856dd	-0.056723464
100	0x3c57acb9	0.013163739
101	0xbcc1a759	-0.023639368
102	0x3d848920	0.06471467
103	0x3e0e07f8	0.13870227
104	0xbd9e354a	-0.07725008
105	0x3d3bcf2e	0.04585188
106	0xbde47750	-0.111555696
107	0xbd4ccee0	-0.05000198
108	0x3e1e1078	0.1543597
109	0x3d10ee57	0.03538355
110	0x3d27100a	0.04078678
111	0xbd616764	-0.05503024
112	0xbd6ca5f6	-0.05777546
113	0x3b0ec81a	0.002178675
114	0x3dcef5f9	0.10105509
115	0xbde6a7c0	-0.112624645
116	0x3e04411e	0.12915465
117	0xbd04cbe5	-0.03242101
118	0x3c5d5c7e	0.013510821
119	0x3e048701	0.12942125
120	0x3cfe4c5c	0.03104227
121	0x3d953576	0.072855875
122	0xbdbd9055	-0.09256045
123	0xbddbf683	-0.10740378
124	0x3d211287	0.03932431
125	0x3d02d587	0.031941917
126	0xbbb70cb3	-0.0055862307
127	0x3def1bad	0.116752006
128	0xbdd1614c	-0.10223636
129	0x3dc1632d	0.094427444
130	0xbc769a16	-0.015051385
131	0x3d1bbf03	0.03802396
132	0x3c85edee	0.016348805
133	0x3d85de7e	0.06536578
134	0x3dbff103	0.09372141
135	0xbc5e60c1	-0.013572873
136	0x3d9e6514	0.07734123
137	0x3e2efacd	0.1708786
138	0x3dfabde4	0.1224325
139	0x3d9d4302	0.07678796
140	0xbdb566ac	-0.08857474
141	0x3cd94905	0.026524076
142	0x3dd088d3	0.10182347
143	0x3df1845f	0.11792826
144	0x3d7768c1	0.060402635
145	0x3de9bdf4	0.11413184
146	0x3e316fab	0.17327754
147	0x3d4cd3c6	0.05000665
148	0x3b941921	0.004519597
149	0xbd4fe860	-0.05075872
150	0xba829a23	-0.0009964149
151	0xbd5164fd	-0.0511217
152	0x3d1d4aee	0.038401537
153	0xbd8a1283	-0.06741812
154	0x3e129168	0.1431328
155	0xbd6e7458	-0.058216423
156	0x3d59ccae	0.053173713
157	0x3de75a96	0.11296575
158	0x3dd0af0b	0.10189637
159	0xbe227ed6	-0.15868697
160	0xbddf8009	-0.10913093
161	0x3db305b4	0.08741322
162	0x3e1fab38	0.15592659
163	0x3cd3018c	0.025757574
164	0x3d8abc73	0.06774225
165	0x3dc83ced	0.09777246
166	0x3a4a12e8	0.0007708506
167	0xbd204951	-0.03913242
168	0xbdbd89e9	-0.0925482
169	0xbdb40d96	-0.08791654
170	0x3d8c3265	0.068455495
171	0x3dcdec85	0.10054878
172	0xbdafeb4a	-0.085898
173	0xbd68d613	-0.056844782
174	0xbc659fca	-0.014015147
175	0xbdad88c5	-0.08473352
176	0x3da2bda7	0.079463296
177	0xbe33f9a7	-0.17575704
178	0x3c8cdf31	0.01719627
179	0x3d00d3e6	0.031452082
180	0xbd6609c7	-0.05616167
181	0xbde730c3	-0.112885974
182	0xbd302461	-0.043003444
183	0x3c97381c	0.018459372
184	0xbded4993	-0.11586299
185	0x3ddca12b	0.10772928
186	0xbda2c190	-0.07947075
187	0x3de2bb63	0.110708974
188	0xbd6d66b1	-0.057959262
189	0xbd2b56cc	-0.041830823
190	0xbde06a81	-0.10957814
191	0x3e037914	0.12839156
192	0xbdbd02f0	-0.09229076
193	0xbe0ebae4	-0.1393848
194	0x3d2277d5	0.039665062
195	0x3d4b064d	0.049566556
196	0x3e09902e	0.13433906
197	0xbc7b4348	-0.015335865
198	0xb9cea9fd	-0.00039418033
199	0xbe0ee42b	-0.13954227
200	0x3dc0edd4	0.09420362
201	0xbd9d4b96	-0.076804325
202	0x3dea388d	0.114365675
203	0x3d57b49b	0.052662473
204	0x3d3f7d6b	0.046750467
205	0xbe32323c	-0.17401975
206	0xbdbb8308	-0.091558516
207	0xbc91f16c	-0.017815314
208	0xbcdbb8b6	-0.026821475
209	0x3d7968db	0.060891014
210	0x3d1d08d4	0.038338497
211	0x3dc13280	0.0943346
212	0xbdc4155c	-0.095743865
213	0xbd9ed3ae	-0.077552184
214	0xbb9815a7	-0.004641253
215	0x3da08f5e	0.07839845
216	0xbd07b5f9	-0.033132527
217	0xbe044f19	-0.12920798
218	0xbe47e5d2	-0.19521263
219	0xbe6c7f77	-0.23095499
220	0xbde24e65	-0.11050109
221	0xbcaa2c77	-0.020773156
222	0xbe49e8a3	-0.1971765
223	0x3cf7d470	0.030252665
224	0x3de13ff6	0.10998528
225	0x3c923264	0.017846294
226	0x3d7b9452	0.061420746
227	0xbdd5d17c	-0.104403466
228	0x3d95a928	0.073076546
229	0xbd71c914	-0.059029654
230	0x3dbfbc80	0.093621254
231	0xbd9b833d	-0.07593391
232	0xbd65e396	-0.056125246
233	0x3dbecb51	0.09316123
234	0xbd575964	-0.052575484
235	0x3d832347	0.06403213
236	0x3dc9bfce	0.09851037
237	0x3cf822c1	0.03029001
238	0xbbb6bd18	-0.005576741
239	0xbd6e105c	-0.05812107
240	0x3d1e03b3	0.038577747
241	0xbdec70ef	-0.11544978
242	0xbd8bed53	-0.068323754
243	0xbd28a480	-0.041172504
244	0xbd6a1100	-0.05714512
245	0xbdc583d0	-0.09644282
246	0x3df3985c	0.118942946
247	0xbb17472d	-0.0023083196
248	0x3dce36d2	0.1006905
249	0x3c7b708c	0.0153466575
250	0x3dc1c8dd	0.0946214
251	0xbde86bb5	-0.113486685
252	0xbd1d9890	-0.038475573
253	0x3ddd28db	0.10798808
254	0x3e00f9a5	0.12595232
255	0x3d60552c	0.054768726

conv1.0.bias f4 [8]
0	0x3e086312	0.13319042
1	0x3b8d0253	0.0043032556
2	0xbd0f4ae8	-0.034983546
3	0x3dfee4e5	0.12446002
4	0x3d91b9c9	0.07115514
5	0x3dceb86d	0.1009377
6	0xbdde8d9d	-0.10866854
7	0xbc434a09	-0.011919507

conv1.1.weight f4 [8]
0	0x3f80cc15	1.0062281
1	0x3f7ba114	0.9829266
2	0x3f7f92ae	0.9983319
3	0x3f748cd1	0.9552737
4	0x3f80d809	1.0065929
5	0x3f72ed11	0.94892985
6	0x3f82a0c3	1.020531
7	0x3f873b5f	1.0564994

conv1.1.bias f4 [8]
0	0xba825068	-0.0009942176
1	0xbd2d478a	-0.042304553
2	0xbd01b59b	-0.031667333
3	0xbc161c5e	-0.009162037
4	0xbb9549a6	-0.0045558987
5	0x3da11dfc	0.07867047
6	0xbd342afb	-0.043986302
7	0x3dd356d3	0.10319295

conv1.1.running_mean f4 [8]
0	0x3e4ce614	0.20009643
1	0xbce7d3de	-0.028299268
2	0xbdd1d71a	-0.102461055
3	0x3d6e3162	0.058152564
4	0x3e32b160	0.17450476
5	0x3da05d88	0.0783034
6	0xbdeb17b9	-0.11479134
7	0xbc391db9	-0.01129859

conv1.1.running_var f4 [8]
0	0x3d47e5a0	0.04880297
1	0x3c67d864	0.014150713
2	0x3e822485	0.25418487
3	0x3cceb783	0.02523399
4	0x3e0e8dc1	0.13921262
5	0x3d0a4cf1	0.033764783
6	0x3ca3b814	0.019985236
7	0x3cf73868	0.030178264

conv2.0.weight f4 [16, 8, 4, 4]
0	0x3d8a6853	0.067581795
1	0x3dc43923	0.095812105
2	0x3cf8083c	0.030277364
3	0x3d388ddc	0.045057163
4	0xbda4b2f0	-0.08041942
5	0x3d960179	0.073245
6	0xbd3f908c	-0.04676871
7	0x3d917ee2	0.07104279
8	0xbd9c4f0d	-0.07632265
9	0x3d8e0f9e	0.069365725
10	0x3d52923f	0.051409002
11	0x3c92de94	0.0179284
12	0xbce94afe	-0.028478142
13	0xbdcfa963	-0.1013973
14	0xbdd0d918	-0.10197657
15	0x3c92e778	0.017932639
16	0xbc89ec46	-0.016836297
17	0x3dce5902	0.10075571
18	0x3d95fe9a	0.07323952
19	0xbcb0e250	-0.02159229
20	0x3d60cc4e	0.05488234
21	0xbd88a90c	-0.06672868
22	0x3ccb60b2	0.024826381
23	0xbcc3619a	-0.023850251
24	0x3ce929db	0.028462341
25	0x3c085ea5	0.008323346
26	0xbd585678	-0.052816838
27	0x3cb3bad8	0.02193968
28	0x3d1b2787	0.037879493
29	0x3ce31455	0.027719656
30	0xbcd059a4	-0.025433369
31	0xbdb61a7d	-0.08891771
32	0xbd2dce60	-0.042433143
33	0x3c9269db	0.017872741
34	0x3d2a606a	0.041595854
35	0xbd1fc0bb	-0.03900216
36	0xbdb296e4	-0.08720186
37	0xbc9df18f	-0.019280223
38	0xbc262e79	-0.010142916
39	0x3d453d32	0.048154064
40	0xbd1a4429	-0.03766266
41	0xbd8f9077	-0.07009976
42	0xbc4cb14e	-0.012493445
43	0xbcd3e043	-0.025863772
44	0xbdda7190	-0.106661916
45	0xbdbe14c6	-0.09281306
46	0xbd9d0a9a	-0.07668038
47	0xbdc3feac	-0.09570059
48	0x3d299b1e	0.041407697
49	0xbcd12811	-0.0255318
50	0x3cf57163	0.029961294
51	0x3c7b919c	0.01535454
52	0x3c904837	0.01761256
53	0x3cd97ef7	0.0265498
54	0xbd79f649	-0.06102589
55	0xbd4580cc	-0.048218533
56	0x3ab5e292	0.0013876727
57	0xbcff789f	-0.031185446
58	0x3c24a01d	0.01004794
59	0xbb0b4cab	-0.0021255414
60	0x3db67201	0.08908463
61	0xbc9bac6f	-0.019003121
62	0x3bcab50a	0.0061861323
63	0x38bb82e4	8.941235e-05
64	0x3d750393	0.05981786
65	0xbce075d0	-0.027399927
66	0x3b6d5216	0.0036212257
67	0x3d36446a	0.04449884
68	0x3d24fbe3	0.04027928
69	0x3b63d323	0.0034763298
70	0x3dcec117	0.10095423
71	0xbc209247	-0.0098005
72	0x3d5ba9e2	0.05362881
73	0xbd0ad1a6	-0.033891343
74	0x3da9738c	0.08273992
75	0x3d49f666	0.04930725
76	0xbd9e76f6	-0.07737534
77	0xbcc69c45	-0.024244437
78	0xbd575a75	-0.0525765
79	0xbd1ee1ad	-0.03878944
80	0xbda9b88c	-0.08287153
81	0xbdc84fd6	-0.097808525
82	0x3bceb81e	0.0063085696
83	0x3a939631	0.001125997
84	0xbbbbd785	-0.005732479
85	0xbcb21dc3	-0.021742707
86	0x3d30bb99	0.043147657
87	0x3c05281a	0.008127237
88	0x3b69200d	0.0035572082
89	0x3d887c5c	0.06664345
90	0x3d40aeb6	0.047041617
91	0x3d903dde	0.0704305
92	0xbbc48eb0	-0.005998455
93	0x3bf98601	0.0076148515
94	0xbd8a4751	-0.06751884
95	0x3c3b5ec0	0.011436164
96	0x3d8cf813	0.06883254
97	0x3af112c0	0.0018392429
98	0x3db6d835	0.08927957
99	0x3d45bf08	0.048277885
100	0x3d998918	0.07496852
101	0x3d22a409	0.039707217
102	0x3cd20028	0.02563484
103	0x3d5ffcae	0.054684334
104	0xbc83653a	-0.01603948
105	0x3cf427ca	0.02980413
106	0xbc37cdf6	-0.0112185385
107	0x3d64e8b5	0.05588599
108	0xbb3d30cf	-0.0028868204
109	0x3dc1cd2e	0.09462963
110	0x3ce43b8f	0.027860431
111	0x3dc037dd	0.09385655
112	0x3aecbe9a	0.0018062175
113	0x3c7fed65	0.015620564
114	0xbd0343e9	-0.032047186
115	0x3bc7d5a3	0.0060984655
116	0xbd05e3d5	-0.03268798
117	0xbbcd970c	-0.0062741097
118	0xbcebc0a6	-0.028778385
119	0xbcc0f4b0	-0.023554176
120	0x3d97dc67	0.07415085
121	0x3ca278dd	0.019833023
122	0x3d4be50b	0.04977898
123	0x3d445b0f	0.047938403
124	0x3d5bb340	0.053637743
125	0xbc296d08	-0.0103409365
126	0x3d49743c	0.049183115
127	0xbd088d30	-0.033337772
128	0x3cd2671a	0.025683928
129	0x3bc1c7d0	0.005913712
130	0xbd01adad	-0.03165977
131	0xbd766644	-0.06015612
132	0xbd3f0b72	-0.046641774
133	0xbd95ae95	-0.073086895
134	0xbd17e648	-0.037084848
135	0x3d9b3947	0.07579284
136	0x3d5279da	0.051385738
137	0x3a30322a	0.0006721342
138	0xbbfbaff7	-0.0076808888
139	0x3d927856	0.071518585
140	0xbd5d9033	-0.054092597
141	0xbbc11839	-0.00589278
142	0x3dc022bd	0.09381626
143	0xbd4db629	-0.05022255
144	0x3ca0bba0	0.019620717
145	0x3d0e895c	0.034798965
146	0xbd5557a2	-0.052085526
147	0xbd955d23	-0.07293155
148	0xbdbd2dc1	-0.092372425
149	0xbd57c123	-0.052674424
150	0xbdaddf87	-0.084899
151	0xbd05b8b6	-0.032646857
152	0x3c2364be	0.009972749
153	0xbd4fbe79	-0.05071876
154	0x3d75ed9f	0.060041066
155	0x3cefc7c7	0.029270066
156	0x39c51768	0.00037592207
157	0xbd02264c	-0.031774804
158	0x3da80665	0.08204345
159	0x3deba585	0.1150618
160	0xbdd30ddb	-0.10305377
161	0xbcf6e270	-0.03013727
162	0x3d8692f1	0.065709956
163	0xbc9cd91f	-0.0191465
164	0x3d82d589	0.06388385
165	0x3d0d4e62	0.03449858
166	0x3d33a71b	0.043860536
167	0xbd76da6c	-0.060266897
168	0x3c95337c	0.018213026
169	0xbc374a19	-0.0111871
170	0xbdad71e4	-0.084689885
171	0x3d14e4df	0.03635108
172	0x3c63ab06	0.013895756
173	0xbd5d8ab6	-0.054087363
174	0x3ca890d3	0.02057687
175	0x3d8028ed	0.06257806
176	0xbcc96d5f	-0.024588285
177	0xbd0c5595	-0.034261305
178	0x3dcc19bc	0.09965846
179	0xbbfa2683	-0.0076339855
180	0xbd5ddcc4	-0.054165617
181	0xbd2d60be	-0.04232859
182	0xbd58faac	-0.052973434
183	0x3d34acc6	0.044110082
184	0xbcd5f540	-0.02611792
185	0xbd77a224	-0.060457364
186	0xbda6aa59	-0.0813796
187	0x3c84f602	0.016230587
188	0xbd907ab6	-0.07054655
189	0x3c202c58	0.009776197
190	0x3d1fe399	0.039035413
191	0xbc1b102a	-0.009464303
192	0xbcd5c314	-0.026093997
193	0xbd80a82a	-0.06282075
194	0xbb931478	-0.004488524
195	0x3b6ad258	0.003583094
196	0xbc923b29	-0.017850475
197	0x3d2f38ba	0.042778708
198	0x3d0cee13	0.034406733
199	0xbd50b9d4	-0.05095847
200	0xbd79fed1	-0.061034027
201	0xbd86567a	-0.06559463
202	0xbd9fdf7b	-0.078062974
203	0x3d3f6746	0.04672935
204	0xbbda2e6e	-0.006658367
205	0xbcc3a5c7	-0.02388276
206	0x3dc63bcf	0.09679376
207	0xbd0dad57	-0.034589138
208	0xbcee4d42	-0.029089574
209	0xbd1a3183	-0.037644874
210	0xbd98322c	-0.074314445
211	0xbd55b295	-0.052172262
212	0x3d215127	0.039384034
213	0xbd0ecf48	-0.034865648
214	0xbdba8741	-0.09107829
215	0xbdf05a97	-0.11736029
216	0x3c9ff375	0.019525269
217	0xbd1419a1	-0.036157254
218	0xbcedb1bc	-0.029015414
219	0xbc607172	-0.0136989225
220	0x3c5b06a6	0.013368284
221	0xbd8a1c34	-0.067436606
222	0xbd1a5cf2	-0.037686296
223	0x3c7287c3	0.014802876
224	0x3c6b67d5	0.014368017
225	0xbb9c8fc5	-0.004777881
226	0xbcfced88	-0.030874982
227	0x3d8e0555	0.06934611
228	0x3d4b3de5	0.049619574
229	0xbd52b266	-0.051439665
230	0xbd2b10cb	-0.041764062
231	0x3cb034af	0.021509496
232	0xbda96272	-0.0827073
233	0xbc5ab515	-0.013348837
234	0xbe35babb	-0.17747013
235	0xbd77d550	-0.060506165
236	0x3af66fd4	0.0018801638
237	0xbd985fac	-0.07440123
238	0xbdad41a4	-0.084597856
239	0x3cd2655f	0.025683103
240	0x3cd0b65c	0.02547758
241	0xbd742b15	-0.0596114
242	0x3b879eec	0.004138818
243	0xbc664860	-0.0140553415
244	0xbe2d6550	-0.16933179
245	0xbe0fcbef	-0.14042638
246	0xbdbc18c6	-0.09184413
247	0x3c8a6729	0.016894894
248	0xbcdf66d8	-0.02727072
249	0xbe5803b8	-0.21095169
250	0xbdfcf407	-0.12351232
251	0xbd98c068	-0.074585736
252	0xba75a3ce	-0.0009370417
253	0xbc98106f	-0.018562524
254	0xbd967ebe	-0.07348393
255	0x3cdb820c	0.02679541

conv2.0.bias f4 [16]
0	0xbdb22947	-0.08699279
1	0x3daa32a2	0.08310439
2	0x3d882545	0.066477336
3	0xbc451015	-0.01202776
4	0xbd0fe517	-0.035130586
5	0x3be33e7e	0.00693494
6	0xbd1350b8	-0.03596565
7	0xbd6ef3a0	-0.058337808
8	0xbca7c5ed	-0.02048012
9	0x3d2c4214	0.042055205
10	0xbd721bf2	-0.059108682
11	0xbd07a0cb	-0.03311233
12	0xbd3285fb	-0.043584805
13	0xbdad553a	-0.08463521
14	0x3d8ce456	0.06879489
15	0xbd939240	-0.07205629

conv2.1.weight f4 [16]
0	0x3f78dab4	0.97208714
1	0x3f88d6ee	1.0690591
2	0x3f7b1f6a	0.9809481
3	0x3f7ba8b8	0.9830432
4	0x3f7d8d44	0.9904368
5	0x3f7b66c1	0.98203665
6	0x3f80206c	1.0009894
7	0x3f829273	1.0200943
8	0x3f75ad82	0.95967877
9	0x3f803cc3	1.0018543
10	0x3f810e18	1.0082426
11	0x3f81448e	1.0099046
12	0x3f8a1138	1.0786505
13	0x3f7e50c5	0.99341995
14	0x3f803c4e	1.0018404
15	0x3f7f6ca7	0.99775165

conv2.1.bias f4 [16]
0	0xbbc84c21	-0.006112591
1	0xbbeda459	-0.007252258
2	0x3c0f5317	0.0087478375
3	0xbda81d34	-0.08208695
4	0xbc36a8ed	-0.0111486735
5	0xbd298e06	-0.04139521
6	0xbd0b1d47	-0.033963468
7	0xbd2fe807	-0.042945888
8	0xbce29305	-0.027657995
9	0x3cac4332	0.021028135
10	0x3c3793c5	0.011204665
11	0xbc378077	-0.011200062
12	0xbd2d2643	-0.042272817
13	0x3cab8d27	0.02094133
14	0x3cac2b9e	0.021016892
15	0xbb90df67	-0.004421163

conv2.1.running_mean f4 [16]
0	0x3d872342	0.06598522
1	0xbf528e2b	-0.8224818
2	0xbe347e40	-0.17626286
3	0x3f87e828	1.0617723
4	0xbe589d8f	-0.21153854
5	0xbe692db2	-0.22771338
6	0xbb6d8f6f	-0.0036248823
7	0x3d0d8614	0.034551695
8	0xbe1b75d6	-0.1518167
9	0xbf307d9d	-0.6894167
10	0xbcbf773c	-0.023372285
11	0x3f02745d	0.50958806
12	0xbd566be1	-0.052348975
13	0xbef31d01	-0.47483066
14	0x3d6f641f	0.058445092
15	0x3e147323	0.14497046

conv2.1.running_var f4 [16]
0	0x3e8d3a18	0.27583385
1	0x3eb6f583	0.35734186
2	0x3f01791d	0.5057543
3	0x3eaf10df	0.3419256
4	0x3e5df460	0.21675253
5	0x3dfbfe22	0.12304331
6	0x3d9b087f	0.0756998
7	0x3e3527bd	0.1769094
8	0x3efa36cf	0.4886994
9	0x3ed8bc93	0.4233137
10	0x3e21c63e	0.1579828
11	0x3e5d59f0	0.2161634
12	0x3ecb759d	0.3973817
13	0x3e7b6fb8	0.24554336
14	0x3e631d31	0.22179104
15	0x3e8771a2	0.26453882

conv3.0.weight f4 [32, 16, 4, 4]
0	0x3cb4dd51	0.022078188
1	0xbb95fb42	-0.0045770714
2	0xbd622701	-0.05521298
3	0xbd865190	-0.065585256
4	0xbd4ee368	-0.05050984
5	0xbaa5696b	-0.0012619918
6	0x3afda85b	0.0019352542
7	0xbc88a766	-0.016681384
8	0xbd273d5a	-0.040829994
9	0xbc7fef0f	-0.015620961
10	0xbb3afab4	-0.0028530778
11	0xbd3e75ab	-0.046498936
12	0xbd188781	-0.0372386
13	0x3cef4307	0.029206766
14	0x3cdaecca	0.026724238
15	0x3c3bbfd1	0.011459307
16	0xbda7f538	-0.08201069
17	0xbd0daf00	-0.03459072
18	0xbc37ea9a	-0.011225367
19	0xbb0252ca	-0.0019885772
20	0xbcba1931	-0.02271709
21	0xbcf85920	-0.030315936
22	0x3d0de155	0.03463872
23	0xbd2082d1	-0.039187256
24	0xbd2fe80a	-0.0429459
25	0xbd89e045	-0.06732229
26	0xbc96ada1	-0.01839334
27	0x3a62e334	0.0008655072
28	0xbd08f2c2	-0.033434637
29	0x3beb1da1	0.007175163
30	0xbd252a3a	-0.040323474
31	0xbd7d8f88	-0.06190446
32	0x3d54ed0d	0.05198388
33	0xbb8b33d7	-0.004248123
34	0xbb100a3f	-0.0021978763
35	0x3cedef90	0.029044896
36	0x3c984445	0.018587241
37	0xbc510504	-0.0127575435
38	0x3c09080a	0.008363733
39	0x3d6ed30a	0.05830673
40	0x3c345953	0.011007625
41	0x3d3b49f9	0.045724843
42	0x3c5f07a6	0.013612663
43	0xbbc96468	-0.0061460026
44	0x3c22e8bb	0.009943183
45	0x3ca2c1d0	0.019867808
46	0x3cadb161	0.021202745
47	0x3c484c6b	0.012225251
48	0xbaa760cc	-0.0012769937
49	0xbc1af6b5	-0.009458234
50	0xbcfc8110	-0.03082326
51	0xbd8a5dfb	-0.067562066
52	0xbc2ec86f	-0.010667904
53	0x3d64e331	0.05588073
54	0xbce152df	-0.027505336
55	0xbd1bfcda	-0.038082935
56	0x3cc2ee1b	0.023795178
57	0xbce30c9b	-0.027715972
58	0xbd2014aa	-0.039082207
59	0xbd5c0b24	-0.053721562
60	0x3d2dac99	0.04240093
61	0xbcebdfb2	-0.02879319
62	0x3d4112e1	0.047137145
63	0xbd792802	-0.06082917
64	0x3d409b39	0.04702303
65	0x3c696a04	0.0142464675
66	0x3d011683	0.03151561
67	0x3ccefcac	0.025266968
68	0x3b49f670	0.0030817054
69	0x3c05a49a	0.00815692
70	0x3d133c9d	0.035946477
71	0xbc8165a7	-0.015795542
72	0xbc0f5d29	-0.008750238
73	0xbcc2f835	-0.023799995
74	0xbc7ee21a	-0.0155568365
75	0x3ccd79b0	0.02508244
76	0xbd4652d5	-0.04841884
77	0x3d725c23	0.0591699
78	0xbc1371c8	-0.0089992955
79	0xbc342be3	-0.0109967915
80	0xbbae592f	-0.00532069
81	0x3d06024a	0.032717027
82	0x3c13d96b	0.009024004
83	0xbccb6e6c	-0.024832927
84	0xbcf8f78a	-0.030391473
85	0x3cf0f162	0.029411975
86	0x3ba231fa	0.0049498053
87	0x3a5fca52	0.0008536923
88	0x3d68b233	0.05681057
89	0xbce7f181	-0.0283134
90	0x3c34d968	0.011038162
91	0x3cc209ae	0.023686256
92	0xbc4cbf96	-0.0124968495
93	0xbd56e49a	-0.052464105
94	0xbc2b89e3	-0.0104698865
95	0xbd0a80f6	-0.033814393
96	0x3d99ca34	0.0750927
97	0x3d0ca1d0	0.034334004
98	0x3bf82207	0.0075724158
99	0x3b72d471	0.0037052894
100	0x3d123974	0.035699323
101	0xbb091741	-0.0020918401
102	0xbd0388ca	-0.032112874
103	0xbc952eb4	-0.018210746
104	0x3cc8901c	0.02448278
105	0xbd850f8e	-0.064971074
106	0xbd81ec66	-0.063439175
107	0xbc9cfb60	-0.019162834
108	0x3d46afd3	0.048507523
109	0xbccd7b64	-0.025083251
110	0xbd23edea	-0.040021814
111	0x3c9cea7b	0.019154778
112	0x3c096c85	0.0083876895
113	0x3d406074	0.046966985
114	0xbd5ddf9b	-0.054168325
115	0xbd7fd676	-0.062460385
116	0x3d8769c5	0.06611971
117	0xbb5b23d3	-0.00334381
118	0xbd491ad4	-0.04909785
119	0xbd1b9235	-0.03798123
120	0xbd8d5a73	-0.069020174
121	0x3c12fc65	0.008971308
122	0xbd9caac4	-0.076497585
123	0xbdf35d52	-0.11883034
124	0xbc38baf1	-0.011275039
125	0x3d8e7469	0.06955797
126	0xbb474624	-0.0030406797
127	0xbd430177	-0.04760882
128	0xbc14dd6c	-0.009085994
129	0xbd53ed45	-0.05173995
130	0xbcd9ce00	-0.026587486
131	0xbd37da63	-0.044886004
132	0xbc12e6b6	-0.008966139
133	0x3d303200	0.043016434
134	0xbc7dd699	-0.015493059
135	0xbce509ec	-0.027958833
136	0xbd3974df	-0.045277473
137	0xbc8af97a	-0.016964663
138	0x38799b80	5.9511047e-05
139	0xbd4db9c3	-0.050225984
140	0xbd1238c2	-0.03569866
141	0x3ce51144	0.027962334
142	0x3c1eb1fc	0.0096859895
143	0xbd9a7261	-0.07541347
144	0xbc789d14	-0.015174169
145	0x3d0374fa	0.03209398
146	0x3d26b345	0.04069831
147	0xbd3de5d1	-0.046361748
148	0xbbb22aa0	-0.00543721
149	0xbd573fc1	-0.052551035
150	0xba9bb885	-0.0011880553
151	0xbd1de89c	-0.03855191
152	0xbd57dd07	-0.052701022
153	0xbd3ea546	-0.046544336
154	0xbc44e799	-0.012018108
155	0x3d8b5bf1	0.06804646
156	0x3c8ebc1e	0.017423686
157	0x3ce4e261	0.027939977
158	0xbd3ec4e2	-0.04657448
159	0xbd8e912c	-0.06961283
160	0x3d34a407	0.04410174
161	0x3da29270	0.07938087
162	0x3bfa844d	0.007645166
163	0x3d1506ed	0.036383558
164	0xbcb9601f	-0.022628842
165	0x3bb7ee6c	0.005613139
166	0xbbf91e32	-0.0076024765
167	0x3c209925	0.0098021375
168	0x3d8b6826	0.06806974
169	0x3d3de8d2	0.046364613
170	0x3d2f8140	0.04284787
171	0xbcea4d31	-0.02860126
172	0x3d2da1db	0.042390686
173	0xbd1f2b60	-0.038859725
174	0x3c869265	0.016427228
175	0x3cddf928	0.027096346
176	0x3c8a40ec	0.01687666
177	0x3d2db352	0.04240734
178	0xba428642	-0.00074205187
179	0xbd95f16f	-0.073214404
180	0xbc0ad1ca	-0.008472869
181	0x3c899889	0.016796367
182	0xbdae1796	-0.085005924
183	0xbd681435	-0.056659896
184	0x3d8c935f	0.06864046
185	0x3cf2ae51	0.029624136
186	0x3d3917ff	0.0451889
187	0x3bbb4609	0.005715136
188	0x3d5df053	0.05418427
189	0xbd32cdc3	-0.04365326
190	0xbd6b9e72	-0.057524152
191	0x3ba3e752	0.0050019408
192	0xbd159261	-0.03651655
193	0x3c06c0a7	0.008224643
194	0x3d2fa5c8	0.04288271
195	0xbd97cfa0	-0.07412648
196	0x3cd733b6	0.026269775
197	0xbc66b4e5	-0.014081215
198	0xbd3d508a	-0.046219386
199	0xbdaf8247	-0.0856977
200	0xbc88c0bf	-0.016693471
201	0xbdb86067	-0.09002762
202	0xbd24207f	-0.040070053
203	0xbdffac04	-0.12483981
204	0xbd697f98	-0.05700645
205	0x3d2b70eb	0.041855734
206	0xbd80d151	-0.06289924
207	0xbd5a7969	-0.053338442
208	0x3d548718	0.051886648
209	0x3c5359b0	0.012899801
210	0x3d0e461b	0.034734827
211	0xbcd10e8d	-0.025519634
212	0x3ca0f0e5	0.019646117
213	0x3b98592d	0.0046493025
214	0xbb49708f	-0.0030737256
215	0xbcd91ffa	-0.026504505
216	0x3d0a0b69	0.033702288
217	0x3d09c116	0.033631407
218	0x3d12ab7d	0.035808075
219	0xbc2296b0	-0.009923622
220	0xbc8b8966	-0.01703329
221	0xbd9dc3be	-0.077033505
222	0x3d026bef	0.031841215
223	0xbc2e80b3	-0.0106508015
224	0x3d8f8ed0	0.07009661
225	0x3d59e599	0.053197477
226	0xbd202684	-0.03909923
227	0xbd088c42	-0.033336885
228	0x3c96c0d9	0.018402504
229	0xbd4c8aeb	-0.04993717
230	0xbd1c41d6	-0.038148724
231	0x3cbe1b64	0.02320642
232	0x3b8eab35	0.0043539056
233	0x3d24a677	0.040197816
234	0x3d576f8b	0.05259661
235	0xbd3c879f	-0.046027776
236	0xbd1c46ca	-0.038153447
237	0x3d2cbee4	0.042174235
238	0xbd973f65	-0.073851384
239	0xbc4aac28	-0.012370147
240	0xbc0b138e	-0.008488549
241	0x3bb16eb0	0.0054148063
242	0x3c96474c	0.018344544
243	0x3ac27921	0.0014837125
244	0x3d8333af	0.06406342
245	0xbce578c2	-0.028011683
246	0x3d27418c	0.040833995
247	0x3d36f524	0.044667378
248	0x3d28b8e4	0.04119195
249	0x3d3cc23e	0.04608368
250	0xbd9cc044	-0.07653859
251	0xbdafdcbd	-0.08587024
252	0xbd04d158	-0.03242621
253	0xbbb1e53a	-0.0054289373
254	0xbd6689b5	-0.05628367
255	0xbd42e09d	-0.04757749

conv3.0.bias f4 [32]
0	0x3c6c32a5	0.0144163715
1	0x3d6d2629	0.05789772
2	0x3c677185	0.014126186
3	0xbd71fb58	-0.05907759
4	0x3b86bd30	0.0041119084
5	0xbd61bf7f	-0.055114266
6	0xbcc1bc4e	-0.023649361
7	0x3d7a0301	0.06103802
8	0x3d0d4066	0.034485243
9	0x3caa9f65	0.020827958
10	0xbc73fbe7	-0.014891601
11	0x3cfe6e81	0.031058552
12	0x3cffbd4e	0.031218197
13	0xbbedd3d4	-0.007257918
14	0xbd7c14f6	-0.061543427
15	0x3c2bb4f0	0.010480151
16	0xbd020388	-0.03174165
17	0x3c96a8c5	0.018391022
18	0x3d4118d5	0.047142822
19	0x3cd20b72	0.025640223
20	0x3d3d2200	0.046175003
21	0x3d502995	0.050820906
22	0x3c378442	0.011200966
23	0x3d3fdea5	0.04684319
24	0x3c3f8633	0.01168971
25	0xbd268573	-0.04065461
26	0xbc3ec512	-0.011643665
27	0xbc541287	-0.01294387
28	0xbd7f1774	-0.062278226
29	0xbd4fa63a	-0.050695635
30	0xbd5c4227	-0.053774025
31	0x3d74cd60	0.059766173

conv3.1.weight f4 [32]
0	0x3f7cd4dc	0.987623
1	0x3f7dbfba	0.99120677
2	0x3f807c43	1.0037922
3	0x3f84ea8f	1.0384082
4	0x3f7a3457	0.97736114
5	0x3f7dca4c	0.99136806
6	0x3f7c9f1c	0.9868028
7	0x3f7bf510	0.9842081
8	0x3f795d98	0.9740844
9	0x3f80f97c	1.0076137
10	0x3f7cd871	0.98767763
11	0x3f7d16ba	0.98862803
12	0x3f8499dd	1.0359455
13	0x3f7942a3	0.97367305
14	0x3f81378b	1.0095075
15	0x3f823657	1.0172833
16	0x3f811a4f	1.0086154
17	0x3f817f89	1.0117046
18	0x3f7f97a6	0.9984077
19	0x3f7fdd18	0.9994674
20	0x3f7bac80	0.9831009
21	0x3f866706	1.050019
22	0x3f800865	1.0002562
23	0x3f807bed	1.0037819
24	0x3f79f6cd	0.97642213
25	0x3f797b44	0.97453713
26	0x3f85c151	1.044962
27	0x3f817d70	1.0116405
28	0x3f7d4917	0.9893965
29	0x3f84f50a	1.038728
30	0x3f88587f	1.0652007
31	0x3f8109e6	1.0081146

conv3.1.bias f4 [32]
0	0xbd91dce2	-0.07122208
1	0xbc08574c	-0.008321594
2	0xbca197db	-0.01972573
3	0xbe2ddf3c	-0.16979688
4	0xbcddddf6	-0.027083378
5	0xbc21b541	-0.009869874
6	0x3cb70007	0.02233888
7	0x384d8f2b	4.9009144e-05
8	0x3cc9792d	0.024593914
9	0xbc9a8417	-0.018861813
10	0xbb6a580f	-0.0035758053
11	0x3d56bd69	0.05242673
12	0x3d9e1d13	0.07720389
13	0xbce5e7f5	-0.028064707
14	0xbc91f6c8	-0.01781787
15	0xbd30d066	-0.043167494
16	0x3c5698c1	0.013097943
17	0xbc4b9cfd	-0.012427566
18	0xbbaaf925	-0.0052176886
19	0xbd6e917b	-0.05824421
20	0xbc71ce69	-0.014758685
21	0xbd0de5cc	-0.03464298
22	0x3c01fdba	0.007934028
23	0xbc60acc7	-0.013713068
24	0xbbdf20bc	-0.006809322
25	0xbc72e5d8	-0.014825307
26	0xbc5f8055	-0.013641437
27	0x3c17b796	0.009260079
28	0xbd3c1bab	-0.045924824
29	0xbd2377cc	-0.03990917
30	0xbd80e058	-0.0629279
31	0x3b0da387	0.0021612362

conv3.1.running_mean f4 [32]
0	0xbf0d6948	-0.5523877
1	0xbf1d110c	-0.61354136
2	0xbe22f75d	-0.15914674
3	0xbd945abf	-0.07243871
4	0xbec40e79	-0.38292292
5	0x3e913ac8	0.2836516
6	0xbddc8c8f	-0.10768997
7	0x3d264920	0.04059708
8	0xbd91a783	-0.071120284
9	0xbe908197	-0.2822387
10	0xbe82cc7c	-0.25546634
11	0xbf1332b7	-0.5749926
12	0xbef7ae0b	-0.48374972
13	0xbf6159ba	-0.88027537
14	0xbec75b51	-0.38936856
15	0xbea476e7	-0.32121965
16	0xbeda070b	-0.42583498
17	0xbe23314a	-0.15936771
18	0x3d7a93bb	0.061176043
19	0x3e12261b	0.14272349
20	0xbf13f383	-0.57793444
21	0xbc7dd81f	-0.015493422
22	0xbe8ae31c	-0.27126396
23	0xbe863b72	-0.26217228
24	0x3e2ef119	0.17084159
25	0xbec74041	-0.3891621
26	0xbe9d0d39	-0.3067415
27	0xbf059607	-0.5218205
28	0xbde69259	-0.11258382
29	0x3e27993e	0.16367051
30	0xbf04adbf	-0.51827615
31	0xbed7e407	-0.4216616

conv3.1.running_var f4 [32]
0	0x3e4ee8f9	0.2020606
1	0x3e908e7b	0.28233704
2	0x3e066bf7	0.13127123
3	0x3e484f63	0.19561534
4	0x3e717bd3	0.23582391
5	0x3e56a335	0.20960696
6	0x3ed35392	0.41274697
7	0x3e812829	0.25225952
8	0x3ddf728c	0.1091052
9	0x3e9e3239	0.30897692
10	0x3e515403	0.20442204
11	0x3e93ab99	0.28841856
12	0x3ec7c292	0.39015633
13	0x3e25cf9d	0.1619248
14	0x3e410557	0.18849693
15	0x3e12e277	0.14344202
16	0x3e390171	0.18066956
17	0x3e3d88d5	0.18509229
18	0x3e293fb5	0.16528209
19	0x3df5e651	0.1200682
20	0x3e42e8cf	0.19034122
21	0x3e05b270	0.1305635
22	0x3e8164c1	0.25272182
23	0x3e75c707	0.24001704
24	0x3e3b69c3	0.18302064
25	0x3e3bab3c	0.1832704
26	0x3e00d43f	0.12580965
27	0x3ec86cc1	0.39145473
28	0x3e657c79	0.22410764
29	0x3e227f7d	0.15868945
30	0x3e0fc857	0.14041267
31	0x3e6d911b	0.23199885

deconv2.0.weight f4 [32, 16, 4, 4]
0	0xbda3e0c3	-0.08001854
1	0x3c55b875	0.013044466
2	0xbc943d5a	-0.018095661
3	0x3c3c9969	0.011511185
4	0xbd2e6d7e	-0.04258489
5	0x3c774353	0.015091735
6	0xbcc4fa36	-0.024045091
7	0x3a53b491	0.0008075918
8	0xbd49492d	-0.04914205
9	0x3b51544e	0.0031941119
10	0xbd1d2daf	-0.038373645
11	0xbd8164cd	-0.06318054
12	0xbd18714d	-0.037217427
13	0x3d2349f0	0.039865434
14	0xbd64c908	-0.05585578
15	0x3d013419	0.031543825
16	0x3c53c3f6	0.012925139
17	0xbc6fc940	-0.014635384
18	0x3cb241d5	0.021759907
19	0xbdb56ee4	-0.08859041
20	0xbce06ded	-0.027396167
21	0x3cd10813	0.025516545
22	0x3de5be43	0.1121793
23	0x3c5cb3b6	0.013470581
24	0x3cd386a5	0.02582104
25	0xbccccf37	-0.025001151
26	0x3d294a8a	0.04133085
27	0x3c4a183b	0.012334879
28	0xbd821bb5	-0.06352941
29	0x3d67206d	0.056427408
30	0x3d2f8c2c	0.042858288
31	0x3bbf07d4	0.0058297906
32	0x3d4bb8d0	0.049736798
33	0x3b00a405	0.0019629013
34	0x3d4441a9	0.04791418
35	0x3b332b88	0.002733918
36	0x3ce6b4f9	0.028162466
37	0x3d3b2290	0.04568726
38	0x3aa4d102	0.0012574496
39	0x3cb88789	0.022525566
40	0x3d244e4b	0.04011373
41	0x3cfb1a2a	0.030652124
42	0xb9886c30	-0.00026020547
43	0x3cabc536	0.020968061
44	0x3c437436	0.011929562
45	0xbd628e5d	-0.05531155
46	0x3b8ca268	0.0042918213
47	0x3b95db6b	0.004573276
48	0xbcd1bd4a	-0.025602955
49	0x3d0992d7	0.033587303
50	0xbd0babab	-0.034099262
51	0x3d17787c	0.036980137
52	0xbd92a2f5	-0.07159988
53	0xbdc452e0	-0.0958612
54	0x3ddac662	0.1068237
55	0xbd03a632	-0.032140918
56	0xbda75078	-0.08169645
57	0x3c9274af	0.017877905
58	0xbd92fc7a	-0.07177062
59	0xbb234495	-0.0024912704
60	0xbc720fb2	-0.01477425
61	0xbdf6fc08	-0.1205979
62	0x3d980419	0.074226566
63	0xbdf664cc	-0.12030944
64	0x3c44a2a3	0.012001666
65	0x3d5c462b	0.053777855
66	0xbc0683e0	-0.008210152
67	0x3adae14c	0.0016699224
68	0xbd08d4bb	-0.033406
69	0xbd9717e0	-0.07377601
70	0xbd0cc758	-0.034369797
71	0xbc9ea885	-0.019367466
72	0x3b46ec36	0.0030353195
73	0x3d158211	0.036500994
74	0xbc33c84c	-0.010973047
75	0x3cd28497	0.02569799
76	0x3d7b6e3a	0.061384417
77	0x3d23b576	0.039967977
78	0x3c247157	0.010036788
79	0x3cb2b1ba	0.021813262
80	0xbcd1871f	-0.025577126
81	0x3ca4d83a	0.020122636
82	0xbd255b32	-0.040370174
83	0xbd8846ba	-0.06654115
84	0x3d63db00	0.055628777
85	0x3d06e079	0.032928918
86	0x3d389f7a	0.045073964
87	0xbaafc1d3	-0.0013409205
88	0x3bb37c6d	0.005477479
89	0xbc1583b1	-0.009125636
90	0xbd85aad7	-0.06526726
91	0xbdacff5a	-0.08447142
92	0xbca0c9f5	-0.01962755
93	0x3c73751d	0.014859465
94	0x3cd1aa30	0.025593847
95	0x3c0697a2	0.008214863
96	0xbc485e99	-0.012229585
97	0xbd2e9d1a	-0.042630292
98	0xbd9db238	-0.07700008
99	0x3c67fde3	0.014159652
100	0x3d5cf5ed	0.05394547
101	0xbd993606	-0.07481007
102	0x3c1e2d20	0.009654313
103	0xbc9fba35	-0.01949797
104	0xbcc23924	-0.023708887
105	0xbcbb2eb1	-0.022849413
106	0xbb124e41	-0.0022324475
107	0x3c1805ed	0.009278757
108	0x3cc0dc16	0.023542445
109	0x3d349ebc	0.044096693
110	0x3d15c066	0.03656044
111	0xbc62dc84	-0.01384652
112	0xbda0cdd0	-0.078517556
113	0x3cb3ef7f	0.021964787
114	0x3ac5ee7a	0.0015100979
115	0x3c42b4ba	0.011883909
116	0xbc8f923c	-0.017525785
117	0x3c6ec0e1	0.014572353
118	0x3c311518	0.010808252
119	0x3be6a877	0.0070391255
120	0xbd8d73e6	-0.069068715
121	0x3bc18f24	0.0059069563
122	0x3d4a3c82	0.04937411
123	0x3c8ad3fe	0.016946789
124	0xbcc898a9	-0.024486857
125	0x3d0323dd	0.032016624
126	0xbcded2c2	-0.027200107
127	0x3c04a84f	0.0080967685
128	0x3beb725a	0.0071852626
129	0xbc12c056	-0.008956989
130	0xbc51ad4b	-0.012797664
131	0xbc0aa635	-0.008462478
132	0xbd4945c4	-0.0491388
133	0xbd390498	-0.045170397
134	0x3b9be8ac	0.0047579613
135	0xbd17366b	-0.03691713
136	0x3d07bd99	0.0331398
137	0xbd0c1497	-0.034199324
138	0x3cf1acbe	0.029501315
139	0xbd4f5ee4	-0.050627604
140	0xbca742da	-0.02041762
141	0x3d418cb3	0.04725332
142	0x3ca43d9b	0.020048907
143	0xbd44f4db	-0.048085075
144	0xbbc7daf9	-0.0060991016
145	0xbc949249	-0.01813616
146	0x3c74fb73	0.014952528
147	0xbd346d75	-0.0440497
148	0x3d40b07b	0.047043305
149	0xbc94b1c3	-0.01815117
150	0xbdffb70b	-0.124860846
151	0x3c4481e7	0.011993862
152	0x3d718edb	0.05897413
153	0xbcaebab2	-0.021329258
154	0x3d3c0db4	0.045911506
155	0xbdc77b18	-0.09740275
156	0x3d83b5ec	0.06431183
157	0xbc37eb74	-0.01122557
158	0xbe00faec	-0.12595719
159	0xbc3516a7	-0.011052764
160	0xbd427275	-0.047472436
161	0xbdae1268	-0.084996045
162	0xbd53cc97	-0.051708784
163	0xbda97169	-0.082735844
164	0x3ce09bc1	0.02741802
165	0xbc990311	-0.01867822
166	0xbd1ad758	-0.037803024
167	0xbcc33c68	-0.023832515
168	0xbd0de1b3	-0.03463907
169	0xbdc5420b	-0.09631737
170	0xbbcecc8e	-0.006311006
171	0xbd1ae155	-0.03781255
172	0x3d16730a	0.036730804
173	0xbbdfc42c	-0.0068288054
174	0x3c728e25	0.014804398
175	0x3b9e9119	0.0048390743
176	0xbd76255c	-0.060094222
177	0xbcf6946e	-0.030100074
178	0xbd755d8b	-0.059903663
179	0xbd8f893d	-0.07008598
180	0xbb39ffb8	-0.002838118
181	0xbd58213c	-0.05276607
182	0x3c86608a	0.016403455
183	0xbdcdfd93	-0.10058131
184	0xbd9b9e9f	-0.07598614
185	0xbd80feb1	-0.062985785
186	0xbd693ff7	-0.056945767
187	0xbcdadf98	-0.026717946
188	0xbd23980a	-0.039939918
189	0xbd1c1df7	-0.038114514
190	0x3c5b3abd	0.0133807035
191	0xbcbd1f39	-0.023086177
192	0xbc3fbd3e	-0.011702834
193	0x3c9c0dea	0.019049603
194	0xbd7aeb6c	-0.061259672
195	0x3d0b66a8	0.034033448
196	0xbd752f9b	-0.059859853
197	0xbbe9b31b	-0.0071319467
198	0xbba12350	-0.0049175397
199	0xbd2a01ba	-0.041505553
200	0xbc07796a	-0.008268693
201	0x3d7c84a5	0.061649937
202	0xbd7992d8	-0.060931057
203	0x3d25bbe1	0.04046238
204	0xbc0dac53	-0.008647042
205	0xbc99c4ec	-0.018770657
206	0x3c357285	0.011074667
207	0xbbbefa30	-0.0058281645
208	0x3aa6e632	0.0012733398
209	0xbc54ca77	-0.0129877245
210	0xbd80ad1e	-0.062830195
211	0xbc14ce5e	-0.009082405
212	0x3d93ff54	0.07226434
213	0x3d3f81ab	0.04675452
214	0xbc9e141e	-0.019296702
215	0x3cd612b1	0.02613196
216	0x3c822d92	0.01589087
217	0xbc7e145d	-0.015507785
218	0xbd79893c	-0.060921893
219	0x3c05408c	0.008133065
220	0x3d9c2233	0.076237105
221	0x3bcab1ee	0.0061857617
222	0x3d1d2253	0.038362812
223	0x3d08244d	0.033237744
224	0xbd8da962	-0.06917073
225	0xbb6dc673	-0.0036281615
226	0xbc856ce4	-0.016287275
227	0xbd203fec	-0.03912346
228	0x3c1269dc	0.008936372
229	0xbca54b8c	-0.020177625
230	0x3c97b688	0.018519655
231	0xbb76614f	-0.0037594622
232	0xbd33af0e	-0.043868117
233	0xbd630c8b	-0.055431884
234	0xbd5fd4e2	-0.05464638
235	0xbda93f08	-0.082639754
236	0x3a62b53a	0.00086482207
237	0xbd2f3619	-0.0427762
238	0xbbbc0472	-0.0057378346
239	0xbcfa99b7	-0.030590875
240	0xbd063b85	-0.032771606
241	0xbd7ccd43	-0.06171919
242	0x3b9ad27c	0.0047247987
243	0x3cab43de	0.020906385
244	0xbc8aed49	-0.01695885
245	0xbcbbff05	-0.022948751
246	0xbdcf8e4e	-0.10134564
247	0x3cedc4e7	0.029024554
248	0xbd0f7a4d	-0.035028744
249	0xbd407ffa	-0.046997048
250	0x3c7485fc	0.0149245225
251	0xbd8f6a67	-0.070027165
252	0x3db5c722	0.08875872
253	0xbcc60c05	-0.024175653
254	0xbd83696b	-0.06416591
255	0x3be2be83	0.0069196834

deconv2.0.bias f4 [16]
0	0x3cf1d5cf	0.029520897
1	0xbd76b4ba	-0.060230948
2	0x3cf685e8	0.030093148
3	0x3cda0f52	0.026618633
4	0x3d1e5e2a	0.03866402
5	0xbd666c27	-0.056255486
6	0x3d46a3b7	0.048495974
7	0xbc861569	-0.016367631
8	0xbd77ef13	-0.060530733
9	0x3d53bdf5	0.05169483
10	0x3ce049ab	0.027378878
11	0xbd6298b9	-0.05532143
12	0x3cd1c326	0.02560575
13	0xbc6b3615	-0.014356156
14	0x3c74dee3	0.014945718
15	0x3c851733	0.016246414

deconv2.1.weight f4 [16]
0	0x3f735627	0.95053333
1	0x3f8158c8	1.0105219
2	0x3f80667b	1.0031275
3	0x3f7926e9	0.97325
4	0x3f7cdc8c	0.9877403
5	0x3f725d0e	0.9467324
6	0x3f7296fa	0.9476162
7	0x3f714a12	0.9425365
8	0x3f770a5f	0.965002
9	0x3f8347fc	1.0256343
10	0x3f76694e	0.9625443
11	0x3f8e6116	1.1123378
12	0x3f7c0ed4	0.98460126
13	0x3f7423f2	0.9536735
14	0x3f85c78e	1.0451524
15	0x3f80030f	1.0000933

deconv2.1.bias f4 [16]
0	0x3c0f927a	0.00876295
1	0x3db67d8c	0.08910665
2	0x3d5e3f8f	0.054259833
3	0x3c54dee1	0.012992592
4	0x3c9d55d3	0.019205963
5	0x3c76b78e	0.015058411
6	0x3ce7a243	0.028275615
7	0xbd33b2a1	-0.043871526
8	0xbc64e20b	-0.0139699085
9	0x3e0a57cd	0.13510056
10	0x3d0209e6	0.03174772
11	0xbd51de9e	-0.051237695
12	0xbd104109	-0.035218272
13	0x3cd55089	0.026039379
14	0x3d305233	0.04304714
15	0x3c8deacf	0.01732388

deconv2.1.running_mean f4 [16]
0	0xbf396b61	-0.7242947
1	0xbf145432	-0.5794097
2	0xbe947814	-0.28997862
3	0xbf19d5c3	-0.600918
4	0xbe837a50	-0.25679255
5	0xbf573bfa	-0.8407589
6	0xbf0799ae	-0.5296887
7	0xbecbcf39	-0.39806536
8	0xbf35cc5a	-0.7101494
9	0xbf55c315	-0.83500797
10	0xbf6f073d	-0.9337042
11	0xbf45206b	-0.7700259
12	0xbce14678	-0.027499422
13	0xbe708170	-0.23486876
14	0xbf4f11cb	-0.80886525
15	0xbf69a16d	-0.9126194

deconv2.1.running_var f4 [16]
0	0x3f4cb9ba	0.79970896
1	0x3f5ef025	0.8708518
2	0x3f66fd37	0.90230125
3	0x3f3093f1	0.6897574
4	0x3f06b88f	0.52625364
5	0x3fbb50df	1.4634055
6	0x3fa8aa02	1.3176882
7	0x3f391611	0.72299296
8	0x3f0c4e61	0.54807097
9	0x400c20e4	2.1895075
10	0x3feab387	1.8336037
11	0x3df6ca5a	0.12050314
12	0x3ea8de55	0.32982126
13	0x3f950f19	1.1645232
14	0x3f0c546d	0.54816324
15	0x3f4b2ac9	0.7936216

deconv3.0.weight f4 [16, 8, 4, 4]
0	0xbd66cac6	-0.056345724
1	0x3c93d500	0.018045902
2	0xbc3d442c	-0.011551898
3	0xbdbc9942	-0.09208919
4	0xbdacf7c9	-0.08445699
5	0xbd54b3f6	-0.051929437
6	0x3caf6f47	0.021415366
7	0xbc92b409	-0.017908113
8	0xbd672f1a	-0.056441404
9	0x3cac18b7	0.021007879
10	0x3cb19857	0.021679087
11	0x3d947f6a	0.07250865
12	0xbd81110d	-0.0630208
13	0xbd07fbfb	-0.03319929
14	0x3d103473	0.03520627
15	0xbbcaac63	-0.006185101
16	0xbbf375df	-0.007429823
17	0xbd135c7b	-0.035976868
18	0x3cba64c9	0.022753136
19	0x3da62139	0.081118055
20	0x3d13d55c	0.036092147
21	0x3cdc7600	0.026911736
22	0x3d674576	0.056462727
23	0x3cb43227	0.02199657
24	0xbbdb510c	-0.006693011
25	0x3dc19399	0.0945198
26	0x3d4e2c17	0.050335016
27	0x3d20e6e9	0.039282713
28	0x3acdde98	0.0015706597
29	0x3d88dad4	0.06682363
30	0x3d80579b	0.062667094
31	0xbce329f8	-0.027729973
32	0x3d58b0bb	0.05290292
33	0x3d04137b	0.03224514
34	0xbcfe4350	-0.031037956
35	0x3d81848b	0.06324109
36	0x3d4a165d	0.049337734
37	0x3e04dc3e	0.1297464
38	0x3c79e83b	0.015253122
39	0x3ce2e6b0	0.027697891
40	0x3ca33479	0.019922482
41	0x3d92c20b	0.07165917
42	0xbd59eae3	-0.05320252
43	0x3d8acf9a	0.06777878
44	0x3c6a783d	0.014310894
45	0x3cea5e19	0.028609322
46	0xbc02b25c	-0.0079770945
47	0xbc2694bc	-0.010167297
48	0x3ced0527	0.02893312
49	0x3dc1aeb2	0.094571486
50	0xbd89e2c5	-0.06732706
51	0x39313d92	0.00016902972
52	0x3be715a3	0.00705214
53	0xbd0ff0fc	-0.03514193
54	0x3cf24928	0.0295759
55	0x3dacddc9	0.0844074
56	0x3d133841	0.03594232
57	0x3da97f8e	0.08276282
58	0xbcbafc03	-0.022825247
59	0x3d9accc6	0.07558589
60	0x3cfa0812	0.030521426
61	0x3cf3a033	0.029739475
62	0x3c9995dc	0.018748216
63	0x3cb26e1b	0.021781018
64	0x3d0794e8	0.033100992
65	0x3d59d069	0.05317727
66	0xbc1fc5c3	-0.00975174
67	0xbd4cb583	-0.04997779
68	0x3d0ec433	0.03485508
69	0x3c526289	0.012840875
70	0x3c94f02b	0.018180927
71	0xbd84f273	-0.06491556
72	0xbc9c6d72	-0.019095156
73	0x3d211ced	0.039334226
74	0xbd0cb27a	-0.034349896
75	0x3ba8612d	0.0051385374
76	0x3b5945c9	0.0033153167
77	0x3c9763be	0.018480178
78	0xbc431178	-0.01190602
79	0x3d41fe8f	0.047361907
80	0x3c996e4b	0.01872935
81	0xbc9f1390	-0.019418508
82	0x3ab3fab8	0.0013731336
83	0xbb079b7c	-0.002069204
84	0x3c07482e	0.008256955
85	0xbc1b9a41	-0.009497226
86	0x3c876b20	0.016530573
87	0x3d8e4ec2	0.069486156
88	0xb9d6c5f1	-0.0004096474
89	0x3d30e843	0.043190252
90	0xbd2134a3	-0.03935684
91	0xbbd0e0e8	-0.006374467
92	0x3d533ce6	0.05157175
93	0x3c1b388a	0.009473929
94	0x3ce6cd39	0.02817403
95	0x3ca1f205	0.019768724
96	0xbced5c44	-0.02897466
97	0xbda27bc1	-0.079337604
98	0xbcf892e1	-0.030343475
99	0xbd7c3cff	-0.061581608
100	0x3d335a53	0.04378731
101	0xbd2765eb	-0.04086868
102	0xbb9df7c1	-0.0048207943
103	0xbc916d2f	-0.017752258
104	0x3c01d167	0.007923461
105	0x3da6b1df	0.08139395
106	0x3d074a51	0.033029858
107	0x3bd30b06	0.006440523
108	0x3b745e87	0.0037287788
109	0xbd08740a	-0.03331379
110	0xbcb0d008	-0.021583572
111	0xbd3f3e4c	-0.04669027
112	0x3d24b733	0.040213775
113	0x3d9ff75c	0.07810852
114	0x3d07dd93	0.033170294
115	0x3cf88cb9	0.03034054
116	0x3cb494e9	0.022043662
117	0x3dcb598d	0.0992919
118	0xbd6fa085	-0.058502693
119	0xbcee1374	-0.02906201
120	0x3d41edcd	0.047345925
121	0xbd98be41	-0.07458163
122	0xbccf93c5	-0.025339017
123	0xbc13ca4f	-0.009020402
124	0x3d3d8718	0.046271414
125	0x3d64b32a	0.055834927
126	0xbcfaefc8	-0.030631915
127	0x3d1bcf6c	0.03803961
128	0xbc48156e	-0.0122121405
129	0x3bb45a86	0.0055039553
130	0x3d812ef8	0.06307787
131	0xbdb8afeb	-0.09017929
132	0xbd1dad57	-0.038495388
133	0xbd10372a	-0.03520886
134	0x3e0c00f3	0.13672237
135	0x3d4b8129	0.049683724
136	0x3c938ac1	0.018010499
137	0x3c4596fc	0.012059923
138	0x3d00cdad	0.031446148
139	0xbc26d1d8	-0.010181867
140	0xbb906615	-0.0044067004
141	0xbd119828	-0.035545498
142	0x3d4f1b54	0.05056317
143	0x3b7ce511	0.0038588683
144	0x3d4891ec	0.048967287
145	0xbdc427f9	-0.09577937
146	0x3b1fc157	0.0024376714
147	0xbd0c4dc1	-0.03425384
148	0xbceb6e0f	-0.028739003
149	0xbda0264e	-0.07819806
150	0x3dc66641	0.09687472
151	0xbd41708f	-0.047226485
152	0x3c85d740	0.01633799
153	0xbb60c42c	-0.0034296615
154	0x3c0bae76	0.008525481
155	0x3c85e217	0.01634316
156	0xba32b912	-0.0006817739
157	0x3b777659	0.003775975
158	0x3d326d4b	0.04356126
159	0x3cfd048b	0.030885955
160	0x3c2d36d1	0.010572151
161	0x3ca8d445	0.02060903
162	0x3ddf58aa	0.10905583
163	0xbb1dd597	-0.0024083608
164	0xbb30cfdd	-0.0026979365
165	0x3bd0ab43	0.0063680722
166	0xbc43d398	-0.011952303
167	0x3d5f3837	0.05449697
168	0xbc862fa1	-0.016380133
169	0x3d0f4943	0.034981977
170	0x3ad06396	0.001589882
171	0xbbd12cb4	-0.006383503
172	0xbca5738f	-0.020196704
173	0xbcbf544d	-0.023355627
174	0x3cea72a9	0.028619127
175	0xbd6b8312	-0.057498045
176	0xbd9f0a65	-0.077656545
177	0xbd018832	-0.031624027
178	0x3d750522	0.05981935
179	0xbd0b8339	-0.03406069
180	0x3da03c89	0.07824046
181	0xbd47cf63	-0.048781764
182	0xbd473d50	-0.048642457
183	0x3d2cb54e	0.042165093
184	0xbd4dcf23	-0.05024637
185	0x3d051a73	0.032495927
186	0x3dd6edf0	0.10494602
187	0x3c57511e	0.013141898
188	0x3d53c419	0.051700685
189	0x3b72d0a0	0.003705062
190	0xbd4ef802	-0.050529487
191	0x3d2ca6ff	0.042151447
192	0x3d45d2b1	0.048296634
193	0xbaf52e3b	-0.0018705794
194	0x3cb3c54d	0.021944666
195	0x3d551b37	0.052027907
196	0x3da276dd	0.079328276
197	0x3d6c0714	0.057623938
198	0xbd056423	-0.0325662
199	0x3cd802bc	0.026368491
200	0x3d4cd635	0.05000897
201	0x3d2033ce	0.039111905
202	0x3d18e9d0	0.037332356
203	0x3de3456d	0.11097226
204	0x3c0753e3	0.008259746
205	0xbd05cd42	-0.032666452
206	0x3d37380e	0.044731192
207	0x3c787229	0.015163937
208	0x3cba10de	0.022713121
209	0xbd71118a	-0.058854617
210	0xbd14136e	-0.036151342
211	0x3d7bf8f2	0.06151671
212	0xbd2d8ae8	-0.0423688
213	0x3d355ebe	0.044279806
214	0x3df99879	0.12187285
215	0x3e02c82f	0.12771676
216	0x3c202a12	0.009775655
217	0x3d5af181	0.053452972
218	0x3b1219b1	0.0022293145
219	0x3dec42b5	0.11536161
220	0x3dbf322c	0.093357414
221	0x3cf5dbd4	0.030012049
222	0x3da929b1	0.08259905
223	0x3df6defd	0.120542504
224	0xbd09d99a	-0.033654787
225	0xbdb38c20	-0.08766961
226	0xbc9ab751	-0.01888624
227	0x3cceceee	0.025245156
228	0x3d18dce4	0.037320033
229	0x3ca88699	0.020571994
230	0x3ddbe65d	0.10737298
231	0xba5da49e	-0.0008455011
232	0x3cd907b6	0.026492935
233	0xbceca5d3	-0.028887665
234	0x3c9e9fa5	0.019363234
235	0x3ca7cbfc	0.02048301
236	0xbb64baa3	-0.0034901283
237	0x3b492d68	0.003069723
238	0x3ddd017e	0.107913
239	0x3d0edd01	0.034878734
240	0x3cb2786f	0.021785943
241	0x3d417586	0.04723122
242	0xbbf30a4c	-0.007416999
243	0x3d4dcf07	0.050246265
244	0x3c560247	0.013062066
245	0xbc8f35e9	-0.017481761
246	0xbd9c6b6d	-0.07637677
247	0xbdaa913a	-0.08328481
248	0xbd48fbe4	-0.049068347
249	0xbc3ff6e6	-0.01171658
250	0xbd2b9ec6	-0.041899465
251	0xbd86d6e2	-0.065839544
252	0xbc79cac9	-0.015246102
253	0xbc4e87a1	-0.012605579
254	0xbdc9d288	-0.09854609
255	0xbd9fb20c	-0.077976316

deconv3.0.bias f4 [8]
0	0xbd9047cb	-0.070449434
1	0x3d9d63f3	0.076850794
2	0xbd5af79b	-0.05345879
3	0x3d4436da	0.047903873
4	0x3cd01d9e	0.025404748
5	0x3d7f39ae	0.062310867
6	0x3d073190	0.03300625
7	0x3d818570	0.06324279

deconv3.1.weight f4 [8]
0	0x3f9f10b1	1.2426969
1	0x3f9c28e0	1.2199974
2	0x3f9cb4f1	1.2242719
3	0x3f9cbfcc	1.2246032
4	0x3f9972a7	1.1988114
5	0x3f9caf97	1.2241086
6	0x3f9e502a	1.2368214
7	0x3f9785c8	1.1837702

deconv3.1.bias f4 [8]
0	0x3e759aac	0.23984784
1	0x3e5a975d	0.21346803
2	0x3e5edee8	0.2176472
3	0x3e613438	0.21992576
4	0x3e4d7635	0.20064624
5	0x3e5ef53d	0.21773238
6	0x3e6e4dcf	0.23271869
7	0x3e423df4	0.18968946

deconv3.1.running_mean f4 [8]
0	0xbe3eb9c9	-0.18625559
1	0xbd315e89	-0.043303046
2	0x3d98435f	0.07434725
3	0x3dfac14b	0.12243899
4	0x3ed18f62	0.40929705
5	0x3ee99f77	0.45629475
6	0x3d09981d	0.033592332
7	0xbe009e8d	-0.12560482

deconv3.1.running_var f4 [8]
0	0x3d9ba36e	0.07599531
1	0x3d6a6823	0.05722822
2	0x3dbe35aa	0.09287579
3	0x3d8925ad	0.06696639
4	0x3d467ca0	0.048458695
5	0x3d7a4553	0.06110127
6	0x3d994e38	0.07485622
7	0x3d932bdc	0.071861
