03_hw/Pix2Pix/checkpoints/pix2pix_model_epoch_710.pth (torch, 99191 bytes, 32 tensors)

conv1.0.weight f4 [8, 3, 4, 4]
-0.098696865 -0.113906965 -0.05312159 -0.18378842 0.059988223 -0.099830404 -0.020763671 0.060054734
-0.14170891 -0.04544506 -0.0049315095 0.040286634 -0.024063235 0.07219696 0.07016672 -0.13657974
0.1347872 0.18803203 0.05508306 -0.005439663 0.03649461 -0.023433467 -0.07766491 0.049402345
0.11933041 0.05380633 0.039291915 -0.039810847 -0.07489379 0.028653307 -0.06459656 0.16680913
-0.10420161 0.03895297 -0.14897344 0.052973576 -0.11023777 -0.105969675 -0.0067359135 -0.12160048
0.025694037 -0.02443398 -0.0026018745 -0.036686275 -0.047024004 0.04326255 0.07239932 0.046016563
-0.06986112 0.06925996 -0.01869324 -0.018265912 -0.0037464665 0.11358042 0.03412743 -0.011549619
0.14605391 0.087932356 -0.09949239 -0.07290761 0.03479294 0.12721264 -0.029729757 -0.022127783
-0.0025826865 0.13464548 0.011041497 -0.08420952 -0.045341916 -0.07676105 0.03773099 -0.03320899
0.030885607 -0.008636683 0.037115116 -0.12816824 0.061958037 -0.027523026 0.06019127 0.091815315
0.0023053521 -0.06283877 0.04836624 -0.1291872 -0.056187756 0.083392344 -0.07263628 0.06562496
-0.005501151 -0.004303612 -0.01759742 0.004702935 -0.062853545 -0.093125954 -0.028948296 -0.09663583
-0.13229237 0.055034347 0.013835579 -0.056533787 0.011578257 -0.024586745 0.064848326 0.13851903
-0.07786399 0.04571953 -0.11189657 -0.050209496 0.15478721 0.03474581 0.041116912 -0.05402009
-0.0579471 0.0019739561 0.101221785 -0.11276465 0.12755404 -0.032746438 0.01474972 0.12965597
0.031193847 0.07376567 -0.09259382 -0.107123554 0.03983252 0.030218355 -0.005331888 0.118147135
-0.10143172 0.09495822 -0.014583748 0.03754485 0.016146448 0.06576035 0.09538856 -0.014183739
0.07793851 0.1718006 0.12162979 0.07559833 -0.08874422 0.024482518 0.10016717 0.11649242
0.060239572 0.11471929 0.17333268 0.049106997 0.0046371645 -0.050623823 -0.00045862945 -0.051235925
0.038442973 -0.06755161 0.14291511 -0.058841884 0.053069666 0.11252436 0.10121729 -0.15878394
-0.10898231 0.088343106 0.15626797 0.025788277 0.068321064 0.0983836 0.001635367 -0.038537886
-0.092009686 -0.08756539 0.06865492 0.100531794 -0.0851615 -0.05657348 -0.014087211 -0.08409114
0.078663886 -0.1758446 0.016954865 0.031521864 -0.05649742 -0.113093585 -0.042632803 0.019022051
-0.11613477 0.10743928 -0.07969027 0.110624485 -0.058040995 -0.042252008 -0.11002926 0.12891492
-0.093397945 -0.13876268 0.03884459 0.049922172 0.13380247 -0.014302573 0.0002825388 -0.13986936
0.094577864 -0.07229665 0.117933184 0.05659703 0.046939176 -0.17011835 -0.08792006 -0.014041594
-0.028012423 0.060741942 0.037006557 0.09365098 -0.096624695 -0.07783294 -0.0053614597 0.076986946
-0.03388645 -0.12816419 -0.19554219 -0.231362 -0.11127177 -0.020824801 -0.19836529 0.030164823
0.110001236 0.018643647 0.061330855 -0.104009226 0.07322429 -0.058440268 0.09390076 -0.07631999
-0.05594071 0.0943072 -0.052178636 0.064155035 0.09833463 0.030457294 -0.0061388495 -0.058321625
0.03860502 -0.11536693 -0.068233564 -0.04088832 -0.057215378 -0.09628798 0.11876499 -0.002930565
0.10085402 0.015334224 0.09435467 -0.11387824 -0.03816426 0.1077599 0.1260373 0.053975355
00000000: 9521 cabd 0e48 e9bd 0696 59bd 0833 3cbe
00000010: 36b6 753d e273 ccbd 9318 aabc f4fb 753d
00000020: 241c 11be 9924 3abd 8098 a1bb 9903 253d
00000030: 4320 c5bc 00dc 933d 92b3 8f3d 8fdb 0bbe
00000040: a805 0a3e 788b 403e c69e 613d 333f b2bb
00000050: 5f7b 153d 8bf7 bfbc c80e 9fbd 1d5a 4a3d
00000060: 8163 f43d 0764 5c3d 8ff0 203d b310 23bd
00000070: ea61 99bd 57ba ea3c 344b 84bd 03d0 2a3e
00000080: a767 d5bd 268d 1f3d 7e8c 18be d2fa 583d
00000090: 57c4 e1bd a106 d9bd f0b8 dcbb ac09 f9bd
000000a0: 4d7c d23c c529 c8bc 3684 2abb 5944 16bd
000000b0: 3e9c 40bd 1234 313d 1846 943d dd7b 3c3d
000000c0: 5913 8fbd 2ad8 8d3d 9122 99bc 65a2 95bc
000000d0: 4787 75bb da9c e83d 34c9 0b3d 9d3a 3dbc
000000e0: 288f 153e e115 b43d abc2 cbbd 9650 95bd
000000f0: 0b83 0e3d 0844 023e d28b f3bc 5345 b5bc
00000100: 4a42 29bb 81e0 093e 65e7 343c 0a76 acbd
00000110: 72b8 39bd e634 9dbd d08b 1a3d 2606 08bd
00000120: d003 fd3c e080 0dbc 0506 183d 893e 03be
00000130: b6c7 7d3d f877 e1bc 1f8b 763d ab09 bc3d
00000140: 6415 173b 9db1 80bd ae1b 463d a649 04be
00000150: 2225 66bd 9bc9 aa3d 54c2 94bd 6166 863d
00000160: 0043 b4bb 5005 8dbb 7728 90bc 141b 9a3b
00000170: 5cb9 80bd d2b8 bebd fa24 edbc 02e9 c5bd
00000180: a777 07be b26b 613d a0ae 623c f98f 67bd
00000190: bbb2 3d3c 246a c9bc 33cf 843d efd7 0d3e
000001a0: 2877 9fbd 6744 3b3d 072a e5bd 79a8 4dbd
000001b0: 8a80 1e3e 9f51 0e3d 356a 283d 2b44 5dbd
000001c0: f059 6dbd 7d5d 013b 5e4d cf3d 27f1 e6bd
000001d0: 879d 023e 2121 06bd cfa8 713c 89c4 043e
000001e0: 3d8a ff3c 7512 973d d4a1 bdbd 9863 dbbd
000001f0: 6d27 233d 7c8c f73c 1eb7 aebb 20f7 f13d
00000200: 6fbb cfbd 7579 c23d acf0 6ebc a1c8 193d
00000210: 8e45 843c 5dad 863d 145b c33d ea62 68bc
00000220: 3a9e 9f3d 7fec 2f3e 0a19 f93d 4cd3 9a3d
00000230: 88bf b5bd 908f c83c 7224 cd3d 9493 ee3d
00000240: c5bd 763d f2f1 ea3d 1f7e 313e 6b24 493d
00000250: 5bf3 973b ed5a 4fbd 3474 f0b9 c3dc 51bd
00000260: 6176 1d3d 8058 8abd 5758 123e 3004 71bd
00000270: 945f 593d 2c73 e63d 034b cf3d 4298 22be
00000280: 1e32 dfbd 3bed b43d b604 203e f041 d33c
00000290: eaeb 8b3d 577d c93d d059 d63a e7d9 1dbd
000002a0: 936f bcbd 7c55 b3bd f39a 8c3d 9de3 cd3d
000002b0: 2769 aebd 98b9 67bd 0cce 66bc fa37 acbd
000002c0: 881a a13d 9b10 34be eee4 8a3c 121d 013d
000002d0: d769 67bd 9c9d e7bd bc9f 2ebd 22d4 9b3c
000002e0: 11d8 edbd 2009 dc3d a734 a3bd 178f e23d
000002f0: 65bc 6dbd 7110 2dbd 0557 e1bd 4602 043e
00000300: 6c47 bfbd ce17 0ebe 811b 1f3d 317b 4c3d
00000310: 8403 093e 5755 6abc b721 9439 ea39 0fbe
00000320: 0ab2 c13d 4410 94bd f486 f13d 4ad2 673d
00000330: 4b43 403d 8133 2ebe 6f0f b4bd b70e 66bc
00000340: 4f7a e5bc 8bcc 783d 3094 173d 16cc bf3d
00000350: 2be3 c5bd e066 9fbd 2faf afbb 55ab 9d3d
00000360: 85cc 0abd 793d 03be 363c 48be 29ea 6cbe
00000370: 74e2 e3bd c698 aabc 4520 4bbe 381c f73c
00000380: 5448 e13d 90ba 983c 1036 7b3d ca02 d5bd
00000390: 9ef6 953d 105f 6fbd 0b4f c03d a84d 9cbd
000003a0: 1622 65bd 2224 c13d 44b9 55bd b763 833d
000003b0: ab63 c93d 9381 f93c 6728 c9bb a8e2 6ebd
000003c0: 4c20 1e3d 7f45 ecbd 0abe 8bbd 837a 27bd
000003d0: ac5a 6abd a232 c5bd 0f3b f33d b90e 40bb
000003e0: 8d8c ce3d 663c 7b3c 053d c13d ff38 e9bd
000003f0: 2152 1cbd 39b1 dc3d ec0f 013e 4315 5d3d

conv1.0.bias f4 [8]
0.13337721 0.0044534192 -0.034993343 0.12438162 0.07116774 0.10073642 -0.10867932 -0.011805091
00000000: 0994 083e fded 913b 2e55 0fbd cabb fe3d
00000010: 64c0 913d e54e ce3d 4393 debd 246a 41bc

conv1.1.weight f4 [8]
1.0063593 0.9835454 0.99925065 0.95492315 1.0068475 0.94704765 1.0208366 1.0547185
00000000: 62d0 803f a2c9 7b3f e4ce 7f3f d875 743f
00000010: 61e0 803f b771 723f c6aa 823f 0401 873f

conv1.1.bias f4 [8]
-0.002844214 -0.041518535 -0.03225797 -0.010393672 -0.003667949 0.07845135 -0.044236727 0.10468729
00000000: fe65 3abb 570f 2abd ef20 04bd 384a 2abc
00000010: f961 70bb 1aab a03d 9231 35bd 4a66 d63d

conv1.1.running_mean f4 [8]
0.19911245 -0.028172215 -0.10187376 0.05785531 0.17108089 0.0784268 -0.11481327 -0.011228856
00000000: 22e4 4b3e 6bc9 e6bc 31a3 d0bd b1f9 6c3d
00000010: d42f 2f3e 3b9e a03d 3823 ebbd 3cf9 37bc

conv1.1.running_var f4 [8]
0.047328245 0.014163537 0.25154725 0.025485622 0.13283502 0.033384677 0.019980146 0.030196816
00000000: 43db 413d 2e0e 683c cdca 803e 39c7 d03c
00000010: e705 083e 5fbe 083d 67ad a33c 505f f73c

conv2.0.weight f4 [16, 8, 4, 4]
0.0667496 0.09540432 0.030087002 0.044549648 -0.080670744 0.07323607 -0.046436235 0.07106073
-0.07600867 0.06985605 0.051366165 0.018290484 -0.028577711 -0.101853155 -0.10213856 0.017575625
-0.01692738 0.10299466 0.07394872 -0.020476768 0.0549139 -0.06503156 0.023565793 -0.022845348
0.02939589 0.00815872 -0.05261735 0.021171631 0.038184088 0.02759283 -0.025386037 -0.08885748
-0.042574678 0.017317535 0.04115592 -0.03944252 -0.08744468 -0.01943685 -0.010461486 0.048564617
-0.038178433 -0.07042434 -0.012462495 -0.0257589 -0.10715786 -0.09307452 -0.076725185 -0.09586969
0.04022343 -0.02607758 0.027977793 0.015519609 0.01627517 0.026153672 -0.062335763 -0.048566736
0.0010182987 -0.03182572 0.009933406 -0.002581266 0.09009129 -0.018914295 0.0077189673 0.00041994575
0.059437025 -0.027561044 0.0033918144 0.04415326 0.04036818 0.0038780074 0.10106995 -0.009831325
0.0538879 -0.033903055 0.08288107 0.04910879 -0.07721233 -0.02360614 -0.05223396 -0.038302507
-0.08293785 -0.09796578 0.006394221 0.0015546728 -0.0065436983 -0.022030443 0.044053525 0.0076735937
0.0033397 0.06655646 0.047190778 0.069863535 -0.006773825 0.007166989 -0.06657729 0.011401433
0.06735062 0.0024544091 0.089665316 0.04796391 0.073773116 0.040492278 0.02610082 0.055667058
-0.015109769 0.02988591 -0.010206725 0.055828784 -0.0021774091 0.09409681 0.028067227 0.09485854
0.0030788493 0.014762889 -0.0320517 0.005467706 -0.0322713 -0.007336999 -0.029143 -0.022794977
0.07481675 0.020059565 0.049531408 0.04794948 0.05282972 -0.010710722 0.048065454 -0.032392547
0.025655221 0.005871639 -0.032051284 -0.06052918 -0.046315376 -0.07292157 -0.036954585 0.07550672
0.051037166 0.00065940834 -0.0077274614 0.07132702 -0.0538767 -0.006065534 0.09408282 -0.050631035
0.01993308 0.035824552 -0.053104945 -0.07217459 -0.092711076 -0.052671596 -0.085297234 -0.031781893
0.008838559 -0.051775515 0.05979068 0.02987151 0.0001370068 -0.030893607 0.08276189 0.11602228
-0.10404038 -0.030529138 0.065901294 -0.018305128 0.06325608 0.034478687 0.0442107 -0.05958105
0.01793474 -0.0110233575 -0.08420001 0.036947515 0.013727082 -0.053758603 0.021013357 0.06300782
-0.025314983 -0.035848428 0.09936541 -0.0073978454 -0.055360164 -0.043858226 -0.053079214 0.04664046
-0.02508768 -0.05871302 -0.08134155 0.01851587 -0.07124697 0.011414232 0.04017059 -0.007325462
-0.025535388 -0.06258482 -0.00437408 0.0036882581 -0.017545419 0.04287795 0.034284856 -0.05092156
-0.06077838 -0.06580915 -0.07821361 0.046261378 -0.0061030732 -0.023036169 0.09674334 -0.034754872
-0.029046364 -0.0377426 -0.07403431 -0.051534474 0.040067255 -0.0347486 -0.09156589 -0.117068365
0.019496538 -0.035038244 -0.02828381 -0.012147727 0.01350999 -0.067675926 -0.03686897 0.014662238
0.013476772 -0.0068804487 -0.031441875 0.06805483 0.048769146 -0.051807463 -0.04183043 0.021734172
-0.08218766 -0.013248849 -0.17715757 -0.060466025 0.0014555032 -0.07489484 -0.08402646 0.02623244
0.025986278 -0.05958017 0.0037619567 -0.014140327 -0.17071731 -0.1401944 -0.091183744 0.016794514
-0.025779285 -0.2097809 -0.122349955 -0.07352715 0.00066213094 -0.017255265 -0.07483884 0.024922162
00000000: 04b4 883d 5763 c33d 0479 f63c b179 363d
00000010: b436 a5bd cbfc 953d ec33 3ebd 4a88 913d
00000020: 6faa 9bbd b010 8f3d 5465 523d edd5 953c
00000030: ce1b eabc 6398 d0bd 052e d1bd c2fa 8f3c
00000040: 4aab 8abc ddee d23d 6d72 973d e5be a7bc
00000050: 66ed 603d 442f 85bd 0d0d c13c 2b26 bbbc
00000060: a6cf f03c 27ac 053c 4a85 57bd 2170 ad3c
00000070: eb66 1c3d 5c0a e23c 61f6 cfbc e9fa b5bd
00000080: c962 2ebd 81dd 8d3c 1c93 283d 7b8e 21bd
00000090: 3216 b3bd 073a 9fbc a766 2bbc b1eb 463d
000000a0: fd60 1cbd a33a 90bd 7e2f 4cbc 5404 d3bc
000000b0: 9575 dbbd db9d bebd 1822 9dbd 5457 c4bd
000000c0: 53c1 243d a6a0 d5bc af31 e53c f545 7e3c
000000d0: 8153 853c 3a40 d63c c953 7fbd eaed 46bd
000000e0: 6f78 853a b05b 02bd b9bf 223c 752a 29bb
000000f0: c881 b83d 27f2 9abc 64ef fc3b 2a2c dc39
00000100: 3d74 733d b3c7 e1bc 3449 5e3b 0cda 343d
00000110: 1b59 253d 2b26 7e3b c3fd ce3d 9113 21bc
00000120: 8fb9 5c3d eedd 0abd 8dbd a93d 4c26 493d
00000130: 8021 9ebd aa61 c1bc 47f3 55bd 17e3 1cbd
00000140: 52db a9bd 48a2 c8bd 9d86 d13b 2ac6 cb3a
00000150: 856c d6bb 3079 b4bc 7871 343d c572 fb3b
00000160: dede 5a3b c14e 883d 1e4b 413d 9d14 8f3d
00000170: f6f6 ddbb 10d9 ea3b ad59 88bd 13cd 3a3c
00000180: 1fef 893d 27da 203b 73a2 b73d ce75 443d
00000190: 5c16 973d 3bdb 253d 63d1 d53c 2403 643d
000001a0: f78e 77bc 4cd3 f43c 1c3a 27bc b9ac 643d
000001b0: ddb2 0ebb d4b5 c03d 3eed e53c 3245 c23d
000001c0: 85c6 493b 0be0 713c a548 03bd 712a b33b
000001d0: e92e 04bd 356b f0bb 4dbd eebc 88bc babc
000001e0: 8639 993d f553 a43c 72e1 4a3d ad66 443d
000001f0: fa63 583d 067c 2fbc 48e0 443d 0cae 04bd
00000200: e62a d23c e166 c03b 3548 03bd 72ed 77bd
00000210: 31b5 3dbd e757 95bd b15d 17bd 44a3 9a3d
00000220: 590c 513d 25dc 2c3a a536 fdbb e713 923d
00000230: d1ad 5cbd 63c1 c6bb 7eae c03d 7d62 4fbd
00000240: b34a a33c c4bc 123d 9284 59bd 45d0 93bd
00000250: 4edf bdbd 2cbe 57bd 51b0 aebd bb2d 02bd
00000260: 9acf 103c 9012 54bd 12e7 743d 19b5 f43c
00000270: 7ca9 0f39 9714 fdbc 117f a93d 179d ed3d
00000280: 1f13 d5bd 3e18 fabc 42f7 863d a3f4 95bc
00000290: 678c 813d 8639 0d3d 4716 353d 420b 74bd
000002a0: e0eb 923c 509b 34bc 0e71 acbd 4756 173d
000002b0: 8ee7 603c fb31 5cbd 3424 ac3c 3e0a 813d
000002c0: 5e61 cfbc cdd5 12bd 1880 cb3d a069 f2bb
000002d0: 57c1 62bd afa4 33bd 9769 59bd 110a 3f3d
000002e0: ae84 cdbc 107d 70bd 6696 a6bd 98ae 973c
000002f0: eee9 91bd c202 3b3c eb89 243d 6e0a f0bb
00000300: 972f d1bc 782c 80bd 7154 8fbb b4b6 713b
00000310: 69bb 8fbc caa0 2f3d 476e 0c3d 2093 50bd
00000320: c0f2 78bd f3c6 86bd 752e a0bd 927c 3d3d
00000330: 4afc c7bb 59b6 bcbc 5f21 c63d 205b 0ebd
00000340: a4f2 edbc fc97 1abd 4d9f 97bd d015 53bd
00000350: 901d 243d 8c54 0ebd e686 bbbd 8ac1 efbd
00000360: 34b7 9f3c 4384 0fbd 73b3 e7bc 4307 47bc
00000370: 0159 5d3c ad99 8abd eb03 17bd e239 703c
00000380: aecd 5c3c 6375 e1bb 32c9 00bd 5560 8b3d
00000390: 28c2 473d 1034 54bd 6356 2bbd dd0b b23c
000003a0: 0152 a8bd b311 59bc cb68 35be 39ab 77bd
000003b0: 95c6 be3a 7762 99bd 1116 acbd 6ae5 d63c
000003c0: 2de1 d43c 560a 74bd 298b 763b d5ac 67bc
000003d0: 85d0 2ebe 1f8f 0fbe 8bbe babd a694 893c
000003e0: 142f d3bc ced0 56be 9d92 fabd 6795 96bd
000003f0: db92 2d3a ea5a 8dbc 1b45 99bd 9029 cc3c

conv2.0.bias f4 [16]
-0.086975805 0.083100565 0.06647419 -0.012029267 -0.03514074 0.0069572264 -0.03598028 -0.058352496
-0.0204744 0.0420586 -0.05909255 -0.033107404 -0.043595888 -0.08464044 0.068792075 -0.07206499
00000000: 5f20 b2bd a130 aa3d 9f23 883d 6716 45bc
00000010: bdef 0fbd 72f9 e33b 0f60 13bd 0703 6fbd
00000020: eeb9 a7bc a345 2c3d 080b 72bd a19b 07bd
00000030: 9a91 32bd f857 adbd dce2 8c3d cf96 93bd

conv2.1.weight f4 [16]
0.97186583 1.0708218 0.9807525 0.98278445 0.990545 0.9825788 1.0010928 1.0192289
0.96029925 1.0018299 1.0083894 1.0094892 1.0778377 0.9936762 1.0021552 0.9971827
00000000: 33cc 783f b010 893f 9912 7b3f c397 7b3f
00000010: 5b94 7d3f 498a 7b3f cf23 803f 1876 823f
00000020: 2cd6 753f f63b 803f e712 813f f136 813f
00000030: 96f6 893f 9061 7e3f 9f46 803f 5e47 7f3f

conv2.1.bias f4 [16]
-0.005770097 -0.007017822 0.0084915655 -0.082687244 -0.0122487955 -0.04186284 -0.035189677 -0.044337854
-0.027343975 0.021278001 0.011605613 -0.01065075 -0.043437477 0.021726945 0.020793235 -0.0046293885
00000000: 1513 bdbb c2f5 e5bb 3520 0b3c ee57 a9bd
00000010: 2caf 48bc 5f78 2bbd 0d23 10bd 9c9b 35bd
00000020: 7900 e0bc 344f ae3c 7825 3e3c 7c80 2ebc
00000030: 7feb 31bd b5fc b13c 9356 aa3c 20b2 97bb

conv2.1.running_mean f4 [16]
0.06419502 -0.81464875 -0.17077196 1.0542055 -0.21517457 -0.23228729 -0.0013969201 0.034456313
-0.14374758 -0.69196784 -0.026590167 0.5065484 -0.051266253 -0.47691 0.055888887 0.14852472
00000000: ae78 833d d28c 50bf d8de 2ebe 35f0 863f
00000010: b956 5cbe b8dc 6dbe dc18 b7ba 1022 0d3d
00000020: 9132 13be ce24 31bf 9fd3 d9bc 28ad 013f
00000030: 90fc 51bd 8c2d f4be bfeb 643d dd16 183e

conv2.1.running_var f4 [16]
0.2807386 0.35324872 0.4971969 0.33935454 0.21499065 0.12469986 0.07600856 0.17381215
0.4824299 0.4238184 0.15687938 0.2170295 0.39714456 0.2464664 0.22019698 0.26377153
00000000: f8bc 8f3e 04dd b43e 9890 fe3e e1bf ad3e
00000010: 8226 5c3e a462 ff3d 60aa 9b3d d0fb 313e
00000020: 0d01 f73e bafe d83e fda4 203e fb3c 5e3e
00000030: 8856 cb3e b061 7c3e 517b 613e 100d 873e

conv3.0.weight f4 [32, 16, 4, 4]
0.021726895 -0.005028488 -0.054696437 -0.06527912 -0.051189948 -0.0015943699 0.0014477725 -0.016793488
-0.041352954 -0.015957693 -0.002880909 -0.046392582 -0.037627596 0.028713217 0.026562244 0.01179384
-0.08331878 -0.03577355 -0.012009553 -0.0038917102 -0.02336282 -0.03015927 0.034469664 -0.03915247
-0.042808983 -0.06775105 -0.018949881 0.0003650629 -0.033461303 0.0074205347 -0.03960773 -0.061970495
0.052374918 -0.0039933883 -0.0019053707 0.029166067 0.018833742 -0.012727936 0.008437653 0.05805584
0.011223461 0.045902833 0.013584116 -0.0063350443 0.010802791 0.020165056 0.021145534 0.0120597165
-0.0016899257 -0.0095122885 -0.030281471 -0.06793293 -0.011120792 0.05592307 -0.026807554 -0.038047552
0.023919672 -0.02709536 -0.03855068 -0.05380915 0.042828094 -0.028514935 0.047586855 -0.06104793
0.046623763 0.0142160375 0.032184523 0.025148163 0.0024325817 0.0080706 0.03587816 -0.016395982
-0.0090329 -0.023624122 -0.015370883 0.024565225 -0.048687197 0.058812596 -0.00893976 -0.011875616
-0.0050887857 0.032222465 0.008077955 -0.026937228 -0.030432189 0.028133566 0.0045985067 -0.00053767365
0.056736644 -0.028167574 0.010593831 0.022426283 -0.013801278 -0.05294023 -0.011893771 -0.034866143
0.0760704 0.032633293 0.00941548 0.0070281173 0.03650855 -0.002925572 -0.030998314 -0.01845484
0.02305059 -0.06653222 -0.06424951 -0.01959329 0.048697617 -0.026262904 -0.04075385 0.019168967
0.008317435 0.04630044 -0.053978194 -0.06269008 0.0673332 -0.002362694 -0.04878734 -0.037650976
-0.069012895 0.009908703 -0.0766256 -0.11971641 -0.011544738 0.06900605 -0.0047833575 -0.04717315
-0.009739047 -0.05184248 -0.025967322 -0.04514487 -0.008785611 0.04313652 -0.015378206 -0.028138857
-0.044983875 -0.016653823 0.00022517354 -0.05033571 -0.035872012 0.027838178 0.009646964 -0.07548049
-0.014267295 0.03229332 0.040498596 -0.046927787 -0.0051780683 -0.05223943 -0.0010044001 -0.03839445
-0.052593566 -0.046336856 -0.0120633375 0.068309315 0.018063622 0.028470712 -0.04590528 -0.06932162
0.04297852 0.07896861 0.0077829077 0.036160693 -0.023304109 0.004214222 -0.008028031 0.009397171
0.06845458 0.046855185 0.04377142 -0.027624492 0.04242546 -0.0386773 0.015917312 0.026930545
0.017163007 0.04164391 -0.0010126305 -0.07253299 -0.008849959 0.015857013 -0.08531427 -0.055567127
0.06906013 0.030011928 0.04531778 0.0066002407 0.055273023 -0.04349044 -0.0571164 0.005597755
-0.03588713 0.008125164 0.042398185 -0.07194727 0.02685594 -0.013508883 -0.04670447 -0.0849156
-0.016268745 -0.09040052 -0.039904185 -0.123969555 -0.05605935 0.04132269 -0.06439851 -0.05390014
0.052127052 0.013505037 0.03454245 -0.024433019 0.019566745 0.005012712 -0.0031867092 -0.025603218
0.034073185 0.034116242 0.03616167 -0.009114525 -0.016696032 -0.07720567 0.03128524 -0.010568038
0.06938355 0.052417737 -0.03951158 -0.034570526 0.017052956 -0.050078463 -0.038939048 0.022745628
0.0038327803 0.038691256 0.053040292 -0.045661155 -0.038725834 0.041674584 -0.07517829 -0.012416783
-0.00800205 0.004713747 0.018101681 0.0015771682 0.06416708 -0.028327579 0.040475566 0.044725034
0.040839728 0.045942284 -0.07703891 -0.0851651 -0.03172123 -0.005457335 -0.056190055 -0.04599824
00000000: 9afc b13c 04c6 a4bb 5f09 60bd 0fb1 85bd
00000010: 8dac 51bd 2dfa d0ba 2fc3 bd3a 7f92 89bc
00000020: b761 29bd b5b9 82bc a2cd 3cbb 2606 3ebd
00000030: 651f 1abd fb37 eb3c 1099 d93c f33a 413c
00000040: 09a3 aabd 4987 12bd b7c3 44bc 100c 7fbb
00000050: 6263 bfbc 9310 f7bc 1030 0d3d 575e 20bd
00000060: 7958 2fbd 10c1 8abd c83c 9bbc ea65 bf39
00000070: b80e 09bd f527 f33b b73b 22bd c6d4 7dbd
00000080: 1587 563d f8da 82bb a2bd f9ba aded ee3c
00000090: 3849 9a3c d588 50bc 153e 0a3c f6cb 6d3d
000000a0: 9be2 373c 9c04 3c3d e98f 5e3c 3496 cfbb
000000b0: 31fe 303c 3031 a53c 6639 ad3c 1e96 453c
000000c0: 7f80 ddba 6ed9 1bbc d910 f8bc 6c20 8bbd
000000d0: fb33 36bc 970f 653d 849b dbbc c0d7 1bbd
000000e0: 30f3 c33c 17f7 ddbc 51e7 1dbd fc66 5cbd
000000f0: 836c 2f3d 2798 e9bc 6fea 423d 650d 7abd
00000100: 8ff8 3e3d 62ea 683c ebd3 033d 8503 ce3c
00000110: f36b 1f3b 8d3a 043c faf4 123d de50 86bc
00000120: bbfe 13bc 6087 c1bc 28d6 7bbc 033d c93c
00000130: 3a6c 47bd 7ae5 703d 1278 12bc f291 42bc
00000140: d4bf a6bb b4fb 033d 6659 043c 76ab dcbc
00000150: ed4c f9bc 5d78 e63c 12af 963b abf2 0cba
00000160: af64 683d afbf e6bc bf91 2d3c 53b7 b73c
00000170: c11e 62bc dbd7 58bd 17de 42bc cdcf 0ebd
00000180: ccca 9b3d 7daa 053d 6343 1a3c 1f4c e63b
00000190: fd89 153d f4ba 3fbb 2df0 fdbc 9b2e 97bc
000001a0: 97d4 bc3c 0b42 88bd 3f95 83bd 1b82 a0bc
000001b0: 2777 473d 4d25 d7bc 82ed 26bd 3d08 9d3c
000001c0: da45 083c 88a5 3d3d 3d18 5dbd a863 80bd
000001d0: fde5 893d 6dd7 1abb 3cd5 47bd e937 1abd
000001e0: a256 8dbd 1d58 223c e2ed 9cbd e12d f5bd
000001f0: 2426 3dbc 0b53 8d3d b6bd 9cbb a238 41bd
00000200: 8690 1fbc c858 54bd 6cb9 d4bc d4e9 38bd
00000210: 86f1 0fbc ebaf 303d dff4 7bbc 7683 e6bc
00000220: 0341 38bd 996d 88bc 901c 6c39 d12c 4ebd
00000230: 88ee 12bd e40c e43c 4d0e 1e3c 8495 9abd
00000240: 5fc1 69bc 0046 043d dbe1 253d 5a37 40bd
00000250: c9ac a9bb 03f9 55bd 13a6 83ba 8043 1dbd
00000260: 5a6c 57bd b7cb 3dbd 4ea5 45bc c1e5 8b3d
00000270: 29fa 933c 693b e93c 2d07 3cbd 7ef8 8dbd
00000280: 3f0a 303d 4bba a13d c307 ff3b 3c1d 143d
00000290: 42e8 bebc 7517 8a3b 0188 03bc 98f6 193c
000002a0: ea31 8c3d 39eb 3f3d a949 333d c24c e2bc
000002b0: 52c6 2d3d 176c 1ebd 0665 823c 729d dc3c
000002c0: 6f99 8c3c ce92 2a3d 3eba 84ba 2d8c 94bd
000002d0: 6bff 10bc 91e6 813c 3fb9 aebd 5b9a 63bd
000002e0: 666f 8d3d 93db f53c 239f 393d d546 d83b
000002f0: f765 623d 0823 32bd e3f2 69bd 5f6d b73b
00000300: 62fe 12bd 681f 053c b8a9 2d3d 1759 93bd
00000310: fd00 dc3c 5d54 5dbc 304d 3fbd 3be8 adbd
00000320: 0846 85bc e823 b9bd 9272 23bd c0e3 fdbd
00000330: 7d9e 65bd fb41 293d 5ee3 83bd 65c6 5cbd
00000340: 2d83 553d 3b44 5d3c 627c 0d3d c127 c8bc
00000350: 704a a03c ad41 a43b 1cd8 50bb d7bd d1bc
00000360: 5390 0b3d 79bd 0b3d 421e 143d 1755 15bc
00000370: 1ec6 88bc 021e 9ebd f424 003d 9025 2dbc
00000380: f618 8e3d fbb3 563d e5d6 21bd d399 0dbd
00000390: a4b2 8b3c 131f 4dbd 8d7e 1fbd 0a55 ba3c
000003a0: 622f 7b3b b97a 1e3d c740 593d 3107 3bbd
000003b0: fb9e 1ebd f8b2 2a3d 13f7 99bd c36f 4bbc
000003c0: 081b 03bc c775 9a3b fa49 943c fcb8 ce3a
000003d0: 086a 833d 3d0f e8bc b5c9 253d 9931 373d
000003e0: 8f47 273d fa2d 3c3d 93c6 9dbd 0a6b aebd
000003f0: 1fee 01bd 72d3 b2bb 8b27 66bd a768 3cbd

conv3.0.bias f4 [32]
0.014425346 0.057895094 0.014122316 -0.0590677 0.0041082595 -0.05512052 -0.023652093 0.061037656
0.034486968 0.02082622 -0.014898733 0.031058261 0.031218814 -0.007259417 -0.06155315 0.0104775
-0.031735286 0.018393597 0.04715212 0.025634749 0.046179168 0.050814748 0.011200881 0.046839878
0.011696442 -0.0406442 -0.011644546 -0.012937819 -0.06228553 -0.050700538 -0.0537827 0.05976462
00000000: 4958 6c3c 6823 6d3d 4961 673c f9f0 71bd
00000010: 949e 863b 0ec6 61bd 09c2 c1bc 9f02 7a3d
00000020: 3542 0d3d c09b aa3c d119 74bc e56d fe3c
00000030: 99be ff3c 67e0 edbb 281f 7cbd d2a9 2b3c
00000040: dcfc 01bd 2bae 963c 9522 413d f7ff d13c
00000050: 5e26 3d3d 2023 503d e683 373c 2cdb 3f3d
00000060: 6fa2 3f3c 887a 26bd c4c8 3ebc 25f9 53bc
00000070: 1d1f 7fbd 5eab 4fbd 404b 5cbd bfcb 743d

conv3.1.weight f4 [32]
0.9873541 0.9909112 1.0035628 1.0409237 0.9773816 0.99127877 0.9865468 0.98435795
0.9746253 1.0072124 0.9882133 0.9890212 1.0382092 0.97358036 1.0091577 1.0173274
1.0084696 1.0120287 0.99842876 0.99963 0.9827261 1.0495932 1.0000836 1.0034794
0.9756504 0.9747583 1.0441278 1.0119959 0.9894544 1.0383861 1.064874 1.0079535
00000000: 3dc3 7c3f 5bac 7d3f bf74 803f fd3c 853f
00000010: ae35 7a3f 72c4 7d3f 558e 7c3f e2fe 7b3f
00000020: 0b81 793f 56ec 803f 8cfb 7c3f 7e30 7d3f
00000030: 0ae4 843f 903c 793f 142c 813f c937 823f
00000040: 8815 813f 288a 813f 0799 7f3f c0e7 7f3f
00000050: f093 7b3f 1259 863f bd02 803f 0372 803f
00000060: 3ac4 793f c389 793f fba5 853f 1589 813f
00000070: e24c 7d3f d6e9 843f cb4d 883f 9f04 813f

conv3.1.bias f4 [32]
-0.072030656 -0.0095507465 -0.021346634 -0.17312272 -0.028129479 -0.010522147 0.021507354 -0.00061341556
0.026381439 -0.020787796 -0.0040468248 0.053742543 0.08019595 -0.028858209 -0.0201604 -0.04550633
0.012839319 -0.014260463 -0.005181492 -0.057555534 -0.016150467 -0.03286629 0.007281348 -0.013948468
-0.0076977815 -0.015367291 -0.014606603 0.00900631 -0.046800192 -0.039828535 -0.06308265 0.0015979433
00000000: cf84 93bd bc7a 1cbc 23df aebc 1547 31be
00000010: cb6f e6bc 1565 2cbc 3130 b03c 9fcd 20ba
00000020: e31d d83c 2b4b aabc 3a9b 84bb 2421 5c3d
00000030: c63d a43d 0d68 ecbc 6c27 a5bc d864 3abd
00000040: 025c 523c b8a4 69bc 81c9 a9bb 5abf 6bbd
00000050: fc4d 84bc ce9e 06bd 6098 ee3b 1d88 64bc
00000060: ac3d fcbb 17c7 7bbc 8950 6fbc 348f 133c
00000070: 8fb1 3fbd 3f23 23bd 7a31 81bd 1472 d13a

conv3.1.running_mean f4 [32]
-0.55782515 -0.6112934 -0.16913427 -0.07750943 -0.384018 0.27481467 -0.1030764 0.04673938
-0.0633569 -0.28245845 -0.2523122 -0.60690373 -0.47825494 -0.87708914 -0.39252818 -0.31965724
-0.4178164 -0.15781441 0.05745678 0.12469084 -0.5767672 0.008498377 -0.26661012 -0.24387449
0.16582623 -0.37916696 -0.30311382 -0.51241297 -0.10533151 0.16219993 -0.52190566 -0.40566087
00000000: a1cd 0ebf b97d 1cbf 8931 2dbe 44bd 9ebd
00000010: 029e c4be 82b4 8c3e b819 d3bd cb71 3f3d
00000020: 43c1 81bd 659e 90be 112f 81be 0b5e 1bbf
00000030: d5dd f4be ea88 60bf 74f9 c8be 1daa a3be
00000040: 08ec d5be 1a9a 21be cd57 6b3d e95d ff3d
00000050: 04a7 13bf c73c 0b3c 1f81 88be 3cba 79be
00000060: 5ace 293e 2c22 c2be bc31 9bbe 7f2d 03bf
00000070: 0cb8 d7bd bd17 263e 9c9b 05bf c8b2 cfbe

conv3.1.running_var f4 [32]
0.2015053 0.27990222 0.12933034 0.19497448 0.22936545 0.20725647 0.40803578 0.24523474
0.10834335 0.30981013 0.20172052 0.29374254 0.37768027 0.16122378 0.1871665 0.14291488
0.18032545 0.18869449 0.16522186 0.11879522 0.18787064 0.12924607 0.2548545 0.2335395
0.17907044 0.17724851 0.1243322 0.390807 0.22049868 0.15859333 0.13995379 0.22793049
00000000: 6857 4e3e 584f 8f3e 2c6f 043e 64a7 473e
00000010: c7de 6a3e 0a3b 543e 11ea d03e d11e 7b3e
00000020: 1ee3 dd3d 6f9f 9e3e d38f 4e3e 6c65 963e
00000030: 4f5f c13e d917 253e 93a8 3f3e 4758 123e
00000040: 3ca7 383e 2139 413e eb2f 293e e94a f33d
00000050: 2961 403e 1559 043e 4a7c 823e fb24 6f3e
00000060: 3e5e 373e a280 353e e1a1 fe3d db17 c83e
00000070: 68ca 613e 4a66 223e 0c50 0f3e 9c66 693e

deconv2.0.weight f4 [32, 16, 4, 4]
-0.080597624 0.014175952 -0.017561117 0.012205292 -0.043516163 0.014583697 -0.024645116 -4.4935256e-05
-0.050632168 0.0036931466 -0.03794739 -0.06398567 -0.038356904 0.039463867 -0.056686617 0.031410143
0.014498178 -0.01451318 0.021690398 -0.0884961 -0.02622555 0.025772197 0.111603305 0.012656124
0.025226938 -0.024881294 0.03900731 0.012452668 -0.06233208 0.05779037 0.042212795 0.0072986237
0.051495075 0.0015276395 0.047495212 0.0022586538 0.027647713 0.045591228 0.00084611383 0.022474065
0.040897623 0.029031597 -0.0012113956 0.019608868 0.01258929 -0.055411037 0.0040787444 0.0045101936
-0.02534419 0.034580458 -0.031844698 0.037446003 -0.0715433 -0.096239604 0.10749445 -0.033467293
-0.083650574 0.018120794 -0.07178653 -0.001832752 -0.0142942555 -0.12079285 0.07445192 -0.1202619
0.012466446 0.05359336 -0.008417822 0.0016639858 -0.033734918 -0.07231258 -0.033091832 -0.0182077
0.0036810287 0.034918513 -0.0119364485 0.024821829 0.059474137 0.0415342 0.009171101 0.023208713
-0.025653731 0.020123955 -0.040613562 -0.06655958 0.056107465 0.03395474 0.04469056 -0.0012696895
0.0054017184 -0.009307873 -0.0649318 -0.08482344 -0.019442547 0.01419959 0.025337158 0.0074415505
-0.012418571 -0.04186991 -0.07718682 0.014328411 0.053211723 -0.07500809 0.008960258 -0.019660788
-0.023880618 -0.023628673 -0.0023914785 0.008605717 0.023634702 0.04392893 0.0364275 -0.014019513
-0.07885202 0.021903884 0.0015912129 0.012398725 -0.017938918 0.016831446 0.009757712 0.008233056
-0.06939731 0.006379001 0.0495881 0.016829649 -0.02511362 0.03240739 -0.028861498 0.009066699
0.0083363615 -0.007857589 -0.012016536 -0.008797696 -0.04996617 -0.043902043 0.0037383784 -0.037429396
0.032897417 -0.03465552 0.028496137 -0.051279187 -0.020185819 0.048149884 0.019443445 -0.0496059
-0.0054689115 -0.018696371 0.015129035 -0.044532128 0.047827728 -0.017631697 -0.12406854 0.011077958
0.058562044 -0.021958672 0.04422301 -0.09787898 0.06335516 -0.012189692 -0.12804547 -0.011746583
-0.04799751 -0.085802145 -0.052184172 -0.08327331 0.027868861 -0.018680746 -0.03755312 -0.023959845
-0.035181634 -0.09775725 -0.007011115 -0.038855866 0.03661268 -0.006867706 0.0148408115 0.0053454074
-0.060076624 -0.029500246 -0.060891446 -0.06892041 -0.002700226 -0.053042572 0.016446788 -0.099940866
-0.07667865 -0.060357127 -0.05619942 -0.027808297 -0.03933577 -0.039656032 0.011794402 -0.025277147
-0.010408567 0.019823017 -0.058189698 0.03255417 -0.059255403 -0.0048291064 -0.0089000985 -0.038731743
-0.0056435927 0.061370183 -0.05977657 0.038439386 -0.0056619407 -0.015973309 0.008710622 -0.003247047
0.0017482779 -0.011888787 -0.062356554 -0.008505833 0.07207969 0.046868593 -0.020327564 0.024336677
0.016358886 -0.015113924 -0.0604644 0.0076905643 0.07656818 0.0072042802 0.037913527 0.032872427
-0.068105526 -0.0033125046 -0.016829481 -0.04033813 0.009090111 -0.019973997 0.017154442 -0.003150671
-0.044048745 -0.05367365 -0.055431113 -0.0844095 0.00271592 -0.042249758 -0.0062608593 -0.029808277
-0.03233847 -0.06197863 0.0056833206 0.020559944 -0.018869333 -0.022435658 -0.10240588 0.028983276
-0.035170607 -0.047595784 0.015220149 -0.07084849 0.09075096 -0.02394393 -0.06393263 0.0081206495
00000000: 5e10 a5bd 4142 683c 55dc 8fbc b4f8 473c
00000010: 013e 32bd 75f0 6e3c 8ee4 c9bc dd78 3cb8
00000020: ad63 4fbd b808 723b b96e 1bbd eb0a 83bd
00000030: 211c 1dbd dda4 213d 3a30 68bd eca7 003d
00000040: c489 6d3c b0c8 6dbc 10b0 b13c 713d b5bd
00000050: f7d6 d6bc 3720 d33c 4690 e43d a25b 4f3c
00000060: b9a8 ce3c dbd3 cbbc 21c6 1f3d 4606 4c3c
00000070: ec4f 7fbd 98b5 6c3d 53e7 2c3d 4b29 ef3b
00000080: 80ec 523d 133b c83a 578a 423d ec05 143b
00000090: 757d e23c debd 3a3d bdcd 5d3a 881b b83c
000000a0: 4484 273d acd3 ed3c b1c7 9eba c7a2 a03c
000000b0: 4f43 4e3c aff6 62bd fda6 853b 3fca 933b
000000c0: 9e9e cfbc 3da4 0d3d 966f 02bd fb60 193d
000000d0: 4b85 92bd 4519 c5bd 0d26 dc3d 0015 09bd
000000e0: fe50 abbd 0f72 943c d104 93bd f438 f0ba
000000f0: 7432 6abc 3e62 f7bd 407a 983d df4b f6bd
00000100: 1040 4c3c b684 5b3d e8ea 09bc 191a da3a
00000110: a02d 0abd 9e18 94bd 4d8b 07bd 5128 95bc
00000120: 6a3d 713b b706 0f3d 1891 43bc 2657 cb3c
00000130: 279b 733d c41f 2a3d 6342 163c 3320 be3c
00000140: c627 d2bc feda a43c 685a 26bd 6450 88bd
00000150: f1d0 653d 2014 0b3d 730d 373d b66b a6ba
00000160: e600 b13b 0d80 18bc f7fa 84bd e9b7 adbd
00000170: fa45 9fbc 66a5 683c df8f cf3c 40d8 f33b
00000180: 4377 4bbc c87f 2bbd 2014 9ebd b6c1 6a3c
00000190: 89f4 593d d79d 99bd 0cce 123c a90f a1bc
000001a0: 49a1 c3bc eb90 c1bc 5aba 1cbb fefe 0c3c
000001b0: 909d c13c d2ee 333d 0135 153d 19b2 65bc
000001c0: 2b7d a1bd c66f b33c 3f90 d03a 0624 4b3c
000001d0: a3f4 92bc 1ae2 893c cfde 1f3c f1e3 063c
000001e0: 2d20 8ebd f006 d13b e41c 4b3d 55de 893c
000001f0: 14bb cdbc 9dbd 043d f36e ecbc 7e8c 143c
00000200: 3c95 083c 1ebd 00bc 01e1 44bc 3624 10bc
00000210: 54a9 4cbd a1d2 33bd 95ff 743b 914f 19bd
00000220: 71bf 063d f2f2 0dbd bb70 e93c 200a 52bd
00000230: bb5c a5bc d038 453d dc47 9f3c 8e2f 4bbd
00000240: 8e34 b3bb 2229 99bc c6df 773c 5267 36bd
00000250: 02e7 433d 5970 90bc a617 febd 5380 353c
00000260: c1de 6f3d ace2 b3bc 3023 353d c674 c8bd
00000270: 5ac0 813d 46b7 47bc 5a1e 03be bd74 40bc
00000280: 0999 44bd 09b9 afbd 12bf 55bd 328b aabd
00000290: 3d4d e43c 5d08 99bc 4dd1 19bd 7047 c4bc
000002a0: 9e1a 10bd f434 c8bd 7fbd e5bb 5427 1fbd
000002b0: 2df7 153d 7e0a e1bb e026 733c 8728 af3b
000002c0: e812 76bd 80aa f1bc 4f69 79bd 2526 8dbd
000002d0: 46f6 30bb 2b43 59bd 6abb 863c ccad ccbd
000002e0: b209 9dbd 0939 77bd 5d31 66bd 3ace e3bc
000002f0: 8b1e 21bd 5d6e 22bd 4f3d 413c 0512 cfbc
00000300: b288 2abc e163 a23c 5258 6ebd 8557 053d
00000310: cbb5 72bd 7b3d 9ebb b8d1 11bc 2da5 1ebd
00000320: e3ed b8bb 4d5f 7b3d 47d8 74bd 9e72 1d3d
00000330: cd87 b9bb 75da 82bc ffb6 0e3c 69cc 54bb
00000340: 7926 e53a 30c9 42bc 9669 7fbd 0d5c 0bbc
00000350: 849e 933d 48f9 3f3d fe85 a6bc b65d c73c
00000360: 1203 863c 64a0 77bc 85a9 77bd 2101 fc3b
00000370: c7cf 9c3d e211 ec3b 374b 1b3d 3da5 063d
00000380: e97a 8bbd 9b16 59bb fbdd 89bc 9839 25bd
00000390: b0ee 143c 82a0 a3bc 7987 8c3c 7d7b 4ebb
000003a0: 756c 34bd e7d8 5bbd bc0b 63bd e3de acbd
000003b0: 94fd 313b 150e 2dbd e527 cdbb 7d30 f4bc
000003c0: 5875 04bd 4edd 7dbd 263b ba3b 546d a83c
000003d0: dc93 9abc fcca b7bc 2dba d1bd 566e ed3c
000003e0: 0e0f 10bd ccf3 42bd ef5d 793c 0319 91bd
000003f0: a4db b93d 1026 c4bc 1cef 82bd 790c 053c

deconv2.0.bias f4 [16]
0.029521566 -0.060233757 0.030101676 0.026622673 0.038657244 -0.056255553 0.048504207 -0.016368454
-0.060532805 0.051694043 0.027379341 -0.055329327 0.025603551 -0.014357038 0.014950143 0.016242694
00000000: 36d7 f13c acb7 76bd ca97 f63c cb17 da3c
00000010: 0f57 1e3d 396c 66bd 59ac 463d 2317 86bc
00000020: 3ff1 77bd 22bd 533d a44a e03c 01a1 62bd
00000030: 8abe d13c c839 6bbc 72f1 743c 660f 853c

deconv2.1.weight f4 [16]
0.948237 1.0095727 1.0019635 0.97192365 0.9868038 0.94617146 0.9459523 0.94224626
0.964846 1.0258979 0.96134645 1.1147223 0.9852897 0.9535088 1.04613 0.9982639
00000000: a9bf 723f ae39 813f 5740 803f fdcf 783f
00000010: 2d9f 7c3f 4b38 723f ee29 723f 0d37 713f
00000020: 2600 773f 9f50 833f cd1a 763f 38af 8e3f
00000030: f23b 7c3f 2719 743f 96e7 853f 398e 7f3f

deconv2.1.bias f4 [16]
0.008876554 0.08764054 0.053437848 0.012406978 0.016454617 0.014748192 0.027427861 -0.043860823
-0.013028574 0.13625833 0.03131276 -0.05337721 -0.03659602 0.024691185 0.04134311 0.016177911
00000000: f76e 113c e27c b33d a5e1 5a3d a346 4b3c
00000010: d5cb 863c 67a2 713c 65b0 e03c 68a7 33bd
00000020: cd75 55bc 4e87 0b3e cf41 003d 10a2 5abd
00000030: b5e5 15bd 2b45 ca3c 6557 293d 8a87 843c

deconv2.1.running_mean f4 [16]
-0.7356429 -0.5755969 -0.29270196 -0.60917217 -0.24593686 -0.84362775 -0.5341805 -0.40093145
-0.71971 -0.8466774 -0.9417265 -0.7668516 -0.019976217 -0.22617865 -0.7969986 -0.9157966
00000000: 1853 3cbf 525a 13bf 08dd 95be b5f2 1bbf
00000010: dfd6 7bbe fdf7 57bf 0ec0 08bf e346 cdbe
00000020: ea3e 38bf dabf 58bf fd14 71bf 6350 44bf
00000030: 2aa5 a3bc 609b 67be 1a08 4cbf a571 6abf

deconv2.1.running_var f4 [16]
0.8194257 0.866091 0.9101151 0.70275337 0.50731957 1.468261 1.3334824 0.7344405
0.5540882 2.2225063 1.8679787 0.1184722 0.3122782 1.1409676 0.5254187 0.80397135
00000000: e2c5 513f 24b8 5d3f 4efd 683f a5e7 333f
00000010: b2df 013f faef bb3f 8daf aa3f 4b04 3c3f
00000020: b9d8 0d3f 8b3d 0e40 ed19 ef3f 8ea1 f23d
00000030: eee2 9f3e 3a0b 923f d781 063f 11d1 4d3f

deconv3.0.weight f4 [16, 8, 4, 4]
-0.05584445 0.016587563 -0.010572184 -0.09174292 -0.08362243 -0.05282623 0.02189728 -0.017544307
-0.05616402 0.020896163 0.021311792 0.07382012 -0.06482963 -0.033641525 0.034981165 -0.0061115343
-0.0074559906 -0.029730009 0.022728337 0.08038378 0.035295006 0.025996609 0.056287784 0.022126472
-0.007323004 0.09384101 0.049271163 0.037740003 0.0013148591 0.06517521 0.061502255 -0.027575828
0.052729167 0.03233489 -0.03357243 0.06337133 0.048975065 0.12758628 0.016196974 0.027082842
0.020256814 0.07107321 -0.052748673 0.0669503 0.013881225 0.028219752 -0.00744879 -0.00994791
0.029864196 0.09689498 -0.06776222 -0.00021236262 0.007419347 -0.03371767 0.030502021 0.08200929
0.036434967 0.08194293 -0.021882962 0.07487724 0.03018276 0.028485209 0.01914229 0.020004913
0.031927943 0.052385252 -0.009817557 -0.05000617 0.034562077 0.012525519 0.018308483 -0.0654975
-0.01864743 0.038457453 -0.033776786 0.005560539 0.003734337 0.019192655 -0.011725008 0.047933336
0.018335277 -0.018769613 0.0007062186 -0.0031327142 0.0077545494 -0.008182414 0.015270155 0.06815341
-7.841303e-05 0.042627547 -0.039012995 -0.006157329 0.051490933 0.0073686657 0.027815243 0.01873991
-0.029541293 -0.078125186 -0.029171048 -0.061297458 0.042789612 -0.040253654 -0.004421685 -0.016928563
0.007662401 0.08141501 0.033150993 0.005883681 0.003382947 -0.034008775 -0.021306777 -0.047156643
0.04005009 0.07733533 0.032836843 0.03027826 0.02244302 0.09736795 -0.057915095 -0.028845614
0.04681322 -0.07430522 -0.025015747 -0.008540514 0.04655922 0.054853108 -0.030859888 0.037741903
-0.011696089 0.004915309 0.062527485 -0.08899427 -0.036182467 -0.03439691 0.13412324 0.04877089
0.018801292 0.009944468 0.029666694 -0.011408209 -0.00316947 -0.035582308 0.049237717 0.0049981573
0.048095655 -0.09254072 0.0030360029 -0.03257997 -0.030021822 -0.07801302 0.09642127 -0.046401903
0.016121285 -0.0052172523 0.0066648796 0.013465714 -0.0030493734 0.004330808 0.043902498 0.03125043
0.011361834 0.019563448 0.10626177 -0.002045573 -0.0029854667 0.0062430776 -0.013762337 0.055758044
-0.016052175 0.035072498 0.0012988779 -0.005737147 -0.018697469 -0.024045978 0.026745973 -0.05672173
-0.07703698 -0.030427815 0.05941947 -0.033909705 0.07821168 -0.047866635 -0.048970208 0.043268472
-0.05051988 0.031137962 0.102870815 0.013539228 0.05226355 0.0047306805 -0.05045734 0.043681778
0.04759921 -0.00038843494 0.023830576 0.05248135 0.079105064 0.05796836 -0.03111268 0.026582096
0.050247572 0.04085246 0.040700752 0.11123703 0.007941905 -0.032653708 0.044862833 0.014691118
0.022335805 -0.06062563 -0.03515718 0.061822426 -0.041455913 0.04521957 0.120720014 0.12991004
0.009251512 0.052950747 0.0026549306 0.11562911 0.09402338 0.03230854 0.08087937 0.120849274
-0.032673202 -0.086728446 -0.018394882 0.026117628 0.038313814 0.020535557 0.108246595 -0.0007917948
0.026502488 -0.0291948 0.019778254 0.021604145 -0.0023144933 0.002469621 0.108730495 0.035069495
0.02176765 0.046383303 -0.007850028 0.04867829 0.012798194 -0.019559108 -0.07643532 -0.082126
-0.048514344 -0.013823275 -0.04200647 -0.06725623 -0.016630063 -0.014215121 -0.09901274 -0.076592945
00000000: 26bd 64bd a4e2 873c f436 2dbc b6e3 bbbd
00000010: 3d42 abbd 5160 58bd ed61 b33c 14b9 8fbc
00000020: 3e0c 66bd 6e2e ab3c 1196 ae3c 012f 973d
00000030: 66c5 84bd b2cb 09bd 6948 0f3d 4443 c8bb
00000040: 6251 f4bb 598c f3bc c730 ba3c 40a0 a43d
00000050: 7f91 103d d7f6 d43c 058e 663d 9342 b53c
00000060: cff5 efbb b72f c03d 8fd0 493d 4395 1a3d
00000070: 5a57 ac3a 957a 853d cae9 7b3d b4e6 e1bc
00000080: 8afa 573d 9771 043d 3f83 09bd d4c8 813d
00000090: 149a 483d faa5 023e 84af 843c d6dc dd3c
000000a0: 9ef1 a53c d58e 913d fe0e 58bd 3d1d 893d
000000b0: 146e 633c 1c2d e73c fb14 f4bb 8ffc 22bc
000000c0: c2a5 f43c e070 c63d ebc6 8abd a8ad 5eb9
000000d0: fe1d f33b 8a1b 0abd 60df f93c 7df4 a73d
000000e0: d53c 153d b2d1 a73d e643 b3bc 3d59 993d
000000f0: d641 f73c d059 e93c 4bd0 9c3c 58e1 a33c
00000100: e0c6 023d eb91 563d d2d9 20bc 45d3 4cbd
00000110: f790 0d3d d637 4d3c acfb 953c 8e23 86bd
00000120: 7fc2 98bc 9085 1d3d 8759 0abd 2f35 b63b
00000130: c7bb 743b ea39 9d3c 3f1a 40bc bf55 443d
00000140: dd33 963c bbc2 99bc 8721 393a 394e 4dbb
00000150: e019 fe3b 880f 06bc ac2f 7a3c 0494 8b3d
00000160: ad71 a4b8 399a 2e3d 17cc 1fbd 6bc3 c9bb
00000170: 28e8 523d d974 f13b cbdc e33c 7184 993c
00000180: 9500 f2bc 1900 a0bd 1ff8 eebc 0b13 7bbd
00000190: 2944 2f3d 04e1 24bd c8e3 90bb c5ad 8abc
000001a0: e114 fb3b eabc a63d 56c9 073d e5cb c03b
000001b0: 6fb4 5d3b c94c 0bbd 8d8b aebc 5327 41bd
000001c0: 900b 243d fc61 9e3d ed7f 063d 1d0a f83c
000001d0: 6dda b73c d968 c73d 6138 6dbd a34d ecbc
000001e0: 38bf 3f3d 562d 98bd d3ed ccbc 83ed 0bbc
000001f0: e1b4 3e3d a7ad 603d e0cd fcbc 4197 1a3d
00000200: f4a0 3fbc 9a10 a13b 690e 803d a142 b6bd
00000210: 1134 14bd c6e3 0cbd 9a57 093e fcc3 473d
00000220: 2b05 9a3c 1fee 223c 9107 f33c 7fe9 3abc
00000230: e2b6 4fbb c1be 11bd 7dad 493d 95c7 a33b
00000240: f3ff 443d fd85 bdbd adf7 463b 9372 05bd
00000250: 53f0 f5bc 4ac5 9fbd 8478 c53d ec0f 3ebd
00000260: c910 843c 7cf5 aabb 1065 da3b 4c9f 5c3c
00000270: ffd7 47bb 73e9 8d3b 1bd3 333d 7300 003d
00000280: fc26 3a3c 8643 a03c c59f d93d 050f 06bb
00000290: d2a7 43bb bb92 cc3b 6d7b 61bc 8c62 643d
000002a0: da7f 83bc 2ea8 0f3d 1c3f aa3a adfe bbbb
000002b0: 6f2b 99bc 12fc c4bc 5f1a db3c 0b55 68bd
000002c0: 90c5 9dbd c143 f9bc d561 733d e7e4 0abd
000002d0: 722d a03d ce0f 44bd fc94 48bd 483a 313d
000002e0: efed 4ebd 0a15 ff3c efad d23d a3d3 5d3c
000002f0: 4e12 563d d303 9b3b 5bac 4ebd aaeb 323d
00000300: 64f7 423d dba6 cbb9 5738 c33c aff6 563d
00000310: d601 a23d 3b70 6d3d 05e0 febc b2c2 d93c
00000320: 66d0 4d3d e954 273d d5b5 263d 3dd0 e33d
00000330: c41e 023c e5bf 05bd 17c2 373d 04b3 703c
00000340: 94f9 b63c 9552 78bd fa00 10bd 8339 7d3d
00000350: adcd 29bd 2838 393d 0e3c f73d 2307 053e
00000360: a793 173c e2e2 583d 58fe 2d3b f4ce ec3d
00000370: 548f c03d f655 043d 15a4 a53d d37f f73d
00000380: 56d4 05bd af9e b1bd ddb0 96bc a3f4 d53c
00000390: f2ee 1c3d 2f3a a83c 64b0 dd3d 7390 4fba
000003a0: bf1b d93c ef29 efbc 0106 a23c 2dfb b03c
000003b0: c1ae 17bb 5dd9 213b 18ae de3d 08a5 0f3d
000003c0: 1252 b23c 6bfc 3d3d 679d 00bc e362 473d
000003d0: 84af 513c 6c3a a0bc 1f8a 9cbd ad31 a8bd
000003e0: fab6 46bd 057b 62bc fa0e 2cbd a2bd 89bd
000003f0: c53b 88bc 8ae6 68bc 31c7 cabd c3dc 9cbd

deconv3.0.bias f4 [8]
-0.070215896 0.07692442 -0.05337993 0.04790408 0.025220683 0.062260773 0.033057768 0.063421465
00000000: 5acd 8fbd 8d8a 9d3d eaa4 5abd 1237 443d
00000010: 9b9b ce3c 2705 7f3d 9567 073d 1de3 813d

deconv3.1.weight f4 [8]
1.2454418 1.2224455 1.2267369 1.2271188 1.2012517 1.2270485 1.2395409 1.1859049
00000000: a36a 9f3f 1879 9c3f b705 9d3f 3b12 9d3f
00000010: 9ec2 993f ed0f 9d3f 47a9 9e3f bbcb 973f

deconv3.1.bias f4 [8]
0.24275348 0.21587986 0.21998224 0.22239676 0.2027786 0.22042137 0.2353471 0.19189844
00000000: 5e94 783e 9c0f 5d3e 0643 613e fabb 633e
00000010: 31a5 4f3e 24b6 613e d5fe 703e 0681 443e

deconv3.1.running_mean f4 [8]
-0.19140041 -0.058528226 0.06801765 0.120295085 0.41071844 0.45251665 0.03440484 -0.13465695
00000000: 78fe 43be 4bbb 6fbd d64c 8b3d 455d f63d
00000010: b049 d23e 43b0 e73e 17ec 0c3d 83e3 09be

deconv3.1.running_var f4 [8]
0.07339691 0.05417998 0.08963813 0.06408435 0.047530904 0.059149425 0.071907446 0.06842508
00000000: 1f51 963d d4eb 5d3d 3294 b73d a83e 833d
00000010: c4af 423d ab46 723d 3644 933d 7322 8c3d

deconv4.0.weight f4 [8, 3, 4, 4]
-0.05308155 0.06651514 0.12410348 0.05966988 -0.04792031 0.07286592 0.08082194 0.01790303
0.0023465545 0.13353722 0.10123442 -0.063450426 -0.06823798 0.020086825 0.1845834 0.004001508
-0.26859775 -0.27862644 -0.21805622 -0.045893196 -0.09464187 -0.16367248 -0.26851442 -0.026287368
-0.11741242 -0.24161366 -0.13314408 -0.035215423 -0.08572226 -0.112179525 -0.2714939 -0.095328234
-0.073667645 -0.112303115 -0.15028545 -0.17977825 -0.14354776 -0.13931115 -0.27485153 -0.07036598
-0.252643 -0.14071912 -0.28336915 -0.16189477 -0.16870792 -0.23437108 -0.050243948 -0.20872399
0.17160839 -0.10932797 -0.041834928 -0.10386784 0.029022383 -0.013626094 0.11399077 0.058300357
-0.06722759 0.10206632 0.123380184 0.15411024 0.1904116 0.09409317 -0.016668325 -0.051663242
-0.17150268 -0.25777695 -0.033710096 -0.27713367 -0.041865 -0.076707266 -0.12479295 -0.18381022
-0.2696848 -0.22844815 -0.22754644 -0.124948435 -0.010187841 -0.18333371 -0.16418394 -0.15790118
-0.15249579 -0.113355175 -0.19321643 -0.16934301 -0.1196989 -0.19017933 -0.2765651 -0.26486388
-0.09639369 -0.086686894 -0.26886076 -0.1812243 -0.18839526 -0.21590757 -0.15591496 -0.07719141
0.0001782241 -0.00028835342 0.07730931 0.13012336 0.1845331 0.15214667 0.1889462 0.15871981
0.012935357 0.037448175 0.19370596 0.028824706 -0.02188519 0.067783594 0.11591192 -0.0002746913
-0.2871012 -0.17879257 -0.23364992 -0.099903904 -0.03657367 -0.11886937 -0.17929895 -0.16204086
-0.23875073 -0.27747712 -0.029230056 -0.11181073 -0.17071031 -0.19042404 -0.057266373 -0.29422796
-0.07494703 -0.24171032 -0.098964795 -0.095746435 -0.15173703 -0.10745836 -0.2629885 -0.27184266
-0.108924836 -0.07294022 -0.124287434 -0.123159595 -0.103310965 -0.0051173014 -0.08628274 -0.15586874
0.2023805 0.049719222 0.03891936 0.08848335 0.04744462 0.07434457 0.026744952 0.018047344
0.124329075 0.16035406 0.048933685 0.10420301 0.15003645 0.035702363 0.031182222 0.009880292
-0.19096692 -0.1864468 -0.2068223 -0.18565445 -0.0940848 -0.21076536 -0.049415734 -0.1336368
-0.18399586 -0.13435687 -0.0420574 -0.08154207 -0.27140334 -0.06763106 -0.15404129 -0.18018982
-0.26262403 -0.18720964 -0.26056027 -0.23734756 -0.1393291 -0.040155668 -0.18042633 -0.09242366
-0.13935903 -0.29033458 -0.017356068 -0.037794866 -0.25257227 -0.05293054 -0.086277895 -0.27023825
0.23700097 0.20929886 0.23536158 0.080019236 0.17590913 0.12773827 0.055189785 0.14567472
0.14732519 0.03707047 -0.0019532668 0.21781468 0.23938638 0.25844413 0.08162712 0.09695337
-0.22465047 -0.122851506 0.0024815514 -0.25443134 -0.23418987 -0.28175637 -0.08046325 -0.22852749
-0.20471929 -0.035440724 -0.11886355 -0.05729482 -0.060887672 -0.27415946 -0.22656304 -0.19184425
-0.10340029 -0.26053786 -0.19989887 -0.18323024 -0.05113007 -0.22648855 -0.11054742 -0.20973226
-0.26666355 -0.07635343 -0.025855841 -0.19606407 -0.0735924 -0.14095779 -0.09742811 -0.12710536
0.21674335 0.19916275 0.091749966 0.23937477 0.084561296 0.10975035 0.115481034 0.011756658
-0.0064186295 -0.0019998876 0.09390197 0.17519374 0.20418549 0.17633419 0.0018618519 0.032716103
00000000: 0a6c 59bd 1739 883d f729 fe3d 6768 743d
00000010: 1648 44bd ba3a 953d f985 a53d 60a9 923c
00000020: a7c8 193b fbbd 083e fe53 cf3d 4cf2 81bd
00000030: 5bc0 8bbd 208d a43c 6e03 3d3e 151f 833b
00000040: a585 89be 20a8 8ebe 214a 5fbe 81fa 3bbd
00000050: 99d3 c1bd c299 27be b97a 89be 9b58 d7bc
00000060: ec75 f0bd 9269 77be ec56 08be 0c3e 10bd
00000070: 278f afbd 61be e5bd 4001 8bbe 733b c3bd
00000080: 10df 96bd 2dff e5bd 6ee4 19be ca17 38be
00000090: 2ffe 12be 95a7 0ebe 57b9 8cbe 0a1c 90bd
000000a0: 6c5a 81be ac18 10be c315 91be bec7 25be
000000b0: c5c1 2cbe f9fe 6fbe 99cc 4dbd bebb 55be
000000c0: 1cba 2f3e 58e7 dfbd 1a5b 2bbd a9b8 d4bd
000000d0: 59c0 ed3c fb3f 5fbc fe73 e93d 5bcc 6e3d
000000e0: 9eae 89bd 2608 d13d c0ae fc3d 13cf 1d3e
000000f0: 42fb 423e ebb3 c03d 038c 88bc d69c 53bd
00000100: 669e 2fbe 57fb 83be 9913 0abd 77e4 8dbe
00000110: a27a 2bbd b318 9dbd 7293 ffbd bf38 3cbe
00000120: 2014 8abe 50ee 69be ef01 69be f7e4 ffbd
00000130: e7ea 26bc d5bb 3bbe d61f 28be d9b0 21be
00000140: db27 1cbe c226 e8bd 87da 45be 4168 2dbe
00000150: b224 f5bd 5fbe 42be f199 8dbe 3d9c 87be
00000160: 0e6a c5bd e688 b1bd 1ea8 89be dd92 39be
00000170: b0ea 40be e016 5dbe 2ca8 1fbe 8816 9ebd
00000180: abe1 3a39 242e 97b9 5854 9e3d 0f3f 053e
00000190: 3ff6 3c3e 56cc 1b3e 1d7b 413e 7287 223e
000001a0: d2ee 533c 4263 193d db5a 463e ca21 ec3c
000001b0: 9248 b3bc 20d2 8a3d 3b63 ed3d 7104 90b9
000001c0: eefe 92be 6615 37be ed41 6fbe 6b9a ccbd
000001d0: 46ce 15bd c971 f3bd 259a 37be 0aee 25be
000001e0: 127b 74be 7b11 8ebe df73 efbc 06fd e4bd
000001f0: afce 2ebe 85fe 42be 2590 6abd 0ca5 96be
00000200: d47d 99bd e982 77be 0eae cabd b516 c4bd
00000210: f460 1bbe 2113 dcbd 6ea6 86be f62e 8bbe
00000220: fc13 dfbd af61 95bd 698a febd 193b fcbd
00000230: b394 d3bd 09af a7bb 01b5 b0bd 0e9c 1fbe
00000240: d53c 4f3e 62a6 4b3d e869 1f3d c236 b53d
00000250: 4a55 423d f741 983d 3b18 db3c 06d8 933c
00000260: 3ea0 fe3d db33 243e b06e 483d 6368 d53d
00000270: 28a3 193e a43c 123d dc71 ff3c f3e0 213c
00000280: d58c 43be e9eb 3ebe 3ac9 53be 331c 3ebe
00000290: 88af c0bd e0d2 57be 2768 4abd 16d8 08be
000002a0: 6969 3cbe d994 09be 6144 2cbd 87ff a6bd
000002b0: 61f5 8abe 2782 8abd 00bd 1dbe ae83 38be
000002c0: a876 86be e2b3 3fbe 2868 85be 3d0b 73be
000002d0: 4aac 0ebe 457a 24bd aec1 38be 9e48 bdbd
000002e0: 22b4 0ebe bca6 94be 502e 8ebc cace 1abd
000002f0: 2751 81be b2cd 58bd 77b2 b0bd ab5c 8abe
00000300: 62b0 723e 7152 563e a002 713e 20e1 a33d
00000310: 8621 343e d2cd 023e af0e 623d c12b 153e
00000320: 6adc 163e 35d7 173d 6102 00bb d00a 5f3e
00000330: b421 753e ca52 843e 1f2c a73d 7d8f c63d
00000340: c60a 66be 9299 fbbd 86a1 223b d344 82be
00000350: 78cf 6fbe 5f42 90be ebc9 a4bd 1c03 6abe
00000360: efa1 51be 4b2a 11bd bc6e f3bd f9ad 6abd
00000370: 5a65 79bd a15e 8cbe 2400 68be d272 44be
00000380: 88c3 d3bd 3865 85be 4ab2 4cbe b5a0 3bbe
00000390: c46d 51bd 9dec 67be b066 e2bd 0ec4 56be
000003a0: 2088 88be 305f 9cbd a1cf d3bc 05c5 48be
000003b0: 9db7 96bd 3d57 10be 6488 c7bd e827 02be
000003c0: f8f1 5d3e 52f1 4b3e 68e7 bb3d a91e 753e
000003d0: 792e ad3d cbc4 e03d 5281 ec3d ff9e 403c
000003e0: 5e53 d2bb 8c10 03bb ad4f c03d fd65 333e
000003f0: 0016 513e f390 343e 6209 f43a 5201 063d

deconv4.0.bias f4 [3]
-0.10939249 -0.021439748 -0.06283061
00000000: 2b09 e0bd 69a2 afbc 56ad 80bd
