03_hw/Pix2Pix/checkpoints/pix2pix_model_epoch_10.pth (torch, 99150 bytes, 32 tensors)

conv1.0.weight f4 [8, 3, 4, 4]
00000000: d48a fabd 591c 0abe 6490 cdbb 5735 1ebe
00000010: fe90 673d 63bf 0abe 9efa 2f3c 1c02 f93d
00000020: 2b83 f2bd 625b 75bc 0c7c 943d a02c 5e3d
00000030: b933 d6bc 0469 b03d 3530 ce3d 2ba3 0fbe
00000040: f5e3 b63d 9099 fd3d 3033 353d a400 8ebc
00000050: fb75 9dbc 60e9 08be 7d82 05be 24c9 4e3d
00000060: c16c 973d 487a 953c f15a 023d 5a35 a7bd
00000070: c83f 02be 1bac 31bc 056c 05be 2169 b83d
00000080: 3fb6 b4bd e1af 4d3d f90f c3bd 4c6c b83d
00000090: 040b d6bd 50cf 05be b418 863c 8fc9 a8bd
000000a0: 6e76 af3c 1064 bfbc 926d 933b ec9a 62bd
000000b0: 6436 a3bd 88c5 023d 5baa 0d3d 28c9 94bc
000000c0: bbc6 a6bd b7e7 943d ddad 39bc 5b49 c9bb
000000d0: 460a 7cbc 1fb5 e73d c0e2 1c3d ad0e f83b
000000e0: be3d 033e f3f5 913d 7023 f4bd f2a3 8ebd
000000f0: e5eb dc3c 1b0e ea3d b7b3 29bd 4de7 21bc
00000100: ac1f cabc daa8 063e 256a 503c 140a a3bd
00000110: 4602 81bd a60e a3bd 8375 273d 5ec0 68bc
00000120: 2634 0a3c c054 e1bc 56ca 833c 6e11 00be
00000130: 9ae3 533d 197d 27bd 61ac 4d3d fedd da3d
00000140: bd33 a0bc 12c5 7fbd a07a 653d 75da f4bd
00000150: 3dfe 87bd d804 ba3d c7e8 64bd ea78 ca3d
00000160: bb0c 90bc 1c88 23bc 881c b8bc ee91 d63c
00000170: ab07 6dbd 8a9c b4bd 7692 87bc 3cc5 6abd
00000180: b263 d1bd 1da7 943d 50d1 aebb c5c9 40bd
00000190: 6791 343d f206 9dba 5476 343d dfdb 133e
000001a0: 957b c9bd 0f10 3f3d f08b f2bd 122c 8dbd
000001b0: 042c 123e 064d 873d bf45 063d f05b b3bd
000001c0: 279a 10bd 4234 4b3c 4ecd 8d3d 8312 8dbd
000001d0: d4f7 143e 5dc8 e6bc de2c 40bd 88d7 133e
000001e0: b4f8 bcbc 4558 6b3d 1701 dcbd 245e 04be
000001f0: 6433 b7bb 2aeb 983d 57bb 2ebd e84f 8b3d
00000200: 07c7 e0bd b706 ae3d 7e3b 63bd ee59 b23d
00000210: d831 7ebc ed04 153d 34d4 cbba 787d a83c
00000220: 138e 7ebc 9ecf 093e f6de ca3d 63cc 7a3d
00000230: 5655 06be 00d0 4d3d 88e9 bc3d 74d7 f53d
00000240: b6d4 023d 6a74 c23d 2c43 fa3d 1423 c73c
00000250: 2de9 27bd 2650 aebd 346f 41bd 011f b8bd
00000260: bd03 b43c fd5e 8bbd 7406 0c3e 67d9 50bd
00000270: 2267 863d 604e 133e d420 023e 5b55 11be
00000280: b62f b4bd 1272 e63d 16e8 0e3e 0104 a93c
00000290: c069 213d ce81 9d3d b008 05bd 7542 98bd
000002a0: e00c bdbd 1d62 99bd ce5e 9f3d d447 eb3d
000002b0: ae3f 88bd 2b4c a8bc 2179 a53c e108 89bd
000002c0: 9d57 073e 4abc f4bd f3b4 f53c 9991 273d
000002d0: 0e2d 6fbd 6fa9 e6bd d796 80bd cca3 39bc
000002e0: f5b6 c5bd bda0 0b3e 668e 72bd c889 033e
000002f0: 4bf8 fabc 69e1 c3b8 d626 9cbd b7bd 0e3e
00000300: b4e2 a7bd ac88 f6bd 2e4e ae3d ca84 633d
00000310: 0d1c d23d a77e 08bd afa7 343b 3f99 08be
00000320: da6d 033e e04c 9cbd 468e c63d 06f3 9d3c
00000330: 94e6 f33d 3a5f 12be 8bf1 03be 4182 13bd
00000340: 5660 1dbc 2552 cc3d a3b3 d13d ed92 073e
00000350: 3da8 dbbd 0e92 40bd 09d4 4f3d 3189 0b3e
00000360: 72f6 c93c ccda 28bd 8125 c1bd 5d52 19be
00000370: 9a2c 16bd 3006 8e3d 760d dbbd d7cf a93d
00000380: 036e 4f3d 3d91 bfbc 4f9d 3a3d 608b 13be
00000390: 5bb2 b7bc ccb4 07be 45d3 343d 1b27 03be
000003a0: 8d34 e9bd e46f 333d fff0 ccbd 66a4 2a3b
000003b0: aa3e 403d b067 36bd b4ac c3bd bc00 0cbe
000003c0: 898d 873d a1ac d9bd f062 87bd 539d 1abd
000003d0: 51b9 6abc 84e2 b6bd 9a6b 033e 3e19 883c
000003e0: 42a1 053e 1332 103d 1df5 eb3d d781 c0bd
000003f0: 939b 68bd 9d5e be3d a3bd d63d 7a28 7d3d
-0.122335106 -0.13487376 -0.006273316 -0.15450035 0.05653476 -0.1354957 0.010740904 0.121586055
-0.118414246 -0.014975401 0.072502226 0.054241776 -0.02614771 0.0861378 0.100677885 -0.14027087
0.08930198 0.12382805 0.04423827 -0.01733429 -0.019221297 -0.13370275 -0.13038059 0.05048479
0.0739379 0.018246785 0.03182501 -0.08164473 -0.12719643 -0.010844256 -0.13029487 0.09004427
-0.08823823 0.05021656 -0.09524531 0.09005031 -0.1045132 -0.13067365 0.016369201 -0.08241569
0.021418776 -0.023363143 0.004499146 -0.055323526 -0.079693586 0.03192666 0.03458629 -0.018162325
-0.081433736 0.072707586 -0.011332956 -0.006142778 -0.015383309 0.11313843 0.038302183 0.007570109
0.12816522 0.07126989 -0.11920822 -0.06964864 0.026967952 0.11428472 -0.041431155 -0.009881807
-0.024673305 0.1315035 0.012720619 -0.079609066 -0.06299262 -0.07961778 0.040883552 -0.01420602
0.008435285 -0.027506232 0.016087692 -0.12506649 0.05173073 -0.040890787 0.05021322 0.10686873
-0.01955592 -0.0624438 0.056025147 -0.1195573 -0.06640289 0.09082955 -0.055886056 0.09886344
-0.017584195 -0.0099811815 -0.022474542 0.026192632 -0.05786864 -0.0881892 -0.01654933 -0.057317004
-0.102240935 0.07258437 -0.0053350106 -0.047067422 0.04408398 -0.0011980219 0.04405816 0.14439343
-0.098380245 0.046646174 -0.11843097 -0.06893171 0.14274603 0.06606488 0.03278136 -0.0875777
-0.03530326 0.012402596 0.069239244 -0.068882965 0.14547664 -0.028171713 -0.04691779 0.14437687
-0.02306781 0.057457227 -0.10742395 -0.12926537 -0.005590843 0.07466729 -0.04265913 0.0680235
-0.109754615 0.084973745 -0.055476658 0.08708559 -0.015514813 0.03638165 -0.0015550912 0.02056764
-0.015536803 0.13458106 0.09905808 0.061230075 -0.1311849 0.050247192 0.0922423 0.12003985
0.03194114 0.094948605 0.12219843 0.024308719 -0.040993858 -0.08511381 -0.047225192 -0.089902885
0.021974439 -0.06805227 0.13674337 -0.05098858 0.0656264 0.14385366 0.12707835 -0.14192717
-0.08798163 0.11252226 0.13955721 0.020631792 0.03940749 0.07690774 -0.03247899 -0.07434551
-0.09230971 -0.07489417 0.077817544 0.114883095 -0.06652771 -0.020544132 0.02019936 -0.06691147
0.13217016 -0.11949976 0.02999351 0.040910337 -0.058392577 -0.11262786 -0.062787704 -0.011330556
-0.09654037 0.13635536 -0.059217833 0.12845528 -0.030635973 -9.3403105e-05 -0.07624595 0.13939558
-0.08197537 -0.12037787 0.08511005 0.05554656 0.102592565 -0.03332391 0.0027565768 -0.13339709
0.12834874 -0.0763185 0.09695105 0.019280922 0.11909214 -0.14294139 -0.1288511 -0.03601289
-0.009605488 0.09976605 0.10239341 0.13239641 -0.10725448 -0.04701429 0.05073932 0.13626553
0.024653647 -0.041224286 -0.094309814 -0.14972825 -0.03666363 0.06934774 -0.10695927 0.082915954
0.050642025 -0.023384685 0.045560177 -0.14408636 -0.022423914 -0.13252562 0.044146795 -0.12807886
-0.113869764 0.04380788 -0.10006904 0.002603793 0.04693476 -0.044532478 -0.09554425 -0.13672155
0.066187926 -0.106286295 -0.06610668 -0.037747692 -0.014326409 -0.08929923 0.12834015 0.016613599
0.13049796 0.035204004 0.11521361 -0.09399765 -0.056788992 0.0929539 0.10485389 0.06180618

conv1.0.bias f4 [8]
00000000: 88ea 083e b4a9 ba3b d775 13bd a6dc fb3d
00000010: 1fa1 8e3d 988c cc3d 689e ebbd 1c4c 68bc
0.13370717 0.0056964997 -0.036001053 0.12297945 0.06964325 0.09987754 -0.11504823 -0.014178302

conv1.1.weight f4 [8]
00000000: 5a54 813f 7175 7e3f 46df 7e3f a20f 7e3f
00000010: 5902 803f 0232 803f 18c1 7e3f 40e9 803f
1.0103867 0.9939795 0.9955944 0.99242604 1.0000716 1.0015261 0.9951339 1.0071182

conv1.1.bias f4 [8]
00000000: fc02 213c 4150 f8bb 4823 e63b 0dff 03bc
00000010: c2a8 b83b 4cfc 0f3c 868d f0ba b530 0a3c
0.009827372 -0.0075779264 0.007023249 -0.008056414 0.005635352 0.00878818 -0.0018352724 0.008434464

conv1.1.running_mean f4 [8]
00000000: 9d6e 0b3e 1691 49bc 4b3b 1ebd 0fbe 5b3d
00000010: 4281 843d 1258 c43c 3a34 9abd e38a 1ebc
0.13616414 -0.012302658 -0.038630765 0.05364805 0.064699665 0.023967776 -0.07529493 -0.009676668

conv1.1.running_var f4 [8]
00000000: cb5c e13e f4ec b43e 9e25 c33e d907 b93e
00000010: 90f0 ce3e 5796 c93e ef8a b63e a861 b83e
0.44016108 0.3533703 0.38114637 0.361388 0.4041791 0.39372513 0.35652873 0.36012006

conv2.0.weight f4 [16, 8, 4, 4]
00000000: 783c 753d 6a3c 9c3d 00a9 e63a 1b8e 203d
00000010: 2226 5abd 05b4 ae3d 8549 4dbd 6f27 ac3d
00000020: d231 9cbd 97e5 803d e0f7 563d 03ef bd3c
00000030: 649d afbb fad5 98bd 537e a5bd fee1 473d
00000040: 8ed2 dfbc 98e9 833c 4e3a 973d ad38 73bd
00000050: 327b a63d b6fd 80bd b40b b43d c284 02bd
00000060: 29db 303d 7ca9 863d 3df5 083c d1ea 933d
00000070: 9f00 563d 38c9 7e3d 1d91 9c3c 462a 9abd
00000080: 6317 1dbd fa82 de3c 3fe8 723d eae1 80bc
00000090: fb02 9dbd b4ff e1bb a0b1 7c3b 9b06 733d
000000a0: 1aee 0abd 68a8 7bbd fc78 45bc c3a9 c3bc
000000b0: 2d27 b2bd 44b5 93bd 4341 6dbd a4db 8bbd
000000c0: 4aa6 873d c952 753a 2220 943d f56a d33c
000000d0: c36e 353d bf0d 723d 4d2a bebc 253d 80bc
000000e0: 1d41 3fbc 0aec b8bc 816c 9ebb 46ad 1e3c
000000f0: 986b 743d 4233 89bc 6431 a6bc b0b1 92bc
00000100: 2e3b 853d ba4d 51bd 9075 0cbc fef6 193d
00000110: 41b2 ec3c c7da b6bc bd65 b73d 98a6 96bc
00000120: 7fef 183d 0129 4bbd 8331 8d3d 3bb4 513d
00000130: 4f6b 9ebd 2f13 05bd 047e 6ebd 9351 22bd
00000140: d83e adbd bc8c 91bd 88e3 ff3b 6495 513c
00000150: 351b 7b3b 90c7 64bc c3c4 143c 682b 653c
00000160: 201f 513b fb5b 913d 9705 373d 43ed 953d
00000170: 1349 15bb fc47 b53a 8d67 a0bd a0a0 a73b
00000180: 0b86 a83c 2e21 69bd 3fca 283d 8b56 a13c
00000190: 29b7 963d 3956 7e3c 6e81 8fbc 7916 d939
000001a0: b589 2cbd cc89 853c 0217 1cbd 8534 3f3d
000001b0: f1f9 54bd 7de8 b23d 0d4b 1f3c e6b6 b13d
000001c0: de20 663c 89c9 1d3d ac61 f63b 2345 be3c
000001d0: fde7 76bd f5c5 24bd c3c1 38bc ee5a f2bb
000001e0: d3ff 393d 4bfa 25bd a41c 883d 9412 903d
000001f0: 449a 963c c7ef 16bd 5d24 e03c 0e2b a3bd
00000200: 30f1 f9bb 52bf 9ebb 7f0e 39bd cd5e 9bbd
00000210: 0d4d aebd 70cd a8bd 9407 16bd 2b1b 983d
00000220: e6b2 1f3d ae8a 4e3c bded 8739 97d0 853d
00000230: 5d45 b9bd 4bf5 95bb b46a a43d 3b3e 8bbd
00000240: e31b 713d b27c 683d 4eec 4a3c 8af6 aabd
00000250: 14e5 a9bd 43a6 043c f798 7cbd 0daf 8bbc
00000260: 94d1 c63c f605 e0bb c852 973d cab4 4c3d
00000270: 7927 1fbd 1140 90bd adee 3e3d f320 c63d
00000280: 7b86 95bd f942 78bc b6a2 9a3d c6e0 babc
00000290: 7dd3 9f3d fba1 d63c c9fe 033d 6194 94bd
000002a0: 1dc4 3a3d e406 6ebb 92de aabd b15f 2e3d
000002b0: 2033 1e3d 148e 44bd 1240 f83c 716c b13d
000002c0: d62e bfbd 23bc f1bc 05f0 893d b6ce 7abd
000002d0: c059 64bd af7a fcba 84c6 23bc 9400 25bc
000002e0: 2d36 4dbd c288 85bd c18a 3fbd 18a0 3cbc
000002f0: 23c5 3fbd c850 843c fede 923d 583f 41bd
00000300: 2cce 0cbd cd70 6cbd 38b8 943c 248a 1dbc
00000310: 75a9 edbc 8a61 593d 64db 413d 7d1f 94bd
00000320: 1035 94bd 98f3 76bd b7e1 9cbd af44 c03c
00000330: 68b3 58bd 4acd 84bd 6ff4 943d 60b4 a5bd
00000340: 0d83 a4bc abd7 b8bc 302a b2bd 34f0 52bd
00000350: d070 5a3d 8914 c4bc 0a8f 5bbd aa6a babd
00000360: 4c14 9f3d 3a84 203a 90f4 c23c 3a38 313c
00000370: df8d 40ba 1b0b a6bd 6c35 0abd 69c8 df3c
00000380: 2ccc 7e3c ea24 2bbc 5a5d 95bd 07bd e23c
00000390: 5a37 ac3d 0760 cb3b de72 e0bb b7db 733d
000003a0: 1d64 22bb d103 bc3d e9d3 9cbd 9d52 3d3c
000003b0: d9e0 1a3b 9c9a 9ebd f48b a1bd e05c 083d
000003c0: 4819 cfbc ae04 95bd e984 283c 76ba 01bd
000003d0: 8f39 73bd cfd3 abbd 96e7 a9bd 2880 98ba
000003e0: fa21 913d 8ddf b5bd 7fff 20bc 3a89 18bc
000003f0: cd4c 84bd 9013 a7bd 4799 a5bd 2eb3 febc
0.05987212 0.076287106 0.0017597973 0.039198022 -0.053259023 0.0853043 -0.05011894 0.08405959
-0.0762669 0.06293791 0.052482486 0.023185259 -0.0053593386 -0.07462688 -0.08080735 0.048799507
-0.02732208 0.016102597 0.073841676 -0.059380222 0.081289664 -0.062983915 0.08791295 -0.03186489
0.043177757 0.06575295 0.008359251 0.07222522 0.052246686 0.062203616 0.019112164 -0.07527594
-0.03835238 0.027162064 0.05930352 -0.015732724 -0.07666584 -0.0068969373 0.0038558021 0.05933247
-0.033918478 -0.0614399 -0.012052771 -0.02388466 -0.086988784 -0.07212308 -0.057923567 -0.068290025
0.06623514 0.0009358344 0.07232691 0.025807837 0.044295084 0.05909514 -0.02321353 -0.015654156
-0.011673239 -0.02257349 -0.004834712 0.009684866 0.059672922 -0.016748074 -0.020287223 -0.017906994
0.06505428 -0.051099516 -0.008572951 0.037589066 0.028893592 -0.022321118 0.08954952 -0.018389985
0.037337776 -0.04959965 0.06894209 0.05119727 -0.07735311 -0.032488998 -0.058225647 -0.039628576
-0.08459252 -0.07106921 0.0078091063 0.012791965 0.0038315777 -0.013963595 0.009080115 0.0139874
0.003190942 0.07097622 0.044683065 0.07320645 -0.0022779151 0.0013830657 -0.07832251 0.0051155835
0.02057173 -0.05691641 0.041208502 0.019694587 0.07359154 0.015523487 -0.017517772 0.0004140621
-0.042123515 0.016301058 -0.03810788 0.046680946 -0.051996175 0.0873575 0.009722483 0.08677463
0.014045922 0.038522277 0.0075189676 0.023226326 -0.060279835 -0.04022785 -0.011276665 -0.0073960936
0.04540999 -0.0405219 0.06646088 0.070347935 0.018384106 -0.036849763 0.02736109 -0.079671964
-0.0076276287 -0.0048445845 -0.04517984 -0.07586441 -0.0851079 -0.08242309 -0.03662832 0.07427057
0.03898897 0.012606306 0.00025926335 0.06533926 -0.09046433 -0.0045763603 0.080281645 -0.06798979
0.058864485 0.056759544 0.012385441 -0.08347805 -0.08295646 0.0080962805 -0.061669316 -0.017051244
0.024269857 -0.006836648 0.07388836 0.0499771 -0.038856003 -0.0704347 0.046614338 0.09674253
-0.07301041 -0.015152686 0.07550566 -0.022812258 0.0780401 0.026200285 0.032225404 -0.072548635
0.045597184 -0.0036320025 -0.08343233 0.042571727 0.038622975 -0.04798706 0.030303989 0.08663262
-0.09335105 -0.029508656 0.06735233 -0.06123229 -0.055749655 -0.0019262637 -0.00999606 -0.010070939
-0.050100494 -0.06520225 -0.046763185 -0.011512779 -0.046818864 0.0161518 0.07171439 -0.04717955
-0.03437631 -0.057724763 0.018154249 -0.009615455 -0.029011467 0.053071536 0.047328368 -0.072325684
-0.07236683 -0.060290903 -0.07660239 0.02347025 -0.05290547 -0.06484468 0.072731845 -0.080910444
-0.020082021 -0.022563776 -0.08699453 -0.051498607 0.053330243 -0.023935573 -0.05360321 -0.09102376
0.07767543 0.0006123219 0.023798257 0.010816628 -0.0007345359 -0.08107587 -0.033742353 0.027317243
0.015551608 -0.010445813 -0.07293196 0.027678026 0.08408995 0.0062065157 -0.0068496307 0.05953571
-0.002477891 0.091804154 -0.07657606 0.011555341 0.0023632555 -0.07744333 -0.07888022 0.033291698
-0.02528061 -0.07276283 0.0102855945 -0.031671964 -0.059381064 -0.08390009 -0.08296125 -0.0011634873
0.07086559 -0.088805296 -0.00982654 -0.009310061 -0.06459961 -0.08158028 -0.08085876 -0.031091299

conv2.0.bias f4 [16]
00000000: d497 b1bd 3515 aa3d c94d 883d a27a 40bc
00000010: ab17 10bd 4035 c33b 4d93 0fbd 7bc9 6ebd
00000020: 9163 aabc 557d 2c3d 9b03 72bd d8fe 07bd
00000030: f4e3 32bd 3267 adbd 8a32 8b3d 6960 93bd
-0.08671537 0.08304826 0.06655461 -0.011747988 -0.03517882 0.0059572756 -0.035052586 -0.058297615
-0.02079943 0.042111713 -0.05908547 -0.033202022 -0.043674424 -0.084669486 0.06796749 -0.07196123

conv2.1.weight f4 [16]
00000000: 8d48 803f 02d7 7d3f 1d17 803f a291 803f
00000010: c4e0 7f3f d600 7e3f 0c3f 813f 29ca 803f
00000020: ab38 7e3f 0031 813f 89e6 803f 3825 803f
00000030: 0c4b 7f3f 1252 7d3f 97a7 7e3f 9814 813f
1.0022141 0.991562 1.0007054 1.0044444 0.9995234 0.99220026 1.0097365 1.0061694
0.9930522 1.0093079 1.0070354 1.0011358 0.9972389 0.98953354 0.9947447 1.008441

conv2.1.bias f4 [16]
00000000: 6825 f93a d74c 3bbb d4a1 123c b735 0439
00000010: 5971 c53b e682 8ebb 33fb e33b e5f9 113c
00000020: f07b 973b d1fc 173c 1ad1 363c 63ad 3f3b
00000030: a3fc 73bb 971b 2abc 9eb2 83bb b5e5 e93b
0.001900834 -0.0028579736 0.008949716 0.00012608511 0.006025475 -0.0043491004 0.0069574355 0.008909677
0.004622929 0.009276585 0.011158252 0.0029247634 -0.003722944 -0.0103825545 -0.0040190956 0.007137979

conv2.1.running_mean f4 [16]
00000000: 577e 893d cda9 afbe de23 ddbc 5c6f 4b3e
00000010: 1d5e 1d3d 6efd 86bd 3394 463c 0774 823d
00000020: 3417 fb3d 461a 86be 38ad 0abc 65ea 1a3e
00000030: 2a72 c1bd 625e c5bd 8e7c a33d a2f7 a33d
0.067135505 -0.34309235 -0.026994642 0.19866699 0.03841983 -0.065913066 0.012120294 0.06369787
0.12260285 -0.2619192 -0.00846415 0.15128477 -0.09445603 -0.09637143 0.07982741 0.080062166

conv2.1.running_var f4 [16]
00000000: 2101 d63e 842e fb3e 2303 033f 478a f53e
00000010: 96e5 033f 2cd8 d13e 5722 c53e 74ca f13e
00000020: 41fc d33e 7454 063f ac19 d63e 7039 d93e
00000030: bfb9 ca3e f719 c83e f5b5 cd3e 7382 e33e
0.41797736 0.49058926 0.5117666 0.4795706 0.51522195 0.4098524 0.38502762 0.47224772
0.41403392 0.52472615 0.4181646 0.42426634 0.39594838 0.3908231 0.40177885 0.44435462

conv3.0.weight f4 [32, 16, 4, 4]
00000000: e9d1 1239 9517 b3bc 86f6 70bd 0013 8abd
00000010: d3d7 51bd ebdb c03b 36bd d13c 22f3 203c
00000020: 94ae 43bd 9920 9ebc 1786 483c a775 ebbc
00000030: c75d 33bd 6ffb e83c 639c 033d 1cdd 253c
00000040: ac42 1ebd db4e 903c 98f1 7c3c abff ee3c
00000050: 8757 2c3c 6c41 1bbc 5cf6 2a3d 1fdd 50bd
00000060: 6c93 34bd b172 49bd f518 b4bc 61d7 d2bb
00000070: 6eec 2dbc 32be 123d 8d92 17bd b11c 2cbd
00000080: eae5 4d3d 5d5a 33bb 88f6 84bb 47f7 0e3d
00000090: fdb7 543c 5864 79bc 12e4 db3b 3a65 6f3d
000000a0: bfe5 f2b9 1950 283d cddc 4f3c f243 36bb
000000b0: 1141 e1bb bfb4 7c3c d777 d73c df3f bd3c
000000c0: e222 00bb 96c2 8dbc ba1d 11bd ce3c 86bd
000000d0: e5f4 48bc f753 643d 7233 03bd 192d 0cbd
000000e0: 6293 4a3c 6b3b 2fbd c40e 1fbd ea06 58bd
000000f0: c03a b83c 36a7 3bbd f815 063d 4d59 80bd
00000100: 526b 743d e708 a53c 0781 da3c 0f8b 223d
00000110: 5cbc 373c 7919 713b cb64 263d 0537 05bb
00000120: 49f7 e1bb ecfa cabc f9ef 20bc 4291 423d
00000130: e446 5dbd 80ef 713d 7317 11bc 8bdb 6e3c
00000140: b3ac 40bd 4622 573d 657c 633c e6f1 00bd
00000150: 524a 64bd 1e5b 5e3d 787a 413c 9ade 7fba
00000160: 17f2 3a3d 8c45 aebc 3e7b ed3c 4663 053d
00000170: 7239 a8b9 2228 29bd 64a3 b23c eaa7 e8bc
00000180: b73a d53c e230 ab3c e3eb 0abd 2623 1bbd
00000190: 361f c33b e00f 17bc 742b 65bd c9ad 7f3c
000001a0: cf6a e13c d47c 4ebd 0972 1ebd 4a96 9dbc
000001b0: e74d 123d b013 9bbc 1e95 26bd f416 073d
000001c0: 2c78 36bd 00ac c93c 29e3 8ebd b099 51bd
000001d0: dc27 b73b 49fb d8bc 5afc 23bd d1d0 13bc
000001e0: 1d95 69bd 9c73 963c ef27 51bd 436c 4abd
000001f0: 311f 2bba cdc1 563d 65e9 2abb 548f 89bd
00000200: 2ebf a3bc 2056 81bd d99b 29bd be58 58bd
00000210: a9b3 55bc 0009 2d3d 70ba 7abc 333f a7bc
00000220: a8ef 70bd 9a0f b3bc 9375 08bb 5c3c 47bd
00000230: d13c 29bd 5fe5 e43c bfd0 443c d653 88bd
00000240: 1f02 75bc 30f5 273d 74a2 563d cb4a e5bc
00000250: 53a2 1abc d1c4 71bd 8023 39bc be16 2fbd
00000260: 05b0 86bd 1385 6abd 18ea d1bc ad97 5e3d
00000270: 6baf d6b9 a82e ac3c 29f9 64bd e1df 77bd
00000280: 1a3e 223d 2d09 823d 68b6 77bc 85ae 163d
00000290: aacb a8bc 8584 883c db79 b4bb abd4 b93c
000002a0: ec3a 463d e33d ca3c 3415 bc3c 6feb 13bd
000002b0: d475 003d 9f90 50bd bb76 ad3c 7570 093d
000002c0: 626e 67bc 9a01 0a3d a935 e03b ae4e 22bd
000002d0: 25bb f9bc ca2a 25bb fa82 56bd 629c 2fbd
000002e0: fd86 3f3d afe7 803b ade1 113d fe58 463c
000002f0: a54d 303d 6f87 7fbd a2b3 72bd c583 f93b
00000300: 16c7 6abd dda1 763a 93d1 573d a905 0dbd
00000310: c60e 54bb 7c58 3bbd fcf5 493c e736 9ebc
00000320: cfb7 af39 d51d 8ebd b65a a6bb 9e70 59bd
00000330: 6807 81bd 8462 2c3d ff38 f7bc f52f 8abb
00000340: f4c6 6f3c 0344 4bbd 547d 2bbb 9d7a 71bd
00000350: 941a 6fbc fb07 31bd 3068 39bd 80ed 65bd
00000360: 8198 263d 1e98 0c3d d51b 013d 3a05 c1bb
00000370: 252f 57bc 89f6 74bd 6f5d 263d eb78 76ba
00000380: b612 203d 6bdb cf3c 383e 52bd bb0b babc
00000390: 32f2 a33c 9fb6 5abd d9e9 06bd 4bb4 4b3d
000003a0: d861 df3c 71f4 5f3d a980 413d 1317 0fbd
000003b0: f3b9 b0bc db42 473d 73aa 70bd 6a8b 883b
000003c0: 46b9 51bc 9410 c13c 7573 f63c e065 cd3c
000003d0: be71 f53c fc2a 33bd e996 313d 0083 5a3d
000003e0: a8e9 143d 2a33 463d 36ed 75bd 4a01 8bbd
000003f0: 58ab ebbc 94e2 a9bb a21d 62bd df79 8dbd
0.00014001843 -0.02186183 -0.058828853 -0.06741905 -0.051231217 0.0058855913 0.025602918 0.009823592
-0.047773913 -0.019302653 0.012239001 -0.028742624 -0.043790605 0.028440205 0.032131564 0.010123517
-0.038637802 0.017615726 0.01543846 0.029174646 0.010518915 -0.009476047 0.041738853 -0.050992128
-0.044085905 -0.049181644 -0.021984557 -0.0064343666 -0.010615451 0.035825916 -0.037004996 -0.04201955
0.05026809 -0.0027367093 -0.004057709 0.03490379 0.012983319 -0.015221678 0.0067105377 0.058446147
-0.0004632901 0.041092012 0.01268692 -0.0027811495 -0.0068742116 0.015423953 0.026302261 0.023101745
-0.0019552042 -0.0173047 -0.03542874 -0.06554566 -0.012265419 0.055744138 -0.032031484 -0.034222696
0.01236424 -0.042781275 -0.03883244 -0.05274097 0.022488952 -0.04581376 0.032735795 -0.06267033
0.05967266 0.020145847 0.026672853 0.039683398 0.011214342 0.0036788865 0.040623467 -0.0020326984
-0.0068959338 -0.024777852 -0.009822839 0.04750181 -0.054022685 0.059066296 -0.008855688 0.01457871
-0.0470397 0.05252292 0.013884638 -0.031480692 -0.05573494 0.054286115 0.011808984 -0.0009760648
0.04564103 -0.021273397 0.02898943 0.032565378 -0.00032086257 -0.04129804 0.021806426 -0.02840038
0.026028974 0.020897333 -0.033916365 -0.037875317 0.0059546484 -0.0092200935 -0.055949643 0.015605398
0.02751675 -0.050412014 -0.03868297 -0.019236702 0.035718825 -0.018930286 -0.040669553 0.032980874
-0.0445482 0.024618149 -0.06976921 -0.05117196 0.0055894684 -0.02648701 -0.040035583 -0.009021954
-0.05702697 0.018365674 -0.051063474 -0.049419653 -0.000652778 0.052430917 -0.0026079055 -0.06716791
-0.019988623 -0.06315255 -0.041408394 -0.052819006 -0.013043323 0.04224491 -0.015303239 -0.020415878
-0.058822304 -0.021858025 -0.0020822033 -0.048641548 -0.041317765 0.027941404 0.01201266 -0.066566154
-0.014954119 0.041005313 0.05240102 -0.027989766 -0.009438115 -0.05902559 -0.011299968 -0.042746298
-0.06576542 -0.057255816 -0.02562432 0.054343868 -0.00040947957 0.021018341 -0.05590168 -0.060516242
0.039610006 0.063494064 -0.015119173 0.03678753 -0.020604927 0.016664753 -0.0055076904 0.022684416
0.048396036 0.024687713 0.02295933 -0.0361132 0.03136237 -0.05091917 0.02117478 0.033554513
-0.014125438 0.033692934 0.0068423343 -0.039625816 -0.030484745 -0.0025202506 -0.052371003 -0.042873748
0.046759594 0.003933869 0.03561561 0.012106178 0.043042798 -0.06238502 -0.059253342 0.007614585
-0.05731877 0.0009408275 0.0526901 -0.034429226 -0.0032357438 -0.045738682 0.012326714 -0.019313289
0.0003351555 -0.06939284 -0.0050767316 -0.053085916 -0.06300241 0.04208614 -0.030178545 -0.0042171427
0.014634836 -0.049625408 -0.002616723 -0.058954824 -0.014593739 -0.0432205 -0.045265377 -0.0561347
0.040672783 0.034324758 0.031520683 -0.0058905156 -0.013133799 -0.059805427 0.04061645 -0.00094021735
0.039080344 0.025373181 -0.051328868 -0.022710672 0.020012949 -0.053396817 -0.03293786 0.049732488
0.027268335 0.054676477 0.04724184 -0.034934115 -0.021573042 0.048647743 -0.058756303 0.00416701
-0.01280052 0.023567475 0.030084351 0.025072992 0.029961463 -0.043742165 0.04335681 0.053347588
0.036355644 0.048388638 -0.060040675 -0.06787355 -0.028768227 -0.005184481 -0.05520404 -0.06908011

conv3.0.bias f4 [32]
00000000: 08e7 6b3c ddc9 6c3d ed8e 683c d9fb 71bd
00000010: acb5 8c3b 8298 61bd 8f65 c1bc 5fe5 793d
00000020: 11ce 0c3d ff5b aa3c a69a 72bc ea77 fe3c
00000030: 6cb7 ff3c f25e ecbb 729b 7bbd c9d9 2f3c
00000040: d288 01bd 97b1 973c e3c0 423d b53a d23c
00000050: e185 3d3d be14 503d 0e27 3c3c 354b 413d
00000060: 2557 3f3c edcb 26bd d91e 3dbc 349e 55bc
00000070: 2e85 7ebd 5c3f 50bd 3882 5dbd 9b0a 753d
0.014398344 0.0578097 0.014194232 -0.05907807 0.004294118 -0.055077083 -0.023607997 0.06100976
0.034376208 0.02079582 -0.014807379 0.031063039 0.031215392 -0.007213467 -0.06142754 0.010733076
-0.031624623 0.018517299 0.047547232 0.02566276 0.046270255 0.05080103 0.011483921 0.047190864
0.011678492 -0.040721823 -0.011542999 -0.013038207 -0.06213873 -0.050841674 -0.054079264 0.059824567

conv3.1.weight f4 [32]
00000000: 2b54 803f f657 7e3f 2e45 813f d007 803f
00000010: 9cf4 7d3f 029e 7f3f d767 7f3f 49f7 7e3f
00000020: 8116 803f c0ca 803f 8a4b 7e3f 22da 7e3f
00000030: c1ae 803f 481b 7e3f 5420 7e3f 080f 813f
00000040: a298 803f 261c 813f d5d7 7e3f c820 803f
00000050: 5488 803f 147a 7e3f 702f 803f 096f 803f
00000060: 17fd 7d3f e65f 7e3f a7c6 7e3f 143d 803f
00000070: 128d 7f3f 3313 7f3f a62d 7e3f b0c5 803f
1.0025686 0.9935297 1.0099237 1.0002384 0.9920137 0.99850476 0.9976782 0.9959608
1.0006868 1.0061874 0.99334013 0.99551594 1.0053331 0.9926038 0.9926808 1.0082712
1.004658 1.0086715 0.99548084 1.0010004 1.0041604 0.99405026 1.0014477 1.0033885
0.9921431 0.9936508 0.9952187 1.001864 0.9982463 0.9963867 0.99288404 1.006033

conv3.1.bias f4 [32]
00000000: fbdb 0c3c 8908 863b 70c8 233c 66e2 d5ba
00000010: 603e 07bb 40a7 103c 8b4f 173c 56a8 163c
00000020: e885 5d3b 6b84 0c3c b8ea 753b 4957 c13b
00000030: 804b bf3b fde4 e43a bd47 d13b 5a44 fa3b
00000040: 86cc f83b 45e1 153c 8860 11ba e71e c2bb
00000050: dc3d fb3b 2e5d 793b a1b4 053c 58e4 63b9
00000060: e71b 243c c6f1 ccba e173 c1ba 318e 933b
00000070: f891 3b3b 741e f4b7 9af2 1a3c 17e7 db3b
0.008597369 0.004090373 0.0099965185 -0.0016318082 -0.0020636544 0.008828938 0.009235273 0.009195408
0.0033801738 0.008576493 0.0037523936 0.005900298 0.0058378577 0.0017463263 0.0063867257 0.0076375427
0.0075927405 0.009147947 -0.00055456953 -0.005924094 0.0076672863 0.0038049924 0.008160741 -0.00021733472
0.010016418 -0.0015636019 -0.0014759266 0.0045030345 0.002862094 -2.9101247e-05 0.009457255 0.0067108977

conv3.1.running_mean f4 [32]
00000000: 0e71 b2be 08bd 95be 4931 f23d 4134 60be
00000010: 36af 633d fbb9 3b3e 8053 33bd 5f2c a6bd
00000020: 1fa8 fe3d 49a2 64be 4250 16bd fd3d aa3c
00000030: a0c9 01be b359 91be 8f76 3bbe 9c46 7abe
00000040: f319 e8bd 78b3 57be 91f4 a0bd 327d 9c3e
00000050: c885 55be 61f0 80bd a3a7 93bd 12e0 6b3d
00000060: 9867 3d3b ada2 da3c 7456 abbe 935a bfbe
00000070: 8717 7b3b 0646 9abc 6946 5bbc 420b b8be
-0.3485188 -0.29245782 0.11825807 -0.21894933 0.055587016 0.18332665 -0.043780804 -0.08113932
0.1243441 -0.22327532 -0.036697634 0.020781511 -0.1267457 -0.28388748 -0.18306945 -0.24440998
-0.113330744 -0.21064556 -0.07859147 0.30564266 -0.20851815 -0.06295849 -0.072097085 0.057586737
0.0028900858 0.026688898 -0.33464396 -0.3737379 0.0038313584 -0.018832218 -0.013383486 -0.3594609

conv3.1.running_var f4 [32]
00000000: ed79 eb3e ae75 ed3e c730 dd3e 1386 0b3f
00000010: 8cff d43e ac3d e93e c4b9 e23e f2ad 0f3f
00000020: ab1f e03e 7f76 083f f26a d73e da9e d73e
00000030: 85be 013f 0f66 d13e 488f df3e 0eb2 ea3e
00000040: 1df1 d83e e036 f13e 7677 d33e 2098 ff3e
00000050: 6e5e d03e 40c8 d03e 76fa 023f 03bb fd3e
00000060: d846 da3e f801 da3e e95a 063f 5bdf f23e
00000070: 3b67 073f 1100 063f 65d2 da3e b0fe e73e
0.4599146 0.46378845 0.43201277 0.54501456 0.41601217 0.45554864 0.44282353 0.56124794
0.4377416 0.5330581 0.4207378 0.42113382 0.50681335 0.40898177 0.43664002 0.4583897
0.42371455 0.4711218 0.4130208 0.4992075 0.40697044 0.4077778 0.51163423 0.4955674
0.42632174 0.42579627 0.5248247 0.47436032 0.5289189 0.5234385 0.42738643 0.453115

deconv2.0.weight f4 [32, 16, 4, 4]
00000000: 609f 8bbd 316e 393d 8100 17bd 31bf 213d
00000010: 5559 babc 0ec9 51bc 7490 ba3b d1d6 f73c
00000020: d7db d3bc bb4f 053d 2b8e 54bd 467d a0bc
00000030: 4b65 4ebc b06d d13c 7b60 bcbc 6a12 7f3d
00000040: 8dc1 a6bc bba5 0c3c 66d9 e3bc 83b6 89bd
00000050: 7d28 7cbc 77be 153b 8175 803d 1e82 163d
00000060: 2722 823d fbfb 30ba 5d9f 433d 7127 143d
00000070: e49f 59bd 0acf 8c3c b59b 72bc 6a4c 16bd
00000080: 4ef5 9bbc b65a a93c 29cd 033d 7f73 2d3c
00000090: 9c80 373d fe4d 843d 42a1 183d e1a3 263d
000000a0: d02d 35bc a921 843d 10e9 91bc c1ec 343d
000000b0: f3d5 22bd d360 1cbd 0dd2 613d 699e b03c
000000c0: c147 f3bb 00ad 94b9 2dd8 6abd f8bb 0a3d
000000d0: 70be 25bd 33c6 82bd 71bf 003d 7c3a be3c
000000e0: 2abd 2fbd 17e7 eebc 9bda 56bd c236 4cbc
000000f0: 9eac 063d dc79 dcbc 5014 8e3b 0e81 4ebd
00000100: 7ddd 173c c751 473d 17ae dabc 36db c13c
00000110: c0be 11bd e4a3 81bd 5803 01bd 36bf 213b
00000120: 0c54 f7bc a992 e03c 9f57 06bb 7210 203d
00000130: 4bc4 703d 8036 393d 974f 083d 52de 223d
00000140: 91e7 943b 1e29 1f3d 1edb 843a bb6b 64bd
00000150: f310 073d b27f 2b3c 9ca8 d93c 33b7 8e3c
00000160: b140 133d 46a6 7d3c cf13 f4bc 6aa6 81bd
00000170: f438 6ebd 3f6a 883b b307 383d 32bb 443d
00000180: dd2a 283c 7501 65bd 54e9 43bd 1450 673d
00000190: de63 333d fa23 64bd 215f aa3c 652b 9338
000001a0: be0f 1cbb 8ab9 08bd bd3e c13c 1597 673d
000001b0: 88ef 933a 3653 783d a80c 793d fc56 353c
000001c0: 62a0 52bd 9057 913c 160f 1e3c 0e1d 33bd
000001d0: cc4c 453c 8f1e 09bd 634c 363d f33b e83c
000001e0: 61b0 34bd 2629 14bd 92b9 583d de41 49bc
000001f0: 8864 b33c cb9a bf3c 28f7 073d 81a6 4f3c
00000200: a252 19bd 6b15 20bc 377a a9bc b4d7 683b
00000210: a024 f6bc 004e 59bd 062c 5abd 886e 4c3b
00000220: 104b 8e3b 25b3 05bd 06bc 8a3d a14a d1bc
00000230: 010f 773c 5a14 4b3d 3f47 babc 2588 7d3c
00000240: f8fe 22bd e0e8 1d3d ca83 32bd 68d5 ff3b
00000250: e9a7 db3c bdc8 68bd ff69 57bd 7d16 f33c
00000260: a610 6a3d fffb 123d 0224 143d ff07 3bbd
00000270: d8b0 713d fc2f b4bc 0955 0ebd e9a7 4a3c
00000280: 8fca 0e39 9282 22bd f9af c33b 05d7 60bd
00000290: 87ac 2abc f2c2 f1bc 1e82 04bd aff5 53bb
000002a0: 0de7 2b3c a7ea 5ebc ed3d 573d 6c07 aa3c
000002b0: 8162 bc3c 3e78 bfbc c48e 313d 28af 8f3c
000002c0: 4e1a 80bc 4262 143d 3307 08bd ee08 b2bc
000002d0: d557 d43c 19e5 8aba 774c 8abc 0f76 52bc
000002e0: 99ac 6d3d 362f 56bd 0290 66bd d423 713a
000002f0: 90d7 27bd 0e54 8abd 58f1 093d c974 2abd
00000300: 1c8b e73c 6b06 c3bc 042f 81bd 4cc6 493d
00000310: 8f1e 67bd 8c3f 7838 597c ff3c 41b5 15bd
00000320: a729 74bd d631 393d 5d51 00bd bb4d 363d
00000330: 3c37 febc 0649 39bd 980f 0b3d 13ab 28bd
00000340: 44f2 033d 5880 42bd 24c5 07bd f030 9ebc
00000350: d433 f53c ae47 543d 2e0c 3ebd 994c cc3c
00000360: faea 3d3d 1faa 3dbd 731d 03bd 1591 023d
00000370: 556d c13c 9de4 e538 e712 983c ca79 e33c
00000380: 2a7b 86bd 322f 06bc c4ec a5bb 5d7f 35bd
00000390: 02ea a0bc d755 ce3c 42d0 353d bb53 0c3d
000003a0: c1ba 17bd 846f 80bc 364d debc cb02 03bd
000003b0: 04ca 3bbd d9c9 aa3a 653c c83c 5bf4 0a3c
000003c0: 7b31 cfbc cc09 31bd 22a7 243d ffb2 e23c
000003d0: 6eed afba 1850 3abd 5b1f 65bd c798 813d
000003e0: 030c 8ebc e06a 4cbb 2cea 613d f17c 51bd
000003f0: 6075 f93b 3974 48bd 19b5 e1bc f0db 51bc
-0.06817508 0.045271102 -0.036865715 0.039488975 -0.022747675 -0.012804283 0.0056934897 0.0302538
-0.025861664 0.03254674 -0.051893394 -0.019590985 -0.012597392 0.025564998 -0.022995224 0.06227342
-0.020355964 0.008584435 -0.027813625 -0.067242645 -0.0153905125 0.0022849122 0.06272412 0.036745183
0.0635417 -0.0006751415 0.047759403 0.036170427 -0.053131 0.017188568 -0.014807631 -0.036693968
-0.019037869 0.020673137 0.032178078 0.010586618 0.044800386 0.06460188 0.037263162 0.04068363
-0.011058286 0.06451733 -0.017811328 0.0441711 -0.03975482 -0.038178276 0.05513196 0.02155991
-0.007424325 -0.00028357655 -0.057335068 0.033870667 -0.04046482 -0.0638546 0.031432573 0.023221247
-0.04290501 -0.029162927 -0.052454572 -0.012464227 0.032879464 -0.026913576 0.0043359175 -0.050416045
0.0092691155 0.048661973 -0.02669434 0.023664098 -0.035582304 -0.06330088 -0.03149733 0.002468062
-0.030191444 0.027413683 -0.0020499004 0.039078183 0.05878095 0.04521799 0.033279028 0.039762802
0.0045442064 0.03885757 0.0010136103 -0.055766802 0.03297515 0.010467457 0.026569657 0.01742134
0.035950366 0.015481537 -0.029794602 -0.06330569 -0.058159783 0.004163056 0.044929218 0.048030086
0.010264126 -0.055909593 -0.04782994 0.056472853 0.043796413 -0.055698372 0.020797314 7.017589e-05
-0.0023813094 -0.03338007 0.023589486 0.056540567 0.0011286596 0.06062623 0.060803086 0.011068102
-0.051422484 0.017741948 0.009647151 -0.04372888 0.012042236 -0.03347641 0.04450644 0.028348899
-0.04411352 -0.036172055 0.05291135 -0.01228377 0.021898523 0.02338924 0.03319469 0.012673975
-0.03743232 -0.009770731 -0.02068816 0.003552896 -0.030046761 -0.053052902 -0.05326464 0.0031193811
0.0043424442 -0.03264155 0.06774144 -0.025548281 0.015079261 0.049579956 -0.02273905 0.015474354
-0.03979394 0.038552165 -0.043582715 0.0078074224 0.026813464 -0.056832064 -0.05259132 0.02967381
0.057144783 0.035884853 0.036167152 -0.045661923 0.059006542 -0.021995537 -0.034749065 0.012369134
0.00013617634 -0.039675303 0.0059719053 -0.05489256 -0.01041711 -0.029511902 -0.032350652 -0.0032342484
0.0104920985 -0.01360575 0.05254929 0.020755492 0.02299619 -0.023372766 0.043349043 0.017539576
-0.015637543 0.03622652 -0.03320999 -0.021732774 0.025920788 -0.0010596841 -0.016882164 -0.01284553
0.05802593 -0.052291118 -0.05628968 0.0009198759 -0.04097706 -0.067543134 0.03367743 -0.04161528
0.028264575 -0.023806771 -0.06307796 0.049261376 -0.056425627 5.918699e-05 0.031187223 -0.03654981
-0.059610035 0.045213543 -0.031327594 0.044507723 -0.031032197 -0.045235656 0.03395042 -0.041178774
0.032213464 -0.04748568 -0.033146992 -0.019310445 0.02993194 0.05182617 -0.046398334 0.024938868
0.04636667 -0.04630482 -0.032010507 0.031876642 0.023611704 0.000109621535 0.0185637 0.027768034
-0.065664604 -0.008189963 -0.005063625 -0.044310916 -0.019642834 0.025187416 0.044388063 0.03425954
-0.037043337 -0.015678175 -0.027136426 -0.031985085 -0.045846954 0.0013030126 0.02444286 0.00848111
-0.025292149 -0.043222234 0.040198453 0.027673243 -0.00134222 -0.04548654 -0.055938106 0.06327968
-0.017339712 -0.0031191632 0.055154964 -0.051144544 0.007612869 -0.048938964 -0.027552174 -0.012808785

deconv2.0.bias f4 [16]
00000000: baf1 f23c 8b63 77bd d10c f73c 7b53 da3c
00000010: 6c5b 1f3d 74c6 66bd aa1b 463d d36f 86bc
00000020: ae03 78bd e36c 533d 6a2d e23c c24a 63bd
00000030: 46ad d03c ee9d 6dbc 1766 763c 05c5 843c
0.02965628 -0.060397666 0.030157479 0.026651135 0.038905546 -0.056341603 0.048366226 -0.016410744
-0.060550384 0.051617514 0.027609546 -0.055491216 0.025473248 -0.014502985 0.015038989 0.016207227

deconv2.1.weight f4 [16]
00000000: 2a34 813f 2705 7f3f 5e62 813f 9043 7e3f
00000010: e6fb 7f3f 92a2 7d3f 1847 7d3f 6d09 7d3f
00000020: b681 7e3f 1477 7d3f 860a 803f 15ed 803f
00000030: cc9e 803f bab9 7d3f 5785 803f cfda 803f
1.0094044 0.99617237 1.0108144 0.9932184 0.9999374 0.9907619 0.98936605 0.9884251
0.99416673 0.99009824 1.0003211 1.0072352 1.0048461 0.9911152 1.0040692 1.0066775

deconv2.1.bias f4 [16]
00000000: 0120 1d3c 237d 1b3c 5aac 403c a71e faba
00000010: 6916 c03a 0d35 f1bb 5d23 20bc 44aa 063b
00000020: fb18 de3a 57b7 803b 6554 b73b a0c4 1e3c
00000030: 6242 993b 9512 a13b ce44 e43b ca12 083c
0.00959015 0.009490284 0.011759842 -0.0019082621 0.0014655116 -0.0073610605 -0.009774056 0.0020548264
0.0016944701 0.003928106 0.0055947774 0.009690434 0.004677103 0.004915545 0.00696621 0.008305261

deconv2.1.running_mean f4 [16]
00000000: df78 ff3b b7b8 66bd fd00 303e 3853 6b3c
00000010: 99df 3fbc 6107 08b9 0d29 9c3d 218b 2fbc
00000020: 5f3b 41bd d2d6 a63d a7f5 f3bc cae9 30bd
00000030: 4f1a 0e3d 2385 abbc fdf6 01be b46a febd
0.0077963914 -0.0563285 0.17187877 0.014363103 -0.011711025 -0.0001297272 0.07625017 -0.010714323
-0.04717576 0.081464425 -0.029780222 -0.04319171 0.03469306 -0.020937508 -0.12691875 -0.12422696

deconv2.1.running_var f4 [16]
00000000: c91e 003f eb8a db3e 45be db3e 1a3f ea3e
00000010: f926 d23e e4cd da3e 034a cc3e 33f8 cd3e
00000020: 204e d13e ede5 d43e b6ad d43e f117 da3e
00000030: f757 f53e cf40 da3e 918f d43e 61d0 d13e
0.50046974 0.42879423 0.42918602 0.45751268 0.4104536 0.42735207 0.39900216 0.40228423
0.40879917 0.4158167 0.4153878 0.4259639 0.47918674 0.4262757 0.41515782 0.40979293

deconv3.0.weight f4 [16, 8, 4, 4]
00000000: 1746 a03c 8da8 dc3c f046 9ebd e750 67bd
00000010: 8abb 95bd 05b6 e63b 3f0e 913c 37fc 50bd
00000020: d5ea a4bd 282b 2c3c c71d af3c 9243 f63c
00000030: dc3c aabd ab8b 9dbd 4d58 8b3d 3f4a b0bd
00000040: e51d 393d 8d11 1abc 5dde f63b 63f5 483d
00000050: 62fd 8a3d 0bbf 463d eae2 5c3d bf41 fd3c
00000060: fe3b 13bd 5132 153d 2cb0 813d ebed 133d
00000070: 5194 193d 7471 b53c a8c5 773d f052 94bd
00000080: aeaa 9e3d 6403 4e3d 94f5 74bd 0d65 0a3d
00000090: b7b4 9d3c b470 b83d 1726 763c b7bd 88bc
000000a0: 9591 3a3d b18e b93d 4472 9dbd ae0b 8e3d
000000b0: a149 5e3d c788 273d 15ce 8cbd 01ee 9fbd
000000c0: f046 093d d9be ad3d eb97 28bd 23d5 093d
000000d0: 2b51 6abd 8cf6 75bd 92a2 c43c 3146 8e3d
000000e0: 44dd 4e3d 9b40 bd3d 2690 d4bc 37d9 aa3d
000000f0: 91b3 83bc 0a22 d03c 9a34 eabc 2ceb 6b3c
00000100: cd4d 693d a047 943d b68a f83c c35f 97bd
00000110: 616d 253c a9da 73bc 0557 cf3c f1ca 91bd
00000120: 2dc1 2abd 9182 083d 54db 55bd c302 1cbc
00000130: 2736 80ba 7c32 5abc 791a fbbc f0b1 cc3c
00000140: e18a cd3c dfd5 7cbd a321 e7bb 02e4 a33b
00000150: 6b35 663c 099b 4a3c 3092 933d 2caa 353c
00000160: f7ca c93c 1698 013c b979 69bd af8e 4ebd
00000170: 5af7 633d 29ed 113c 75a8 7b3c 3ea9 a93c
00000180: 5a1b edbb 7be8 fdbc 02ca 17bd bca7 92bd
00000190: e870 2d3d 14a7 afbd 366e 65bd d304 a2bd
000001a0: 6482 c9bc f9a6 883d d8d2 5b3d f3af c2bc
000001b0: 976e 8e3d 419d 48ba 4c8c 76bc a6e7 adbd
000001c0: a5bd b63c f27e 863d 9d69 0e3d 5c0e a33c
000001d0: 5540 163d 42a3 413d b623 92bd 707e d1bc
000001e0: 0b92 603d 61ca b7bd 958f 9ebd b4bf 64bc
000001f0: 60cf 923d b739 763d 5b3f bfbc 1e6b 583d
00000200: 1f93 06bd c965 1ebc a492 a33d 99f1 9dbd
00000210: 4426 26bd 4d27 2cbd 20c3 b73d f2c1 803d
00000220: 3d2a 44bc ffc6 8c3d f43f 903d d387 5c3d
00000230: 38af 313a d190 90bd 4603 513c 5984 90bd
00000240: 8932 a53d ec51 cabb dd1b 483a c88b 99bd
00000250: 91a9 a0bc 05cc 7dbd 82ee 993d 3c4a 94bd
00000260: 76d8 34bb cd4e 5c3d 5469 b53c 9ea3 df3b
00000270: 1ed5 873d 2d37 17bd 5a57 4f3b 73d1 4ebc
00000280: f37d 803c c7c0 613d f8f7 b03d 793c 42bd
00000290: 4e77 fdbc 1eb2 65bd e8b9 903c 6455 623d
000002a0: ec3b 05bd ca96 8e3c 7efa bcbd c722 36bd
000002b0: f8f9 76bd 6191 4e3c a75e df3c 1175 37bd
000002c0: 4558 76bd 4d76 48bd 3a5c 823d e368 4e3c
000002d0: 8f92 a33d debe 45bd 628c 093d d6f8 583d
000002e0: d91e b0bc 041d 65bc 5582 413d f891 ffbc
000002f0: 92e4 86bc 8ad5 7fbd 8089 cd3c 6253 713d
00000300: b0eb f13c 1541 92bd 5aa0 b33c 10cc 633c
00000310: 4b65 553d 7055 dab9 7568 68bd e82b 0d3c
00000320: 42d3 303d 258d 48b9 48a6 0cbd 07c9 3e3d
00000330: 489f 243c 7518 68bd 88b2 453d 4287 563b
00000340: 2df8 f23a ae84 e5ba b9df bcbd 63bc f93c
00000350: 280c a6bc 1666 e63b 3397 283d 8ff7 353d
00000360: 5bfe 3b3d 303d 2b3b f08c 1abd 256e 893d
00000370: 2a89 c13d 441a efbc 1fdd 973d 01b7 ad3d
00000380: 6b6c 83bd 80e4 2bbd 5469 abbd 6122 1d3d
00000390: 6713 4a3d 43b7 263d e07a f43b c906 05bd
000003a0: 8e79 c73c 323f 49bd 359f 49bd 2e4f 3dbc
000003b0: 5863 673d fdd4 a43c 239f 7b3d 111e b83c
000003c0: c9dd c63c 031e e43c f4bf 983d 601c bb3d
000003d0: 11bc 843d 6136 e93c c023 3bbd c153 a7bd
000003e0: 692a b0bd 7198 a63d 07b7 a33c 8aeb 7ebb
000003f0: e966 f83c dd30 d53c 3cb7 2ebd b1a8 a63b
0.019564671 0.02693584 -0.07728374 -0.05647364 -0.07311161 0.0070407414 0.017706988 -0.05102178
-0.08052603 0.010508336 0.021376504 0.030061517 -0.08312389 -0.07692655 0.068039514 -0.08607911
0.045194525 -0.0094035985 0.007533832 0.049062144 0.0678661 0.048522037 0.05392734 0.03091514
-0.035945885 0.03642494 0.0633243 0.036115568 0.03749496 0.022148825 0.060491234 -0.072423816
0.07747398 0.050296202 -0.059804514 0.033787776 0.01925121 0.090058714 0.01502373 -0.016692026
0.045548994 0.09060419 -0.0768781 0.069358215 0.054269437 0.040901925 -0.068752445 -0.078090675
0.033514917 0.08483667 -0.041160505 0.03365053 -0.057206314 -0.06004958 0.0240033 0.06946982
0.050503984 0.09240838 -0.025947642 0.08342212 -0.016076835 0.025406856 -0.028589536 0.014399331
0.056958962 0.07240224 0.03033958 -0.07391312 0.010096879 -0.014883676 0.025310049 -0.07118786
-0.041688133 0.033327643 -0.05221112 -0.009522143 -0.0009781764 -0.0133177005 -0.030652272 0.024987191
0.025090637 -0.0617274 -0.0070535704 0.005001546 0.014050822 0.012366065 0.072056174 0.011087935
0.024632914 0.007909795 -0.05700085 -0.050429042 0.055655815 0.008906641 0.0153599875 0.020710584
-0.0072359266 -0.030994644 -0.037057884 -0.07160899 0.042344004 -0.085767895 -0.05601331 -0.079110764
-0.024598308 0.066724725 0.053667873 -0.02376554 0.06954687 -0.0007652827 -0.015048098 -0.08491449
0.022307226 0.06567182 0.03476869 0.019904308 0.036682446 0.047274835 -0.071357176 -0.025572985
0.054826777 -0.089741476 -0.0774223 -0.013961721 0.0716846 0.060113635 -0.02334564 0.05283653
-0.03285515 -0.009667822 0.07986954 -0.07712097 -0.040563837 -0.042029668 0.08972764 0.06286992
-0.011972961 0.06873893 0.07043448 0.05384047 0.0006778124 -0.070588715 0.012757128 -0.07056493
0.080662794 -0.0061743166 0.00076335465 -0.07497364 -0.019612106 -0.061962146 0.07516195 -0.072407216
-0.002759484 0.053786088 0.02214495 0.0068249246 0.06632446 -0.036917854 0.003163776 -0.012623179
0.015685057 0.055115487 0.08641046 -0.047420952 -0.030940678 -0.05607807 0.017666772 0.055257216
-0.03252785 0.017405886 -0.09227465 -0.04446676 -0.060296983 0.012607903 0.027266813 -0.044789378
-0.060142774 -0.048940945 0.06365247 0.012598249 0.07986938 -0.04827773 0.033581145 0.052971683
-0.021499084 -0.013983969 0.047243435 -0.031197533 -0.016466413 -0.062459506 0.02508998 0.05891741
0.02953133 -0.0714132 0.021927048 0.013903633 0.052098554 -0.00041643856 -0.056740243 0.008616425
0.04317022 -0.00019126067 -0.034338266 0.046578433 0.010047741 -0.05666395 0.048265964 0.0032734429
0.0018537097 -0.0017510855 -0.09222359 0.030485338 -0.020269468 0.0070312126 0.04115982 0.044425543
0.04589687 0.0026129 -0.037732065 0.067104615 0.0944999 -0.02918733 0.074152224 0.08482171
-0.064171635 -0.04196596 -0.08369699 0.038362864 0.04933491 0.040702116 0.007460937 -0.032477174
0.024349954 -0.049132533 -0.049224097 -0.011554522 0.056491226 0.020121092 0.06143106 0.022475274
0.024275677 0.027846342 0.07458487 0.091362715 0.06481183 0.028468313 -0.04568839 -0.08170272
-0.08601839 0.08134545 0.019984735 -0.0038897716 0.030322509 0.026024276 -0.042655215 0.0050860276

deconv3.0.bias f4 [8]
00000000: 1f3c a4bd 46dc 9e3d ed3b 6bbd 7528 503d
00000010: 35d1 e53c 43a0 783d e086 e53c ac5c 803d
-0.0801928 0.077568576 -0.057430197 0.050819833 0.02805386 0.060699712 0.028018415 0.06267676

deconv3.1.weight f4 [8]
00000000: 98fb 803f 9a75 813f b791 813f 9586 813f
00000010: ce69 813f 92dd 7d3f 48a9 7e3f cd5c 813f
1.007678 1.0114014 1.0122594 1.0119196 1.0110414 0.99166214 0.9947705 1.0106446

deconv3.1.bias f4 [8]
00000000: 2d7d 183c d4b9 373c 5f06 453c 432c 3f3c
00000010: aefe 2f3c 39f5 07bc 4174 97bb dbcd 293c
0.009307188 0.0112137385 0.012025445 0.011668268 0.010741873 -0.008298212 -0.004622013 0.010364021

deconv3.1.running_mean f4 [8]
00000000: 9c8e 20be ce5d 843d 6f77 5abd cf76 5f3d
00000010: d970 5e3d c636 d63d adc7 c0bd 4d64 583e
-0.15679401 0.06463204 -0.053336557 0.054556664 0.05430684 0.10459666 -0.09413085 0.21132012

deconv3.1.running_var f4 [8]
00000000: 7458 d93e d24b d13e 919d d83e b508 cb3e
00000010: 8361 c93e ba52 cd3e d1f1 ca3e c8ed ca3e
0.42450297 0.4087816 0.42307714 0.3965508 0.39332208 0.40102178 0.39637616 0.39634538

deconv4.0.weight f4 [8, 3, 4, 4]
00000000: 972d cfbd 4bc2 8c3d c582 b33d 8b42 4a3d
00000010: 2607 d5bd f99a 54bb 93dc f93c f929 b5bd
00000020: a866 6dbd 605e 163e 121b 553d 5ead e3bd
00000030: 966e 06be a35c 88bd 3d1f 0d3e 4335 d5bd
00000040: 346f 03be a3b3 12be 811e 97bd 709f ca3d
00000050: 515d 5b3d 0ef1 13bc 53ff efbd 4ccd 053e
00000060: d7dc ed3c 9a32 c2bd ef71 593c a11b e53d
00000070: 46ba 7a3d f495 2b3d 1e77 01be 147e 613d
00000080: dc59 843d d47d 093d 192b 75bc d465 21bd
00000090: 0d03 ebbb b4bf 5bbb 0e2d 0abe 048d 703d
000000a0: 468c ecbd 8d87 293c 4cba 12be 4506 53bc
000000b0: af71 16bd 4459 dbbd 756e b83d 1694 9cbd
000000c0: 45f9 0e3e 1dba 05be e71b b5bd e5d9 01be
000000d0: 6cff 17bd 339e dabd 0f0b 843d 56d6 babc
000000e0: 2a16 fabd ba5f fb3d 61f3 9c3d c6e7 043e
000000f0: 7714 103e d9b5 553b 48fc 93bd 92a6 08be
00000100: 2d8b 18bd 2a2d 04be a1f5 dd3d ba25 0ebe
00000110: 30fd ce3d 5b14 9b3d d860 c13c bfcf 0ebd
00000120: 03c5 09be 85e0 afbd d639 b6bd ba57 523c
00000130: d9a2 083e 73b0 00bd a892 c6bc 9140 76bc
00000140: fbcb c4bc c58a e03c 7135 81bd 11ee 0ebd
00000150: 4046 4c3c 6367 77bd 6f1c 15be dd0f 13be
00000160: 0b82 ff3c 624c 673d 0a4f 0bbe 0418 34bd
00000170: b599 71bd 7224 bebd 4a6e bdbc 14e8 3f3d
00000180: e4ce 53bd edd4 53bd 17c1 923c 7f31 d43d
00000190: af9e d63d 4ecf 8c3d 142f f93d ff6f 983d
000001a0: 90e4 3abd f266 02bc fc92 083e 4b6b 18bc
000001b0: d8fa a9bd 30c3 54bb d5df 1d3d e5a9 c9bd
000001c0: cfe3 1abe 5f14 17bd 0faa c2bd 585c 103d
000001d0: c0d6 e23d 0dec ed3c 7600 08bd 4883 6abc
000001e0: 80fe d9bd bfc5 18be a6e3 e83d d809 e93c
000001f0: a87a 11bd 24dd 3dbd d352 b83d dfa3 19be
00000200: b599 673d 620b d5bd 7270 163d 90db 2d3d
00000210: 5029 6cbc 185c b43c 6084 00be fc85 0fbe
00000220: b4d6 c43c 863c 8e3d 4010 0f3c 49ed 793c
00000230: 0eb2 d73c 0147 ff3d 7061 3f3d 485c 22bd
00000240: 24a0 1d3e 8b14 493c 2ca9 b6bc 15cf 5d3d
00000250: 83dd 51bc c981 73bb 2a2c 56bd fd59 bfbd
00000260: 7bbc 703d 3a86 eb3d b04f c7bc b2fd 5a3d
00000270: 0fec cb3d cb1e 23bd 111d 36bd 1611 dbbd
00000280: 4dd1 63bd d2fe 4fbd e3c0 95bd 50a5 4fbd
00000290: 025c 2c3d 2fbe 83bd f749 bc3d 76cd 573c
000002a0: 51ec 33bd b950 cd3a 6f13 cc3d 8e7c 7f3d
000002b0: bd51 10be 5cf9 9d3d 2270 41bc 6708 16bd
000002c0: c759 06be ab17 43bd 0f7f 06be 6445 cbbd
000002d0: ccb7 0bbc 4e88 b93d f17e 3cbd 603d ec3c
000002e0: e097 91bb c86a 17be 86c8 f13d 5d55 d53d
000002f0: d2af 03be 18e6 973d d16c 453d 6298 17be
00000300: 70ed 103e 91dd f23d e459 103e e7a2 8fbc
00000310: f8a7 933d 1bf4 453c 91d0 4bbd ecdd e83c
00000320: 03ba 203d cdcb 91bd 6825 e1bd 2b57 f63d
00000330: 006d 133e b120 113e 67bd 8bbc 09bf bbbc
00000340: 3629 c4bd 4119 373c 1123 043e 378d 01be
00000350: 4a72 cebd 663d 15be 42fe 503d 0dda bebd
00000360: 6254 97bd 0e92 c03d 269e 6b3c 8a81 983d
00000370: 55bb 8f3d 8ba1 10be 85ea bfbd bfa1 66bd
00000380: a67f ce3c 69f4 02be b983 90bd 1f13 4fbd
00000390: 978f a03d 43b2 dabd 3561 9e3c 5f02 b0bd
000003a0: b70b 0abe 47d0 783d 3ca8 d53d c6a5 70bd
000003b0: b481 5c3d 0086 9dbc d7d8 f93c 206c a1bb
000003c0: 5ffa fd3d c474 c43d 4782 693a 8d1f 153e
000003d0: 2351 5abc b28b 303c c5a2 123c f042 efbd
000003e0: 87d1 d3bd 71a1 a1bd c69a 8abb 8ef5 a53d
000003f0: 6f27 e43d 6ec5 ad3d f35b d8bd d288 dabd
-0.101161174 0.06872996 0.08765177 0.049379867 -0.10401754 -0.0032441004 0.030500686 -0.08845896
-0.05795923 0.14684439 0.05202777 -0.111170515 -0.13128123 -0.06658294 0.13781448 -0.104105495
-0.1283539 -0.14326338 -0.07378865 0.098936915 0.05355579 -0.00902964 -0.11718621 0.13066596
0.029035969 -0.09482308 0.013271793 0.111869104 0.0612128 0.041891053 -0.12643096 0.055051878
0.06462452 0.033567265 -0.014963889 -0.03940375 -0.0071719945 -0.0033531012 -0.1349375 0.058728233
-0.115501925 0.010347259 -0.14328879 -0.012879913 -0.03672951 -0.107103854 0.09005443 -0.07645433
0.13962276 -0.13059278 -0.088432126 -0.12680776 -0.037108824 -0.10674705 0.06447422 -0.022807281
-0.12211259 0.12274118 0.07663608 0.1297904 0.14070307 0.003260961 -0.07225853 -0.13344792
-0.037242103 -0.12907854 0.108378656 -0.13881579 0.101068854 0.07572242 0.023605749 -0.03486609
-0.1345406 -0.085877456 -0.0889775 0.012838298 0.13343371 -0.031418275 -0.024239853 -0.015030042
-0.024023047 0.02740992 -0.06309021 -0.034895007 0.012467921 -0.06040133 -0.14561628 -0.1436152
0.031189939 0.05646933 -0.1360437 -0.043968216 -0.058984477 -0.09284295 -0.023123879 0.046852186
-0.05171098 -0.051716734 0.017914338 0.10361003 0.10479485 0.06875478 0.121671826 0.074432366
-0.04562813 -0.007959114 0.1333732 -0.009302924 -0.08299798 -0.0032464974 0.03854354 -0.09846858
-0.15125965 -0.03688466 -0.09505092 0.035244316 0.110761166 0.029043222 -0.033203565 -0.014313526
-0.10644245 -0.14919184 0.113715455 0.028447077 -0.035517365 -0.046353474 0.090001725 -0.15003918
0.05654307 -0.10402562 0.03672833 0.04244572 -0.014414147 0.02201657 -0.12550497 -0.14015955
0.02402816 0.06945138 0.008731902 0.015254327 0.02633002 0.12464715 0.046723783 -0.039638788
0.1539312 0.012272964 -0.022297464 0.054152567 -0.01280916 -0.0037156215 -0.052288212 -0.09343336
0.0587735 0.11500211 -0.02432999 0.0534646 0.09957134 -0.03982429 -0.044461314 -0.10696618
-0.055619527 -0.050780125 -0.07312181 -0.050694764 0.042079933 -0.06432759 0.09193795 0.013171544
-0.04392654 0.0015664316 0.09964644 0.062374644 -0.1409368 0.07713577 -0.01180652 -0.036629107
-0.13120185 -0.047629993 -0.13134407 -0.099253446 -0.008527707 0.09059201 -0.0460195 0.02883786
-0.0044431537 -0.14786828 0.11805825 0.104166724 -0.12860039 0.07416934 0.04819948 -0.14804223
0.14153075 0.11858667 0.1409679 -0.017533733 0.07209772 0.012082125 -0.04975945 0.028426133
0.039239895 -0.0711895 -0.10993463 0.12028345 0.14397049 0.14172627 -0.017058088 -0.022918241
-0.09578173 0.011175455 0.12904002 -0.12651525 -0.10080393 -0.14574203 0.05102373 -0.09318934
-0.073891416 0.09402858 0.014380967 0.074465826 0.070181526 -0.14124124 -0.09370903 -0.056306597
0.025207352 -0.12788548 -0.07056374 -0.050555345 0.078398876 -0.10678532 0.019333461 -0.08594202
-0.13481031 0.060745504 0.10432479 -0.058751844 0.053834632 -0.019228935 0.030498905 -0.0049262196
0.1240127 0.09592584 0.00089076575 0.14562817 -0.013325009 0.010775493 0.00894994 -0.11682689
-0.103426985 -0.07892121 -0.004229876 0.081034765 0.11140334 0.08484922 -0.10564413 -0.10670628

deconv4.0.bias f4 [3]
00000000: aff9 ccbd 7c99 e43d 6ff4 253d
-0.10008561 0.11162087 0.040516313
