03_hw/Pix2Pix/checkpoints/pix2pix_model_epoch_770.pth (torch, 99191 bytes, 32 tensors)

conv1.0.weight f4 [8, 3, 4, 4]
0	0xbdc9d5d6	-0.09855239
1	0xbde91cb5	-0.113824286
2	0xbd591939	-0.05300257
3	0xbe3c04ac	-0.18361157
4	0x3d765427	0.060138848
5	0xbdcbf397	-0.099585705
6	0xbca92803	-0.020648962
7	0x3d7575cf	0.059926804
8	0xbe111cd7	-0.14171158
9	0xbd3a37e4	-0.045463458
10	0xbba4b71a	-0.00502671
11	0x3d250c72	0.040295072
12	0xbcc6a4d6	-0.024248522
13	0x3d93a2f2	0.07208814
14	0x3d8fa377	0.070136
15	0xbe0be4a7	-0.13661443
16	0x3e0a1bf9	0.13487233
17	0x3e4091e3	0.18805651
18	0x3d61a305	0.05508711
19	0xbbac5672	-0.0052593285
20	0x3d16168e	0.036642604
21	0xbcbe4699	-0.023227023
22	0xbd9ee54e	-0.0775858
23	0x3d4a64df	0.049412604
24	0x3df47ced	0.1193789
25	0x3d5c94f4	0.05385299
26	0x3d20b1c6	0.039232038
27	0xbd22b817	-0.039726343
28	0xbd9993ba	-0.0749888
29	0x3cea8990	0.028630048
30	0xbd84410d	-0.0645772
31	0x3e2added	0.1668622
32	0xbdd55fb0	-0.104186416
33	0x3d1f6a56	0.03891977
34	0xbe1897ef	-0.14901708
35	0x3d59617f	0.053071495
36	0xbde1b6c3	-0.11021187
37	0xbdd8e6f1	-0.105909236
38	0xbbddaaca	-0.0067647444
39	0xbdf928ef	-0.121660106
40	0x3cd25eb2	0.02567992
41	0xbcc86667	-0.024462892
42	0xbb31997c	-0.002709954
43	0xbd163096	-0.03666743
44	0xbd410748	-0.047126085
45	0x3d30fd7b	0.043210488
46	0x3d944167	0.07239037
47	0x3d3c8fc5	0.046035547
48	0xbd8f0e1e	-0.069851145
49	0x3d8ddd3d	0.069269635
50	0xbc990fb2	-0.018684242
51	0xbc957f6f	-0.018249242
52	0xbb746844	-0.0037293592
53	0x3de8a88e	0.11360274
54	0x3d0bda25	0.034143586
55	0xbc3d46f6	-0.011552563
56	0x3e159269	0.14606632
57	0x3db423a4	0.087958604
58	0xbdcbb453	-0.099465035
59	0xbd9553ff	-0.072914116
60	0x3d0e7e3f	0.034788366
61	0x3e024468	0.12721407
62	0xbcf3829f	-0.02972537
63	0xbcb5958d	-0.022166038
64	0xbb29e6b2	-0.0025924859
65	0x3e09dbf7	0.13462816
66	0x3c34985f	0.011022656
67	0xbdac7d36	-0.084223196
68	0xbd39bbf6	-0.04534527
69	0xbd9d3724	-0.07676533
70	0x3d1a7f1d	0.03771888
71	0xbd08295f	-0.03324258
72	0x3cfcf9b0	0.030880779
73	0xbc0d71f6	-0.008633127
74	0x3d180a2e	0.037119083
75	0xbe034710	-0.12820077
76	0x3d7db3d8	0.06193909
77	0xbce19b01	-0.027539732
78	0x3d767c4a	0.060177125
79	0x3dbbec03	0.09175875
80	0x3b185fd8	0.0023250487
81	0xbd80a88d	-0.062821485
82	0x3d463303	0.048388492
83	0xbe043cc2	-0.12913802
84	0xbd6611d7	-0.056169357
85	0x3daad48f	0.083413236
86	0xbd94b87b	-0.07261749
87	0x3d866c94	0.065636784
88	0xbbb40cd0	-0.0054946914
89	0xbb8c5c74	-0.004283482
90	0xbc8ff3a0	-0.017572224
91	0x3b9a2026	0.0047035394
92	0xbd80bd64	-0.062861234
93	0xbdbeba5b	-0.09312888
94	0xbced16da	-0.02894156
95	0xbdc5f7c7	-0.096664004
96	0xbe078ee5	-0.13238104
97	0x3d612eb0	0.054976165
98	0x3c633ac2	0.013868989
99	0xbd6753b0	-0.056476295
100	0x3c3a0180	0.011352897
101	0xbcca6d6b	-0.024710378
102	0x3d84d2c1	0.064855106
103	0x3e0dd1cd	0.13849564
104	0xbd9fa1bb	-0.077945195
105	0x3d3b2f2f	0.045699295
106	0xbde544ad	-0.111947395
107	0xbd4dcb68	-0.05024281
108	0x3e1e977b	0.15487473
109	0x3d0df9bc	0.034661993
110	0x3d28a422	0.041172154
111	0xbd5c9a8c	-0.053858325
112	0xbd6d8889	-0.05799154
113	0x3afacf67	0.0019135297
114	0x3dcf4af8	0.10121721
115	0xbde6d363	-0.112707876
116	0x3e026068	0.12732089
117	0xbd063a3a	-0.032770373
118	0x3c742b7a	0.014902944
119	0x3e04d419	0.12971534
120	0x3cffcfe1	0.031227054
121	0x3d9753d4	0.07389036
122	0xbdbda4c6	-0.09259944
123	0xbddb4a43	-0.10707524
124	0x3d23b2a2	0.03996528
125	0x3cf5ba23	0.029995983
126	0xbbacaadd	-0.005269392
127	0x3df27da9	0.11840374
128	0xbdcf9180	-0.10135174
129	0x3dc28660	0.09498286
130	0xbc6e8c77	-0.014559857
131	0x3d19cb75	0.037547547
132	0x3c83aebb	0.016074529
133	0x3d86c9e1	0.06581474
134	0x3dc3be16	0.095577404
135	0xbc69512e	-0.014240546
136	0x3d9fc521	0.07801271
137	0x3e3007dc	0.17190498
138	0x3df8d771	0.12150467
139	0x3d9a81b0	0.07544267
140	0xbdb5c74a	-0.08875902
141	0x3cc6342f	0.024194805
142	0x3dccacd7	0.09993904
143	0x3dee4618	0.11634463
144	0x3d76b11a	0.06022749
145	0x3deb1815	0.11479203
146	0x3e317e54	0.17333347
147	0x3d48a863	0.04898871
148	0x3b983d1a	0.0046459557
149	0xbd4f6a1f	-0.050638314
150	0xb9d51942	-0.00040645344
151	0xbd51f811	-0.051261965
152	0x3d1d8605	0.03845789
153	0xbd8a6774	-0.06758013
154	0x3e124e54	0.14287692
155	0xbd716588	-0.05893472
156	0x3d5964b5	0.053074557
157	0x3de651f1	0.11246098
158	0x3dcf1dcf	0.101131074
159	0xbe229ec9	-0.15880884
160	0xbddf209e	-0.10894893
161	0x3db52d39	0.08846516
162	0x3e20115f	0.15631627
163	0x3cd360ef	0.025803057
164	0x3d8c1313	0.068395756
165	0x3dc999b6	0.09843771
166	0x3ae3f5d0	0.0017391983
167	0xbd1d8ad1	-0.038462464
168	0xbdbc421f	-0.09192299
169	0xbdb33f3e	-0.08752297
170	0x3d8ca8be	0.068681225
171	0x3dcde0c8	0.10052639
172	0xbdae27ad	-0.08503661
173	0xbd678e8e	-0.056532435
174	0xbc66b921	-0.014082224
175	0xbdac0cee	-0.08400904
176	0x3da0e27f	0.07855701
177	0xbe34180a	-0.17587295
178	0x3c8a8928	0.016911104
179	0x3d012814	0.031532362
180	0xbd67a659	-0.056555126
181	0xbde7c0c7	-0.11316066
182	0xbd2e83cf	-0.04260617
183	0x3c9c5c07	0.01908685
184	0xbdede7f0	-0.11616504
185	0x3ddbed94	0.10738674
186	0xbda34941	-0.079729564
187	0x3de28507	0.11060529
188	0xbd6db389	-0.058032546
189	0xbd2d4fc1	-0.042312387
190	0xbde172fe	-0.11008261
191	0x3e0412a3	0.12897734
192	0xbdbf8a39	-0.09352536
193	0xbe0dfae0	-0.13865232
194	0x3d1eb967	0.038751032
195	0x3d4cbe1d	0.049985994
196	0x3e08f5a7	0.13374959
197	0xbc67aa74	-0.01413976
198	0x39ec24a1	0.00045040718
199	0xbe0f3573	-0.13985233
200	0x3dc1c926	0.09462194
201	0xbd931409	-0.07181556
202	0x3df272df	0.11838316
203	0x3d69daca	0.05709342
204	0x3d406ecf	0.046980675
205	0xbe2dc031	-0.16967846
206	0xbdb31e0b	-0.087459646
207	0xbc5e5bda	-0.013571704
208	0xbce6b783	-0.028163677
209	0x3d78c1f0	0.06073183
210	0x3d16e07b	0.036835175
211	0x3dbf9cb1	0.093560584
212	0xbdc61dd6	-0.096736595
213	0xbd9f777c	-0.07786462
214	0xbbb17e25	-0.005416649
215	0x3d9d5742	0.07682659
216	0xbd0b4506	-0.034001373
217	0xbe0322e5	-0.1280628
218	0xbe4843e5	-0.1955715
219	0xbe6cf512	-0.23140362
220	0xbde417f2	-0.1113738
221	0xbcaae6a9	-0.02086194
222	0xbe4b4898	-0.19851911
223	0x3cf70f8c	0.03015878
224	0x3de14be9	0.11000807
225	0x3c99ab58	0.01875846
226	0x3d7b2e92	0.06132371
227	0xbdd4e40a	-0.103950575
228	0x3d960148	0.07324463
229	0xbd6f0aec	-0.058360025
230	0x3dc06fa9	0.093962975
231	0xbd9c5e02	-0.07635118
232	0xbd6519c8	-0.05593279
233	0x3dc1678d	0.09443579
234	0xbd5581b9	-0.052125666
235	0x3d836f3c	0.06417701
236	0x3dc952a9	0.09830219
237	0x3cf97ff0	0.030456513
238	0xbbcbd077	-0.0062199193
239	0xbd6efe2f	-0.058347877
240	0x3d1e3299	0.038622472
241	0xbdec3d9f	-0.11535191
242	0xbd8bb7a9	-0.0682214
243	0xbd274cba	-0.040844657
244	0xbd6a53d6	-0.05720886
245	0xbdc52593	-0.09626307
246	0x3df32c34	0.118736655
247	0xbb46193d	-0.0030227446
248	0x3dcea34b	0.100897394
249	0x3c7b5b03	0.015341523
250	0x3dc12d0b	0.094324194
251	0xbde953bf	-0.113929264
252	0xbd1c125a	-0.03810344
253	0x3ddca546	0.10773711
254	0x3e01147a	0.12605467
255	0x3d5ca5fc	0.053869233

conv1.0.bias f4 [8]
0	0x3e088f1f	0.13335846
1	0x3b926fdc	0.004468901
2	0xbd0f4e49	-0.034986768
3	0x3dfeb7e9	0.12437422
4	0x3d91c8a3	0.071183465
5	0x3dce5531	0.10074843
6	0xbdde95b7	-0.108683996
7	0xbc41ccd7	-0.011828623

conv1.1.weight f4 [8]
0	0x3f80d115	1.0063807
1	0x3f7bcfa7	0.9836373
2	0x3f7fd71d	0.9993761
3	0x3f747326	0.954882
4	0x3f80e147	1.0068749
5	0x3f72616e	0.94679916
6	0x3f82acd8	1.0208998
7	0x3f86f85f	1.0544547

conv1.1.bias f4 [8]
0	0xbb4b70f5	-0.003104267
1	0xbd29a0fd	-0.041413296
2	0xbd0477cf	-0.03234082
3	0xbc2d3328	-0.010571279
4	0xbb6966f4	-0.0035614343
5	0x3da085fe	0.07838057
6	0xbd355684	-0.04427196
7	0x3dd6d510	0.10489857

conv1.1.running_mean f4 [8]
0	0x3e4bbbf7	0.19895922
1	0xbce69fec	-0.028152429
2	0xbdd08097	-0.101807766
3	0x3d6cea0f	0.057840403
4	0x3e2ec155	0.17065938
5	0x3da0ab88	0.07845217
6	0xbdeb2842	-0.11482288
7	0xbc384e0c	-0.011249077

conv1.1.running_var f4 [8]
0	0x3d40fba6	0.04711499
1	0x3c68080e	0.014162077
2	0x3e80a9d5	0.25129572
3	0x3cd0e610	0.025500327
4	0x3e0735e1	0.13204147
5	0x3d089813	0.033348154
6	0x3ca3ab72	0.019979212
7	0x3cf764d2	0.030199442

conv2.0.weight f4 [16, 8, 4, 4]
0	0x3d887cad	0.06664405
1	0x3dc34891	0.09535325
2	0x3cf63b48	0.030057564
3	0x3d362b0b	0.044474643
4	0xbda54252	-0.0806929
5	0x3d960468	0.07325059
6	0xbd3dfc6f	-0.046383318
7	0x3d918d56	0.07107036
8	0xbd9b9288	-0.07596308
9	0x3d8f354f	0.0699259
10	0x3d525e33	0.051359367
11	0x3c963a16	0.018338244
12	0xbcea0fe8	-0.028572038
13	0xbdd0aff5	-0.10189811
14	0xbdd133e0	-0.102149725
15	0x3c8f9c91	0.017530711
16	0xbc8a9775	-0.016917923
17	0x3dd38c41	0.10329486
18	0x3d979bba	0.07402749
19	0xbca65287	-0.020303024
20	0x3d60fbdb	0.054927688
21	0xbd84b6fa	-0.064802125
22	0x3cbf890f	0.023380784
23	0xbcb9e0b4	-0.022690155
24	0x3cf20bc9	0.029546635
25	0x3c05be84	0.008163098
26	0xbd576ef7	-0.05259606
27	0x3cac93cf	0.021066574
28	0x3d1c8a54	0.038217857
29	0x3ce209b9	0.027592527
30	0xbccffdec	-0.025389634
31	0xbdb5edcf	-0.08883249
32	0xbd2e7ae7	-0.042597678
33	0x3c8d1eb2	0.01722655
34	0x3d2861ea	0.041109003
35	0xbd21ca53	-0.039499592
36	0xbdb32eca	-0.08749159
37	0xbc9f90b7	-0.019478185
38	0xbc2c2d6d	-0.010508877
39	0x3d472432	0.048618503
40	0xbd1ca38b	-0.038241904
41	0xbd90506a	-0.07046588
42	0xbc4c0b97	-0.012453935
43	0xbcd2dfd0	-0.025741488
44	0xbddba0d5	-0.10724036
45	0xbdbeb5fd	-0.09312055
46	0xbd9d27ee	-0.076736316
47	0xbdc46003	-0.09588625
48	0x3d241c39	0.040065978
49	0xbcd6458b	-0.026156208
50	0x3ce33679	0.027735936
51	0x3c7f13b5	0.015568663
52	0x3c83ed68	0.016104415
53	0x3cd5ba9d	0.02608996
54	0xbd7ffe1e	-0.062498204
55	0xbd471036	-0.048599444
56	0x3a7adbb3	0.0009569481
57	0xbd02c5d0	-0.03192693
58	0x3c229cd7	0.009925089
59	0xbb2d158c	-0.0026410548
60	0x3db8ce7a	0.09023757
61	0xbc9ae7e9	-0.018909412
62	0x3c01ff41	0.007934392
63	0x39f29aae	0.00046273082
64	0x3d73449a	0.059391595
65	0xbce1eb0c	-0.0275779
66	0x3b5c69c9	0.0033632389
67	0x3d34a7a1	0.044105176
68	0x3d2568a7	0.040383007
69	0x3b80e62b	0.003933688
70	0x3dcf0520	0.101083994
71	0xbc2145c2	-0.009843292
72	0x3d5cec9c	0.053936586
73	0xbd0ad371	-0.033893052
74	0x3da9cbc3	0.082908176
75	0x3d490e15	0.049085695
76	0xbd9e13fa	-0.07718654
77	0xbcc0a0ce	-0.023514178
78	0xbd55c274	-0.052187398
79	0xbd1c984d	-0.038231183
80	0xbda9e08e	-0.082947835
81	0xbdc8a604	-0.0979729
82	0x3bd2953e	0.0064264825
83	0x3ad2ee7c	0.0016092802
84	0xbbda0d62	-0.0066544274
85	0xbcb4c70c	-0.02206757
86	0x3d34f147	0.044175413
87	0x3bf92542	0.0076033184
88	0x3b59778b	0.0033182825
89	0x3d8843fa	0.066535905
90	0x3d41708a	0.047226466
91	0x3d8ef2a4	0.06979874
92	0xbbe1ebc5	-0.006894561
93	0x3be8ce61	0.0071046804
94	0xbd880e5d	-0.066433646
95	0x3c3a82be	0.01138371
96	0x3d898526	0.06714849
97	0x3b27f496	0.0025627962
98	0x3db7bdfd	0.08971784
99	0x3d44323c	0.04789947
100	0x3d96bff6	0.073608324
101	0x3d2642b8	0.04059097
102	0x3cd63282	0.02614713
103	0x3d647612	0.055776663
104	0xbc7580b3	-0.014984298
105	0x3cf4e51a	0.0298944
106	0xbc251870	-0.010076627
107	0x3d64ba07	0.055841472
108	0xbb0ae41a	-0.0021193088
109	0x3dc08630	0.09400594
110	0x3ce6434f	0.028108267
111	0x3dc29045	0.095001735
112	0x3b55d74b	0.0032629545
113	0x3c708353	0.014679748
114	0xbd032e69	-0.032026682
115	0x3bb0fefc	0.0054014903
116	0xbd03f0c1	-0.032212023
117	0xbbf47d2b	-0.0074612102
118	0xbcef06b9	-0.02917801
119	0xbcba005a	-0.022705246
120	0x3d996e2f	0.07491719
121	0x3ca4b6a0	0.020106614
122	0x3d4ad2d7	0.04951748
123	0x3d448c75	0.047985513
124	0x3d57e481	0.052708153
125	0xbc309024	-0.010776553
126	0x3d443024	0.047897473
127	0xbd0411ce	-0.032243542
128	0x3cd23b77	0.02566312
129	0x3bc08e1a	0.005876315
130	0xbd0374ab	-0.032093685
131	0xbd78165e	-0.060568206
132	0xbd3d8c19	-0.046276186
133	0xbd954bb3	-0.07289829
134	0xbd1750d9	-0.036942337
135	0x3d9a8cb4	0.07546368
136	0x3d50e55e	0.05099999
137	0x3a2f034e	0.00066762127
138	0xbbfd0f0a	-0.00772274
139	0x3d9208f5	0.07130615
140	0xbd5c8fa7	-0.053847935
141	0xbbc74ce2	-0.006082163
142	0x3dc0bfed	0.09411607
143	0xbd4fa238	-0.050691813
144	0x3ca3760d	0.019953752
145	0x3d134b6a	0.035960592
146	0xbd5a018c	-0.05322413
147	0xbd93a4d5	-0.072091736
148	0xbdbdfc16	-0.09276597
149	0xbd57a45d	-0.052646983
150	0xbdaecb10	-0.08534825
151	0xbd01b5c4	-0.031667486
152	0x3c0e242b	0.008675615
153	0xbd549e11	-0.051908556
154	0x3d74b2a0	0.059740663
155	0x3cf55475	0.029947499
156	0x38dbf7eb	0.00010488912
157	0xbcfc094c	-0.030766152
158	0x3da9ae9e	0.08285259
159	0x3dede2c1	0.116155155
160	0xbdd55573	-0.10416689
161	0xbcfa7a93	-0.030576026
162	0x3d8705e8	0.065929234
163	0xbc94fa3d	-0.01818573
164	0x3d816520	0.06318116
165	0x3d0d400e	0.034484915
166	0x3d35489a	0.04425869
167	0xbd739fbf	-0.059478518
168	0x3c92b4bf	0.017908452
169	0xbc342863	-0.010995957
170	0xbdac4e95	-0.08413426
171	0x3d17aee2	0.037032016
172	0x3c60989b	0.013708259
173	0xbd5c0170	-0.05371231
174	0x3cac9923	0.021069115
175	0x3d812a40	0.06306887
176	0xbcd01dc4	-0.025404818
177	0xbd139e83	-0.03603984
178	0x3dcb6b4c	0.09932575
179	0xbbf13ab3	-0.007361734
180	0xbd638a88	-0.055552036
181	0xbd34975e	-0.044089667
182	0xbd596cc8	-0.053082258
183	0x3d405d77	0.046964135
184	0xbccc8e8a	-0.024970312
185	0xbd6fa1f6	-0.058504067
186	0xbda692e9	-0.0813349
187	0x3c9a2a13	0.01881889
188	0xbd9222c1	-0.07135535
189	0x3c3dfe12	0.01159622
190	0x3d25225b	0.040315967
191	0xbbe7369c	-0.0070560705
192	0xbcd08bc7	-0.025457276
193	0xbd801f15	-0.062559284
194	0xbb8f160a	-0.004366641
195	0x3b726dc8	0.0036991704
196	0xbc8f4b3d	-0.017491931
197	0x3d2faf65	0.04289188
198	0x3d0c5808	0.03426364
199	0xbd508e05	-0.05091669
200	0xbd78c318	-0.06073293
201	0xbd86d5b0	-0.065837264
202	0xbda03deb	-0.0782431
203	0x3d3d33bc	0.046191916
204	0xbbc52e84	-0.006017508
205	0xbcbbc707	-0.022922052
206	0x3dc61ad8	0.09673089
207	0xbd0e7573	-0.034779977
208	0xbcedd018	-0.02902989
209	0xbd1aa9b5	-0.0377595
210	0xbd978356	-0.07398097
211	0xbd52a5a0	-0.051427484
212	0x3d247e41	0.040159468
213	0xbd0e79bd	-0.034784067
214	0xbdbbb724	-0.09165791
215	0xbdefb869	-0.11705095
216	0x3c9faf8e	0.01949289
217	0xbd0f0327	-0.034915116
218	0xbce6d6ea	-0.02817865
219	0xbc43c276	-0.011948219
220	0x3c5db919	0.0135329
221	0xbd8ab098	-0.06771964
222	0xbd16811e	-0.03674423
223	0x3c7003f2	0.014649378
224	0x3c5acfc6	0.013355201
225	0xbbe9e8a7	-0.00713833
226	0xbd00e94a	-0.03147248
227	0x3d8b1bb5	0.06792394
228	0x3d471fe5	0.0486144
229	0xbd5484e9	-0.051884566
230	0xbd2b8711	-0.041876856
231	0x3cb22886	0.021747839
232	0xbda826ac	-0.08210501
233	0xbc58a9b9	-0.013224059
234	0xbe355e85	-0.17711838
235	0xbd77a18c	-0.060456797
236	0x3ab37893	0.001369255
237	0xbd9996e4	-0.07499483
238	0xbdabe4f9	-0.083932824
239	0x3cd7c21f	0.026337681
240	0x3cd56c73	0.02605269
241	0xbd74057a	-0.059575535
242	0x3b72cc72	0.0037048128
243	0xbc67b072	-0.014141189
244	0xbe2ef8fd	-0.17087169
245	0xbe0f7bd2	-0.14012077
246	0xbdba915e	-0.09109758
247	0x3c89682b	0.016773304
248	0xbcd14d4c	-0.025549553
249	0xbe568aab	-0.20951335
250	0xbdfa43a0	-0.1221993
251	0xbd963f40	-0.07336283
252	0x3a7110dd	0.0009195933
253	0xbc8b83f0	-0.017030686
254	0xbd998dbc	-0.07497737
255	0x3cca80cb	0.024719616

conv2.0.bias f4 [16]
0	0xbdb21e93	-0.08697238
1	0x3daa2fac	0.08309874
2	0x3d882420	0.06647515
3	0xbc452363	-0.012032363
4	0xbd0ff0f0	-0.035141885
5	0x3be3fea1	0.0069578444
6	0xbd136102	-0.035981186
7	0xbd6f017d	-0.05835103
8	0xbca7b864	-0.020473666
9	0x3d2c455f	0.042058345
10	0xbd7205a5	-0.059087414
11	0xbd079973	-0.033105325
12	0xbd328fb6	-0.043594085
13	0xbdad592a	-0.08464272
14	0x3d8ce3a7	0.06879359
15	0xbd93983c	-0.07206771

conv2.1.weight f4 [16]
0	0x3f78ca1c	0.97183394
1	0x3f8918f5	1.0710741
2	0x3f7b10ec	0.98072696
3	0x3f7b95a5	0.98275214
4	0x3f7d9455	0.9905446
5	0x3f7b8ed4	0.98264813
6	0x3f802433	1.0011047
7	0x3f8272c4	1.0191274
8	0x3f75db87	0.960381
9	0x3f803bbc	1.001823
10	0x3f8113b2	1.0084136
11	0x3f8134ce	1.009424
12	0x3f89f325	1.0777327
13	0x3f7e63ad	0.99370843
14	0x3f80485d	1.0022084
15	0x3f7f42f1	0.9971152

conv2.1.bias f4 [16]
0	0xbbbb578e	-0.0057172244
1	0xbbe3d5bd	-0.00695297
2	0x3c0a9faa	0.008460918
3	0xbda9778b	-0.08274754
4	0xbc4b76ff	-0.012418508
5	0xbd2bb05b	-0.041916233
6	0xbd10d7a2	-0.035361893
7	0xbd364de4	-0.044507876
8	0xbcdff5c5	-0.027338872
9	0x3cae9333	0.021310424
10	0x3c3f549b	0.011677886
11	0xbc2d667a	-0.010583514
12	0xbd328ebc	-0.043593153
13	0x3cb2e217	0.021836324
14	0x3caa048c	0.020754121
15	0xbb981620	-0.0046413094

conv2.1.running_mean f4 [16]
0	0x3d83648f	0.064156644
1	0xbf5046f0	-0.8135824
2	0xbe2e01be	-0.16992852
3	0x3f86d3c9	1.0533382
4	0xbe5cde65	-0.21569212
5	0xbe6e77ef	-0.23287939
6	0xba9da6e8	-0.0012027891
7	0x3d0d0648	0.03442982
8	0xbe123adf	-0.1428027
9	0xbf31369a	-0.6922394
10	0xbcdba9cd	-0.026814366
11	0x3f019a9c	0.5062654
12	0xbd5104a0	-0.0510298
13	0xbef458d7	-0.4772403
14	0x3d634839	0.0554888
15	0x3e18778b	0.14889352

conv2.1.running_var f4 [16]
0	0x3e90140f	0.28140303
1	0x3eb48c48	0.35263276
2	0x3efe0408	0.4961245
3	0x3ead8bc3	0.33895692
4	0x3e5c0575	0.21486457
5	0x3dffdb63	0.124930166
6	0x3d9bc6fe	0.07606314
7	0x3e319162	0.17340615
8	0x3ef6cf19	0.48204878
9	0x3ed91b9c	0.42403877
10	0x3e208d09	0.156788
11	0x3e5e540a	0.21711746
12	0x3ecb4f60	0.39708996
13	0x3e7c7885	0.2465535
14	0x3e6142de	0.21998164
15	0x3e86ffc4	0.2636701

conv3.0.weight f4 [32, 16, 4, 4]
0	0x3cb19865	0.021679113
1	0xbba6b67c	-0.005087672
2	0xbd5fca45	-0.05463626
3	0xbd85a285	-0.06525139
4	0xbd520f7f	-0.05128431
5	0xbad77721	-0.0016438701
6	0x3ab3c93d	0.001371659
7	0xbc89b758	-0.016811058
8	0xbd299bc0	-0.0414083
9	0xbc830ab9	-0.015996324
10	0xbb3c721e	-0.0028754543
11	0xbd3de61d	-0.04636203
12	0xbd1a5bca	-0.037685193
13	0x3cea92e9	0.028634505
14	0x3cd95948	0.02653183
15	0x3c41fdd4	0.0118403025
16	0xbdaafccc	-0.083489984
17	0xbd133387	-0.035937812
18	0xbc463a8a	-0.012098918
19	0xbb876660	-0.004132077
20	0xbcc03741	-0.023463847
21	0xbcf70ac5	-0.030156503
22	0x3d0d2503	0.034459125
23	0xbd204e1f	-0.039137002
24	0xbd2f3e82	-0.04278422
25	0xbd8ae2f3	-0.067815684
26	0xbc9bf91b	-0.019039681
27	0x399807c4	0.00028997485
28	0xbd091392	-0.03346593
29	0x3bf42125	0.00745024
30	0xbd21e068	-0.03952065
31	0xbd7de92a	-0.06198994
32	0x3d56c492	0.052433558
33	0xbb818a8a	-0.0039532827
34	0xbaf42f28	-0.0018629776
35	0x3cef1aeb	0.02918764
36	0x3c9aa9af	0.01887974
37	0xbc507609	-0.012723454
38	0x3c0a7028	0.008449592
39	0x3d6dab80	0.058024883
40	0x3c385dfc	0.011252876
41	0x3d3c1815	0.045921404
42	0x3c5e65ee	0.013574107
43	0xbbd08320	-0.0063632876
44	0x3c32ffcd	0.0109252455
45	0x3ca58621	0.02020556
46	0x3cad1e42	0.021132592
47	0x3c451d46	0.012030905
48	0xbae31459	-0.001732479
49	0xbc1bd8d2	-0.009512143
50	0xbcf76d9d	-0.030203635
51	0xbd8b38a7	-0.06797915
52	0xbc371147	-0.011173553
53	0x3d651995	0.0559326
54	0xbcdad49c	-0.026712708
55	0xbd1bcdc1	-0.03803802
56	0x3cc441d0	0.023957163
57	0xbcdd45e4	-0.027010866
58	0xbd1d95fb	-0.03847311
59	0xbd5c6f2a	-0.05381695
60	0x3d2fa534	0.04288216
61	0xbce95582	-0.028483156
62	0x3d432b97	0.047648992
63	0xbd7a2e08	-0.061079055
64	0x3d3eb9bb	0.046563845
65	0x3c68c92d	0.01420812
66	0x3d0435ec	0.032277986
67	0x3ccdeaaf	0.02513632
68	0x3b1a4b2a	0.0023543336
69	0x3c043ea4	0.008071575
70	0x3d12ecd1	0.035870377
71	0xbc86f63a	-0.016474832
72	0xbc147570	-0.009061202
73	0xbcc13ae2	-0.023587648
74	0xbc7b514f	-0.01533921
75	0x3cc8ae0e	0.024497058
76	0xbd478ecf	-0.048720177
77	0x3d70abb8	0.058757514
78	0xbc127598	-0.008939169
79	0xbc44db87	-0.01201523
80	0xbba5a47c	-0.0050550085
81	0x3d03c317	0.032168474
82	0x3c02d30f	0.007984891
83	0xbcdee8d9	-0.02721064
84	0xbcf95db6	-0.030440193
85	0x3ce51bcc	0.027967356
86	0x3b94bd63	0.004539178
87	0xba457756	-0.0007532736
88	0x3d6841cd	0.056703378
89	0xbce696fc	-0.028148167
90	0x3c2cc8eb	0.010545949
91	0x3cb6249b	0.022234252
92	0xbc658281	-0.014008165
93	0xbd591f24	-0.053008214
94	0xbc462fc6	-0.012096351
95	0xbd0f869a	-0.035040475
96	0x3d9c13c4	0.076209575
97	0x3d0497f2	0.03237147
98	0x3c1d92dc	0.009617534
99	0x3bf3a7b3	0.007435763
100	0x3d1610aa	0.036636986
101	0xbb43c752	-0.0029873443
102	0xbcfcfb78	-0.030881628
103	0xbc9738d6	-0.018459719
104	0x3cbb9b3c	0.02290117
105	0xbd889fae	-0.066710815
106	0xbd83d7bc	-0.064376324
107	0xbca0cbf2	-0.019628499
108	0x3d479520	0.0487262
109	0xbcd8751a	-0.026423026
110	0xbd2751fc	-0.04084967
111	0x3c9ce55e	0.01915234
112	0x3c087ef8	0.008331053
113	0x3d3d58df	0.046227332
114	0xbd5cf245	-0.053941984
115	0xbd8069d4	-0.06270185
116	0x3d8a451b	0.06751462
117	0xbb11b229	-0.0022231436
118	0xbd47989d	-0.048729528
119	0xbd1a0e3d	-0.037611235
120	0xbd8d517f	-0.0690031
121	0x3c24c472	0.010056602
122	0xbd9cdc19	-0.07659168
123	0xbdf56f0f	-0.11984073
124	0xbc3df550	-0.011594132
125	0x3d8d2fd8	0.06893891
126	0xbba48847	-0.0050211283
127	0xbd40fcfe	-0.047116272
128	0xbc20f035	-0.009822895
129	0xbd546a9c	-0.051859483
130	0xbcd3f257	-0.025872393
131	0xbd390f34	-0.045180514
132	0xbc0f6ce4	-0.008753989
133	0x3d30c862	0.04315985
134	0xbc7b7e37	-0.015349916
135	0xbce6a345	-0.028154025
136	0xbd3802e4	-0.04492463
137	0xbc87fc71	-0.016599866
138	0x3987f6ab	0.00025932989
139	0xbd4e3503	-0.050343525
140	0xbd130fea	-0.03590385
141	0x3ce3e32b	0.027818283
142	0x3c1df873	0.009641754
143	0xbd9a9a41	-0.07548953
144	0xbc67b40b	-0.014142047
145	0x3d045ff2	0.032318063
146	0x3d25c8e7	0.0404748
147	0xbd4081c3	-0.04699875
148	0xbba894bb	-0.005144683
149	0xbd55ccf1	-0.0521974
150	0xba7ed3df	-0.00097209023
151	0xbd1d250c	-0.03836541
152	0xbd575715	-0.052573282
153	0xbd3db009	-0.04631046
154	0xbc45ac48	-0.012065001
155	0x3d8bfa29	0.06834824
156	0x3c94bc33	0.018156147
157	0x3ce9d3b9	0.02854334
158	0xbd3ba63e	-0.045812838
159	0xbd8de531	-0.069284804
160	0x3d2f4e08	0.042799026
161	0x3da19a69	0.078907795
162	0x3bff9450	0.0077996626
163	0x3d13ddcd	0.036100198
164	0xbcbf8804	-0.023380287
165	0x3b83b0b2	0.0040188665
166	0xbc04c10e	-0.008102668
167	0x3c189ab9	0.0093142325
168	0x3d8c5245	0.06851629
169	0x3d4027f1	0.04691309
170	0x3d33c19d	0.043885816
171	0xbce14847	-0.027500285
172	0x3d2dcaf6	0.042429887
173	0xbd1e5569	-0.038655672
174	0x3c81baaf	0.015836088
175	0x3cdc505e	0.02689379
176	0x3c8cd919	0.017193364
177	0x3d2a15fa	0.041524865
178	0xba89dc8c	-0.0010517999
179	0xbd945ecc	-0.072446436
180	0xbc116f92	-0.008876698
181	0x3c80ee75	0.015738705
182	0xbdaeda6e	-0.08537756
183	0xbd631936	-0.055443965
184	0x3d8d92bf	0.06912755
185	0x3cf6516d	0.030068124
186	0x3d39c047	0.045349386
187	0x3bdd0f70	0.006746225
188	0x3d62f34d	0.05540781
189	0xbd320eb8	-0.04347107
190	0xbd69b5ab	-0.057058018
191	0x3bb952c1	0.005655617
192	0xbd12c123	-0.03582872
193	0x3c04df0a	0.008109817
194	0x3d2d55c8	0.042318135
195	0xbd92c570	-0.071665645
196	0x3cdd02d6	0.026978891
197	0xbc5c173a	-0.013433272
198	0xbd3fa358	-0.046786636
199	0xbdadb2f8	-0.08481401
200	0xbc850d15	-0.01624159
201	0xbdb9467d	-0.09046648
202	0xbd236ff2	-0.03990168
203	0xbdfdb14b	-0.123873316
204	0xbd65063a	-0.05591414
205	0x3d2902dd	0.041262496
206	0xbd84410d	-0.0645772
207	0xbd5d2430	-0.05398959
208	0x3d55a910	0.052163184
209	0x3c5e96aa	0.013585726
210	0x3d0d52fc	0.03450297
211	0xbcc6e49e	-0.024278935
212	0x3c9ff085	0.019523868
213	0x3ba59ca6	0.0050540743
214	0xbb51a2c9	-0.0031987897
215	0xbcd0c02b	-0.025482258
216	0x3d0bbd4b	0.03411607
217	0x3d0c02a9	0.034182224
218	0x3d144108	0.03619483
219	0xbc13a34e	-0.009011103
220	0xbc8834b6	-0.016626697
221	0xbd9e1ccf	-0.077203386
222	0x3cffdaa5	0.031232188
223	0xbc2cd7cb	-0.010549496
224	0x3d8df1de	0.06930898
225	0x3d5656a6	0.05232873
226	0xbd2207a7	-0.03955808
227	0xbd0e2e44	-0.03471209
228	0x3c89dedc	0.0168299
229	0xbd4d43d0	-0.0501135
230	0xbd1fe4f1	-0.039036695
231	0x3cb9e11f	0.022690354
232	0x3b795bca	0.0038049095
233	0x3d1db915	0.038506586
234	0x3d599c97	0.05312785
235	0xbd3aa61e	-0.045568578
236	0xbd1ef7bf	-0.038810488
237	0x3d2a6c85	0.0416074
238	0xbd9a58d7	-0.07536476
239	0xbc4bab26	-0.012430942
240	0xbc020d0e	-0.007937683
241	0x3b96dd9f	0.004604056
242	0x3c93e77b	0.018054714
243	0x3acfd573	0.001585646
244	0x3d83795a	0.0641963
245	0xbce8661c	-0.028369002
246	0x3d259554	0.040425614
247	0x3d373a00	0.044733047
248	0x3d26f963	0.040765177
249	0x3d3c0d87	0.04591134
250	0xbd9de627	-0.07709914
251	0xbdae38d8	-0.08506936
252	0xbd0165df	-0.031591292
253	0xbbb26178	-0.005443748
254	0xbd65efb6	-0.05613681
255	0xbd3b7ff9	-0.04577634

conv3.0.bias f4 [32]
0	0x3c6c4e09	0.014422902
1	0x3d6d22d3	0.05789454
2	0x3c675982	0.014120461
3	0xbd71f092	-0.059067316
4	0x3b86a89f	0.0041094567
5	0xbd61c6da	-0.05512128
6	0xbcc1c0ef	-0.023651568
7	0x3d7a02b2	0.061037727
8	0x3d0d4151	0.03448612
9	0x3caa9bd3	0.020826256
10	0xbc7414ef	-0.014897569
11	0x3cfe6f48	0.031058922
12	0x3cffbef2	0.03121898
13	0xbbedf199	-0.0072614667
14	0xbd7c1fa2	-0.061553605
15	0x3c2ba55c	0.0104764365
16	0xbd01fd1d	-0.03173553
17	0x3c96b11b	0.018394997
18	0x3d4122f6	0.047152482
19	0x3cd20084	0.025635011
20	0x3d3d2764	0.046180144
21	0x3d502258	0.050814003
22	0x3c3785be	0.01120132
23	0x3d3fdb9c	0.046840295
24	0x3c3fa0b6	0.011696031
25	0xbd267b3e	-0.040644877
26	0xbc3ebd4b	-0.011641811
27	0xbc53fbde	-0.012938468
28	0xbd7f1f9f	-0.062286016
29	0xbd4fab20	-0.050700307
30	0xbd5c45bd	-0.053777445
31	0x3d74cc1e	0.059764974

conv3.1.weight f4 [32]
0	0x3f7cc051	0.9873095
1	0x3f7da984	0.99086785
2	0x3f8073ce	1.0035341
3	0x3f854775	1.0412432
4	0x3f7a35ae	0.9773816
5	0x3f7dc3d2	0.99126923
6	0x3f7c8c2c	0.98651385
7	0x3f7bffec	0.9843738
8	0x3f798698	0.97471
9	0x3f80ea67	1.0071534
10	0x3f7d004d	0.98828584
11	0x3f7d33d8	0.9890723
12	0x3f84ed72	1.0384963
13	0x3f793b77	0.9735636
14	0x3f812abc	1.0091166
15	0x3f8237b7	1.0173253
16	0x3f8114b9	1.0084449
17	0x3f818b73	1.0120682
18	0x3f7f9941	0.9984322
19	0x3f7fe9de	0.9996623
20	0x3f7b9070	0.9826727
21	0x3f865696	1.0495174
22	0x3f800206	1.0000618
23	0x3f8070cc	1.0034423
24	0x3f79bd02	0.9755403
25	0x3f798bb2	0.97478783
26	0x3f85a2bb	1.0440286
27	0x3f818ab6	1.0120456
28	0x3f7d4d69	0.98946244
29	0x3f84e883	1.0383457
30	0x3f884c78	1.0648336
31	0x3f8103e3	1.0079311

conv3.1.bias f4 [32]
0	0xbd93c4be	-0.0721526
1	0xbc1f157e	-0.009709714
2	0xbcb0d6da	-0.021586824
3	0xbe31b0f1	-0.17352654
4	0xbce7b635	-0.028285125
5	0xbc2e1e19	-0.010627293
6	0x3caf517b	0.021401158
7	0xba3b30e1	-0.00071407674
8	0x3cda239c	0.026628308
9	0xbcac4867	-0.021030618
10	0xbb868498	-0.004105162
11	0x3d5cdb62	0.053920157
12	0x3da5091c	0.08058378
13	0xbced8582	-0.028994326
14	0xbca7a9b4	-0.020466663
15	0xbd3b88e3	-0.045784842
16	0x3c51f406	0.012814527
17	0xbc6d6a74	-0.014490712
18	0xbba90b15	-0.005158792
19	0xbd6b513d	-0.05745052
20	0xbc85d48a	-0.016336698
21	0xbd05ad8d	-0.032636214
22	0x3bebe61b	0.0071990616
23	0xbc650136	-0.0139773395
24	0xbc0046a4	-0.007829342
25	0xbc7d1466	-0.015446758
26	0xbc7198d2	-0.014745908
27	0x3c1305c1	0.00897354
28	0xbd40244c	-0.046909615
29	0xbd230e42	-0.03980852
30	0xbd813c01	-0.06310273
31	0x3ac78138	0.0015221005

conv3.1.running_mean f4 [32]
0	0xbf0ef6c1	-0.55845267
1	0xbf1c6d9c	-0.6110475
2	0xbe2df6ce	-0.1698868
3	0xbd9f89ef	-0.077899806
4	0xbec47349	-0.38369206
5	0x3e8c21be	0.27369493
6	0xbdd17433	-0.10227241
7	0x3d411395	0.047137816
8	0xbd7fa5c4	-0.062413946
9	0xbe909a21	-0.2824259
10	0xbe81287f	-0.2522621
11	0xbf1c5af8	-0.6107631
12	0xbef44d06	-0.47715014
13	0xbf6075d1	-0.87679774
14	0xbec95361	-0.39321426
15	0xbea35bd3	-0.31905994
16	0xbed56353	-0.4167734
17	0xbe21796a	-0.15768972
18	0x3d686c14	0.056743696
19	0x3df9add9	0.12191362
20	0xbf13af5e	-0.57689464
21	0x3c39d23c	0.011341628
22	0xbe8821c7	-0.2658827
23	0xbe775924	-0.24155098
24	0x3e290db7	0.16509138
25	0xbec14ef2	-0.37755543
26	0xbe9b1801	-0.3029175
27	0xbf02e469	-0.51129776
28	0xbdd56bd6	-0.10420959
29	0x3e25f367	0.16206132
30	0xbf05b082	-0.52222455
31	0xbecebd02	-0.40378577

conv3.1.running_var f4 [32]
0	0x3e4e337c	0.20136827
1	0x3e8f2f1d	0.27965632
2	0x3e043e1a	0.12914315
3	0x3e4790d2	0.19488838
4	0x3e6a1d8f	0.22862838
5	0x3e541697	0.20711742
6	0x3ed09605	0.40739456
7	0x3e7a52f1	0.24445702
8	0x3dddda79	0.10832686
9	0x3e9ea5cf	0.30985877
10	0x3e4e65a3	0.20155959
11	0x3e96be78	0.2944219
12	0x3ec0729d	0.37587443
13	0x3e2500d5	0.16113599
14	0x3e3f8127	0.18701611
15	0x3e1242d9	0.14283313
16	0x3e38a08d	0.18029995
17	0x3e41a9ca	0.18912426
18	0x3e293416	0.16523775
19	0x3df2fa6e	0.11864172
20	0x3e4023f0	0.18763709
21	0x3e0422ab	0.1290385
22	0x3e829c85	0.2551004
23	0x3e6e1b82	0.23252681
24	0x3e36d1de	0.17853495
25	0x3e348cd9	0.17631854
26	0x3dfe2210	0.12408841
27	0x3ec83623	0.39103803
28	0x3e61378d	0.21993847
29	0x3e226de3	0.15862231
30	0x3e0f4472	0.13990954
31	0x3e68e21e	0.22742507

deconv2.0.weight f4 [32, 16, 4, 4]
0	0xbda52cf5	-0.080652155
1	0x3c6ad1c5	0.0143322395
2	0xbc8f2d71	-0.017477723
3	0x3c499c6e	0.012305362
4	0xbd32ca12	-0.04364974
5	0x3c6db08d	0.014507425
6	0xbcca8298	-0.024720475
7	0xb91afb18	-0.00014780124
8	0xbd502eaa	-0.050825752
9	0x3b76a591	0.0037635306
10	0xbd1b2ccd	-0.037884522
11	0xbd8340fd	-0.0640888
12	0xbd1dbd0a	-0.03851036
13	0x3d2167f4	0.039405778
14	0xbd689ad3	-0.056788277
15	0x3d00a2b4	0.031405166
16	0x3c70eb7d	0.014704582
17	0xbc6d8cd7	-0.014498911
18	0x3cb1a9cb	0.021687409
19	0xbdb5381b	-0.08848592
20	0xbcd57dbe	-0.026060935
21	0x3cd35108	0.025795475
22	0x3de46c58	0.111534774
23	0x3c4d91e1	0.012546987
24	0x3ccde247	0.025132312
25	0xbccbb7c1	-0.024867894
26	0x3d1e8767	0.03870335
27	0x3c4c3e7c	0.012466069
28	0xbd7e9a7d	-0.06215905
29	0x3d6d6d14	0.057965353
30	0x3d2c8fa0	0.04212916
31	0x3bf5630e	0.007488615
32	0x3d53e65c	0.05173336
33	0x3ac004c9	0.0014649864
34	0x3d4253e2	0.047443278
35	0x3b1008e7	0.0021977962
36	0x3ce1d24c	0.027566098
37	0x3d3aaf64	0.04557742
38	0x3a4f8d4a	0.0007917477
39	0x3cb80c51	0.02246681
40	0x3d27f85d	0.041008342
41	0x3cebf7ca	0.028804678
42	0xbab09860	-0.0013473146
43	0x3c9f1602	0.019419674
44	0x3c4f7e8e	0.01266445
45	0xbd630515	-0.05542477
46	0x3b84c4d8	0.004051786
47	0x3b9381c5	0.0045015537
48	0xbccfc1e7	-0.025361015
49	0x3d0e282c	0.03470628
50	0xbd015f51	-0.03158504
51	0x3d19a340	0.037509203
52	0xbd928800	-0.07154846
53	0xbdc54137	-0.09631579
54	0x3ddc61d4	0.10760847
55	0xbd0a0e57	-0.03370508
56	0xbdabeb40	-0.0839448
57	0x3c94a8c7	0.018146886
58	0xbd9311a4	-0.07181099
59	0xbae3e25c	-0.0017386186
60	0xbc690613	-0.01422264
61	0xbdf778d1	-0.12083591
62	0x3d988f85	0.07449249
63	0xbdf64cc3	-0.1202636
64	0x3c4d7a91	0.012541429
65	0x3d5b6a2f	0.05356806
66	0xbc0a4442	-0.0084391255
67	0x3adba144	0.0016756435
68	0xbd0a5240	-0.033769846
69	0xbd93a668	-0.07209474
70	0xbd06c458	-0.03290209
71	0xbc93c8b8	-0.018040046
72	0x3b75ee80	0.003752619
73	0x3d0e1b96	0.034694277
74	0xbc45eaf0	-0.012079939
75	0x3cca4574	0.024691321
76	0x3d7297f8	0.05922696
77	0x3d2b0ed3	0.041762184
78	0x3c148f67	0.009067393
79	0x3cbfc5a8	0.02340968
80	0xbcd2376e	-0.025661197
81	0x3ca4d68f	0.02012184
82	0xbd267d87	-0.040647056
83	0xbd88526e	-0.06656347
84	0x3d6615a3	0.056172978
85	0x3d0b9071	0.034073297
86	0x3d36ce00	0.04463005
87	0xbaa54759	-0.0012609764
88	0x3bb0c138	0.005394127
89	0xbc18f827	-0.009336508
90	0xbd84e014	-0.06488052
91	0xbdadd289	-0.08487422
92	0xbc9f10e6	-0.019417237
93	0x3c670663	0.014100644
94	0x3ccf3b6b	0.025296887
95	0x3bf021d4	0.0073282514
96	0xbc4becb6	-0.012446573
97	0xbd2b12a7	-0.041765835
98	0xbd9e22aa	-0.077214554
99	0x3c6b3eca	0.014358232
100	0x3d597eeb	0.053099554
101	0xbd99ab72	-0.07503404
102	0x3c1123fc	0.008858677
103	0xbca141a7	-0.019684626
104	0xbcc3d6c7	-0.023906125
105	0xbcc2801a	-0.023742724
106	0xbb1e48f0	-0.002415236
107	0x3c0b873c	0.008516129
108	0x3cc1a67e	0.02363896
109	0x3d33d6f0	0.043906152
110	0x3d1517f4	0.036399797
111	0xbc660c95	-0.014041086
112	0xbda193a6	-0.0788949
113	0x3cb34cd8	0.021887228
114	0x3ad258d3	0.00160482
115	0x3c4bf66b	0.012448887
116	0xbc935411	-0.017984422
117	0x3c8c3024	0.017112799
118	0x3c1d7a03	0.009611609
119	0x3c09a3e2	0.008400889
120	0xbd8e3689	-0.069439955
121	0x3bd2d31b	0.006433857
122	0x3d4b3f7e	0.049621098
123	0x3c89a25a	0.016801048
124	0xbcce78aa	-0.025204021
125	0x3d04ef95	0.032455046
126	0xbcee53e0	-0.02909273
127	0x3c16a939	0.009195619
128	0x3c0b0e75	0.008487334
129	0xbbfce0e2	-0.007717238
130	0xbc434583	-0.011918428
131	0xbc109593	-0.008824724
132	0xbd4d2aeb	-0.050089758
133	0xbd331a87	-0.04372647
134	0x3b6b84c5	0.003593729
135	0xbd1996fd	-0.03749751
136	0x3d06af76	0.032882176
137	0xbd0e2d46	-0.034711145
138	0x3ce85ac7	0.028363599
139	0xbd523b5e	-0.05132615
140	0xbca53d92	-0.02017096
141	0x3d45bbc9	0.04827479
142	0x3c9e9514	0.019358195
143	0xbd4bfe41	-0.049803022
144	0xbbb074f6	-0.0053850366
145	0xbc99c63d	-0.018771285
146	0x3c782fcb	0.0151481135
147	0xbd36ab53	-0.04459698
148	0x3d442686	0.0478883
149	0xbc8ff6a4	-0.017573662
150	0xbdfde023	-0.12396266
151	0x3c335813	0.0109462915
152	0x3d6f9688	0.058493167
153	0xbcb48d2d	-0.022039974
154	0x3d34354b	0.043996137
155	0xbdc89676	-0.09794323
156	0x3d816865	0.0631874
157	0xbc4a0c19	-0.012331986
158	0xbe0367b0	-0.12832522
159	0xbc422816	-0.011850378
160	0xbd44e371	-0.048068468
161	0xbdafeb20	-0.085897684
162	0xbd560246	-0.052248262
163	0xbdaaae9b	-0.083340846
164	0x3ce4d956	0.027935665
165	0xbc990aba	-0.018681873
166	0xbd19aaf8	-0.037516564
167	0xbcc462b5	-0.023972848
168	0xbd10679c	-0.03525506
169	0xbdc89e06	-0.097957656
170	0xbbe8c981	-0.0071040993
171	0xbd1fbb37	-0.0389969
172	0x3d15e74b	0.03659753
173	0xbbe14226	-0.0068743406
174	0x3c7344ff	0.014847993
175	0x3bb163e6	0.00541352
176	0xbd7615af	-0.060079273
177	0xbcf11d31	-0.029432865
178	0xbd79ef37	-0.06101915
179	0xbd8ce13c	-0.068788975
180	0xbb2e3b9e	-0.0026585828
181	0xbd5970ef	-0.053086217
182	0x3c86df7b	0.016463986
183	0xbdcc706d	-0.09982381
184	0xbd9d34d8	-0.07676095
185	0xbd758ac2	-0.059946783
186	0xbd65d2a6	-0.056109093
187	0xbce4afe1	-0.027915897
188	0xbd20be5b	-0.039244037
189	0xbd232192	-0.039826937
190	0x3c3dca99	0.011583948
191	0xbcd0c573	-0.025484776
192	0xbc27f061	-0.010250182
193	0x3ca3484e	0.019931938
194	0xbd6ca5d4	-0.057775334
195	0x3d0476cd	0.03233986
196	0xbd71c347	-0.05902412
197	0xbb942d94	-0.004522035
198	0xbc19cc5c	-0.009387102
199	0xbd1d3e44	-0.03838946
200	0xbbb2b082	-0.0054531703
201	0x3d7b3a74	0.061335042
202	0xbd742ec2	-0.059614904
203	0x3d1c5332	0.03816528
204	0xbbae2a9d	-0.0053151385
205	0xbc7fd29e	-0.01561418
206	0x3c09dbe0	0.008414239
207	0xbb40ac09	-0.0029399416
208	0x3aed7c2a	0.0018118669
209	0xbc401b26	-0.011725223
210	0xbd7f26f7	-0.06229302
211	0xbc09c625	-0.008409058
212	0x3d938d4a	0.07204683
213	0x3d3ffa14	0.046869352
214	0xbca7c5ec	-0.020480119
215	0x3cc5363b	0.02407371
216	0x3c86869e	0.016421612
217	0xbc76a28a	-0.015053401
218	0xbd77692a	-0.060403027
219	0x3bfa405a	0.007637066
220	0x3d9ce5fa	0.07661052
221	0x3bf02fbc	0.007329909
222	0x3d1b023d	0.03784393
223	0x3d064697	0.032782163
224	0xbd8b35a8	-0.067973435
225	0xbb554984	-0.003254504
226	0xbc8af157	-0.016960783
227	0xbd25cec3	-0.040480386
228	0x3c155b86	0.009116059
229	0xbca3449d	-0.019930178
230	0x3c8b0559	0.016970323
231	0xbb487218	-0.0030585583
232	0xbd347a87	-0.044062164
233	0xbd5ae495	-0.05344065
234	0xbd636aa7	-0.055521633
235	0xbdad5ca9	-0.08464939
236	0x3b424c26	0.0029647439
237	0xbd2cae78	-0.042158574
238	0xbbcf58a2	-0.0063277045
239	0xbcf33d4c	-0.029692315
240	0xbd0435b3	-0.032277774
241	0xbd7e0bf8	-0.062023133
242	0x3bbe6eaa	0.005811532
243	0x3ca8097a	0.020512331
244	0xbc9c8548	-0.019106522
245	0xbcb7487d	-0.022373432
246	0xbdd20b9b	-0.1025612
247	0x3ced711d	0.0289846
248	0xbd103257	-0.035204258
249	0xbd434ec2	-0.04768253
250	0x3c79eb43	0.015253845
251	0xbd915609	-0.07096488
252	0x3dba5efd	0.09100149
253	0xbcc3ec01	-0.023916246
254	0xbd82e0c0	-0.06390524
255	0x3c07bbf8	0.008284561

deconv2.0.bias f4 [16]
0	0x3cf1d6ff	0.029521463
1	0xbd76b7a6	-0.060233735
2	0x3cf6971e	0.030101355
3	0x3cda1914	0.026623286
4	0x3d1e56f6	0.03865715
5	0xbd666cf1	-0.05625624
6	0x3d46ab18	0.04850301
7	0xbc861710	-0.016368419
8	0xbd77f178	-0.060533017
9	0x3d53bc8e	0.05169349
10	0x3ce04919	0.027378606
11	0xbd62976f	-0.0553202
12	0x3cd1bd75	0.025603035
13	0xbc6b398c	-0.014356982
14	0x3c74eff1	0.014949785
15	0x3c850f26	0.016242575

deconv2.1.weight f4 [16]
0	0x3f72ab8d	0.94793016
1	0x3f813546	1.0094383
2	0x3f803b07	1.0018014
3	0x3f78c49f	0.9717502
4	0x3f7c96d7	0.98667663
5	0x3f72359d	0.9461306
6	0x3f721b6b	0.94573087
7	0x3f7134ad	0.94221
8	0x3f76ff19	0.96483
9	0x3f83525b	1.0259508
10	0x3f761012	0.9611827
11	0x3f8eb926	1.1150253
12	0x3f7c419a	0.985376
13	0x3f741742	0.9534799
14	0x3f85ebe0	1.0462608
15	0x3f7f7e62	0.9980222

deconv2.1.bias f4 [16]
0	0x3c1152b7	0.008869818
1	0x3db316bc	0.087445706
2	0x3d5a65c5	0.05331971
3	0x3c49ebb4	0.012324262
4	0x3c83dde5	0.016097018
5	0x3c715293	0.01472916
6	0x3cdfd152	0.027321491
7	0xbd33a500	-0.043858528
8	0xbc534a95	-0.0128962
9	0x3e0bb2a1	0.1364236
10	0x3cfffeb5	0.031249383
11	0xbd5bcb82	-0.053660877
12	0xbd16b7b9	-0.036796305
13	0x3cc8c1c6	0.02450646
14	0x3d28528b	0.041094344
15	0x3c835937	0.016033752

deconv2.1.running_mean f4 [16]
0	0xbf3ca617	-0.73690933
1	0xbf133d36	-0.57515275
2	0xbe960a8d	-0.29304925
3	0xbf1c3b86	-0.61028326
4	0xbe7a581e	-0.24447677
5	0xbf580ea1	-0.8439732
6	0xbf08e867	-0.5347962
7	0xbecd7f0c	-0.40135992
8	0xbf388d6f	-0.7209081
9	0xbf592424	-0.8482077
10	0xbf715554	-0.94270825
11	0xbf443170	-0.76637936
12	0xbc9d67e0	-0.01921457
13	0xbe6688fa	-0.2251319
14	0xbf4b9aac	-0.79532886
15	0xbf6a8ddd	-0.91622716

deconv2.1.running_var f4 [16]
0	0x3f5266bf	0.8218803
1	0x3f5d9573	0.86556166
2	0x3f693d42	0.91109097
3	0x3f345d70	0.70455074
4	0x3f013f09	0.5048681
5	0x3fbbfd96	1.4686763
6	0x3faaf8ec	1.3357215
7	0x3f3c5d4b	0.73579854
8	0x3f0e0e25	0.5549033
9	0x400e813c	2.2266378
10	0x3fefabc6	1.8724296
11	0x3df21524	0.118204385
12	0x3e9ed115	0.31018892
13	0x3f91ad7f	1.1381072
14	0x3f05b8d5	0.52235156
15	0x3f4e2ed8	0.8054023

deconv3.0.weight f4 [16, 8, 4, 4]
0	0xbd64606b	-0.055756014
1	0x3c8611b8	0.01636587
2	0xbc2b2b64	-0.010447357
3	0xbdbbc690	-0.09168732
4	0xbdab058d	-0.08350668
5	0xbd58e435	-0.05295201
6	0x3cb3c7c3	0.02194584
7	0xbc8f5696	-0.017497342
8	0xbd65d922	-0.056115277
9	0x3cab0585	0.020876655
10	0x3cae2536	0.021257978
11	0x3d978c87	0.0739985
12	0xbd853be3	-0.06505563
13	0xbd0a13f3	-0.03371043
14	0x3d0f194b	0.03493623
15	0xbbc827b2	-0.0061082477
16	0xbbf3e011	-0.0074424823
17	0xbcee6bc9	-0.02910413
18	0x3cba1797	0.022716327
19	0x3da47ea7	0.080319695
20	0x3d101fb4	0.035186484
21	0x3cd3df10	0.0258632
22	0x3d66774c	0.056266114
23	0x3cb5641c	0.022142462
24	0xbbf24f3d	-0.0073947
25	0x3dbfeec9	0.093717165
26	0x3d493af7	0.0491285
27	0x3d19bd28	0.03753391
28	0x3aa8d019	0.0012879401
29	0x3d84fb11	0.064931996
30	0x3d7b5683	0.0613618
31	0xbce1aa3d	-0.027546996
32	0x3d57f24f	0.052721318
33	0x3d047912	0.032342024
34	0xbd0ab111	-0.03386027
35	0x3d81d5bc	0.06339595
36	0x3d48653f	0.04892468
37	0x3e02560a	0.12728134
38	0x3c85c9a0	0.016331494
39	0x3cdd21bf	0.02699363
40	0x3ca64d30	0.020300478
41	0x3d916544	0.07099393
42	0xbd57c879	-0.05268142
43	0x3d88e5fa	0.066844895
44	0x3c626425	0.013817822
45	0x3ce6c188	0.028168455
46	0xbbf1cf12	-0.007379421
47	0xbc228b7d	-0.009920952
48	0x3cf5b1d6	0.029992025
49	0x3dc6ef10	0.09713566
50	0xbd8ae02a	-0.06781037
51	0xb98beabc	-0.00026687037
52	0x3bf4bd1e	0.0074688336
53	0xbd096030	-0.033538997
54	0x3cfb1dbf	0.030653832
55	0x3da74e78	0.081692636
56	0x3d1585f5	0.036504705
57	0x3da7984f	0.081833474
58	0xbcb2185e	-0.021740135
59	0x3d992589	0.074778624
60	0x3cf6e1e0	0.030137002
61	0x3ce7e767	0.028308583
62	0x3c9d46e0	0.019198835
63	0x3ca2024f	0.019776491
64	0x3d02217a	0.031770207
65	0x3d561b5a	0.05227218
66	0xbc21119c	-0.009830859
67	0xbd4cd51c	-0.050007924
68	0x3d0d6dcf	0.03452855
69	0x3c4c307b	0.0124627305
70	0x3c96115b	0.018318823
71	0xbd864e5a	-0.06557913
72	0xbc9834a8	-0.018579796
73	0x3d1d0bd2	0.03834135
74	0xbd0a00ab	-0.033692043
75	0x3bb84fee	0.0056247627
76	0x3b78688d	0.0037904114
77	0x3c9def15	0.019279042
78	0xbc3fcef2	-0.011707054
79	0x3d449986	0.047997974
80	0x3c95c036	0.01828013
81	0xbc9912ab	-0.01868566
82	0x3a212a3a	0.0006147955
83	0xbb573b98	-0.0032841917
84	0x3bfbdc24	0.007686155
85	0xbc033822	-0.008008989
86	0x3c774328	0.015091695
87	0x3d8b2cc6	0.06795649
88	0xb80ea53e	-3.4009332e-05
89	0x3d2e4e65	0.04255523
90	0xbd1f985f	-0.03896367
91	0xbbc96323	-0.006145851
92	0x3d52e582	0.051488407
93	0x3be85755	0.007090489
94	0x3ce35701	0.027751448
95	0x3c985dfc	0.018599503
96	0xbcf2a0b1	-0.02961764
97	0xbd9fafbe	-0.07797192
98	0xbcedaf0d	-0.029014135
99	0xbd7aeabb	-0.061259013
100	0x3d2ec2dc	0.0426663
101	0xbd248c83	-0.040173065
102	0xbb8f5389	-0.004373972
103	0xbc89c0a1	-0.016815485
104	0x3bf9b3a3	0.0076202913
105	0x3da6c6bb	0.081433736
106	0x3d07d83f	0.033165213
107	0x3bbe383c	0.0058050435
108	0x3b5a63ac	0.003332357
109	0xbd0baebe	-0.034102194
110	0xbcae4272	-0.021271918
111	0xbd416329	-0.047213707
112	0x3d23ffcf	0.04003888
113	0x3d9e26e5	0.07722262
114	0x3d066082	0.03280688
115	0x3cf80a7d	0.030278439
116	0x3cb838e6	0.022488069
117	0x3dc6dde7	0.09710293
118	0xbd6ce607	-0.05783656
119	0xbcec1354	-0.02881781
120	0x3d3f6ffc	0.046737656
121	0xbd98128b	-0.07425412
122	0xbccca377	-0.02498029
123	0xbc0ab59e	-0.0084661525
124	0x3d3ee4ca	0.04660491
125	0x3d601d56	0.054715477
126	0xbcfce985	-0.03087307
127	0x3d1a6a3c	0.03769897
128	0xbc3e7644	-0.011624876
129	0x3b9d8d8d	0.004808134
130	0x3d7fc601	0.06244469
131	0xbdb5f1a4	-0.0888398
132	0xbd130d4c	-0.035901353
133	0xbd0c6d30	-0.034283817
134	0x3e0902e7	0.13380013
135	0x3d474e24	0.048658505
136	0x3c9addc2	0.01890457
137	0x3c1e48cc	0.009660911
138	0x3cf12411	0.029436143
139	0xbc3d7d2a	-0.011565486
140	0xbb440fc4	-0.0029916624
141	0xbd11c09d	-0.03558408
142	0x3d48ee05	0.049055118
143	0x3ba8ca57	0.005151074
144	0x3d4484c2	0.04797817
145	0xbdbcb0b7	-0.09213393
146	0x3b4c3f15	0.003116553
147	0xbd04780a	-0.03234104
148	0xbcf73515	-0.030176679
149	0xbd9fb001	-0.07797242
150	0x3dc54a3c	0.096333
151	0xbd3d7b58	-0.046260208
152	0x3c83ce18	0.016089484
153	0xbbb2e63b	-0.0054595745
154	0x3bd23434	0.0064149145
155	0x3c5534e2	0.0130130965
156	0xbb5a72b8	-0.0033332538
157	0x3b9079e6	0.0044090627
158	0x3d33fbfc	0.043941483
159	0x3d0043da	0.03131471
160	0x3c3c7c5c	0.011504259
161	0x3c9f30df	0.019432483
162	0x3dd8f0b3	0.10592785
163	0xbb02390e	-0.0019870433
164	0xbb460da6	-0.0030220537
165	0x3bcba0f9	0.006214258
166	0xbc655b66	-0.013998842
167	0x3d651423	0.055927407
168	0xbc831236	-0.015999895
169	0x3d0fb737	0.035086837
170	0x3aa658b9	0.0012691236
171	0xbbb8e48e	-0.00564248
172	0xbc978ee4	-0.018500753
173	0xbcc5b3ca	-0.024133582
174	0x3cd91cbf	0.026502965
175	0xbd67c70c	-0.05658631
176	0xbd9d94d8	-0.07694405
177	0xbcf831fd	-0.030297274
178	0x3d73327c	0.059374318
179	0xbd0aba98	-0.033869356
180	0x3da02c82	0.07820989
181	0xbd4375df	-0.047719833
182	0xbd48b368	-0.04899922
183	0x3d31eac4	0.04343678
184	0xbd4f0d5e	-0.050549857
185	0x3cfda950	0.030964524
186	0x3dd22683	0.10261252
187	0x3c5f4ad1	0.013628677
188	0x3d5670a8	0.05235353
189	0x3ba08bbb	0.0048994697
190	0xbd4ea092	-0.0504461
191	0x3d33c697	0.043890562
192	0x3d42956e	0.04750579
193	0xb94cd0c7	-0.00019532732
194	0x3cc53485	0.024072895
195	0x3d5730cb	0.052536767
196	0x3da1ec54	0.07906404
197	0x3d6d85db	0.057988983
198	0xbcfd5425	-0.030923912
199	0x3cd9f171	0.026604386
200	0x3d4df29e	0.050280206
201	0x3d284c55	0.04108842
202	0x3d2863f0	0.041110933
203	0x3de3da3b	0.111256085
204	0x3c0163d9	0.007897341
205	0xbd05b38e	-0.03264194
206	0x3d37deaa	0.044890083
207	0x3c6fffa2	0.01464835
208	0x3cb688e0	0.022282064
209	0xbd7965d7	-0.060888138
210	0xbd0f7687	-0.035025146
211	0x3d7d544b	0.061847966
212	0xbd294cfb	-0.04133318
213	0x3d39d52a	0.045369305
214	0x3df6e17e	0.12054728
215	0x3e054a52	0.13016632
216	0x3c165e6b	0.009177784
217	0x3d5893c8	0.05287531
218	0x3b316f21	0.0027074295
219	0x3decd5b1	0.11564196
220	0x3dc0b7e0	0.094100714
221	0x3d05ac7a	0.03263519
222	0x3da52fb4	0.08065739
223	0x3df7931e	0.12088607
224	0xbd054a54	-0.032541588
225	0xbdb1568e	-0.08659087
226	0xbc963547	-0.018335951
227	0x3cd6eb8b	0.026235363
228	0x3d1d88b6	0.038460456
229	0x3ca83108	0.020531192
230	0x3dddedbd	0.108363606
231	0xba4f5ad9	-0.00079099607
232	0x3cd91412	0.026498828
233	0xbcef5c40	-0.029218793
234	0x3ca26fee	0.019828763
235	0x3cb222fa	0.021745194
236	0xbb0c28b4	-0.0021386566
237	0x3b1ca413	0.0023901507
238	0x3ddee885	0.10884193
239	0x3d0fbe5f	0.03509366
240	0x3cb25adc	0.02177184
241	0x3d3d794f	0.046258267
242	0xbc015d03	-0.007895711
243	0x3d4692f2	0.04847998
244	0x3c511b6f	0.012762888
245	0xbca258b0	-0.01981768
246	0xbd9c8b04	-0.076437026
247	0xbda7d915	-0.08195702
248	0xbd4661c2	-0.048433073
249	0xbc6717e4	-0.014104817
250	0xbd2c1c22	-0.042019017
251	0xbd8a191a	-0.06743069
252	0xbc89be18	-0.016814277
253	0xbc6c5b6b	-0.014426093
254	0xbdcae38d	-0.09906683
255	0xbd9c6d0a	-0.07637985

deconv3.0.bias f4 [8]
0	0xbd8fc63c	-0.07020232
1	0x3d9d939d	0.076941706
2	0xbd5a9949	-0.05336884
3	0x3d443a29	0.04790703
4	0x3cce9e6d	0.025222028
5	0x3d7f0dff	0.062269207
6	0x3d0771f5	0.033067662
7	0x3d81e0b4	0.06341687

deconv3.1.weight f4 [8]
0	0x3f9f75fe	1.2457883
1	0x3f9c8358	1.2227583
2	0x3f9d1014	1.2270532
3	0x3f9d1cbd	1.2274395
4	0x3f99cce6	1.2015655
5	0x3f9d1bfe	1.2274168
6	0x3f9eb48d	1.239885
7	0x3f97d4cc	1.1861815

deconv3.1.bias f4 [8]
0	0x3e78f391	0.24311663
1	0x3e5d60ce	0.2161896
2	0x3e6191c4	0.22028261
3	0x3e640ed1	0.22271277
4	0x3e4fedcd	0.20305558
5	0x3e620f5c	0.22076172
6	0x3e715641	0.2356806
7	0x3e44cbe6	0.19218406

deconv3.1.running_mean f4 [8]
0	0xbe44a504	-0.19203573
1	0xbd774734	-0.06037064
2	0x3d8a05ee	0.06739412
3	0x3df64cfe	0.12026404
4	0x3ed25cc4	0.410864
5	0x3ee76f09	0.452019
6	0x3d0d808f	0.03454643
7	0xbe0ae1eb	-0.13562743

deconv3.1.running_var f4 [8]
0	0x3d95a44d	0.073067285
1	0x3d5c5b63	0.05379809
2	0x3db6c9db	0.089252196
3	0x3d828f9f	0.0637505
4	0x3d42436f	0.04742759
5	0x3d715b70	0.058925092
6	0x3d9296aa	0.07157643
7	0x3d8b6741	0.068068035
