03_hw/Pix2Pix/checkpoints/pix2pix_model_epoch_460.pth (torch, 99191 bytes, 32 tensors)

conv1.0.weight f4 [8, 3, 4, 4]
00000000: df08 cebd f79f ebbd 3448 5ebd 0b5c 3ebe
00000010: 518a 6d3d 3df1 d2bd 5827 b2bc 3313 7b3d
00000020: 3848 11be 88df 3abd 78ac 7ebb a50c 243d
00000030: 62f0 b4bc 1761 963d 33c8 903d ce81 0bbe
00000040: 3ad5 083e dd21 403e e1fa 613d 66ae f4bb
00000050: aada 0d3d 4e42 d5bc 6493 a0bd a390 493d
00000060: ef06 f33d 9b20 593d 776e 233d 9655 27bd
00000070: a34c 97bd 5249 ed3c 895e 84bd e036 2a3e
00000080: 883e d5bd b847 223d 8491 17be a9b7 563d
00000090: fe38 e2bd 633d dabd 1001 c6bb 090d f7bd
000000a0: 2a0e d43c 8524 c6bc 73c5 a1ba 974f 16bd
000000b0: 09a2 3bbd f153 343d fa28 953d d88c 3c3d
000000c0: 7b58 8fbd 47a0 8d3d e1f4 99bc b387 97bc
000000d0: 32b4 81bb ec25 e83d 5435 0b3d 86d3 3cbc
000000e0: 1c68 153e 3d8e b33d ff43 ccbd 7d1d 95bd
000000f0: 8a8f 0e3d 0b3f 023e bfed f3bc 8be9 b1bc
00000100: 3e87 22bb a018 0a3e 4ebd 383c 4f2f acbd
00000110: 979d 39bd 6207 9dbd 3b5a 1b3d 4b65 06bd
00000120: 326a fd3c d751 0dbc ad2f 183d aad0 02be
00000130: f57e 7e3d b1e0 dfbc e148 773d 115c bd3d
00000140: 2d2a 063b 9d18 81bd f81e 453d 55e0 04be
00000150: 2421 67bd ba5b aa3d cf12 95bd 4b2e 863d
00000160: fd45 b7bb f4ca 92bb d8b9 91bc 7141 9c3b
00000170: eea2 80bd eba0 bebd 1a79 edbc f82f c5bd
00000180: a589 06be 2f2d 633d 1d31 593c e452 68bd
00000190: 9512 673c d33a bdbc ab66 843d de27 0e3e
000001a0: 91b6 9dbd 3903 3c3d 5140 e4bd 9de0 4cbd
000001b0: 717f 1d3e 0d0a 113d 5c77 253d 75de 63bd
000001c0: 8e3c 6bbd cc29 1c3b c5d3 ce3d 92c8 e5bd
000001d0: c789 053e 2926 03bd 0082 543c 56a2 043e
000001e0: 9b6b fd3c b363 943d a99f bdbd dd6d dcbd
000001f0: 20cd 1d3d 4b32 043d f6c9 c7bb b8b1 ed3d
00000200: 24d7 d1bd d5fc c03d 4d39 7abc 4b67 1e3d
00000210: 6818 8a3c c427 863d db7f be3d 5243 51bc
00000220: 59cd 9d3d 19a2 2e3e 9693 fb3d a454 9e3d
00000230: ebc0 b5bd bba6 df3c 4fe6 d13d e73b f33d
00000240: c589 773d 3a24 e93d 4661 313e de3c 4e3d
00000250: 8ba8 913b e941 50bd dbd3 9fba a858 51bd
00000260: 4d34 1d3d 66f7 89bd a8b3 123e 7ae7 6cbd
00000270: b4f3 593d 3cbe e73d ef82 d13d 675f 22be
00000280: 9bb7 dfbd 011f b23d 4887 1f3e d12f d23c
00000290: 2120 8a3d 2e9c c73d 0193 de39 49a1 21bd
000002a0: ea15 bebd e66a b4bd 7d19 8c3d 4316 ce3d
000002b0: 5fb3 b0bd 9776 69bd c789 63bc 4b0a aebd
000002c0: 3b72 a33d 72ee 33be e8e9 8d3c e042 003d
000002d0: d578 65bd 5207 e7bd 0aa5 30bd f571 943c
000002e0: a10b edbd d8e0 dc3d 8177 a2bd 93ea e23d
000002f0: c960 6dbd 16a1 2abd 60cf dfbd 7a41 033e
00000300: d9cc bbbd b9fd 0ebe ef20 243d 86f4 493d
00000310: e806 0a3e 46e8 7fbc 0dca 03ba 5496 0ebe
00000320: ca7b c03d 8692 a2bd 7eae e53d b825 4f3d
00000330: b574 3f3d 604e 34be 36c5 bfbd aad5 a1bc
00000340: 1be2 d6bc 6eb6 793d 38a4 1f3d e3bc c13d
00000350: b1fd c2bd e956 9ebd d790 88bb cc28 a23d
00000360: 3b64 06bd 16eb 04be 64fe 47be 6245 6cbe
00000370: 1077 e1bd 7731 aabc b262 49be 009c f83c
00000380: c71a e13d 698e 8e3c 0f88 7b3d 2d5e d6bd
00000390: d987 953d b4ee 72bd dc88 bf3d 3108 9bbd
000003a0: c2a7 66bd 3472 bd3d a2b9 58bd d90e 833d
000003b0: 89e1 c93d 0f2f f73c 13b6 aebb ae5c 6dbd
000003c0: e409 1e3d 918e ecbd 2e01 8cbd 093a 29bd
000003d0: 5fa2 69bd d5a7 c5bd 3fd6 f33d 57d2 02bb
000003e0: ce1d ce3d f5fa 7b3c e20b c23d 3505 e8bd
000003f0: 6b37 1ebd 9773 dd3d f6ee 003e 2f21 623d
-0.10060286 -0.1150512 -0.054268077 -0.18589799 0.057993237 -0.10299919 -0.021747276 0.061297607
-0.14187706 -0.045623332 -0.0038860124 0.04005112 -0.02208728 0.07342737 0.07069435 -0.13623735
0.1336259 0.18762918 0.055170897 -0.007467079 0.034632362 -0.026032593 -0.078406125 0.049210202
0.11866557 0.05300961 0.03990027 -0.040853105 -0.07387664 0.028965626 -0.06463344 0.16622496
-0.104123175 0.039619178 -0.14801604 0.052421246 -0.11046027 -0.1065624 -0.006042607 -0.12063033
0.02588566 -0.024187336 -0.001234217 -0.036696997 -0.045808826 0.044025365 0.07283206 0.046032757
-0.06999298 0.06915336 -0.018793525 -0.018497324 -0.0039582485 0.11335358 0.033986405 -0.0115250405
0.14590496 0.08767364 -0.09973907 -0.07281015 0.03480486 0.12719361 -0.029776452 -0.021717807
-0.002479985 0.13485956 0.0112756025 -0.08407461 -0.045316305 -0.07667424 0.037927847 -0.032811444
0.030934427 -0.008625469 0.037154842 -0.12774912 0.062132794 -0.02732882 0.060372237 0.09246076
0.0020471916 -0.06303523 0.048125237 -0.12976201 -0.05642809 0.08318277 -0.07278978 0.065517984
-0.00559306 -0.0044797603 -0.017788813 0.0047685434 -0.06281076 -0.093080364 -0.02898841 -0.0962829
-0.13138445 0.055463012 0.013256338 -0.056719676 0.014103551 -0.023099339 0.06464895 0.13882396
-0.077008374 0.04590151 -0.1114508 -0.050018895 0.15380646 0.035409976 0.040397033 -0.055632073
-0.057430796 0.0023828624 0.100989856 -0.112198964 0.13040839 -0.032018814 0.012970448 0.12952551
0.0309351 0.072455786 -0.092589684 -0.10763142 0.0385257 0.032274526 -0.0060970737 0.11606163
-0.10246113 0.09423224 -0.015272451 0.038672727 0.016857341 0.065505534 0.0930173 -0.012772398
0.077051826 0.17054023 0.12284009 0.07730988 -0.08874687 0.027301183 0.10249006 0.1187666
0.06043412 0.11383863 0.17322263 0.050351016 0.0044451407 -0.050844107 -0.0012193875 -0.05110994
0.038379956 -0.06736641 0.14326346 -0.05783794 0.05321093 0.11315581 0.10230052 -0.15856706
-0.10923692 0.0869732 0.1557895 0.025657566 0.06744409 0.09746586 0.00042452666 -0.039460454
-0.092815235 -0.08809452 0.06840799 0.1006284 -0.08627962 -0.05699786 -0.013887829 -0.08498057
0.07980772 -0.17571428 0.01732345 0.031313777 -0.056023438 -0.11280693 -0.043126144 0.018120745
-0.11574484 0.10785073 -0.0793295 0.11079898 -0.05795363 -0.04165753 -0.109282255 0.12817946
-0.09169931 -0.13963975 0.04007047 0.04930546 0.13479197 -0.015619343 -0.00050273613 -0.13924533
0.09398611 -0.079381034 0.11214922 0.05057308 0.04674216 -0.17608023 -0.09363787 -0.019755203
-0.026230862 0.060964994 0.03897497 0.094598554 -0.09521044 -0.077314205 -0.004167657 0.07917938
-0.03281043 -0.12980303 -0.19530636 -0.23073342 -0.110090375 -0.02077554 -0.19666556 0.030347824
0.109914355 0.01740189 0.061409052 -0.10467181 0.073013015 -0.059309676 0.09352276 -0.07569922
-0.05631233 0.09250298 -0.05291141 0.06399316 0.098574705 0.030173806 -0.0053317635 -0.057949714
0.03858365 -0.1155063 -0.068361625 -0.041315112 -0.057039615 -0.09651152 0.119060986 -0.0019961798
0.100642785 0.015379657 0.09474923 -0.11329118 -0.03862707 0.10813063 0.12591156 0.055207428

conv1.0.bias f4 [8]
00000000: bd5a 083e 3f67 923b f760 0fbd 93f5 fe3d
00000010: 42be 913d 54bb ce3d 4e58 debd 7514 43bc
0.13315864 0.0044678743 -0.035004582 0.12449183 0.07116367 0.10094324 -0.108566865 -0.011906733

conv1.1.weight f4 [8]
00000000: 55cb 803f 6d89 7b3f 7570 7f3f ef9a 743f
00000010: 99d2 803f 9434 733f c09c 823f d55a 873f
1.0062052 0.9825657 0.9978097 0.9554891 1.0064269 0.950021 1.0204086 1.0574595

conv1.1.bias f4 [8]
00000000: 1f0f 48b9 ea3a 2fbd 8d8a 00bd 5394 09bc
00000010: 3907 a6bb e024 a13d d662 33bd 39a0 d13d
-0.0001907912 -0.042780794 -0.031382132 -0.00839718 -0.005066779 0.078683615 -0.04379543 0.10235638

conv1.1.running_mean f4 [8]
00000000: a888 4d3e 139e e6bc c932 d2bd b5bd 6e3d
00000010: c07c 343e b40f a03d dcc7 eabd fa73 38bc
0.20071661 -0.028151548 -0.10263593 0.058286387 0.17625713 0.07815495 -0.114639014 -0.01125812

conv1.1.running_var f4 [8]
00000000: 0e5f 4b3d c4b6 673c dbb8 823e 02c1 cd3c
00000010: f307 123e bcdb 0a3d 5ec1 a33c 0e34 f73c
0.049651198 0.014142696 0.2553166 0.025116447 0.14260845 0.03390096 0.019989666 0.030176189

conv2.0.weight f4 [16, 8, 4, 4]
00000000: ee45 8b3d faa8 c43d 42a0 f83c 297c 393d
00000010: ba71 a4bd 6d07 963d 5e57 40bd b472 913d
00000020: 19b4 9cbd 5882 8d3d 7396 523d 2ffa 903c
00000030: f6ed e8bc ff38 cfbd 9ec4 d0bd eff3 933c
00000040: 17e7 88bc 3be7 cb3d 6d2e 953d e888 b5bc
00000050: 04c7 603d 8c79 8abd 74ac d03c b249 c8bc
00000060: 93b7 e53c 8aa6 093c 2d96 58bd 85b2 b63c
00000070: 9cdf 1a3d dfe9 e33c 4b24 d0bc 680b b6bd
00000080: 9677 2dbd 4ba5 943c cc83 2b3d 5ad4 1ebd
00000090: ea58 b2bd 5b54 9dbc 38b9 22bc 9052 443d
000000a0: 3106 19bd 3125 8fbd adcc 4bbc 93ce d3bc
000000b0: c1dd d9bd 7bd0 bdbd 8af2 9cbd aca9 c3bd
000000c0: bebb 2c3d 785c cebc 670f ff3c 9992 7b3c
000000d0: 4f41 973c 249e db3c 4cab 76bd 151c 44bd
000000e0: 8e61 d43a f56c fcbc 2e03 263c 6247 f2ba
000000f0: a43d b53d e849 9cbc 0dce b13b 26d5 3cb8
00000100: 67cd 753d fccb dfbc d6d7 743b eaf9 363d
00000110: d1a7 243d 75fd 543b cb9c ce3d 9e11 21bc
00000120: 5e1d 5b3d 0ac8 0abd ad3f a93d d347 4a3d
00000130: 89a9 9ebd f95a c9bc e41f 58bd 79e4 1fbd
00000140: 38aa a9bd 1013 c8bd e9c5 ce3b cfb1 763a
00000150: 2570 abbb 74eb b0bc 6db9 2e3d fdcb 093c
00000160: 01b5 713b 47ba 883d 6fb1 403d c8eb 903d
00000170: bc07 b8bb 50e2 ff3b 723d 8bbd f62c 3b3c
00000180: e943 8e3d 37e2 bf3a 0d7c b63d ee16 463d
00000190: aac3 9a3d 9cca 203d d762 cf3c 069b 5d3d
000001a0: f9a6 86bc 341f f43c 3feb 3ebc 156d 653d
000001b0: 7a7e 54bb 5447 c23d d6bc e23c cae4 be3d
000001c0: 4ddd 893a 3bd7 823c f983 03bd 2a50 d03b
000001d0: 2fe1 06bd c890 b8bb 7008 eabc c7b1 c4bc
000001e0: cb89 973d a4a4 a23c 0184 4c3d b65d 443d
000001f0: 9108 5d3d d052 26bc b83c 4c3d ab39 0abd
00000200: 1b2e d33c 209c c33b 78de 00bd e787 75bd
00000210: ebc1 3fbd 0bc7 95bd d3f5 17bd aea2 9b3d
00000220: 697b 533d a2a0 443a 378b f8bb 17be 923d
00000230: 1bef 5dbd 7108 bcbb 17f1 bf3d f098 4cbd
00000240: 0e32 9f3c 9a32 0c3d 0df4 52bd c324 96bd
00000250: 2fd7 bcbd 212c 57bd e881 adbd 400f 07bd
00000260: 5b29 2e3c 0702 4dbd 940c 763d 0ae2 ee3c
00000270: 07b4 113a f95e 03bd 6e1e a73d 22e2 ea3d
00000280: 6411 d2bd 1221 f5bc e066 863d 3535 a0bc
00000290: d86a 833d 135a 0d3d d7de 323d d335 78bd
000002a0: 8849 963c cbc4 38bc 51fa adbd f9c0 133d
000002b0: c2d7 643c 7c53 5ebd d071 a63c fa6e 7f3d
000002c0: 1415 c6bc 67e5 08bd eb67 cc3d d554 fcbb
000002d0: fba7 5bbd 8fba 2abd c0cf 58bd a8e6 2e3d
000002e0: 2573 dabc fea7 7bbd 7e8e a6bd b967 763c
000002f0: 4af5 8fbd 5f77 0e3c 73f6 1d3d 96e7 2dbc
00000300: 1b9f d8bc 5a02 81bd d34d 96bb d548 663b
00000310: 1abf 93bc eed8 2e3d d5f6 0c3d 99f9 50bd
00000320: 56aa 7abd e136 86bd fdda 9fbd 743f 403d
00000330: 3278 e5bb 7c87 c7bc 9335 c63d 497c 0dbd
00000340: 00d5 edbc 88d1 19bd 4f66 98bd 3396 56bd
00000350: b112 203d ed87 0fbd 2811 babd deaf f0bd
00000360: 728d a03c 6500 17bd bff9 f0bc a83f 6ebc
00000370: f421 5c3c 891b 8abd 4c28 1cbd d83e 733c
00000380: c29b 763c 4f3d 63bb c56d f9bc d29b 8f3d
00000390: 3eb5 4c3d d5ff 51bd fc12 2bbd ba59 af3c
000003a0: 1de2 a9bd 13a7 5bbc 80dd 35be 36e2 77bd
000003b0: f5c5 043b c4d9 97bd a8fc adbd 4729 cf3c
000003c0: 10f2 ce3c 75bf 73bd 5059 923b 2921 62bc
000003d0: 258a 2cbe 2eca 0fbe bb1a bdbd 3c51 893c
000003e0: f99a e3bc 502c 58be bf14 febd 8c11 99bd
000003f0: 940e fcba c107 9cbc b67d 94bd 4e52 e43c
0.068004474 0.09602542 0.030349854 0.045284424 -0.08029504 0.07325635 -0.04695832 0.07101956
-0.076515384 0.06909627 0.05141301 0.017697422 -0.028433781 -0.10118293 -0.10193752 0.018060653
-0.016711755 0.09956213 0.07284246 -0.022160009 0.054877296 -0.067614645 0.025472857 -0.024449203
0.028041637 0.008401522 -0.052877594 0.022301922 0.037810907 0.02782148 -0.02540793 -0.08888894
-0.042350374 0.018145224 0.04187374 -0.038776733 -0.08708365 -0.019205263 -0.009931855 0.0479303
-0.03735942 -0.069895156 -0.012438935 -0.025855338 -0.10637999 -0.0926828 -0.07663448 -0.09553847
0.042171232 -0.025190577 0.031135274 0.015354776 0.018463759 0.026808806 -0.060221955 -0.047878344
0.001620339 -0.030813674 0.010132594 -0.0018484409 0.08849648 -0.01907821 0.0054261745 -4.5021203e-05
0.06001034 -0.027318947 0.0037360094 0.04467193 0.040199105 0.0032499705 0.100885 -0.00983086
0.053494804 -0.03388218 0.08264098 0.049384903 -0.0774718 -0.024579512 -0.05276479 -0.039036248
-0.0828442 -0.09769261 0.006310214 0.0009410651 -0.0052318745 -0.021596648 0.042657305 0.008410451
0.0036881568 0.066761546 0.047044214 0.07076222 -0.0056161564 0.007808961 -0.06798829 0.011424294
0.069465466 0.0014639561 0.089103796 0.04836171 0.07556851 0.039255723 0.025315685 0.05410292
-0.01643704 0.029800035 -0.011652767 0.05601223 -0.0032424019 0.09486261 0.027677935 0.09320982
0.0010518223 0.01597177 -0.03210828 0.0063572126 -0.032929596 -0.0056324936 -0.028568476 -0.024010552
0.07399329 0.019853897 0.049930576 0.047940932 0.053963248 -0.01015158 0.049862593 -0.033746403
0.02577882 0.0059695393 -0.031462163 -0.05994406 -0.046815794 -0.07313355 -0.03709967 0.07599388
0.051631365 0.0007500743 -0.007584955 0.07165163 -0.054183107 -0.005738311 0.09372156 -0.04995054
0.019433048 0.034227945 -0.051502276 -0.073312305 -0.092207305 -0.05253232 -0.08472043 -0.032973528
0.010629977 -0.05005076 0.06007059 0.029160518 0.0005558137 -0.032072995 0.08160101 0.11468913
-0.10257223 -0.029922996 0.065625906 -0.019556621 0.06416863 0.03450973 0.043669548 -0.060598206
0.01834561 -0.011277388 -0.0849501 0.036072705 0.013967456 -0.054278836 0.020317942 0.062361695
-0.024179973 -0.0334219 0.09980758 -0.0077005425 -0.053626996 -0.041681822 -0.0529325 0.04270044
-0.026666233 -0.061439507 -0.08132647 0.015039378 -0.07029207 0.0086954525 0.03856511 -0.010614296
-0.026443055 -0.06299277 -0.004586914 0.0035138626 -0.01803546 0.04268735 0.034415085 -0.051019285
-0.0611976 -0.06553436 -0.078054406 0.046935514 -0.007002854 -0.024356596 0.09678187 -0.034542356
-0.02903223 -0.03755334 -0.07441389 -0.052389335 0.039080326 -0.03504174 -0.090853035 -0.11752294
0.019598696 -0.03686561 -0.029415963 -0.014541544 0.013435829 -0.06743533 -0.038124368 0.014846526
0.015051784 -0.0034673994 -0.03044785 0.07012142 0.049977534 -0.05126937 -0.04176615 0.02140509
-0.08295081 -0.013406533 -0.17760277 -0.060518466 0.0020259593 -0.07414582 -0.08495456 0.025288237
0.025261909 -0.05950876 0.0044662133 -0.013801851 -0.16849573 -0.14041969 -0.09233614 0.016762368
-0.027783858 -0.21110654 -0.12406301 -0.0747405 -0.0019230419 -0.019046666 -0.0725054 0.027871277

conv2.0.bias f4 [16]
00000000: c61e b2bd b73d aa3d c426 883d 0ff8 44bc
00000010: c7e9 0fbd 826e e33b 5b48 13bd 6fce 6ebd
00000020: f1c1 a7bc 2535 2c3d db11 72bd 8fa3 07bd
00000030: 3491 32bd 684e adbd 47df 8c3d ca96 93bd
-0.08697276 0.083125524 0.06648019 -0.012022032 -0.035135057 0.006940664 -0.035957675 -0.05830234
-0.02047822 0.04204287 -0.05909906 -0.033114966 -0.043595508 -0.084622204 0.06878524 -0.07206495

conv2.1.weight f4 [16]
00000000: 27e0 783f b4b9 883f e025 7b3f b9b4 7b3f
00000010: de89 7d3f 7753 7b3f a41c 803f 8ba3 823f
00000020: b597 753f 543d 803f fb0b 813f 7049 813f
00000030: 0b1f 8a3f e547 7e3f 3b39 803f c584 7f3f
0.9721703 1.0681672 0.9810467 0.98322636 0.99038494 0.9817423 1.000874 1.0206159
0.9593461 1.0018716 1.0081781 1.0100536 1.0790724 0.9932845 1.0017465 0.99811965

conv2.1.bias f4 [16]
00000000: efef cebb 6e62 edbb 7497 113c b90c a7bd
00000010: 4102 2ebc b85c 28bd e6ab 08bd d7fe 2cbd
00000020: dca2 e4bc e619 ab3c 7006 363c f132 3cbc
00000030: a8b5 2abd aaaf a83c fd3c ad3c db57 8dbb
-0.0063152234 -0.0072443997 0.008886207 -0.081567235 -0.010620655 -0.04110405 -0.03336706 -0.04223522
-0.027909689 0.020886373 0.011109933 -0.011486755 -0.041677147 0.020591576 0.021147246 -0.0043134517

conv2.1.running_mean f4 [16]
00000000: 4e92 893d 2745 53bf 79bb 37be ea63 883f
00000010: 6a98 56be 634b 66be 5bbe 9abb 5add 0e3d
00000020: 40b8 1ebe 696c 30bf 25e7 aebc c30a 033f
00000030: 5ba8 57bd d28f f2be 5b7a 743d 225a 133e
0.067173585 -0.82527393 -0.17942609 1.0655491 -0.20956579 -0.22489695 -0.004722399 0.034879066
-0.15499973 -0.6891542 -0.021350453 0.51188296 -0.05265079 -0.4737535 0.059687 0.14389852

conv2.1.running_var f4 [16]
00000000: 8adb 8b3e c5a8 b73e f4a2 023f 71d1 af3e
00000010: d921 5f3e aa3b fa3d b0c0 9a3d d7a9 363e
00000020: afe8 fb3e 86c6 d83e 5972 223e 0829 5d3e
00000030: 635a cb3e c10c 7b3e caeb 633e 66c6 873e
0.27315933 0.35870948 0.51029897 0.3433948 0.21790256 0.12218411 0.075562835 0.17838226
0.4920096 0.4233896 0.15863933 0.21597683 0.39717397 0.24516584 0.22257915 0.26518553

conv3.0.weight f4 [32, 16, 4, 4]
00000000: bda9 b53c 3762 90bb 2565 63bd cfbc 86bd
00000010: b563 4dbd aa31 95ba f050 0f3b 78ef 87bc
00000020: c6e2 25bd 763e 7cbc c883 33bb cc66 3ebd
00000030: b8ae 17bd dd44 f13c c5a2 db3c d03d 393c
00000040: 8166 a6bd 0f8a 0abd 25d9 2ebc 814d 75ba
00000050: a702 b6bc 6c7b f7bc 41a8 0e3d 7170 20bd
00000060: a7fe 2fbd 4746 89bd 307f 94bc 7964 9f3a
00000070: f64a 08bd 6626 ec3b 7268 26bd f316 7dbd
00000080: 293a 543d 4060 8fbb 61d6 18bb ec4b ed3c
00000090: c561 973c 6d92 51bc 9721 083c e32b 6f3d
000000a0: 51db 313c 26c8 3a3d 4bdc 5e3c f256 c7bb
000000b0: 3751 1b3c cf78 a13c 93a6 ad3c 9e34 493c
000000c0: 2652 90ba f25a 1abc 58b5 febc bdef 89bd
000000d0: c22b 2bbc adb1 643d a395 e4bc c1f8 1bbd
000000e0: a67f c23c fada e5bc b133 21bd 89c1 5bbd
000000f0: b261 2c3d 52a1 edbc 3dd5 3f3d 880b 79bd
00000100: 5b9a 413d f016 6a3c 8749 ff3c 49a8 cf3c
00000110: 2f96 603b 23c9 063c e55c 133d efcb 7dbc
00000120: 5ba4 0cbc 3991 c3bc ea4b 80bc bebf cf3c
00000130: f9aa 45bd 931d 733d 6cb4 13bc 105d 2dbc
00000140: 1d9e b0bb 8c77 073d 9342 1e3c d8e0 c1bc
00000150: 5804 f9bc f92d f73c dd09 ac3b 845e ce3a
00000160: 77d7 683d 38b9 e7bc fca4 393c b6f9 c63c
00000170: 159c 3fbc 987e 55bd c9fc 1cbc 127f 08bd
00000180: cec0 983d a850 103d 78fb d53b 4030 e13a
00000190: 3ea2 0f3d c061 daba 523e 07bd 81f5 93bc
000001a0: 7fa2 ce3c b263 83bd 3330 81bd a2f0 9bbc
000001b0: 5739 463d 19a3 c9bc c0be 22bd c8de 9c3c
000001c0: 2442 0b3c 990f 423d 3ef1 5dbd 9306 7fbd
000001d0: 8869 863d 9ac1 77bb a1ad 49bd d11d 1cbd
000001e0: f96a 8dbd 6d69 093c 308b 9cbd ffb2 f2bd
000001f0: e417 36bc 8fb9 8e3d ff7d 0fbb 29d1 44bd
00000200: 1cfd 0ebc 0989 53bd cc09 dcbc 074d 37bd
00000210: 8aa9 13bc 3b2e 303d 470c 7ebc 98be e3bc
00000220: d508 3abd e524 8cbc 2bd2 c3b7 a49a 4dbd
00000230: cd26 12bd 7934 e53c 0abc 1e3c 566c 9abd
00000240: 25cc 7fbc 6248 033d e62f 273d 608d 3cbd
00000250: 2c64 b6bb a1bd 57bd 7bed a4ba 6b25 1ebd
00000260: a52e 58bd a81f 3fbd aa80 44bc 5f11 8b3d
00000270: 0fd6 8b3c f4d7 e23c df1f 40bd 22d9 8ebd
00000280: c260 363d d7dc a23d 7302 f63b 497b 153d
00000290: bb59 b6bc fa9a cf3b d8ef f1bb 4b83 243c
000002a0: 402a 8b3d 9b12 3d3d 90e0 2d3d 83e3 edbc
000002b0: 0abd 2d3d 037e 1fbd 6717 893c bf23 df3c
000002c0: 94ad 873c 919c 2e3d 8237 4fba 3ce5 96bd
000002d0: fb27 06bc 6b39 8e3c d79f adbd ea61 6abd
000002e0: cc44 8c3d 03d5 f13c 5930 393d 4c8d b03b
000002f0: 6226 5c3d c1ba 32bd 721a 6cbd 6c6b 943b
00000300: 5fbe 17bd d2f9 053c f8fc 2f3d c54d 9abd
00000310: 21bd d63c f44f 69bc 6551 3bbd 470d b0bd
00000320: b39d 8bbc c5f4 b7bd 5f67 24bd 053c 00be
00000330: 5d8b 6abd 622a 2d3d e38d 7dbd da18 59bd
00000340: 2440 543d e011 4e3c 59c4 0e3d 0059 d5bc
00000350: a820 a13c 4c7f 903b 02cf 44bb eecb dcbc
00000360: 8170 093d 2efa 083d f514 123d deb3 28bc
00000370: 8577 8cbc 8c71 9dbd f81c 043d e36d 2dbc
00000380: 7a64 903d a3b5 5b3d ce29 1fbd 17ba 05bd
00000390: 2138 9c3c 7a25 4cbd f08b 1abd 8e54 c03c
000003a0: 997b 9c3b d499 273d 7509 563d 3fe3 3dbd
000003b0: 1e5e 1bbd 6d53 2d3d 63fb 95bd 8278 4abc
000003c0: 2510 0fbc ef61 bd3b 6160 973c e713 c13a
000003d0: e24e 833d fad4 e3bc 163f 283d 57ec 363d
000003e0: 7945 293d 1c97 3c3d 4d39 9cbd 20b1 b0bd
000003f0: ec0a 06bd eaac b2bb f2df 66bd 26f1 46bd
0.022175664 -0.0044062394 -0.05551638 -0.06578981 -0.050143916 -0.0011382599 0.002186831 -0.01659368
-0.04049947 -0.015395751 -0.002739178 -0.046484753 -0.03703186 0.029451782 0.026811013 0.011306241
-0.0812502 -0.03382307 -0.0106718885 -0.0009357557 -0.022218062 -0.03021022 0.03482843 -0.039169732
-0.042967465 -0.067028575 -0.018127054 0.001216068 -0.033274613 0.007206726 -0.04062695 -0.061789464
0.05181328 -0.0043754876 -0.002332114 0.028966866 0.018479237 -0.012791258 0.00830879 0.058391463
0.010855512 0.045601033 0.013602327 -0.0060833627 0.009479812 0.019710926 0.021197593 0.012280611
-0.001101081 -0.009421097 -0.03109233 -0.067351796 -0.010447444 0.055833507 -0.027903384 -0.038079027
0.023742508 -0.028058518 -0.039355937 -0.053651366 0.042085357 -0.029007588 0.04683422 -0.060802013
0.047266345 0.014287695 0.03116299 0.0253488 0.0034269204 0.008226666 0.035977263 -0.015490516
-0.008584107 -0.023872958 -0.015661199 0.025359984 -0.048258755 0.059354376 -0.009015184 -0.01058127
-0.0053899423 0.033072993 0.009659427 -0.023666784 -0.03039758 0.030173289 0.005250199 0.0015744721
0.05684611 -0.028286561 0.011330839 0.024288993 -0.011694928 -0.052122682 -0.009581753 -0.03332431
0.074586496 0.03523317 0.0065302216 0.0017180517 0.035066836 -0.0016661212 -0.033018418 -0.018061401
0.025223969 -0.064155 -0.063080214 -0.019035641 0.048394527 -0.024613904 -0.039732695 0.0191492
0.008499656 0.047378156 -0.054185145 -0.06226213 0.06563097 -0.0037804605 -0.04923785 -0.038114373
-0.06905169 0.008386952 -0.076437354 -0.11850547 -0.011114094 0.06968986 -0.0021895168 -0.048051033
-0.008727338 -0.05164436 -0.02686014 -0.044751193 -0.009012589 0.04301284 -0.015505857 -0.027800843
-0.04541858 -0.017107436 -2.3343679e-05 -0.050196305 -0.035681535 0.027979122 0.009688387 -0.07540195
-0.015612637 0.03205145 0.040817164 -0.046033263 -0.0055661406 -0.05267108 -0.0012582982 -0.038609903
-0.05277886 -0.04666105 -0.0119935665 0.06790423 0.017069845 0.027690865 -0.046905395 -0.069750085
0.04452587 0.07952278 0.007507616 0.036494527 -0.022259584 0.0063356133 -0.007383328 0.010041068
0.06795168 0.04616032 0.042450488 -0.02903915 0.04241661 -0.038938534 0.016734792 0.027238725
0.01656226 0.042629782 -0.00079046946 -0.07367942 -0.008188243 0.017361363 -0.08477753 -0.057222284
0.068490595 0.029520517 0.045212124 0.0053879377 0.053747542 -0.043635134 -0.057642408 0.0045294072
-0.037046786 0.008177238 0.04296586 -0.075343646 0.02621323 -0.014240254 -0.04573192 -0.085962825
-0.01704297 -0.08982233 -0.040137645 -0.12522896 -0.057261813 0.042276748 -0.06190289 -0.053002216
0.05181898 0.012577504 0.03485522 -0.026043415 0.019668892 0.004409706 -0.0030030613 -0.02695271
0.033554558 0.033441715 0.035664517 -0.01029679 -0.017146835 -0.07687673 0.03225419 -0.010585281
0.070504144 0.05364002 -0.038858227 -0.032648172 0.019069733 -0.049840428 -0.03773111 0.023477819
0.004775476 0.040918186 0.052255113 -0.046359297 -0.037931554 0.04231589 -0.07323339 -0.012357833
-0.0087318765 0.005779497 0.018478574 0.0014730663 0.0641153 -0.027811516 0.04107579 0.044658985
0.04132602 0.046042547 -0.07628117 -0.08627534 -0.03272526 -0.005452742 -0.056365915 -0.04856982

conv3.0.bias f4 [32]
00000000: b115 6c3c 4826 6d3d ab98 673c f4fa 71bd
00000010: 95b8 863b d9b9 61bd 54be c1bc 6d02 7a3d
00000020: b13f 0d3d ada5 aa3c 86e0 73bc b16f fe3c
00000030: c5b2 ff3c 8306 eebb 7f1d 7cbd 91c6 2b3c
00000040: 9805 02bd aca5 963c 2215 413d 210f d23c
00000050: 0325 3d3d 5625 503d 3a6d 373c 3bdc 3f3d
00000060: 827d 3f3c 3582 26bd 32c4 3ebc 740d 54bc
00000070: 7214 7fbd 4fab 4fbd d93d 5cbd ded6 743d
0.0144094685 0.057897836 0.01413552 -0.05907722 0.0041113594 -0.05510888 -0.023650326 0.06103747
0.03448457 0.020830953 -0.0148850735 0.031059118 0.031213174 -0.00726396 -0.061551567 0.010484354
-0.031743616 0.018389545 0.047139294 0.02564198 0.046177875 0.050816856 0.011195475 0.046840888
0.011687638 -0.04065152 -0.011643456 -0.012942661 -0.062275358 -0.050700482 -0.05376992 0.059775226

conv3.1.weight f4 [32]
00000000: 68de 7c3f 6ac8 7d3f c57f 803f 8dba 843f
00000010: 7b34 7a3f 77cd 7d3f cea8 7c3f 12ef 7b3f
00000020: 304a 793f 8800 813f 16c7 7c3f d807 7d3f
00000030: 7671 843f 2646 793f 2e3e 813f fb34 823f
00000040: d81d 813f 9778 813f 2398 7f3f c7d8 7f3f
00000050: fab9 7b3f 036d 863f b10b 803f 2e81 803f
00000060: 2711 7a3f 8b75 793f 1ad1 853f 3d77 813f
00000070: d847 7d3f 2dfb 843f cd5d 883f 5d0c 813f
0.98776865 0.9913393 1.0038992 1.0369431 0.9773633 0.9914164 0.98695076 0.9841167
0.97378826 1.0078287 0.9874128 0.98840094 1.0347126 0.97372663 1.0097101 1.0172418
1.0087233 1.0114926 0.9984152 0.9994015 0.9833065 1.0502018 1.0003568 1.0039423
0.9768242 0.9744498 1.0454438 1.0114514 0.9893775 1.0389153 1.0653626 1.0081898

conv3.1.bias f4 [32]
00000000: 3de0 90bd 62d6 f9bb 1913 9bbc 3108 2cbe
00000010: 4247 d9bc 6322 1cbc 0ca5 ba3c 5fe6 d939
00000020: 5bf0 c23c 9aee 91bc 70a1 58bb 7706 543d
00000030: f0d6 9a3d cc42 e3bc b0d6 87bc 2d69 2bbd
00000040: e23a 593c b459 3bbc 3438 aabb f117 6fbd
00000050: 9045 66bc 9cca 11bd a5c9 073c 02c2 5ebc
00000060: 5e0f cebb aa4a 6fbc 2259 55bc bfde 193c
00000070: d931 3abd e865 23bd 00bb 80bd 3e9d 1f3b
-0.0707402 -0.0076244334 -0.018930005 -0.168 -0.026523236 -0.009529683 0.022783779 0.00041561105
0.023796251 -0.01781397 -0.0033055209 0.051763978 0.07560527 -0.027741812 -0.016581863 -0.04184835
0.013258668 -0.011434961 -0.005194688 -0.05837244 -0.014054671 -0.035593614 0.008287822 -0.01359606
-0.006288453 -0.014605204 -0.013021739 0.009391486 -0.045457695 -0.039892107 -0.062856674 0.0024355198

conv3.1.running_mean f4 [32]
00000000: 9f86 0cbf 579a 1dbf d620 1ebe 020c 91bd
00000010: 53a0 c3be e472 933e 13a6 e1bd f1a5 143d
00000020: 2f60 9dbd dbef 8fbe a69f 83be 5011 0fbf
00000030: 71c1 f8be 61c5 61bf df8b c6be 1c8f a4be
00000040: 380c dcbe 61c9 22be 922a 7a3d ccfd 183e
00000050: 303d 14bf 6e64 dbbc c4ce 8bbe f7ff 8abe
00000060: c88d 2e3e 7903 cabe e243 9ebe b9db 06bf
00000070: ee94 efbd fcc0 283e f216 04bf ba9a dcbe
-0.54892915 -0.6156363 -0.15442213 -0.070823684 -0.38208255 0.28798592 -0.11018004 0.036291067
-0.07684361 -0.28112683 -0.2570774 -0.5588579 -0.48585084 -0.881918 -0.38778588 -0.32140434
-0.42978072 -0.15897132 0.061075754 0.14940566 -0.57905865 -0.026781287 -0.27306187 -0.2714841
0.17046273 -0.39455774 -0.30911165 -0.5267902 -0.11698328 0.16479868 -0.5159751 -0.43086797

conv3.1.running_var f4 [32]
00000000: 898c 4f3e c945 913e da91 073e 9e0d 493e
00000010: ba8c 743e 572a 583e fcde d43e ccbb 823e
00000020: 5bd6 df3d aaf2 9d3e 8f09 533e 9840 923e
00000030: 521a cb3e 4e23 263e b393 413e 5151 133e
00000040: a094 393e 23ee 3b3e 9c36 293e ea46 f73d
00000050: 1318 443e 566f 063e e3cf 803e bac6 783e
00000060: 6afd 3d3e a549 3e3e dc87 013e 8a8b c83e
00000070: fb91 673e 94a1 223e 0f25 103e d37a 6f3e
0.20268454 0.28373554 0.13239232 0.19634101 0.23881808 0.21109901 0.41576374 0.25533903
0.10929557 0.308492 0.20609115 0.28564906 0.39668518 0.16224405 0.18903999 0.14386488
0.18123102 0.1835256 0.16524738 0.12074073 0.19149809 0.13128409 0.25158605 0.24294558
0.18553701 0.1858278 0.12649482 0.3916896 0.22614281 0.1588195 0.14076637 0.23386697

deconv2.0.weight f4 [32, 16, 4, 4]
00000000: ed3e a3bd b7e8 4d3c a5ae 96bc 8ace 353c
00000010: c4af 2cbd fe96 7b3c e4c5 c2bc 118b b13a
00000020: 7c05 46bd 4821 463b 1b00 1ebd 5994 80bd
00000030: 9826 16bd 3714 243d f11e 63bd 9ac0 013d
00000040: 4c47 473c 54eb 70bc 3b0f b33c 9f8b b5bd
00000050: 5b14 e5bc 9bee cf3c be5c e63d 4e93 643c
00000060: 3850 d63c 995e cdbc 2985 2e3d 9b04 493c
00000070: fa48 83bd 8402 643d 72fe 303d 3420 a43b
00000080: 9a0a 483d a386 133b e72e 453d c1cc 453b
00000090: b9f2 e83c 3b51 3b3d 6aac c93a 5ab7 b83c
000000a0: 524c 223d 7035 013d e476 8739 d6ba b13c
000000b0: 1754 3c3c 0f5b 62bd 28b1 8f3b 00d6 963b
000000c0: cdb0 d0bc 2a5d 073d 9108 11bd 028e 163d
000000d0: aaab 92bd e144 c4bd e92b da3d c44f 01bd
000000e0: 1e58 a5bd ec6a 913c fc16 93bd 39d0 38bb
000000f0: 5988 78bc 61a0 f6bd fdb3 973d e46b f6bd
00000100: a62a 433c fad0 5c3d 8b62 03bc d935 e43a
00000110: 3e1f 08bd 6d75 98bd b46c 0fbd 4011 a3bc
00000120: 4caf 323b 7fe1 183d 43b9 2bbc 252b d63c
00000130: 68c0 7f3d fc96 203d 2664 2c3c a03e ad3c
00000140: c811 d1bc a4d3 a43c 31ca 24bd db40 88bd
00000150: c4ff 623d 3573 043d df8b 393d 07cc beba
00000160: 2043 b53b 3707 14bc cafc 85bd fea1 acbd
00000170: 8f93 a1bc 6ba4 783c fc17 d33c 6939 0c3c
00000180: 39bc 46bc 1a36 30bd 947e 9dbd c078 673c
00000190: c4a8 5e3d a6fd 98bd 5c9e 243c c215 9fbc
000001a0: dc7a c1bc 60c1 b7bc 38f7 0cbb 178b 1e3c
000001b0: 2a5b c03c 01fd 343d d5e3 153d 9964 61bc
000001c0: e86e a0bd fbb5 b43c 0b98 be3a c7fc 3b3c
000001d0: 6f58 8dbc f050 5a3c 300f 3a3c 42cc d23b
000001e0: 4218 8dbd c152 ba3b 48c3 493d 8d77 8a3c
000001f0: 8fba c5bc a2ca 023d 87da d7bc bc0f f93b
00000200: a8fb d63b 4125 1cbc 793a 59bc 24f4 06bc
00000210: df87 47bd 0bb3 3bbd 19ce aa3b c929 16bd
00000220: 2a9a 083d 389a 0abd de75 f63c 5931 4dbd
00000230: 01ea a7bc dbad 3f3d c9a3 a63c 7aae 41bd
00000240: d244 d2bb 85ea 91bc 3118 733c d347 33bd
00000250: aa53 3e3d 6dd0 96bc 5444 00be 07b9 4b3c
00000260: 7979 723d e7cc abbc b4d5 3f3d 19eb c6bd
00000270: e54c 843d 57e0 2fbc abc4 ffbd 9ebd 30bc
00000280: 7547 41bd 9a0d adbd e0b9 52bd 13d0 a8bd
00000290: 2be8 de3c 6fd7 98bc dd24 1bbd 8e57 c2bc
000002a0: 99aa 0cbd 879d c3bd 3ec6 c1bb 4c91 18bd
000002b0: 36b9 163d 2823 dfbb 716f 723c 95b5 953b
000002c0: 46b1 75bd 9453 f9bc 6ae7 72bd b833 91bd
000002d0: 8c25 3ebb 959c 57bd aae8 853c 4eb8 cebd
000002e0: a1ad 9abd 1ef1 83bd e464 6abd 5112 d6bc
000002f0: 9edb 24bd 65b6 17bd fe38 693c fbaf b0bc
00000300: be30 3ebc edfb 993c ca50 80bd c83b 0e3d
00000310: af59 76bd bf98 08bc 848f 42bb 7a7e 30bd
00000320: 4547 26bc d768 7d3d 5c84 7bbd df8d 293d
00000330: a3aa 30bc 0a7a a6bc ffff 3b3c cecc f2bb
00000340: 7540 813a 0773 5dbc 1143 81bd dec7 18bc
00000350: 1d39 943d 6450 3f3d 95b0 99bc 489d dc3c
00000360: 18b9 7f3c 7f94 80bc e8aa 7abd 127d 093c
00000370: 3cc6 9b3d eacc b83b 3af5 1d3d aced 073d
00000380: 76f6 8ebd 4fae 81bb d3a5 85bc 55d1 1dbd
00000390: 0a03 113c db0c a6bc 74cf 9d3c 534d 84bb
000003a0: b53a 34bd 094b 66bd 053e 5ebd 7654 a7bd
000003b0: 6827 b8b8 ab52 30bd 9ba6 b0bb 6aa4 fdbc
000003c0: 8fee 06bd ee46 7cbd 5558 8c3b 58ad ac3c
000003d0: e803 82bc 9627 bebc ee8b cebd 0583 ee3c
000003e0: 6924 0fbd e6e0 3ebd e91a 723c d471 8ebd
000003f0: cf87 b33d 8211 c7bc 6ecd 83bd e7b1 cf3b
-0.079709865 0.012567691 -0.018393824 0.011096606 -0.04215981 0.015355824 -0.023776002 0.0013545473
-0.048345074 0.003023224 -0.03857432 -0.06278295 -0.0366579 0.04005834 -0.05544943 0.03167782
0.012162995 -0.014704544 0.021857848 -0.08864521 -0.027963808 0.02538233 0.11248158 0.013951136
0.026161298 -0.025069522 0.04260746 0.012269164 -0.064104035 0.05566646 0.043211408 0.0050087217
0.048838235 0.002251067 0.048140433 0.0030181857 0.028436052 0.045731764 0.0015386466 0.022548366
0.039623566 0.031545103 0.00025837787 0.021695536 0.011494658 -0.05526262 0.0043851323 0.0046031475
-0.02547493 0.033047833 -0.03540856 0.036756523 -0.071616486 -0.0958345 0.106529064 -0.03157021
-0.08073448 0.01775118 -0.07182118 -0.0028200282 -0.015169227 -0.120423086 0.07407377 -0.12032297
0.011912024 0.053910233 -0.0080191 0.0017411067 -0.03323292 -0.07444272 -0.035015777 -0.019905686
0.002726513 0.037324425 -0.010481182 0.02614362 0.062439352 0.03920649 0.010521924 0.021148026
-0.025521174 0.02012045 -0.040231887 -0.06652995 0.0554197 0.032336432 0.045299407 -0.0014556654
0.0055316836 -0.009034923 -0.06542356 -0.08429335 -0.019723682 0.015175919 0.025768273 0.0085586095
-0.012129837 -0.043020345 -0.076901585 0.01412791 0.054360166 -0.074702546 0.010047521 -0.019419555
-0.023618154 -0.022431076 -0.0021509659 0.009676716 0.02348097 0.044186596 0.03659423 -0.0137568945
-0.07833654 0.022059431 0.0014541162 0.011473841 -0.017254082 0.013324961 0.01135616 0.006433041
-0.068893924 0.0056861346 0.0492585 0.01690271 -0.02413681 0.031931527 -0.02634932 0.0076007526
0.0065607615 -0.009530366 -0.01325857 -0.008236919 -0.04871356 -0.045825046 0.005212557 -0.036660943
0.033350147 -0.03383848 0.0300855 -0.05009589 -0.020497324 0.04679666 0.02034177 -0.047285534
-0.0064168954 -0.017812023 0.014837311 -0.04376967 0.046466507 -0.018409932 -0.12526065 0.012434251
0.059197877 -0.020971728 0.046834663 -0.0971281 0.06459979 -0.010734639 -0.12488683 -0.010787396
-0.047187287 -0.0844986 -0.051446795 -0.08242812 0.027210316 -0.018657414 -0.037876952 -0.02372339
-0.034342382 -0.0955153 -0.005913525 -0.03724794 0.036797725 -0.006809611 0.0147970775 0.0045687654
-0.059983514 -0.030435361 -0.059302725 -0.07089943 -0.002901408 -0.052639563 0.016346294 -0.10093747
-0.07552648 -0.06442474 -0.057225123 -0.02613178 -0.040248506 -0.03703918 0.014234779 -0.021568289
-0.011608301 0.018796885 -0.06265409 0.03472498 -0.060144123 -0.008337199 -0.0029687593 -0.043089367
-0.010148828 0.06186756 -0.061405525 0.041395064 -0.01078287 -0.020321865 0.011474608 -0.0074096685
0.0009861129 -0.013516194 -0.0631162 -0.009324996 0.07237456 0.046707526 -0.018760959 0.026930466
0.015608095 -0.015695808 -0.061198145 0.0083916355 0.076061696 0.005639662 0.038563944 0.033185646
-0.069806024 -0.003957547 -0.016314423 -0.038529713 0.008850822 -0.020269802 0.01926396 -0.004037538
-0.0440013 -0.056223903 -0.054258365 -0.081704065 -8.781144e-05 -0.04304759 -0.0053909547 -0.030962188
-0.03294235 -0.06159108 0.004282991 0.02107875 -0.015871003 -0.023212235 -0.10085283 0.02911521
-0.034946833 -0.0466012 0.014776924 -0.06955305 0.08766138 -0.02430034 -0.06435667 0.0063383463

deconv2.0.bias f4 [16]
00000000: 1ed5 f13c 4fb5 76bd d376 f63c aa11 da3c
00000010: 355a 1e3d d86b 66bd 96a3 463d 3115 86bc
00000020: edee 77bd b4bd 533d 2647 e03c 858e 62bd
00000030: 36c5 d13c 8d3a 6bbc 2fe9 743c fc22 853c
0.029520568 -0.060231503 0.030085957 0.026619751 0.038660247 -0.05625519 0.04849585 -0.016367527
-0.06053059 0.051694587 0.027377676 -0.0553117 0.025606733 -0.014357221 0.014948173 0.016252033

deconv2.1.weight f4 [16]
00000000: 1a9b 733f a266 813f ca79 803f 2154 793f
00000010: 4800 7d3f 4b79 723f 5dd0 723f 7657 713f
00000020: 780e 773f fb4c 833f 548f 763f 8337 8e3f
00000030: 6ff4 7b3f ef28 743f aab5 853f 181f 803f
0.9515854 1.0109446 1.0037167 0.97393996 0.98828554 0.9471633 0.9484919 0.9427408
0.9650645 1.0257868 0.9631245 1.1110691 0.9841985 0.9537496 1.0446064 1.0009489

deconv2.1.bias f4 [16]
00000000: 8ccd 0d3c 80e9 b73d bcf7 5f3d e770 5a3c
00000010: 2186 a93c e8b5 7a3c 0b31 eb3c 995e 33bd
00000020: 90ac 6cbc 37dc 093e 639a 023d ce55 4dbd
00000030: 1150 0dbd b7d8 db3c e99a 333d 68fc 913c
0.008654963 0.089800835 0.054679617 0.013332582 0.02069384 0.015302159 0.028709909 -0.043791387
-0.014445439 0.13462912 0.031885516 -0.050130658 -0.034500185 0.026836736 0.043848906 0.017820552

deconv2.1.running_mean f4 [16]
00000000: b6f1 37bf 4bb8 14bf 51d6 93be 74c3 18bf
00000010: 99d8 85be aed3 56bf 6e00 07bf 3964 cbbe
00000020: 0da0 34bf 256f 54bf eff8 6dbf fe7a 45bf
00000030: a5ae 0cbd 4361 75be 1581 50bf c62d 69bf
-0.71853197 -0.5809371 -0.28874448 -0.5967324 -0.26141813 -0.8391675 -0.5273503 -0.397249
-0.7055672 -0.82982093 -0.9295797 -0.77140796 -0.03434624 -0.23962884 -0.81446964 -0.9108547

deconv2.1.running_var f4 [16]
00000000: 5f77 4a3f 2f93 5f3f 7c16 663f d3fb 2e3f
00000010: 3fc9 083f 96d6 ba3f adbc a73f e689 373f
00000020: 63c7 0b3f 9613 0b40 f396 e83f 83ec f83d
00000030: df75 ae3e fcc3 963f 6e42 0f3f 2403 4a3f
0.79088396 0.8733396 0.8987806 0.68353003 0.5343208 1.4596736 1.3104454 0.7169479
0.54601115 2.1730704 1.8171066 0.12154486 0.34074304 1.177856 0.5596074 0.7891104

deconv3.0.weight f4 [16, 8, 4, 4]
00000000: ae64 67bd 807a 993c 0c31 46bc d4e8 bcbd
00000010: d1e1 adbd 65b9 52bd 7a05 ad3c 407d 94bc
00000020: 9297 67bd 856f ac3c 432b b33c ba1f 933d
00000030: d1a8 7dbd be26 07bd f867 103d 4c5a cdbb
00000040: b452 f6bb bf3d 1abd 0a65 b93c 25cd a63d
00000050: 26fd 143d ddbc df3c 11dd 663d 7c55 b23c
00000060: a83e d2bb 26ec c13d 9c0d 503d 03ae 233d
00000070: a3a6 c63a 544a 8a3d 804d 813d d8c7 e4bc
00000080: 134e 593d bbc3 033d 01fc f0bc fb71 813d
00000090: 75c5 4a3d f8ff 053e c3b8 713c 5101 e63c
000000a0: 791e a23c 3868 933d 58da 5abd e5c5 8b3d
000000b0: 8e4a 6f3c edb4 eb3c 50d5 07bc 3d01 29bc
000000c0: 68bf e83c 1c52 be3d df43 89bd 6793 ed39
000000d0: df16 e13b 742a 13bd f896 ee3c 279c af3d
000000e0: 0c42 123d d77f aa3d 3e9f bebc c29c 9b3d
000000f0: 1ac9 fb3c 9b36 f93c 460f 983c de47 ba3c
00000100: 3250 0a3d df8f 5b3d 3f47 1ebc 1cbd 4cbd
00000110: 8867 0f3d 7102 533c bd24 943c 595b 84bd
00000120: ac3e 9ebc d2f7 223d 33d8 0dbd 0b8e a43b
00000130: a5ee 4a3b 34c4 933c 36e4 44bc 99b7 403d
00000140: 9224 9b3c b2c1 a2bc 6507 e13a 1402 c8ba
00000150: 0211 0b3c 9059 28bc 05bb 8c3c 34a6 8f3d
00000160: 427f 1aba 6250 323d 21f3 21bd 90a8 d4bb
00000170: 3f69 533d 8a25 2e3c aec8 e73c 6c8c a63c
00000180: 5fb7 eabc 7ee9 a3bd aab1 fdbc f9b5 7cbd
00000190: 1a9c 353d 10ad 28bd 2ecc a4bb d1b5 94bc
000001a0: 6c33 033c 6fb8 a63d 8003 073d 1e9e dc3b
000001b0: fb9a 7e3b f5d8 06bd 78d7 b1bc de61 3ebd
000001c0: 6331 253d 9ac9 a03d 53b0 083d 9227 f93c
000001d0: 93b7 b23c f169 cd3d 87bf 70bd 9285 eebc
000001e0: da3c 433d d2d8 98bd 9618 d1bc 51fe 16bc
000001f0: 1316 3d3d 829f 663d 94a6 f9bc d033 1c3d
00000200: afb0 4bbc 7476 bc3b 749f 813d a3fd b9bd
00000210: ca7a 23bd 4ceb 11bd 2a82 0d3e a98c 4d3d
00000220: b71e 903c 493e 573c aacc 043d 43f3 1abc
00000230: a834 a6bb 9d6d 11bd 07b4 513d d628 543b
00000240: c7ef 493d 7727 c5bd 4961 043b e8c6 10bd
00000250: 7627 e7bc 6d7f a0bd e267 c63d 7157 43bd
00000260: aa7e 853c 4f88 30bb ae88 193c c7c0 8a3c
00000270: 90fc 103a a6ac 583b 60be 303d 31fa fa3c
00000280: e641 273c 3013 ae3c 17d9 e23d 3872 26bb
00000290: 413a 26bb 710a d23b 94da 32bc a16a 5c3d
000002a0: 2fa5 87bc 9b0e 0f3d 1221 e53a efce dbbb
000002b0: b905 acbc 6992 bbbc 8dbc f23c f299 6cbd
000002c0: 48aa 9fbd 16e8 04bd 7129 763d a746 0bbd
000002d0: 874f a03d a44b 49bd ef44 46bd 9cc1 2a3d
000002e0: 05d7 4cbd ee2e 083d 2d66 d93d d2da 563c
000002f0: 9ba4 523d d14e 573b 60fa 4ebd 5174 293d
00000300: e978 473d 80fb 2bbb 920d ab3c 9ecd 533d
00000310: e095 a23d 08ef 6a3d 89b6 08bd d1a8 d63c
00000320: ec5a 4c3d af66 1c3d 891a 113d 82e3 e23d
00000330: e42d 0a3c b39e 05bd d8fe 363d 8508 7e3c
00000340: f496 bb3c 2836 6dbd 0556 16bd 9242 7b3d
00000350: 79b9 2fbd 9410 343d a8b0 fa3d 4c6a 013e
00000360: d376 243c 27f9 5b3d aa4b 013b 77bd eb3d
00000370: 2d5d be3d b410 ec3c 3c18 ab3d f08d f63d
00000380: d1f9 0bbd 218f b4bd 853c 9dbc 9819 cb3c
00000390: 94b2 163d 5fbd a83c daf8 da3d a119 68ba
000003a0: 3dea d83c 84d9 eabc 9dec 9c3c 5866 a23c
000003b0: 2690 83bb cf8b 5d3b a32c dc3d 6674 0e3d
000003c0: a7ec b23c fd2d 433d 282d e8bb 1d94 513d
000003d0: e278 583c ab5f 85bc 3f3f 9cbd 63b4 abbd
000003e0: 5c16 4abd 3f7b 2dbc a042 2bbd 7c21 85bd
000003f0: 6104 6dbc aab4 40bc ee38 c9bd 74f6 a0bd
-0.0564925 0.01873517 -0.012096655 -0.09224096 -0.08490337 -0.051446337 0.021120775 -0.01812613
-0.056541033 0.02104927 0.021871215 0.07183786 -0.061928574 -0.03299593 0.035255402 -0.0062668677
-0.007517183 -0.037656542 0.022631187 0.08144597 0.036374234 0.027311737 0.05636317 0.021769278
-0.0064161606 0.0946887 0.05079423 0.039960872 0.0015155863 0.06752458 0.0631361 -0.027927324
0.053052973 0.032169085 -0.02941704 0.06320568 0.049504716 0.13085926 0.014753523 0.0280768
0.019789921 0.071976125 -0.053430885 0.06824855 0.014605178 0.028772796 -0.008290604 -0.010315237
0.028411582 0.09293005 -0.067023985 0.00045313986 0.0068691815 -0.03592916 0.029124722 0.085747056
0.03570752 0.08325165 -0.023269292 0.075982586 0.030735541 0.030421546 0.01856197 0.022739347
0.033767886 0.053604003 -0.009660541 -0.049985036 0.035010844 0.012879 0.018083924 -0.06462736
-0.019316994 0.03978712 -0.03463001 0.0050218157 0.0030964997 0.018037893 -0.0120173 0.047050092
0.018938337 -0.019867752 0.0017168341 -0.0015259408 0.008487942 -0.01027526 0.017179022 0.070141226
-0.00058935967 0.04353369 -0.039538506 -0.006489821 0.051614042 0.010629067 0.028293934 0.02033063
-0.028651891 -0.080035195 -0.030968506 -0.06169698 0.044338323 -0.04118067 -0.005029223 -0.018153103
0.008007865 0.08140647 0.032962322 0.006732716 0.00388497 -0.03292175 -0.021709189 -0.046480052
0.040330302 0.078509524 0.03337128 0.030414376 0.02181605 0.10029972 -0.058776405 -0.029116426
0.047665454 -0.0746323 -0.025524419 -0.009215907 0.04616363 0.056304462 -0.030474938 0.03813535
-0.012432261 0.0057514254 0.063292414 -0.090815805 -0.039912023 -0.035624787 0.13819185 0.050182972
0.017592771 0.0131374085 0.032421745 -0.009457412 -0.005072195 -0.035504926 0.051197078 0.0032372973
0.049300935 -0.09626668 0.0020199588 -0.03534594 -0.028217059 -0.078368045 0.09687783 -0.047690812
0.01629575 -0.0026936715 0.009370966 0.016937627 0.0005530799 0.003306189 0.043150306 0.030636879
0.0102085825 0.021249384 0.11076563 -0.002539767 -0.0025364312 0.006409936 -0.010916371 0.053812627
-0.016558258 0.03492604 0.0017481169 -0.006708018 -0.020998823 -0.022896962 0.029630924 -0.057764
-0.077961504 -0.032447897 0.060098115 -0.034002926 0.07827669 -0.049144402 -0.048405584 0.041688547
-0.050009746 0.03324788 0.106151916 0.013113694 0.05142651 0.0032853375 -0.050531745 0.041370694
0.048699293 -0.0026242435 0.020880494 0.051709764 0.07938743 0.057356864 -0.033377204 0.026203545
0.049891397 0.038183864 0.035425697 0.1107855 0.008433793 -0.03262205 0.04467663 0.015504961
0.022899128 -0.057912976 -0.03670313 0.061342783 -0.04290149 0.043961123 0.12240726 0.12638205
0.0100380955 0.053704407 0.0019728937 0.11510747 0.092951156 0.028816558 0.08354232 0.12038791
-0.03417379 -0.08816362 -0.019193897 0.024792477 0.0367914 0.020598112 0.10691996 -0.00088539167
0.026478881 -0.028668173 0.019155795 0.019824192 -0.0040149866 0.0033805256 0.10750701 0.034778975
0.02184136 0.04765128 -0.007085461 0.051166642 0.013212414 -0.01628097 -0.07629251 -0.083840154
-0.04933773 -0.010588466 -0.041811585 -0.06500527 -0.014466376 -0.011761824 -0.098253116 -0.07859507

deconv3.0.bias f4 [8]
00000000: 8986 90bd 8c64 9d3d ec12 5bbd a71d 443d
00000010: 415a d03c d6b0 7f3d caeb 063d d269 813d
-0.070569105 0.076851934 -0.053484842 0.04787984 0.025433661 0.062424503 0.03293971 0.06319012

deconv3.1.weight f4 [8]
00000000: d7dd 9e3f d9fb 9b3f b187 9c3f 8591 9c3f
00000010: 3246 993f ff78 9c3f ce1d 9e3f e95e 973f
1.241145 1.2186233 1.222891 1.2231909 1.1974547 1.2224425 1.2352846 1.1825839

deconv3.1.bias f4 [8]
00000000: f2e8 733e 8a36 593e 8e88 5d3e b2c8 5f3e
00000010: 4d3f 4c3e 5067 5d3e 10c9 6c3e e2fa 403e
0.2381933 0.21212211 0.21634123 0.21853903 0.19946022 0.21621442 0.23123574 0.18845704

deconv3.1.running_mean f4 [8]
00000000: 0911 3cbe 2ce0 1fbd 74b2 a03d 5059 ff3d
00000010: e324 d13e f389 ea3e b72b 093d b135 f6bd
-0.18365873 -0.039032146 0.07846537 0.12468207 0.40848455 0.45808372 0.033488955 -0.120219596

deconv3.1.running_var f4 [8]
00000000: 621e 9e3d a3e1 6f3d 0fe2 c13d 4658 8c3d
00000010: 45a0 483d 849a 7e3d d967 9c3d 11cb 963d
0.07720639 0.058564793 0.094669454 0.06852774 0.04898097 0.062159076 0.07636995 0.073629506

deconv4.0.weight f4 [8, 3, 4, 4]
00000000: b48f 52bd a08a 8f3d b544 013e d944 7c3d
00000010: 0acf 3bbd bb6f 983d b913 aa3d b2a8 933c
00000020: a8d0 803b e6c8 0c3e a2d9 d33d 9f68 80bd
00000030: e01c 88bd 330b ad3c 75fb 3f3e bfc5 773b
00000040: 443b 88be 0161 8dbe 0383 5cbe 441f 31bd
00000050: 7d02 bcbd 8f76 24be 7fe9 87be 2a89 bebc
00000060: 859c eabd ba5a 74be dd85 05be 36b3 04bd
00000070: 29b5 a9bd bba6 dfbd 9593 89be 4b8a bdbd
00000080: 5527 92bd 36bf e0bd cc87 17be 52af 35be
00000090: 6992 10be 040b 0cbe 867b 8bbe 9e79 8bbd
000000a0: 1d1f 80be a439 0dbe b2c6 8fbe cbf4 22be
000000b0: ab80 2abe 0abb 6dbe 207e 43bd aa48 53be
000000c0: 3138 323e 9d6e dcbd 8934 24bd 13e1 d2bd
000000d0: 4b83 f53c ec3f 4fbc 9bcb ed3d 37ac 723d
000000e0: b665 88bd 10c6 d93d 4d89 003e 84e1 1f3e
000000f0: 63fd 443e 4f50 c33d 6aac 70bc fdc9 51bd
00000100: 1e2d 2dbe 72ce 82be 3c3b febc 349c 8cbe
00000110: c037 20bd 5518 97bd ddc4 f9bd 0144 39be
00000120: dcd7 88be c655 67be f462 66be 6d89 fabd
00000130: 8aa6 f4bb 3edd 38be c097 25be 3bf4 1ebe
00000140: 64eb 19be 5ff8 e2bd 7ca2 43be fb22 2bbe
00000150: 6b94 f0bd b447 40be 527e 8cbe 098a 86be
00000160: 1c1c c1bd 3d34 acbd ac83 88be 0d27 37be
00000170: 06c9 3ebe fbf8 5abe 2e54 1dbe 69b7 99bd
00000180: 6a4d 9d39 0f32 fcba e6c8 9d3d 9d25 063e
00000190: 172b 3c3e 01e5 1b3e 4b3b 413e 6ca4 223e
000001a0: d298 4c3c 807c 153d 28fd 453e 3e4b e73c
000001b0: adc7 b1bc ef0c 8c3d 0917 ec3d 8e5e 5eba
000001c0: 6adf 91be 619b 34be d9e0 6cbe 7429 c8bd
000001d0: e08a 0bbd bd03 eebd aefe 34be 4055 23be
000001e0: 7342 72be 7df3 8cbe 4086 dabc 3b0c e0bd
000001f0: 4aa1 2cbe b890 40be 1180 60bd c572 95be
00000200: 7c39 95bd 5930 75be 471c c6bd df6f bfbd
00000210: bafe 18be c754 d7bd 3268 85be c701 8abe
00000220: 0471 dabd 1b41 90bd 26d2 f9bd a36f f7bd
00000230: 3c32 cfbd d9e0 3bbb 274b acbd 8cbe 1dbe
00000240: 9d2f 503e 9682 4a3d e2bf 1c3d 66a9 b53d
00000250: ecd0 433d a4d1 983d abb9 d63c ce1e 8b3c
00000260: 1f5b fd3d f4c8 233e a5bb 423d dc62 d23d
00000270: f83b 1a3e bdfd 143d 1b62 fc3c f034 0a3c
00000280: 7a43 41be 7a8c 3cbe 1894 51be 45ee 3bbe
00000290: c913 bcbd 1f42 55be 228f 40bd 755c 06be
000002a0: 26df 39be 7208 07be 73aa 21bd 4edc a1bd
000002b0: 79e3 89be 2089 85bd 5b4e 1bbe b222 36be
000002c0: dd5d 85be 6f33 3dbe 6c4f 84be 89ac 70be
000002d0: b55a 0cbe a7cc 1abd 716c 36be ec14 b9bd
000002e0: 7221 0cbe 2348 93be 1145 73bc c54c 10bd
000002f0: 4047 80be 0a78 4fbd 4025 acbd 9a55 89be
00000300: e744 6f3e b1b5 513e 69aa 6d3e 5ca8 9a3d
00000310: 3d9b 303e fecf ff3d f508 543d 5738 123e
00000320: d2e0 123e 54ec 043d 736a bdbb 1694 5a3e
00000330: 4900 723e 25e2 823e 43f2 a03d 82df c03d
00000340: da3a 64be 39b4 f7bd a693 8a3b 8d59 81be
00000350: 3df6 6dbe c653 8fbe 3e25 a1bd db2d 68be
00000360: 99c0 4fbe 6765 09bd d060 efbd 16bb 62bd
00000370: c941 72bd a87c 8bbe a229 66be aaa0 42be
00000380: 1002 d0bd 7577 84be ebc6 4abe 74c1 39be
00000390: f360 49bd 4b2c 66be 1c5b debd 7ce8 54be
000003a0: 8386 87be 7346 98bd 9abd c3bc 80bd 46be
000003b0: 64d8 92bd c376 0ebe 48a1 c3bd 554b 00be
000003c0: a942 5b3e 1f4b 473e 59d9 b53d e227 713e
000003d0: 0a34 a83d 385b dd3d 4e88 e63d 3d2a 173c
000003e0: 964e 17bc 409a c4bb 2023 b93d cc04 2f3e
000003f0: 41d3 4e3e 1822 333e be9e a8ba 9bc1 f23c
-0.051406577 0.070088625 0.12623866 0.061589096 -0.045851745 0.07443186 0.08304543 0.018024776
0.0039311238 0.13748512 0.103442445 -0.06269955 -0.066461325 0.021123504 0.18748267 0.0037807075
-0.26607716 -0.2761307 -0.21534352 -0.043242708 -0.09180162 -0.16060852 -0.2654533 -0.023258764
-0.11455635 -0.23862734 -0.13039346 -0.03239747 -0.08286507 -0.10920473 -0.2687041 -0.09254893
-0.07136408 -0.109739706 -0.14797896 -0.1774266 -0.14118351 -0.13676077 -0.27242678 -0.06810306
-0.25023738 -0.1379152 -0.2808128 -0.15913694 -0.16650645 -0.23215881 -0.047727704 -0.20633188
0.17404248 -0.10763285 -0.040089164 -0.10296836 0.029969832 -0.0126495175 0.116111 0.059246268
-0.06660025 0.106334805 0.12552376 0.15613371 0.19237284 0.09536802 -0.014689544 -0.05121802
-0.16911742 -0.2554813 -0.031034105 -0.27462924 -0.039115667 -0.07377688 -0.12195752 -0.18092348
-0.26727188 -0.22591314 -0.22498685 -0.12233243 -0.007466142 -0.18053147 -0.1617117 -0.15522854
-0.150312 -0.11082529 -0.19104952 -0.16712563 -0.117470585 -0.18777353 -0.27440125 -0.26277187
-0.094291896 -0.08408401 -0.26662958 -0.1788599 -0.18631372 -0.21384041 -0.15364143 -0.07505686
0.00030003052 -0.0019240993 0.07704334 0.13100286 0.18375812 0.15224077 0.18870275 0.15883034
0.012487607 0.036495686 0.19334853 0.02823412 -0.021701658 0.068384044 0.11527831 -0.00084827177
-0.28490764 -0.17637397 -0.23132648 -0.097735316 -0.03406799 -0.11621807 -0.17675278 -0.15950489
-0.23658161 -0.27529517 -0.026675344 -0.10939833 -0.16858402 -0.18805206 -0.054809634 -0.29189125
-0.07286355 -0.23944224 -0.09673362 -0.093475096 -0.1494092 -0.10514217 -0.26056057 -0.2695448
-0.10666087 -0.07043668 -0.12198286 -0.1208184 -0.10117003 -0.0028667955 -0.08412772 -0.15404719
0.20330663 0.049440943 0.03826893 0.08870201 0.047806665 0.07461861 0.02621158 0.016982462
0.123708956 0.15994626 0.047542233 0.10272762 0.15061939 0.036374796 0.0308085 0.008435473
-0.18873397 -0.18412963 -0.2046665 -0.18352611 -0.09183461 -0.20826004 -0.047011502 -0.13121207
-0.1815153 -0.13186815 -0.039469194 -0.07903348 -0.2693136 -0.06520295 -0.15166609 -0.17786673
-0.26048175 -0.18476652 -0.25841844 -0.23503317 -0.13706477 -0.037792828 -0.17814805 -0.09037194
-0.13684633 -0.28765973 -0.01484801 -0.035229463 -0.2505436 -0.050651588 -0.084055424 -0.2682312
0.23366128 0.20479466 0.23209538 0.07551643 0.17246719 0.12490843 0.051766355 0.14279304
0.14343575 0.032451943 -0.005780512 0.21345553 0.23632921 0.2556316 0.07858708 0.09417631
-0.22288075 -0.120949216 0.004229027 -0.25263634 -0.23238464 -0.27993602 -0.078684315 -0.22673742
-0.20288314 -0.03354397 -0.116883874 -0.0553542 -0.05914477 -0.27243543 -0.22476819 -0.19006601
-0.101566434 -0.25872388 -0.19802444 -0.18140203 -0.049164724 -0.22477834 -0.108572215 -0.20791811
-0.26469812 -0.07435312 -0.02389412 -0.19408226 -0.071701795 -0.13912492 -0.09552246 -0.12528737
0.21412148 0.1946225 0.088793464 0.2355037 0.08213051 0.10808414 0.11256467 0.009226379
-0.009235045 -0.0059998333 0.09039903 0.17091674 0.20197774 0.17493474 -0.0012864692 0.029633334

deconv4.0.bias f4 [3]
00000000: c60d d7bd 638a 9abc 9c9a 7dbd
-0.10500674 -0.018864816 -0.061915025
