03_hw/Pix2Pix/checkpoints/pix2pix_model_epoch_230.pth (torch, 99191 bytes, 32 tensors)

conv1.0.weight f4 [8, 3, 4, 4]
-0.11132374 -0.119268805 -0.058662634 -0.19630909 0.050945386 -0.11027123 -0.022443235 0.069859274
-0.14343674 -0.048732236 -0.0027236734 0.03696221 -0.014374791 0.077067755 0.07150609 -0.13638817
0.1286505 0.18878126 0.056037515 -0.015212412 0.029870223 -0.030388623 -0.07869803 0.052647244
0.116851084 0.049643297 0.04037752 -0.045408327 -0.06875504 0.030532537 -0.06506301 0.16407272
-0.10418501 0.04381177 -0.14425366 0.050068874 -0.11049009 -0.105535425 -0.002514413 -0.115021594
0.026249308 -0.024301268 0.0017579998 -0.038182672 -0.04072494 0.0464845 0.07340904 0.04503101
-0.07116428 0.06876889 -0.01906563 -0.0192702 -0.0051922197 0.11263745 0.033724267 -0.011137196
0.1449465 0.08657875 -0.10114199 -0.072600834 0.035059873 0.12710163 -0.03014377 -0.020128181
-0.0026742322 0.13583301 0.012421834 -0.08330262 -0.04561291 -0.076095216 0.03906492 -0.030797234
0.030771727 -0.008613901 0.03693502 -0.1261599 0.06305512 -0.026512878 0.060984552 0.09515027
0.00033020877 -0.06361331 0.047600903 -0.13141228 -0.057716247 0.08276552 -0.072719164 0.06597962
-0.006232699 -0.0049772197 -0.01860541 0.0054471414 -0.06224739 -0.09258555 -0.028878115 -0.094257064
-0.13064037 0.05817669 0.009599218 -0.05757486 0.021676913 -0.01614766 0.06517766 0.14084074
-0.07581231 0.047888137 -0.108265474 -0.050198715 0.14701307 0.039167877 0.037872348 -0.06362223
-0.059689317 0.0050924625 0.09523615 -0.109243385 0.13721086 -0.02638024 0.006888084 0.1316609
0.025932083 0.06948394 -0.09183392 -0.11092352 0.024994822 0.041009374 -0.013242666 0.103011064
-0.10935456 0.09264846 -0.022060385 0.043043528 0.0143894125 0.06740564 0.08357013 -0.004182921
0.06765507 0.16598362 0.12640399 0.07917319 -0.09560121 0.035531763 0.10598628 0.12112222
0.059791118 0.11175044 0.17445467 0.053645182 0.0024969345 -0.05201968 -0.0028601754 -0.052196696
0.036577772 -0.06876686 0.14289296 -0.05585494 0.053994305 0.11480531 0.10461302 -0.15921368
-0.11020637 0.08449647 0.15787452 0.024658311 0.06389756 0.09473617 -0.0014935338 -0.04393069
-0.09632941 -0.09104124 0.0673409 0.09981769 -0.088650666 -0.057691522 -0.01275535 -0.088520475
0.083663926 -0.17296505 0.022542335 0.030228555 -0.054955173 -0.1113082 -0.04235595 0.013770449
-0.11541504 0.10797094 -0.078408875 0.11011878 -0.05669748 -0.039439443 -0.1069844 0.12432319
-0.085606076 -0.14029379 0.045325592 0.04709125 0.13433674 -0.019365612 -0.003093283 -0.13660343
0.09091743 -0.10772023 0.08508571 0.032406103 0.052862607 -0.19381878 -0.12383181 -0.03717368
-0.020313073 0.063149676 0.046734627 0.09800168 -0.09336578 -0.07501998 0.0005694628 0.08774702
-0.029972844 -0.13338263 -0.19420731 -0.22433428 -0.10205466 -0.01826435 -0.19217135 0.034491856
0.10983377 0.014949961 0.06328223 -0.10550736 0.070420444 -0.061447185 0.09338991 -0.071879975
-0.057885498 0.08779307 -0.05461069 0.067058936 0.10247996 0.0310653 -0.0023026047 -0.05333497
0.038610563 -0.11617189 -0.06887994 -0.043033823 -0.054850813 -0.09673779 0.12127018 0.0019854838
0.10078287 0.01666498 0.09657394 -0.10993199 -0.04040511 0.1099091 0.12523513 0.0606969
00000000: b3fd e3bd 3443 f4bd 3b48 70bd 4005 49be
00000010: 1cac 503d e2d5 e1bd e0da b7bc 6112 8f3d
00000020: 15e1 12be 749b 47bd a87f 32bb b065 173d
00000030: 3e84 6bbc b3d5 9d3d c971 923d 57a9 0bbe
00000040: f5bc 033e e04f 413e 9887 653d 7b3d 79bc
00000050: 66b2 f43c 90f1 f8bc 6f2c a1bd a3a4 573d
00000060: 9f4f ef3d c556 4b3d e662 253d 15fe 39bd
00000070: 71cf 8cbd 5f1f fa3c c13f 85bd ae02 283e
00000080: f35e d5bd f873 333d 3bb7 13be 0515 4d3d
00000090: a148 e2bd f522 d8bd dac8 24bb 7190 ebbd
000000a0: ca08 d73c 7413 c7bc af6c e63a 6f65 1cbd
000000b0: 32cf 26bd 8866 3e3d 7b57 963d 7072 383d
000000c0: 94be 91bd b4d6 8c3d 862f 9cbc 8adc 9dbc
000000d0: 7f23 aabb 77ae e63d 7522 0a3d c978 36bc
000000e0: db6c 143e 3350 b13d 8823 cfbd bfaf 94bd
000000f0: f19a 0f3d ee26 023e 11f0 f6bc dbe3 a4bc
00000100: 2c42 2fbb cf17 0b3e f384 4b3c 909a aabd
00000110: 9ad4 3abd cfd7 9bbd 8a02 203d 7b4a fcbc
00000120: fd14 fc3c 5221 0dbc 2d49 173d 1030 01be
00000130: 0b23 813d 8931 d9bc f0ca 793d 25de c23d
00000140: df1f ad39 b247 82bd 2af9 423d f190 06be
00000150: df67 6cbd f880 a93d c9ed 94bd 5320 873d
00000160: ab3b ccbb f217 a3bb 5f6a 98bc ef7d b23b
00000170: 1ff7 7ebd 7e9d bdbd cc91 ecbc d909 c1bd
00000180: 97c6 05be ae4a 6e3d 0a46 1d3c 9ed3 6bbd
00000190: c893 b13c 1948 84bc dd7b 853d 8e38 103e
000001a0: 7c43 9bbd 5a26 443d 4aba ddbd 2b9d 4dbd
000001b0: 988a 163e 7f6e 203d 0920 1b3d 5f4c 82bd
000001c0: c97c 74bd acde a63b 2c0b c33d ffba dfbd
000001d0: 0181 0c3e 601b d8bc 70b5 e13b 1dd2 063e
000001e0: 856f d43c 994d 8e3d 6c13 bcbd df2b e3bd
000001f0: f1c1 cc3c 72f9 273d c4f7 58bc 77f7 d23d
00000200: 49f5 dfbd 7abe bd3d fbb7 b4bc 694e 303d
00000210: 92c1 6b3c f80b 8a3d d126 ab3d e210 89bb
00000220: be8e 8a3d 9cf7 293e 0c70 013e 8e25 a23d
00000230: 91ca c3bd c189 113d 560f d93d ed0e f83d
00000240: 88e7 743d 6add e43d 3fa4 323e 0dbb 5b3d
00000250: 9ca3 233b 9712 55bd c871 3bbb 34cc 55bd
00000260: 93d2 153d a4d5 8cbd 8852 123e 26c8 64bd
00000270: 2229 5d3d 0c1f eb3d 5a3f d63d e908 23be
00000280: e1b3 e1bd 7c0c ad3d dca9 213e 3a00 ca3c
00000290: b9dc 823d 0905 c23d aec2 c3ba abf0 33bd
000002a0: 5b48 c5bd d473 babd 07ea 893d 386d cc3d
000002b0: 7b8e b5bd f24d 6cbd d1fb 50bc 394a b5bd
000002c0: fe57 ab3d c01d 31be b4aa b83c e0a1 f73c
000002d0: ad18 61bd 8ef5 e3bd 6f7d 2dbd 739d 613c
000002e0: b85e ecbd de1f dd3d d594 a0bd f485 e13d
000002f0: 9e3b 68bd 418b 21bd a31a dbbd 289d fe3d
00000300: 3d52 afbd 2da9 0fbe 54a7 393d c1e2 403d
00000310: 928f 093e a2a4 9ebc adb8 4abb c5e1 0bbe
00000320: eb32 ba3d 6d9c dcbd 6b41 ae3d 43bc 043d
00000330: 7686 583d 6e78 46be 889b fdbd 6e43 18bd
00000340: 9a67 a6bc 9e54 813d cf6c 3f3d 1bb5 c83d
00000350: 8f36 bfbd 13a4 99bd 0048 153a b6b4 b33d
00000360: 9c89 f5bc 7595 08be 48de 46be e3b7 65be
00000370: 0902 d1bd 1e9f 95bc 91c8 44be 5547 0d3d
00000380: 87f0 e03d aef0 743c 1d9a 813d 3e14 d8bd
00000390: 9838 903d 0bb0 7bbd 3643 bf3d cf35 93bd
000003a0: 5819 6dbd dacc b33d 75af 5fbd 3256 893d
000003b0: 03e1 d13d a87c fe3c 4ce7 16bb c575 5abd
000003c0: 1c26 1e3d 87eb edbd ed10 8dbd 3c44 30bd
000003d0: 3fab 60bd 761e c6bd 805c f83d e41e 023b
000003e0: 4067 ce3d ff84 883c 8fc8 c53d 0624 e1bd
000003f0: d47f 25bd 0618 e13d a33d 003e 509d 783d

conv1.0.bias f4 [8]
0.13256226 0.003949655 -0.035118476 0.12412571 0.07109841 0.10006651 -0.10829724 -0.011006798
00000000: 67be 073e 1c6c 813b 64d8 0fbd 9f35 fe3d
00000010: 0b9c 913d acef cc3d f2ca ddbd db55 34bc

conv1.1.weight f4 [8]
1.0065782 0.9777594 0.9915595 0.9592913 1.0043553 0.96355164 1.0159012 1.0704454
00000000: 8ed7 803f 714e 7a3f d8d6 7d3f 1d94 753f
00000010: b78e 803f 52ab 763f 0d09 823f 5b04 893f

conv1.1.bias f4 [8]
0.0029247375 -0.048085395 -0.029014675 -0.0024397788 -0.011078856 0.07648041 -0.043233823 0.0927222
00000000: f4ac 3f3b 31f5 44bd 2fb0 edbc b2e4 1fbb
00000010: 1784 35bc c3a1 9c3d f315 31bd 23e5 bd3d

conv1.1.running_mean f4 [8]
0.20625356 -0.028506145 -0.10127223 0.06045215 0.19165972 0.07569819 -0.11339733 -0.009726123
00000000: 2234 533e b885 e9bc d167 cfbd ac9c 773d
00000010: 7242 443e a707 9b3d dc3c e8bd 515a 1fbc

conv1.1.running_var f4 [8]
0.056129783 0.013766766 0.24141242 0.023904141 0.16511627 0.034789197 0.020068362 0.030266432
00000000: 58e8 653d 008e 613c d134 773e 9ed2 c33c
00000010: 3d14 293e 1e7f 0e3d 6866 a43c 4ff1 f73c

conv2.0.weight f4 [16, 8, 4, 4]
0.0743374 0.09976246 0.0326185 0.049424637 -0.07714874 0.07475112 -0.047411606 0.072462134
-0.07652592 0.0682229 0.053821642 0.016996847 -0.027350487 -0.0979666 -0.10064851 0.019833665
-0.01724511 0.08471872 0.0680223 -0.028066332 0.052905526 -0.07670048 0.03129642 -0.030901855
0.02370145 0.010974255 -0.05440248 0.026510302 0.037789337 0.03010229 -0.023988154 -0.08763362
-0.043020297 0.019089222 0.04309152 -0.037579462 -0.08483454 -0.017807307 -0.007610554 0.046856616
-0.033679064 -0.06652319 -0.010906957 -0.024822224 -0.10262614 -0.09058894 -0.07544831 -0.09196634
0.049028166 -0.021994907 0.043932952 0.015755234 0.028106805 0.03176097 -0.05084861 -0.04298107
0.0035917512 -0.02614144 0.011189453 0.00083974365 0.07919411 -0.021820212 -0.002665659 -0.002242491
0.06307921 -0.02635053 0.0052993726 0.047406208 0.03956352 0.0011725079 0.10026972 -0.009913187
0.052334912 -0.03328005 0.08126647 0.050354578 -0.078427814 -0.027869398 -0.05495892 -0.041227497
-0.08278313 -0.09446035 0.0054847077 -0.0010022143 -7.044466e-05 -0.020039668 0.03688957 0.011339332
0.0040779323 0.06690074 0.046887755 0.07472873 -0.0033646303 0.010194723 -0.07113901 0.011269935
0.07355687 -0.0010859853 0.085538946 0.047987632 0.07998649 0.033398673 0.020024132 0.045123424
-0.01880235 0.029633014 -0.015439747 0.058143124 -0.008355007 0.09705937 0.028536806 0.08819867
-0.009887387 0.01875145 -0.029152261 0.011345604 -0.038736902 -0.0029303841 -0.02951073 -0.031404957
0.07429052 0.020342333 0.051609356 0.047887955 0.05395387 -0.0046842396 0.062032107 -0.031475343
0.029763388 0.010737472 -0.025958933 -0.055950243 -0.046150234 -0.07090442 -0.035299666 0.07940702
0.05697045 0.00544237 -0.0040647695 0.07395299 -0.05303711 -0.002195721 0.09274825 -0.047154423
0.020711454 0.026326532 -0.048713107 -0.078183144 -0.089295164 -0.050140783 -0.08398862 -0.035152514
0.017206449 -0.046575483 0.060304906 0.03055582 0.0030796982 -0.038173266 0.076839074 0.11216909
-0.0939731 -0.024391197 0.06850044 -0.019590782 0.070206426 0.037011072 0.044091806 -0.060820583
0.022401314 -0.010449727 -0.08610046 0.035108265 0.017255528 -0.05456271 0.01932761 0.06196981
-0.021728076 -0.022531794 0.102829285 -0.0041778754 -0.047950182 -0.03239823 -0.049445383 0.027254757
-0.028958809 -0.067840695 -0.07560597 0.0048531666 -0.06900829 -0.0034752912 0.03485967 -0.024765594
-0.028161319 -0.06368192 -0.0050543067 0.0027884438 -0.018366488 0.04249898 0.034442753 -0.052440044
-0.06108749 -0.06500816 -0.07896558 0.048247706 -0.010835782 -0.030343423 0.09590759 -0.035755444
-0.027339667 -0.03512229 -0.07342577 -0.05183113 0.03421566 -0.040348377 -0.09059167 -0.12053059
0.019229058 -0.04585728 -0.03233037 -0.02420045 0.013942846 -0.06795893 -0.042739168 0.014389843
0.025950659 0.012013357 -0.02719814 0.07977178 0.050008778 -0.04951979 -0.043982163 0.018659446
-0.08558284 -0.014486327 -0.17512543 -0.059168708 0.0043992186 -0.073324986 -0.088799275 0.019595936
0.02331196 -0.05967325 0.007140472 -0.008873722 -0.1517816 -0.14137524 -0.097548135 0.018928878
-0.029217461 -0.21465482 -0.12617737 -0.064561866 -0.014053644 -0.025000082 -0.06435383 0.03818894
00000000: 353e 983d 4350 cc3d fa9a 053d 7d71 4a3d
00000010: 2900 9ebd 1d17 993d ac32 42bd 0767 943d
00000020: 9fb9 9cbd 73b8 8b3d 1574 5c3d f93c 8b3c
00000030: 210e e0bc b6a2 c8bd ce20 cebd 367a a23c
00000040: 9e45 8dbc 0281 ad3d 474f 8b3d 5deb e5bc
00000050: 77b3 583d 2415 9dbd ad30 003d e325 fdbc
00000060: 8b29 c23c 5dcd 333c 23d5 5ebd 222c d93c
00000070: fec8 1a3d 1499 f63c ce82 c4bc 4179 b3bd
00000080: 0d36 30bd 0061 9c3c bc80 303d ecec 19bd
00000090: bbbd adbd a1e0 91bc f461 f9bb b9ec 3f3d
000000a0: 0ff3 09bd 4f3d 88bd 18b3 32bc fa57 cbbc
000000b0: a72d d2bd b286 b9bd a584 9abd d958 bcbd
000000c0: c2d1 483d aa2e b4bc 0af3 333d 1f11 813c
000000d0: 3e40 e63c ca17 023d a246 50bd eb0c 30bd
000000e0: 9663 6b3b 9326 d6bc f853 373c 3e22 5c3a
000000f0: 8630 a23d 4dc0 b2bc 56b2 2ebb c2f6 12bb
00000100: ac2f 813d 11dd d7bc 5ca6 ad3b 032d 423d
00000110: 5c0d 223d d6ae 993a 365a cd3d eb6a 22bc
00000120: 225d 563d a950 08bd 096f a63d 9a40 4e3d
00000130: c39e a0bd 5d4e e4bc 9b1c 61bd 2ade 28bd
00000140: 348a a9bd 6e74 c1bd 10b9 b33b bb5c 83ba
00000150: b0bb 93b8 3b2a a4bc 8519 173d 9bc8 393c
00000160: 2da0 853b 4103 893d 600d 403d 600b 993d
00000170: 2181 5cbb c407 273c 54b1 91bd 89a5 383c
00000180: fca4 963d 9f57 8eba 0b2f af3d ae8e 443d
00000190: f5cf a33d 0ccd 083d a609 a43c 57d3 383d
000001a0: 6307 9abc efc0 f23c fef6 7cbc 7c27 6e3d
000001b0: 70e3 08bc 10c7 c63d 05c6 e93c 81a1 b43d
000001c0: b5fe 21bc a49c 993c b9d0 eebc eae2 393c
000001d0: 96aa 1ebd b00b 40bb 7dc0 f1bc 7ca2 00bd
000001e0: a125 983d f7a4 a63c 5564 533d 2926 443d
000001f0: bcfe 5c3d 407e 99bb 6115 7e3d 4aec 00bd
00000200: 59d2 f33c 39ec 2f3c d4a7 d4bc 152c 65bd
00000210: 0708 3dbd 5636 91bd 6296 10bd 26a0 a23d
00000220: d959 693d e955 b23b c231 85bb aa74 973d
00000230: 713d 59bd 16e6 0fbb cbf2 bd3d ff24 41bd
00000240: 11ab a93c bdaa d73c 6587 47bd 7c1e a0bd
00000250: 62e0 b6bd 6c60 4dbd 3a02 acbd 15fc 0fbd
00000260: 8af4 8c3c efc5 3ebd 4702 773d 3350 fa3c
00000270: c3d4 493b 925b 1cbd ce5d 9d3d e8b8 e53d
00000280: f874 c0bd 0cd0 c7bc f549 8c3d d97c a0bc
00000290: 63c8 8f3d ec98 173d 9c99 343d 011f 79bd
000002a0: f682 b73c 5535 2bbc 7055 b0bd afcd 0f3d
000002b0: 775b 8d3c 267d 5fbd f054 9e3c 0ed4 7d3d
000002c0: 14ff b1bc 9994 b8bc 2998 d23d 8fe6 88bb
000002d0: 6967 44bd 02b4 04bd 3e87 4abd 5e45 df3c
000002e0: 063b edbc 10f0 8abd 4ed7 9abd 5007 9f3b
000002f0: 3854 8dbd b6c1 63bb 03c9 0e3d 37e1 cabc
00000300: 91b2 e6bc ab6b 82bd 999e a5bb 53be 363b
00000310: 5175 96bc 6913 2e3d d813 0d3d 5fcb 56bd
00000320: e036 7abd 0023 85bd b5b8 a1bd 639f 453d
00000330: 9088 31bc c592 f8bc 336b c43d 4d74 12bd
00000340: 70f7 dfbc 64dc 0fbd 4060 96bd e14c 54bd
00000350: b825 0c3d 5744 25bd 2088 b9bd bed8 f6bd
00000360: 4286 9d3c d8d4 3bbd da6c 04bd 0640 c6bc
00000370: 8970 643c 0d2e 8bbd 440f 2fbd 60c3 6b3c
00000380: 7a96 d43c acd3 443c a2ce debc 635f a33d
00000390: 01d6 4c3d 43d5 4abd a426 34bd b2db 983c
000003a0: 0e46 afbd 0f58 6dbc 1554 33be e35a 72bd
000003b0: 5227 903b 692b 96bd 65dc b5bd a887 a03c
000003c0: b9f8 be3c f06b 74bd 9ffa e93b 1663 11bc
000003d0: a36c 1bbe acc4 10be 51c7 c7bd bc10 9b3c
000003e0: 7559 efbc 79ce 5bbe a434 01be 0339 84bd
000003f0: 4141 66bc f9cc ccbc f1cb 83bd 026c 1c3d

conv2.0.bias f4 [16]
-0.087112576 0.08313145 0.06640129 -0.011975828 -0.035301182 0.00668089 -0.035970297 -0.05845573
-0.020480601 0.042077504 -0.05906944 -0.033182885 -0.04354378 -0.08466868 0.06883661 -0.072087176
00000000: 1468 b2bd d240 aa3d 66fd 873d 4336 44bc
00000010: f997 10bd 5eeb da3b 9755 13bd 476f 6fbd
00000020: efc6 a7bc 7659 2c3d ccf2 71bd c7ea 07bd
00000030: f65a 32bd c666 adbd 35fa 8c3d 71a2 93bd

conv2.1.weight f4 [16]
0.9723023 1.058503 0.98179615 0.98801905 0.98956776 0.9791643 1.0009617 1.0261196
0.95696354 1.0012422 1.0065432 1.0117013 1.0829943 0.99230826 1.001248 1.0030764
00000000: cee8 783f 077d 873f fe56 7b3f d1ee 7c3f
00000010: 5054 7d3f 83aa 7a3f 831f 803f e357 833f
00000020: 90fb 743f b428 803f 68d6 803f 6e7f 813f
00000030: 8f9f 8a3f ea07 7e3f e528 803f cf64 803f

conv2.1.bias f4 [16]
-0.0087338425 -0.0031367994 0.010309474 -0.07176808 -0.0042667757 -0.03687853 -0.026637714 -0.032990694
-0.028804265 0.019090736 0.010413949 -0.015873764 -0.033186633 0.016658718 0.021554539 -0.004521676
00000000: 6418 0fbc c392 4dbb 11e9 283c 25fb 92bd
00000010: 4fd0 8bbb f10d 17bd 5637 dabc 4021 07bd
00000020: ecf6 ebbc 2d64 9c3c 459f 2a3c b209 82bc
00000030: b5ee 07bd dd77 883c 2593 b03c 912a 94bb

conv2.1.running_mean f4 [16]
0.09013976 -0.8081959 -0.21165146 1.0935612 -0.18663952 -0.18566188 -0.023353176 0.04391222
-0.16512276 -0.66935337 -0.0042413385 0.5756025 -0.055851974 -0.45680168 0.07533185 0.13140492
00000000: 329b b83d ede5 4ebf 29bb 58be d0f9 8b3f
00000010: 6e1e 3fbe 261e 3ebe 294f bfbc 4ddd 333d
00000020: f115 29be be5a 2bbf edfa 8abb af5a 133f
00000030: 0ac5 64bd e9e1 e9be 9647 9a3d 038f 063e

conv2.1.running_var f4 [16]
0.25148302 0.35509083 0.55018795 0.34108558 0.22706464 0.11119934 0.07404452 0.1964936
0.4507918 0.41772398 0.18164709 0.21751945 0.39333525 0.23189698 0.23290557 0.2661331
00000000: 62c2 803e 77ce b53e 1ed9 0c3f c5a2 ae3e
00000010: a283 683e 7bbc e33d a7a4 973d 9e35 493e
00000020: 2fce e63e ebdf d53e b201 3a3e 6bbd 5e3e
00000030: 3d63 c93e 6776 6d3e cc7e 6e3e 9942 883e

conv3.0.weight f4 [32, 16, 4, 4]
0.021863252 -0.002541668 -0.057550073 -0.064975694 -0.04607413 0.0016147849 0.0060136328 -0.012514349
-0.03647704 -0.012790851 -0.0015922555 -0.045706283 -0.034792796 0.03210161 0.027596207 0.009754039
-0.069939815 -0.023452517 -0.0026673723 0.011448355 -0.015052293 -0.028065473 0.0384042 -0.038567185
-0.04346388 -0.06361385 -0.01608115 0.004304993 -0.029889056 0.009180268 -0.044861194 -0.06051437
0.04968524 -0.0058104466 -0.003639651 0.02748251 0.015805267 -0.014749853 0.0065229367 0.05690926
0.008020815 0.042907525 0.012966277 -0.0069923913 0.0028891035 0.016182514 0.019469293 0.011282397
-0.0010451337 -0.010800252 -0.034736615 -0.06597603 -0.009838253 0.054698374 -0.032807607 -0.038301304
0.022478642 -0.03163743 -0.04278931 -0.05359295 0.037947945 -0.032368083 0.04264405 -0.061066806
0.049093246 0.013871214 0.02685354 0.02555754 0.007891058 0.007665732 0.03583241 -0.012531141
-0.0072598914 -0.025155084 -0.017159665 0.027749844 -0.04932835 0.059168734 -0.0109831225 -0.006289818
-0.0025010528 0.039923817 0.01903129 -0.009213925 -0.028360436 0.03753298 0.009613516 0.009749305
0.060200598 -0.028126316 0.01616131 0.030449418 -0.0024777546 -0.04976138 -0.0008470184 -0.031483196
0.06680848 0.04092757 -0.009663967 -0.019231329 0.025289256 -0.001441567 -0.04972783 -0.013637769
0.028658591 -0.062553525 -0.06385297 -0.0202417 0.045524042 -0.020668296 -0.041643348 0.01825194
0.010714876 0.05339171 -0.053233527 -0.06020756 0.06203877 -0.007834475 -0.05084396 -0.03827945
-0.06469967 0.006008512 -0.075627044 -0.11254374 -0.004017929 0.07204819 0.003075061 -0.055401433
-0.0052021933 -0.05072322 -0.029315062 -0.044313382 -0.009434161 0.043363024 -0.015135811 -0.025436752
-0.04781005 -0.018814195 -0.0012934244 -0.051054277 -0.035787195 0.028214118 0.009513937 -0.0760088
-0.02006928 0.031360786 0.04203026 -0.04379654 -0.007009241 -0.054391943 -0.0015151652 -0.039347727
-0.054520264 -0.0482742 -0.01218289 0.065133855 0.013035665 0.024943471 -0.050090842 -0.07174938
0.04605749 0.07894807 0.005546068 0.037255056 -0.017758882 0.01556946 -0.0030253148 0.014070559
0.06714158 0.043457534 0.038426895 -0.034347035 0.042432666 -0.040040266 0.020340411 0.029558072
0.011868781 0.044648025 -4.9514456e-05 -0.07555082 -0.004152977 0.023788512 -0.08117221 -0.061309524
0.06687279 0.026769608 0.041278612 0.0010229138 0.050889287 -0.043720536 -0.058725785 0.0014081697
-0.039738707 0.011011782 0.047264427 -0.08341687 0.030323533 -0.012496509 -0.037426565 -0.08568032
-0.01899291 -0.08883752 -0.04225542 -0.1287462 -0.05604285 0.050875336 -0.048530392 -0.04684147
0.052599356 0.009688922 0.036026806 -0.031997517 0.020804074 0.0021890898 -0.0013116322 -0.031724013
0.03329555 0.033055972 0.035818953 -0.013568773 -0.018057914 -0.07403129 0.037477452 -0.0106704375
0.0710623 0.055306662 -0.03990391 -0.030995041 0.025968073 -0.047063332 -0.03302112 0.028529964
0.012997323 0.04893005 0.047053 -0.050586224 -0.03296764 0.046974476 -0.06442646 -0.009361688
-0.0068227495 0.013713082 0.023161706 0.0035543721 0.06537618 -0.025651017 0.04377232 0.044115636
0.043916088 0.048306584 -0.071658105 -0.08709518 -0.031664323 -0.0045860442 -0.05846737 -0.06109217
00000000: 901a b33c 1d92 26bb a0b9 6bbd fa11 85bd
00000010: 3ab8 3cbd 31a7 d33a 020e c53b fc08 4dbc
00000020: f368 15bd b890 51bc 3bb3 d0ba 8336 3bbd
00000030: e482 0ebd fa7c 033d 7111 e23c 68cf 1f3c
00000040: 9b3c 8fbd 7e1f c0bc 15cf 2ebb e291 3b3c
00000050: e59d 76bc 90e9 e5bc b94d 1d3d a0f8 1dbd
00000060: 2e07 32bd fa47 82bd 9ebc 83bc e610 8d3b
00000070: e5d9 f4bc d668 163c 5fc0 37bd ebdd 77bd
00000080: c082 4b3d 8f65 bebb 3687 6ebb 0023 e13c
00000090: 0c7a 813c 5ea9 71bc 5cbe d53b af19 693d
000000a0: bd69 033c cdbf 2f3d 8270 543c 6e20 e5bb
000000b0: 1d57 3d3b 3191 843c 117e 9f3c ced9 383c
000000c0: defc 88ba 8af3 30bc fb47 0ebd 711e 87bd
000000d0: a030 21bc 670b 603d 4561 06bd d4e1 1cbd
000000e0: 2125 b83c 4096 01bd d843 2fbd 4884 5bbd
000000f0: 4e6f 1b3d 6594 04bd 87ab 2e3d 3021 7abd
00000100: 0016 493d 1744 633c f5fb db3c 0c5e d13c
00000110: 7f49 013c d230 fb3b 01c5 123d 6a4f 4dbc
00000120: 62e4 edbb 0912 cebc 6d92 8cbc a453 e33c
00000130: 860c 4abd ea5a 723d 8ef2 33bc d11a cebb
00000140: b4e8 23bb 2887 233d 82e7 9b3c 01f6 16bc
00000150: 2554 e8bc 2fbc 193d 0282 1d3c 8dbb 1f3c
00000160: e794 763d 2969 e6bc b964 843c 0f71 f93c
00000170: d361 22bb 97d2 4bbd 710a 5eba 86f4 00bd
00000180: e2d2 883d aba3 273d 9e55 1ebc 058b 9dbc
00000190: 6a2b cf3c f6f2 bcba 69af 4bbd f370 5fbc
000001a0: 6cc5 ea3c 101c 80bd 59c5 82bd ecd1 a5bc
000001b0: 6b77 3a3d 8f50 a9bc 3792 2abd 1885 953c
000001c0: 738d 2f3c 44b1 5a3d 660b 5abd 349c 76bd
000001d0: 5e1c 7e3d 2b5c 00bc c241 50bd eaca 1cbd
000001e0: 4381 84bd 0de3 c43b 5ae2 9abd 557d e6bd
000001f0: d5a8 83bb 008e 933d f686 493b 9dec 62bd
00000200: 2977 aabb 27c3 4fbd 2426 f0bc f381 35bd
00000210: bd91 1abc 6d9d 313d 31fc 77bc bc60 d0bc
00000220: 79d4 43bd 3a20 9abc 1f88 a9ba 4a1e 51bd
00000230: 9895 12bd 4b21 e73c 58e0 1b3c 80aa 9bbd
00000240: 5568 a4bc 2b74 003d ec27 2c3d 0064 33bd
00000250: c6ad e5bb 16ca 5ebd 8298 c6ba 152b 21bd
00000260: a450 5fbd 2bbb 45bd bf9a 47bc e664 853d
00000270: 8b93 553c 4056 cc3c 0e2c 4dbd 57f1 92bd
00000280: c7a6 3c3d 87af a13d cabb b53b c298 183d
00000290: 137b 91bc 0c17 7f3c 5c44 46bb 3488 663c
000002a0: 8681 893d 8700 323d 8565 1d3d 7aaf 0cbd
000002b0: e0cd 2d3d 4301 24bd efa0 a63c c523 f23c
000002c0: 4775 423c d9e0 363d bead 4fb8 63ba 9abd
000002d0: b215 88bb 20e0 c23c 9e3d a6bd b21f 7bbd
000002e0: 9af4 883d f04b db3c c313 293d 4b13 863a
000002f0: 4971 503d 4e14 33bd 738a 70bd 5692 b83a
00000300: 0ec5 22bd c36a 343c 5898 413d 77d6 aabd
00000310: 0f69 f83c 28be 4cbc 994c 19bd 2a79 afbd
00000320: 0597 9bbc 72f0 b5bd 0514 2dbd 0bd6 03be
00000330: 308d 65bd a862 503d cec7 46bd d7dc 3fbd
00000340: 6c72 573d 49be 1e3c d890 133d d40f 03bd
00000350: 4e6d aa3c d576 0f3b 13eb abba 0af1 01bd
00000360: ea60 083d b365 073d e5b6 123d 8f4f 5ebc
00000370: 31ee 93bc b89d 97bd f581 193d 0fd3 2ebc
00000380: 1c89 913d 3d89 623d 4872 23bd 50e9 fdbc
00000390: ffba d43c 7bc5 40bd 2741 07bd acb7 e93c
000003a0: b9f2 543c e06a 483d a6ba 403d 8033 4fbd
000003b0: 1309 07bd 4f68 403d 05f2 83bd c461 19bc
000003c0: 5f91 dfbb d6ac 603c 9ebd bd3c 78f0 683b
000003d0: f2e3 853d 1522 d2bc 9b4a 333d 99b2 343d
000003e0: 5be1 333d 20dd 453d 7cc1 92bd f55e b2bd
000003f0: 73b2 01bd 8746 96bb 7b7b 6fbd c93b 7abd

conv3.0.bias f4 [32]
0.014425922 0.057900336 0.014285956 -0.059074476 0.0040935506 -0.055085532 -0.023652699 0.060991246
0.034494508 0.020826764 -0.014849868 0.031054642 0.031209666 -0.007256915 -0.06149536 0.01052634
-0.031771183 0.018343618 0.04710232 0.025640588 0.04619848 0.05087621 0.011248657 0.046885684
0.011683266 -0.04064618 -0.011612112 -0.01296054 -0.06224242 -0.050708853 -0.053911395 0.059800282
00000000: b45a 6c3c e728 6d3d a40f 6a3c 14f8 71bd
00000010: 3123 863b 5ea1 61bd 4ec3 c1bc f5d1 793d
00000020: 1d4a 0d3d e49c aa3c dc4c 73bc 4e66 fe3c
00000030: 6aab ff3c 6acb edbb 8fe2 7bbd ac76 2c3c
00000040: 8022 02bd 5b45 963c 5dee 403d 360c d23c
00000050: 9e3a 3d3d 9363 503d 494c 383c 340b 403d
00000060: 2b6b 3f3c 9c7c 26bd ba40 3ebc 7258 54bc
00000070: e8f1 7ebd 16b4 4fbd 32d2 5cbd 24f1 743d

conv3.1.weight f4 [32]
0.9882901 0.992036 1.0051281 1.0176165 0.97617364 0.9927151 0.9894203 0.98487765
0.9705907 1.0101615 0.9839038 0.9853564 1.0187367 0.97482383 1.0104123 1.0156982
1.0094146 1.0091348 0.9985517 0.9970058 0.9857575 1.053204 1.0014415 1.005356
0.9804855 0.97407705 1.0506499 1.0096643 0.989494 1.0414994 1.0680124 1.0081806
00000000: 9400 7d3f 12f6 7d3f 0aa8 803f 4241 823f
00000010: 84e6 793f 9422 7e3f a64a 7d3f f120 7c3f
00000020: a278 783f f94c 813f 1fe1 7b3f 5140 7c3f
00000030: f765 823f 0e8e 793f 3155 813f 6602 823f
00000040: 7f34 813f 542b 813f 16a1 7f3f c63b 7f3f
00000050: 9b5a 7c3f 64cf 863f 3c2f 803f 81af 803f
00000060: 1901 7b3f 1d5d 793f b27b 863f ae3c 813f
00000070: 7b4f 7d3f da4f 853f a1b4 883f 100c 813f

conv3.1.bias f4 [32]
-0.061948944 -0.00015518442 -0.008626954 -0.1483508 -0.018472804 -0.0056347316 0.027874883 0.0058960253
0.015925657 -0.0057727885 0.0009042221 0.04057213 0.05589561 -0.022068206 -0.0005052125 -0.028604114
0.015801756 0.00030685068 -0.0042246347 -0.06042589 -0.0054853368 -0.03925335 0.012961614 -0.012577396
0.0023792933 -0.01129362 -0.0042055133 0.011789227 -0.040468514 -0.03993103 -0.063329555 0.004932066
00000000: 2dbe 7dbd 00b9 22b9 1158 0dbc 46e9 17be
00000010: 4754 97bc 8ea3 b8bb de59 e43c 7233 c13b
00000020: 8676 823c a929 bdbb 5109 6d3a f62e 263d
00000030: ccf2 643d 62c8 b4bc 3d70 04ba 2d53 eabc
00000040: af72 813c cde0 a039 ce6e 8abb 2381 77bd
00000050: 57be b3bb 1fc8 20bd f35c 543c 6c11 4ebc
00000060: ebed 1b3b e008 39bc 67ce 89bb 9a27 413c
00000070: 50c2 25bd b88e 23bd edb2 81bd 2b9d a13b

conv3.1.running_mean f4 [32]
-0.5048492 -0.6394788 -0.08407584 -0.09969052 -0.33969918 0.37177324 -0.07094852 -0.059470296
-0.12903936 -0.26280078 -0.1832624 -0.40496707 -0.49918553 -0.9087944 -0.39316726 -0.33450115
-0.4960547 -0.14091963 0.045572653 0.20502086 -0.5826554 -0.17918257 -0.34139195 -0.342852
0.16290295 -0.44577947 -0.36392787 -0.57890534 -0.1363074 0.17303139 -0.46815854 -0.53556263
00000000: cc3d 01bf e2b4 23bf f42f acbd 8b2a ccbd
00000010: 0ded adbe 1059 be3e 754d 91bd 2097 73bd
00000020: e522 04be d38d 86be 23a9 3bbe d857 cfbe
00000030: 3f95 ffbe c0a6 68bf 384d c9be bc43 abbe
00000040: e2fa fdbe 3c4d 10be 64aa 3a3d fdf0 513e
00000050: e728 15bf a37b 37be edca aebe 4c8a afbe
00000060: 08d0 263e 353d e4be c154 babe 2433 14bf
00000070: 2b94 0bbe 242f 313e 7ab2 efbe a21a 09bf

conv3.1.running_var f4 [32]
0.21206404 0.3072207 0.14668834 0.23509045 0.28016755 0.23767883 0.4258288 0.2970451
0.12470314 0.30052397 0.26865554 0.25032708 0.42746618 0.17217767 0.1975005 0.1490234
0.18587185 0.17161012 0.15932366 0.13471249 0.2040315 0.14580695 0.27204052 0.26300856
0.21509714 0.23369242 0.14094388 0.4085268 0.23807533 0.16153942 0.1541194 0.253637
00000000: 5127 593e 084c 9d3e 7835 163e 8dbb 703e
00000010: 1f72 8f3e 1462 733e 3c06 da3e 4c16 983e
00000020: 5c64 ff3d 47de 993e 388d 893e df2a 803e
00000030: d9dc da3e 584f 303e 923d 4a3e 9799 183e
00000040: 3155 3e3e 90ba 2f3e be25 233e 12f2 093e
00000050: a2ed 503e 6b4e 153e e548 8b3e 0fa9 863e
00000060: 6d42 5c3e 114d 6f3e 9853 103e 6d2a d13e
00000070: 05ca 733e 976a 253e 7ad1 1d3e b5dc 813e

deconv2.0.weight f4 [32, 16, 4, 4]
-0.076865 0.00891101 -0.02322732 0.00788732 -0.036551297 0.017646758 -0.020907028 0.010951314
-0.040219977 0.0005696688 -0.042070184 -0.060022436 -0.029180191 0.039436862 -0.050270546 0.034260992
0.004867967 -0.015023183 0.022438975 -0.08883773 -0.033771284 0.022568004 0.11648496 0.019303707
0.029937025 -0.025430419 0.054526433 0.011920801 -0.06976061 0.045435153 0.04399325 -0.0061014094
0.034857485 0.007848442 0.047677122 0.0076644 0.032667477 0.04629764 0.0027777052 0.022895122
0.026598178 0.042689085 0.0019848235 0.02891031 0.004939673 -0.054736234 0.0022162779 0.0050263903
-0.024000334 0.026635243 -0.048517693 0.03600132 -0.07088352 -0.094524994 0.106095634 -0.020503968
-0.07258748 0.015100341 -0.070104495 -0.006723497 -0.017049171 -0.11191771 0.07287321 -0.12094068
0.014855359 0.056794778 -0.005066286 0.0025548737 -0.03297272 -0.081996016 -0.039947744 -0.026004108
-0.00022178487 0.046258025 -0.007398595 0.028001387 0.069363415 0.03032801 0.015614122 0.013779218
-0.024249883 0.020462286 -0.0372366 -0.066089496 0.05375298 0.024441063 0.04874445 -0.0059248684
0.006775133 -0.0077651283 -0.06569455 -0.08207466 -0.02073934 0.018538188 0.028714452 0.012197952
-0.011206831 -0.045707643 -0.07603534 0.015918996 0.059137534 -0.07375781 0.012617053 -0.01879445
-0.022779398 -0.017055437 -0.0014509138 0.015188978 0.021648476 0.044981744 0.034403645 -0.012923384
-0.07564074 0.021236492 0.001003203 0.005826644 -0.014403879 -0.0025355616 0.019795898 0.0008964538
-0.06637517 0.00035011902 0.048105136 0.015731154 -0.021642707 0.03072923 -0.016679183 0.0045561115
-0.0026636804 -0.014867392 -0.017146843 0.0009231829 -0.04592034 -0.05417677 0.010270837 -0.0322048
0.037187032 -0.032745242 0.040545426 -0.040444665 -0.021825092 0.039685134 0.02306115 -0.03779428
-0.009454947 -0.0130581865 0.013771634 -0.039643604 0.04055498 -0.022610782 -0.12389133 0.015519689
0.062281355 -0.016044218 0.057823878 -0.09309283 0.065817885 -0.006788754 -0.11292367 -0.009769365
-0.04350317 -0.07953478 -0.04811706 -0.07847632 0.02570218 -0.01841997 -0.03855471 -0.02178719
-0.030630894 -0.08767518 -0.00088421616 -0.031019468 0.037360787 -0.008079479 0.013662987 0.0009774232
-0.0603055 -0.02873692 -0.04995327 -0.07242807 -0.0028985427 -0.046005346 0.017475413 -0.09792083
-0.067897975 -0.077306196 -0.054674283 -0.020216716 -0.042664662 -0.022456484 0.026676936 -0.0002495902
0.0047413404 0.01938941 -0.070103034 0.03938221 -0.05896718 -0.021063324 0.020527914 -0.0589844
-0.023880938 0.068985775 -0.060228042 0.045233697 -0.033585723 -0.036269337 0.022708872 -0.026893714
-0.0022121074 -0.015486619 -0.0663285 -0.009156449 0.073350474 0.0443095 -0.014999587 0.028070731
0.01245311 -0.016404063 -0.06429665 0.010238613 0.073489584 -0.0005542232 0.038547385 0.025183277
-0.07736098 -0.005570339 -0.020163465 -0.033239763 0.0075806607 -0.020062095 0.02768404 -0.005790794
-0.046112202 -0.057652924 -0.04955897 -0.07184236 -0.009895774 -0.04442049 0.00039027756 -0.033798296
-0.03463916 -0.061758216 -0.0008206707 0.022614416 -0.0071411715 -0.027217401 -0.09984797 0.031447
-0.032751076 -0.040420603 0.012793944 -0.06294274 0.07251376 -0.027813649 -0.06734485 2.2130258e-05
00000000: 666b 9dbd 7cff 113c 3847 bebc d139 013c
00000010: d0b6 15bd ef8f 903c 3745 abbc 246d 333c
00000020: b4bd 24bd d355 153a c951 2cbd 16da 75bd
00000030: 4c0b efbc 8c88 213d 7de8 4dbd 4155 0c3d
00000040: 7883 9f3b cc23 76bc f1d1 b73c 8ef0 b5bd
00000050: c253 0abd 89e0 b83c ab8f ee3d cf22 9e3c
00000060: 7e3e f53c 7453 d0bc 1c57 5f3d 774f 433c
00000070: a7de 8ebd 361a 3a3d 4432 343d 55ee c7bb
00000080: b9c6 0e3d c096 003c 1649 433d a625 fb3b
00000090: 55ce 053d 98a2 3d3d 290a 363b 8d8e bb3c
000000a0: 6ce4 d93c c0da 2e3d d013 023b 50d5 ec3c
000000b0: fbdc a13b 1a33 60bd f93e 113b 6bb4 a43b
000000c0: 599c c4bc 2732 da3c 7dba 46bd 1f76 133d
000000d0: 612b 91bd 5296 c1bd ab48 d93d f0f7 a7bc
000000e0: bfa8 94bd 6c67 773c f292 8fbd c850 dcbb
000000f0: b4aa 8bbc 1d35 e5bd 8d3e 953d bfaf f7bd
00000100: e463 733c a4a1 683d 1603 a6bb ab6f 273b
00000110: 670e 07bd 87ed a7bd 3fa0 23bd 9106 d5bc
00000120: ec8e 68b9 0e79 3d3d ea6f f2bb 2a63 e53c
00000130: 680e 8e3d 7272 f83c 60d2 7f3c 3bc2 613c
00000140: b1a7 c6bc 86a0 a73c 6885 18bd ee59 87bd
00000150: 162c 5c3d a038 c83c 43a8 473d 6625 c2bb
00000160: ef01 de3b 9e72 febb dd8a 86bd c216 a8bd
00000170: 8ce5 a9bc 66dd 973c 923a eb3c ebd9 473c
00000180: db9c 37bc f037 3bbd 6bb8 9bbd 8e68 823c
00000190: 333a 723d 560e 97bd c2b7 4e3c d2f6 99bc
000001a0: dc9b babc d8b7 8bbc 972c beba 31db 783c
000001b0: 2558 b13c c73e 383d d6ea 0c3d 9abc 53bc
000001c0: 88e9 9abd 27f8 ad3c e87d 833a 6fed be3b
000001d0: 3ffe 6bbc aa2b 26bb 022b a23c ffff 6a3a
000001e0: b5ef 87bd 2e90 b739 e409 453d 9fde 803c
000001f0: 0c4c b1bc debb fb3c c8a2 88bc 6f4b 953b
00000200: 2491 2ebb 5d96 73bc 8977 8cbc c101 723a
00000210: f716 3cbd 76e8 5dbd 0347 283c 2ee9 03bd
00000220: 6e51 183d e01f 06bd f612 263d 4ea9 25bd
00000230: 89ca b2bc e18c 223d bdea bc3c 2dce 1abd
00000240: ece8 1abc 01f2 55bc 6ba2 613c 5561 22bd
00000250: fb1c 263d 3f3a b9bc bdba fdbd 4b46 7e3c
00000260: bc1a 7f3d 2a6f 83bc bbd8 6c3d 74a7 bebd
00000270: 87cb 863d 3274 debb 8644 e7bd b00f 20bc
00000280: 6130 32bd 21e3 a2bd 6516 45bd 31b8 a0bd
00000290: 618d d23c 7ae5 96bc 8beb 1dbd 0d7b b2bc
000002a0: a4ed fabc 0b8f b3bd beca 67ba 8a1c febc
000002b0: a007 193d cb5f 04bc b9da 5f3c e11c 803a
000002c0: e602 77bd b069 ebbc cd9b 4cbd 2b55 94bd
000002d0: 7af5 3dbb 1a70 3cbd 9928 8f3c b78a c8bd
000002e0: 180e 8bbd b652 9ebd 24f2 5fbd 879d a5bc
000002f0: 24c1 2ebd a9f6 b7bc 9789 da3c 6edb 82b9
00000300: 3f5d 9b3b 8ad6 9e3c 2e92 8fbd 3d4f 213d
00000310: 9287 71bd fe8c acbc 282a a83c a099 71bd
00000320: f5a1 c3bc 6a48 8d3d aeb1 76bd f846 393d
00000330: 2f91 09bd 288f 14bd f507 ba3c 3550 dcbc
00000340: 01f9 10bb 97bb 7dbc 3dd7 87bd ee04 16bc
00000350: c638 963d e17d 353d d4c0 75bc 97f4 e53c
00000360: 2108 4c3c d061 86bc f6ad 83bd dbbf 273c
00000370: b581 963d 4a49 11ba dde3 1d3d 294d ce3c
00000380: 6f6f 9ebd 6487 b6bb da2d a5bc 6b26 08bd
00000390: 3167 f83b 4359 a4bc a4c9 e23c b3c0 bdbb
000003a0: 26e0 3cbd 7925 6cbd 59fe 4abd 1622 93bd
000003b0: e221 22bc 42f2 35bd 2b9e cc39 1570 0abd
000003c0: cbe1 0dbd 2ff6 7cbd 4722 57ba de41 b93c
000003d0: 7d00 eabb 07f7 debc 187d ccbd 92ce 003d
000003e0: fe25 06bd 1390 25bd b19d 513c 20e8 80bd
000003f0: 1882 943d 73d9 e3bc 19ec 89bd 5ea4 b937

deconv2.0.bias f4 [16]
0.029522287 -0.060263548 0.03012441 0.026605051 0.038704995 -0.05624596 0.04848914 -0.016374437
-0.060498524 0.051704645 0.027372664 -0.055547804 0.025584714 -0.014374847 0.0149779115 0.016251108
00000000: b9d8 f13c e9d6 76bd 77c7 f63c d6f2 d93c
00000010: 2189 1e3d 2a62 66bd 8c9c 463d af23 86bc
00000020: 4dcd 77bd 40c8 533d a33c e03c 1886 63bd
00000030: 0997 d13c 7a84 6bbc ea65 753c 0b21 853c

deconv2.1.weight f4 [16]
0.96741444 1.0172313 1.0096978 0.98461014 0.9954561 0.9515255 0.9573281 0.9459116
0.9657907 1.0263294 0.9716276 1.0932028 0.9820704 0.95571923 1.0386086 1.0097283
00000000: 79a8 773f a334 823f c73d 813f 690f 7c3f
00000010: 36d6 7e3f 2d97 733f 7413 753f 4327 723f
00000020: 0f3e 773f c35e 833f 96bc 783f 12ee 8b3f
00000030: f768 7b3f 04aa 743f 20f1 843f c73e 813f

deconv2.1.bias f4 [16]
0.008901043 0.098594666 0.058580726 0.018758088 0.041530803 0.016484965 0.033363193 -0.042230055
-0.02068358 0.12684558 0.035194416 -0.03806525 -0.028222803 0.03768325 0.048776936 0.023596967
00000000: aed5 113c 00ec c93d 58f2 6f3d 90aa 993c
00000010: 341c 2a3d 7a0b 873c d8a7 083d 6cf9 2cbd
00000020: 9c70 a9bc cfe3 013e 0528 103d 4fea 1bbd
00000030: 8233 e7bc c059 1a3d 53ca 473d 6d4e c13c

deconv2.1.running_mean f4 [16]
-0.6470312 -0.59939224 -0.2821698 -0.5512089 -0.3135912 -0.81077415 -0.5080449 -0.37267634
-0.63370234 -0.757146 -0.8763749 -0.77303576 -0.16612929 -0.29628214 -0.8654045 -0.8815307
00000000: d6a3 25bf c571 19bf 8f78 90be 071c 0dbf
00000010: 078f a0be e58e 4fbf 3b0f 02bf 6fcf bebe
00000020: 513a 22bf 52d4 41bf 1b5a 60bf ace5 45bf
00000030: cc1d 2abe 4bb2 97be 268b 5dbf ffab 61bf

deconv2.1.running_var f4 [16]
0.70148873 0.8756436 0.8608919 0.6245933 0.6461991 1.3543571 1.236582 0.6233509
0.5093051 1.9160302 1.6003276 0.14519843 0.4886379 1.3304001 0.68134356 0.7395266
00000000: c494 333f 2e2a 603f 6963 5c3f 59e5 1f3f
00000010: 4e6d 253f 935b ad3f 5248 9e3f ed93 1f3f
00000020: d261 023f 7a40 f53f 89d7 cc3f e6ae 143e
00000030: bf2e fa3e 8d4a aa3f 886c 2e3f 9e51 3d3f

deconv3.0.weight f4 [16, 8, 4, 4]
-0.057658985 0.021381406 -0.017748944 -0.09050863 -0.11800375 -0.045868017 0.028095469 -0.020547867
-0.055911563 0.021159178 0.023020022 0.065767124 -0.053089485 -0.031560592 0.04525828 -0.0070649167
-0.006738453 -0.0432218 0.017565845 0.08335901 0.043059874 0.03249602 0.053899743 0.019149717
-0.00026831127 0.09590144 0.052931655 0.04602405 0.0011245944 0.07233535 0.065085046 -0.031839512
0.056253538 0.029284457 -0.00495892 0.061819695 0.051503416 0.14219613 0.010902628 0.03341347
0.02165947 0.077185355 -0.056592043 0.073418126 0.018619899 0.030153146 -0.010860778 -0.0119435005
0.021721233 0.075143375 -0.057394516 0.0058544106 0.0013474058 -0.044640787 0.029228205 0.10073848
0.03509646 0.0878999 -0.028406369 0.080525175 0.03051806 0.034533817 0.01411728 0.031795517
0.041297857 0.05980786 -0.004923234 -0.052157212 0.036775924 0.011721735 0.015703723 -0.063346684
-0.02151574 0.04662487 -0.037775535 0.0055379546 0.00049989915 0.012252094 -0.014385329 0.042573724
0.021129083 -0.027942194 0.005025372 0.00023340715 0.009929277 -0.013242625 0.023607763 0.07262958
-0.002820075 0.047246054 -0.041648638 -0.00754377 0.053280856 0.025289517 0.02648368 0.0256878
-0.024507077 -0.08562002 -0.03795998 -0.06290234 0.05229629 -0.044639513 -0.008334528 -0.023613023
0.009501057 0.08145202 0.032011874 0.009266692 0.007568763 -0.028104233 -0.0245501 -0.045140393
0.043340918 0.08148612 0.035830207 0.031764098 0.013670252 0.10787295 -0.0584913 -0.029569142
0.05297528 -0.07285358 -0.027367905 -0.011003109 0.046435628 0.06014372 -0.02880563 0.03643418
-0.016822971 0.0064594457 0.06814364 -0.09787016 -0.06110122 -0.0394741 0.1570203 0.055756226
0.015213943 0.027286645 0.04433801 -0.0035370751 -0.011237385 -0.03632249 0.049961418 -0.0029046428
0.049515978 -0.09152726 0.00077742746 -0.050577972 -0.026739832 -0.079172805 0.099576294 -0.051688958
0.013536163 0.0064101736 0.020653592 0.01905459 0.012437919 -0.0032322854 0.037226077 0.026885489
0.006964235 0.030917052 0.1371802 -0.0007020714 0.001480199 0.005637216 0.0007959667 0.048641644
-0.018469417 0.034899425 0.0030852093 -0.0100246435 -0.031026876 -0.015236835 0.040512554 -0.054303665
-0.08382052 -0.03469825 0.06803157 -0.026273513 0.08119144 -0.04850034 -0.045229565 0.04159195
-0.044213377 0.03767159 0.119657435 0.005711979 0.04933471 -0.0021632265 -0.052882947 0.033515044
0.051061135 -0.010807971 0.007604077 0.046388973 0.07894024 0.05079079 -0.044067845 0.021716634
0.047633365 0.029958531 0.009811679 0.10584204 0.010450939 -0.031337976 0.045939106 0.02190582
0.024388492 -0.045626394 -0.04401284 0.057639368 -0.050296463 0.042498983 0.12591343 0.11132535
0.012524028 0.05490509 -0.0017188934 0.11065827 0.08736092 0.017900052 0.0949117 0.11879728
-0.040705193 -0.09179705 -0.024046976 0.022039888 0.028369058 0.022148212 0.101821765 -0.0023324038
0.026555432 -0.026020804 0.0153695 0.013887605 -0.010423955 0.0062569566 0.10498562 0.034626756
0.025219956 0.051032018 8.078204e-05 0.06271747 0.017112985 0.0010069156 -0.07454429 -0.089207634
-0.05358085 0.00156059 -0.039014164 -0.051993303 -0.001802136 -0.0036824017 -0.09703693 -0.08049194
00000000: d42b 6cbd 0f28 af3c 3c66 91bc 975c b9bd
00000010: f3ab f1bd 1ae0 3bbd 7828 e63c 0054 a8bc
00000020: 8603 65bd 0356 ad3c 7c94 bc3c eab0 863d
00000030: 5c74 59bd ae45 01bd bf60 393d d180 e7bb
00000040: 3ece dcbb 5809 31bd 3fe6 8f3c 21b8 aa3d
00000050: 8d5f 303d 8c1a 053d fac5 5c3d dedf 9c3c
00000060: 21ac 8cb9 f967 c43d ddce 583d b783 3c3d
00000070: 2067 933a 8e24 943d 4f4b 853d 266a 02bd
00000080: 1c6a 663d f5e5 ef3c 707e a2bb a636 7d3d
00000090: 3ff5 523d dd9b 113e f0a0 323c 90dc 083d
000000a0: 336f b13c 5b13 9e3d 0fcd 67bd 3e5c 963d
000000b0: c288 983c bb03 f73c 68f1 31bc acae 43bc
000000c0: baf0 b13c c5e4 993d 8316 6bbd 5bd6 bf3b
000000d0: 709b b03a 42d9 36bd fd6f ef3c fa4f ce3d
000000e0: 4ec1 0f3d dd04 b43d 79b4 e8bc 62ea a43d
000000f0: 0301 fa3c 5573 0d3d 2a4c 673c 043c 023d
00000100: f127 293d 16f9 743d 1553 a1bb cda2 55bd
00000110: 5aa2 163d 850c 403c 18a5 803c e8bb 81bd
00000120: c741 b0bc b8f9 3e3d 85ba 1abd bb77 b53b
00000130: aa0b 033a 02bd 483c 71b0 6bbc c961 2e3d
00000140: e616 ad3c 07e7 e4bc e0ab a43b c1be 7439
00000150: 68ae 223c 98f7 58bc 1165 c13c d1be 943d
00000160: 02d1 38bb 1485 413d c397 2abd bb31 f7bb
00000170: 073d 5a3d f62b cf3c 4df4 d83c 396f d23c
00000180: 11c3 c8bc 8d59 afbd ed7b 1bbd f1d2 80bd
00000190: a234 563d ecd7 36bd 8b8d 08bc 1970 c1bc
000001a0: 52aa 1b3c 51d0 a63d e21e 033d 53d3 173c
000001b0: 6303 f83b d93a e6bc 4b1d c9bc 22e5 38bd
000001c0: 3f86 313d 32e2 a63d b2c2 123d 121b 023d
000001d0: 31f9 5f3c 7eec dc3d 9394 6fbd fc3a f2bc
000001e0: 9bfc 583d 4234 95bd a832 e0bc 6246 34bc
000001f0: 4933 3e3d 4359 763d c9f9 ebbc 023c 153d
00000200: 54d0 89bc c2a9 d33b e58e 8b3d 2770 c8bd
00000210: 4645 7abd 98af 21bd eec9 203e a460 643d
00000220: e743 793c 3e88 df3c c69b 353d 46ce 67bb
00000230: 021d 38bc e4c6 14bd 58a4 4c3d d25b 3ebb
00000240: 44d1 4a3d a572 bbbd 46cc 4b3a d92a 4fbd
00000250: 7e0d dbbc 5a25 a2bd a8ee cb3d cdb7 53bd
00000260: c8c6 5d3c 6f0c d23b b931 a93c 5f18 9c3c
00000270: 6ac8 4b3c c0d4 53bb 5f7a 183d f53e dc3c
00000280: 3d34 e43b c245 fd3c f778 0c3e 370b 38ba
00000290: 3d03 c23a 65b8 b83b 6ca8 503a 763c 473d
000002a0: 2d4d 97bc b3f2 0e3d 3931 4a3b 673e 24bc
000002b0: 132c febc eba3 79bc 7ef0 253d 856d 5ebd
000002c0: 18aa abbd c11f 0ebd 2354 8b3d 8d3b d7bc
000002d0: b347 a63d 4ba8 46bd a342 39bd 525c 2a3d
000002e0: 1619 35bd 864d 1a3d f50e f53d 8e2b bb3b
000002f0: 3113 4a3d ebc4 0dbb ca9b 58bd 1247 093d
00000300: 7b25 513d ea13 31bc 9f2b f93b 5d02 3e3d
00000310: 6cab a13d 010a 503d 7c80 34bd 15e7 b13c
00000320: 341b 433d 986b f53c 2ac1 203c b6c3 d83d
00000330: 6a3a 2b3c 405c 00bd a52a 3c3d d673 b33c
00000340: 60ca c73c bee2 3abd cf46 34bd 4217 6c3d
00000350: aa03 4ebd 6a13 2e3d 73ef 003e 8cfe e33d
00000360: 9531 4d3c 29e4 603d 7e4c e1ba cea0 e23d
00000370: 48ea b23d 21a3 923c 1161 c23d fd4b f33d
00000380: 7dba 26bd 1700 bcbd 2afe c4bc ff8c b43c
00000390: 3a66 e83c 2b70 b53c ee87 d03d 3edb 18bb
000003a0: c78a d93c 9529 d5bc 5bd0 7b3c d688 633c
000003b0: 3cc9 2abc 2807 cd3b b302 d73d c9d4 0d3d
000003c0: 159a ce3c f306 513d 8769 a938 0472 803d
000003d0: 8830 8c3c 7bfa 833a adaa 98bd 7eb2 b6bd
000003e0: 9877 5bbd b68c cc3a 51cd 1fbd eef6 54bd
000003f0: a635 ecba 7354 71bb 4cbb c6bd f5d8 a4bd

deconv3.0.bias f4 [8]
-0.07196926 0.0755947 -0.05380185 0.047381703 0.025564935 0.062995054 0.03229829 0.06306493
00000000: 9f64 93bd 65d1 9a3d 545f 5cbd 5113 423d
00000010: 8e6d d13c 8d03 813d 364b 043d 3028 813d

deconv3.1.weight f4 [8]
1.2188512 1.1986967 1.2030746 1.2028198 1.1785983 1.1982614 1.2128134 1.1658566
00000000: 5103 9c3f e56e 993f 59fe 993f 00f6 993f
00000010: 4fdc 963f a160 993f 783d 9b3f ca3a 953f

deconv3.1.bias f4 [8]
0.21503618 0.19270046 0.19751948 0.19864292 0.18242063 0.1939548 0.20951463 0.17088267
00000000: 7232 5c3e 4553 453e 8c42 4a3e 0d69 4b3e
00000010: 79cc 3a3e 169c 463e 018b 563e defb 2e3e

deconv3.1.running_mean f4 [8]
-0.14562298 0.012752766 0.16583101 0.17099184 0.3912317 0.4794223 0.045206625 -0.03026247
00000000: 311e 15be faf0 503c 9bcf 293e 7c18 2f3e
00000010: 854f c83e d776 f53e 952a 393d 00e9 f7bc

deconv3.1.running_var f4 [8]
0.07891947 0.08032943 0.12450509 0.10358266 0.06161012 0.08449905 0.1017007 0.10383094
00000000: 88a0 a13d c283 a43d 86fc fe3d 2523 d43d
00000010: e55a 7c3d d70d ad3d 7548 d03d 51a5 d43d

deconv4.0.weight f4 [8, 3, 4, 4]
-0.043836582 0.0872958 0.13763721 0.073389314 -0.038117174 0.08047269 0.09217635 0.018119963
0.009785772 0.15799236 0.112535514 -0.059040774 -0.060228914 0.025506329 0.19862542 0.0024458573
-0.25366145 -0.2640446 -0.20207223 -0.030150369 -0.07771196 -0.14549302 -0.25048393 -0.008083157
-0.10045395 -0.22409141 -0.116627656 -0.018188685 -0.0690341 -0.09460288 -0.25513303 -0.07872056
-0.05982693 -0.09695472 -0.13658746 -0.16569641 -0.12939647 -0.124004886 -0.26020622 -0.056617662
-0.23818131 -0.12375158 -0.26816052 -0.14538477 -0.15557593 -0.22109923 -0.035276182 -0.19458883
0.18457763 -0.09882977 -0.032656364 -0.09627028 0.033766285 -0.010439433 0.12418569 0.06274084
-0.06210959 0.12702125 0.13324577 0.16551688 0.20015077 0.09909515 -0.0070196874 -0.04857447
-0.15732075 -0.24416043 -0.017750058 -0.26217103 -0.025726777 -0.05925885 -0.10777344 -0.16671118
-0.25526547 -0.21294875 -0.21227108 -0.10951323 0.0058797235 -0.1664404 -0.14914247 -0.14207628
-0.1395394 -0.09831296 -0.18006833 -0.15592656 -0.10632187 -0.17591754 -0.26332694 -0.25236198
-0.083694026 -0.07107473 -0.25523552 -0.16690794 -0.17574967 -0.20340505 -0.142134 -0.06431637
0.0018618528 -0.0054003806 0.07715969 0.13551502 0.18135363 0.15350646 0.18868539 0.15923242
0.012331835 0.035303824 0.19373381 0.028264703 -0.019966332 0.0713647 0.113559015 -0.003227563
-0.27356133 -0.16397227 -0.21948203 -0.08649361 -0.021054635 -0.10280147 -0.16376017 -0.14658959
-0.22561665 -0.2644669 -0.0139022805 -0.09725235 -0.15756923 -0.17587836 -0.042124406 -0.27989691
-0.06213204 -0.22790572 -0.085350975 -0.08197491 -0.1376582 -0.0935822 -0.24844156 -0.25795537
-0.09538992 -0.058026426 -0.11064112 -0.109192185 -0.09046853 0.008385322 -0.073175445 -0.1448943
0.20685938 0.050716307 0.037318066 0.090475604 0.049321674 0.07608586 0.024525357 0.011936015
0.12122498 0.15888886 0.043529272 0.10029269 0.15385374 0.038579043 0.029664975 0.0022935274
-0.17744254 -0.17246282 -0.19364719 -0.17249908 -0.08038797 -0.19558711 -0.03494931 -0.11884607
-0.16895825 -0.11934307 -0.026385235 -0.06611421 -0.25879124 -0.05296994 -0.1395798 -0.16600618
-0.24962404 -0.17266074 -0.24775316 -0.22351043 -0.12587196 -0.026088575 -0.16672912 -0.08017395
-0.124516115 -0.2744574 -0.0024293403 -0.022444053 -0.24049011 -0.039504785 -0.07280272 -0.25824344
0.22011347 0.1857496 0.21889538 0.05580873 0.15873647 0.113762 0.03815667 0.13130298
0.12712446 0.011587541 -0.021786636 0.19455665 0.22450961 0.24435881 0.06653441 0.08276273
-0.2134888 -0.110806316 0.013471744 -0.24318466 -0.22270027 -0.2702486 -0.06914631 -0.21719459
-0.19312812 -0.02350908 -0.10649621 -0.045197364 -0.049775835 -0.26323777 -0.2151651 -0.18059811
-0.09188283 -0.24903943 -0.18813996 -0.17168681 -0.03905109 -0.21576129 -0.09840552 -0.19840623
-0.2543904 -0.06379578 -0.013632291 -0.1836385 -0.061887704 -0.12961979 -0.0856807 -0.115939476
0.20370618 0.17552716 0.07811263 0.21958989 0.07253211 0.10209486 0.10143253 -0.0014067201
-0.020605013 -0.020673566 0.07786839 0.15374479 0.19368169 0.17030418 -0.012951942 0.017001273
00000000: fd8d 33bd 24c8 b23d c5f0 0c3e 234d 963d
00000010: c120 1cbd dece a43d f4c6 bc3d 5170 943c
00000020: 8154 203c c0c8 213e 0579 e63d bdd4 71bd
00000030: 98b2 76bd a6f2 d03c 7664 4b3e ad4a 203b
00000040: eadf 81be db30 87be 06ec 4ebe e8fd f6bc
00000050: 7327 9fbd 1ffc 14be 6e3f 80be 386f 04bc
00000060: cdba cdbd 3878 65be 7bda eebd 7000 95bc
00000070: c061 8dbd 28bf c1bd cca0 82be 3f38 a1bd
00000080: 150d 75bd 3290 c6bd 95dd 0bbe 52ac 29be
00000090: 8280 04be 46f6 fdbd c039 85be ece7 67bd
000000a0: cde5 73be 7871 fdbd 564c 89be bfdf 14be
000000b0: 4c4f 1fbe d667 62be c27d 10bd 4b42 47be
000000c0: eb01 3d3e 4367 cabd aec2 05bd 5a29 c5bd
000000d0: 844e 0a3d 280a 2bbc 1155 fe3d 457e 803d
000000e0: a066 7ebd dc11 023e 9471 083e 427d 293e
000000f0: 53f4 4c3e 66f2 ca3d 6805 e6bb 06f6 46bd
00000100: b118 21be 3105 7abe 9268 91bc 483b 86be
00000110: f6c0 d2bc 68b9 72bd 52b8 dcbd 56b6 2abe
00000120: 28b2 82be 3d0f 5abe 975d 59be 7948 e0bd
00000130: b2aa c03b 5a6f 2abe ceb8 18be 727c 11be
00000140: 6be3 0ebe 4e58 c9bd d563 38be 36ab 1fbe
00000150: 48bf d9bd ba23 34be cad2 86be 9735 81be
00000160: c667 abbd a18f 91bd 3bae 82be eae9 2abe
00000170: b9f7 33be 6a49 50be 938b 11be 4db8 83bd
00000180: 6a09 f43a adf5 b0bb e605 9e3d 73c4 0a3e
00000190: c4b4 393e cc30 1d3e be36 413e d30d 233e
000001a0: 770b 4a3c be9a 103d 2862 463e 618b e73c
000001b0: 6f90 a3bc a827 923d a191 e83d 8685 53bb
000001c0: 3b10 8cbe 59e8 27be e6bf 60be 9023 b1bd
000001d0: c57a acbc 9489 d2bd bfb0 27be 951b 16be
000001e0: 0d08 67be 3568 87be 64c6 63bc 3d2c c7bd
000001f0: d459 21be 7519 34be a48a 2cbd a64e 8fbe
00000200: 2a7e 7ebd 1e60 69be 7ecc aebd 76e2 a7bd
00000210: 45f6 0cbe 06a8 bfbd 7767 7ebe ba12 84be
00000220: ca5b c3bd 1ead 6dbd d097 e2bd 27a0 dfbd
00000230: 9147 b9bd 9762 093c 02dd 95bd 2c5f 14be
00000240: f2d2 533e e7bb 4f3d d4da 183d 464b b93d
00000250: 8605 4a3d e7d2 9b3d 67e9 c83c 478f 433c
00000260: cd44 f83d c3b3 223e c04b 323d 4166 cd3d
00000270: d68b 1d3e 0f05 1e3d f603 f33c 014f 163b
00000280: 7fb3 35be 189a 30be 734b 46be 99a3 30be
00000290: 73a2 a4bd fd47 48be 0227 0fbd 9165 f3bd
000002a0: 6403 2dbe 246a f4bd d925 d8bc e366 87bd
000002b0: 4980 84be 02f7 58bd 02ee 0ebe 86fd 29be
000002c0: 729d 7fbe facd 30be 01b3 7dbe ebdf 64be
000002d0: 94e4 00be b5b7 d5bc 0abb 2abe 3d32 a4bd
000002e0: 4e02 ffbd ae85 8cbe 9135 1fbb 97dc b7bc
000002f0: 0a43 76be c5cf 21bd 9819 95bd 7c38 84be
00000300: 6d65 613e 2535 3e3e 1c26 603e b297 643d
00000310: d08b 223e 0dfc e83d 2b4a 1c3d 4a74 063e
00000320: ea2c 023e abd9 3d3c e379 b2bc dc39 473e
00000330: d9e5 653e 3239 7a3e 3143 883d 827f a93d
00000340: cf9c 5abe 6cee e2bd 97b8 5c3c 6605 79be
00000350: 8a0b 64be 065e 8abe 959c 8dbd 4268 5ebe
00000360: 61c3 45be 1d96 c0bc af1a dabd df20 39bd
00000370: bfe1 4bbd 1ac7 86be 3d54 5cbe b6ee 38be
00000380: 112d bcbd 3104 7fbe c3a7 40be abce 2fbe
00000390: 09f4 1fbd 87f0 5cbe d588 c9bd 012b 4bbe
000003a0: 753f 82be 5da7 82bd f959 5fbc bb0b 3cbe
000003b0: f67d 7dbd 0dbb 04be 5d79 afbd ad71 edbd
000003c0: 5a98 503e 64bd 333e 84f9 9f3d 2cdc 603e
000003d0: b78b 943d 1c17 d13d dcbb cf3d b261 b8ba
000003e0: d8cb a8bc 9c5b a9bc 7679 9f3d 466f 1d3e
000003f0: 7e54 463e 3864 2e3e 6234 54bc 4146 8b3c

deconv4.0.bias f4 [3]
-0.08470083 -0.0061075026 -0.056275293
00000000: a177 adbd 7221 c8bb ec80 66bd
