03_hw/Pix2Pix/checkpoints/pix2pix_model_epoch_70.pth (torch, 99150 bytes, 32 tensors)

conv1.0.weight f4 [8, 3, 4, 4]
-0.1365379 -0.12643646 -0.041497815 -0.18322249 0.043502506 -0.11711428 -0.00980655 0.105776474
-0.12621172 -0.016355641 0.029572675 0.039626665 -0.01619703 0.08770226 0.066293955 -0.14909223
0.096113324 0.16614226 0.04273553 -0.02654394 0.003769966 -0.057975084 -0.10233716 0.056653164
0.119140975 0.06172658 0.051266804 -0.06691399 -0.08319711 0.026268579 -0.08925331 0.13141568
-0.1090395 0.052292537 -0.12830669 0.055259183 -0.110732205 -0.10273426 0.0042247013 -0.09739454
0.036613725 -0.0040827217 0.019328276 -0.04783801 -0.052998625 0.050088726 0.05577574 0.015459549
-0.08335305 0.06616587 -0.021558907 -0.022800747 -0.01705661 0.10748392 0.029041048 -0.011545706
0.1356462 0.07832061 -0.11280616 -0.07618616 0.03216283 0.121412225 -0.03733495 -0.017821183
-0.013307434 0.1365613 0.01384094 -0.08343088 -0.055259418 -0.07745534 0.038774796 -0.026413871
0.023926107 -0.013339836 0.029272305 -0.12530847 0.06256534 -0.028930115 0.05772461 0.10179951
-0.008285163 -0.05939099 0.053667337 -0.12751429 -0.06293312 0.08706933 -0.065994196 0.07731975
-0.007075094 -0.0023795255 -0.017709447 0.015320081 -0.055547453 -0.086404 -0.02231092 -0.07697761
-0.11375617 0.069304064 0.0004744481 -0.04503347 0.032667853 -0.0008794823 0.05524831 0.1467392
-0.080077216 0.065295525 -0.09413001 -0.04347684 0.13278377 0.05790679 0.036935307 -0.080860235
-0.023304302 0.034446042 0.098705865 -0.049778838 0.16029485 0.0014375158 -0.008355866 0.16616704
0.01699714 0.09612783 -0.066440985 -0.09041084 0.010709783 0.094795674 -0.0057314667 0.09550724
-0.10798613 0.092065655 -0.04131677 0.082065806 -0.017804611 0.051779363 0.025549196 0.0047540003
0.016733347 0.16531727 0.13152066 0.08615902 -0.13197099 0.04026473 0.091625266 0.10360821
0.0360279 0.10635096 0.1575969 0.049844105 -0.018732168 -0.0592589 -0.0114931045 -0.060585413
0.02209069 -0.06925448 0.14378059 -0.049911484 0.059817437 0.13178132 0.11974214 -0.15060498
-0.10772834 0.101479255 0.16252384 0.028191939 0.049239725 0.09297804 -0.0035232725 -0.05343623
-0.10862941 -0.0910942 0.069973476 0.102011316 -0.084944166 -0.044254273 0.00051116187 -0.08606409
0.10820321 -0.13680752 0.041773364 0.037838172 -0.055402663 -0.10188744 -0.037703935 0.0048396736
-0.12128209 0.11254024 -0.07414846 0.109977864 -0.053369787 -0.027580587 -0.09907967 0.11817301
-0.086062595 -0.13755032 0.058217287 0.039972365 0.09174747 -0.05602463 -0.032229874 -0.15975142
0.09225095 -0.12528253 0.04712404 -0.018733468 0.079205535 -0.19669265 -0.1830633 -0.06426656
-0.0123267565 0.081635974 0.07663261 0.116439044 -0.11291837 -0.069397695 0.01768 0.10937005
-0.007710596 -0.09044353 -0.14430043 -0.18838829 -0.07023583 0.017349293 -0.16038465 0.062942386
0.08247984 -0.006768328 0.05158567 -0.12386169 0.01995299 -0.10071494 0.060415123 -0.096272096
-0.09005928 0.05790544 -0.084265456 0.039517418 0.08292203 -0.0017878737 -0.04298449 -0.07637035
0.05429526 -0.1109834 -0.06691089 -0.03938238 -0.033165224 -0.09749865 0.1253583 0.01378596
0.11403326 0.022246484 0.10604733 -0.096934386 -0.05066654 0.103591554 0.11933719 0.07696104
00000000: 97d0 0bbe 8f78 01be 9df9 29bd ad9e 3bbe
00000010: af2f 323d 9dd9 efbd a7ab 20bc 56a1 d83d
00000020: a53d 01be 44fc 85bc 6542 f23c 924f 223d
00000030: a2af 84bc 3e9d b33d 20c5 873d a2ab 18be
00000040: 10d7 c43d 3221 2a3e 730b 2f3d ad72 d9bc
00000050: 8911 773b 4877 6dbd 2596 d1bd 260d 683d
00000060: 2f00 f43d 03d5 7c3d 24fd 513d 340a 89bd
00000070: 3f63 aabd 3431 d73c 70ca b6bd d591 063e
00000080: 1a50 dfbd b330 563d d462 03be 7457 623d
00000090: 91c7 e2bd 5766 d2bd 5d6f 8a3b ca76 c7bd
000000a0: 46f8 153d 5ac8 85bb 5556 9e3c caf1 43bd
000000b0: 1615 59bd d629 4d3d 1a75 643d 0c4a 7d3c
000000c0: 01b5 aabd f981 873d 4e9c b0bc a2c8 babc
000000d0: 4eba 8bbc 8820 dc3d 7ee7 ed3c 332a 3dbc
000000e0: d6e6 0a3e 8e66 a03d ea06 e7bd 7d07 9cbd
000000f0: 2cbd 033d f9a6 f83d 88ec 18bd bbfd 91bc
00000100: 6c07 5abc bad6 0b3e 1cc5 623c cfdd aabd
00000110: b357 62bd e8a0 9ebd 52d2 1e3d e761 d8bc
00000120: af00 c43c 548f 5abc 79cc ef3c dd50 00be
00000130: 4222 803d d9fe ecbc a470 6c3d 437c d03d
00000140: 7ebe 07bc f743 73bd 48d2 5b3d 1b93 02be
00000150: 14e3 80bd 6851 b23d f727 87bd d159 9e3d
00000160: 31d6 e7bb d0f1 1bbb 6713 91bc 1401 7b3c
00000170: ba85 63bd 95f4 b0bd 64c5 b6bc 70a6 9dbd
00000180: fff8 e8bd 4aef 8d3d 59bf f839 0475 38bd
00000190: bace 053d 0f8d 66ba 0d4c 623d cd42 163e
000001a0: 86ff a3bd a9b9 853d 3cc7 c0bd c514 32bd
000001b0: 78f8 073e ac2f 6d3d 7a49 173d 0d9a a5bd
000001c0: aae8 bebc 4b17 0d3d 4d26 ca3d e5e4 4bbd
000001d0: 5524 243e 076b bc3a 0be7 08bc b127 2a3e
000001e0: 963d 8b3c abde c43d 3612 88bd 5229 b9bd
000001f0: 1678 2f3c 3c24 c23d 07cf bbbb 4d99 c33d
00000200: d527 ddbd eb8c bc3d c63b 29bd 1e12 a83d
00000210: fada 91bc 9916 543d 8c4c d13c 72c7 9b3b
00000220: 5f14 893c ee48 293e 5aad 063e 2474 b03d
00000230: 6723 07be a1ec 243d 07a6 bb3d 8b30 d43d
00000240: fe91 133d 88ce d93d 1561 213e 5529 4c3d
00000250: 3474 99bc 76b9 72bd 934d 3cbc 6928 78bd
00000260: 89f7 b43c 4bd5 8dbd 383b 133e fc6f 4cbd
00000270: 2103 753d aff1 063e 5e3b f53d 3138 1abe
00000280: ada0 dcbd 5bd4 cf3d a66c 263e c8f2 e63c
00000290: 98af 493d 456b be3d b4e6 66bb f3df 5abd
000002a0: 1979 debd 998f babd 414e 8f3d 4feb d03d
000002b0: 35f7 adbd f843 35bd 7eff 053a 5f42 b0bd
000002c0: a599 dd3d 4517 0cbe 8c1a 2b3d 33fc 1a3d
000002d0: e7ed 62bd 5daa d0bd 716f 1abd 2096 9e3b
000002e0: bf62 f8bd 7f7b e63d 26db 97bd 133c e13d
000002f0: 479a 5abd aff0 e1bc 48ea cabd b104 f23d
00000300: 9641 b0bd fed9 0cbe 4075 6e3d 10ba 233d
00000310: 19e6 bb3d 157a 65bd 7903 04bd e095 23be
00000320: 11ee bc3d 104a 00be 2305 413d ee76 99bc
00000330: 8336 a23d cc69 49be f274 3bbe 309e 83bd
00000340: 2af6 49bc c330 a73d 8ff1 9c3d 9877 ee3d
00000350: bf41 e7bd 6120 8ebd a6d5 903c 68fd df3d
00000360: 2ba9 fcbb 753a b9bd 7ec3 13be dce8 40be
00000370: ced7 8fbd 1b20 8e3c e03b 24be f0e7 803d
00000380: 31eb a83d dac8 ddbb 7f4b 533d 33ab fdbd
00000390: 7474 a33c a243 cebd d975 773d 4e2a c5bd
000003a0: 0071 b8bd 412e 6d3d 5e93 acbd 04dd 213d
000003b0: 06d3 a93d 1657 eaba 8110 30bd 0f68 9cbd
000003c0: b564 5e3d 444b e3bd 9408 89bd 6b4f 21bd
000003d0: 42d8 07bd 5fad c7bd ed5d 003e 82de 613c
000003e0: 458a e93d 423e b63c 582f d93d 8985 c6bd
000003f0: b887 4fbd cf27 d43d 0f67 f43d c09d 9d3d

conv1.0.bias f4 [8]
0.13218564 0.0036727556 -0.0358515 0.12185932 0.07052617 0.101713926 -0.114202656 -0.014214565
00000000: ac5b 073e 9db2 703b 06d9 12bd 6191 f93d
00000010: 0670 903d 644f d03d 15e3 e9bd 35e4 68bc

conv1.1.weight f4 [8]
1.0244725 0.97405595 0.9859546 0.9712493 1.0090413 1.0015454 0.9734635 1.0455302
00000000: ea21 833f bb5b 793f 8567 7c3f cba3 783f
00000010: 4428 813f a432 803f e734 793f efd3 853f

conv1.1.bias f4 [8]
0.0065624737 -0.04471392 -0.018569041 -0.021730036 0.011802472 0.073531024 0.012112458 0.037762556
00000000: 050a d73b f225 37bd 1a1e 98bc 3003 b2bc
00000010: 285f 413c 6f97 963d 5573 463c e9ac 1a3d

conv1.1.running_mean f4 [8]
0.21277323 -0.013006174 -0.12625 0.054908574 0.21869592 0.060430475 -0.11421659 -0.008539383
00000000: 3ae1 593e d917 55bc ae47 01be d0e7 603d
00000010: d3f1 5f3e f285 773d 63ea e9bd c5e8 0bbc

conv1.1.running_var f4 [8]
0.08686317 0.012417766 0.3047683 0.034633376 0.36021733 0.03277447 0.015555643 0.026469398
00000000: 51e5 b13d e373 4b3c 970a 9c3e badb 0d3d
00000010: 686e b83e 863e 063d 18dd 7e3c 5ad6 d83c

conv2.0.weight f4 [16, 8, 4, 4]
0.08170981 0.101286985 0.028103832 0.05450668 -0.056714408 0.087037794 -0.041872412 0.08347336
-0.07423675 0.06611725 0.058142703 0.019939728 -0.022056969 -0.09006633 -0.09488507 0.029238395
-0.01391043 0.04921239 0.07049147 -0.032536134 0.058764618 -0.05989813 0.055230465 -0.023022693
0.030271715 0.05548491 -0.023999453 0.06264012 0.038805544 0.05002446 -0.006414848 -0.07879804
-0.04791766 0.018906374 0.044376224 -0.03219565 -0.08417213 -0.013425684 -0.009045541 0.04591195
-0.039796297 -0.066931464 -0.022531237 -0.03365966 -0.094634935 -0.08077411 -0.07203364 -0.0823451
0.062212713 -0.0057126647 0.0636778 0.020337699 0.040333938 0.049996886 -0.03286011 -0.026149208
-0.0040877056 -0.024152154 -0.0031527644 0.0047684386 0.060325783 -0.022180442 -0.021223567 -0.016578618
0.07033554 -0.0328813 0.0040358333 0.0519138 0.028028635 -0.015718887 0.0896044 -0.01538062
0.042889982 -0.04089852 0.072157875 0.051255837 -0.07965129 -0.033193104 -0.05899514 -0.04148128
-0.08817932 -0.08291592 -0.0039780843 -0.0021778226 0.010507974 -0.014409592 0.015435262 0.014637834
0.0028562143 0.06258377 0.039871793 0.068703964 -0.004026846 -0.003103428 -0.083594345 -0.0022620931
0.034053467 -0.039271906 0.044406857 0.015910512 0.08735498 0.029906144 0.0005782738 0.018913912
-0.023915317 0.029619876 -0.025972612 0.055920497 -0.039005797 0.07753242 0.00787964 0.06869085
-0.008041494 0.015733257 -0.019726884 0.012782437 -0.07895569 -0.042922135 -0.042472724 -0.033168513
0.066691585 -0.0016879091 0.05490991 0.060282636 0.051433206 0.0076624844 0.061929543 -0.046216134
0.025384638 0.013403641 -0.026369266 -0.054757245 -0.057518527 -0.07565987 -0.039088495 0.07860925
0.0664973 0.016544636 0.0017364316 0.07031005 -0.05824375 0.0013057708 0.082612716 -0.055370454
0.030256597 0.022820618 -0.019646399 -0.08540195 -0.09150616 -0.029272128 -0.08154102 -0.016729224
0.017239194 -0.03943229 0.05610673 0.046321448 -0.012834483 -0.07392036 0.05381727 0.110025875
-0.065169856 -0.0006467615 0.08319188 -0.015733292 0.08938923 0.048377693 0.046905223 -0.06095305
0.040915992 0.0007672112 -0.08224663 0.036770288 0.03740473 -0.040812735 0.027808502 0.071525656
-0.059471484 -0.019540258 0.066943355 -0.052593824 -0.046926256 -0.0052676247 -0.03014575 -0.015616683
-0.024466777 -0.047662653 -0.034986664 0.0008994836 -0.06931816 -0.010724192 0.038573448 -0.06682252
-0.019902784 -0.05720042 0.0064326543 0.0050058956 -0.00855769 0.053999275 0.039734457 -0.05811564
-0.048058074 -0.051143035 -0.073500566 0.04755554 -0.013149597 -0.037340287 0.09607421 -0.041558284
-0.02154612 -0.03123373 -0.08454265 -0.0540127 0.02348384 -0.057001166 -0.0907475 -0.12377358
0.03328322 -0.0479246 -0.0271182 -0.030993897 -0.0050625736 -0.08804151 -0.060674068 0.000555258
0.04872711 0.030233912 -0.024200011 0.08419423 0.06094693 -0.027578652 -0.020409338 0.05599475
-0.04691911 0.040102884 -0.12039439 -0.027976021 0.009693369 -0.07846602 -0.082195036 0.01636095
-0.0067700935 -0.079748735 -0.011420815 -0.026747786 -0.09512963 -0.114098966 -0.11949136 -0.0070326375
0.013543408 -0.16118549 -0.070064686 -0.03796728 -0.061315093 -0.064519756 -0.07942763 0.013319662
00000000: 7957 a73d 8d6f cf3d 023a e63c 6642 5f3d
00000010: 5e4d 68bd df40 b23d 6882 2bbd 15f4 aa3d
00000020: 7009 98bd 7b68 873d 0b27 6e3d a458 a33c
00000030: d1b0 b4bc b274 b8bd 1b53 c2bd 5c85 ef3c
00000040: 92e8 63bc ee92 493d d55d 903d 9c44 05bd
00000050: 2bb3 703d be57 75bd 5739 623d 169a bcbc
00000060: 63fc f73c 2544 633d 809a c4bc 7749 803d
00000070: 90f2 1e3d 73e6 4c3d a533 d2bb de60 a1bd
00000080: 4f45 44bd 8ae1 9a3c d8c3 353d 96df 03bd
00000090: 7062 acbd 66f7 5bbc c033 14bc 2b0e 3c3d
000000a0: 7101 23bd 5d13 89bd 6e93 b8bc b6de 09bd
000000b0: f6cf c1bd e66c a5bd 6086 93bd 8ca4 a8bd
000000c0: c2d2 7e3d 4e31 bbbb 8269 823d 3f9b a63c
000000d0: 3335 253d 89c9 4c3d 5398 06bd dd36 d6bc
000000e0: 29f2 85bb bdda c5bc 9c9e 4ebb 9040 9c3b
000000f0: 2b18 773d c2b3 b5bc 0cdd adbc e2cf 87bc
00000100: 140c 903d 8bae 06bd 063f 843b 91a3 543d
00000110: 4f9c e53c e5c4 80bc 8382 b73d fffe 7bbc
00000120: 68ad 2f3d 3585 27bd 82c7 933d a4f1 513d
00000130: 3720 a3bd 7ef5 07bd e3a4 71bd 46e8 29bd
00000140: 5c97 b4bd d2cf a9bd 975a 82bb cdb9 0ebb
00000150: a329 2c3c 3616 6cbc 2ee4 7c3c 87d3 6f3c
00000160: 532f 3b3b eb2b 803d 9b50 233d aab4 8c3d
00000170: a2f3 83bb e262 4bbb 8333 abbd a03f 14bb
00000180: a67b 0b3d 94db 20bd f7e3 353d c356 823c
00000190: 2be7 b23d bbfd f43c 4c97 173a 59f1 9a3c
000001a0: 0eea c3bc 62a5 f23c 84c4 d4bc e40c 653d
000001b0: 8bc4 1fbd 51c9 9e3d 9b19 013c caad 8c3d
000001c0: 78c0 03bc 08e3 803c 469a a1bc 6d6d 513c
000001d0: 85b3 a1bd 1fcf 2fbd e1f7 2dbd b5db 07bd
000001e0: 9995 883d d53c ddba 37e9 603d edea 763d
000001f0: a0ab 523d 9415 fb3b d5a9 7d3d 214d 3dbd
00000200: 72f3 cf3c f29a 5b3c 5c04 d8bc 2249 60bd
00000210: 8c98 6bbd 90f3 9abd 421b 20bd e3fd a03d
00000220: bd2f 883d 9e88 873c fa98 e33a b7fe 8f3d
00000230: 0091 6ebd 6626 ab3a db30 a93d 21cc 62bd
00000240: afdc f73c 4ef2 ba3c 7cf1 a0bc 38e7 aebd
00000250: 9567 bbbd 1acc efbc fafe a6bd ba0b 89bc
00000260: 3639 8d3c c183 21bd 2cd0 653d 8fbb 3d3d
00000270: b947 52bc 8f63 97bd 7f6f 5c3d 3f55 e13d
00000280: c677 85bd 6e8b 29ba 8160 aa3d 1be3 80bc
00000290: b311 b73d b027 463d b11f 403d e8a9 79bd
000002a0: 8797 273d ac1e 493a ec70 a8bd 719c 163d
000002b0: b435 193d 412b 27bd a8ce e33c 0b7c 923d
000002c0: 5f98 73bd e412 a0bc 9919 893d 9f6c 57bd
000002d0: bf35 40bd 0a9c acbb 38f4 f6bc 1edd 7fbc
000002e0: 8d6e c8bc ea39 43bd 2d4e 0fbd 53cb 6b3a
000002f0: aef6 8dbd 85b4 2fbc 31ff 1d3d 3fda 88bd
00000300: 2a0b a3bc fd4a 6abd 04c9 d23b 7f08 a43b
00000310: 8e35 0cbc 582e 5d3d 99c0 223d aa0a 6ebd
00000320: 8bd8 44bd 5c7b 51bd 7787 96bd 99c9 423d
00000330: 6871 57bc 21f2 18bd 8ec2 c43d 0539 2abd
00000340: 7d81 b0bc e1dd ffbc b224 adbd 6c3c 5dbd
00000350: 2f61 c03c 0e7a 69bd d3d9 b9bd 017d fdbd
00000360: fc53 083d 964c 44bd fd26 debc eae6 fdbc
00000370: f2e3 a5bb 1b4f b4bd 5f85 78bd bc8e 113a
00000380: 1496 473d 1cad f73c 1a3f c6bc 066e ac3d
00000390: 7da3 793d a0ec e1bc 7c31 a7bc c05a 653d
000003a0: 412e 40bd ec42 243d 5591 f6bd f82d e5bc
000003b0: f0d0 1e3c cbb2 a0bd df55 a8bd 6607 863c
000003c0: a9d7 ddbb 4e53 a3bd 5f1e 3bbc 2c1e dbbc
000003d0: 53d3 c2bd b8ac e9bd e3b7 f4bd 0a72 e6bb
000003e0: 2ce5 5d3c cf0d 25be 137e 8fbd 9483 1bbd
000003f0: 8925 7bbd ef22 84bd f4aa a2bd b63a 5a3c

conv2.0.bias f4 [16]
-0.08686277 0.08305833 0.06659515 -0.011751938 -0.03537201 0.0060873856 -0.035224155 -0.05829258
-0.020714246 0.04212192 -0.059214234 -0.03320964 -0.04340058 -0.084445275 0.068277396 -0.072138235
00000000: 1ce5 b1bd 7c1a aa3d 0a63 883d 338b 40bc
00000010: 3ee2 10bd b178 c73b 3447 10bd 33c4 6ebd
00000020: ecb0 a9bc 0988 2c3d a08a 72bd d506 08bd
00000030: cec4 31bd a5f1 acbd 05d5 8b3d 36bd 93bd

conv2.1.weight f4 [16]
0.9764631 1.0105839 0.98951036 0.99472934 0.99344164 0.985228 0.99431574 1.0194728
0.9822211 1.0022967 1.0155865 1.0164893 1.0529264 0.99761313 0.9981058 1.0151403
00000000: 7cf9 793f d05a 813f 8d50 7d3f 95a6 7e3f
00000010: 3152 7e3f e737 7c3f 7a8b 7e3f 167e 823f
00000020: d872 7b3f 424b 803f bdfe 813f 521c 823f
00000030: 4bc6 863f 9363 7f3f dd83 7f3f 1ef0 813f

conv2.1.bias f4 [16]
-0.006604934 0.0071971053 0.018687857 -0.026308386 0.006123034 -0.0044672643 -0.009068584 0.0029542693
-0.0019328573 0.02087735 0.025518289 -0.019292645 -0.0033926633 0.0055851713 0.008680067 0.005724105
00000000: 346e d8bb b2d5 eb3b 4717 993c af84 d7bc
00000010: bba3 c83b 2162 92bb 6694 14bc 6a9c 413b
00000020: ee57 fdba fa06 ab3c bb0b d13c 9c0b 9ebc
00000030: 7257 5ebb d003 b73b d736 0e3c 4691 bb3b

conv2.1.running_mean f4 [16]
0.05384998 -0.71181715 -0.44464493 0.92643994 0.020298721 -0.24949776 -0.021472344 -0.013415285
-0.18963093 -0.7536782 -0.018919716 0.5941572 -0.012552971 -0.3940802 0.11425161 0.12619016
00000000: cc91 5c3d a639 36bf 80a8 e3be 2b2b 6d3f
00000010: 8149 a63c 577c 7fbe c5e6 afbc c9cb 5bbc
00000020: 9c2e 42be 0ef1 40bf 85fd 9abc b01a 183f
00000030: faaa 4dbc e1c4 c9be c0fc e93d fe37 013e

conv2.1.running_var f4 [16]
0.22869824 0.24689032 0.57949597 0.36846432 0.23821917 0.09042123 0.05220689 0.1814068
0.37472513 0.52799857 0.17628513 0.15926282 0.21934949 0.19326091 0.18163107 0.17998499
00000000: df2f 6a3e d1d0 7c3e d959 143f 5ba7 bc3e
00000010: baef 733e c42e b93d e4d6 553d b4c2 393e
00000020: f9db bf3e ea2a 073f 1784 343e cb15 233e
00000030: 279d 603e 30e6 453e 7ffd 393e fc4d 383e

conv3.0.weight f4 [32, 16, 4, 4]
0.0121460585 -0.012346566 -0.06411803 -0.06838968 -0.04012694 0.0054124882 0.012874701 -0.0030801033
-0.03144156 -0.011824112 -0.00042441674 -0.041938458 -0.03167649 0.03200571 0.025580136 0.0035659394
-0.043688398 0.0031487758 0.008146917 0.019169439 0.013959792 -0.01108801 0.048811495 -0.042449374
-0.032096367 -0.047424443 -0.01318845 0.0023402974 -0.008401658 0.02901251 -0.040219165 -0.0482682
0.04564298 -0.010411787 -0.009584074 0.02296646 0.008253287 -0.02052567 0.003539084 0.052536346
-0.0012122251 0.035709154 0.010985589 -0.008599638 -0.008353526 0.009822785 0.02007239 0.0150203
0.0011154332 -0.011199071 -0.04005864 -0.068439424 -0.0061863083 0.058041457 -0.039375264 -0.042343415
0.023626992 -0.03420873 -0.043866325 -0.05602688 0.031424865 -0.038551 0.03271958 -0.06599685
0.053860936 0.013363718 0.021437332 0.029754184 0.007425383 8.6739805e-05 0.036286883 -0.0083450535
-0.009553856 -0.028439432 -0.014196122 0.040002085 -0.057313778 0.054645196 -0.014803144 0.0055388263
-0.024444928 0.039886553 0.017689139 -0.019932782 -0.03108969 0.047160182 0.013632509 0.01122987
0.05900276 -0.030823287 0.024528444 0.033196066 0.0056837043 -0.058004 0.0036541624 -0.036362447
0.024023063 0.010292792 -0.040145945 -0.046534296 0.006633529 -0.024971148 -0.06525921 -0.002323985
0.024238776 -0.06361243 -0.051682316 -0.028672045 0.03378035 -0.03101509 -0.045412716 0.021070277
-0.017715773 0.035920475 -0.064788476 -0.056330606 0.025332494 -0.03267641 -0.059632953 -0.03513594
-0.048302818 0.010493121 -0.07122592 -0.08499179 0.00910237 0.061836064 0.002648778 -0.076804996
-0.018280117 -0.0636294 -0.041391466 -0.05418555 -0.013351116 0.03855515 -0.01741023 -0.023736138
-0.058597825 -0.02460535 -0.004337438 -0.052707713 -0.041321628 0.024715152 0.0085168155 -0.07390744
-0.022438364 0.031102926 0.04670831 -0.043183517 -0.011563697 -0.059475124 -0.0035465655 -0.042951427
-0.06135112 -0.053029515 -0.014395901 0.057368856 0.0031050993 0.020408986 -0.05274084 -0.07063656
0.04489407 0.072688565 -0.000864631 0.031136239 -0.011059231 0.026922567 0.005600459 0.015743095
0.06397998 0.0360958 0.031061664 -0.046084125 0.041153107 -0.044201072 0.025789347 0.028780159
-0.00822103 0.039440375 -0.002342135 -0.05357921 -0.014220111 0.012456112 -0.06481015 -0.054048993
0.063016646 0.016587626 0.02778013 3.7691007e-05 0.053058635 -0.050280973 -0.06291453 0.003602614
-0.039297536 0.021409659 0.0721723 -0.047846038 0.022477694 -0.035788804 -0.0016260154 -0.055179063
0.009326187 -0.0718556 -0.026936682 -0.09736297 -0.0569709 0.043646 -0.0330276 -0.029378636
0.03707961 -0.018619658 0.022893036 -0.05393036 0.011216753 -0.012112202 -0.010876986 -0.045853242
0.034163132 0.029106805 0.032376338 -0.018069059 -0.0102143325 -0.05759836 0.05152138 -0.0049600652
0.043476045 0.027463408 -0.054479416 -0.031264484 0.02557916 -0.053438485 -0.036620148 0.03905435
0.020934705 0.050789427 0.040436484 -0.0461378 -0.018477023 0.04981006 -0.056936637 -0.0005533352
0.0016661864 0.030424055 0.034832083 0.018998204 0.048112255 -0.037469454 0.040786996 0.041695554
0.048503548 0.052266218 -0.06426853 -0.08253227 -0.021381188 0.00082352204 -0.051356915 -0.07626518
00000000: 4300 473c 4049 4abc 5050 83bd e30f 8cbd
00000010: 255c 24bd 3e5b b13b 69f0 523c 8fdb 49bb
00000020: ddc8 00bd ecb9 41bc 4084 deb9 a9c7 2bbd
00000030: 35bf 01bd 6b18 033d 6f8d d13c 89b2 693b
00000040: 9bf2 32bd b15b 4e3b a67a 053c 3a09 9d3c
00000050: 9db7 643c 7caa 35bc 90ee 473d 65df 2dbd
00000060: 7b77 03bd 2240 42bd 5e14 58bc ad5f 193b
00000070: 1ca7 09bc a5ab ed3c dabc 24bd e0b4 45bd
00000080: 22f4 3a3d 3396 2abc 8506 1dbc 2824 bc3c
00000090: cb38 073c 7325 a8bc faef 673b 5a30 573d
000000a0: 86e3 9eba c343 123d e6fc 333c 7fe5 0cbc
000000b0: 3add 08bc bfef 203c da6e a43c b417 763c
000000c0: ba33 923a 4f7c 37bc 8714 24bd f829 8cbd
000000d0: 84b6 cabb e1bc 6d3d f547 21bd 4a70 2dbd
000000e0: 658d c13c 741e 0cbd 2dad 33bd 717c 65bd
000000f0: 5cb7 003d a7e7 1dbd f704 063d 5b29 87bd
00000100: 499d 5c3d 7ff3 5a3c 589d af3c 0cbf f33c
00000110: a150 f33b 14e8 b538 8ea1 143d b1b9 08bc
00000120: c787 1cbc d0f9 e8bc da96 68bc 3ad9 233d
00000130: dac1 6abd a4d3 5f3d e388 72bc 0b7f b53b
00000140: bb40 c8bc 1560 233d d0e8 903c 134a a3bc
00000150: ceaf febc 092b 413d e35a 5f3c 7dfd 373c
00000160: e1ac 713d 1e81 fcbc e0ef c83c 99f8 073d
00000170: 5e3e ba3b 9a95 6dbd ac7a 6f3b caf0 14bd
00000180: 04cc c43c 19a3 283c 1370 24bd bf9a 3ebd
00000190: 135e d93b 4b90 ccbc 9fa6 85bd 004e 18bb
000001a0: 6690 c63c 3c47 82bd d6b0 53bd a3e1 eabc
000001b0: 445d 0a3d 5c13 febc af02 3abd 939b ac3c
000001c0: ab20 91bc 5921 133d d2af 84bd ecba 66bd
000001d0: 1786 cf3c b3d7 05bd af41 74bd b4ea 0fbd
000001e0: 2dd9 45bd 57eb 2b3c e5de 91bd 2d10 aebd
000001f0: 1b22 153c d047 7d3d 1f97 2d3b f04b 9dbd
00000200: 2fc0 95bc 2250 82bd 198a 29bd abf1 5dbd
00000210: a4be 5abc 01ec 1d3d e69f 8ebc 4a72 c2bc
00000220: 4604 70bd 2991 c9bc 1121 8ebb 0be4 57bd
00000230: de40 29bd 6e77 ca3c 1d8a 0b3c c95c 97bd
00000240: a9d0 b7bc 90cb fe3c 3651 3f3d 33e1 30bd
00000250: a975 3dbc 309c 73bd 7f6d 68bb d6ed 2fbd
00000260: 504b 7bbd 7a35 59bd c9dc 6bbc 9bfb 6a3d
00000270: ec7e 4b3b bf30 a73c c706 58bd e7a9 90bd
00000280: d8e2 373d bedd 943d 67a8 62ba 6d11 ff3c
00000290: c731 35bc b78c dc3c 0e84 b73b aaf7 803c
000002a0: f007 833d 31d9 133d 0875 fe3c b5c2 3cbd
000002b0: 2990 283d 2f0c 35bd 2e44 d33c 5ec4 eb3c
000002c0: 80b1 06bc 3b8c 213d 817e 19bb e075 5bbd
000002d0: 78fb 68bc b814 4c3c 2fbb 84bd 7a62 5dbd
000002e0: df0e 813d c6e2 873c 2893 e33c 6916 1e38
000002f0: 0354 593d 6cf3 4dbd 55d9 80bd d519 6c3b
00000300: 74f6 20bd 4f63 af3c 12cf 933d 35fa 43bd
00000310: 2423 b83c 4897 12bd 0620 d5ba 7103 62bd
00000320: ddcc 183c 0729 93bd 51aa dcbc 3d66 c7bd
00000330: 525a 69bd 26c6 323d f347 07bd 77ab f0bc
00000340: cae0 173d 4188 98bc 2d8a bb3c 15e6 5cbd
00000350: 79c6 373c 4272 46bc 6335 32bc 9cd0 3bbd
00000360: a4ee 0b3d 6571 ee3c 0d9d 043d 9005 94bc
00000370: 045a 27bc 42ec 6bbd 1508 533d 0b88 a2bb
00000380: f013 323d f1fa e03c cf25 5fbd 300f 00bd
00000390: 638b d13c 50e2 5abd 02ff 15bd 74f7 1f3d
000003a0: 427f ab3c 9308 503d baa0 253d fdfa 3cbd
000003b0: 205d 97bc a205 4c3d 6436 69bd b20d 11ba
000003c0: f063 da3a de3b f93c 16ac 0e3d 1fa2 9b3c
000003d0: 5b11 453d 9279 19bd 4410 273d f5c8 2a3d
000003e0: a8ab 463d 1a15 563d 389f 83bd ae06 a9bd
000003f0: 9a27 afbc a1e1 573a a15b 52bd eb30 9cbd

conv3.0.bias f4 [32]
0.01439268 0.057794705 0.014281819 -0.059066817 0.0042293295 -0.055079207 -0.023623016 0.060954835
0.034363672 0.02081902 -0.014824521 0.03102351 0.031196307 -0.0072049303 -0.06154728 0.010617344
-0.03167246 0.018445505 0.047332488 0.025679972 0.046240345 0.050844744 0.011421499 0.047085907
0.011653197 -0.040705487 -0.0115279155 -0.013048872 -0.062143736 -0.05074802 -0.05397074 0.059741654
00000000: 46cf 6b3c 24ba 6c3d 4afe 693c 0cf0 71bd
00000010: 3096 8a3b bc9a 61bd 0e85 c1bc c7ab 793d
00000020: ecc0 0c3d a68c aa3c 8ce2 72bc 0425 fe3c
00000030: 668f ff3c 5617 ecbb 0019 7cbd 5ef4 2d3c
00000040: fbba 01bd 071b 973c b6df 413d ce5e d23c
00000050: 8466 3d3d 9442 503d 3d21 3b3c 27dd 403d
00000060: 0ded 3e3c ccba 26bd 95df 3cbc f0ca 55bc
00000070: 6e8a 7ebd 28dd 4fbd 6c10 5dbd aab3 743d

conv3.1.weight f4 [32]
0.98892695 0.99284863 1.0049183 1.0067576 0.97604406 0.99237597 1.0012847 0.9903231
0.97438157 1.0120561 0.98701835 0.9861938 1.003245 0.9791348 0.99431473 1.0090212
1.0094397 1.006114 0.99099934 0.99834245 0.99111366 1.0195589 1.0009897 1.0075216
0.98600364 0.9817168 1.0146847 1.0037335 0.99261373 1.0382917 1.0665267 1.0050359
00000000: 512a 7d3f 542b 7e3f 2aa1 803f 6fdd 803f
00000010: 06de 793f 5a0c 7e3f 192a 803f d185 7d3f
00000020: 1271 793f 0e8b 813f 3cad 7c3f 3277 7c3f
00000030: 556a 803f 94a8 7a3f 698b 7e3f 9b27 813f
00000040: 5235 813f 58c8 803f 22b2 7d3f 5f93 7f3f
00000050: a0b9 7d3f e880 823f 6e20 803f 78f6 803f
00000060: bc6a 7c3f cb51 7b3f 30e1 813f 577a 803f
00000070: ef1b 7e3f bee6 843f f283 883f 04a5 803f

conv3.1.bias f4 [32]
-0.006811047 0.010736075 0.014268814 -0.062754296 -0.0031948667 0.015027459 0.034133937 0.019573918
0.014288943 0.02390891 0.01099717 0.019987676 0.023934908 -0.009902801 0.028900653 0.0069228117
0.01985908 0.020718237 0.009847784 -0.035827126 0.008607138 0.034785345 0.023390053 -0.010171675
0.024674341 0.007946729 0.026698088 0.016890718 -0.018284766 0.008339669 0.0016840214 0.008912482
00000000: 342f dfbb 5de6 2f3c bec7 693c 5385 80bd
00000010: f860 51bb bb35 763c 07d0 0b3d 7b59 a03c
00000020: 2c1c 6a3c 9edc c33c 792d 343c 32bd a33c
00000030: 2413 c43c 5c3f 22bc 10c1 ec3c c1d8 e23b
00000040: 82af a23c 4bb9 a93c 9a58 213c 77bf 12bd
00000050: f404 0d3c 147b 0e3d 7f9c bf3c 19a7 26bc
00000060: d821 ca3c ff32 023c f3b5 da3c 675e 8a3c
00000070: efc9 95bc 1ba3 083c 62ba dc3a a905 123c

conv3.1.running_mean f4 [32]
-0.6501718 -0.4305578 0.010254262 0.33554664 -0.38322046 0.28860477 0.0036731213 0.025142899
0.31347138 -0.35583198 -0.20913482 -0.27933872 -0.4988543 -0.7271327 -0.47359878 -0.5259038
-0.43744165 -0.20328747 -0.08516313 0.56176907 -0.55900156 -0.31812653 -0.18316244 -0.16595653
-0.2638267 -0.13242084 -0.42950925 -0.66122717 0.10935208 0.37527162 -0.18041626 -0.57250583
00000000: a971 26bf 1272 dcbe 7e01 283c c5cc ab3e
00000010: 7935 c4be 01c4 933e c0b8 703b 7bf8 cd3c
00000020: 527f a03e 9c2f b6be 7027 56be 7c05 8fbe
00000030: d569 ffbe 5e25 3abf 8a7b f2be a2a1 06bf
00000040: 5af8 dfbe 972a 50be 026a aebd 19d0 0f3f
00000050: ba1a 0fbf 7be1 a2be ef8e 3bbe 82f0 29be
00000060: 4b14 87be 5499 07be a3e8 dbbe 2f46 29bf
00000070: fcf3 df3d 9a23 c03e 0abf 38be be8f 12bf

conv3.1.running_var f4 [32]
0.21949242 0.2753156 0.11877907 0.24746616 0.27053457 0.25469032 0.24933644 0.2845318
0.2243198 0.24996759 0.2678411 0.21995564 0.4539813 0.12161621 0.13166746 0.1719308
0.17568308 0.21528028 0.12442278 0.19015007 0.15963458 0.14508066 0.35258585 0.22122718
0.2605519 0.38305467 0.25156978 0.2546565 0.27793655 0.26574877 0.16881801 0.22078896
00000000: 9fc2 603e 2bf6 8c3e 7142 f33d c567 7d3e
00000010: 8283 8a3e c566 823e 0d52 7f3e 27ae 913e
00000020: 17b4 653e 81f7 7f3e 7822 893e 0d3c 613e
00000030: 3d70 e83e eb11 f93d d6d3 063e a10e 303e
00000040: 44e6 333e 6f72 5c3e 5fd1 fe3d b3b6 423e
00000050: 3f77 233e 0690 143e 2286 b43e 6189 623e
00000060: 0f67 853e be1f c43e c1cd 803e 5662 823e
00000070: b34d 8e3e 3910 883e a1de 2c3e 8016 623e

deconv2.0.weight f4 [32, 16, 4, 4]
-0.074830495 0.020276405 -0.022166938 0.016198039 -0.027522301 0.009914985 0.0028406386 0.03188708
-0.031569954 0.010953427 -0.03834926 -0.04571782 -0.020594224 0.029114766 -0.028603679 0.046759184
-0.008141834 -0.002174746 0.010208051 -0.07636183 -0.022286613 0.018552396 0.11088806 0.026896425
0.05311262 -0.012340687 0.069448456 0.024863552 -0.063630655 0.027508067 0.02963319 -0.025729418
-0.015312394 0.009933639 0.034708664 -0.0016602474 0.035172246 0.051236935 0.015417612 0.027378414
-0.0067004426 0.06686591 -0.014683587 0.038489953 -0.02539727 -0.049043965 0.0190088 0.010121253
-0.00708733 0.017383074 -0.045383554 0.024825081 -0.06351874 -0.06717886 0.08301872 0.012427928
-0.04540859 0.0028529589 -0.044055372 -0.018200543 0.00568911 -0.029447779 0.05166887 -0.06240744
0.008407658 0.055164117 -0.010784537 -0.0019867218 -0.029085457 -0.08466163 -0.033191845 -0.024119293
-0.014912034 0.048550103 0.0050558145 0.02467733 0.06561731 0.025555106 0.028780434 0.015266922
-0.014703103 0.026840137 -0.023325851 -0.06341521 0.04959204 0.027189339 0.06103686 -0.00542108
0.016168253 0.002996775 -0.057544895 -0.072818704 -0.03761945 0.019149637 0.06175421 0.017311182
-0.002695099 -0.049872693 -0.061831787 0.026179446 0.052400835 -0.066234455 0.02398572 -0.011450054
-0.014350972 -0.0106182955 0.011305817 0.036406398 0.0032566641 0.050039433 0.043767676 -0.0033807473
-0.06962802 0.020943252 -0.0024897351 -0.023146918 -0.0017449536 -0.02143685 0.03278607 -0.0033385388
-0.061078284 -0.012734721 0.042326175 0.010397754 0.0013010281 0.036213227 0.012761614 -5.6008306e-05
-0.025872001 0.0019693784 -0.0044472218 0.011556086 -0.025704417 -0.057314366 -0.023313414 -0.011248821
0.024637029 -0.026711827 0.08445811 -0.026216103 0.012019032 0.03753886 -0.0016694407 -0.0019420007
-0.017257594 0.011460753 0.0012751686 -0.01783413 0.021057041 -0.04157271 -0.076941274 0.010875845
0.0765637 0.008194251 0.070520945 -0.07167789 0.053061217 -0.016269403 -0.05975995 -0.013073363
-0.023838948 -0.06603051 -0.026696322 -0.07305577 0.014588483 -0.010664671 -0.025036728 -0.016736304
-0.012029761 -0.044402525 0.023332553 -0.004901919 0.027408527 -0.011227262 0.027309658 -0.011494338
-0.046943966 0.011793522 -0.046994716 -0.047912855 0.021562856 -0.015203381 0.0047481204 -0.040822905
0.006840722 -0.07972172 -0.07813536 -0.03232709 -0.03175159 -0.06757155 0.06692875 -0.06325536
0.022805676 0.002329968 -0.057161506 0.030969918 -0.06676132 -0.011961951 0.023609823 -0.05045235
-0.0666003 0.0734882 -0.029511118 0.03770231 -0.04108257 -0.03865635 0.026200617 -0.031851377
0.009601772 -0.02577197 -0.055333044 -0.019394234 0.058241535 0.04949166 -0.008380551 0.014231128
0.023987332 -0.0190262 -0.053588033 0.019250065 0.051387902 0.0005996794 0.047091518 0.0016682216
-0.07855534 -0.0072998 -0.038567383 -0.034197245 0.008003019 -0.0027725124 0.05961546 0.0059040138
-0.047991317 -0.028743912 -0.057876296 -0.042007767 -0.020023955 -0.029674668 0.039768394 -0.022736277
-0.030239921 -0.05113492 0.016674241 0.024020212 -0.009314345 -0.029952751 -0.07000825 0.03784207
-0.021134304 -0.014336707 0.03218123 -0.052688546 0.008102791 -0.035224445 -0.044875097 -0.010913955
00000000: bb40 99bd b41a a63c 7097 b5bc c0b1 843c
00000010: 7376 e1bc 7672 223c 022a 3a3b 079c 023d
00000020: 7f4f 01bd 0176 333c 1d14 1dbd 9c42 3bbd
00000030: 38b5 a8bc 1782 ee3c 4352 eabc 8f86 3f3d
00000040: 5465 05bc 2f86 0ebb ab3f 273c 9763 9cbd
00000050: 6a92 b6bc 32fb 973c 4719 e33d e455 dc3c
00000060: 9e8c 593d 9830 4abc fe3a 8e3d a6ae cb3c
00000070: ca50 82bd 9958 e13c 4ec1 f23c 80c6 d2bc
00000080: d6e0 7abc b4c0 223c ac2a 0e3d a99c d9ba
00000090: c610 103d d2dd 513d 279a 7c3c b248 e03c
000000a0: 638f dbbb fff0 883d 6d93 70bc a4a7 1d3d
000000b0: f00d d0bc 53e2 48bd 58b8 9b3c 9dd3 253c
000000c0: d53c e8bb f366 8e3c 1be4 39bd f85d cb3c
000000d0: 1d16 82bd 1295 89bd b805 aa3d 829e 4b3c
000000e0: 5cfe 39bd b5f8 3a3b 6873 34bd 4e19 95bc
000000f0: b76b ba3b 783c f1bc bda2 533d f29e 7fbd
00000100: 46c0 093c c5f3 613d a0b1 30bc a933 02bb
00000110: a044 eebc 1463 adbd 2cf4 07bd d395 c5bc
00000120: 9b51 74bc 79dc 463d 3fab a53b 1d28 ca3c
00000130: 5e62 863d f158 d13c f2c4 eb3c 1d22 7a3c
00000140: 49e5 70bc d9df db3c db15 bfbc d5df 81bd
00000150: 0621 4b3d 2dbc de3c c901 7a3d 51a3 b1bb
00000160: 4973 843c 8b65 443b 32b4 6bbd f921 95bd
00000170: da16 1abd b3df 9c3c fcf1 7c3d 2ed0 8d3c
00000180: 42a0 30bb 4f47 4cbd 5443 7dbd 4776 d63c
00000190: 42a2 563d eea5 87bd b37d c43c 0299 3bbc
000001a0: 5720 6bbc 5cf8 2dbc 093c 393c e01e 153d
000001b0: c26d 553b 26f6 4c3d bc45 333d 878f 5dbb
000001c0: 2399 8ebd 2f91 ab3c d32a 23bb 9b9e bdbc
000001d0: edb6 e4ba 559c afbc b04a 063d 63cb 5abb
000001e0: 392d 7abd 4ba5 50bc 365e 2d3d 575b 2a3c
000001f0: 4287 aa3a 5254 143d 1716 513c 76ea 6ab8
00000200: 85f1 d3bc b010 013b 00ba 91bb bd55 3d3c
00000210: 1292 d2bc 78c2 6abd c6fb bebc fa4c 38bc
00000220: 98d3 c93c c3d2 dabc 60f8 ac3d 27c3 d6bc
00000230: 79eb 443c 59c2 193d 22d1 daba bb8a feba
00000240: cc5f 8dbc e2c5 3b3c 8f23 a73a e218 92bc
00000250: d17f ac3c 2548 2abd 6393 9dbd 9a30 323c
00000260: 6ecd 9c3d 2e41 063c 496d 903d dccb 92bd
00000270: b856 593d 6947 85bc d9c6 74bd a931 56bc
00000280: e649 c3bc 013b 87bd 3fb2 dabc 439e 95bd
00000290: 8804 6f3c dfba 2ebc d319 cdbc 931a 89bc
000002a0: 7a18 45bc 6cdf 35bd e923 bf3c 47a0 a0bb
000002b0: d987 e03c 8df2 37bc 81b8 df3c bf52 3cbc
000002c0: 5148 40bd 9e39 413c 887d 40bd 4540 44bd
000002d0: 96a4 b03c 9a17 79bc 1f96 9b3b eb35 27bd
000002e0: 2328 e03b 2445 a3bd 6e05 a0bd 6969 04bd
000002f0: f50d 02bd f462 8abd f111 893d 078c 81bd
00000300: f8d2 ba3c 60b2 183b 2f22 6abd a0b4 fd3c
00000310: 29ba 88bd 0ffc 43bc 6369 c13c 20a7 4ebd
00000320: bd65 88bd fb80 963d 4dc1 f1bc bd6d 1a3d
00000330: 3246 28bd 1f56 1ebd ada2 d63c 9776 02bd
00000340: c050 1d3c bd1f d3bc e7a4 62bd a8e0 9ebc
00000350: ad8e 6e3d c4b7 4a3d 944e 09bc ad29 693c
00000360: 1581 c43c d5dc 9bbc 207f 5bbd 50b2 9d3c
00000370: 1f7c 523d ce33 1d3a 09e3 403d 3aa8 da3a
00000380: 9fe1 a0bd 2933 efbb d5f8 1dbd 6912 0cbd
00000390: 181f 033c 0ab3 35bb 572f 743d 7576 c13b
000003a0: 8b92 44bd 5a78 ebbc b20f 6dbd 5610 2cbd
000003b0: 4709 a4bc 4a18 f3bc 2fe4 223d 6e41 babc
000003c0: b6b9 f7bc da72 51bd 6b98 883c 09c6 c43c
000003d0: 329b 18bc 795f f5bc 7c60 8fbd 4900 1b3d
000003e0: d921 adbc 82e4 6abc 77d0 033d f2cf 57bd
000003f0: 92c1 043c 8247 10bd f3ce 37bd 72d0 32bc

deconv2.0.bias f4 [16]
0.029629173 -0.060312867 0.030067297 0.026729578 0.038793743 -0.05628311 0.04846653 -0.016319215
-0.06049043 0.051550146 0.027605684 -0.05555649 0.025428714 -0.014364377 0.014990132 0.016203523
00000000: e1b8 f23c a00a 77bd b14f f63c fdf7 da3c
00000010: 30e6 1e3d 1e89 66bd d784 463d e0af 85bc
00000020: d0c4 77bd 3f26 533d 5125 e23c 348f 63bd
00000030: e14f d03c 9058 6bbc 2c99 753c 40bd 843c

deconv2.1.weight f4 [16]
0.99802816 1.0244654 1.0233955 1.0124316 1.0099455 0.97439086 0.99659365 0.958557
0.97153497 1.0058191 1.0094773 0.97685075 0.98556286 0.9826354 1.0002393 1.0242231
00000000: c67e 7f3f af21 833f a0fe 823f 5c97 813f
00000010: e545 813f ae71 793f c320 7f3f fe63 753f
00000020: 84b6 783f aebe 803f 8d36 813f e412 7a3f
00000030: d94d 7c3f fe8d 7b3f d707 803f be19 833f

deconv2.1.bias f4 [16]
0.01445374 0.077222824 0.052354936 0.02341082 0.05445779 0.019851448 0.038878046 -0.02595156
-0.024749177 0.06755074 0.052740455 -0.00051833375 -0.015534569 0.05189413 0.012973251 0.033640627
00000000: 61cf 6c3c 0027 9e3d 2172 563d 0cc8 bf3c
00000010: 220f 5f3d 819f a23c 963e 1f3d 5e98 d4bc
00000020: c9be cabc 0b58 8a3d 6006 583d cae0 07ba
00000030: b484 7ebc f08e 543d c28d 543c c1ca 093d

deconv2.1.running_mean f4 [16]
-0.3088242 -0.35224253 -0.11874149 -0.22862305 -0.19380474 -0.48088482 -0.20778678 -0.20198683
-0.3308885 -0.28192487 -0.48763454 -0.45858887 -0.2064992 -0.20705816 -0.55318856 -0.50778663
00000000: 351e 9ebe 2259 b4be bd2e f3bd 291c 6abe
00000010: c074 46be 8936 f6be 0fc6 54be a3d5 4ebe
00000020: 386a a9be 7558 90be 3cab f9be 29cc eabe
00000030: 8774 53be 0e07 54be c49d 0dbf 4efe 01bf

deconv2.1.running_var f4 [16]
0.50612676 0.4544022 0.51745665 0.39189404 0.4754001 0.7712983 0.55512935 0.48269534
0.32026306 0.760816 0.61431664 0.4342801 0.60361177 0.7255046 0.59314674 0.36556026
00000000: 8691 013f 68a7 e83e 0a78 043f 56a6 c83e
00000010: a467 f33e ce73 453f f51c 0e3f d823 f73e
00000020: 85f9 a33e d6c4 423f db43 1d3f f659 de3e
00000030: 4d86 1a3f abba 393f 77d8 173f b72a bb3e

deconv3.0.weight f4 [16, 8, 4, 4]
-0.027390322 0.041742295 -0.032246877 -0.078218125 -0.11065131 -0.0054582646 0.02932405 -0.036302034
-0.08843317 0.01950448 0.032784753 0.04496716 -0.10005414 -0.03558818 0.0517545 -0.062381893
0.025616862 -0.040518567 -0.0054728896 0.07904121 0.039686825 0.047602996 0.062017992 0.018564476
-0.010475259 0.053698916 0.05761403 0.061775565 0.03529722 0.044010606 0.06472148 -0.044576768
0.07825394 0.022426238 -0.026464395 0.04685431 0.050588246 0.12771717 0.0043183374 0.01910804
0.03755052 0.099629276 -0.07652008 0.080320016 0.03836867 0.01720539 -0.05276585 -0.032544468
0.03236652 0.06964059 -0.013655837 0.044619218 -0.047211174 -0.06351185 0.021815363 0.11009568
0.05551983 0.08911754 -0.02349389 0.095150605 0.008468463 0.025190715 -0.0150972055 0.029802302
0.03552714 0.079367116 0.02516899 -0.056472052 0.03707321 0.00089116866 0.008757105 -0.04515434
-0.025753621 0.0439774 -0.031816475 -0.0028532848 0.0014367832 0.0011189961 -0.029770868 0.02757379
0.019769559 -0.05902616 0.009770057 0.018473025 -0.0020243954 0.0068287454 0.05981383 0.049966533
0.0029714839 0.0471693 -0.044343416 -0.018810634 0.060785655 0.03457969 0.014557818 0.04847152
0.006308349 -0.038990308 -0.044973828 -0.061588846 0.044650845 -0.06816029 -0.021205101 -0.04955961
-0.0113602895 0.1003307 0.030722236 0.009051609 0.057487406 -0.010007591 -0.0055426187 -0.05236137
0.052122977 0.081992336 0.041355055 0.034262296 0.014310262 0.07295566 -0.077069476 -0.023655964
0.06559533 -0.09115501 -0.06705702 -0.016277155 0.06935291 0.042634923 -0.026838772 0.03889257
-0.025407117 0.023672272 0.09532504 -0.0994539 -0.06697992 -0.030375162 0.15984333 0.08455964
0.015796749 0.074706785 0.06421786 0.03224028 -0.028528154 -0.037774682 0.07730301 -0.031417914
0.06448867 -0.03601372 0.026573034 -0.05881877 -0.021574756 -0.038385082 0.101681255 -0.07033651
-0.012069031 0.05711319 0.044853713 0.028362 0.040031247 -0.007259688 0.032459594 0.009400667
0.021637145 0.069183595 0.1290772 -0.019190919 -0.010543915 -0.00870382 0.02392736 0.053156268
-0.01837656 0.04805977 -0.04634428 -0.027132135 -0.06242293 -0.00070837315 0.05964895 -0.021001957
-0.07227792 -0.018031644 0.09412253 0.014787592 0.086261936 -0.025326235 -0.007776984 0.073017664
-0.017603764 0.025616303 0.08889844 -0.019856846 0.024980228 -0.02885969 -0.011488593 0.03556215
0.044666123 -0.033733606 0.017251143 0.0403532 0.07096635 0.030728165 -0.048217036 0.023588408
0.059320167 0.019927572 -0.011353586 0.069668256 0.012007533 -0.027334431 0.06299158 0.018991947
0.019916097 -0.004873511 -0.071780324 0.05449349 -0.013037414 0.054889604 0.08078838 0.08421413
0.031871587 0.049726106 -0.030702861 0.09083518 0.10646062 0.009381056 0.065722756 0.11550787
-0.035435535 -0.043029197 -0.06271436 0.05238508 0.06447721 0.043283504 0.065473385 -0.009717047
0.04532578 -0.011518095 -0.020266863 0.01953668 0.0357366 0.02944422 0.09486703 0.03788469
0.0346835 0.066047706 0.06913413 0.09461601 0.05104127 0.06386429 -0.044099025 -0.08377841
-0.073403485 0.06198445 0.017392458 0.0028049396 0.023939908 0.017070148 -0.063741095 -0.0336662
00000000: ab61 e0bc f8f9 2a3d 4d15 04bd d330 a0bd
00000010: 279d e2bd 3edb b2bb fd38 f03c 71b1 14bd
00000020: 731c b5bd dcc7 9f3c 4e49 063d 7c2f 383d
00000030: 2fe9 ccbd e9c4 11bd 87fc 533d 2884 7fbd
00000040: 74da d13c ccf6 25bd ed55 b3bb 5ce0 a13d
00000050: a78e 223d 5cfb 423d 9406 7e3d 8714 983c
00000060: 6ca0 2bbc 65f3 5b3d b0fc 6b3d 6008 7d3d
00000070: d193 103d 7744 343d b28c 843d 2196 36bd
00000080: 9a43 a03d 3bb7 b73c dccb d8bc 4eea 3f3d
00000090: 9f35 4f3d 4ac8 023e d780 8d3b 7788 9c3c
000000a0: 93ce 193d 6f0a cc3d 8fb6 9cbd d27e a43d
000000b0: 7728 1d3d 51f2 8c3c 0121 58bd 594d 05bd
000000c0: c292 043d ba9f 8e3d bbbc 5fbc a4c2 363d
000000d0: 8160 41bd 8012 82bd 22b6 b23c d879 e13d
000000e0: c368 633d 4283 b63d 4276 c0bc 52de c23d
000000f0: 4fbf 0a3c c25c ce3c 455a 77bc f523 f43c
00000100: e884 113d 3a8b a23d 332f ce3c 3d4f 67bd
00000110: 14da 173d 519d 693a f679 0f3c c2f3 38bd
00000120: 42f9 d2bc a521 343d fe51 02bd 2dfe 3abb
00000130: 7252 bc3a 47ab 923a 09e2 f3bc 6ee2 e13c
00000140: c5f3 a13c 6ac5 71bd 9712 203c be54 973c
00000150: b8ab 04bb abc3 df3b 59ff 743d b5a9 4c3d
00000160: 3abd 423b 9934 413d 71a1 35bd c218 9abc
00000170: 61fa 783d 6fa3 0d3d ea83 6e3c 138a 463d
00000180: 44b6 ce3b 4db4 1fbd 7a36 38bd 9644 7cbd
00000190: cee3 363d 9f97 8bbd 52b6 adbc 05ff 4abd
000001a0: 8220 3abc 2f7a cd3d 33ad fb3c 334d 143c
000001b0: ea77 6b3d e1f6 23bc db9e b5bb e078 56bd
000001c0: e77e 553d 99eb a73d eb63 293d 9f56 0c3d
000001d0: 9775 6a3c c769 953d 9ad6 9dbd 27ca c1bc
000001e0: d856 863d 7aaf babd 3155 89bd ab57 85bc
000001f0: e608 8e3d f5a1 2e3d fcdc dbbc d14d 1f3d
00000200: 9622 d0bc 5aec c13c c639 c33d 7cae cbbd
00000210: c52c 89bd 55d5 f8bc f8ad 233e 9b2d ad3d
00000220: 2f68 813c dfff 983d a784 833d 620e 043d
00000230: e0b3 e9bc a0b9 1abd 0a51 9e3d 12b0 00bd
00000240: a312 843d 1f83 13bd b1af d93c f3eb 70bd
00000250: 8bbd b0bc ad39 1dbd 433e d03d 970c 90bd
00000260: 2fbd 45bc 85ef 693d 87b8 373d 6d57 e83c
00000270: cef7 233d ade2 edbb 5af4 043d 4105 1a3c
00000280: 6240 b13c 21b0 8d3d d02c 043e 4636 9dbc
00000290: 63c0 2cbc 789a 0ebc 5003 c43c 63ba 593d
000002a0: 718a 96bc 52da 443d 80d3 3dbd 3644 debc
000002b0: 30af 7fbd 1eb2 39ba 7552 743d 4c0c acbc
000002c0: 7206 94bd 19b7 93bc 50c3 c03d a847 723c
000002d0: 19aa b03d f778 cfbc 12d6 febb 498a 953d
000002e0: c535 90bc 48d9 d13c 6310 b63d d3aa a2bc
000002f0: 56a3 cc3c 286b ecbc a73a 3cbc 9ea9 113d
00000300: d3f3 363d 402c 0abd 4552 8d3c 6649 253d
00000310: ce56 913d a2b9 fb3c 3a7f 45bd 7a3c c13c
00000320: b4f9 723d 263f a33c 6404 3abc 3bae 8e3d
00000330: 3ebb 443c 75ec dfbc bb01 813d 0095 9b3c
00000340: 1527 a33c f9b1 9fbb 9001 93bd 9134 5f3d
00000350: e19a 55bc ecd3 603d 6174 a53d 7578 ac3d
00000360: c88b 023d 9aad 4b3d 9184 fbbc cb07 ba3d
00000370: 0708 da3d 00b3 193c a799 863d 648f ec3d
00000380: da24 11bd 623f 30bd 6370 80bd bd91 563d
00000390: a10c 843d 0b4a 313d e916 863d 4034 1fbc
000003a0: 86a7 393d 64b6 3cbc b106 a6bc 630b a03c
000003b0: 8b60 123d 0135 f13c a549 c23d fa2c 1b3d
000003c0: 4910 0e3d 0544 873d 3296 8d3d 0ac6 c13d
000003d0: a710 513d 48cb 823d 2ea1 34bd 0494 abbd
000003e0: 9154 96bd 68e3 7d3d a17a 8e3c 14d3 373b
000003f0: a01d c43c b2d6 8b3c b18a 82bd 92e5 09bd

deconv3.0.bias f4 [8]
-0.07429767 0.073587745 -0.0564933 0.0481993 0.024956116 0.062429134 0.029129671 0.05980143
00000000: 6029 98bd 2cb5 963d 8565 67bd a16c 453d
00000010: c570 cc3c b1b5 7f3d 59a1 ee3c 58f2 743d

deconv3.1.weight f4 [8]
1.1006793 1.0926383 1.0981932 1.0951681 1.0857013 1.0719486 1.0919116 1.0785002
00000000: 0fe3 8c3f 92db 8b3f 9891 8c3f 782e 8c3f
00000010: 43f8 8a3f 9d35 893f c2c3 8b3f 4b0c 8a3f

deconv3.1.bias f4 [8]
0.09882244 0.08954355 0.09542208 0.092709385 0.08671815 0.070231885 0.09073847 0.07842974
00000000: 6b63 ca3d 9c62 b73d a76c c33d 6bde bd3d
00000010: 4999 b13d bcd5 8f3d 17d5 b93d c69f a03d

deconv3.1.running_mean f4 [8]
0.15587944 0.34690353 0.28986248 0.41357124 0.42950234 0.5460922 0.33652258 0.41603416
00000000: dc9e 1f3e 579d b13e db68 943e 9cbf d33e
00000010: bbe7 db3e b3cc 0b3f b04c ac3e 6e02 d53e

deconv3.1.running_var f4 [8]
0.15412322 0.18646371 0.19641581 0.18069503 0.09020013 0.17544317 0.17529014 0.13390818
00000000: 7ad2 1d3e 58f0 3e3e 3a21 493e 1e08 393e
00000010: d9ba b83d 60a7 333e 427f 333e 3a1f 093e

deconv4.0.weight f4 [8, 3, 4, 4]
-0.04985338 0.108832926 0.13812871 0.085998975 -0.049295202 0.06138467 0.08365121 -0.020016989
-0.005653933 0.18364152 0.1016821 -0.06911525 -0.074183874 -0.00031638463 0.19153559 -0.03596934
-0.1868751 -0.19999221 -0.13265212 0.039627083 -0.006292191 -0.07018554 -0.17694515 0.06839058
-0.029441819 -0.15253012 -0.044919256 0.053867344 0.0015384741 -0.019691922 -0.18514189 -0.0060605938
0.0059602666 -0.026709262 -0.07228826 -0.09923198 -0.06450105 -0.058420304 -0.19286153 0.0045610573
-0.1726097 -0.04988667 -0.20044112 -0.07307262 -0.093296036 -0.16090372 0.032307904 -0.13183238
0.18631919 -0.09104956 -0.039209623 -0.090679266 0.0177382 -0.042090014 0.114939705 0.040133562
-0.071375705 0.15564102 0.12521647 0.16948454 0.1937555 0.068652086 -0.018830944 -0.07022565
-0.09360835 -0.18358843 0.05106609 -0.1956557 0.04298863 0.015225031 -0.03502504 -0.09462313
-0.19088441 -0.14323726 -0.14535835 -0.043202713 0.07511091 -0.09207263 -0.081233755 -0.07341551
-0.079468265 -0.03092102 -0.11836658 -0.09241184 -0.043472715 -0.11392808 -0.20058931 -0.19557337
-0.023513352 -0.0019688306 -0.19142546 -0.10124613 -0.114486426 -0.14560616 -0.07824072 -0.005483682
-0.0053482773 -0.011194358 0.06553797 0.13908316 0.15908028 0.13217558 0.17352097 0.13689066
0.0023443396 0.03248275 0.18253382 0.027907668 -0.030921737 0.058262642 0.09431212 -0.033752102
-0.20782389 -0.09428484 -0.15226412 -0.021180283 0.051866453 -0.030188343 -0.09185594 -0.07416213
-0.16217749 -0.20321919 0.05609392 -0.028879916 -0.09251548 -0.10574391 0.030330703 -0.20994158
0.00043248662 -0.1619937 -0.020303654 -0.016110891 -0.071340635 -0.03142731 -0.18203765 -0.19462098
-0.03203053 0.010657786 -0.047282103 -0.043283522 -0.0290145 0.070630476 -0.009527138 -0.09107454
0.1995809 0.048716925 0.025293427 0.08965896 0.03699174 0.057047106 0.0025086163 -0.027660014
0.104720384 0.15283929 0.024451425 0.091649786 0.14777207 0.02220617 0.009461731 -0.04108455
-0.11237204 -0.10695746 -0.12971982 -0.107637465 -0.015090036 -0.12421428 0.033544004 -0.047431298
-0.10113464 -0.053831264 0.042393945 0.004353907 -0.19713147 0.017104255 -0.07054974 -0.09670149
-0.18721907 -0.105736494 -0.18706547 -0.15782939 -0.063692495 0.03669137 -0.102597415 -0.023414569
-0.06012711 -0.20594345 0.062375423 0.045739017 -0.18269223 0.02108308 -0.008616582 -0.20132755
0.18844953 0.15492748 0.18803689 0.020027578 0.12453733 0.07590354 0.003398796 0.092331685
0.08777116 -0.031097542 -0.06037137 0.15781246 0.19411154 0.20387842 0.03471471 0.040307384
-0.15181613 -0.045412008 0.07374496 -0.1820647 -0.15834947 -0.20458534 -0.0060126428 -0.152062
-0.13022959 0.038863372 -0.042257454 0.018231684 0.012997272 -0.19974686 -0.15144022 -0.11555294
-0.030513689 -0.1853454 -0.12632084 -0.10805365 0.022881636 -0.15873891 -0.036405876 -0.13915108
-0.19092001 0.002722239 0.0488986 -0.117407754 -0.0011329984 -0.071381904 -0.02491579 -0.057879876
0.17502254 0.13965201 0.051394675 0.18888271 0.04145544 0.07555486 0.06716008 -0.04784122
-0.051961444 -0.04119495 0.04836622 0.12491233 0.16730422 0.1493691 -0.04616166 -0.035306636
00000000: 0f33 4cbd cce3 de3d 9d71 0d3e 3b20 b03d
00000010: c4e9 49bd 7e6e 7b3d 5351 ab3d abfa a3bc
00000020: a144 b9bb 860c 3c3e b43e d03d 4c8c 8dbd
00000030: b7ed 97bd 6de0 a5b9 e821 443e 9654 13bd
00000040: 305c 3fbe c2ca 4cbe f5d5 07be 0250 223d
00000050: b92e cebb 70bd 8fbd 1c31 35be 5c10 8c3d
00000060: f82f f1bc db30 1cbe 41fd 37bd 01a4 5c3d
00000070: a0a6 c93a f450 a1bc d695 3dbe f297 c6bb
00000080: 574e c33b 62cd dabc de0b 94bd 233a cbbd
00000090: 2019 84bd 214a 6fbd 7e7d 45be ec74 953b
000000a0: 99c0 30be f755 4cbd 7040 4dbe 19a7 95bd
000000b0: fe11 bfbd f2c3 24be 4b55 043d 11ff 06be
000000c0: 75ca 3e3e 3178 babd 459a 20bd 0db6 b9bd
000000d0: b44f 913c 9466 2cbd 8265 eb3d 1763 243d
000000e0: 6d2d 92bd 5c60 1f3e bf38 003e 5b8d 2d3e
000000f0: d767 463e 7799 8c3d 5a43 9abc 77d2 8fbd
00000100: bcb5 bfbd 9bfe 3bbe ad2a 513d f859 48be
00000110: d814 303d 6972 793c 6b76 0fbd c6c9 c1bd
00000120: 3477 43be caac 12be d2d8 14be 54f5 30bd
00000130: c0d3 993d 9390 bcbd e25d a6bd df5a 96bd
00000140: 42c0 a2bd 144e fdbc 2d6a f2bd 6b42 bdbd
00000150: 7210 32bd 2053 e9bd 4967 4dbe 6344 48be
00000160: 139f c0bc 7f07 01bb 0905 44be 225a cfbd
00000170: dc77 eabd c819 15be ac3c a0bd 75b0 b3bb
00000180: 9a40 afbb 8a68 37bc c538 863d d16b 0e3e
00000190: f1e5 223e 0959 073e 7baf 313e 112d 0c3e
000001a0: 7ea3 193b a20c 053d 25ea 3a3e 9f9e e43c
000001b0: 954f fdbc cfa4 6e3d b626 c13d a53f 0abd
000001c0: c9cf 54be 6918 c1bd 20eb 1bbe 4682 adbc
000001d0: eb71 543d 8b4d f7bc f81e bcbd 51e2 97bd
000001e0: db11 26be b118 50be bdc2 653d 9395 ecbc
000001f0: c278 bdbd 4390 d8bd 1878 f83c edfa 56be
00000200: 5fbf e239 ade1 25be d953 a6bc fdfa 83bc
00000210: 0a1b 92bd ecb9 00bd 1468 3abe b94a 47be
00000220: 7232 03bd ff9d 2e3c e1aa 41bd 104a 31bd
00000230: d1af edbc b6a6 903d b717 1cbc 4a85 babd
00000240: ef5e 4c3e 668b 473d 2934 cf3c 1e9f b73d
00000250: a784 173d 3aaa 693d 9967 243b 4197 e2bc
00000260: a477 d63d e781 1c3e 5b4e c83c e2b2 bb3d
00000270: 9051 173e b7e9 b53c 6005 1b3c 4648 28bd
00000280: 5023 e6bd 830c dbbd 46d5 04be 0871 dcbd
00000290: 333c 77bc 0e64 febd 7065 093d 5247 42bd
000002a0: ae1f cfbd 2c7e 5cbd 46a5 2d3d 38ab 8e3b
000002b0: d5dc 49be 391e 8c3c 627c 90bd 6e0b c6bd
000002c0: 5bb6 3fbe 608c d8bd 178e 3fbe 079e 21be
000002d0: 3671 82bd b149 163d 981e d2bd e9cf bfbc
000002e0: d847 76bd d7e2 52be 5f7d 7f3d d658 3b3d
000002f0: ac13 3bbe 6cb6 ac3c 902c 0dbc cf28 4ebe
00000300: eaf8 403e 4fa5 1e3e be8c 403e e010 a43c
00000310: 6d0d ff3d 5173 9b3d 56be 5e3b 6518 bd3d
00000320: 5ec1 b33d 46c0 febc f847 77bd 9799 213e
00000330: 2dc5 463e 81c5 503e 0331 0e3d 5b19 253d
00000340: b075 1bbe f101 3abd 9907 973d 2b6f 3abe
00000350: 5d26 22be d27e 51be b405 c5bb 24b6 1bbe
00000360: e85a 05be 332f 1f3d 2716 2dbd 9d5a 953c
00000370: 83f2 543c 718a 4cbe 2513 1bbe 05a7 ecbd
00000380: d8f7 f9bc 2fcb 3dbe 405a 01be 3b4b ddbd
00000390: 4572 bb3c 748c 22be 541e 15bd 9f7d 0ebe
000003a0: 8980 43be 9767 323b e649 483d 7a73 f0bd
000003b0: 1e81 94ba ad30 92bd 331c ccbc 7313 6dbd
000003c0: 1c39 333e f000 0f3e 3983 523d 786a 413e
000003d0: 2ecd 293d 82bc 9a3d 398b 893d 28f5 43bd
000003e0: 86d5 54bd 09bc 28bd a81b 463d 09d2 ff3d
000003f0: cc51 2b3e 37f4 183e 0214 3dbd b19d 10bd

deconv4.0.bias f4 [3]
-0.057454985 0.05867922 -0.008666905
00000000: eb55 6bbd 9f59 703d a2ff 0dbc
