03_hw/Pix2Pix/checkpoints/pix2pix_model_epoch_170.pth (torch, 99191 bytes, 32 tensors)

conv1.0.weight f4 [8, 3, 4, 4]
-0.12227448 -0.12612016 -0.059678752 -0.20193277 0.049525466 -0.11055403 -0.019573288 0.07678101
-0.14375715 -0.050328672 -0.0029745216 0.03374143 -0.01167826 0.07782566 0.06978284 -0.13834587
0.122620694 0.1862451 0.056615684 -0.019782212 0.029073874 -0.030294724 -0.078058995 0.055447545
0.11623434 0.047425788 0.038817815 -0.050016996 -0.067323565 0.030020006 -0.06792205 0.16076432
-0.10674019 0.04425807 -0.1419693 0.04838745 -0.10943759 -0.10331361 -8.70936e-05 -0.1114568
0.026446246 -0.024723396 0.0018417813 -0.041026015 -0.039315242 0.046594806 0.0711916 0.04221188
-0.07291619 0.06820275 -0.01921707 -0.019132107 -0.006851425 0.111652434 0.033315115 -0.010416983
0.14333716 0.08493678 -0.10288379 -0.07255459 0.034810867 0.12628102 -0.030951047 -0.01895926
-0.0040468713 0.13602461 0.013146924 -0.08224259 -0.046733133 -0.076201804 0.03968881 -0.02885739
0.029698197 -0.00944411 0.036143072 -0.12500475 0.0632771 -0.02662753 0.06102262 0.09727895
-0.0019354863 -0.06412372 0.047705963 -0.1313094 -0.059117626 0.08256441 -0.07204647 0.06778324
-0.007135464 -0.00545595 -0.018926194 0.007024767 -0.061676558 -0.09215926 -0.028220885 -0.09147351
-0.13008516 0.062315207 0.008769733 -0.054213494 0.02322811 -0.01039928 0.06581776 0.14276136
-0.07678925 0.052511163 -0.10393455 -0.049519848 0.14309599 0.043617755 0.036892395 -0.06917735
-0.05888953 0.012394328 0.09582034 -0.09678548 0.13562216 -0.018936073 0.00528978 0.1372221
0.020680696 0.07444985 -0.08636696 -0.10978544 0.019025587 0.052263066 -0.015909089 0.09573093
-0.11465282 0.09298913 -0.026199799 0.05351036 0.0021410557 0.06699796 0.074048676 -0.0005703052
0.053781714 0.16585451 0.12924527 0.07903964 -0.10320474 0.038423043 0.10373503 0.117825754
0.057010733 0.10972938 0.17129225 0.05436836 0.0004414223 -0.05277524 -0.004605891 -0.053136013
0.035634805 -0.06920924 0.14279282 -0.053412683 0.055734836 0.11678936 0.106288314 -0.15895921
-0.11128671 0.08411921 0.15734544 0.023858964 0.06163917 0.09375791 -0.0025438021 -0.046684947
-0.09799735 -0.09232473 0.06710043 0.10027607 -0.08865781 -0.05726799 -0.011753006 -0.09040896
0.08591642 -0.16986145 0.024383334 0.02931686 -0.054433204 -0.10984084 -0.042030588 0.010615591
-0.11534529 0.10793487 -0.078237325 0.10982303 -0.056175172 -0.038942344 -0.10704693 0.120487586
-0.080181666 -0.13730875 0.050159723 0.046490483 0.13225712 -0.020409063 -0.004049482 -0.13659684
0.09106779 -0.122036226 0.070368744 0.020000858 0.06219658 -0.1950845 -0.14070526 -0.044270813
-0.015950484 0.0668682 0.053060777 0.10093573 -0.093656756 -0.0723505 0.004930383 0.092882134
-0.02751361 -0.13288108 -0.18920146 -0.21938276 -0.09463092 -0.013922357 -0.18840948 0.03900754
0.10922151 0.013748042 0.0640855 -0.10664165 0.066505656 -0.06361702 0.09232113 -0.07107989
-0.06016744 0.083609864 -0.057019185 0.06713822 0.10452208 0.030001251 -0.00360679 -0.052197218
0.039638724 -0.115933426 -0.06872903 -0.043443777 -0.053045068 -0.09805405 0.12151964 0.0044136234
0.10160883 0.016611297 0.09689572 -0.10755002 -0.041471638 0.10996437 0.123949625 0.06485088
00000000: 0b6b fabd a525 01be b571 74bd 77c7 4ebe
00000010: 37db 4a3d 276a e2bd 2958 a0bc 5d3f 9d3d
00000020: 1335 13be 7025 4ebd 31f0 42bb 7434 0a3d
00000030: 2c56 3fbc 0f63 9f3d 4eea 8e3d 8aaa 0dbe
00000040: 8f20 fb3d 09b7 3e3e d9e5 673d 4e0e a2bc
00000050: 552c ee3c a42c f8bc 65dd 9fbd f71c 633d
00000060: 450c ee3d 8b41 423d 6eff 1e3d 9fde 4cbd
00000070: f0e0 89bd 84ec f53c b71a 8bbd 679f 243e
00000080: 9a9a dabd f347 353d 6660 11be eb31 463d
00000090: d120 e0bd 1696 d3bd 05a6 b6b8 7643 e4bd
000000a0: cca5 d83c b888 cabc ed67 f13a e50a 28bd
000000b0: 0509 21bd 32da 3e3d e7cc 913d 5de6 2c3d
000000c0: 1555 95bd e2ad 8b3d 1e6d 9dbc f0ba 9cbc
000000d0: eb81 e0bb 08aa e43d 6e75 083d feab 2abc
000000e0: fac6 123e 56f3 ad3d bdb4 d2bd 8097 94bd
000000f0: d795 0e3d d04f 013e 0d8d fdbc 7350 9bbc
00000100: 9e9b 84bb 094a 0b3e 3266 573c ce6e a8bd
00000110: 3e6b 3fbd b10f 9cbd bc90 223d 5566 ecbc
00000120: a249 f33c 78bb 1abc c20a 143d 3f01 00be
00000130: 6d97 813d fa21 dabc dbf2 793d 303a c73d
00000140: 25b0 fdba 4c53 83bd 5467 433d f975 06be
00000150: 5325 72bd 8817 a93d 1a8d 93bd f0d1 8a3d
00000160: 9cd0 e9bb d3c7 b2bb 1b0b 9bbc 0430 e63b
00000170: 8fa0 7cbd febd bcbd 7c2f e7bc 7756 bbbd
00000180: 0b35 05be 3b3e 7f3d edae 0f3c f80e 5ebd
00000190: e148 be3c be61 2abc 76cb 863d 0930 123e
000001a0: af43 9dbd f215 573d a3db d4bd 53d5 4abd
000001b0: c187 123e 88a8 323d 7b1c 173d dbac 8dbd
000001c0: 2636 71bd 9411 4b3c 743d c43d 7737 c6bd
000001d0: 89e0 0a3e d31f 9bbc e455 ad3b f383 0c3e
000001e0: 906a a93c 2a79 983d 29e1 b0bd 30d7 e0bd
000001f0: 8cdb 9b3c cc11 563d c753 82bc 940e c43d
00000200: 19cf eabd 1671 be3d f6a0 d6bc ae2d 5b3d
00000210: f450 0c3b 3a36 893d d5a6 973d 8980 15ba
00000220: 374a 5c3d c4d5 293e df58 043e 89df a13d
00000230: 025d d3bd 7b61 1d3d 0873 d43d a14e f13d
00000240: 1684 693d ccb9 e03d 3c67 2f3e 5cb1 5e3d
00000250: b36e e739 da2a 58bd 04ed 96bb 26a5 59bd
00000260: cdf5 113d 93bd 8dbd 4838 123e 42c7 5abd
00000270: 364a 643d 432f ef3d b0ad d93d 34c6 22be
00000280: 49ea e3bd b146 ac3d 2a1f 213e e073 c33c
00000290: 5b79 7c3d 2604 c03d ebb5 26bb b738 3fbd
000002a0: d6b2 c8bd bf14 bdbd f36b 893d 8a5d cd3d
000002b0: 3a92 b5bd d791 6abd ae8f 40bc 5528 b9bd
000002c0: f3f4 af3d 29f0 2dbe 8fbf c73c e929 f03c
000002d0: 5af5 5ebd 3cf4 e0bd 4428 2cbd 04ed 2d3c
000002e0: 273a ecbd f50c dd3d e43a a0bd e6ea e03d
000002f0: f017 66bd 0282 1fbd 6c3b dbbd 32c2 f63d
00000300: 4936 a4bd aa9a 0cbe 4874 4d3d ce6c 3e3d
00000310: 696e 073e e830 a7bc 84b1 84bb 0be0 0bbe
00000320: c081 ba3d 21ee f9bd 7d1d 903d d7d8 a33c
00000330: d7c1 7e3d 3bc4 47be 0a15 10be 5055 35bd
00000340: 97aa 82bc 32f2 883d 4256 593d 64b7 ce3d
00000350: 1dcf bfbd 802c 94bd 0d8f a13b fd38 be3d
00000360: 3964 e1bc fa11 08be 07be 41be e0a5 60be
00000370: dbcd c1bd 991a 64bc 6aee 40be 5fc6 1f3d
00000380: 87af df3d 783f 613c 423f 833d f066 dabd
00000390: 1e34 883d a449 82bd dc12 bd3d 5592 91bd
000003a0: 2272 76bd a63b ab3d f38c 69bd c37f 893d
000003b0: ac0f d63d 2fc5 f53c e55f 6cbb c0cc 55bd
000003c0: 375c 223d 816e edbd cec1 8cbd 1af2 31bd
000003d0: c945 59bd 90d0 c8bd 4adf f83d 28a0 903b
000003e0: 4a18 d03d 6a14 883c 4371 c63d 2f43 dcbd
000003f0: 2ade 29bd 0035 e13d 4dd9 fd3d 8ad0 843d

conv1.0.bias f4 [8]
0.13220587 0.004769383 -0.035361707 0.123617925 0.0711611 0.100563504 -0.10984982 -0.012945643
00000000: fa60 073e 7c48 9c3b 70d7 10bd 652b fd3d
00000010: e9bc 913d 3df4 cd3d f1f8 e0bd f619 54bc

conv1.1.weight f4 [8]
1.0091646 0.9752818 0.98843634 0.96271724 1.0047528 0.97372663 1.0036858 1.0733995
00000000: 4e2c 813f 11ac 793f 2a0a 7d3f a374 763f
00000010: bd9b 803f 2646 793f c778 803f 2865 893f

conv1.1.bias f4 [8]
0.0036532148 -0.04839041 -0.025049571 -0.001427669 -0.010808942 0.07417636 -0.036939222 0.08432265
00000000: c66a 6f3b 0635 46bd c234 cdbc 9f20 bbba
00000010: fd17 31bc c7e9 973d 954d 17bd 5bb1 ac3d

conv1.1.running_mean f4 [8]
0.21005294 -0.026684672 -0.10826609 0.06045276 0.19629145 0.07357379 -0.114070706 -0.011416324
00000000: 1e18 573e d099 dabc 9dba ddbd 509d 773d
00000010: a000 493e dbad 963d e79d e9bd 890b 3bbc

conv1.1.running_var f4 [8]
0.062496062 0.012800748 0.25177693 0.023411896 0.17242604 0.035079785 0.019363146 0.029543635
00000000: dffb 7f3d 3bba 513c e8e8 803e 4eca bf3c
00000010: 7490 303e d2af 0f3d 769f 9e3c 7e05 f23c

conv2.0.weight f4 [16, 8, 4, 4]
0.07760634 0.1011958 0.03298046 0.05109175 -0.07504428 0.07507273 -0.04809098 0.07300655
-0.076596215 0.067096606 0.054666236 0.016334714 -0.02768171 -0.09734007 -0.10089419 0.019883178
-0.01969299 0.07470164 0.06311846 -0.0314869 0.048433904 -0.08001096 0.03173764 -0.03298252
0.019439375 0.014833329 -0.054111805 0.031151954 0.037044514 0.032291338 -0.022603286 -0.086447805
-0.0442303 0.019137906 0.04350764 -0.036156707 -0.084490485 -0.016809035 -0.0070881015 0.046831615
-0.03395757 -0.06561424 -0.012077007 -0.024950128 -0.098873235 -0.08685124 -0.072708115 -0.08609111
0.053097997 -0.019811211 0.051058717 0.01720317 0.03430034 0.036844082 -0.044849407 -0.03815194
0.0033312168 -0.024174284 0.009987223 0.0032621922 0.072171636 -0.023804529 -0.008207387 -0.004254181
0.06511485 -0.026550617 0.0061944453 0.049422637 0.03810508 -0.0011303714 0.09905195 -0.0104257725
0.051411636 -0.033235375 0.080063276 0.051075958 -0.07821736 -0.02882877 -0.05559263 -0.041441694
-0.08128285 -0.08950385 0.005580827 -0.0007104884 0.0031677678 -0.019205738 0.032970287 0.013974451
0.0047758324 0.066394076 0.046310417 0.07661779 -0.0037176725 0.007648302 -0.07275873 0.009720442
0.07278714 -0.0018514325 0.08249881 0.045719285 0.081774905 0.02997809 0.016172519 0.039142348
-0.018504808 0.0310481 -0.017162343 0.05959724 -0.01611963 0.092169985 0.024911318 0.083258554
-0.016938154 0.015539924 -0.028963288 0.011712878 -0.043023672 -0.0029774688 -0.030239109 -0.03486149
0.07584176 0.02069139 0.05421782 0.0476923 0.054699685 0.0015872202 0.070521094 -0.032147516
0.031206697 0.013160983 -0.023424715 -0.054448407 -0.046814717 -0.07071626 -0.035284527 0.080138125
0.060597107 0.008772779 -0.0019554156 0.07419824 -0.052470747 -0.00038728706 0.0910442 -0.047650054
0.024226187 0.02197122 -0.04450532 -0.08295828 -0.08531273 -0.04696506 -0.08106602 -0.033054136
0.02254878 -0.044712454 0.061667394 0.03270535 0.0046262816 -0.04520884 0.073234886 0.111346796
-0.086306155 -0.01871527 0.07216949 -0.017843198 0.07599909 0.04046161 0.04553572 -0.059705097
0.027094526 -0.008034855 -0.08534301 0.035615135 0.021292625 -0.052792054 0.020213243 0.06296357
-0.025846796 -0.017319147 0.100667246 -0.004840111 -0.04622318 -0.025370818 -0.045871526 0.018077804
-0.030280797 -0.06689342 -0.06905639 -0.0004067245 -0.071041 -0.010668579 0.032465126 -0.037116848
-0.027296828 -0.06314254 -0.0036959283 0.0033235091 -0.017000759 0.043974116 0.035280302 -0.05347589
-0.058817323 -0.06311661 -0.07848936 0.048593566 -0.012419889 -0.03393125 0.09520122 -0.03719972
-0.025150139 -0.032983895 -0.07334711 -0.05024723 0.031910922 -0.044779807 -0.09086371 -0.12136874
0.020230023 -0.05004408 -0.03361936 -0.027784878 0.011415765 -0.070744194 -0.04674738 0.013351145
0.03487912 0.023030784 -0.023844562 0.0857556 0.049288414 -0.047551833 -0.044573896 0.02095543
-0.08305099 -0.009423941 -0.16953544 -0.055855077 0.00653311 -0.07474449 -0.08805217 0.01734038
0.022495132 -0.05985166 0.007732339 -0.005834434 -0.1356705 -0.13726951 -0.09853311 0.02318523
-0.024486946 -0.21356308 -0.11913159 -0.058496077 -0.022167576 -0.033096746 -0.06401682 0.043201283
00000000: 13f0 9e3d be3f cf3d 8516 073d 9545 513d
00000010: d1b0 99bd bbbf 993d 0cfb 44bd 7584 953d
00000020: 7ade 9cbd f269 893d b4e9 5f3d 61d0 853c
00000030: c1c4 e2bc 3b5a c7bd 9da1 cebd 0ce2 a23c
00000040: 3253 a1bc 2cfd 983d 4044 813d 68f8 00bd
00000050: a162 463d c9dc a3bd 54ff 013d ae18 07bd
00000060: 533f 9f3c 7e07 733c 57a4 5dbd 6232 ff3c
00000070: fdbb 173d ec43 043d 872a b9bc 8c0b b1bd
00000080: d52a 35bd 19c7 9c3c 1135 323d 0e19 14bd
00000090: 5909 adbd 1ab3 89bc 4e43 e8bb 82d2 3f3d
000000a0: 1817 0bbd c260 86bd a4de 45bc 3664 ccbc
000000b0: 0d7e cabd 10df b1bd fee7 94bd 8950 b0bd
000000c0: 497d 593d 1f4b a2bc f222 513d aaed 8c3c
000000d0: 837e 0c3d d2e9 163d 03b4 37bd 3545 1cbd
000000e0: 8b50 5a3b 2609 c6bc 73a1 233c 81ca 553b
000000f0: b9ce 933d b701 c3bc 4778 06bc a866 8bbb
00000100: ef5a 853d ae80 d9bc c6fa ca3b 646f 4a3d
00000110: 1314 1c3d f828 94ba c0db ca3d dcd0 2abc
00000120: 0295 523d d121 08bd 37f8 a33d 0635 513d
00000130: 6c30 a0bd 502a ecbc 19b5 63bd c4be 29bd
00000140: 9f77 a6bd cb4d b7bd 5fdf b63b 1240 3aba
00000150: 539a 4f3b 5a55 9dbc da0b 073d 19f5 643c
00000160: 967e 9c3b 9ef9 873d feaf 3d3d cae9 9c3d
00000170: 32a4 73bb 9b9e fa3b 8702 95bd 7d42 1f3c
00000180: 6d11 953d c4ab f2ba 23f5 a83d 2544 3b3d
00000190: 9a79 a73d 9d94 f53c 3b7c 843c ba53 203d
000001a0: 6597 97bc 9658 fe3c 0b98 8cbc 3c1c 743d
000001b0: 500d 84bc 9ec3 bc3d d212 cc3c 7683 aa3d
000001c0: e2c1 8abc 2a9b 7e3c 6b44 edbc 5fe7 3f3c
000001d0: 9739 30bd a321 43bb 02b8 f7bc ecca 0ebd
000001e0: ed52 9b3d fd80 a93c 8113 5e3d 0059 433d
000001f0: c70c 603d 460a d03a 5d6d 903d 1dad 03bd
00000200: 30a5 ff3c 2aa1 573c 30e5 bfbc 4b05 5fbd
00000210: cac0 3fbd b0d3 90bd 8286 10bd 751f a43d
00000220: ac34 783d b4bb 0f3c 6e26 00bb 3ff5 973d
00000230: 91eb 56bd ca0c cbb9 6275 ba3d b42c 43bd
00000240: ff75 c63c fdfc b33c 364b 36bd 08e6 a9bd
00000250: 71b8 aebd 6f5e 40bd f105 a6bd c663 07bd
00000260: 38b8 b83c 6824 37bd f396 7c3d 0cf6 053d
00000270: 1098 973b e82c 39bd 2cfc 953d ca09 e43d
00000280: 48c1 b0bd c450 99bc 99cd 933d e62b 92bc
00000290: 69a5 9b3d 13bb 253d aa83 3a3d 558d 74bd
000002a0: 57f5 dd3c a0a4 03bc 51c8 aebd 2de1 113d
000002b0: df6d ae3c 7b3c 58bd 3e96 a53c 0bf3 803d
000002c0: a9bc d3bc e2e0 8dbc a12a ce3d cb99 9ebb
000002d0: 8454 3dbd 76d6 cfbc c8e3 3bbd e717 943c
000002e0: 6f0f f8bc 6bff 88bd 706d 8dbd a33d d5b9
000002f0: f27d 91bd 43cb 2ebc 27fa 043d d607 18bd
00000300: 999d dfbc e050 81bd 6337 72bb 3bcf 593b
00000310: 2d45 8bbc 341e 343d 1482 103d 8909 5bbd
00000320: 6fea 70bd 4843 81bd 08bf a0bd 0c0a 473d
00000330: ca7c 4bbc 7ffb 0abd dbf8 c23d bc5e 18bd
00000340: aa07 cebc 1f1a 07bd 0237 96bd 0ad0 4dbd
00000350: 07b5 023d 086b 37bd c116 babd 2d90 f8bd
00000360: 6fb9 a53c 05fb 4cbd 74b4 09bd 1d9d e3bc
00000370: 3009 3b3c 55e2 90bd 2e7a 3fbd c3be 5a3c
00000380: 68dd 0e3d 0eab bc3c ac55 c3bc a2a0 af3d
00000390: a6e2 493d b6c5 42bd 1e93 36bd b9aa ab3c
000003a0: a316 aabd e066 1abc b39a 2dbe 4bc8 64bd
000003b0: b313 d63b a413 99bd b254 b4bd 6a0d 8e3c
000003c0: b647 b83c 0427 75bd 905f fd3b c82e bfbb
000003d0: 35ed 0abe 6190 0cbe bacb c9bd f4ee bd3c
000003e0: d998 c8bc 48b0 5abe 43fb f3bd 9599 6fbd
000003f0: c798 b5bc 7490 07bd 401b 83bd d4f3 303d

conv2.0.bias f4 [16]
-0.0869613 0.083081126 0.066449575 -0.011936981 -0.035352245 0.0063597136 -0.036187988 -0.058365926
-0.020479186 0.04210512 -0.05932175 -0.03297356 -0.04361975 -0.08463355 0.06860478 -0.071935646
00000000: c418 b2bd 7026 aa3d b716 883d 5493 43bc
00000010: 84cd 10bd 2565 d03b db39 14bd 1c11 6fbd
00000020: f7c3 a7bc 6b76 2c3d 5dfb 72bd 490f 07bd
00000030: 9faa 32bd 5b54 adbd aa80 8c3d ff52 93bd

conv2.1.weight f4 [16]
0.97245616 1.0490036 0.98370826 0.99072206 0.9891434 0.97822595 0.99911153 1.0255128
0.96202916 1.0018779 1.0074686 1.0130389 1.0784384 0.9922352 1.0003445 1.0092005
00000000: e3f2 783f c045 863f 4ed4 7b3f f69f 7d3f
00000010: 8038 7d3f 046d 7a3f c6c5 7f3f 0144 833f
00000020: 8b47 763f 893d 803f bbf4 803f 42ab 813f
00000030: 450a 8a3f 2003 7e3f 4a0b 803f 7b2d 813f

conv2.1.bias f4 [16]
-0.009408041 -0.00346998 0.012525822 -0.05667054 -0.0001695441 -0.030024756 -0.021487232 -0.02096733
-0.021101426 0.020062426 0.014133021 -0.016878666 -0.024870304 0.015687153 0.02063416 -0.0011078418
00000000: 2f24 1abc 9b68 63bb 1b39 4d3c 5e1f 68bd
00000010: a6c7 31b9 7af6 f5bc fe05 b0bc aec3 abbc
00000020: e6dc acbc f559 a43c 308e 673c 2145 8abc
00000030: cfbc cbbc 5882 803c f808 a93c 0135 91ba

conv2.1.running_mean f4 [16]
0.09052843 -0.7653081 -0.24151684 1.0751604 -0.15630901 -0.1852998 -0.03430754 0.051546697
-0.1924586 -0.65603435 -0.0041876202 0.60308486 -0.057388365 -0.4540293 0.09302501 0.13185324
00000000: f866 b93d 3beb 43bf 3150 77be db9e 893f
00000010: 780f 20be 3bbf 3dbe 1086 0cbd a122 533d
00000020: de13 45be def1 27bf 4e38 89bb c563 1a3f
00000030: 1010 6bbd 8776 e8be e583 be3d 8904 073e

conv2.1.running_var f4 [16]
0.23517479 0.32424983 0.56302565 0.3335553 0.2371866 0.10148409 0.0718026 0.20053662
0.45440158 0.41406614 0.19629274 0.20765437 0.36505297 0.22839007 0.2302608 0.24806407
00000000: a9d1 703e 1304 a63e 7322 103f c3c7 aa3e
00000010: 0be1 723e e4d6 cf3d 3e0d 933d 7959 4d3e
00000020: 53a7 e83e 7a00 d43e f700 493e 59a3 543e
00000030: 39e8 ba3e 16df 693e 7dc9 6b3e 8204 7e3e

conv3.0.weight f4 [32, 16, 4, 4]
0.018775633 -0.0053148465 -0.059038546 -0.06434421 -0.043469433 0.0037504358 0.009232288 -0.007745745
-0.03371742 -0.01129342 -0.0001193009 -0.04414417 -0.033313148 0.033662353 0.028699879 0.010093103
-0.059171915 -0.0142406225 0.001962494 0.016081812 -0.006461297 -0.024144543 0.041248377 -0.03921016
-0.038798414 -0.058385205 -0.013719494 0.0053436356 -0.021099078 0.015717339 -0.043602224 -0.056689583
0.04875086 -0.0072019384 -0.0051175654 0.025284324 0.012846528 -0.017040113 0.0049789953 0.054555833
0.004790161 0.03956812 0.01151298 -0.008950659 -0.0015876095 0.012951861 0.017785162 0.01004033
-0.0024900483 -0.012492182 -0.03781389 -0.06564428 -0.009591529 0.054809425 -0.034850758 -0.038173888
0.020970935 -0.033883158 -0.044793334 -0.054198924 0.03456941 -0.035118613 0.039235227 -0.062217418
0.05131024 0.014115965 0.025131121 0.026067207 0.009933403 0.0065593203 0.036619697 -0.0109915165
-0.007630501 -0.026048921 -0.016952101 0.030244565 -0.051256634 0.058085017 -0.012565802 -0.0036820027
-0.0048412695 0.04199989 0.020874435 -0.006088656 -0.027308615 0.042496264 0.011921976 0.014231767
0.061292976 -0.030721704 0.01748477 0.030438289 0.0031135813 -0.049562324 0.0019496066 -0.034439247
0.056268778 0.035048988 -0.020388823 -0.02903449 0.020229753 -0.0069451723 -0.059300754 -0.011726818
0.027057318 -0.060796957 -0.06391756 -0.022257559 0.039742816 -0.021753881 -0.042945772 0.019168016
0.009569311 0.05512328 -0.052679572 -0.056062147 0.05811304 -0.01113114 -0.05259046 -0.037265856
-0.058721725 0.007408655 -0.07618611 -0.106952995 0.0010587203 0.07369919 0.0067522977 -0.059609775
-0.005952919 -0.052753292 -0.031625405 -0.045958456 -0.009471002 0.04273062 -0.01528096 -0.024921168
-0.05062836 -0.020532897 -0.0021616456 -0.052236427 -0.03713156 0.0271255 0.0089389235 -0.07690996
-0.0219987 0.030856095 0.042933933 -0.04415305 -0.008780878 -0.056506734 -0.002687776 -0.04131837
-0.0565805 -0.049856845 -0.013033011 0.062202945 0.01055363 0.023045694 -0.05183163 -0.07317421
0.044087805 0.075670354 0.002184369 0.033322677 -0.015701668 0.02003871 0.000892465 0.016036054
0.06652402 0.041503053 0.03653551 -0.03766928 0.042704556 -0.040413 0.02304656 0.031033097
0.0069638113 0.043958563 0.00014619748 -0.07231369 -0.0018347864 0.026192775 -0.075709336 -0.057754997
0.063889325 0.02430466 0.036584996 -0.0009722923 0.050669022 -0.044879574 -0.060184598 0.00079563155
-0.038264588 0.015121872 0.053588986 -0.08226056 0.035087217 -0.010442239 -0.026551612 -0.077287026
-0.016462587 -0.08603538 -0.04248707 -0.12630418 -0.055260357 0.053063802 -0.042781882 -0.04306879
0.049454834 0.003547832 0.033001073 -0.038169514 0.018938357 -0.0017980315 -0.0029514742 -0.036203336
0.033270184 0.03267138 0.035357483 -0.014782653 -0.016328229 -0.06959905 0.04298407 -0.008975496
0.0680674 0.05308028 -0.041602936 -0.029356088 0.030597065 -0.045589786 -0.031703908 0.031923287
0.01705154 0.05197903 0.043223362 -0.050988212 -0.027771601 0.050723303 -0.05936509 -0.005971968
-0.003014023 0.020471841 0.027641468 0.0069410214 0.06430116 -0.02571435 0.044976093 0.045199562
0.046898168 0.050932292 -0.06899377 -0.08639131 -0.029609943 -0.0032255782 -0.05776254 -0.06738577
00000000: 5bcf 993c 2a28 aebb 67d2 71bd e6c6 83bd
00000010: 010d 32bd dfc9 753b 0643 173c 05d0 fdbb
00000020: 471b 0abd 0908 39bc 2f31 fab8 84d0 34bd
00000030: 5e73 08bd 89e1 093d 021c eb3c 8b5d 253c
00000040: 405e 72bd 8051 69bc 309d 003b 01be 833c
00000050: 4ab9 d3bb c7ca c5bc 0ff4 283d d59a 20bd
00000060: 16eb 1ebd 5325 6fbd bbc7 60bc aa19 af3b
00000070: f9d7 acbc a6c1 803c 3f98 32bd 5633 68bd
00000080: fbae 473d 3dfe ebbb 40b1 a7bb 1221 cf3c
00000090: 3e7a 523c b597 8bbc d726 a33b f075 5f3d
000000a0: c8f6 9c3b 2e12 223d f0a0 3c3c c9a5 12bc
000000b0: 5617 d0ba 0b34 543c 30b2 913c 3280 243c
000000c0: 1430 23bb 02ac 4cbc bde2 1abd 8270 86bd
000000d0: ca25 1dbc d97f 603d abbf 0ebd 395c 1cbd
000000e0: 3dcb ab3c 11c9 0abd 3779 37bd b1ff 5dbd
000000f0: a798 0d3d 89d8 0fbd 1eb5 203d b1d7 7ebd
00000100: b02a 523d a646 673c c8df cd3c e58a d53c
00000110: b6bf 223c 91ef d63b 89fe 153d c315 34bc
00000120: 4809 fabb 8c64 d5bc 22df 8abc 73c3 f73c
00000130: 7af2 51bd 8eea 6d3d cbe0 4dbc c14d 71bb
00000140: 83a3 9ebb 1408 2c3d dd00 ab3c 5983 c7bb
00000150: 51b6 dfbc 9010 2e3d 6454 433c 5b2c 693c
00000160: 580e 7b3d 15ac fbbc 383c 8f3c b859 f93c
00000170: 3a0d 4c3b dd01 4bbd f189 ff3a 2b10 0dbd
00000180: 177a 663d 878f 0f3d 7606 a7bc bdd9 edbc
00000190: deb8 a53c 5494 e3bb 59e5 72bd d721 40bc
000001a0: 4fa7 dd3c 3b06 79bd 36e7 82bd 7c55 b6bc
000001b0: 5dc9 223d 3235 b2bc e8e7 2fbd 3e06 9d3c
000001c0: 99c8 1c3c f3c8 613d 89c6 57bd 6ca1 65bd
000001d0: f007 6e3d 635f 36bc 1869 57bd 15a4 18bd
000001e0: 3186 70bd 4dc4 f23b 7707 9cbd 2c0a dbbd
000001f0: c2c4 8a3a 9aef 963d 6142 dd3b 6129 74bd
00000200: b410 c3bb d613 58bd a489 01bd ef3e 3cbd
00000210: 432c 1bbc 4d06 2f3d fe5c 7abc 7a27 ccbc
00000220: af5f 4fbd 9b34 a8bc 65aa 0dbb ddf5 55bd
00000230: 4317 18bd 4c36 de3c 9074 123c f882 9dbd
00000240: 9e36 b4bc ecc5 fc3c 7edb 2f3d d4d9 34bd
00000250: acdd 0fbc 9b73 67bd 6625 30bb 733d 29bd
00000260: f4c0 67bd b136 4cbd 6988 55bc 84c8 7e3d
00000270: 22e9 2c3c 53ca bc3c 674d 54bd 5cdc 95bd
00000280: 6a95 343d 0ff9 9a3d a127 0f3b 5c7d 083d
00000290: c9a0 80bc 3928 a43c 50f4 693a 0b5e 833c
000002a0: bf3d 883d 1bff 293d 42a6 153d 1a4b 1abd
000002b0: f9ea 2e3d 1a88 25bd 24cc bc3c 1f39 fe3c
000002c0: af30 e43b e50d 343d 964c 1939 3319 94bd
000002d0: 377d f0ba 3b92 d63c 7f0d 9bbd 8190 6cbd
000002e0: 68d8 823d 911a c73c 26da 153d 6fe1 7eba
000002f0: 528a 4f3d a5d3 37bd 2084 76bd ee91 503a
00000300: 54bb 1cbd bac1 773c 2080 5b3d 3978 a8bd
00000310: 9db7 0f3d ed15 2bbc c482 d9bc a948 9ebd
00000320: 8cdc 86bc 5133 b0bd ec06 2ebd e255 01be
00000330: af58 62bd 6e59 593d 0e3c 2fbd e668 30bd
00000340: 2791 4a3d be82 683b 222c 073d a357 1cbd
00000350: 9d24 9b3c edab ebba 856d 41bb f349 14bd
00000360: 5146 083d 6dd2 053d 02d3 103d f132 72bc
00000370: c7c2 85bc f289 8ebd 1010 303d f50d 13bc
00000380: ec66 8b3d b56a 593d d767 2abd 2e7c f0bc
00000390: b2a6 fa3c 5bbc 3abd f5db 01bd fec1 023d
000003a0: acaf 8b3c f7e7 543d fb0a 313d 04d9 50bd
000003b0: 4581 e3bc 3dc3 4f3d cf28 73bd 80b0 c3bb
000003c0: ea86 45bb 90b4 a73c 5c70 e23c 8271 e33b
000003d0: 54b0 833d e7a6 d2bc da38 383d 2d23 393d
000003e0: 4b18 403d 619e 503d 9b4c 8dbd eded b0bd
000003f0: 8d90 f2bc 3964 53bb 6a98 6cbd 8d01 8abd

conv3.0.bias f4 [32]
0.014426297 0.05784299 0.014442642 -0.0590732 0.004196098 -0.054987367 -0.023695255 0.06094034
0.034458213 0.02080112 -0.01481231 0.031027524 0.031232517 -0.007236462 -0.061515618 0.0104360115
-0.03160006 0.018471781 0.047149528 0.025682261 0.046204347 0.050900754 0.011286244 0.04690699
0.011643081 -0.040615156 -0.011624706 -0.012899526 -0.062206656 -0.05084554 -0.054034233 0.05982048
00000000: 465c 6c3c c5ec 6c3d d5a0 6c3c bdf6 71bd
00000010: 6c7f 893b 6f3a 61bd 8d1c c2bc 949c 793d
00000020: 0e24 0d3d 1c67 aa3c 55af 72bc 6f2d fe3c
00000030: 56db ff3c d81f edbb cdf7 7bbd cefb 2a3c
00000040: 116f 01bd 2252 973c dd1f 413d 9b63 d23c
00000050: c540 3d3d 4f7d 503d f0e9 383c 8b21 403d
00000060: 9fc2 3e3c 145c 26bd 8d75 3ebc 8958 53bc
00000070: 68cc 7ebd 6a43 50bd 0053 5dbd 5206 753d

conv3.1.weight f4 [32]
0.988342 0.99183005 1.0052875 1.0032791 0.97644484 0.9923716 0.9921449 0.9862643
0.96852106 1.0114223 0.9827622 0.9853777 1.0120605 0.9751354 1.0079982 1.0131037
1.0096011 1.0077573 0.99900705 0.9925907 0.9865252 1.0528948 1.0019155 1.0057031
0.9819697 0.97543246 1.0490237 1.008515 0.99016446 1.0427934 1.0716565 1.0073302
00000000: fb03 7d3f 93e8 7d3f 43ad 803f 736b 803f
00000010: 4af8 793f 110c 7e3f 35fd 7d3f d17b 7c3f
00000020: fff0 773f 4976 813f 4e96 7b3f b741 7c3f
00000030: 338b 813f 79a2 793f 1606 813f 62ad 813f
00000040: 9c3a 813f 31fe 803f edbe 7f3f 6d1a 7e3f
00000050: ea8c 7c3f 42c5 863f c43e 803f e1ba 803f
00000060: 5e62 7b3f f1b5 793f 6946 863f 0517 813f
00000070: 6b7b 7d3f 417a 853f 0a2c 893f 32f0 803f

conv3.1.bias f4 [32]
-0.047807794 0.00445945 0.0015091732 -0.12975857 -0.012586373 -0.00046718688 0.031266212 0.009191308
0.017449724 0.004659044 0.0045143096 0.033590548 0.046350673 -0.017784413 0.013346339 -0.017409617
0.018753935 0.008801754 -0.000962959 -0.05884569 -0.00029823318 -0.031572253 0.01697653 -0.011956799
0.009695448 -0.0059918338 0.01067368 0.014829947 -0.03472363 -0.039231084 -0.057171825 0.0065832934
00000000: 1bd2 43bd 9420 923b 73cf c53a 6edf 04be
00000010: 1337 4ebc c3f0 f4b9 0011 003d 2497 163c
00000020: b9f2 8e3c e5aa 983b c6ec 933b 3e96 093d
00000030: 34da 3d3d 9eb0 91bc 9aaa 5a3c 9d9e 8ebc
00000040: daa1 993c 3b35 103c 166f 7cba 2e08 71bd
00000050: 2e5c 9cb9 e851 01bd 5d12 8b3c 73e6 43bc
00000060: a8d9 1e3c 2557 c4bb a9e0 2e3c 4ef9 723c
00000070: 5d3a 0ebd c6b0 20bd 012d 6abd abb8 d73b

conv3.1.running_mean f4 [32]
-0.5009615 -0.61031044 -0.072340235 -0.12238826 -0.27155408 0.40026167 -0.06291595 -0.088228345
-0.16731198 -0.24474323 -0.18601097 -0.33426976 -0.48846766 -0.88192976 -0.41672996 -0.34671342
-0.49389535 -0.14913322 0.020237388 0.22720487 -0.5600599 -0.29536963 -0.34841445 -0.36142504
0.079816364 -0.4373502 -0.4731635 -0.62794554 -0.08721846 0.15285225 -0.42180425 -0.58608896
00000000: 033f 00bf 4e3d 1cbf 1e27 94bd b2a6 fabd
00000010: 2309 8bbe 19ef cc3e 14da 80bd 10b1 b4bd
00000020: d553 2bbe f89d 7abe a979 3ebe 6825 abbe
00000030: 6f18 fabe 26c6 61bf a15d d5be 6c84 b1be
00000040: dadf fcbe 61b6 18be e1c8 a53c 65a8 683e
00000050: 1660 0fbf b03a 97be 6163 b2be b40c b9be
00000060: c376 a33d 5eec dfbe 7c42 f2be 0ac1 20bf
00000070: 989f b2bd 4d85 1c3e baf6 d7be ed09 16bf

conv3.1.running_var f4 [32]
0.21468903 0.31274953 0.14979133 0.22590393 0.27604753 0.24353793 0.39396542 0.31899667
0.14087944 0.2817198 0.2923273 0.24370521 0.38667023 0.16609184 0.1875945 0.14611003
0.18591785 0.17491382 0.1442696 0.12665994 0.19993052 0.13648218 0.28773072 0.2719498
0.2178561 0.24675174 0.15597758 0.38996914 0.22941478 0.15865548 0.15737587 0.2508172
00000000: 71d7 5b3e b520 a03e e662 193e 5c53 673e
00000010: 1a56 8d3e 0262 793e d6b5 c93e 8853 a33e
00000020: b342 103e 943d 903e edab 953e dc8d 793e
00000030: a4f9 c53e fb13 2a3e c618 403e de9d 153e
00000040: 4061 3e3e 9c1c 333e 69bb 133e 25b3 013e
00000050: 96ba 4c3e fcc1 0b3e 7151 933e 013d 8b3e
00000060: ab15 5f3e 7dac 7c3e 96b8 1f3e 09aa c73e
00000070: b5eb 6a3e 9576 223e 2427 213e 1d6b 803e

deconv2.0.weight f4 [32, 16, 4, 4]
-0.0754386 0.009689815 -0.02457894 0.006558009 -0.03213432 0.015590673 -0.018126171 0.016062396
-0.036283452 0.0010269792 -0.042478252 -0.059971694 -0.024414126 0.033759456 -0.04616425 0.03262537
0.00016166705 -0.013339899 0.020933568 -0.08716672 -0.033419263 0.019632732 0.118857265 0.02087556
0.03330337 -0.023788916 0.05818601 0.013524933 -0.07152553 0.036942497 0.042627566 -0.015585602
0.021813188 0.010543366 0.04673501 0.008409577 0.036772847 0.046896443 0.0020240238 0.023378905
0.013704329 0.048601523 -0.00017412311 0.030606624 -0.0009503676 -0.054116104 -0.0015738527 0.005526677
-0.01593597 0.022676766 -0.051859375 0.035634186 -0.07167133 -0.087991 0.105741024 -0.008001291
-0.06633739 0.011618699 -0.069527715 -0.0108761685 -0.01450923 -0.09700473 0.07235334 -0.11334879
0.01781656 0.057173323 -0.0027396434 0.0008992152 -0.033344846 -0.08649248 -0.040949453 -0.02921181
-0.0019576526 0.04838892 -0.006548783 0.024712233 0.06890204 0.024906352 0.01788899 0.010172838
-0.022605116 0.021090945 -0.03368941 -0.06559221 0.05267874 0.022840861 0.052500095 -0.005184111
0.00837898 -0.0062590404 -0.06447682 -0.08021246 -0.022734536 0.022650858 0.033268902 0.016679736
-0.010023409 -0.045330606 -0.074902244 0.01884963 0.06094564 -0.07232097 0.012537347 -0.017856462
-0.021688594 -0.013607837 -0.00045149372 0.019311268 0.018196682 0.04608089 0.030010125 -0.011748144
-0.07419837 0.022817425 0.00013706148 0.002255158 -0.011402122 -0.013018108 0.027416771 -0.003875437
-0.06510247 -0.003653968 0.046624348 0.015609202 -0.018837284 0.029771324 -0.008674291 0.0023560745
-0.008786928 -0.009587211 -0.015201342 0.011009929 -0.039588794 -0.056258507 0.01175031 -0.027252482
0.038891874 -0.03218558 0.050891425 -0.035056498 -0.019246286 0.0375868 0.022235014 -0.03039892
-0.00972256 -0.008808857 0.0146451695 -0.03593253 0.03714998 -0.026592858 -0.11689017 0.015241018
0.06634717 -0.011863271 0.06462939 -0.089483224 0.06380782 -0.007171479 -0.104154944 -0.012027163
-0.039915547 -0.07629481 -0.044912692 -0.076391675 0.024360295 -0.018951664 -0.038832378 -0.021865321
-0.027201304 -0.07991751 0.00343052 -0.026264824 0.036140382 -0.011546456 0.011503611 -0.00476064
-0.059616085 -0.02208632 -0.04821467 -0.06949673 -0.0027783986 -0.039982513 0.015647955 -0.091354646
-0.05736808 -0.07954076 -0.053093936 -0.017193535 -0.043307986 -0.02192658 0.03537699 0.0032061213
0.017695505 0.018180635 -0.06878824 0.03793315 -0.060584355 -0.025641564 0.024727056 -0.06364338
-0.040162075 0.071484044 -0.057338398 0.042480256 -0.03552316 -0.042946912 0.02689178 -0.034462515
-0.0020251623 -0.017783206 -0.06621504 -0.0100462325 0.072996356 0.043045428 -0.012815641 0.024089023
0.012601052 -0.018401243 -0.06419572 0.00914326 0.070693396 -0.005070218 0.038588006 0.013550719
-0.078807876 -0.009597985 -0.026224976 -0.036706183 0.006357447 -0.01833762 0.033433292 -0.0053958236
-0.048376337 -0.05534254 -0.04815756 -0.06775008 -0.014734095 -0.042529218 0.0075012306 -0.03317685
-0.03434459 -0.06197385 -0.0015221928 0.022876643 -0.0063233753 -0.03127541 -0.09863794 0.031848893
-0.029929876 -0.034811955 0.013726023 -0.057491113 0.05488445 -0.032597512 -0.0666831 -0.005034034
00000000: 8d7f 9abd 08c2 1e3c c659 c9bc 91e4 d63b
00000010: 479f 03bd 0670 7f3c 567d 94bc 4995 833c
00000020: f59d 14bd b49b 863a adfd 2dbd e1a4 75bd
00000030: 2200 c8bc 5b47 0a3d b916 3dbd 2ea2 053d
00000040: 2b85 2939 978f 5abc e07c ab3c 7784 b2bd
00000050: a3e2 08bd d3d4 a03c 706b f33d 3903 ab3c
00000060: 1d69 083d f9e0 c2bc 7454 6e3d ae97 5d3c
00000070: fa7b 92bd 0451 173d 3e9a 2e3d c15a 7fbc
00000080: 92b1 b23c 15be 2c3c 366d 3f3d 53c8 093c
00000090: 209f 163d 7c16 403d 7ca5 043b 1e85 bf3c
000000a0: 1f88 603c 6412 473d d194 36b9 beba fa3c
000000b0: 1722 79ba d9a8 5dbd bc49 ceba 2019 b53b
000000c0: 278c 82bc a0c4 b93c 7f6a 54bd 27f5 113d
000000d0: 6bc8 92bd a034 b4bd c08e d83d d917 03bc
000000e0: e6db 87bd 5b5c 3e3c 8c64 8ebd f531 32bc
000000f0: 1fb8 6dbc 6aaa c6bd fd2d 943d 6923 e8bd
00000100: 09f4 913c 932e 6a3d 978b 33bb 50b9 6b3a
00000110: 9b94 08bd f822 b1bd 9dba 27bd 9b4d efbc
00000120: f64b 00bb 7633 463d 2c97 d6bb 4f71 ca3c
00000130: 831c 8d3d 6808 cc3c ee8b 923c faab 263c
00000140: 5d2e b9bc ebc6 ac3c e8fd 09bd 3555 86bd
00000150: aac5 573d c21c bb3c 570a 573d 7adf a9bb
00000160: fd47 093c a318 cdbb 6c0c 84bd 6e46 a4bd
00000170: c73d babc 4b8e b93c f944 083d f1a3 883c
00000180: 3939 24bc 96ac 39bd 5966 99bd 8a6a 9a3c
00000190: 23a2 793d 041d 94bd 7269 4d3c b747 92bc
000001a0: 47ac b1bc 68f3 5ebc 76b6 ecb9 aa32 9e3c
000001b0: 3511 953c 51bf 3c3d cbd7 f53c 4a7b 40bc
000001c0: 51f5 97bd 9ceb ba3c 29b8 0f39 46cb 133b
000001d0: f7cf 3abc e749 55bc 2399 e03c 0bfb 7dbb
000001e0: 7254 85bd 6977 6fbb 2cf9 3e3d bdbd 7f3c
000001f0: a650 9abc fee2 f33c 9d1e 0ebc 5f68 1a3b
00000200: 0cf7 0fbc ad13 1dbc 0d0f 79bc fd62 343c
00000210: dc27 22bd 526f 66bd 5f84 403c 9940 dfbc
00000220: 164d 1f3d 07d5 03bd 8773 503d 6797 0fbd
00000230: 63aa 9dbc 9ef4 193d 3426 b63c 2807 f9bc
00000240: 5f4b 1fbc 0653 10bc 4bf2 6f3c fd2d 13bd
00000250: 942a 183d 44d9 d9bc 1d64 efbd 76b5 793c
00000260: 06e1 873d 2a5e 42bc 6a5c 843d fb42 b7bd
00000270: adad 823d bafe eabb 304f d5bd 940d 45bc
00000280: 7c7e 23bd 7440 9cbd 5ff6 37bd 3d73 9cbd
00000290: 3e8f c73c 8540 9bbc b30e 1fbd e71e b3bc
000002a0: 45d5 debc cbab a3bd 93d2 603b 5429 d7bc
000002b0: f007 143d 592d 3dbc a479 3c3c 25ff 9bbb
000002c0: ff2f 74bd 5fee b4bc bf7c 45bd 4d54 8ebd
000002d0: cb15 36bb b4c4 23bd 2430 803c 2518 bbbd
000002e0: cbfa 6abd 44e6 a2bd 0779 59bd 75d9 8cbc
000002f0: b763 31bd 5f9f b3bc 76e7 103d ca1d 523b
00000300: 2af6 903c 8eef 943c d9e0 8cbd ca5f 1b3d
00000310: 4d27 78bd 420e d2bc 6590 ca3c 7657 82bd
00000320: fd80 24bd 3a66 923d abdb 6abd c7ff 2d3d
00000330: bc80 11bd 1ae9 2fbd 264c dc3c 9128 0dbd
00000340: 96b8 04bb 16ae 91bc c09b 87bd f498 24bc
00000350: 1d7f 953d 6750 303d b2f8 51bc 5856 c53c
00000360: a574 4e3c 34be 96bc 0c79 83bd 9dcd 153c
00000370: b3c7 903d 1224 a6bb 750e 1e3d d603 5e3c
00000380: 0666 a1bd de40 1dbc c3d5 d6bc 3959 16bd
00000390: 2152 d03b c738 96bc 59f1 083d 73cf b0bb
000003a0: 4426 46bd dcae 62bd dd40 45bd 8ec0 8abd
000003b0: 4667 71bc 1e33 2ebd e2cc f53b 73e4 07bd
000003c0: eaac 0cbd 4bd8 7dbd 5184 c7ba cc67 bb3c
000003d0: 5134 cfbb a51a 00bd b002 cabd fc73 023d
000003e0: 802f f5bc fb96 0ebd 1de3 603c cd7b 6bbd
000003f0: 84ce 603d f884 05bd 2691 88bd 8af4 a4bb

deconv2.0.bias f4 [16]
0.029518371 -0.060271177 0.030159853 0.026651265 0.038771085 -0.05624347 0.048481226 -0.016348824
-0.060476284 0.051683884 0.027471883 -0.0555585 0.025557755 -0.014392921 0.0149775725 0.016248172
00000000: 83d0 f13c e9de 76bd cc11 f73c c153 da3c
00000010: 6ece 1e3d 8e5f 66bd 4094 463d f8ed 85bc
00000020: fbb5 77bd 7bb2 533d b70c e13c 4f91 63bd
00000030: 7f5e d13c 49d0 6bbc 7e64 753c e31a 853c

deconv2.1.weight f4 [16]
0.9780923 1.0227027 1.0118381 0.99321747 0.99764794 0.95489454 0.96485555 0.94804573
0.96631074 1.0257164 0.9809443 1.0781907 0.9819135 0.958827 1.0357349 1.0164964
00000000: 4264 7a3f ece7 823f e983 813f 8043 7e3f
00000010: db65 7f3f f873 743f c600 773f 20b3 723f
00000020: 2460 773f ad4a 833f 2a1f 7b3f 2702 8a3f
00000030: af5e 7b3f b075 753f f692 843f 8e1c 823f

deconv2.1.bias f4 [16]
0.009367143 0.101160385 0.058420308 0.022048825 0.05109767 0.016170751 0.035804804 -0.040478047
-0.02486957 0.11927904 0.040103305 -0.023585554 -0.024704756 0.04162081 0.047403928 0.028710954
00000000: a578 193c 2d2d cf3d 224a 6f3d bd9f b43c
00000010: ca4b 513d 8678 843c 0fa8 123d 4fcc 25bd
00000020: 45bb cbbc 9248 f43d 5d43 243d 7e36 c1bc
00000030: a161 cabc 957a 2a3d 9f2a 423d 3c33 eb3c

deconv2.1.running_mean f4 [16]
-0.580476 -0.59431875 -0.2784823 -0.50258005 -0.34079233 -0.767498 -0.4739703 -0.34704632
-0.57005084 -0.6707387 -0.82618195 -0.73805195 -0.22575964 -0.31338885 -0.85180235 -0.8369302
00000000: 139a 14bf 4625 18bf 3b95 8ebe 16a9 00bf
00000010: 557c aebe c07a 44bf 3cac f2be 0eb0 b1be
00000020: daee 11bf 88b5 2bbf a980 53bf f9f0 3cbf
00000030: 892d 67be 8174 a0be b80f 5abf 0f41 56bf

deconv2.1.running_var f4 [16]
0.6210181 0.7948017 0.8151302 0.5674436 0.7140271 1.2346796 1.1176634 0.58252954
0.4655751 1.6358219 1.3736985 0.16027036 0.56788903 1.3000078 0.7265685 0.66605246
00000000: 0bfb 1e3f 2078 4b3f 5fac 503f fc43 113f
00000010: 7bca 363f fb09 9e3f 980f 8f3f a820 153f
00000020: dc5f ee3e 9d62 d13f 5ad5 af3f ea1d 243e
00000030: 2d61 113f a866 a63f 6500 3a3f 6a82 2a3f

deconv3.0.weight f4 [16, 8, 4, 4]
-0.06185555 0.025554577 -0.022307146 -0.0917502 -0.14210157 -0.04129196 0.037509672 -0.021331172
-0.060199317 0.023550864 0.024838716 0.060894318 -0.05993066 -0.030786844 0.04836318 -0.011375017
-0.004341005 -0.04403932 0.010732229 0.08164233 0.044597067 0.036773898 0.058471974 0.02003488
0.0015982898 0.09291853 0.05406219 0.050685108 0.00024136656 0.07307063 0.06299882 -0.03611872
0.056322746 0.026153866 -0.00537341 0.05867483 0.051087208 0.14638829 0.009294225 0.036374886
0.022784015 0.08000854 -0.062470246 0.07516199 0.019419255 0.028757676 -0.015377539 -0.015202521
0.017688159 0.070979886 -0.04205954 0.012087398 -0.004209485 -0.049240675 0.030717958 0.10858475
0.037040003 0.09037858 -0.030882983 0.08192332 0.029578077 0.033779375 0.010465896 0.035114974
0.04270429 0.06464118 0.0023270382 -0.05287929 0.037664164 0.010178985 0.0136836115 -0.0625569
-0.021452336 0.050035227 -0.0365623 0.0072601065 -0.00037352106 0.008522949 -0.017589824 0.039756577
0.02216235 -0.03408333 0.0065515046 0.00050694746 0.009532111 -0.0065247314 0.028017616 0.06795347
-0.0036629087 0.050363548 -0.043074273 -0.008892171 0.053356305 0.031717643 0.024093471 0.030500583
-0.022024836 -0.08259345 -0.043156687 -0.06362232 0.055876624 -0.046649188 -0.009573053 -0.028397722
0.008589554 0.08490833 0.035799652 0.0072701643 0.012116783 -0.02481294 -0.025486173 -0.045469604
0.04675409 0.081957474 0.03744741 0.032819655 0.004209339 0.108259864 -0.057056714 -0.029848957
0.056179374 -0.07224083 -0.029199343 -0.012532612 0.04917975 0.06047825 -0.029194921 0.036484767
-0.022816593 0.008700489 0.07551233 -0.10089185 -0.06596413 -0.039699476 0.1645935 0.061737023
0.012211847 0.038968973 0.053484626 0.003093001 -0.015641408 -0.03713381 0.06556552 -0.010425285
0.049750116 -0.08464763 0.0065108603 -0.058426157 -0.024352899 -0.07638119 0.10851382 -0.054780465
0.009793727 0.0127131725 0.031629827 0.022075752 0.014138104 -0.0045928983 0.03747763 0.022213768
0.001159104 0.03785529 0.1457373 -0.0014475943 0.0029505526 0.0031566531 0.00487554 0.04622515
-0.018199507 0.034986027 0.0005584232 -0.013830042 -0.04143257 -0.014794881 0.04428467 -0.048123945
-0.08822394 -0.0272931 0.0790361 -0.01358346 0.084431194 -0.040469125 -0.042573437 0.04841985
-0.03889446 0.03945374 0.12417761 -0.0021074077 0.047129836 -0.006001504 -0.052874144 0.030138321
0.047415704 -0.016666528 0.0011849519 0.04436177 0.0763193 0.045484807 -0.05026765 0.018585356
0.049825873 0.027986284 -0.006577946 0.09850588 0.011347324 -0.029577829 0.049071286 0.025688969
0.024370953 -0.03379761 -0.049111262 0.054279406 -0.051191088 0.046033893 0.12434715 0.10680246
0.014385261 0.055225965 -0.004186848 0.106743746 0.08529245 0.011618069 0.101018615 0.11725925
-0.043892886 -0.08943009 -0.028435586 0.025545834 0.030382786 0.025606357 0.09762888 -0.0036381208
0.02630638 -0.022411497 0.013126387 0.0107096275 -0.012977331 0.008588417 0.09969283 0.035723947
0.030381095 0.055083215 0.009967091 0.0709315 0.022736171 0.018401554 -0.07093309 -0.093017936
-0.057562042 0.013114298 -0.03206442 -0.038190965 0.008561469 -0.0005902967 -0.09711802 -0.07442057
00000000: 3f5c 7dbd d557 d13c 7abd b6bc 87e7 bbbd
00000010: 1383 11be c221 29bd bea3 193d b6be aebc
00000020: 8f93 76bd beed c03c 907a cb3c 526c 793d
00000030: da79 75bd b134 fcbc 7818 463d 485e 3abc
00000040: fd3e 8ebb 9362 34bd 3bd6 2f3c 1834 a73d
00000050: 6aab 363d 3aa0 163d 4f80 6f3d 3020 a43c
00000060: b57d d13a 124c be3d 5170 5d3d 309b 4f3d
00000070: 5817 7d39 0ea6 953d 8605 813d 39f1 13bd
00000080: aeb2 663d a240 d63c 6e13 b0bb 0555 703d
00000090: d240 513d d0e6 153e ce46 183c d5fd 143d
000000a0: 8ba5 ba3c 84db a33d cde0 7fbd 88ee 993d
000000b0: 2115 9f3c 3895 eb3c 13f2 7bbc ff13 79bc
000000c0: c2e6 903c e75d 913d a046 2cbd 390a 463c
000000d0: b8ef 89bb 97b0 49bd 3aa4 fb3c ae61 de3d
000000e0: 42b7 173d 6818 b93d 4ffe fcbc 6ac7 a73d
000000f0: b94d f23c 3e5c 0a3d 2679 2b3c b8d4 0f3d
00000100: b2ea 2e3d 9862 843d 3981 183b f497 58bd
00000110: bd45 1a3d c2c5 263c 3a31 603c d51d 80bd
00000120: cfbc afbc bdf1 4c3d 5ac2 15bd 30e6 ed3b
00000130: 26d5 c3b9 d7a3 0b3c 8918 90bc cbd7 223d
00000140: d18d b53c f69a 0bbd 01ae d63b abe4 043a
00000150: 922c 1c3c 6acd d5bb 3385 e53c 302b 8b3d
00000160: 690d 70bb 024a 4e3d a66e 30bd 78b0 11bc
00000170: 248c 5a3d 5cea 013d ac5f c53c 5cdc f93c
00000180: 6e6d b4bc c126 a9bd 11c5 30bd 6b4c 82bd
00000190: e3de 643d 3813 3fbd 4bd8 1cbc 57a2 e8bc
000001a0: 33bb 0c3c 6be4 ad3d a8a2 123d 8f3a ee3b
000001b0: 7985 463c 8244 cbbc 61c8 d0bc 563e 3abd
000001c0: 3781 3f3d 52d9 a73d 7562 193d e76d 063d
000001d0: 7fee 893b 59b7 dd3d 4db4 69bd cd85 f4bc
000001e0: 581c 663d 00f3 93bd 7633 efbc 9655 4dbc
000001f0: b570 493d 0bb8 773d 302a efbc 0d71 153d
00000200: dde9 babc 7f8c 0e3c 35a6 9a3d 63a0 cebd
00000210: 3418 87bd eb9b 22bd 338b 283e f6df 7c3d
00000220: 3314 483c ee9d 1f3d b212 5b3d f2b3 4a3b
00000230: 6922 80bc 9f19 18bd 3747 863d d1ce 2abc
00000240: c7c6 4b3d bd5b adbd 0e59 d53b 4450 6fbd
00000250: bb7f c7bc be6d 9cbd 7e3c de3d 7b61 60bd
00000260: de75 203c e94a 503c 478e 013d 35d8 b43c
00000270: 82a3 673c 0680 96bb 2582 193d a6f9 b53c
00000280: 14ed 973a 260e 1b3d 293c 153e 34bd bdba
00000290: 0f5e 413b dadf 4e3b fec2 9f3b 9556 3d3d
000002a0: 2217 95bc 824d 0f3d 2663 123a 6797 62bc
000002b0: 33b5 29bd 3b66 72bc d863 353d 9d1d 45bd
000002c0: c1ae b4bd c795 dfbc aedd a13d 298d 5ebc
000002d0: 43ea ac3d f4c2 25bd 7c61 2ebd e553 463d
000002e0: cc4f 1fbd 3f9a 213d d550 fe3d 6f1c 0abb
000002f0: 370b 413d 44a8 c4bb 8f92 58bd a4e4 f63c
00000300: f836 423d 3e88 88bc 6350 9b3a b0b4 353d
00000310: 4b4d 9c3d 474e 3a3d 74e5 4dbd 5140 983c
00000320: 3716 4c3d 7e43 e53c cf8b d7bb 73bd c93d
00000330: 20ea 393c 344d f2bc f9fe 483d ac71 d23c
00000340: 98a5 c73c 5d6f 0abd e428 49bd 1554 5e3d
00000350: bfad 51bd 098e 3c3d b8a9 fe3d 40bb da3d
00000360: 28b0 6b3c 9f34 623d d431 89bb 779c da3d
00000370: cfad ae3d b759 3e3c d9e2 ce3d 9e25 f03d
00000380: 07c9 33bd 1f27 b7bd bff1 e8bc 7f45 d13c
00000390: 52e5 f83c 6cc4 d13c a6f1 c73d 8a6d 6ebb
000003a0: 7a80 d73c 5198 b7bc 0f10 573c 6f77 2f3c
000003b0: df9e 54bc 6fb6 0c3c c12b cc3d 4653 123d
000003c0: c6e1 f83c f09e 613d 024d 233c 8944 913d
000003d0: 3541 ba3c dbbe 963c 5e45 91bd 3080 bebd
000003e0: 2dc6 6bbd 5add 563c fb55 03bd 216e 1cbd
000003f0: 6745 0c3c 24be 1aba d0e5 c6bd d069 98bd

deconv3.0.bias f4 [8]
-0.073653795 0.07568242 -0.05481525 0.047050912 0.025414074 0.06371871 0.030721068 0.06361843
00000000: cdd7 96bd 62ff 9a3d f585 60bd 75b8 403d
00000010: 2d31 d03c f47e 823d c0aa fb3c 614a 823d

deconv3.1.weight f4 [8]
1.1960223 1.1781553 1.1828365 1.1819375 1.1603214 1.1735679 1.189528 1.1490647
00000000: 4217 993f cbcd 963f 3067 973f ba49 973f
00000010: 6985 943f 7937 963f 7442 983f 8d14 933f

deconv3.1.bias f4 [8]
0.1923435 0.17271128 0.17812982 0.1782798 0.16461733 0.17049548 0.18683054 0.15301205
00000000: b2f5 443e 3adb 303e aa67 363e fb8e 363e
00000010: 7291 283e 5e96 2e3e 8150 3f3e 31af 1c3e

deconv3.1.running_mean f4 [8]
-0.080231115 0.09185039 0.18292846 0.24461071 0.3790093 0.50551 0.07533277 0.07656504
00000000: 3650 a4bd 0f1c bc3d 9951 3b3e 3b7b 7a3e
00000010: 820d c23e 1a69 013f 1148 9a3d 22ce 9c3d

deconv3.1.running_var f4 [8]
0.10003641 0.113261856 0.15301885 0.14971356 0.07915391 0.11195987 0.12572938 0.13617715
00000000: e4df cc3d d5f5 e73d f9b0 1c3e 834e 193e
00000010: 721b a23d 374b e53d 34bf 003e 0672 0b3e

deconv4.0.weight f4 [8, 3, 4, 4]
-0.039388184 0.100633346 0.14524992 0.08297717 -0.03477894 0.083743975 0.0968293 0.01627747
0.011529747 0.17342056 0.116321325 -0.05673596 -0.057890255 0.027244823 0.20398432 0.00015409323
-0.24125646 -0.2521483 -0.1889379 -0.01701159 -0.06391827 -0.13088007 -0.23605247 0.006819448
-0.086578235 -0.2099879 -0.102741845 -0.003969469 -0.055646546 -0.08034284 -0.24183565 -0.06494485
-0.04799464 -0.084093206 -0.12502241 -0.15377313 -0.11747355 -0.11135183 -0.24770561 -0.04499314
-0.22598524 -0.10959131 -0.25543684 -0.13162497 -0.14440043 -0.2099201 -0.022734579 -0.18290325
0.19098552 -0.09103294 -0.02842352 -0.089692414 0.035269216 -0.010958254 0.12768354 0.06397489
-0.05914495 0.14202501 0.13690117 0.17208052 0.20405278 0.09951492 -0.0036844104 -0.047268413
-0.14547408 -0.23285565 -0.0045397608 -0.24963756 -0.012653306 -0.044907104 -0.093581595 -0.15280047
-0.2432075 -0.19964312 -0.19954172 -0.09688313 0.018979084 -0.15230176 -0.1362874 -0.12914331
-0.12873507 -0.08588138 -0.16878206 -0.14448364 -0.09490949 -0.16414386 -0.25177073 -0.24186362
-0.07283257 -0.058105286 -0.24345246 -0.1547567 -0.16479191 -0.1927492 -0.13029814 -0.053414162
0.003571153 -0.0048334156 0.07791286 0.14005823 0.17939587 0.15443733 0.18896608 0.15880193
0.013166586 0.037450228 0.19496512 0.031007329 -0.018387282 0.073522784 0.11261563 -0.005447021
-0.26158753 -0.15103741 -0.20713726 -0.07459599 -0.0072998414 -0.0891177 -0.15028857 -0.133184
-0.214162 -0.25334695 -0.00079593185 -0.08461211 -0.14585632 -0.16313988 -0.028785305 -0.26729092
-0.050863482 -0.21596654 -0.073497675 -0.0701147 -0.1254755 -0.08191276 -0.23610072 -0.2461036
-0.083854936 -0.045438237 -0.09913392 -0.09730532 -0.07943463 0.019848932 -0.06172314 -0.1353954
0.20879835 0.05333462 0.03758394 0.09303523 0.050012916 0.0767774 0.023001779 0.007270749
0.11945165 0.16010423 0.041461535 0.10080772 0.15612824 0.039448444 0.028570762 -0.002813251
-0.16566254 -0.1603796 -0.18202652 -0.16073748 -0.06846405 -0.18245019 -0.022488305 -0.105887935
-0.1561118 -0.10673743 -0.013144546 -0.052686896 -0.24785653 -0.0402698 -0.12698585 -0.15357293
-0.2383669 -0.16039541 -0.23683478 -0.21174033 -0.11453595 -0.014291831 -0.15501246 -0.069822714
-0.11231716 -0.26136824 0.009874667 -0.009648253 -0.23021607 -0.028306365 -0.06114329 -0.24802424
0.21176319 0.17533198 0.21087272 0.044040356 0.15012954 0.10644817 0.029578917 0.12361953
0.116384506 -0.0017588738 -0.03207038 0.18328767 0.21727884 0.23674536 0.05892937 0.074702196
-0.20297764 -0.09942208 0.023776917 -0.23269519 -0.21174924 -0.2592489 -0.058404718 -0.20632826
-0.18224531 -0.012489833 -0.095128566 -0.0340644 -0.03914139 -0.2527179 -0.20434453 -0.1697744
-0.08122959 -0.23815002 -0.17729944 -0.16079725 -0.02820001 -0.20580015 -0.08747907 -0.18798026
-0.24316184 -0.052150268 -0.00251147 -0.17212096 -0.051252235 -0.119313404 -0.07506688 -0.10580986
0.19722916 0.1647914 0.07225818 0.21067077 0.06625139 0.09848058 0.09461764 -0.009424878
-0.027802723 -0.026626546 0.07125959 0.1449493 0.18861608 0.16784665 -0.019945087 0.008099942
00000000: 8155 21bd db18 ce3d 65bc 143e efef a93d
00000010: 5d74 0ebd f681 ab3d 714e c63d 5458 853c
00000020: 44e7 3c3c 2995 313e e039 ee3d f763 68bd
00000030: 551e 6dbd 8930 df3c 44e1 503e 1694 2139
00000040: ef0b 77be 9519 81be f078 41be e45b 8bbc
00000050: 95e7 82bd 6d05 06be bdb7 71be ad75 df3b
00000060: ee4f b1bd 1107 57be 516a d2bd 5212 82bb
00000070: a2ed 63bd c98a a4bd c4a3 77be ce01 85bd
00000080: 0796 44bd 0f39 acbd e005 00be b476 1dbe
00000090: f995 f0bd 6e0c e4bd 8aa6 7dbe ba4a 38bd
000000a0: ad68 67be 6971 e0bd 9ec8 82be b2c8 06be
000000b0: b5dd 13be 4bf5 56be de3d babc fd4a 3bbe
000000c0: b591 433e 7a6f babd 71d8 e8bc a8b0 b7bd
000000d0: 7476 103d 408a 33bc 79bf 023e 4405 833d
000000e0: fa41 72bd 016f 113e d22f 0c3e e035 303e
000000f0: 36f3 503e 7ace cb3d 2676 71bb 869c 41bd
00000100: 28f7 14be b671 6ebe 46c2 94bb fda0 7fbe
00000110: d04f 4fbc 83f0 37bd b5a7 bfbd ba77 1cbe
00000120: 630b 79be 3f6f 4cbe aa54 4cbe aa6a c6bd
00000130: 067a 9b3c fef4 1bbe ed8e 0bbe 253e 04be
00000140: 20d3 03be 94e2 afbd 34d5 2cbe 85f3 13be
00000150: e85f c2bd 5415 28be 18e8 80be 19ab 77be
00000160: 3e29 95bd cfff 6dbd 9a4b 79be 8a78 1ebe
00000170: 36bf 28be 0c60 45be e06c 05be cfc8 5abd
00000180: 010a 6a3b a161 9ebb c790 9f3d 6d6b 0f3e
00000190: 8db3 373e d224 1e3e 5380 413e f99c 223e
000001a0: aab8 573c 6965 193d f0a4 473e 1503 fe3c
000001b0: eda0 96bc 1d93 963d 06a3 e63d ed7c b2bb
000001c0: cdee 85be 8da9 1abe ca1b 54be c8c5 98bd
000001d0: 8233 efbb 5783 b6bd 3fe5 19be 6361 08be
000001e0: 494d 5bbe b1b6 81be 15a6 50ba 1d49 adbd
000001f0: 5c5b 15be 240e 27be 29cf ebbc 5bda 88be
00000200: 3a56 50bd 5526 5dbe f385 96bd 4c98 8fbd
00000210: a67c 00be e1c1 a7bd 63c4 71be 9502 7cbe
00000220: 23bc abbd 721d 3abd ba06 cbbd 0348 c7bd
00000230: a0ae a2bd 3a9a a23c 67d1 7cbd 17a5 0abe
00000240: 3ccf 553e 6775 5a3d 9ef1 193d 4189 be3d
00000250: 58da 4c3d 783d 9d3d 3a6e bc3c 773f ee3b
00000260: 11a3 f43d 5df2 233e 92d3 293d 4774 ce3d
00000270: 15e0 1f3e b194 213d 3b0d ea3c 855e 38bb
00000280: 71a3 29be 8d3a 24be 2965 3abe 5e98 24be
00000290: e136 8cbd 39d4 3abe 6539 b8bc c6db d8bd
000002a0: c6db 1fbe 2799 dabd 395c 57bc 37ce 57bd
000002b0: 1ace 7dbe f2f1 24bd 9408 02be 3942 1dbe
000002c0: 7416 74be b23e 24be d184 72be 75d2 58be
000002d0: d391 eabd 4928 6abc 96bb 1ebe 36ff 8ebd
000002e0: 8a06 e6bd 0fd2 85be 5bc9 213c b513 1ebc
000002f0: c3bd 6bbe c0e2 e7bc 6371 7abd 11fa 7dbe
00000300: 73d8 583e 3a8a 333e 05ef 573e a963 343d
00000310: 8fbb 193e 8001 da3d 7c4f f23c 3c2c fd3d
00000320: 005b ee3d 038a e6ba 3b5c 03bd c3af 3b3e
00000330: 587e 5e3e 606d 723e ec5f 713d 77fd 983d
00000340: 5fd9 4fbe ce9d cbbd cfc7 c23c a647 6ebe
00000350: cbd4 58be 46bc 84be c939 6fbd b747 53be
00000360: 849e 3abe 28a2 4cbc c4d2 c2bd 1d87 0bbd
00000370: b952 20bd 3e64 81be b13f 51be 57d9 2dbe
00000380: b35b a6bd 99dd 73be fc8d 35be 09a8 24be
00000390: b503 e7bc 46bd 52be 3a28 b3bd e67d 40be
000003a0: 6bff 78be 859b 55bd 7a97 24bb 7a40 30be
000003b0: dded 51bd 965a f4bd aabc 99bd d7b2 d8bd
000003c0: 71f6 493e 14bf 283e 19fc 933d 14ba 573e
000003d0: cfae 873d 30b0 c93d e5c6 c13d ce6a 1abc
000003e0: 89c2 e3bc ea1f dabc 8cf0 913d 976d 143e
000003f0: 9324 413e fedf 2b3e e163 a3bc 9eb5 043c

deconv4.0.bias f4 [3]
-0.06975624 0.0064816396 -0.04901641
00000000: 5cdc 8ebd ef63 d43b 6ec5 48bd
