03_hw/Pix2Pix/checkpoints/pix2pix_model_epoch_50.pth (torch, 99150 bytes, 32 tensors)

conv1.0.weight f4 [8, 3, 4, 4]
0	0xbe0d17f9	-0.13778676
1	0xbe00b949	-0.1257068
2	0xbd08734b	-0.033313077
3	0xbe37173d	-0.17879958
4	0x3d179270	0.037004888
5	0xbe025608	-0.12728131
6	0xbc42e229	-0.011894741
7	0x3dd20b27	0.102560334
8	0xbdf6e91b	-0.1205618
9	0xba0714e1	-0.00051529525
10	0x3d3f4c0a	0.046703376
11	0x3d2b2aa8	0.041788727
12	0xbcb1603b	-0.021652332
13	0x3db8ea60	0.090290785
14	0x3d8b5607	0.06803518
15	0xbe1dc053	-0.15405397
16	0x3dabd39b	0.0838997
17	0x3e1c9152	0.1528981
18	0x3d00b719	0.031424616
19	0xbd0e1a10	-0.034692824
20	0xbcbf455f	-0.023348508
21	0xbdaf523f	-0.08560609
22	0xbe0469d5	-0.12930997
23	0x3d2c3be5	0.042049307
24	0x3de48c7c	0.11159608
25	0x3d7242e1	0.059145812
26	0x3d4b8fb8	0.049697608
27	0xbd9b0f88	-0.07571322
28	0xbdcacf55	-0.09902827
29	0x3c867f0d	0.016418004
30	0xbddeb4b1	-0.10874308
31	0x3ddf7b40	0.1091218
32	0xbdcbb850	-0.09947264
33	0x3d807520	0.0627234
34	0xbdeea25d	-0.11652062
35	0x3d7e92c5	0.06215169
36	0xbdd9a66e	-0.10627447
37	0xbdce75d6	-0.10081069
38	0x3bd0c99c	0.00637169
39	0xbdc7d51f	-0.097574465
40	0x3d2ff7b6	0.042960845
41	0x3b72ef6a	0.0037068971
42	0x3cdfa2e8	0.02729936
43	0xbd414252	-0.04718239
44	0xbd6b7f94	-0.057494715
45	0x3d584e89	0.052809272
46	0x3d59ea67	0.05320206
47	0x3bc29b53	0.0059389262
48	0xbdacef4f	-0.08444082
49	0x3d8af37c	0.06784722
50	0xbc9c6a46	-0.019093644
51	0xbca65626	-0.02030475
52	0xbc9e7afb	-0.019345751
53	0x3ddc2e1b	0.107509814
54	0x3cf27199	0.029595183
55	0xbc1f67bf	-0.009729325
56	0x3e07f118	0.13275564
57	0x3d9bf08a	0.076142386
58	0xbded164a	-0.11576517
59	0xbd9e0028	-0.077148736
60	0x3cf2e53f	0.029650329
61	0x3df3a6a1	0.11897016
62	0xbd24044d	-0.040043164
63	0xbc9669f2	-0.018361066
64	0xbc8825df	-0.01661962
65	0x3e0bdc4c	0.13658255
66	0x3c70b20d	0.014690888
67	0xbdaa72f2	-0.08322705
68	0xbd71e0e6	-0.05905237
69	0xbda0944b	-0.07840785
70	0x3d1d72df	0.038439628
71	0xbcd2c8f5	-0.02573059
72	0x3ca447c4	0.020053752
73	0xbc84763b	-0.016169658
74	0x3cd2b39d	0.025720412
75	0xbe020dca	-0.12700573
76	0x3d73adde	0.059491985
77	0xbd016503	-0.031590473
78	0x3d617bcd	0.055049706
79	0x3dcf8e41	0.10134555
80	0xbc22c9d3	-0.009935814
81	0xbd6a19f5	-0.05715366
82	0x3d6af873	0.057365846
83	0xbdfe38f1	-0.124132045
84	0xbd83f29b	-0.06442758
85	0x3db60b0f	0.08888828
86	0xbd80be1d	-0.06286261
87	0x3da7e5a9	0.08198101
88	0xbc075dca	-0.008262107
89	0xbb060b04	-0.0020453343
90	0xbc8e9e71	-0.017409535
91	0x3c94d88a	0.01816966
92	0xbd61ee58	-0.055158943
93	0xbdae25dd	-0.085033156
94	0xbca42893	-0.020038879
95	0xbd92daf0	-0.07170665
96	0xbde56c98	-0.11202353
97	0x3d882d7f	0.06649303
98	0xbbc0a1c5	-0.0058786594
99	0xbd46e217	-0.04855546
100	0x3d0a7149	0.033799443
101	0xbb9121f4	-0.0044290964
102	0x3d4655ae	0.048421554
103	0x3e13c11c	0.14429134
104	0xbdac4c69	-0.084130116
105	0x3d7b4c9f	0.06135237
106	0xbdcb1c10	-0.09917462
107	0xbd42f2e0	-0.047594905
108	0x3e08fbeb	0.13377349
109	0x3d6ef722	0.058341153
110	0x3d06d9e5	0.032922644
111	0xbdad10a1	-0.08450437
112	0xbcc3b813	-0.023891484
113	0x3cd7bf7f	0.02633643
114	0x3db27a43	0.08714726
115	0xbd62b741	-0.055350546
116	0x3e20db2d	0.15708609
117	0xbc1e9ad4	-0.009680469
118	0xbcb7016c	-0.022339545
119	0x3e24a03e	0.16076753
120	0x3c1216ef	0.008916601
121	0x3db53b73	0.0884923
122	0xbd983007	-0.074310355
123	0xbdc45e52	-0.09588303
124	0x3c062ede	0.008189885
125	0x3db7b47b	0.08969971
126	0xbc9588b1	-0.018253656
127	0x3db59710	0.088667035
128	0xbdc99b8a	-0.0984412
129	0x3dc65aeb	0.0968531
130	0xbd25a08b	-0.04043631
131	0x3dbd9162	0.09256245
132	0xbbe51ae8	-0.006991733
133	0x3d5808a2	0.052742608
134	0x3caeb43a	0.021326173
135	0x3cb3a803	0.0219307
136	0x3c80c2ad	0.015717829
137	0x3e28fe70	0.1650331
138	0x3e061289	0.13093008
139	0x3dba44a5	0.09095124
140	0xbdfeb539	-0.12436909
141	0x3d5180c7	0.051148202
142	0x3dc83d98	0.09777373
143	0x3dec0e1b	0.11526128
144	0x3d28391e	0.041070096
145	0x3de0b51d	0.109720446
146	0x3e1a9800	0.15097046
147	0x3d36d674	0.044638112
148	0xbcb612ff	-0.022225855
149	0xbd82c8e7	-0.06385975
150	0xbc9fe54f	-0.019518523
151	0xbd8b985a	-0.06816168
152	0x3cc5c40e	0.024141338
153	0xbd877769	-0.066145726
154	0x3e13df6e	0.144407
155	0xbd482296	-0.04886111
156	0x3d87224d	0.06598339
157	0x3e0f2cde	0.13981959
158	0x3e00f8f1	0.12594964
159	0xbe14f038	-0.14544761
160	0xbdc5c3a3	-0.09656455
161	0x3de294df	0.11063551
162	0x3e22c701	0.15896226
163	0x3cceefbf	0.025260804
164	0x3d4a00ab	0.049317043
165	0x3dba821e	0.09106849
166	0xbc23a0bc	-0.0099870525
167	0xbd755992	-0.059899874
168	0xbdd35493	-0.103188656
169	0xbdae5e95	-0.08514134
170	0x3d95ef35	0.07321016
171	0x3dd6faea	0.10497077
172	0xbd9cbe91	-0.07653535
173	0xbd0de946	-0.034646295
174	0x3c054dfe	0.008136271
175	0xbda42128	-0.080141366
176	0x3dee8386	0.1164618
177	0xbe05df88	-0.13073552
178	0x3d150481	0.03638125
179	0x3d022a9b	0.031778913
180	0xbd664ced	-0.056225706
181	0xbdd70288	-0.1049853
182	0xbd3a6045	-0.045501966
183	0xbb5fd032	-0.0034151194
184	0xbdef74e3	-0.11692216
185	0x3df04693	0.11732211
186	0xbd93cab8	-0.072164
187	0x3de3dd4a	0.11126192
188	0xbd40939c	-0.04701577
189	0xbca4c0fd	-0.020111555
190	0xbdc0224b	-0.09381541
191	0x3df87ec7	0.12133556
192	0xbdbcb3e9	-0.09214003
193	0xbe0a5d77	-0.13512217
194	0x3d83d629	0.06437332
195	0x3d2c0e52	0.042005844
196	0x3dae3467	0.08506089
197	0xbd62a407	-0.05533221
198	0xbcd7a346	-0.026322972
199	0xbe1d54ed	-0.15364428
200	0x3dc8c11d	0.098024584
201	0xbde71513	-0.112833165
202	0x3d706e43	0.058698904
203	0xbc1d228f	-0.009590759
204	0x3db2be21	0.087276705
205	0xbe3957e9	-0.18099941
206	0xbe2a11fc	-0.16608423
207	0xbd5f4b44	-0.05451514
208	0xbc8a14c9	-0.016855614
209	0x3db05332	0.08609618
210	0x3dac0f64	0.08401373
211	0x3df69abf	0.12041234
212	0xbdf4c999	-0.11952514
213	0xbd85c981	-0.065325744
214	0x3cd62b56	0.026143711
215	0x3df3380c	0.118759245
216	0xbabe7919	-0.001453194
217	0xbd98f29b	-0.07468148
218	0xbe042c06	-0.12907419
219	0xbe3395b7	-0.1753758
220	0xbd7d346c	-0.06181757
221	0x3d1bb6b0	0.03801602
222	0xbe089da6	-0.13341388
223	0x3d9c50bb	0.076325856
224	0x3d759d38	0.05996439
225	0xbcb4cd6b	-0.022070607
226	0x3d24bf2c	0.04022138
227	0xbe115535	-0.1419266
228	0xbc2d13c3	-0.010563794
229	0xbe0140f7	-0.12622438
230	0x3d23d53e	0.039998285
231	0xbdfa59e7	-0.12224179
232	0xbdefe916	-0.117143795
233	0x3d12e91e	0.03586685
234	0xbdd8aa43	-0.1057935
235	0x3c18efdc	0.009334531
236	0x3d6ff6e1	0.05858505
237	0xbcbbe5d3	-0.022936737
238	0xbd836247	-0.06415229
239	0xbdcc757c	-0.09983346
240	0x3d70a6d4	0.05875285
241	0xbde0678e	-0.109572515
242	0xbd88fa2e	-0.06688343
243	0xbd1dd730	-0.038535297
244	0xbcd8caa8	-0.026463822
245	0xbdc266a5	-0.09492234
246	0x3e01ed74	0.12688237
247	0x3c828340	0.015931726
248	0x3df489d6	0.119403526
249	0x3cdc76c6	0.026912104
250	0x3de2a425	0.11066464
251	0xbdc0c5f8	-0.094127595
252	0xbd61a7f0	-0.0550918
253	0x3dc9d203	0.0985451
254	0x3deae214	0.11468902
255	0x3d952f3a	0.072843984

conv1.0.bias f4 [8]
0	0x3e07cc33	0.1326149
1	0x3b914614	0.004433403
2	0xbd13b632	-0.036062427
3	0x3dfbc9d9	0.12294359
4	0x3d8ff1cc	0.07028541
5	0x3dcdd00b	0.10049447
6	0xbde9edcf	-0.114223115
7	0xbc710779	-0.014711254

conv1.1.weight f4 [8]
0	0x3f838060	1.0273552
1	0x3f7a2987	0.97719616
2	0x3f7be4ba	0.98395884
3	0x3f7a5357	0.97783417
4	0x3f81425f	1.009838
5	0x3f805156	1.0024822
6	0x3f7ab1f0	0.9792776
7	0x3f838787	1.0275735

conv1.1.bias f4 [8]
0	0x3c5115f8	0.012761585
1	0xbd1d5c9c	-0.038418397
2	0xbc788e3b	-0.015170629
3	0xbc9b4213	-0.018952405
4	0x3ca50477	0.02014373
5	0x3d7132d6	0.05888637
6	0x3cb6bf07	0.022307886
7	0x3ce57cb4	0.028013565

conv1.1.running_mean f4 [8]
0	0x3e632433	0.22181778
1	0xbbf6f401	-0.0075364118
2	0xbde91d7b	-0.11382576
3	0x3d63628c	0.055513903
4	0x3e44842f	0.19191049
5	0x3d53609c	0.051605806
6	0xbdec1685	-0.11527733
7	0xbbd23a71	-0.006415658

conv1.1.running_var f4 [8]
0	0x3ded7b4d	0.115957834
1	0x3c9497fe	0.018138882
2	0x3e882baa	0.26595813
3	0x3d26b6fa	0.040701844
4	0x3eb3a7a5	0.3508884
5	0x3d2bfa30	0.041986644
6	0x3c97efc3	0.018546944
7	0x3cf05f4e	0.02934232

conv2.0.weight f4 [16, 8, 4, 4]
0	0x3d9b8e83	0.07595541
1	0x3dbf87d6	0.093520805
2	0x3ca09e91	0.01960686
3	0x3d4b4006	0.049621604
4	0xbd6218c2	-0.055199392
5	0x3daee8a0	0.085404634
6	0xbd399c1f	-0.045314904
7	0x3da9266f	0.08259284
8	0xbd9b834c	-0.07593402
9	0x3d7fa3aa	0.06241194
10	0x3d5d5508	0.05403617
11	0x3c8f5ba9	0.017499762
12	0xbc97b7cb	-0.018520257
13	0xbdb34b6f	-0.08754622
14	0xbdbe75ad	-0.092997886
15	0x3d03c047	0.03216579
16	0xbc66ea17	-0.014093897
17	0x3d369f57	0.044585552
18	0x3d952d36	0.07284014
19	0xbcf7b9a8	-0.030239895
20	0x3d8b28db	0.06794902
21	0xbd559fa0	-0.052154183
22	0x3d85892f	0.06520306
23	0xbc753090	-0.0149651915
24	0x3d16c263	0.036806475
25	0x3d88ea65	0.06685332
26	0xbc55d2e5	-0.013050769
27	0x3d9a98cc	0.07548675
28	0x3d285d21	0.04110444
29	0x3d5ed134	0.05439873
30	0xb978da14	-0.00023732363
31	0xbd966240	-0.073429585
32	0xbd41af75	-0.04728647
33	0x3c9c9ee9	0.019118743
34	0x3d3b72b4	0.045763686
35	0xbcf9e59a	-0.03050499
36	0xbdac03f4	-0.083991915
37	0xbc5958db	-0.013265814
38	0xbc0567ce	-0.008142425
39	0x3d3f63b6	0.04672595
40	0xbd25c22f	-0.04046839
41	0xbd89e242	-0.067326084
42	0xbcbb279d	-0.022846038
43	0xbd0e2b8a	-0.03470949
44	0xbdc21c9b	-0.09478112
45	0xbda4a33b	-0.08038946
46	0xbd91c7ab	-0.07118162
47	0xbda8a99d	-0.08235476
48	0x3d89f681	0.0673647
49	0xba3e8765	-0.00072681
50	0x3d8d0fb6	0.06887762
51	0x3cbaeeb6	0.022818904
52	0x3d377a70	0.0447945
53	0x3d5ef341	0.054431204
54	0xbce8324a	-0.028344292
55	0xbcbc0af9	-0.02295445
56	0xbb6ab149	-0.0035811237
57	0xbcb85690	-0.022502214
58	0xbb58939d	-0.0033046969
59	0x3bb44db3	0.0055024265
60	0x3d7f40d4	0.062317684
61	0xbc9c41a8	-0.019074276
62	0xbca68eea	-0.020331819
63	0xbc95b089	-0.018272655
64	0x3d87caa6	0.06630449
65	0xbd2822c3	-0.041048776
66	0xbb63a933	-0.0034738302
67	0x3d3f3ce6	0.046688937
68	0x3cc41242	0.023934487
69	0xbcbbfd27	-0.02294786
70	0x3dab31ba	0.08359094
71	0xbca28a97	-0.019841475
72	0x3d20ee2a	0.03928963
73	0xbd3afba2	-0.045650132
74	0x3d8a0216	0.06738679
75	0x3d488b52	0.04896099
76	0xbda6feb6	-0.08154051
77	0xbd157c6a	-0.036495604
78	0xbd7ef0dc	-0.06224142
79	0xbd31bb4b	-0.043391507
80	0xbdb3da2f	-0.087818496
81	0xbda790ba	-0.08181901
82	0xbb4923bf	-0.0030691472
83	0xba969a67	-0.0011490107
84	0x3c3dc90c	0.011583578
85	0xbc48d9f0	-0.012258992
86	0x3c6558cf	0.013998224
87	0x3c65ca05	0.014025216
88	0x3b7c02ba	0.0038453774
89	0x3d828900	0.06373787
90	0x3d249cf4	0.040188745
91	0x3d88a820	0.06672692
92	0xbb2a1241	-0.0025950822
93	0xbb0a2274	-0.0021077665
94	0xbdab2200	-0.08356094
95	0xbb860294	-0.004089663
96	0x3cabaa64	0.020955272
97	0xbd5d9c3a	-0.054104067
98	0x3d09b367	0.033618357
99	0x3bf17687	0.007368866
100	0x3db01e4e	0.0859953
101	0x3ce83718	0.028346583
102	0xbb562f8a	-0.0032682144
103	0x3c62d6ad	0.013845128
104	0xbce1c517	-0.0275598
105	0x3cdb4699	0.026767062
106	0xbcee93cc	-0.02912321
107	0x3d57686a	0.05258981
108	0xbd26800a	-0.04064945
109	0x3da1c664	0.07899168
110	0x3c07f255	0.008297523
111	0x3d8ea3bb	0.06964823
112	0xbb88ecb4	-0.004178608
113	0x3c9ce52d	0.019152248
114	0xbc89d762	-0.016826335
115	0x3c5f7f19	0.013641142
116	0xbd9f566e	-0.07780157
117	0xbd46c773	-0.048530053
118	0xbd259448	-0.040424615
119	0xbce40c7f	-0.02783799
120	0x3d73428d	0.05938964
121	0xbc4e224c	-0.012581419
122	0x3d61ab90	0.055095255
123	0x3d880ec9	0.06643445
124	0x3d10a7a7	0.035316136
125	0xbbde07de	-0.00677584
126	0x3d3241b5	0.043519694
127	0xbd710b91	-0.05884892
128	0x3c89d72d	0.016826237
129	0x3c1bd0b0	0.009510204
130	0xbcfae523	-0.030626839
131	0xbd66ddcf	-0.056363877
132	0xbd8c179e	-0.06840442
133	0xbda6220c	-0.08111963
134	0xbd271cfd	-0.04079913
135	0x3d9db813	0.07701125
136	0x3d7a0b9b	0.061046224
137	0x3c8dd837	0.017315013
138	0x3b5b85f4	0.003349659
139	0x3d942f02	0.072355285
140	0xbd8d39f0	-0.06895816
141	0xbb53584f	-0.003224868
142	0x3da0bf41	0.07848979
143	0xbd6ffd2c	-0.058591053
144	0x3d25aa39	0.04044554
145	0x3d2143be	0.039371245
146	0xbbe01a0b	-0.006839042
147	0xbd931d13	-0.0718328
148	0xbdb91e38	-0.09038967
149	0xbc46470a	-0.012101898
150	0xbd9f61c5	-0.0778232
151	0xbb6fbbc2	-0.0036580418
152	0x3ca00af9	0.019536482
153	0xbcbe25d4	-0.023211397
154	0x3d67b6e3	0.0565709
155	0x3d7083a4	0.058719292
156	0xbc89f60d	-0.016840959
157	0xbd847811	-0.06468213
158	0x3d53cde0	0.05171001
159	0x3df3ddee	0.11907564
160	0xbd889fe4	-0.06671122
161	0xbb77be9a	-0.0037802816
162	0x3da3828a	0.07983883
163	0xbcae670d	-0.021289373
164	0x3db0eb1d	0.08638594
165	0x3d2ffa56	0.04296335
166	0x3d29d838	0.041465968
167	0xbd891415	-0.066932835
168	0x3d26a1e0	0.04068172
169	0xbaf0db2a	-0.0018375863
170	0xbdaeef3e	-0.085417256
171	0x3d0a80f5	0.03381439
172	0x3d1f97b9	0.038963053
173	0xbd288ec1	-0.041151766
174	0x3cdddb57	0.027082128
175	0x3d9330e6	0.07187061
176	0xbd9eac44	-0.07747701
177	0xbcecf6d0	-0.028926283
178	0x3d713b2b	0.058894318
179	0xbd8e556a	-0.06949885
180	0xbd5e5885	-0.054283638
181	0xbc0942aa	-0.00837771
182	0xbcd69f69	-0.02619906
183	0xbcd59233	-0.02607069
184	0xbcfd4f75	-0.030921677
185	0xbd503454	-0.050831154
186	0xbd03c7e6	-0.03217306
187	0xbb952b0d	-0.004552251
188	0xbd84bad2	-0.06480946
189	0xbbed7738	-0.007246878
190	0x3d353e3c	0.044248804
191	0xbd94ac04	-0.07259372
192	0xbcc5b8b1	-0.02413592
193	0xbd6e76ef	-0.058218893
194	0x3c29d5a2	0.010365875
195	0x3b31a417	0.0027105862
196	0xbc50eb40	-0.0127514005
197	0x3d605555	0.05476888
198	0x3d3080ca	0.043091573
199	0xbd7328e7	-0.05936518
200	0xbd66320a	-0.056200065
201	0xbd6480b6	-0.05578681
202	0xbd9a5122	-0.07535006
203	0x3d2cebc0	0.042217016
204	0xbccd5d5e	-0.025068935
205	0xbd42922a	-0.047502674
206	0x3db93795	0.090438046
207	0xbd4a2e16	-0.049360357
208	0xbcba5f1f	-0.022750435
209	0xbcefe20c	-0.029282592
210	0xbdb4821a	-0.088138774
211	0xbd72c5bf	-0.059270617
212	0x3cec62b1	0.028855653
213	0xbd53c52e	-0.051701717
214	0xbda400c0	-0.080079556
215	0xbdf24d55	-0.11831156
216	0x3d33c10b	0.043885272
217	0xbd1824c2	-0.03714443
218	0xbc6c5d67	-0.014426566
219	0xbcd05d20	-0.02543503
220	0xbc09d01e	-0.008411435
221	0xbdbd6c79	-0.09249205
222	0xbd784788	-0.060615093
223	0xbb08050c	-0.0020754961
224	0x3d536445	0.051609296
225	0x3cf3d305	0.029763708
226	0xbce38a09	-0.027775781
227	0x3d9c20b5	0.07623426
228	0x3d8efdc8	0.06981999
229	0xbc8823b5	-0.016618589
230	0xbc34912b	-0.011020939
231	0x3d815a9c	0.063161105
232	0xbceca709	-0.028888242
233	0x3d70a324	0.058749333
234	0xbdd231f3	-0.10263433
235	0xbc767837	-0.01504331
236	0x3c2d146b	0.01056395
237	0xbd98950a	-0.07450302
238	0xbd9bb1ef	-0.076022975
239	0x3cb0737b	0.02153944
240	0xbcec7b0b	-0.028867265
241	0xbdbdbe5c	-0.09264824
242	0xbc8683da	-0.016420294
243	0xbd3b7068	-0.045761496
244	0xbda0a1fa	-0.078433946
245	0xbdc2fb3e	-0.09520577
246	0xbdd4ca5a	-0.10390158
247	0xbbb13cf8	-0.0054088794
248	0x3cf9fa4e	0.030514862
249	0xbe0ca578	-0.13734996
250	0xbd4b6fde	-0.04966723
251	0xbd0b26c6	-0.033972524
252	0xbd91162c	-0.07084307
253	0xbd9c0cfa	-0.076196626
254	0xbda9b609	-0.082866736
255	0xbad16d49	-0.0015978004

conv2.0.bias f4 [16]
0	0xbdb1ca28	-0.08681136
1	0x3da9e3a6	0.082953736
2	0x3d885731	0.066572554
3	0xbc40da23	-0.011770758
4	0xbd1022da	-0.035189487
5	0x3bc5ba10	0.0060341433
6	0xbd0ff7ba	-0.03514836
7	0xbd6eecd5	-0.05833133
8	0xbcaa1519	-0.020762013
9	0x3d2c5f2b	0.042082947
10	0xbd72373d	-0.05913471
11	0xbd082b9e	-0.03324472
12	0xbd3229a0	-0.043496728
13	0xbdacf6ee	-0.084455356
14	0x3d8bb390	0.06821358
15	0xbd935cf7	-0.07195466

conv2.1.weight f4 [16]
0	0x3f7a8b65	0.9786895
1	0x3f7f05c7	0.9961819
2	0x3f7e436e	0.9932164
3	0x3f7f7796	0.9979185
4	0x3f7ed3d1	0.99541956
5	0x3f7d3f9f	0.98925203
6	0x3f7ff774	0.9998696
7	0x3f8242e0	1.0176659
8	0x3f7c6969	0.98598343
9	0x3f80887f	1.0041655
10	0x3f82ac51	1.0208837
11	0x3f816f6e	1.0112131
12	0x3f848f1c	1.0356174
13	0x3f7f01f6	0.9961237
14	0x3f7f17ba	0.9964558
15	0x3f821bb8	1.0164709

conv2.1.bias f4 [16]
0	0xbb88fe73	-0.0041807233
1	0x3c19930b	0.009373437
2	0x3cad563f	0.02115929
3	0xbcbff333	-0.023431396
4	0x3bd1ba97	0.006400417
5	0x39eaf5d4	0.00044815114
6	0x3b880c15	0.004151831
7	0x3c1ecd78	0.009692542
8	0x3b1e42b4	0.0024148645
9	0x3ca60e58	0.020270512
10	0x3cc8454d	0.024447108
11	0xbc3ac80a	-0.011400232
12	0xbbbcfb54	-0.0057672653
13	0x3aedf959	0.0018155976
14	0x3ba70466	0.00509696
15	0x3bdce8b1	0.006741606

conv2.1.running_mean f4 [16]
0	0x3d34a478	0.044102162
1	0xbf2c9f3d	-0.6743048
2	0xbede7e62	-0.43455797
3	0x3f594313	0.8486797
4	0x3cffe9d3	0.031239426
5	0xbe6e8576	-0.23293099
6	0xbc5101f3	-0.012756812
7	0xbce8ecc1	-0.028433206
8	0xbe26e86c	-0.162996
9	0xbf42f25b	-0.76151055
10	0xbd15051f	-0.036381837
11	0x3f19d9aa	0.60097754
12	0xbbb0d273	-0.0053961813
13	0xbeae5945	-0.34052482
14	0x3de8838c	0.113532156
15	0x3e1161cb	0.14197461

conv2.1.running_var f4 [16]
0	0x3e3e4256	0.18579993
1	0x3e795999	0.24350585
2	0x3f08cdd6	0.5343908
3	0x3ebf6bba	0.37386876
4	0x3e858c17	0.26083443
5	0x3dc2b521	0.09507204
6	0x3d5bcb5a	0.053660728
7	0x3e2c6c2f	0.16838144
8	0x3eae749f	0.3407335
9	0x3f142453	0.57867926
10	0x3e23d8e8	0.16000712
11	0x3e279a6d	0.16367503
12	0x3e2aeb12	0.16691235
13	0x3e25645b	0.16151564
14	0x3e2252d6	0.15851912
15	0x3e2b668d	0.16738339

conv3.0.weight f4 [32, 16, 4, 4]
0	0x3c4095af	0.011754437
1	0xbc5f52ab	-0.013630549
2	0xbd857316	-0.065160915
3	0xbd90da83	-0.07072928
4	0xbd2020bf	-0.03909373
5	0x3bd02b0b	0.0063527874
6	0x3c735f54	0.014854271
7	0xbaf5d508	-0.0018755505
8	0xbd01fa5f	-0.031732913
9	0xbc479172	-0.012180673
10	0x3a1da80e	0.0006014117
11	0xbd26315b	-0.040574413
12	0xbd05c1c3	-0.03265549
13	0x3cf55fb2	0.029952858
14	0x3cc330ca	0.023826975
15	0x3a4a60b6	0.00077200995
16	0xbd212615	-0.03934296
17	0x3c1a4df5	0.0094180005
18	0x3c4ee367	0.012627459
19	0x3cc6b1c3	0.024254685
20	0x3c8ac8de	0.016941484
21	0xbbeecaa2	-0.0072873393
22	0x3d4f7a23	0.050653588
23	0xbd2bfa6f	-0.04198688
24	0xbd0bb2ed	-0.034106184
25	0xbd3dc943	-0.046334516
26	0xbc68bfbf	-0.014205872
27	0x3a9d93b1	0.0012022165
28	0xbbfe4e47	-0.007760796
29	0x3d072a70	0.032999456
30	0xbd17f130	-0.03709525
31	0xbd34b574	-0.04411836
32	0x3d39a64e	0.045324616
33	0xbc21b0e3	-0.009868833
34	0xbc1c9f0e	-0.009559406
35	0x3ccd5562	0.025065128
36	0x3c0f5d67	0.008750296
37	0xbca29dac	-0.019850574
38	0x3b874a48	0.004128728
39	0x3d5c402a	0.05377213
40	0xbb0e68a4	-0.002172985
41	0x3d13e5b5	0.036107738
42	0x3c32e0b6	0.010917833
43	0xbbfa8254	-0.007644931
44	0xbc0c728f	-0.008572235
45	0x3c324cf7	0.010882608
46	0x3cb59039	0.022163497
47	0x3c909103	0.017647272
48	0x3b8cacb6	0.0042930497
49	0xbc27c7c8	-0.010240503
50	0xbd1e3c17	-0.038631525
51	0xbd8b1406	-0.067909285
52	0xbb9134fa	-0.004431364
53	0x3d70faa8	0.058832794
54	0xbd215034	-0.03938313
55	0xbd2c4c7b	-0.042065125
56	0x3cca4f85	0.024696121
57	0xbd0dee4a	-0.03465108
58	0xbd308ad7	-0.043101158
59	0xbd636f82	-0.055526264
60	0x3d02146a	0.03175775
61	0xbd2259e5	-0.03963651
62	0x3d01228c	0.031527087
63	0xbd87031b	-0.06592389
64	0x3d5f9837	0.054588523
65	0x3c6e9892	0.014562743
66	0x3cb43d51	0.022001894
67	0x3d028078	0.0318608
68	0x3bf90559	0.0075995144
69	0x39030ede	0.00012498672
70	0x3d18d489	0.037312064
71	0xbbe735ed	-0.007055989
72	0xbc147738	-0.009061627
73	0xbce3baea	-0.027799089
74	0xbc4f329a	-0.012646342
75	0x3d2d8dab	0.042371433
76	0xbd671d92	-0.056424685
77	0x3d64029f	0.055666562
78	0xbc53457e	-0.012894986
79	0x3c0db4bd	0.008649048
80	0xbcfd64ee	-0.030931916
81	0x3d234ba7	0.03986707
82	0x3c85936b	0.016305646
83	0xbcc7a873	-0.024372315
84	0xbd1b3a1f	-0.037897225
85	0x3d36ecb3	0.044659328
86	0x3c4506b6	0.012025526
87	0x3bc92ab4	0.006139124
88	0x3d632dfc	0.055463776
89	0xbce79a3f	-0.028271792
90	0x3cdf2b86	0.027242433
91	0x3d10ebc7	0.035381105
92	0x3b16bad1	0.0022999535
93	0xbd6b6cd4	-0.057476833
94	0x3c06e1b6	0.008232525
95	0xbd0b7a79	-0.034052346
96	0x3c99f9b1	0.01879582
97	0x3c011c14	0.0078802295
98	0xbd31df1d	-0.043425668
99	0xbd447548	-0.04796341
100	0x3b4dc7b9	0.0031399562
101	0xbcc9b153	-0.024620688
102	0xbd86233e	-0.06549691
103	0xb963d10d	-0.00021726284
104	0x3cc9e166	0.024643611
105	0xbd817223	-0.06320598
106	0xbd4a0ec7	-0.0493305
107	0xbce732a9	-0.028222399
108	0x3d0aaadd	0.033854354
109	0xbd016deb	-0.031598967
110	0xbd4133a6	-0.047168396
111	0x3cb2c35a	0.021821667
112	0xbccdb67b	-0.025111428
113	0x3cfa580b	0.03055956
114	0xbd8bd520	-0.0682776
115	0xbd66a833	-0.05631275
116	0x3c8536e3	0.016261524
117	0xbd1f882e	-0.03894823
118	0xbd757b33	-0.059931945
119	0xbd06634c	-0.03280954
120	0xbd52a1bb	-0.05142377
121	0x3c071a8e	0.008246077
122	0xbd8edd4e	-0.06975804
123	0xbda10d7d	-0.07863901
124	0x3bded6dc	0.0068005156
125	0x3d61fc30	0.055172145
126	0xbb116bf2	-0.0022189585
127	0xbda18bf1	-0.0788802
128	0xbca8e18e	-0.020615365
129	0xbd84849d	-0.064706065
130	0xbd2c7562	-0.042104132
131	0xbd5f7194	-0.054551676
132	0xbc672e18	-0.014110111
133	0x3d204b82	0.03913451
134	0xbc8a541c	-0.01688581
135	0xbcbc477c	-0.022983305
136	0xbd73f815	-0.05956276
137	0xbcc51028	-0.024055555
138	0xbb72a0eb	-0.0037022184
139	0xbd5383ee	-0.05163949
140	0xbd2c8f35	-0.04212876
141	0x3cce6440	0.025194287
142	0x3c1a8cc1	0.009432972
143	0xbd933af4	-0.07188979
144	0xbcb93359	-0.022607492
145	0x3cfda2ac	0.030961357
146	0x3d410a1a	0.047128774
147	0xbd273f75	-0.040832
148	0xbc45cdda	-0.012073005
149	0xbd750038	-0.05981466
150	0xbb8174c5	-0.0039506876
151	0xbd2b3615	-0.041799624
152	0xbd83161b	-0.06400701
153	0xbd60ef85	-0.054915924
154	0xbc85f669	-0.01635285
155	0x3d68d0bf	0.0568397
156	0x3a79bde3	0.00095268915
157	0x3ca6a35c	0.020341568
158	0xbd5701ce	-0.052491955
159	0xbd8a8e68	-0.06765443
160	0x3d4191bb	0.04725812
161	0x3d97b8f1	0.07408322
162	0xba8d59d6	-0.001078422
163	0x3d0ada94	0.03389986
164	0xbc31a831	-0.010843323
165	0x3cde12b5	0.02710853
166	0x3b9b080b	0.0047311834
167	0x3c8c6ac0	0.017140746
168	0x3d7c9752	0.061667748
169	0x3d0b4ed7	0.034010734
170	0x3ce79868	0.028270915
171	0xbd3a3054	-0.045456246
172	0x3d2103a1	0.0393101
173	0xbd3e4b99	-0.046458814
174	0x3cbef5b3	0.023310518
175	0x3ce2d193	0.027687823
176	0xbc055b87	-0.008139498
177	0x3d19b2f2	0.03752417
178	0xbad1843d	-0.0015984845
179	0xbd527982	-0.05138541
180	0xbc9f0036	-0.01940928
181	0x3bb59384	0.005541267
182	0xbd838bd4	-0.064231545
183	0xbd5c41f0	-0.05377382
184	0x3d751299	0.05983219
185	0x3c353d9a	0.01106205
186	0x3cda14aa	0.026621182
187	0x3abeb402	0.0014549496
188	0x3d5d2942	0.053994425
189	0xbd59bc57	-0.05315813
190	0xbd81211b	-0.063051425
191	0x3bac8613	0.0052650063
192	0xbd279776	-0.04091593
193	0x3c9b51eb	0.01895996
194	0x3d8f4182	0.069949165
195	0xbd1c4df9	-0.038160298
196	0x3be016b9	0.0068386463
197	0xbd480014	-0.0488282
198	0xbafade3f	-0.0019139721
199	0xbd44f632	-0.048086353
200	0x3be2f819	0.006926548
201	0xbd978003	-0.07397463
202	0xbcbb6709	-0.02287628
203	0xbdaff3d5	-0.08591429
204	0xbd6cae35	-0.057783324
205	0x3d27de18	0.04098329
206	0xbd09a94a	-0.033608712
207	0xbcae9443	-0.021310931
208	0x3ced51a3	0.028969591
209	0xbce9c5ba	-0.028536666
210	0x3c80dc9f	0.0157302
211	0xbd5a34a1	-0.053272847
212	0xb9048792	-0.00012639005
213	0xbcb7a681	-0.022418262
214	0xbcb4eb34	-0.02208481
215	0xbd45e795	-0.048316557
216	0x3cf01737	0.029307945
217	0x3cc46981	0.02397609
218	0x3cdd3e70	0.027007312
219	0xbc94f227	-0.018181873
220	0xbc85516c	-0.016274177
221	0xbd7f5b18	-0.062342733
222	0x3d362fd7	0.044479217
223	0xbba5eecf	-0.0050638686
224	0x3d206f4e	0.03916865
225	0x3cc76cea	0.024343926
226	0xbd600c1b	-0.054699045
227	0xbcf01016	-0.029304545
228	0x3cb30cac	0.021856628
229	0xbd62eac8	-0.055399686
230	0xbd180320	-0.037112355
231	0x3d28d085	0.041214485
232	0x3ca5a75d	0.020221407
233	0x3d4b8541	0.049687628
234	0x3d28da73	0.041223954
235	0xbd31f4b2	-0.04344625
236	0xbcabfb1d	-0.020993764
237	0x3d413fdb	0.047180038
238	0xbd722104	-0.059113517
239	0xba346785	-0.00068818807
240	0xb9b03178	-0.00033606193
241	0x3cf04a34	0.029332258
242	0x3d05ec4e	0.03269606
243	0x3c9fad84	0.019491918
244	0x3d2fb48b	0.04289679
245	0xbd28bb84	-0.041194454
246	0x3d1f413b	0.038880568
247	0x3d2a237b	0.041537743
248	0x3d3e7e5a	0.046507217
249	0x3d4f4560	0.05060327
250	0xbd84232e	-0.064520225
251	0xbda532b9	-0.08066315
252	0xbca82387	-0.020524753
253	0x3a18c5b7	0.00058278017
254	0xbd530b3c	-0.051524386
255	0xbd9a5696	-0.07536046

conv3.0.bias f4 [32]
0	0x3c6bf2cc	0.014401149
1	0x3d6cdeb3	0.05782957
2	0x3c69c3d1	0.014267878
3	0xbd71f6bc	-0.059073195
4	0x3b8af488	0.004240576
5	0xbd61928f	-0.05507141
6	0xbcc175a9	-0.023615675
7	0x3d79df2d	0.061003853
8	0x3d0cc7f2	0.03437037
9	0x3caaf7fe	0.020870205
10	0xbc72b3f9	-0.014813417
11	0x3cfe4b71	0.031041833
12	0x3cffbb9d	0.03121739
13	0xbbf1a946	-0.0073749153
14	0xbd7b8408	-0.06140521
15	0x3c2f1641	0.010686458
16	0xbd01be98	-0.031675905
17	0x3c977a0a	0.01849081
18	0x3d425341	0.04744268
19	0x3cd258c7	0.025677098
20	0x3d3d6ef1	0.04624838
21	0x3d502ece	0.050825886
22	0x3c3ae279	0.011406534
23	0x3d412927	0.047158387
24	0x3c3f08aa	0.0116597805
25	0xbd26c7b9	-0.040717814
26	0xbc3cec78	-0.011530988
27	0xbc54ec2b	-0.01299576
28	0xbd7e9087	-0.06214955
29	0xbd501ddb	-0.050809722
30	0xbd5d5dda	-0.054044582
31	0x3d74fc7f	0.05981111

conv3.1.weight f4 [32]
0	0x3f7ced90	0.9879999
1	0x3f7e3bf5	0.9931024
2	0x3f813429	1.0094043
3	0x3f80dce5	1.0067412
4	0x3f7a61be	0.9780539
5	0x3f7e623c	0.99368644
6	0x3f8057a3	1.0026745
7	0x3f7dc4d7	0.9912848
8	0x3f7c03ae	0.98443115
9	0x3f81b639	1.0133735
10	0x3f7ced5c	0.9879968
11	0x3f7d38c7	0.9891476
12	0x3f806e47	1.0033654
13	0x3f7b1832	0.98083794
14	0x3f7f0c20	0.99627876
15	0x3f817cb0	1.0116177
16	0x3f815201	1.0103151
17	0x3f811c6c	1.0086799
18	0x3f7e00d6	0.99220026
19	0x3f7fcbe7	0.99920505
20	0x3f7e12c7	0.992474
21	0x3f805560	1.0026054
22	0x3f80475e	1.002178
23	0x3f810b59	1.0081588
24	0x3f7cccde	0.987501
25	0x3f7b87e8	0.9825425
26	0x3f8074ba	1.0035622
27	0x3f80679a	1.0031617
28	0x3f7e73bb	0.9939534
29	0x3f82ac4c	1.0208831
30	0x3f85e751	1.0461217
31	0x3f809518	1.00455

conv3.1.bias f4 [32]
0	0x36a78210	4.992129e-06
1	0x3c3102da	0.0108039025
2	0x3c9eaf4e	0.019370701
3	0xbd2a84c6	-0.04163053
4	0xbb491b56	-0.003068646
5	0x3c43ecbb	0.011958296
6	0x3d060397	0.032718267
7	0x3ca40563	0.0200221
8	0x3c76e8e4	0.015070174
9	0x3cbae094	0.022812165
10	0x3c4b990c	0.012426626
11	0x3c8dda54	0.017316021
12	0x3cb37bfd	0.021909708
13	0xbbea5150	-0.0071508065
14	0x3cc5b2ca	0.024133105
15	0x3c3d2f74	0.011546958
16	0x3c9efd59	0.019407915
17	0x3cb8efba	0.022575248
18	0x3c31dc65	0.010855769
19	0xbccdf375	-0.025140503
20	0x3c189aa8	0.009314217
21	0x3d224303	0.03961469
22	0x3cc6111f	0.024178086
23	0xbc0401d7	-0.008057079
24	0x3cd82486	0.026384603
25	0x3c09c819	0.008409523
26	0x3c880f59	0.01660888
27	0x3c5fbfad	0.013656539
28	0xbc57f4c2	-0.013180913
29	0x3cbed6d3	0.023295796
30	0x3cf21343	0.0295502
31	0x3c09290c	0.008371603

conv3.1.running_mean f4 [32]
0	0xbf3278cd	-0.6971558
1	0xbedec1ba	-0.43507177
2	0x3d6d8aa8	0.05799356
3	0x3e64ef8e	0.22357008
4	0xbebedffe	-0.37280267
5	0x3e9b2b94	0.30306685
6	0xbd72e2f0	-0.059298456
7	0xbceebd13	-0.029142892
8	0x3ed020f9	0.40650156
9	0xbebf665f	-0.3738279
10	0xbe909e10	-0.28245592
11	0xbe4a99ec	-0.19785279
12	0xbf013835	-0.5047639
13	0xbf288700	-0.65830994
14	0xbf00e5ac	-0.5035045
15	0xbf13f184	-0.577904
16	0xbeccf4c0	-0.4003048
17	0xbe8fe702	-0.28105932
18	0xbe251411	-0.16120936
19	0x3f271a3b	0.652744
20	0xbf1580e3	-0.5839979
21	0xbe8e5661	-0.27800277
22	0xbe26d511	-0.16292216
23	0xbd5b49ab	-0.053537052
24	0xbeac53be	-0.3365764
25	0xbe09e418	-0.13465917
26	0xbeed42b7	-0.46339962
27	0xbf21d51d	-0.6321581
28	0x3e1fd97c	0.15610307
29	0x3e95e96a	0.29279643
30	0xbdbf5516	-0.09342401
31	0xbf0b2c39	-0.54364353

conv3.1.running_var f4 [32]
0	0x3e6464b6	0.22304043
1	0x3e6ff578	0.23433483
2	0x3df47e8a	0.11938198
3	0x3eb33be6	0.35006636
4	0x3e873204	0.26405346
5	0x3e8762ea	0.26442653
6	0x3e6afdf0	0.22948432
7	0x3eafffee	0.34374946
8	0x3e81d67d	0.25358954
9	0x3e6ee10f	0.2332804
10	0x3e98d5ab	0.29850516
11	0x3e4eaef3	0.20183925
12	0x3ee1600c	0.4401859
13	0x3ddfab38	0.10921329
14	0x3df64798	0.12025374
15	0x3e352b16	0.17692217
16	0x3e15d39f	0.14631508
17	0x3e5279c8	0.20554268
18	0x3df7c5d0	0.120982766
19	0x3e548b5c	0.20756286
20	0x3e20c3e9	0.15699734
21	0x3e132516	0.14369616
22	0x3eb06ea0	0.344594
23	0x3e46180a	0.19345108
24	0x3e8e22b0	0.2776084
25	0x3ed70819	0.41998366
26	0x3e95c62e	0.29252762
27	0x3e351683	0.17684369
28	0x3ea5511f	0.32288453
29	0x3ea8e132	0.3298431
30	0x3e340f2a	0.1758391
31	0x3e3f54f7	0.18684755

deconv2.0.weight f4 [32, 16, 4, 4]
0	0xbd94eb68	-0.07271463
1	0x3cd6cee7	0.026221706
2	0xbcddca16	-0.027073901
3	0x3cad4ad3	0.021153843
4	0xbcdfea9f	-0.027333556
5	0x3c072b90	0.008250132
6	0x3b87ad82	0.004140557
7	0x3d036b61	0.032084826
8	0xbcf8a218	-0.03035073
9	0x3c9b2258	0.018937275
10	0xbd30d4f9	-0.043171857
11	0xbd153fe1	-0.036437873
12	0xbc9d92c0	-0.019235015
13	0x3d06f2ba	0.032946326
14	0xbcda2e45	-0.026633391
15	0x3d46da67	0.04854813
16	0xbc5d8f07	-0.01352287
17	0x3ae3bf2a	0.0017375697
18	0xb937d148	-0.00017530203
19	0xbd94c59d	-0.07264254
20	0xbcaecba7	-0.021337343
21	0x3cab87dd	0.020938808
22	0x3dbe32dd	0.09287045
23	0x3cf8e5e3	0.030383056
24	0x3d5d77fd	0.054069508
25	0xbc05361e	-0.008130578
26	0x3d87cc9c	0.06630823
27	0x3cee330b	0.029077074
28	0xbd7e3173	-0.062058877
29	0x3d0a06d3	0.033697914
30	0x3c5975ed	0.013272745
31	0xbce93810	-0.028469115
32	0xbcabc28c	-0.02096679
33	0x3c49b7cd	0.012311888
34	0x3cd85d6b	0.026411733
35	0xbb1a3600	-0.0023530722
36	0x3d04a9a5	0.032388348
37	0x3d5b6f49	0.053572927
38	0x3cb5634b	0.022142073
39	0x3cf187de	0.029483732
40	0xbc214651	-0.009843425
41	0x3d942fe7	0.07235699
42	0xbcb8030c	-0.02246239
43	0x3d206063	0.03915442
44	0xbd0b9610	-0.034078658
45	0xbd3d66e1	-0.04624069
46	0x3d07cca4	0.033154145
47	0x3c4e93ff	0.012608527
48	0xbc098047	-0.0083924
49	0x3ca8c82e	0.020603266
50	0xbd57897c	-0.05262135
51	0x3cc60c95	0.024175921
52	0xbd687c3f	-0.056759115
53	0xbd8486ba	-0.064710096
54	0x3d900fd3	0.07034268
55	0x3c853e9a	0.016265202
56	0xbd315fee	-0.043304376
57	0x3b4a3189	0.003085228
58	0xbd473bb3	-0.048640918
59	0xbc91eb09	-0.017812269
60	0x3c85dcbc	0.016340606
61	0xbcd6bdf5	-0.026213625
62	0x3d2a3912	0.041558333
63	0xbd659eff	-0.056059834
64	0x3ba48465	0.0050206655
65	0x3d6e2ed7	0.05815014
66	0xbca7ffd4	-0.02050773
67	0x3b73012b	0.0037079554
68	0xbcf76aa8	-0.030202225
69	0xbd9fe8cd	-0.07808075
70	0xbd031ecc	-0.032011792
71	0xbc91fbf0	-0.017820328
72	0xbcac94cf	-0.021067051
73	0x3d450c09	0.04810718
74	0x3b4e35ec	0.0031465245
75	0x3ce184d1	0.027529152
76	0x3d84af9b	0.064788066
77	0x3cff1bdc	0.031141214
78	0x3d010282	0.031496532
79	0x3caeb809	0.02132799
80	0xbc0ddaae	-0.008658094
81	0x3d00195b	0.03127418
82	0xbc844425	-0.016145775
83	0xbd77ae42	-0.06046892
84	0x3d420243	0.04736544
85	0x3cdca1d7	0.02693264
86	0x3d63401b	0.055481058
87	0x3a835ebd	0.0010022741
88	0x3cb63cdd	0.022245819
89	0x3bdf5d66	0.006816554
90	0xbd4bdfec	-0.049774095
91	0xbd8fab3d	-0.07015083
92	0xbd33adfe	-0.043867104
93	0x3c891765	0.016734788
94	0x3d7a7019	0.06114206
95	0x3cb64152	0.022247944
96	0x3a624a22	0.00086322625
97	0xbd4fa3b6	-0.050693236
98	0xbd6d28d5	-0.05790027
99	0x3cffae60	0.031211078
100	0x3d3ae35a	0.045626976
101	0xbd80ea94	-0.06294742
102	0x3cdf913c	0.027290933
103	0xbc123ab9	-0.008925133
104	0xbc32a39e	-0.010903267
105	0xbc4d2dc3	-0.0125231175
106	0x3c71af22	0.014751228
107	0x3d2c374a	0.042044915
108	0xbb09002b	-0.002090464
109	0x3d590716	0.052985273
110	0x3d5ac749	0.05341271
111	0x3a2bed2b	0.0006558473
112	0xbd89bcec	-0.06725487
113	0x3cc7b762	0.024379436
114	0xbabbf6b9	-0.0014340497
115	0xbcdcccb5	-0.02695308
116	0x3b1f0f83	0.002427072
117	0xbcb73ae1	-0.022366943
118	0x3d01102a	0.031509556
119	0x3b36a6a0	0.0027870312
120	0xbd713d49	-0.058896337
121	0xbc6cd56a	-0.014455179
122	0x3d301305	0.04298689
123	0x3bff3eb9	0.0077894595
124	0x3c12b9d5	0.008955439
125	0x3d198c1a	0.037487127
126	0x3c8454e0	0.016153753
127	0x3b0ba49e	0.0021307836
128	0xbd063ded	-0.0327739
129	0x3ad2d87c	0.0016086246
130	0xbc347ce2	-0.0110161025
131	0x3bed2fab	0.0072383485
132	0xbcc77d1f	-0.024351655
133	0xbd5898a8	-0.05287996
134	0xbd2dcdf2	-0.042432733
135	0xbc07da0d	-0.008291733
136	0x3c824dd0	0.015906245
137	0xbcbf4e09	-0.02335264
138	0x3da85cca	0.08220823
139	0xbcc53680	-0.02407384
140	0x3c8da34b	0.017289778
141	0x3d2cbd00	0.042172432
142	0xbc83b9aa	-0.016079742
143	0x3b6291a3	0.003457167
144	0xbc952331	-0.018205257
145	0x3c921230	0.017830938
146	0xbc188b42	-0.009310545
147	0xbc439921	-0.011938364
148	0x3c5d110e	0.013492836
149	0xbd31bb35	-0.043391425
150	0xbd92a1cc	-0.071597666
151	0x3c82e4f2	0.01597831
152	0x3d98a9c0	0.07454252
153	0x3c6f1cfa	0.014594311
154	0x3d7b4078	0.06134078
155	0xbd86dd77	-0.0658521
156	0x3d3406fd	0.043951977
157	0xbc734d5a	-0.014849985
158	0xbd636de8	-0.055524737
159	0xbc021672	-0.007939922
160	0xbc8d974d	-0.01728406
161	0xbd75418e	-0.05987697
162	0xbc8e0f87	-0.017341388
163	0xbd91deff	-0.07122611
164	0x3bcdfd85	0.0062863254
165	0xbc1527f3	-0.009103763
166	0xbcb66339	-0.02226411
167	0xbc7ba2cb	-0.015358637
168	0xbbc8fe10	-0.0061338022
169	0xbd0fad77	-0.03507754
170	0x3d027a34	0.031854823
171	0xb949edd7	-0.00019257456
172	0x3cc79896	0.02436475
173	0xbbd93d6d	-0.006629637
174	0x3d156922	0.036477216
175	0xbc1296e5	-0.008947109
176	0xbd25c97f	-0.040475365
177	0x3c737786	0.01486004
178	0xbd501816	-0.05080422
179	0xbd42490e	-0.04743295
180	0x3cd8fada	0.026486803
181	0xbc15bd7f	-0.009139418
182	0xbbc39586	-0.0059687523
183	0xbcfb38c7	-0.030666722
184	0x3cd8e066	0.026474189
185	0xbd97e8fb	-0.074174844
186	0xbd9df9b8	-0.07713646
187	0xbcd678d5	-0.026180664
188	0xbcf7d77e	-0.030254122
189	0xbd8928e1	-0.0669725
190	0x3d60bf32	0.054869838
191	0xbd6992fc	-0.05702494
192	0x3cae413f	0.021271346
193	0xba14436a	-0.00056557974
194	0xbd473029	-0.048629913
195	0x3d123678	0.035696477
196	0xbd89f6de	-0.06736539
197	0xbb8d2c4d	-0.0043082596
198	0x3cc15cb3	0.023603773
199	0xbd3f997c	-0.046777233
200	0xbd89c7f0	-0.06727588
201	0x3d91de71	0.071225055
202	0xbcaabe28	-0.020842627
203	0x3d18d8ab	0.037316006
204	0xbd2b762b	-0.04186074
205	0xbd0e1b09	-0.03469375
206	0x3cd46647	0.025927676
207	0xbd081a78	-0.033228368
208	0x3c87a2a2	0.016557042
209	0xbcda1606	-0.02662183
210	0xbd46e4ca	-0.048558034
211	0xbcb0fa61	-0.021603765
212	0x3d52001c	0.051269636
213	0x3d5ca84c	0.053871438
214	0xbc68ef77	-0.014217249
215	0x3cad8ae6	0.021184396
216	0x3cfcc52c	0.030855738
217	0xbc9fa414	-0.019487418
218	0xbd40793e	-0.046990626
219	0x3ccd89b8	0.025090083
220	0x3d31bab8	0.04339096
221	0x3bf2ce48	0.0074098445
222	0x3d2ba38b	0.041904014
223	0x3c472057	0.0121537065
224	0xbd991a8d	-0.07475767
225	0xbc3aeae5	-0.011408542
226	0xbce68ab0	-0.028142303
227	0xbd332f8e	-0.043746524
228	0x3b710ad2	0.003678013
229	0x3b8fd091	0.0043888767
230	0x3d7fce5a	0.06245265
231	0x3c3fc9c2	0.011705818
232	0xbd36fae6	-0.04467287
233	0xbcbde0e1	-0.02317852
234	0xbd4988e5	-0.04920282
235	0xbd17dd6b	-0.037076395
236	0xbccadad5	-0.02476255
237	0xbcc78b70	-0.024358481
238	0x3d2805e5	0.041021246
239	0xbc904432	-0.017610643
240	0xbce977a5	-0.028499434
241	0xbd347c7c	-0.04406403
242	0x3cd14edb	0.025550297
243	0x3cd5b994	0.026089467
244	0xbb9d84ad	-0.004807076
245	0xbcd92e6c	-0.026511393
246	0xbd8e4415	-0.06946579
247	0x3d2fcda8	0.04292074
248	0xbc9b6194	-0.018967427
249	0xbbb26ddd	-0.0054452256
250	0x3d28e112	0.04123027
251	0xbd524701	-0.051337246
252	0x3c087828	0.008329429
253	0xbcfa2d84	-0.030539282
254	0xbd396cb7	-0.045269694
255	0xbc820087	-0.015869392

deconv2.0.bias f4 [16]
0	0x3cf3166e	0.029673781
1	0xbd775625	-0.06038489
2	0x3cf69641	0.030100944
3	0x3cda9249	0.026681082
4	0x3d1f4c33	0.03889103
5	0xbd66aa55	-0.056314785
6	0x3d466939	0.048440192
7	0xbc861bdd	-0.016370708
8	0xbd77e899	-0.060524557
9	0x3d538773	0.051642846
10	0x3ce1e9bf	0.02757728
11	0xbd636dfe	-0.05552482
12	0x3cd06ebf	0.025443433
13	0xbc6bb2de	-0.014385907
14	0x3c762acb	0.015024851
15	0x3c851374	0.016244628

deconv2.1.weight f4 [16]
0	0x3f80f0da	1.0073502
1	0x3f8259fc	1.0183711
2	0x3f82fecb	1.0234007
3	0x3f80f41b	1.0074495
4	0x3f8137b6	1.0095127
5	0x3f7a44cb	0.9776122
6	0x3f7fda98	0.9994292
7	0x3f763f62	0.96190464
8	0x3f7885c3	0.97079104
9	0x3f7f7dd0	0.9980135
10	0x3f818511	1.0118734
11	0x3f7b1086	0.9807209
12	0x3f7b9aa4	0.9828284
13	0x3f7ce280	0.9878311
14	0x3f7e2fc6	0.99291646
15	0x3f832cb2	1.0248015

deconv2.1.bias f4 [16]
0	0x3c8475ea	0.016169507
1	0x3d7421ac	0.059602425
2	0x3d318b15	0.04334553
3	0x3c410d58	0.011782967
4	0x3d271219	0.040788744
5	0x3c04e3a4	0.008110914
6	0x3cf2cfa6	0.02964003
7	0xbcb7f93b	-0.02245771
8	0xbcba92f7	-0.022775156
9	0x3d4e6dd7	0.05039772
10	0x3d32992b	0.043603104
11	0xbb930865	-0.0044870847
12	0xbc8d72c7	-0.017266644
13	0x3d3418cd	0.043968964
14	0x3b35a1fd	0.002771496
15	0x3cfcb2d7	0.030846996

deconv2.1.running_mean f4 [16]
0	0xbe4e9cd8	-0.20177019
1	0xbe718ca3	-0.23588805
2	0x3c749b7a	0.014929647
3	0xbdffa246	-0.12482123
4	0xbda8f179	-0.08249182
5	0xbe9934ed	-0.29923192
6	0xbd97ebfe	-0.07418059
7	0xbe053f46	-0.13012418
8	0xbe6df9ff	-0.23239897
9	0xbe1ca968	-0.15298998
10	0xbead5bb9	-0.3385904
11	0xbed6045d	-0.41800204
12	0xbe2ee901	-0.17081071
13	0xbddc8122	-0.10766818
14	0xbedd5b7d	-0.43233863
15	0xbec2f706	-0.3807909

deconv2.1.running_var f4 [16]
0	0x3ef7abdf	0.48373315
1	0x3ec592be	0.38588518
2	0x3eda3389	0.42617443
3	0x3ec0174a	0.37517768
4	0x3ebd0691	0.36919072
5	0x3f160b26	0.5861076
6	0x3ed7368b	0.420338
7	0x3ee0cb40	0.43905067
8	0x3e99e4a8	0.30057263
9	0x3f1e509b	0.61841744
10	0x3ef25164	0.4732772
11	0x3ede509a	0.4342087
12	0x3f199dd1	0.60006434
13	0x3f0b44af	0.5440168
14	0x3efde2d6	0.49587125
15	0x3ea3fe49	0.32029942

deconv3.0.weight f4 [16, 8, 4, 4]
0	0xbc3a7f19	-0.0113828415
1	0x3d426947	0.04746368
2	0xbd3f589f	-0.046715375
3	0xbd9358a4	-0.07194641
4	0xbdce2b73	-0.10066881
5	0x3b73bb82	0.003719062
6	0x3ce2eeb5	0.027701715
7	0xbd224ee0	-0.039626002
8	0xbdae0de9	-0.08498747
9	0x3cd63473	0.026148057
10	0x3d175146	0.036942743
11	0x3d5d0abc	0.053965315
12	0xbdd4f402	-0.10398103
13	0xbd276967	-0.040872004
14	0x3d7cd7c2	0.0617292
15	0xbd9a1aea	-0.07524665
16	0x3d23bda4	0.039975777
17	0xbd2812b1	-0.04103345
18	0x3a493a70	0.00076762494
19	0x3da7a138	0.08185047
20	0x3d4e17af	0.050315555
21	0x3d455346	0.04817512
22	0x3d7fd188	0.062455684
23	0x3c954878	0.018223032
24	0xbc57de16	-0.013175508
25	0x3d14b7b6	0.036308013
26	0x3d7b186b	0.061302584
27	0x3d7862ad	0.06064098
28	0x3d16ff93	0.03686483
29	0x3d0b4c2e	0.034008197
30	0x3d8aef2a	0.06783898
31	0xbd52043b	-0.051273566
32	0x3db728b5	0.08943311
33	0x3d07c32f	0.033145126
34	0xbd1baaa1	-0.03800452
35	0x3ce5a1d7	0.028031273
36	0x3d569ef8	0.0523977
37	0x3df2fd35	0.11864702
38	0x3be0faf6	0.0068658544
39	0x3c6a88b2	0.014314817
40	0x3d3b352c	0.045705006
41	0x3dd48341	0.10376597
42	0xbd9d56b7	-0.07682555
43	0x3da66f79	0.081267305
44	0x3d57b6a4	0.052664414
45	0x3c577d19	0.013152384
46	0xbd735ce0	-0.059414744
47	0xbd2d5f33	-0.042327117
48	0x3d1e9108	0.03871253
49	0x3d92bb5c	0.07164642
50	0xbc7b45e6	-0.015336489
51	0x3d458679	0.048223946
52	0xbd73b6b2	-0.059500404
53	0xbd7d4e01	-0.06184197
54	0x3ca5086a	0.020145614
55	0x3dc2ab98	0.09505385
56	0x3d1ae916	0.037819944
57	0x3db5ac24	0.08870724
58	0xbcad79a7	-0.021176172
59	0x3dcd3edf	0.10021757
60	0x3ae232be	0.0017257554
61	0x3cfd6d60	0.030935943
62	0xbca7d5dc	-0.020487718
63	0x3ce0d9fe	0.027447697
64	0x3d24862a	0.04016701
65	0x3da069f0	0.07832706
66	0x3cebf24e	0.028802063
67	0xbd6827e3	-0.056678664
68	0x3d05107f	0.032486435
69	0xbab5edf2	-0.0013880117
70	0x3c7555c3	0.0149740605
71	0xbd4d242e	-0.05008333
72	0xbcfb5435	-0.030679801
73	0x3d225f71	0.0396418
74	0xbcf3b727	-0.02975042
75	0xbbd9e22a	-0.0066492753
76	0x3ab51bff	0.0013817548
77	0x3ae63245	0.0017562589
78	0xbcb9f076	-0.022697669
79	0x3ccc9120	0.024971545
80	0x3c9243a5	0.017854521
81	0xbd850a74	-0.064961344
82	0x3c377ddc	0.011199441
83	0x3cc6d2d9	0.024270462
84	0xb7c59e05	-2.3557814e-05
85	0x3c44bc0f	0.012007727
86	0x3d90a29f	0.070622675
87	0x3d2847c5	0.04108407
88	0x3bbb4e01	0.005716086
89	0x3d2c3339	0.042041037
90	0xbd3aae70	-0.045576513
91	0xbcd2921d	-0.025704438
92	0x3d695feb	0.05697624
93	0x3d089e73	0.033354234
94	0x3c7d3992	0.01545562
95	0x3d483815	0.04888161
96	0x3c992b16	0.018697303
97	0xbd175f47	-0.036956098
98	0xbd391f94	-0.04519613
99	0xbd610647	-0.054937627
100	0x3d5392d2	0.05165369
101	0xbda2b308	-0.07944304
102	0xbcc44fc1	-0.02396381
103	0xbd63e60a	-0.055639304
104	0xbc736e77	-0.01485788
105	0x3dc3be3c	0.09557769
106	0x3d0054d6	0.031330906
107	0x3c39acb5	0.0113326805
108	0x3d84c15e	0.06482194
109	0xbb58cb43	-0.0033080138
110	0x3bec4911	0.0072108586
111	0xbd68e109	-0.056855235
112	0x3d3f9410	0.046772063
113	0x3da4be81	0.08044148
114	0x3d281f98	0.041045755
115	0x3cf962f2	0.030442689
116	0x3cbb4185	0.02285839
117	0x3d762bdd	0.060100425
118	0xbda00974	-0.07814303
119	0xbc992240	-0.01869309
120	0x3d85a72d	0.06526027
121	0xbdbf977e	-0.09355067
122	0xbd9aad94	-0.07552639
123	0xbc73e248	-0.014885493
124	0x3d905bf6	0.0704879
125	0x3d2eadad	0.0426461
126	0xbcc959c3	-0.024578935
127	0x3d2b0eca	0.04176215
128	0xbce8d614	-0.028422393
129	0x3cb91bff	0.022596357
130	0x3dcdeb86	0.10054688
131	0xbdc3f7f3	-0.09568777
132	0xbd51ddc7	-0.051236894
133	0xbd1c2891	-0.038124625
134	0x3e0d89ca	0.13822094
135	0x3db3a20d	0.08771143
136	0x3c362cd6	0.011119088
137	0x3dabc829	0.08387787
138	0x3d9cedda	0.07662554
139	0x3d514c8b	0.051098388
140	0xbc9dbd7e	-0.019255396
141	0xbd2130a4	-0.039353028
142	0x3d5e47cd	0.054267693
143	0xbd2a7f62	-0.041625388
144	0x3d979551	0.07401527
145	0xbcf4c29d	-0.029877955
146	0x3c74c455	0.014939387
147	0xbd5dc5f4	-0.05414386
148	0xbc7591c8	-0.01498837
149	0xbd1dd7cd	-0.03853588
150	0x3db5e5c6	0.088817164
151	0xbd97bc4a	-0.0740896
152	0xbbe15f9d	-0.006877853
153	0x3d75eb03	0.060038578
154	0x3d1ad83d	0.037803877
155	0x3cdb1de9	0.02674766
156	0x3d632623	0.055456292
157	0xbc7fde6d	-0.015616995
158	0x3cba2f51	0.02272764
159	0x3c3beb8f	0.011469736
160	0x3d0e1ebe	0.034697287
161	0x3d8d6d50	0.06905615
162	0x3de7b258	0.11313313
163	0xbca63ac4	-0.020291694
164	0xbc7fd6d2	-0.015615182
165	0xbc9c3da9	-0.01907237
166	0x3c95e15f	0.018295942
167	0x3d7834f9	0.060597394
168	0xbc9651ae	-0.018349495
169	0x3d23fce0	0.040036082
170	0xbd77e144	-0.060517564
171	0xbcbb72b3	-0.022881841
172	0xbd6c0edb	-0.057631355
173	0xbb1a44e9	-0.0023539609
174	0x3d479e43	0.048734915
175	0xbca8650f	-0.020556001
176	0xbd7070c3	-0.058701288
177	0xbcc0af9a	-0.023521233
178	0x3db0943a	0.08622022
179	0x3c8c8fc4	0.017158397
180	0x3daca9fa	0.08430858
181	0xbd0f2d02	-0.034955032
182	0x3b764b2d	0.003758143
183	0x3d96e596	0.07368009
184	0xbc93f22b	-0.01805981
185	0x3c74f593	0.014951128
186	0x3d931386	0.07181458
187	0xbca50d01	-0.020147802
188	0x3c7ea299	0.015541696
189	0xbd1d227e	-0.038362972
190	0x3a87e4c9	0.0010367866
191	0x3d4768b8	0.048683852
192	0x3d3967f6	0.04526516
193	0xbd262425	-0.040561814
194	0x3cc1a2b4	0.023637153
195	0x3d0f70fd	0.035019863
196	0x3d9126bb	0.070874654
197	0x3cce366c	0.025172435
198	0xbd571e65	-0.05251922
199	0x3cd8ca55	0.026463667
200	0x3d69440e	0.056949668
201	0x3c8fc0a1	0.017547907
202	0xbba9c832	-0.005181336
203	0x3d726606	0.05917933
204	0x3c8e6208	0.01738073
205	0xbd03a547	-0.032140043
206	0x3d66936b	0.056292932
207	0x3c906c2c	0.017629705
208	0x3c791843	0.015203538
209	0xbbd36c2c	-0.006452104
210	0xbd990984	-0.07472518
211	0x3d572201	0.052522663
212	0x3a277ab3	0.0006388828
213	0x3d36c135	0.04461785
214	0x3d8aaa30	0.06770742
215	0x3d9cf578	0.07664007
216	0x3d1895c2	0.037252195
217	0x3d2a10f1	0.041520063
218	0xbd0d6cca	-0.034527577
219	0x3db15c85	0.08660225
220	0x3dde5f6f	0.10858046
221	0x3b90f604	0.0044238586
222	0x3d864d37	0.06557696
223	0x3deb68c5	0.114945926
224	0xbccfda2e	-0.02537259
225	0xbd2bd317	-0.041949358
226	0xbda05d08	-0.07830244
227	0x3d773d75	0.060361344
228	0x3da0723e	0.0783429
229	0x3d21002a	0.039306797
230	0x3d52a900	0.051430702
231	0xbc53f234	-0.012936164
232	0x3d5360ed	0.051606108
233	0xbca00c03	-0.019536978
234	0xbd1c9b84	-0.03823425
235	0x3cd77741	0.026301982
236	0x3d852223	0.06500652
237	0x3ce4bebf	0.027922986
238	0x3dbe450d	0.09290514
239	0x3d262545	0.040562887
240	0x3d110aa9	0.035410557
241	0x3d65bc74	0.056087926
242	0x3da5f436	0.0810322
243	0x3dc9d89c	0.09855768
244	0x3d66c691	0.05634171
245	0x3d690039	0.056884978
246	0xbd245462	-0.040119536
247	0xbd9cb5c8	-0.076518595
248	0xbd9f5eae	-0.077817306
249	0x3d88ca76	0.06679241
250	0x3cc4c237	0.02401839
251	0x3bd76478	0.006573256
252	0x3cf3c7bd	0.029758329
253	0x3c95bfd2	0.018279944
254	0xbd5b6177	-0.053559747
255	0xbc8eb10f	-0.017418412

deconv3.0.bias f4 [8]
0	0xbd9b729a	-0.07590218
1	0x3d96b4dc	0.07358715
2	0xbd6ae70a	-0.057349242
3	0x3d49bb58	0.04925093
4	0x3ce9daec	0.028546773
5	0x3d7a3961	0.061089877
6	0x3ce7de13	0.028304135
7	0x3d733d4a	0.05938462

deconv3.1.weight f4 [8]
0	0x3f89469e	1.0724676
1	0x3f88a745	1.0676047
2	0x3f89489d	1.0725285
3	0x3f88f459	1.0699569
4	0x3f8815a8	1.0631609
5	0x3f854961	1.0413018
6	0x3f87f186	1.0620582
7	0x3f875f24	1.057591

deconv3.1.bias f4 [8]
0	0x3d920ac4	0.0713096
1	0x3d8595eb	0.06522735
2	0x3d8f7af5	0.07005874
3	0x3d8a7e50	0.067623734
4	0x3d813a4e	0.06309949
5	0x3d2292f4	0.039690927
6	0x3d7af32b	0.06126706
7	0x3d68e324	0.056857243

deconv3.1.running_mean f4 [8]
0	0x3db34cae	0.0875486
1	0x3ea17d21	0.31540778
2	0x3e7fcf5f	0.2498145
3	0x3eb9cfbb	0.36291298
4	0x3ecb1122	0.3966151
5	0x3ef05905	0.46942917
6	0x3e7eeeb8	0.24895751
7	0x3ed9f4e8	0.4256966

deconv3.1.running_var f4 [8]
0	0x3e5278ac	0.20553845
1	0x3e38c0c8	0.1804229
2	0x3e30ea3b	0.17276852
3	0x3e246575	0.16054328
4	0x3da7aff0	0.08187854
5	0x3e211806	0.1573182
6	0x3e306caf	0.1722896
7	0x3e02eeb9	0.12786378
