03_hw/Pix2Pix/checkpoints/pix2pix_model_epoch_390.pth (torch, 99191 bytes, 32 tensors)

conv1.0.weight f4 [8, 3, 4, 4]
000000 74 e4 d0 bd 36 f1 ec bd 6b 4d 61 bd 38 d5 3f be
       -0.10199824 -0.11569445 -0.055005472 -0.1873368
000010 49 55 69 3d 80 03 d6 bd ab 83 b3 bc bc d1 7e 3d
       0.0569661 -0.10449886 -0.02191337 0.062211737
000020 41 6e 11 be 39 e6 3b bd ed 18 54 bb 88 36 23 3d
       -0.14202215 -0.045873854 -0.003236349 0.039846927
000030 ad be ac bc 30 79 97 3d 25 4f 91 3d 74 7d 0b be
       -0.021087015 0.073961616 0.07095174 -0.13622075
000040 1e 1b 08 3e 4d 1f 40 3e c4 a5 62 3d 78 9e 0c bc
       0.13291594 0.1876194 0.055333868 -0.008582704
000050 2a 89 0a 3d 67 34 de bc e9 9d a0 bd 31 58 4a 3d
       0.033822216 -0.027124597 -0.07842619 0.049400512
000060 d6 6c f2 3d 70 45 57 3d d3 5a 25 3d 47 a9 29 bd
       0.11837165 0.052556455 0.04036982 -0.0414212
000070 af 22 96 bd 96 64 ee 3c 02 56 84 bd 00 d0 29 3e
       -0.07330834 0.029100697 -0.06461717 0.16583252
000080 fb 5a d5 bd cb 47 24 3d c3 ee 16 be fa c6 55 3d
       -0.10417744 0.04010753 -0.14739518 0.052191712
000090 1e 4c e2 bd 15 6a da bd 18 be b0 bb 91 7a f5 bd
       -0.110496745 -0.10664765 -0.0053937547 -0.11986268
0000a0 da d8 d4 3c 4a 56 c5 bc fe c8 c0 b9 0f 3b 16 bd
       0.02598231 -0.024088997 -0.00036770845 -0.036677416
0000b0 89 17 39 bd 33 be 35 3d 13 b0 95 3d 37 4b 3c 3d
       -0.04518846 0.04437084 0.07308974 0.045970168
0000c0 2d 89 8f bd d2 8a 8d 3d 82 60 9a bc a2 b1 98 bc
       -0.07008586 0.069112435 -0.018844847 -0.01863939
0000d0 3c 8c 86 bb ab eb e7 3d a4 f8 0a 3d 14 3d 3c bc
       -0.0041060727 0.11324247 0.03392853 -0.011489172
0000e0 46 4a 15 3e 22 40 b3 3d 99 97 cc bd 88 fd 94 bd
       0.14579114 0.08752467 -0.099898525 -0.0727492
0000f0 25 8f 0e 3d 34 3f 02 3e 9c 14 f4 bc 4c ca af bc
       0.034804482 0.12719423 -0.029794984 -0.021458767
000100 34 5b 1f bb 7e 40 0a 3e 34 38 3b 3c cd 04 ac bd
       -0.0024315836 0.13501164 0.011426974 -0.08399353
000110 94 ac 39 bd c8 e1 9c bd 81 eb 1b 3d 3d 52 05 bd
       -0.0453306 -0.07660252 0.03806639 -0.03254913
000120 1f 60 fd 3c 8a 3e 0d bc 54 35 18 3d 30 8e 02 be
       0.030929623 -0.0086208675 0.037160233 -0.12749553
000130 31 db 7e 3d 55 e2 de bc 82 bf 77 3d 96 2f be 3d
       0.062220756 -0.027207533 0.06048537 0.0928642
000140 f6 14 f8 3a a8 3f 81 bd 55 ad 44 3d 98 30 05 be
       0.0018927145 -0.063109696 0.048016865 -0.13006818
000150 b0 c8 67 bd e5 2b aa 3d ae 2c 95 bd 36 29 86 3d
       -0.056587875 0.083091535 -0.072839126 0.06550829
000160 f1 ea b9 bb 76 dd 95 bb 20 ad 92 bc c9 91 9e 3b
       -0.005673759 -0.0045735193 -0.017904818 0.0048391563
000170 ea 96 80 bd 39 86 be bd 1e 70 ed bc a4 a6 c4 bd
       -0.062787846 -0.09302945 -0.028984126 -0.09602097
000180 27 1d 06 be d0 76 64 3d 83 49 53 3c 1b 7d 68 bd
       -0.13097058 0.05577737 0.0128959445 -0.056759935
000190 bc 09 7f 3c f3 95 b5 bc b0 5e 84 3d 84 82 0e 3e
       0.015566286 -0.022166228 0.06463373 0.13916975
0001a0 4d b4 9c bd 3f ce 3c 3d 00 a1 e3 bd 74 48 4c bd
       -0.07651577 0.04609513 -0.11114693 -0.049873784
0001b0 6e 9f 1c 3e 75 b9 11 3d db 60 23 3d 06 17 67 bd
       0.15295193 0.035577256 0.03988729 -0.05641844
0001c0 ea c3 6a bd fa d8 2f 3b 04 16 ce 3d 93 d1 e4 bd
       -0.057315744 0.002683221 0.10062793 -0.111727856
0001d0 30 3f 07 3e f7 cd 00 bd da 5b 44 3c e6 ec 04 3e
       0.13207698 -0.031446423 0.01198479 0.12980995
0001e0 00 04 fc 3c 25 1c 93 3d a0 c3 bd bd d9 eb dc bd
       0.030763626 0.071831025 -0.09265828 -0.10787172
0001f0 1b 1f 17 3d 3d fa 05 3d bb 5f ea bb 9c 93 eb 3d
       0.0368949 0.03270935 -0.0071525252 0.11502764
000200 a6 11 d3 bd 14 81 c0 3d f1 37 81 bc 6b f3 21 3d
       -0.103061005 0.0939962 -0.015773745 0.039538782
000210 1d 9a 8d 3c cb 4e 86 3d 90 c4 bb 3d d1 ac 39 bc
       0.017285401 0.06557997 0.09168351 -0.011332707
000220 04 92 9c 3d a6 eb 2d 3e f2 8c fc 3d 12 1f a0 3d
       0.07645038 0.16984424 0.12331571 0.07818426
000230 7f fd b6 bd 1f ad e7 3c 6a 6c d3 3d d9 be f5 3d
       -0.08935069 0.028280793 0.10323413 0.11999292
000240 e5 a7 77 3d 3f 3e e8 3d 89 54 31 3e a1 dc 4f 3d
       0.06046285 0.113399975 0.17317404 0.050747517
000250 0e 02 8f 3b b4 8a 50 bd 21 58 c4 ba 5e 71 51 bd
       0.0043642586 -0.050913528 -0.0014979878 -0.051133506
000260 c6 b7 1c 3d e3 c4 89 bd 1a eb 12 3e de c2 6a bd
       0.038261198 -0.06727006 0.14347497 -0.057314746
000270 8e 01 5a 3d f5 6c e8 3d 24 bd d2 3d 7b 47 22 be
       0.05322414 0.11348907 0.10289982 -0.1584758
000280 c5 17 e0 bd 98 ba b0 3d 46 5c 1f 3e 89 3a cf 3c
       -0.10942034 0.0862934 0.15562543 0.025296466
000290 29 36 89 3d 40 b9 c6 3d 0c 6e 63 b8 30 1e 24 bd
       0.06699783 0.097033024 -5.4223507e-05 -0.04006785
0002a0 4c 1c bf bd 9c f6 b4 bd 77 f6 8b 3d 1e 20 ce 3d
       -0.09331569 -0.088360995 0.06834119 0.100647196
0002b0 d0 00 b2 bd 1f 40 6a bd 77 5e 60 bc 65 0d af bd
       -0.08691561 -0.057190057 -0.013694397 -0.08547477
0002c0 37 98 a4 3d 00 cf 33 be 14 51 90 3c e3 8b fd 3c
       0.08036845 -0.17559433 0.017616786 0.030950492
0002d0 e3 69 64 bd 30 a2 e6 bd 34 10 31 bd f6 80 8f 3c
       -0.055765044 -0.112614036 -0.043228343 0.017517548
0002e0 3c d0 ec bd 8c 4c dd 3d f2 f9 a1 bd 46 03 e3 3d
       -0.11563155 0.10805616 -0.079090014 0.11084609
0002f0 8d 6f 6d bd ee 4a 29 bd d8 dd de bd 7a cf 02 3e
       -0.05796771 -0.041331224 -0.10882157 0.12774459
000300 22 d7 b9 bd 8f 43 0f be b4 09 27 3d ed e9 47 3d
       -0.090742365 -0.13990615 0.040780738 0.048807073
000310 ca b1 0a 3e 92 0c 82 bc c4 10 59 ba 07 1a 0e be
       0.13544384 -0.015875135 -0.00082803913 -0.13877116
000320 e4 c5 bf 3d 10 ee aa bd 44 00 dd 3d 8b d6 40 3d
       0.093639165 -0.08346188 0.10791066 0.047079604
000330 02 70 3f 3d 85 14 38 be b3 be c8 bd 8e ce bf bc
       0.04673768 -0.17976578 -0.09801998 -0.023413923
000340 36 b2 ce bc 69 de 7a 3d 5a 4d 24 3d 1e a4 c2 3d
       -0.025231462 0.061247263 0.04011283 0.09503959
000350 3b 43 c1 bd 16 2a 9d bd bb 35 60 bb 11 ec a4 3d
       -0.09436651 -0.07674043 -0.0034211713 0.080528386
000360 1b f4 03 bd b0 7d 05 be 89 39 48 be 26 b3 6b be
       -0.03221522 -0.13036227 -0.19553198 -0.23017558
000370 ab f7 df bd 3c e4 a9 bc b4 c6 48 be b1 5c f9 3c
       -0.10935911 -0.020738713 -0.19607049 0.030439707
000380 c6 f1 e0 3d ef d7 89 3c d0 e9 7b 3d f5 19 d7 bd
       0.109836146 0.016826598 0.061502278 -0.10502998
000390 70 45 95 3d 57 3e 74 bd 45 42 bf 3d f1 05 9a bd
       0.07288635 -0.059629764 0.09338812 -0.075206645
0003a0 0d ce 67 bd 2a aa bb 3d 67 f5 5a bd d8 4f 83 3d
       -0.05659299 0.091633156 -0.05345669 0.06411713
0003b0 e8 27 ca 3d f8 da f5 3c fa 0c a4 bb a2 19 6c bd
       0.09870893 0.030011639 -0.0050064297 -0.057641633
0003c0 dc 6f 1e 3d cb a3 ec bd 28 07 8c bd 70 25 2a bd
       0.038680896 -0.115546785 -0.068373024 -0.04153961
0003d0 47 9e 68 bd e4 c1 c5 bd 55 70 f4 3d 7b 13 bc ba
       -0.05679157 -0.09656122 0.11935488 -0.0014349067
0003e0 2e eb cd 3d 41 70 7d 3c 7e 8e c2 3d eb 4e e7 bd
       0.100546226 0.015468658 0.094998345 -0.11294349
0003f0 1e 82 1f bd d1 f7 dd 3d ab d9 00 3e 65 e2 64 3d
       -0.03894245 0.10838283 0.12583034 0.05587997

conv1.0.bias f4 [8]
000000 0b 4b 08 3e 26 40 93 3b 47 99 0f bd 8b e2 fe 3d
       0.13309877 0.004493731 -0.035058286 0.124455534
000010 49 e2 91 3d 2e b9 ce 3d 8c 75 de bd cb 97 42 bc
       0.071232386 0.10093914 -0.10862264 -0.011877011

conv1.1.weight f4 [8]
000000 e4 ca 80 3f 4c 67 7b 3f 8d 2f 7f 3f 50 b9 74 3f
       1.0061917 0.98204494 0.9968193 0.95595264
000010 a5 c9 80 3f 3b a3 73 3f ba 95 82 3f bc 8f 87 3f
       1.0061537 0.95170945 1.0201943 1.0590739

conv1.1.bias f4 [8]
000000 2c f1 5c 3a 7a bf 31 bd 0e 5d fe bc d8 54 eb bb
       0.00084282714 -0.043395497 -0.031050231 -0.007181745
000010 1f ac c3 bb 94 4f a1 3d 67 0f 32 bd bb b5 ce 3d
       -0.005971446 0.078765064 -0.04347172 0.10093256

conv1.1.running_mean f4 [8]
000000 35 6e 4e 3e 51 be e7 bc e8 13 d3 bd 79 83 6f 3d
       0.20159228 -0.028288992 -0.10306531 0.05847499
000010 d9 cf 38 3e 97 69 9f 3d 7f ac ea bd c0 1c 38 bc
       0.18048038 0.077838115 -0.11458682 -0.011237323

conv1.1.running_var f4 [8]
000000 d4 b0 4f 3d 97 ef 66 3c bf 67 83 3e 3a 65 cb 3c
       0.050705746 0.014095209 0.2566509 0.024828542
000010 01 2a 1a 3e 6a 46 0b 3d ce f2 a3 3c a9 3b f7 3c
       0.15055086 0.0340027 0.02001324 0.030179815

conv2.0.weight f4 [16, 8, 4, 4]
000000 4f b3 8c 3d 69 6b c5 3d d2 ce f9 3c c8 0e 3b 3d
       0.06870138 0.096396275 0.030494127 0.045668393
000010 d7 ea a3 bd bc 28 96 3d ae 45 41 bd 92 84 91 3d
       -0.080037765 0.07331988 -0.047185592 0.07105364
000020 a4 50 9d bd d6 b3 8c 3d 97 ed 52 3d 69 51 8e 3c
       -0.076813966 0.068702385 0.051496115 0.017372804
000030 b1 30 e8 bc 07 72 ce bd 48 a2 d0 bd d9 a4 95 3c
       -0.02834353 -0.10080343 -0.10187203 0.018267082
000040 d7 4e 87 bc c2 c4 c7 3d d2 78 93 3d 14 a2 bd bc
       -0.016517086 0.097543254 0.07200779 -0.023148574
000050 c1 e8 60 3d 05 92 8d bd 3c ae d8 3c 99 96 d1 bc
       0.05490947 -0.06912617 0.026450269 -0.025584506
000060 81 44 df 3c 47 05 0b 3c 87 b0 59 bd d9 3b ba 3c
       0.027254345 0.008485145 -0.053146865 0.022733616
000070 1f 17 1a 3d a2 98 e4 3c c2 53 d0 bc 09 24 b6 bd
       0.037619706 0.027904812 -0.025430564 -0.08893592
000080 d1 97 2c bd e2 9f 97 3c b7 15 2d 3d 93 75 1d bd
       -0.04213697 0.018508855 0.042257037 -0.038442206
000090 ad c0 b1 bd 29 6a 9c bc e0 b7 1c bc d0 fe 42 3d
       -0.08679328 -0.01909359 -0.009565324 0.04760629
0000a0 64 bf 16 bd f8 5a 8e bd 9b ec 48 bc e3 d1 d2 bc
       -0.036803618 -0.06950945 -0.012263442 -0.025734847
0000b0 15 93 d8 bd 69 1f bd bd f6 93 9c bd 3e d3 c2 bd
       -0.10574929 -0.09234507 -0.07645409 -0.095129475
0000c0 3e 73 31 3d 49 87 cb bc 1e 38 07 3d db 2b 7c 3c
       0.043322794 -0.024844782 0.033012502 0.015391315
0000d0 2d e6 a1 3c 83 3d de 3c ef b9 71 bd c4 1b 42 bd
       0.019763077 0.02712894 -0.05901521 -0.04738976
0000e0 dc 52 04 3b a0 8d f7 bc 68 ba 26 3c 70 b8 c7 ba
       0.002019099 -0.0302189 0.010176279 -0.0015237462
0000f0 7a 03 b3 3d a8 34 9e bc b4 0e 89 3b a9 d7 b0 b9
       0.087408975 -0.019312218 0.004182661 -0.00033730015
000100 55 42 77 3d 63 67 de bc fb 17 82 3b e1 79 38 3d
       0.060365994 -0.027148908 0.003970144 0.045038108
000110 93 2a 24 3d d9 5a 3e 3b d4 71 ce 3d 23 39 21 bc
       0.040079664 0.0029045849 0.10080305 -0.009840283
000120 12 6c 5a 3d 63 85 0a bd 9d ea a8 3d 90 de 4a 3d
       0.05332572 -0.033818614 0.08247874 0.04952866
000130 58 ed 9e bd 52 a3 cd bc 25 52 59 bd 9c 70 21 bd
       -0.077601135 -0.025102291 -0.053056855 -0.039414033
000140 9d c5 a9 bd 8c c6 c7 bd 33 00 ce 3b 47 97 10 3a
       -0.08289645 -0.09754667 0.006286645 0.0005515706
000150 73 02 91 bb ee ef ae bc 7e 42 2b 3d dd 93 10 3c
       -0.004425341 -0.021354642 0.04181146 0.008824316
000160 6e 23 76 3b e2 ed 88 3d 12 b4 40 3d 27 fe 91 3d
       0.0037557739 0.066859975 0.04704673 0.07128554
000170 49 7c a0 bb 78 be 07 3c 05 a9 8c bd 44 3d 3b 3c
       -0.0048976284 0.008285157 -0.068681754 0.011428181
000180 03 15 90 3d d7 33 57 3a 56 ac b5 3d 82 8a 46 3d
       0.07035258 0.0008209324 0.08870761 0.048471935
000190 92 aa 9c 3d 14 0d 1e 3d 42 8c cb 3c 40 8e 59 3d
       0.07649721 0.03858669 0.024847154 0.053114176
0001a0 85 78 8c bc 51 a6 f2 3c 58 d0 4a bc e8 97 66 3d
       -0.017147312 0.029620321 -0.012378775 0.056297213
0001b0 40 70 6e bb f1 89 c3 3d b4 e8 e1 3c cd 09 bd 3d
       -0.0036382824 0.095477946 0.027576782 0.09230385
0001c0 43 9e 92 b9 c3 82 87 3c 58 26 03 bd 03 07 e9 3b
       -0.00027965204 0.016541844 -0.03201899 0.0071114316
0001d0 b0 f1 08 bd 53 1e a0 bb 7c 1c e9 bc 97 46 cc bc
       -0.033433616 -0.0048864274 -0.028455965 -0.024936004
0001e0 10 6b 97 3d 5f e9 a2 3c 07 94 4c 3d 82 38 43 3d
       0.073934674 0.01988667 0.049945857 0.047661312
0001f0 75 c1 5d 3d c5 86 21 bc bd e3 51 3d e8 e8 0b bd
       0.054139573 -0.009858792 0.05124258 -0.034157664
000200 ec 7a d5 3c 5f 4d cb 3b 33 c8 fe bc 27 5e 74 bd
       0.02605959 0.0062042917 -0.031101322 -0.059660103
000210 46 55 40 bd ef b2 95 bd a0 bf 17 bd c4 4d 9c 3d
       -0.046956323 -0.073095195 -0.037047982 0.0763202
000220 08 83 55 3d 90 b9 8d 3a 9d fe ef bb ac 31 93 3d
       0.052126914 0.0010812748 -0.0073240534 0.071872085
000230 1b f1 5d bd df 16 b1 bb 95 a0 bf 3d fa ba 4a bd
       -0.054185014 -0.005404338 0.093568005 -0.04949472
000240 4e 1a 9c 3c 20 61 08 3d b7 8c 50 bd c4 03 98 bd
       0.019055512 0.03329575 -0.050915446 -0.07422593
000250 de 51 bc bd f8 bf 55 bd 80 46 ad bd d9 c1 09 bd
       -0.091953024 -0.05218503 -0.084607124 -0.033632133
000260 d3 78 40 3c 25 0c 49 bd 12 b2 75 3d 80 04 ee 3c
       0.011747557 -0.049083848 0.059984274 0.02905488
000270 0f e4 7a 3a 90 1c 05 bd cc 5d a5 3d db e7 e9 3d
       0.00095707265 -0.032497942 0.08074531 0.11421176
000280 e5 93 d0 bd 0f 67 f2 bc 46 28 86 3d a4 e8 a4 bc
       -0.10184459 -0.029590158 0.0655065 -0.020130463
000290 ce 42 84 3d a6 2c 0d 3d 29 78 31 3d 26 3a 7a bd
       0.064580545 0.03446641 0.043327484 -0.06109061
0002a0 a6 fe 97 3c 52 50 3c bc 7e f6 ae bd 61 e5 11 3d
       0.018554043 -0.011493759 -0.085431084 0.035619143
0002b0 26 76 66 3c 54 e2 5f bd b2 8d a2 3c f6 e3 7d 3d
       0.014066255 -0.054659203 0.019842956 0.06198498
0002c0 97 c1 c1 bc fe 7a 03 bd 12 3d cd 3d 29 41 ee bb
       -0.023651881 -0.032099716 0.10021414 -0.0072709513
0002d0 0d 6e 58 bd 18 ff 25 bd 77 49 58 bd 3e 4c 25 3d
       -0.052839328 -0.04052648 -0.052804437 0.040355913
0002e0 f6 22 e2 bc 80 15 81 bd 89 4b a6 bd 68 c8 56 3c
       -0.027604561 -0.06302929 -0.08119876 0.013109304
0002f0 93 c6 8f bd 38 a5 da 3b 83 bd 1a 3d ce bc 4c bc
       -0.07020297 0.0066725276 0.03777839 -0.012496186
000300 3f dc dc bc ed 98 81 bd 9f 0b 9c bb 1e fa 57 3b
       -0.02696049 -0.063279964 -0.0047621275 0.0032955478
000310 d4 27 96 bc 9b 31 2e 3d d3 d1 0c 3d e6 d9 51 bd
       -0.018329538 0.042527776 0.03437979 -0.051233195
000320 f8 9f 7b bd 9e 32 86 bd a0 10 a0 bd b4 29 41 3d
       -0.061431855 -0.06552623 -0.07815671 0.04715891
000330 12 52 fb bb 22 a3 ce bc 8c f0 c5 3d 88 d0 0d bd
       -0.0076696957 -0.025224272 0.09665021 -0.0346227
000340 a0 0e ec bc 06 7f 18 bd 97 72 98 bd f9 56 57 bd
       -0.028815567 -0.037230514 -0.07443731 -0.052573178
000350 f5 b2 1d 3d 03 9c 11 bd 5e 73 b9 bd bc 2d f1 bd
       0.038500745 -0.035549175 -0.09055208 -0.11776301
000360 f4 c3 a0 3c d3 fd 1b bd 1e 6c f5 bc 47 74 82 bc
       0.019624688 -0.038083863 -0.02995878 -0.015924586
000370 35 2e 5e 3c 16 38 8a bd 67 7d 1f bd b5 cc 71 3c
       0.013560821 -0.06748979 -0.038937952 0.014758279
000380 e2 32 87 3c 03 08 95 ba 49 45 f3 bc 7a 80 92 3d
       0.016503755 -0.0011370186 -0.029696124 0.07153411
000390 75 f4 4e 3d 41 bc 50 bd d9 33 2c bd 1f 02 ae 3c
       0.0505261 -0.050960783 -0.042041633 0.021241246
0003a0 55 58 aa bd 76 a5 5e bc 27 86 35 be de b9 77 bd
       -0.08317629 -0.013589254 -0.17726956 -0.06047999
0003b0 c0 cc 08 3b 14 30 97 bd e7 d9 af bd b6 7a c8 3c
       0.0020873994 -0.07382217 -0.085864834 0.024472576
0003c0 fc fb cb 3c 75 7d 73 bd 17 c7 a5 3b 16 56 56 bc
       0.024900429 -0.059445817 0.0050591337 -0.013082048
0003d0 b2 a0 2a be ec 8d 0f be 62 f8 bd bd b9 d1 8a 3c
       -0.16662863 -0.14018983 -0.09275891 0.016945707
0003e0 19 ac ed bc e9 d2 58 be d8 c3 ff bd df 4d 98 bd
       -0.029012727 -0.21174206 -0.12488526 -0.07436728
0003f0 93 64 80 bb ee c2 a2 bc fb 49 91 bd bd 6e f2 3c
       -0.0039182394 -0.01986834 -0.07094189 0.02959382

conv2.0.bias f4 [16]
000000 2a 1f b2 bd 4b 40 aa 3d 14 1e 88 3d 75 bd 44 bc
       -0.0869735 0.08313044 0.06646362 -0.012008061
000010 9f 06 10 bd bb 88 e4 3b b6 46 13 bd aa 01 6f bd
       -0.035162564 0.0069743074 -0.035956107 -0.058351196
000020 4a b7 a7 bc 1e 47 2c 3d db 2f 72 bd de 9d 07 bd
       -0.020473141 0.04206001 -0.05912767 -0.03310954
000030 ef 86 32 bd ea 51 ad bd 95 ef 8c 3d c4 aa 93 bd
       -0.043585714 -0.084628895 0.06881634 -0.07210305

conv2.1.weight f4 [16]
000000 3d e8 78 3f 2d 8b 88 3f f7 30 7b 3f 3a cc 7b 3f
       0.9722937 1.0667473 0.9812159 0.983585
000010 2a 86 7d 3f 9a 30 7b 3f cf 17 80 3f bf bd 82 3f
       0.99032843 0.98121035 1.0007266 1.0214156
000020 74 6e 75 3f 84 3d 80 3f b9 05 81 3f 00 52 81 3f
       0.95871663 1.0018773 1.0079871 1.010315
000030 7b 36 8a 3f d0 3b 7e 3f 29 36 80 3f 4d a9 7f 3f
       1.0797876 0.99310017 1.0016528 0.9986771

conv2.1.bias f4 [16]
000000 0f b1 d8 bb 96 fe e2 bb 19 a1 15 3c 63 56 a5 bd
       -0.006612904 -0.0069273217 0.009132647 -0.080731176
000010 34 b8 1e bc ea 71 26 bd 45 bf 04 bd 6b 3f 28 bd
       -0.009687472 -0.04063598 -0.03240897 -0.041076105
000020 5f 01 e8 bc 65 17 a9 3c 51 ab 33 3c ea 8b 43 bc
       -0.028320966 0.020641038 0.010966138 -0.011935214
000030 c2 b2 26 bd 15 1e a4 3c 86 bb ae 3c c8 cc 8c bb
       -0.04069782 0.020033875 0.021329653 -0.0042968728

conv2.1.running_mean f4 [16]
000000 70 ee 8f 3d 63 96 54 bf 83 2a 40 be 41 4d 89 3f
       0.070279 -0.8304197 -0.18766217 1.0726701
000010 49 75 53 be d4 b8 5f be 89 de d1 bb 40 2b 17 3d
       -0.2065021 -0.2184785 -0.006404702 0.03690648
000020 70 83 23 be f5 78 30 bf 37 58 85 bc ae df 04 3f
       -0.15968108 -0.68934566 -0.016277416 0.5190381
000030 8d ee 5a bd b4 11 f1 be 2b 5e 80 3d 53 6c 11 3e
       -0.053450156 -0.4708382 0.06267961 0.14201479

conv2.1.running_var f4 [16]
000000 2d db 88 3e af d0 b8 3e 06 00 05 3f 1c 78 b0 3e
       0.26729718 0.36096713 0.5195316 0.34466636
000010 13 22 61 3e 5b f4 f6 3d df 27 9a 3d e6 c3 39 3e
       0.21985655 0.12058326 0.07527136 0.18141136
000020 78 06 fd 3e 31 03 d8 3e 4e b8 25 3e 79 03 5d 3e
       0.49418998 0.42189935 0.16183588 0.21583356
000030 81 2c cb 3e c5 9f 79 3e 90 ce 65 3e 71 70 88 3e
       0.3968239 0.24377353 0.22442079 0.26648286

conv3.0.weight f4 [32, 16, 4, 4]
000000 fe 06 b7 3c 76 0d 85 bb ef 76 65 bd 83 3d 87 bd
       0.022342201 -0.0040604426 -0.056021627 -0.06603529
000010 20 f4 4a bd f2 02 70 ba f1 67 2a 3b 3a f9 85 bc
       -0.049549222 -0.00091557123 0.0026001895 -0.016354192
000020 59 9f 23 bd b3 f5 75 bc cc 15 27 bb 2b 40 3e bd
       -0.039946888 -0.015012193 -0.002549517 -0.046447914
000030 47 4b 16 bd 08 10 f4 3c 3e 51 dc 3c d4 1d 35 3c
       -0.036692884 0.0297928 0.026894208 0.011054475
000040 48 e1 a3 bd 53 3a 05 bd f4 a3 1f bc 64 63 4a 3a
       -0.08001953 -0.032526325 -0.009743679 0.0007720499
000050 0c dd ae bc 8e 4c f5 bc 6b 99 10 3d fd 50 20 bd
       -0.021345638 -0.02994373 0.03530256 -0.039139736
000060 f3 49 30 bd a8 30 88 bd 1c d2 90 bc 03 53 f0 3a
       -0.043039273 -0.066499054 -0.017678313 0.0018335286
000070 1b d2 06 bd b1 64 f0 3b a6 5d 28 bd 67 83 7c bd
       -0.032915216 0.007336222 -0.041104935 -0.061648753
000080 bf 0f 53 3d 74 f4 95 bb 5d ce 24 bb fc 42 ec 3c
       0.05152869 -0.00457626 -0.0025147416 0.028840534
000090 d0 96 95 3c e5 4b 53 bc 6f 0d 06 3c d2 7d 6f 3d
       0.01826039 -0.012896513 0.008181914 0.0584696
0000a0 52 5b 2d 3c 4b ec 39 3d 59 b4 5e 3c e6 21 c5 bb
       0.0105808545 0.045391362 0.013592803 -0.006016004
0000b0 22 17 0e 3c b7 41 9f 3c 83 3c ad 3c d7 72 49 3c
       0.0086725075 0.019440515 0.021147018 0.012295446
0000c0 62 1a 5c ba b3 c5 19 bc fd 27 01 bd 95 32 89 bd
       -0.00083962653 -0.009385514 -0.031532276 -0.06699101
0000d0 3e 8c 25 bc 3c 5a 64 3d 1a a5 e9 bc 64 aa 1b bd
       -0.010104237 0.055750117 -0.02852111 -0.038004294
0000e0 98 2e c2 3c 06 10 ea bc 01 f3 22 bd 71 43 5b bd
       0.023703858 -0.028572094 -0.039782528 -0.053531114
0000f0 0c 5b 2a 3d 1a a8 f0 bc 0a d2 3d 3d ba 00 79 bd
       0.041590735 -0.029377032 0.046342887 -0.06079171
000100 39 56 43 3d 67 63 6a 3c d1 99 fa 3c 6d 99 d0 3c
       0.04768965 0.014305926 0.030590924 0.025463784
000110 39 eb 84 3b e1 87 08 3c d6 62 13 3d 21 5a 75 bc
       0.004056361 0.008333177 0.03598293 -0.014975102
000120 94 e1 06 bc f0 6c c4 bc e5 8f 81 bc 92 5e d3 3c
       -0.008232493 -0.023977727 -0.015815685 0.02580193
000130 4b e5 44 bd e2 20 74 3d 58 96 14 bc c5 ce 21 bc
       -0.048070233 0.059601672 -0.009069048 -0.009875958
000140 67 f3 b2 bb 0e 43 0a 3d b3 94 30 3c 51 c3 b1 bc
       -0.0054611447 0.033755355 0.01077764 -0.02169958
000150 67 74 f9 bc 6d 6d 00 3d 60 74 bd 3b ac 8b 36 3b
       -0.030451013 0.031354357 0.0057816952 0.0027854247
000160 85 c4 68 3d 79 59 e7 bc 3c 9f 44 3c eb 4c ce 3c
       0.05682804 -0.028240906 0.012000855 0.025183162
000170 ab bc 2c bc bd bd 52 bd 8d 16 01 bc e4 55 05 bd
       -0.010543029 -0.05145048 -0.007878912 -0.032552615
000180 aa 68 97 3d da b1 15 3d 77 a4 9b 3b 4a 24 c7 ba
       0.0739301 0.036546566 0.0047498303 -0.001519331
000190 a4 92 09 3d 93 a3 81 ba 81 63 0e bd 2a 17 8f bc
       0.033587113 -0.0009890668 -0.034762863 -0.0174671
0001a0 ef e2 d7 3c 83 04 81 bd 01 60 80 bd 44 96 9a bc
       0.026353328 -0.06299689 -0.06268311 -0.01887048
0001b0 f5 5d 45 3d 6a 9b c4 bc b6 87 21 bd 71 03 9d 3c
       0.048185308 -0.023999888 -0.039436065 0.01916668
0001c0 22 9d 0b 3c e2 a2 44 3d 76 5d 5e bd 64 17 7e bd
       0.00852135 0.0480069 -0.05428835 -0.062034026
0001d0 5a ef 84 3d ef d5 92 bb 36 f7 4a bd 2c cd 1c bd
       0.06490965 -0.0044810693 -0.049552165 -0.038281605
0001e0 2d 14 8e bd 86 bf ec 3b ca bd 9c bd e8 a7 f1 bd
       -0.06937442 0.00722498 -0.07653387 -0.11799604
0001f0 ed b0 30 bc fb 19 8f 3d 4b 5e 73 ba 24 66 47 bd
       -0.01078437 0.06987377 -0.0009283765 -0.048681393
000200 22 9b 03 bc dc ae 52 bd 93 9e de bc d6 38 36 bd
       -0.008032592 -0.05143629 -0.027175223 -0.044487797
000210 3b 20 15 bc 71 38 30 3d f1 d5 7d bc 43 63 e1 bc
       -0.009101923 0.043022577 -0.015492902 -0.027513152
000220 83 f2 3a bd 58 19 8e bc 43 46 10 b9 1f 89 4d bd
       -0.045641433 -0.01734607 -0.00013759085 -0.050179597
000230 95 e8 11 bd 50 cb e5 3c 89 ee 1f 3c 90 4f 9a bd
       -0.035622198 0.028051049 0.009761461 -0.075347066
000240 ce 8d 85 bc a4 27 03 3d 48 1d 28 3d c0 5c 3a bd
       -0.01630297 0.032020226 0.04104355 -0.04549861
000250 dc 94 bb bb b1 6b 58 bd 77 81 a9 ba 4c 68 1e bd
       -0.0057245325 -0.052837078 -0.001293226 -0.038673684
000260 09 99 58 bd c1 b9 3f bd 21 f6 42 bc 34 9d 8a 3d
       -0.05288032 -0.046808008 -0.011899502 0.06768265
000270 06 48 87 3c f1 51 e0 3c 19 01 42 bd f3 3d 8f bd
       0.016513836 0.027382823 -0.047364328 -0.06994238
000280 25 c2 38 3d cd 6d a3 3d 18 d5 ef 3b 45 4c 16 3d
       0.045107026 0.07979927 0.007319104 0.03669383
000290 fd 9b b1 bc 3a 40 f9 3b e6 a9 e5 bb 33 15 2c 3c
       -0.021680826 0.0076065334 -0.007008779 0.010503101
0002a0 7b c7 8a 3d b6 be 3b 3d 42 0a 2b 3d de d9 f3 bc
       0.06776329 0.045836173 0.04175783 -0.029766973
0002b0 84 d6 2d 3d aa 5a 20 bd ce c4 8c 3c 85 f1 e0 3c
       0.042440906 -0.039148964 0.017183688 0.027458915
0002c0 aa af 82 3c 6c 93 2f 3d 1e ae 5b ba 22 12 98 bd
       0.015952904 0.0428652 -0.00083801325 -0.074253336
0002d0 b6 9d fa bb de a9 96 3c b9 9c ac bd b8 9f 6d bd
       -0.007648195 0.018391546 -0.0842833 -0.058013648
0002e0 e4 dc 8b 3d 2a f8 ef 3c 1e 24 39 3d c8 f3 9e 3b
       0.06829241 0.029293139 0.04520046 0.0048508383
0002f0 2e 58 59 3d 55 ed 32 bd 5d f1 6c bd 82 37 77 3b
       0.05306261 -0.04368337 -0.05784737 0.0037722294
000300 df cd 1b bd d1 5f 04 3c 62 ef 30 3d 3d 42 9e bd
       -0.03803813 0.008079485 0.043197043 -0.07727478
000310 1c cc d7 3c 65 f5 6a bc 1e 3b 37 bd 28 82 b0 bd
       0.026342444 -0.014340733 -0.044734113 -0.08618575
000320 26 cd 8f bc ba 62 b7 bd a0 2a 25 bd 26 e7 00 be
       -0.017553877 -0.089543775 -0.040323853 -0.12588176
000330 c2 17 6c bd cc 1b 30 3d ce 12 77 bd 12 d2 56 bd
       -0.057639845 0.04299526 -0.060320668 -0.052446432
000340 96 d2 53 3d 3d da 44 3c 91 58 0f 3d 03 a8 dc bc
       0.051714502 0.012014923 0.034996573 -0.026935583
000350 25 fa a0 3c a2 f9 80 3b 54 78 3d bb da 2d e3 bc
       0.019650528 0.0039360086 -0.0028910832 -0.027731825
000360 e3 12 08 3d 24 be 07 3d 34 44 11 3d 56 c7 32 bc
       0.033221137 0.033140317 0.035465434 -0.010911783
000370 5a 84 8e bc 9c 02 9d bd 97 02 07 3d 62 62 2b bc
       -0.017397095 -0.07666513 0.032961454 -0.010460468
000380 64 71 91 3d bc 3e 5e 3d c2 e0 1d bd 7a 68 02 bd
       0.07101706 0.054259047 -0.038544424 -0.031837918
000390 d7 81 a3 3c 87 f2 4b bd 7e 40 18 bd 8f 0a c4 3c
       0.019959373 -0.04979184 -0.03717088 0.023930816
0003a0 8a 2f bb 3b 11 6b 2c 3d 22 7c 53 3d a0 37 40 bd
       0.005712454 0.042094294 0.051632054 -0.046928048
0003b0 0e ce 19 bd 2b a6 2e 3d 1e b9 93 bd 9a e5 45 bc
       -0.037550025 0.04263894 -0.07213043 -0.012078667
0003c0 bf 8b 15 bc be 31 d1 3b 3d 6d 99 3c 28 82 ca 3a
       -0.009127556 0.0063841036 0.018728847 0.0015450167
0003d0 33 b1 83 3d e8 eb e0 bc 12 f3 29 3d 80 d2 36 3d
       0.064302824 -0.027456239 0.041491576 0.044634342
0003e0 d5 b6 29 3d e2 74 3c 3d e5 42 9b bd f6 e7 b1 bd
       0.041434128 0.046009906 -0.075811185 -0.08686821
0003f0 b6 6d 07 bd a5 17 b3 bb 92 d7 67 bd 6f 3c 4e bd
       -0.033063613 -0.005465465 -0.05660207 -0.050350603

conv3.0.bias f4 [32]
000000 bf 11 6c 3c 67 34 6d 3d 37 00 68 3c 63 f4 71 bd
       0.014408528 0.057911303 0.0141602075 -0.059070956
000010 c4 d5 86 3b f2 a9 61 bd 37 c6 c1 bc 09 02 7a 3d
       0.0041148383 -0.055093713 -0.023654087 0.061037097
000020 09 4e 0d 3d a3 b2 aa 3c c6 f0 73 bc f1 73 fe 3c
       0.03449825 0.020837134 -0.014888948 0.031061145
000030 bc c6 ff 3c a4 52 ee bb 95 1c 7c bd 98 ed 2b 3c
       0.031222694 -0.007273035 -0.061550695 0.0104936585
000040 5e 03 02 bd 83 89 96 3c 65 06 41 3d cc ff d1 3c
       -0.031741492 0.018376118 0.04712524 0.025634669
000050 2e 1b 3d 3d bb 2f 50 3d 24 90 37 3c 49 e9 3f 3d
       0.0461685 0.05082677 0.011203799 0.046853337
000060 4f 96 3f 3c 74 83 26 bd f5 a7 3e bc 57 f7 53 bc
       0.011693551 -0.040652707 -0.011636724 -0.012937388
000070 f7 14 7f bd 89 a8 4f bd 61 46 5c bd a1 d3 74 3d
       -0.062275853 -0.050697837 -0.053778056 0.059772138

conv3.1.weight f4 [32]
000000 8b ec 7c 3f 6f d6 7d 3f e2 84 80 3f 80 67 84 3f
       0.98798436 0.99155325 1.0040553 1.0344086
000010 4b 2f 7a 3f 4c d3 7d 3f 3e b8 7c 3f 36 e7 7b 3f
       0.97728413 0.9915054 0.9871863 0.98399675
000020 de 28 79 3f b5 0b 81 3f 4a ab 7c 3f 75 eb 7c 3f
       0.97327983 1.0081698 0.98698866 0.9879678
000030 59 2b 84 3f 03 4e 79 3f 54 48 81 3f db 30 82 3f
       1.0325729 0.9738466 1.0100198 1.017116
000040 5f 24 81 3f ba 6d 81 3f e7 95 7f 3f 9b d7 7f 3f
       1.0089225 1.0111611 0.9983811 0.9993836
000050 39 d0 7b 3f 41 76 86 3f 97 10 80 3f 25 8a 80 3f
       0.983646 1.0504838 1.0005063 1.0042158
000060 77 3b 7a 3f 7c 6e 79 3f 9f e9 85 3f 41 6c 81 3f
       0.97746986 0.9743421 1.046192 1.0111161
000070 6c 48 7d 3f 2c 06 85 3f 83 67 88 3f 32 0f 81 3f
       0.9893863 1.0392509 1.0656589 1.0082762

conv3.1.bias f4 [32]
000000 e7 29 8f bd 05 88 d2 bb 6c d7 8f bc 05 0c 29 be
       -0.06990414 -0.006424906 -0.017558776 -0.16508491
000010 ed 17 d2 bc 97 3e 14 bc d2 c7 c0 3c 63 02 96 3a
       -0.025646174 -0.009048126 0.023532782 0.0011444803
000020 58 80 b8 3c df b1 83 bc ef 0f 31 bb ea 08 4f 3d
       0.022522137 -0.016076026 -0.0027017554 0.05054561
000030 86 31 95 3d 8d 66 de bc 9c 93 6d bc 77 1b 23 bd
       0.072848365 -0.02714851 -0.014500525 -0.039821114
000040 8f ff 5e 3c d1 37 20 bc ce 3c aa bb 10 1a 6e bd
       0.013610735 -0.009778933 -0.0051952368 -0.058130324
000050 dd c0 51 bc 58 0d 17 bd 59 2b 12 3c dc e0 5b bc
       -0.01280233 -0.03687796 0.008921468 -0.01342031
000060 a1 74 b0 bb b1 b7 68 bc 15 36 45 bc d5 ef 1d 3c
       -0.005384997 -0.014203952 -0.01203682 0.0096397
000070 19 1b 37 bd 1f 19 23 bd 32 8e 80 bd 82 dd 3a 3b
       -0.044703577 -0.03981888 -0.062771216 0.0028513377

conv3.1.running_mean f4 [32]
000000 fd 65 0a bf 20 21 1f bf 8c 17 11 be 73 80 81 bd
       -0.5406187 -0.6215992 -0.14169139 -0.06323328
000010 ad 68 c2 be 37 67 99 3e 9e c1 e7 bd f4 b4 a9 3c
       -0.37970486 0.2996156 -0.113162264 0.020716168
000020 71 1a ae bd b1 04 8e be 7a 65 85 be 28 2b 06 bf
       -0.08501137 -0.27737954 -0.26053983 -0.524096
000030 a7 66 fa be 7d d1 62 bf c8 9a c5 be e4 d4 a4 be
       -0.48906443 -0.88600904 -0.3859465 -0.32193673
000040 bd bb e2 be e4 d4 1f be 08 e9 77 3d 09 8d 2a 3e
       -0.44283858 -0.15608555 0.06052497 0.16655363
000050 83 3c 15 bf 46 28 5c bd 12 6e 8f be 26 72 95 be
       -0.5829546 -0.053749345 -0.28013664 -0.2918865
000060 4f 59 31 3e 36 26 ce be b7 cd 9f be 35 64 09 bf
       0.17319225 -0.40263528 -0.31211635 -0.5366853
000070 25 ac 01 be ec b0 2b 3e 08 74 02 bf 38 6b e5 be
       -0.12663324 0.16766709 -0.509583 -0.44808364

conv3.1.running_var f4 [32]
000000 08 47 51 3e 9d 49 93 3e 0d d2 09 3e 4b 07 4e 3e
       0.20437253 0.287671 0.13459034 0.2011997
000010 d9 a7 7b 3e 74 7f 5b 3e 26 05 d8 3e e9 d3 86 3e
       0.24575748 0.21435338 0.42191428 0.2633355
000020 9c 28 e1 3d 77 9d 9d 3e 86 c1 59 3e c7 aa 8e 3e
       0.10994074 0.307842 0.2126523 0.27864668
000030 6e ea d0 3e d7 6a 27 3e f4 b0 43 3e e4 66 14 3e
       0.40803856 0.1634935 0.19110471 0.14492375
000040 e1 a6 3a 3e 97 98 38 3e 02 f4 28 3e a9 9f f9 3d
       0.18227722 0.18026958 0.16499332 0.12188656
000050 79 19 46 3e 19 e6 08 3e 6b bb 80 3e 25 37 80 3e
       0.19345655 0.13369025 0.2514299 0.25042072
000060 a1 46 43 3e bd 49 44 3e 04 ed 03 3e b4 ac c9 3e
       0.19069912 0.19168754 0.12883383 0.39389575
000070 14 6c 6c 3e 42 1b 23 3e 1e 54 11 3e c4 86 72 3e
       0.23088104 0.15928367 0.14192244 0.23684222

deconv2.0.weight f4 [32, 16, 4, 4]
000000 93 36 a2 bd 32 18 42 3c 20 39 9b bc f1 76 2c 3c
       -0.079205655 0.011846589 -0.018948138 0.010526405
000010 65 bc 29 bd 6c 58 81 3c 2c 46 bf bc a9 3e 19 3b
       -0.041439433 0.015789233 -0.02334889 0.0023383296
000020 78 84 40 bd a2 25 31 3b 28 66 1f bd 4a 41 7e bd
       -0.047001332 0.0027030488 -0.038915783 -0.062073983
000030 7a 22 12 bd 24 5f 25 3d 73 66 60 bd 7a ec 02 3d
       -0.03567741 0.040373936 -0.054785203 0.031963803
000040 e6 72 34 3c 03 cd 72 bc b4 3b b4 3c fb bb b5 bd
       0.011013722 -0.014819386 0.022001125 -0.08873745
000050 13 19 ed bc 70 5b ce 3c c1 48 e7 3d 57 1e 71 3c
       -0.02894262 0.025190085 0.112931736 0.014716706
000060 02 20 db 3c 5e 4e ce bc 4b 08 37 3d af 38 47 3c
       0.026748661 -0.025183853 0.044685643 0.0121595105
000070 33 2d 85 bd ed 21 5f 3d 1d 21 33 3d 77 fd 6b 3b
       -0.06502762 0.054475714 0.04373275 0.003600923
000080 7c ba 41 3d 41 58 39 3b 73 b7 46 3d 5f 21 63 3b
       0.047296986 0.0028281363 0.048514795 0.0034657342
000090 fb ff ec 3c 12 9f 3b 3d 90 ec 07 3b be 00 b9 3c
       0.028930655 0.045806 0.0020740367 0.022583362
0000a0 c8 69 1e 3d 2d 8b 07 3d fb 10 a2 3a 06 da ba 3c
       0.0386751 0.033091713 0.001236468 0.02280904
0000b0 30 59 30 3c a2 0e 62 bd aa aa 97 3b c2 6d 98 3b
       0.010763451 -0.055189736 0.004628499 0.004651756
0000c0 50 c3 d3 bc 15 a0 03 3d f7 48 1b bd 2d 26 15 3d
       -0.025849968 0.032135088 -0.03791138 0.03641336
0000d0 44 0f 92 bd 13 3b c4 bd 50 51 d9 3d 11 aa fa bc
       -0.07131818 -0.0958158 0.10611212 -0.030598672
0000e0 be bf a2 bd 45 84 8f 3c b0 47 93 bd b2 be 5d bb
       -0.07946728 0.017519126 -0.07191408 -0.0033835587
0000f0 ed 39 81 bc cf e8 f5 bd 6c 4c 97 3d 99 85 f6 bd
       -0.015774691 -0.12007295 0.07387623 -0.120372005
000100 a1 30 43 3c fe 30 5e 3d a2 c8 fb bb 71 26 f8 3a
       0.0119134495 0.05424594 -0.0076838294 0.0018932355
000110 6e 3e 07 bd 30 a6 9a bd 4a f7 12 bd 8e 04 aa bc
       -0.033018522 -0.07551229 -0.035880364 -0.020754125
000120 f1 0d 11 3b 5e cb 1e 3d 1a d8 1f bc a4 a7 db 3c
       0.0022133554 0.038768165 -0.0097561125 0.026813336
000130 da 4b 83 3d d2 8c 1b 3d 7d 2a 3a 3c d8 90 a4 3c
       0.06410952 0.037976094 0.011362669 0.020088598
000140 3b e8 cf bc eb c6 a4 3c 7f af 23 bd 6d 33 88 bd
       -0.02537929 0.020114383 -0.039962288 -0.06650434
000150 66 c3 61 3d b7 cf ff 3c 23 49 3b 3d 63 33 fc ba
       0.055117987 0.031226976 0.045724045 -0.0019241389
000160 b7 bb b9 3b 67 9d 11 bc 25 5f 86 bd 8e 07 ac bd
       0.0056681293 -0.008887625 -0.06561116 -0.083998784
000170 44 8c a2 bc 7a 70 7f 3c 29 08 d6 3c da 40 12 3c
       -0.019842274 0.015590781 0.026126938 0.008926595
000180 6c 49 44 bc 21 be 32 bd 6f 32 9d bd 40 69 67 3c
       -0.011980396 -0.043638352 -0.07675635 0.014124215
000190 00 8e 61 3d 26 ac 98 bd 8b 78 2e 3c 43 25 9e bc
       0.055067062 -0.0745471 0.010648857 -0.019304877
0001a0 da 5e c0 bc dc d5 b1 bc bd 5f 05 bb 44 95 29 3c
       -0.023482729 -0.021708421 -0.0020351254 0.010350529
0001b0 d3 b6 bf 3c a4 86 35 3d ec 12 16 3d d5 3f 5f bc
       0.023402607 0.044317856 0.03663914 -0.013626059
0001c0 05 c4 9f bd a1 99 b4 3c 51 98 ae 3a 6b 1e 2f 3c
       -0.0780106 0.022045912 0.001332054 0.010688405
0001d0 d6 7f 89 bc 20 02 38 3c 7e bd 4a 3c 1b 10 b5 3b
       -0.01678459 0.011230975 0.01237428 0.0055256016
0001e0 cc 74 8c bd 93 2a a9 3b 96 e6 48 3d c5 12 89 3c
       -0.06858215 0.005162546 0.04904803 0.016732583
0001f0 c5 da c0 bc c1 e0 02 3d 6a 8f cb bc 62 b5 e3 3b
       -0.023541817 0.031952623 -0.024848659 0.0069491128
000200 36 91 b1 3b 29 f1 28 bc 17 28 67 bc ae 7a f7 bb
       0.005418922 -0.010311403 -0.014108679 -0.0075524664
000210 76 92 45 bd a0 a5 40 bd 55 dd c2 3b 7d 94 14 bd
       -0.04823538 -0.047032952 0.005946795 -0.036274422
000220 5b 33 0a 3d 9c 09 08 bd 9f db fe 3c 96 7d 48 bd
       0.033740383 -0.03321229 0.031110583 -0.048947893
000230 29 84 a9 bc d1 2d 3c 3d 6a 4a ab 3c 9c 8e 3c bd
       -0.020692902 0.04594213 0.020909507 -0.04603444
000240 eb 34 e6 bb 31 4f 8d bc df b4 6e 3c 23 4b 31 bd
       -0.0070253513 -0.017249675 0.01456949 -0.043284547
000250 e0 81 3a 3d b7 0a 9a bc 80 c0 00 be 38 74 56 3c
       0.045534015 -0.018803937 -0.12573433 0.013089232
000260 88 c4 73 3d 98 cc a6 bc ba 24 46 3d 29 f2 c5 bd
       0.0595136 -0.02036123 0.04837487 -0.09665329
000270 d6 14 85 3d 19 9e 21 bc b7 36 fc bd eb 4f 2a bc
       0.06498115 -0.009864354 -0.123151235 -0.0103950305
000280 be 50 3f bd 67 6b ab bd 34 eb 50 bd 6d c5 a7 bd
       -0.04670786 -0.08370095 -0.051005557 -0.08191953
000290 3c 62 dc 3c de 6e 98 bc 5e 69 1b bd 21 e4 c0 bc
       0.02690231 -0.018607553 -0.037942283 -0.02354628
0002a0 f0 9f 0a bd 3f 11 c1 bd 38 9a ab bb ac b6 14 bd
       -0.033843935 -0.094271176 -0.00523689 -0.036307022
0002b0 6b 51 17 3d ea 67 dd bb 76 36 73 3c 45 3f 86 3b
       0.03694288 -0.0067567723 0.0148445275 0.004096898
0002c0 73 b9 75 bd b4 ea fd bc d0 2b 6d bd b8 a6 93 bd
       -0.05999131 -0.030995704 -0.05790311 -0.072095335
0002d0 e5 84 40 bb 86 50 55 bd d3 e0 85 3c ad a1 cf bd
       -0.0029376086 -0.052078746 0.016342556 -0.10138259
0002e0 ba 6a 99 bd cb d2 88 bd 4d 7e 6a bd d4 b7 cd bc
       -0.074910596 -0.066808306 -0.057249356 -0.02511207
0002f0 26 40 27 bd e6 d1 10 bd e5 4b 80 3c 6c cc 9a bc
       -0.04083266 -0.035356425 0.01566119 -0.018896304
000300 ee 66 33 bc 93 9d 98 3c f6 29 86 bd ca 4a 12 3d
       -0.010949833 0.018629825 -0.06550972 0.035715856
000310 7e f3 74 bd c6 25 2a bc 9e 50 d3 3a 4b 0b 3c bd
       -0.059802525 -0.010384982 0.0016122048 -0.045909207
000320 80 ee 51 bc 67 0a 80 3d c3 28 7c bd 15 e2 2e 3d
       -0.0128132105 0.06251984 -0.06156231 0.042696077
000330 95 a7 7d bc 33 9c bb bc ad ee 52 3c b3 10 2b bc
       -0.015481849 -0.02290163 0.012874288 -0.010440993
000340 05 5e 07 3a 2f b3 68 bc 8c 38 82 bd c6 96 1e bc
       0.00051638513 -0.014202877 -0.06358442 -0.009679502
000350 0a 95 94 3d ba c2 3e 3d 6f ed 92 bc 28 45 e4 3c
       0.072549894 0.046572424 -0.017935483 0.027865008
000360 56 25 78 3c 43 59 82 bc f2 84 7c bd ab 13 10 3c
       0.01514562 -0.015911704 -0.061650224 0.008793752
000370 d6 38 9b 3d ba ab 9d 3b 39 2e 1f 3d 84 6d 06 3d
       0.075792 0.004811731 0.03886244 0.032819286
000380 d2 21 91 bd bd 3b 88 bb 4a 78 89 bc 52 85 18 bd
       -0.07086529 -0.004157512 -0.016780991 -0.03723652
000390 4e 18 0f 3c f9 3d a7 bc 01 df a7 3c b9 01 94 bb
       0.008733822 -0.020415293 0.020492079 -0.004516807
0003a0 72 77 34 bd 56 27 6a bd a5 1f 5d bd 04 df a3 bd
       -0.044059224 -0.05716642 -0.053985257 -0.08001521
0003b0 13 b9 d1 ba 63 ee 31 bd b5 55 9e bb 64 7d 01 bd
       -0.0016000591 -0.043440234 -0.0048319944 -0.031613722
0003c0 55 ba 07 bd c3 da 7b bd c4 50 6b 3b f0 75 ae 3c
       -0.033136684 -0.061487924 0.0035906294 0.021296471
0003d0 c6 64 68 bc 78 8f c1 bc c6 11 cd bd 43 e6 ef 3c
       -0.0141841825 -0.023627982 -0.10013156 0.029284602
0003e0 4f 0c 0e bd ad c3 3b bd 46 91 6f 3c 35 e0 8c bd
       -0.034679707 -0.045840908 0.014622038 -0.068787016
0003f0 b9 13 b0 3d 30 9d c8 bc a2 c9 83 bd 19 61 b0 3b
       0.08597512 -0.024489015 -0.06434943 0.0053826687

deconv2.0.bias f4 [16]
000000 23 d6 f1 3c 2c bb 76 bd 51 80 f6 3c 2e 07 da 3c
       0.029521054 -0.060237095 0.030090483 0.026614752
000010 95 58 1e 3d 1a 6f 66 bd dc af 46 3d ba 16 86 bc
       0.038658697 -0.0562583 0.048507556 -0.016368259
000020 db ec 77 bd 47 bd 53 3d 09 3f e0 3c 9f b9 62 bd
       -0.060528617 0.05169418 0.027373808 -0.055352803
000030 a9 b7 d1 3c ec 35 6b bc ce ef 74 3c a3 20 85 3c
       0.025600271 -0.014356118 0.014949752 0.016250914

deconv2.1.weight f4 [16]
000000 6c 08 74 3f 6a 7c 81 3f e2 98 80 3f d9 a3 79 3f
       0.9532535 1.0116093 1.0046656 0.97515637
000010 25 3c 7d 3f 12 ba 72 3f 81 2f 73 3f 74 72 71 3f
       0.989199 0.9481517 0.9499436 0.94315267
000020 ea 13 77 3f a3 58 83 3f 0e cf 76 3f 0b ef 8d 3f
       0.9651476 1.0261425 0.9640969 1.1088575
000030 a7 c8 7b 3f 27 32 74 3f cc 98 85 3f 70 4c 80 3f
       0.98353046 0.95389026 1.0437255 1.0023327

deconv2.1.bias f4 [16]
000000 11 aa 09 3c 16 32 ba 3d bc c7 62 3d da 87 64 3c
       0.008402363 0.090915844 0.055366263 0.013948405
000010 a2 44 be 3c 0b b9 81 3c 60 8b f1 3c 15 73 32 bd
       0.023226086 0.015835306 0.029485404 -0.043566782
000020 8f 76 78 bc 3f 17 09 3e c2 89 03 3d 16 0f 46 bd
       -0.015164985 0.13387774 0.032113798 -0.04835423
000030 af 56 08 bd 22 df e6 3c ba 4f 39 3d 75 3e 99 3c
       -0.033285793 0.02818257 0.04524205 0.01870654

deconv2.1.running_mean f4 [16]
000000 db 20 34 bf e2 ac 15 bf a5 b5 92 be 59 18 16 bf
       -0.70362633 -0.58466923 -0.2865421 -0.586309
000010 67 9b 8a be e1 8f 55 bf 66 db 05 bf 10 5f ca be
       -0.27071688 -0.83422667 -0.522879 -0.39525652
000020 35 d8 31 bf 8c 6c 51 bf 92 85 6b bf a8 0e 46 bf
       -0.6947053 -0.81806254 -0.9200069 -0.77366114
000030 cd 18 55 bd eb 6e 80 be ac 9d 53 bf 52 06 68 bf
       -0.052025605 -0.25084624 -0.82662463 -0.90634644

deconv2.1.running_var f4 [16]
000000 50 34 45 3f e3 e5 60 3f 3b 66 64 3f 0d 76 2b 3f
       0.7703295 0.8785078 0.8921849 0.66977006
000010 81 01 0d 3f bf fd b8 3f 49 01 a6 3f 13 9c 33 3f
       0.5508042 1.4452437 1.2969142 0.70160025
000020 56 ab 0a 3f 65 96 08 40 4b c8 e3 3f ee b0 fe 3d
       0.5416769 2.1341794 1.77955 0.124360904
000030 6b 55 bb 3e d9 94 9a 3f 85 9e 15 3f 1b 98 47 3f
       0.36588606 1.2076675 0.58445007 0.7796647

deconv3.0.weight f4 [16, 8, 4, 4]
000000 85 bf 67 bd ae 60 a1 3c 73 e1 56 bc 0d 43 bd bd
       -0.05657913 0.01969942 -0.013115275 -0.092413045
000010 e8 72 af bd 44 bc 4f bd f9 27 a8 3c 2e 16 98 bc
       -0.085668385 -0.050716653 0.020526873 -0.018565264
000020 2c 22 68 bd f2 6b ac 3c c4 5a b5 3c 78 e6 90 3d
       -0.056673214 0.021047566 0.022138007 0.070752084
000030 e8 11 75 bd d6 df 05 bd 90 0e 10 3d 6c ad d6 bb
       -0.05983153 -0.03268417 0.035170138 -0.006551435
000040 91 5b fb bb be d3 21 bd 04 9d b6 3c d6 e0 a7 3d
       -0.0076708277 -0.039508574 0.022291668 0.08197181
000050 ad 02 17 3d 9a 3f e5 3c 39 ca 65 3d 00 69 ae 3c
       0.036867786 0.02798443 0.056101058 0.021290302
000060 ee 8d c2 bb 30 83 c2 3d 92 9d 52 3d ea de 27 3d
       -0.0059373295 0.09497678 0.051419802 0.04098407
000070 f1 0a 9d 3a b1 67 8c 3d 76 e4 82 3d 8f 28 e8 bc
       0.001198141 0.06855715 0.06391232 -0.028339652
000080 08 aa 5a 3d 22 61 03 3d 71 a9 d6 bc e1 4b 81 3d
       0.05338481 0.032075055 -0.026203843 0.06313301
000090 94 0d 4c 3d 9f f2 07 3e 5d 86 64 3c 23 c2 eb 3c
       0.049817637 0.13276146 0.01394805 0.028779095
0000a0 8f e8 a0 3c 75 d0 94 3d 8f 2e 5c bd 17 3c 8d 3d
       0.019642143 0.072663225 -0.05375534 0.06896227
0000b0 5a 9b 78 3c 7b cf ed 3c 4a 46 10 bc 12 7b 2d bc
       0.015173757 0.029029598 -0.008805821 -0.010588424
0000c0 df 4c e1 3c fb 22 b7 3d f6 e4 87 bd 25 33 85 3a
       0.027502475 0.08942219 -0.06635468 0.0010162337
0000d0 d6 28 d7 3b 6d ae 18 bd bd 78 e9 3c 08 33 b4 3d
       0.0065661473 -0.03727572 0.028499955 0.08798796
0000e0 e9 60 10 3d 3e 2b ac 3d 34 77 c4 bc 86 01 9d 3d
       0.03524867 0.08406685 -0.023982622 0.07666306
0000f0 c8 c6 fe 3c 50 2d 01 3d 12 49 95 3c a3 50 c7 3c
       0.031100646 0.031537354 0.01822332 0.024330443
000100 f9 c6 0e 3d 6a cf 5e 3d b1 24 1a bc db cd 4c bd
       0.034857724 0.054397024 -0.009408162 -0.050001007
000110 de a1 10 3d fe 6c 52 3c ef 7f 92 3c 0d 80 83 bd
       0.03531062 0.012843369 0.01788327 -0.06420908
000120 25 95 a1 bc fb 72 26 3d 9b a2 0f bd e8 19 9c 3b
       -0.019724438 0.040636998 -0.035067182 0.0047638305
000130 12 79 35 3b 45 e8 8c 3c b1 6d 48 bc 2b 7c 3e 3d
       0.0027690572 0.017200598 -0.012233184 0.046505135
000140 fc fa 9d 3c 1d ff a9 bc 40 90 15 3b e0 90 18 ba
       0.019284718 -0.02075153 0.0022821575 -0.0005819928
000150 95 41 11 3c 7c de 3d bc 3d 3c 96 3c 0a d7 91 3d
       0.008865734 -0.011588689 0.01833927 0.071210936
000160 34 39 66 ba 5b 97 34 3d 38 28 23 bd 52 09 db bb
       -0.00087823276 0.044089656 -0.039833277 -0.0066844607
000170 cf 80 53 3d 64 d3 4f 3c c8 c0 e9 3c 43 d8 ad 3c
       0.051636513 0.012684677 0.028534308 0.021221286
000180 ac 34 e6 bc 62 74 a6 bd 2e fd 02 bd 6f 70 7d bd
       -0.028101288 -0.08127667 -0.031979732 -0.061874803
000190 3d f0 38 3d 39 b7 2a bd 86 78 b2 bb 94 db 99 bc
       0.045150984 -0.04167864 -0.0054464964 -0.01878146
0001a0 f8 d1 04 3c ef 94 a6 3d 77 7d 06 3d b3 ce ed 3b
       0.008106701 0.081338756 0.032834496 0.0072573065
0001b0 b2 78 84 3b 70 e1 03 bd 09 37 b4 bc 23 47 3d bd
       0.0040427083 -0.032197416 -0.021998899 -0.04621042
0001c0 5e 44 26 3d 5a 33 a2 3d 63 34 0a 3d da 41 fa 3c
       0.040592544 0.07919951 0.033741366 0.030548979
0001d0 da c0 ae 3c 1e cd d0 3d 3c 5c 72 bd 4e 59 ef bc
       0.021332193 0.10195373 -0.059169993 -0.029217388
0001e0 43 ae 45 3d 61 e8 98 bd f4 67 d3 bc 44 d3 1c bc
       0.048261892 -0.07466198 -0.025806405 -0.009571854
0001f0 9b 88 3c 3d 5d ed 69 3d 7b 12 f7 bc 70 9e 1c 3d
       0.046028715 0.057111133 -0.03016018 0.038237035
000200 37 45 50 bc 17 e1 c6 3b d3 e1 81 3d 01 6e bc bd
       -0.012711815 0.0060693133 0.06341901 -0.09200669
000210 e3 b3 2e bd ee b5 14 bd 89 28 10 3e 6b c5 50 3d
       -0.042652022 -0.036306314 0.14077963 0.050969522
000220 74 e2 8a 3c e9 43 74 3c 76 1d 0b 3d 60 d2 09 bc
       0.016953684 0.014908769 0.033963643 -0.008411974
000230 38 ea ca bb 9d 21 11 bd 54 05 55 3d 32 31 0c 3b
       -0.006192472 -0.035432447 0.052007034 0.0021391627
000240 c7 8c 4b 3d c7 9d c5 bd a7 54 bc 3a 82 b2 18 bd
       0.049694803 -0.09649234 0.001436849 -0.037279613
000250 4a 8d e0 bc 56 09 a1 bd 98 23 c6 3d e8 26 46 bd
       -0.027411122 -0.07863109 0.09674758 -0.048376948
000260 5c ba 84 3c 46 ef cc ba b5 63 31 3c 84 9d 8f 3c
       0.016202144 -0.0015635274 0.010826995 0.017531164
000270 76 7a 22 3b b5 2f 1c 3b a4 7c 2d 3d 84 39 f7 3c
       0.002479223 0.0023832147 0.042355195 0.030178793
000280 cc e3 1e 3c c3 84 b7 3c ab 4c e9 3d 58 c0 28 bb
       0.009697866 0.022402173 0.113915764 -0.0025749411
000290 2e 30 12 bb f5 09 d6 3b f2 ba 15 bc b5 d2 57 3d
       -0.002230655 0.0065319487 -0.0091388095 0.05269118
0002a0 07 88 89 bc 9d ed 0e 3d ed 48 00 3b 81 06 ee bb
       -0.016788496 0.034894574 0.0019574717 -0.007263959
0002b0 3f 14 b7 bc e2 a4 b3 bc 31 37 00 3d 3c aa 6d bd
       -0.022348521 -0.021929208 0.031302635 -0.058023676
0002c0 9b c3 a0 bd f4 8c 0b bd cd b1 78 3d 24 0e 0a bd
       -0.07849809 -0.03406997 0.06071644 -0.03370489
0002d0 1e 76 a0 3d 2b 43 4b bd ee 75 44 bd da 55 28 3d
       0.07835029 -0.049624603 -0.04796403 0.0410975
0002e0 9a 5c 4a bd 0a 0c 0d 3d 63 e1 dd 3d 2a 4f 59 3c
       -0.049404718 0.03443531 0.10834005 0.013263503
0002f0 42 dc 50 3d 8a 25 2f 3b 7e e9 4e bd 40 52 24 3d
       0.050991304 0.0026725256 -0.050515644 0.040117502
000300 25 51 4a 3d 90 b8 7e bb 06 ba 9b 3c 71 65 51 3d
       0.04939379 -0.0038867332 0.019009601 0.051122133
000310 29 b1 a2 3d 31 b8 68 3d 90 5f 0e bd 2a 3e d3 3c
       0.07943947 0.056816284 -0.034759104 0.025786478
000320 26 4f 4b 3d 8c 38 16 3d 19 59 03 3d af f1 e1 3d
       0.04963603 0.03667502 0.032067392 0.110324256
000330 af 57 0f 3c 22 fd 04 bd c1 da 36 3d 2a 73 84 3c
       0.008748933 -0.03246797 0.044642214 0.016168196
000340 cc e8 bd 3c ef 28 66 bd c1 2e 1a bd f9 85 79 3d
       0.023182295 -0.05619138 -0.037642244 0.060918782
000350 f1 44 33 bd 03 70 32 3d 6a 36 fc 3d ba a4 fd 3d
       -0.04376692 0.043563854 0.12315066 0.12384935
000360 68 76 2b 3c 76 d4 5d 3d 3e 25 c5 3a 45 95 ea 3d
       0.010465242 0.054157697 0.0015041006 0.11454252
000370 e3 e5 bc 3d 8a 14 dc 3c e3 74 ae 3d d6 eb f5 3d
       0.09223535 0.026865263 0.08518388 0.12007873
000380 87 79 0f bd 4a 17 b6 bd c0 6d a1 bc ec 4f c4 3c
       -0.035028007 -0.08891161 -0.019705653 0.023963891
000390 bc 94 12 3d 85 33 a9 3c a2 6a d9 3d 4e 65 76 ba
       0.035786375 0.02065445 0.10616042 -0.0009399251
0003a0 f7 f3 d8 3c 22 de e7 bc 23 64 9a 3c ea b0 99 3c
       0.026483519 -0.028304163 0.018846577 0.018761117
0003b0 3c be 9d bb 3b 07 80 3b 57 f3 da 3d 11 c1 0d 3d
       -0.0048139375 0.003907112 0.10690945 0.03460795
0003c0 a6 cb b4 3c 75 df 45 3d f5 b4 d1 bb 2b 24 58 3d
       0.022069763 0.04830881 -0.0063997456 0.052768867
0003d0 37 f2 5c 3c 56 98 67 bc 03 dc 9b bd d2 70 ad bd
       0.013485483 -0.014135441 -0.07610323 -0.084687844
0003e0 c6 c7 4b bd 74 7e 0f bc 5b 6e 2a bd c7 09 82 bd
       -0.049751066 -0.008758176 -0.04160915 -0.06349521
0003f0 03 90 56 bc 77 64 2a bc 86 2f c8 bd df ae a2 bd
       -0.0130958585 -0.010399929 -0.097746894 -0.0794351

deconv3.0.bias f4 [8]
000000 d6 0f 91 bd 78 af 9c 3d 33 0b 5b bd 2a 9c 43 3d
       -0.070830986 0.076506555 -0.053477477 0.04775635
000010 a8 2a d0 3c 50 f8 7e 3d 6d 57 06 3d 88 48 81 3d
       0.025410965 0.062248528 0.03279822 0.06312662

deconv3.1.weight f4 [8]
000000 65 84 9e 3f 34 ad 9b 3f d1 38 9c 3f a3 40 9c 3f
       1.2384154 1.2162232 1.2204839 1.2207226
000010 3e f9 98 3f cc 18 9c 3f 4a c5 9d 3f 9c 1b 97 3f
       1.1951063 1.2195067 1.2325833 1.1805301

deconv3.1.bias f4 [8]
000000 99 e8 70 3e 9d cf 56 3e 58 34 5b 3e 05 4e 5d 3e
       0.23526229 0.20977636 0.21406686 0.21611793
000010 62 24 4a 3e 44 ac 5a 3e 50 1e 6a 3e ba c9 3e 3e
       0.19740441 0.21354777 0.22863126 0.1863164

deconv3.1.running_mean f4 [8]
000000 a9 95 37 be 23 5a fa bc 33 94 ba 3d d7 6e 07 3e
       -0.17928185 -0.030560559 0.09110298 0.13225876
000010 69 c1 cf 3e 3f 37 ec 3e 41 48 0c 3d c7 ef d8 bd
       0.40577248 0.461359 0.034248594 -0.10592609

deconv3.1.running_var f4 [8]
000000 03 af a2 3d 77 e6 7b 3d 4a f1 ca 3d 01 f0 94 3d
       0.07943537 0.061499085 0.099093035 0.072723396
000010 d2 5a 4e 3d 4e f7 84 3d 71 41 a3 3d e5 3a a0 3d
       0.05037958 0.06492482 0.07971466 0.07823733
