03_hw/Pix2Pix/checkpoints/pix2pix_model_epoch_510.pth (torch, 99191 bytes, 32 tensors)

conv1.0.weight f4 [8, 3, 4, 4]
00000000: 68f4 ccbd f312 ebbd 4bed 5cbd 1b9d 3dbe
00000010: e487 6f3d 8b3b d1bd e87a b0bc 1c8b 793d
00000020: f03d 11be 2056 3abd 5a22 87bb 0488 243d
00000030: e7ab b9bc feb2 953d ce78 903d 8794 0bbe
00000040: 162f 093e 853d 403e b11e 623d 9c58 ddbb
00000050: fbca 0f3d e188 cfbc 6b37 a0bd 62c1 493d
00000060: ad64 f33d b650 5a3d 36f1 223d 8df1 25bd
00000070: 57ee 97bd b5a5 ec3c f85a 84bd 2766 2a3e
00000080: 1b3a d5bd df88 213d 7fd0 17be 4791 573d
00000090: b81d e2bd 25ef d9bd 7e1b cdbb 07a8 f7bd
000000a0: edbc d33c b535 c6bc 5d5a cfba c537 16bd
000000b0: a70d 3dbd a982 333d 48e5 943d 7689 3c3d
000000c0: c142 8fbd 70ae 8d3d 2bbf 99bc e0ef 96bc
000000d0: c9b0 7ebb 6749 e83d c75b 0b3d 49dc 3cbc
000000e0: 8a76 153e efb8 b33d 361d ccbd 1529 95bd
000000f0: 8c95 0e3d f140 023e ded6 f3bc 5eeb b2bc
00000100: c895 24bb 4606 0a3e 9f82 373c 0043 acbd
00000110: ac9b 39bd 3014 9dbd 1e19 1b3d 50db 06bd
00000120: 7b66 fd3c f23f 0dbc 9d26 183d 0def 02be
00000130: e055 7e3d 304f e0bc 2111 773d f5f7 bc3d
00000140: 422e 0b3b fcfd 80bd fa5f 453d 39b5 04be
00000150: d4cb 66bd 2f7d aa3d 51fe 94bd d83e 863d
00000160: 04eb b5bb 41da 90bb 1d41 91bc d4ba 9b3b
00000170: 62a3 80bd 96a6 bebd a467 edbc 3f6a c5bd
00000180: b5d4 06be 5bbb 623d 5e4a 5c3c aa4a 68bd
00000190: 345e 5a3c 9ae2 c0bc fa81 843d c00d 0e3e
000001a0: 2e1a 9ebd 96d7 3b3d a86d e4bd 24d1 4cbd
000001b0: e3fd 1d3e b901 113d 2bcd 263d 06d5 61bd
000001c0: a74b 6cbd 9e2f 123b 83f8 ce3d ac76 e6bd
000001d0: 6a7b 043e 407f 04bd 6fd6 5b3c 2b8c 043e
000001e0: 684c fe3c af10 953d d891 bdbd 0e0c dcbd
000001f0: f0b4 203d 8332 033d d6b9 b9bb 62d7 ee3d
00000200: b369 d1bd 045a c13d 13f1 76bc bd52 1c3d
00000210: a2bd 863c dfef 853d 10b3 bf3d e1fa 5bbc
00000220: 5d56 9e3d d4eb 2e3e 19e5 fa3d 6e72 9d3d
00000230: 4767 b5bd 788e da3c 87c8 d03d 42cc f13d
00000240: 847c 773d 49a6 e93d ed6d 313e 5a17 4d3d
00000250: 20e0 933b 16f4 4fbd d3d5 87ba 2961 51bd
00000260: ed4d 1d3d a90a 8abd b398 123e 4a31 6ebd
00000270: 4adf 593d 3b71 e73d edd5 d03d af79 22be
00000280: 7285 dfbd 1add b23d 8ba3 1f3e 0cd7 d23c
00000290: 8ea2 8a3d 4920 c83d 338d 383a a888 20bd
000002a0: 5ba0 bdbd 801c b4bd 822e 8c3d 34f1 cd3d
000002b0: 8309 b0bd 68ea 68bd ad40 65bc 38a1 adbd
000002c0: b1e0 a23d 45f8 33be 81fd 8c3c 3fb4 003d
000002d0: e3ee 65bd db2a e7bd b543 30bd 86b1 963c
000002e0: 313d edbd 13ad dc3d ebb4 a2bd 2dc0 e23d
000002f0: 2f5d 6dbd 5d30 2bbd bc4f e0bd 4b6e 033e
00000300: 43cc bcbd 74c6 0ebe 59cc 223d a4e0 4a3d
00000310: 2da4 093e ecf5 7bbc 938d c9b9 e4d2 0ebe
00000320: 46dd c03d f928 9ebd 4e90 e93d 1348 563d
00000330: e778 3f3d a38f 32be 882a bcbd 3b96 94bc
00000340: 33e5 dabc 3272 793d 517f 1d3d ca4b c13d
00000350: 1de8 c3bd 76bf 9ebd fd11 95bb 66d7 a03d
00000360: 5981 07bd 6f6c 04be 0be4 47be 5f78 6cbe
00000370: 272f e2bd ec51 aabc 0fd2 49be 62e3 f73c
00000380: ff37 e13d 4a84 913c 8d8f 7b3d 96eb d5bd
00000390: 29a0 953d f900 72bd 45b4 bf3d b36f 9bbd
000003a0: 550b 66bd 1c8b be3d 6693 57bd 8118 833d
000003b0: 8ac0 c93d 7cdb f73c 469a b5bb fffe 6dbd
000003c0: 5cfe 1d3d 7a79 ecbd 09f4 8bbd 56c2 28bd
000003d0: 9608 6abd 478f c5bd 489d f33d 801d 14bb
000003e0: 6f2f ce3d 9d63 7b3c 85d1 c13d 9e5c e8bd
000003f0: 32b5 1dbd 2732 dd3d 53f6 003e 83a0 603d
-0.10007554 -0.11478224 -0.053937238 -0.18516962 0.058479205 -0.10216435 -0.021542981 0.06092368
-0.14183784 -0.04549229 -0.004123968 0.040168777 -0.022664977 0.07309531 0.07054292 -0.13630877
0.13396868 0.18773468 0.05520505 -0.006754948 0.035105687 -0.025333824 -0.0782307 0.04925669
0.11884437 0.05329963 0.039780818 -0.040513564 -0.074185066 0.028887609 -0.064626634 0.1664053
-0.10411473 0.03943717 -0.14825629 0.05262878 -0.11040825 -0.10641316 -0.006259381 -0.120925955
0.025846923 -0.024195531 -0.0015819777 -0.03667428 -0.046155598 0.04382578 0.072702944 0.04602953
-0.06995154 0.06918037 -0.018767914 -0.018424928 -0.0038862696 0.113421254 0.034023073 -0.011527129
0.14596 0.08775508 -0.09966509 -0.072832264 0.034810588 0.12720086 -0.029765543 -0.021840747
-0.002511369 0.13478956 0.011200576 -0.08411217 -0.045314476 -0.07669866 0.03786575 -0.032923996
0.030932656 -0.008621203 0.0371462 -0.12786503 0.062093616 -0.02738151 0.06031907 0.092269816
0.0021237289 -0.06298444 0.048187234 -0.12959756 -0.05634673 0.08324658 -0.072750695 0.06554955
-0.0055516977 -0.004420549 -0.017731244 0.0047524963 -0.06281163 -0.093091175 -0.028980084 -0.096394055
-0.13167079 0.055354457 0.013445465 -0.05671183 0.013328124 -0.023545552 0.064701036 0.13872433
-0.07719837 0.045859896 -0.11153728 -0.05000414 0.15428881 0.035402033 0.040723007 -0.055134796
-0.057689335 0.0022306214 0.101059936 -0.112531036 0.12937704 -0.032347918 0.013417824 0.12944095
0.031042293 0.07278573 -0.09256333 -0.10744487 0.039235055 0.032030594 -0.0056679053 0.11662175
-0.10225239 0.09440997 -0.015072125 0.038164843 0.016447846 0.065398924 0.09360325 -0.013426513
0.07731316 0.17082149 0.12250728 0.07687841 -0.08857589 0.026679263 0.101944976 0.11806537
0.06042148 0.114086695 0.1732709 0.050071098 0.0045128018 -0.050769888 -0.0010363407 -0.05111805
0.038404394 -0.067403145 0.14316063 -0.058152474 0.05319146 0.11300894 0.10197053 -0.15866731
-0.109141245 0.08733578 0.1558973 0.025737308 0.06769286 0.09771783 0.00070400833 -0.039192826
-0.09259101 -0.087944984 0.06844808 0.100557715 -0.08595564 -0.056864172 -0.013992471 -0.08478016
0.07953013 -0.17575176 0.017210724 0.031421896 -0.056136023 -0.11287471 -0.04303332 0.018395197
-0.11583937 0.10775199 -0.079446636 0.11071811 -0.057950195 -0.04179417 -0.10952708 0.12835042
-0.09218647 -0.13942891 0.039745662 0.04953064 0.13441534 -0.015378457 -0.00038443189 -0.13947636
0.094172046 -0.07722659 0.11404477 0.05231483 0.04674616 -0.17437606 -0.091878 -0.018138042
-0.026720619 0.06089992 0.038451497 0.09438284 -0.095657565 -0.07751362 -0.0045492635 0.07853584
-0.03308234 -0.12931989 -0.19520585 -0.23092793 -0.1104415 -0.020791017 -0.19709037 0.030259792
0.109970085 0.017763276 0.061416198 -0.10445325 0.07305939 -0.05908296 0.093605556 -0.07589664
-0.05616315 0.09303877 -0.052630804 0.06401158 0.09851177 0.030256025 -0.0055420725 -0.05810451
0.038572654 -0.11546607 -0.068336554 -0.04120096 -0.057137094 -0.096464686 0.118952334 -0.0022600591
0.10067641 0.015343574 0.09463791 -0.1134579 -0.03850288 0.108005814 0.12593965 0.054840576

conv1.0.bias f4 [8]
00000000: 195e 083e ea86 8d3b d146 0fbd 64dd fe3d
00000010: 76b8 913d 94b7 ce3d 02a6 debd 1664 42bc
0.13317145 0.0043190615 -0.034979645 0.12444571 0.07115261 0.100936085 -0.10871507 -0.011864683

conv1.1.weight f4 [8]
00000000: f6cb 803f 099d 7b3f 1c8d 7f3f a38f 743f
00000010: 19d7 803f dcf8 723f 49a0 823f 5440 873f
1.0062244 0.9828649 0.9982469 0.9553167 1.0065643 0.9491098 1.0205165 1.0566506

conv1.1.bias f4 [8]
00000000: bff1 5dba e99b 2dbd d084 01bd d8fd 13bc
00000010: a337 98bb ba1e a13d 48f3 33bd b20f d33d
-0.0008466504 -0.042385016 -0.0316208 -0.009032689 -0.0046453043 0.07867189 -0.043933183 0.10305728

conv1.1.running_mean f4 [8]
00000000: 6b08 4d3e 76ac e7bc c1f8 d1bd 7147 6e3d
00000010: c0f4 323e 6a4a a03d c418 ebbd 0ff7 38bc
0.20022742 -0.028280478 -0.10252524 0.0581736 0.17476177 0.07826693 -0.11479333 -0.011289372

conv1.1.running_var f4 [8]
00000000: ae99 483d 72d2 673c 3c59 823e 1686 ce3c
00000010: c119 0f3e d760 0a3d 62b9 a33c 7236 f73c
0.048974685 0.014149295 0.25458705 0.025210422 0.13974668 0.03378376 0.019985858 0.030177329

conv2.0.weight f4 [16, 8, 4, 4]
00000000: 608e 8a3d db4c c43d f629 f83c 24ba 383d
00000010: d5a7 a4bd c902 963d cab2 3fbd 7c7c 913d
00000020: e45f 9cbd 23f7 8d3d fa92 523d 988e 923c
00000030: da3c e9bc 2895 cfbd 6ed3 d0bd 731e 933c
00000040: 69bd 89bc 34f0 cd3d 76dc 953d eca0 b1bc
00000050: 28ce 603d 30f6 88bd 3148 cc3c 231a c4bc
00000060: a692 e83c a79a 083c 7d60 58bd a555 b43c
00000070: 7318 1b3d 5d3c e33c 504e d0bc ed18 b6bd
00000080: 79b5 2dbd 95df 923c 3e9a 2a3d 6991 1fbd
00000090: 0488 b2bd aecd 9dbc 3e91 25bc 4c1b 453d
000000a0: c80b 1abd 387f 8fbd 4fa3 4cbc 2fe4 d3bc
000000b0: 2959 dabd 2f09 bebd 6507 9dbd 04f1 c3bd
000000c0: 461e 2a3d d4af d0bc 2f0f f73c c494 7b3c
000000d0: e381 913c dee0 d93c ba64 79bd 813f 45bd
000000e0: b272 bb3a 88ec febc 8302 253c fe96 07bb
000000f0: d03d b63d 60d1 9bbc 6d3d c63b 30bc 8a38
00000100: da24 753d 5657 e0bc 7a90 6e3b 4761 363d
00000110: d5ec 243d 9038 613b 92ba ce3d cdab 20bc
00000120: a08f 5b3d fdcf 0abd 946b a93d 9505 4a3d
00000130: 0c80 9ebd 4315 c7bc 407c 57bd 930f 1fbd
00000140: f7ae a9bd 3d40 c8bd 21f6 ce3b 0539 913a
00000150: e214 b9bb a1ef b1bc 1461 303d 52f9 053c
00000160: 5db5 6a3b cd85 883d ffaa 403d e15b 903d
00000170: 6c69 c2bb 06a1 fa3b 106e 8abd c879 3b3c
00000180: a340 8d3d 131b eb3a ddd1 b63d cbe2 453d
00000190: 65bd 993d c04c 223d 1985 d13c ca92 5f3d
000001a0: a3fd 83bc 6a27 f43c 3f23 39bc 1af5 643d
000001b0: 772f 41bb 9de1 c13d ab0a e43c e607 c03d
000001c0: 1f76 dc3a 6689 803c 0348 03bd ca46 c93b
000001d0: 2c15 06bd 5f68 cabb 487d ebbc 7fba c1bc
000001e0: 83ca 973d 6082 a23c 5311 4c3d 0e6f 443d
000001f0: 77f0 5b3d 6e02 29bc 6bde 493d e9df 08bd
00000200: 2380 d23c 1e00 c23b 648c 01bd 6d44 76bd
00000210: 652e 3fbd d8b4 95bd 8df0 17bd fd47 9b3d
00000220: b3a4 523d 1469 323a 9557 fbbb 2b81 923d
00000230: 14a3 5dbd bc41 c0bb d517 c03d a48b 4dbd
00000240: b674 a03c f31d 0e3d 13f7 54bd c984 95bd
00000250: 3d24 bdbd 9db6 57bd c5d3 adbd 12fe 05bd
00000260: 3f1a 253c 2f53 4fbd 7cef 753d 1e6b ef3c
00000270: af40 ce39 6d74 02bd d7dd a73d 677d eb3d
00000280: 59e2 d2bd c298 f6bc 298a 863d bb74 9dbc
00000290: 4eee 823d 604e 0d3d 5383 333d 5418 77bd
000002a0: ff5b 953c 4a91 37bc 518a adbd 48b0 143d
000002b0: 7eda 633c 48ac 5dbd 4c37 a83c 3616 803d
000002c0: e3d9 c8bc 9cb1 0bbd c428 cc3d 6d02 fbbb
000002d0: 0771 5dbd c6d6 2cbd 5fee 58bd eab6 333d
000002e0: 83b7 d6bc c745 78bd f1a4 a6bd ed67 833c
000002f0: 645e 90bd b863 1d3c c481 1f3d da34 1ebc
00000300: 843a d6bc efb6 80bd 0fa9 93bb 59d4 693b
00000310: c074 92bc 1728 2f3d 97ef 0c3d 00c7 50bd
00000320: a418 7abd 164f 86bd 51dd 9fbd d58c 3f3d
00000330: 5eef dbbb 3251 c4bc 753a c63d f4a4 0dbd
00000340: a23f eebc 281e 1abd 003e 98bd 05de 55bd
00000350: bf11 213d 02e7 0ebd b675 babd 8369 f0bd
00000360: 5911 a03c 848e 14bd 9843 eebc 15c5 62bc
00000370: f11f 5b3c bc11 8abd ffa7 1abd 68e4 723c
00000380: 8230 6d3c d151 95bb bc68 fcbc 7a4b 8e3d
00000390: d56d 4b3d 83a6 52bd e315 2bbd 3de9 af3c
000003a0: 5479 a9bd 29ce 5abc 19c5 35be 5de4 77bd
000003b0: 390e f93a e849 98bd 7c58 adbd 11f1 d13c
000003c0: 8467 d03c 8d1d 74bd 8f41 893b 4ed6 65bc
000003d0: 7239 2dbe 12cb 0fbe 3544 bcbd fe11 8a3c
000003e0: 5a41 e0bc ad0e 58be 2430 fdbd 93e6 98bd
000003f0: 7b7a 90ba c0ec 98bc 7f34 96bd 9cd4 dc3c
0.06765437 0.095849715 0.030293446 0.045099393 -0.08039824 0.0732475 -0.046801366 0.07103822
-0.07635477 0.06931903 0.0514097 0.01789026 -0.0284714 -0.10135871 -0.10196577 0.017958855
-0.01681395 0.10055581 0.0731744 -0.021683179 0.054884106 -0.066875815 0.024936767 -0.023938244
0.02839024 0.008337653 -0.052826393 0.022013495 0.037865113 0.027738744 -0.025427967 -0.08891473
-0.042409394 0.017928878 0.041651003 -0.038957033 -0.08717349 -0.019263115 -0.010105429 0.048121735
-0.03760889 -0.07006687 -0.012490108 -0.025865642 -0.10661537 -0.092790954 -0.07667426 -0.095674545
0.041532777 -0.025474466 0.030158607 0.015355293 0.01776213 0.026596483 -0.060887076 -0.048156265
0.001430115 -0.031118646 0.0100714 -0.0020689364 0.088985085 -0.019020736 0.006049803 6.6154054e-05
0.059849598 -0.027385395 0.0036402033 0.044526365 0.040264923 0.003436599 0.10094179 -0.0098065855
0.05360377 -0.03388976 0.08272472 0.04932173 -0.07739267 -0.02430213 -0.05260873 -0.038833212
-0.08285325 -0.097778775 0.006315962 0.0011079615 -0.0056482414 -0.02172071 0.04306133 0.008177118
0.0035813667 0.066661455 0.047038075 0.070487745 -0.0059329774 0.00764859 -0.06759274 0.011442609
0.06897094 0.0017937146 0.08926747 0.04831199 0.07506827 0.039623976 0.025576161 0.05458335
-0.016112154 0.02980395 -0.011299907 0.05589781 -0.0029477754 0.094668604 0.027837118 0.093765065
0.0016819871 0.015690517 -0.032051098 0.006142472 -0.032735035 -0.006176993 -0.028746262 -0.023648499
0.07411673 0.019837558 0.04982121 0.047957473 0.053696122 -0.010315521 0.04928438 -0.033416662
0.025695866 0.005920424 -0.031628028 -0.06012385 -0.046675105 -0.07309884 -0.03709464 0.0758209
0.0514266 0.0006805819 -0.0076703527 0.07153543 -0.0541106 -0.005867211 0.093795456 -0.050182
0.019586902 0.03469653 -0.05199344 -0.073007174 -0.092354275 -0.052664388 -0.084876575 -0.032713003
0.010077058 -0.05061644 0.060042843 0.029225882 0.00039339575 -0.031849314 0.081966095 0.11498528
-0.10297079 -0.030102137 0.06569321 -0.0192207 0.06393109 0.034498572 0.043826412 -0.060325935
0.018232344 -0.011204073 -0.084736474 0.036300927 0.013907073 -0.05411938 0.02053418 0.062542364
-0.024517959 -0.03410493 0.09968713 -0.0076602013 -0.05406287 -0.04219701 -0.052961703 0.043875612
-0.026210552 -0.06061342 -0.08136929 0.016040767 -0.070492536 0.009606294 0.038942114 -0.0096561555
-0.02615095 -0.06284892 -0.0045062373 0.0035679548 -0.017877936 0.042762842 0.03440818 -0.05097103
-0.061058655 -0.06558053 -0.07805885 0.046765167 -0.0067118844 -0.023964498 0.096791185 -0.03458114
-0.029083077 -0.037626415 -0.074337006 -0.052213687 0.039323565 -0.034888275 -0.09104483 -0.11738875
0.019539522 -0.036268726 -0.029084966 -0.013840933 0.013374315 -0.06741664 -0.03775787 0.014824964
0.014476897 -0.0045568724 -0.03081166 0.0694799 0.04966529 -0.05142833 -0.04176892 0.021473521
-0.08275095 -0.0133548165 -0.17750968 -0.06052052 0.0019001431 -0.074359715 -0.08464143 0.025627645
0.025439985 -0.059598494 0.0041887234 -0.014028145 -0.16916445 -0.14042309 -0.09192697 0.016854282
-0.027374912 -0.21099348 -0.12362698 -0.074658535 -0.001102283 -0.018667579 -0.073342316 0.026956849

conv2.0.bias f4 [16]
00000000: 6e27 b2bd f835 aa3d c723 883d 301c 45bc
00000010: d9ee 0fbd 2ef0 e23b 0849 13bd 52ec 6ebd
00000020: c5c4 a7bc 4144 2c3d 0024 72bd 71a6 07bd
00000030: 138b 32bd f958 adbd fce2 8c3d aa95 93bd
-0.08698927 0.08311075 0.06647449 -0.012030646 -0.035139892 0.0069256043 -0.03595832 -0.05833084
-0.02047957 0.04205728 -0.059116364 -0.033117715 -0.043589663 -0.08464236 0.06879231 -0.072062805

conv2.1.weight f4 [16]
00000000: 84db 783f ced1 883f 9820 7b3f 52ab 7b3f
00000010: 618c 7d3f 9463 7b3f d51f 803f 4595 823f
00000020: e8a9 753f d93c 803f af0d 813f 6945 813f
00000030: a413 8a3f 594f 7e3f cc3b 803f e870 7f3f
0.97209954 1.0689027 0.9809661 0.9830829 0.99042326 0.9819882 1.0009714 1.0201803
0.9596238 1.0018569 1.0082301 1.0099307 1.0787244 0.99339825 1.0018249 0.99781656

conv2.1.bias f4 [16]
00000000: 3e96 c9bb 24e4 edbb 4ebf 0f3c c9ed a7bd
00000010: 9b38 35bc 485c 29bd 5eb1 0abd 2c64 2fbd
00000020: 07fc e2bc 4716 ac3c 2d3a 373c 2a47 38bc
00000030: 72ba 2cbd eb0c ab3c e55f ac3c 3e24 90bb
-0.0061519435 -0.0072598625 0.008773638 -0.08199651 -0.011060859 -0.041347772 -0.033860557 -0.04282014
-0.027708067 0.021006716 0.011183304 -0.011247436 -0.042169996 0.020880183 0.02104182 -0.0043988517

conv2.1.running_mean f4 [16]
00000000: 03b5 873d 05b5 52bf f8f9 34be 58fd 873f
00000010: 9942 58be 9caf 68be 2289 7cbb 77af 0d3d
00000020: e10b 1cbe b978 30bf 0e39 bcbc e089 023f
00000030: 3aa1 56bd c60b f3be bb54 703d e836 143e
0.06626322 -0.82307464 -0.1767348 1.0624189 -0.21119155 -0.2272324 -0.0038533886 0.034591164
-0.15238906 -0.6893421 -0.022976425 0.5099163 -0.05239985 -0.4746992 0.058674555 0.1447407

conv2.1.running_var f4 [16]
00000000: 7002 8d3e 501a b73e 70ae 013f 0633 af3e
00000010: 3b1d 5e3e a8b3 fb3d 77fa 9a3d cd6c 353e
00000020: 0b97 fa3e 38be d83e 75de 213e ac55 5d3e
00000030: f672 cb3e 4665 7b3e af3f 633e 147e 873e
0.27540922 0.35762262 0.50656796 0.34218615 0.21690838 0.12290126 0.07567304 0.17717285
0.48943362 0.42332625 0.15807517 0.21614712 0.39736146 0.24550352 0.22192262 0.26463377

conv3.0.weight f4 [32, 16, 4, 4]
00000000: 7d03 b53c 72eb 94bb 285b 62bd 5065 86bd
00000010: 9aa1 4ebd b84f a2ba 21d1 013b bf8b 88bc
00000020: 6206 27bd 5663 7fbc 08ff 39bb 4176 3ebd
00000030: 855d 18bd 2ba3 ef3c b60d db3c 1f42 3b3c
00000040: 40b0 a7bd 0225 0dbd 4f77 36bc 924e edba
00000050: be73 b9bc 6043 f8bc 1704 0e3d 737d 20bd
00000060: 50ed 2fbd f1ca 89bd bd49 96bc 1a05 723a
00000070: 25ea 08bd c2a1 ea3b 086c 25bd 7e81 7dbd
00000080: 81cb 543d 8ce1 8bbb a0d8 11bb 9fd1 ed3c
00000090: 4821 983c e510 51bc 6ee3 083c 13e5 6e3d
000000a0: 7ef6 333c f535 3b3d 1304 5f3c dc06 c9bb
000000b0: 269c 213c 238c a23c 5bb3 ad3c 9685 483c
000000c0: 199d a3ba a0fb 1abc e6ef fcbc ec4e 8abd
000000d0: 4036 2ebc add6 643d 15ea e1bc 8503 1cbd
000000e0: 4dd4 c23c 058e e3bc b048 20bd 6a00 5cbd
000000f0: c370 2d3d a52f ecbc 49db 403d 6e24 79bd
00000100: a5c0 403d 2784 693c c7d2 003d 4917 cf3c
00000110: 88e1 4d3b 82d4 053c 8a44 133d 36fc 80bc
00000120: 75f0 0ebc 2017 c3bc f429 7fbc 9edb cd3c
00000130: be35 46bd ff7c 723d eb85 13bc c707 33bc
00000140: feab aebb 2237 063d f78d 153c 71c7 c9bc
00000150: f3f5 f8bc 09f9 f13c 58bf a33b 79e5 803a
00000160: 67ba 683d cbf4 e7bc e7ae 353c 97f9 c23c
00000170: fd6e 4abc f3ae 56bd d428 29bc 481d 0abd
00000180: 039c 993d 7a58 0d3d 450b f23b 44d6 5b3b
00000190: 83d2 113d a7b4 03bb 321b 04bd 761b 95bc
000001a0: c5ac c93c 5fc4 84bd 09ca 81bd 0fcc 9cbc
000001b0: c998 463d fbbf ccbc 93ae 23bd 15e4 9c3c
000001c0: a5c3 093c 4ba7 403d 54e4 5dbd f4af 7fbd
000001d0: e430 873d 020d 61bb 963c 49bd c9b3 1bbd
000001e0: a049 8dbd 8ab6 113c a09f 9cbd c536 f3bd
000001f0: db71 38bc 8c84 8e3d 1e4c 3dbb 3442 43bd
00000200: 56de 13bc 1de4 53bd f73d dabc 04c3 37bd
00000210: 6e0e 13bc 252b 303d e1f0 7dbc 62da e4bc
00000220: eb8c 39bd 822f 8bbc e827 3838 8eb1 4dbd
00000230: 5c32 12bd af1b e53c 90ae 1e3c a571 9abd
00000240: 93e7 79bc 7b69 033d 6ec8 263d 35aa 3dbd
00000250: f8d8 b2bb b355 57bd bf4f 9dba 3ff2 1dbd
00000260: bee5 57bd efb7 3ebd 5fca 44bc fd50 8b3d
00000270: f63e 8e3c 4e86 e43c 2a02 3fbd 169e 8ebd
00000280: d5f9 343d 0c9d a23d 4faa f93b dc10 153d
00000290: a3d4 b8bc 5206 bc3b ced8 f7bb 9a3a 213c
000002a0: 515b 8b3d 5ac0 3d3d 5c37 2f3d 63f4 eabc
000002b0: b8a5 2d3d ae37 1fbd 0eff 863c c723 de3c
000002c0: c7f4 893c 53ee 2d3d ac4c 41ba eb13 96bd
000002d0: 4620 0abc 5c51 8a3c 0405 aebd f07e 68bd
000002e0: 7284 8c3d 6585 f23c 201b 393d ba6f b93b
000002f0: 2299 5d3d a0cd 32bd 93b4 6bbd ec73 a13b
00000300: 8ccd 15bd 8808 073c 73c7 2f3d 0635 98bd
00000310: 84f0 d63c bc72 67bc b40c 3dbd 5da2 afbd
00000320: 2744 89bc 2951 b8bd 042a 24bd 1cd5 ffbd
00000330: 93a1 69bd f0c6 2b3d 3477 80bd 023b 5abd
00000340: 3b74 543d 0f66 523c 9f59 0e3d 59ce d1bc
00000350: de0a a13c 013b 973b 658f 48bb 46bc d9bc
00000360: f5f0 093d bf9b 093d c38c 123d 82ab 23bc
00000370: 14b2 8bbc cfb5 9dbd c9b9 023d ca48 2ebc
00000380: a7b4 8f3d 0537 5a3d 11fa 1fbd 830a 08bd
00000390: 1394 973c 4e94 4cbd 780d 1cbd df4b be3c
000003a0: a852 913b db3e 253d df47 573d 12b2 3cbd
000003b0: 1e1c 1cbd a2e6 2c3d 7a00 97bd 8786 4abc
000003c0: 4fb9 0bbc 3499 b33b 297c 963c 76c4 c23a
000003d0: 9c34 833d 9530 e5bc 456a 273d b6f1 363d
000003e0: c5d0 283d efb6 3c3d b9ac 9cbd 3706 b0bd
000003f0: 7412 05bd 6045 b2bb 8a98 66bd 0e8f 43bd
0.02209639 -0.004544669 -0.055262715 -0.065622926 -0.050447084 -0.0012383377 0.0019808488 -0.016668199
-0.04077757 -0.015587648 -0.002838077 -0.046499494 -0.037198562 0.02925261 0.026739936 0.011429339
-0.08187914 -0.03445912 -0.011136844 -0.0018105081 -0.022638198 -0.030305564 0.03467187 -0.039182138
-0.04295093 -0.06728161 -0.018345708 0.00092323276 -0.033426423 0.0071603963 -0.04038623 -0.06189107
0.05195189 -0.0042688306 -0.0022254363 0.02903062 0.018570557 -0.012760376 0.008355005 0.05832393
0.010984061 0.045705754 0.013611811 -0.006134851 0.009863889 0.019842213 0.021203687 0.012238881
-0.0012482732 -0.009459406 -0.030876111 -0.067533344 -0.010633051 0.055868793 -0.02757744 -0.038089294
0.023782874 -0.027777681 -0.03913182 -0.053711332 0.042343866 -0.028831312 0.047084127 -0.060825758
0.04705872 0.014252699 0.031451013 0.025279658 0.0031414945 0.008168342 0.035954036 -0.015745264
-0.008724322 -0.023814738 -0.015573967 0.025129136 -0.048391096 0.059201237 -0.0090040965 -0.010927147
-0.0053305617 0.032767422 0.009128085 -0.024631234 -0.030390715 0.029537695 0.004997175 0.0009834013
0.056818392 -0.028314969 0.011089063 0.023800654 -0.012355563 -0.05241294 -0.010324676 -0.03371933
0.0750046 0.034508206 0.0073865973 0.003354446 0.03560115 -0.002009669 -0.032252498 -0.018201571
0.024618516 -0.06482767 -0.06337363 -0.019140271 0.04848555 -0.024993887 -0.03996141 0.019151727
0.008408462 0.047034543 -0.05417283 -0.06242366 0.06601122 -0.0034340029 -0.049130045 -0.038013253
-0.068988085 0.008893618 -0.076476336 -0.11875681 -0.011257614 0.06958875 -0.002888448 -0.047670558
-0.009025177 -0.051731218 -0.026640875 -0.044863716 -0.008975608 0.043009896 -0.015499325 -0.027936164
-0.045300405 -0.016990427 4.3906184e-05 -0.050218157 -0.035692558 0.027967302 0.009685174 -0.07541207
-0.0152529655 0.032083016 0.04071849 -0.0463049 -0.0054579936 -0.052571964 -0.0012001916 -0.038561102
-0.052709334 -0.04656213 -0.01201114 0.06802557 0.017364006 0.027896073 -0.046632923 -0.06963746
0.04418357 0.079401106 0.0076191793 0.03639303 -0.02256233 0.005738058 -0.007563687 0.009840632
0.068045266 0.04632602 0.042777404 -0.028680986 0.04239437 -0.03887146 0.016479041 0.02711667
0.016840352 0.04246361 -0.0007373791 -0.07328018 -0.008430546 0.016884498 -0.084970504 -0.056761682
0.068611994 0.029604623 0.045191884 0.005659071 0.054101117 -0.04365313 -0.057545256 0.004927149
-0.036572978 0.00824178 0.04291482 -0.074319884 0.026237734 -0.014126476 -0.046154693 -0.0857589
-0.01675613 -0.08999855 -0.04007913 -0.12491819 -0.057038855 0.04193777 -0.06272736 -0.05327893
0.05186866 0.0128417155 0.034753438 -0.02561109 0.019658502 0.004615188 -0.0030603048 -0.026579034
0.03367706 0.033595797 0.035778772 -0.009989621 -0.017052688 -0.07700693 0.03191546 -0.010637471
0.070168786 0.053275127 -0.03905684 -0.03321315 0.018503224 -0.049946122 -0.038098782 0.023229538
0.004434902 0.040343147 0.052558776 -0.04606826 -0.038112752 0.042212136 -0.07373138 -0.012361175
-0.008528068 0.0054809097 0.018369751 0.0014859575 0.06406519 -0.027977267 0.04087283 0.044664107
0.041214723 0.046072897 -0.07650132 -0.085949354 -0.0324883 -0.005440399 -0.056297816 -0.04774385

conv3.0.bias f4 [32]
00000000: ec2f 6c3c c524 6d3d e465 673c d2fa 71bd
00000010: c4bb 863b 30bb 61bd fbbc c1bc e502 7a3d
00000020: 2642 0d3d 5d9f aa3c daf6 73bc 1c6e fe3c
00000030: 61b9 ff3c acd8 edbb 9617 7cbd 5abc 2b3c
00000040: 6203 02bd 56a6 963c 2e15 413d 6e0c d23c
00000050: cb22 3d3d 9626 503d 2f80 373c 56e0 3f3d
00000060: b580 3f3c 9d84 26bd d9c4 3ebc 491e 54bc
00000070: 6c15 7fbd 8fa7 4fbd 3c3b 5cbd adcc 743d
0.014415722 0.057896394 0.014123414 -0.05907709 0.004111739 -0.055110157 -0.023649683 0.061037917
0.034486912 0.020827943 -0.014890397 0.031058364 0.031216325 -0.0072584953 -0.06154593 0.010481918
-0.031741507 0.018389862 0.04713934 0.025640693 0.04617576 0.05081805 0.011199995 0.046844803
0.011688401 -0.040653814 -0.011643612 -0.012946674 -0.06227629 -0.050696906 -0.053767428 0.059765507

conv3.1.weight f4 [32]
00000000: 8bd6 7c3f 4dc1 7d3f e97c 803f 8de2 843f
00000010: 7234 7a3f ddca 7d3f e6a0 7c3f f4f3 7b3f
00000020: 465a 793f aafa 803f 4dd5 7c3f 4014 7d3f
00000030: d192 843f 3843 793f ad38 813f 1936 823f
00000040: d41a 813f 717e 813f b897 7f3f 43dc 7f3f
00000050: bfae 7b3f 1668 863f f608 803f d27c 803f
00000060: 84fb 793f 517a 793f 10c4 853f 577c 813f
00000070: c848 7d3f 22f6 843f 6b59 883f 550a 813f
0.98764867 0.9912308 1.003812 1.0381638 0.97736275 0.9913767 0.9868301 0.9841912
0.9740337 1.0076497 0.9876297 0.98859024 1.0357305 0.9736819 1.0095421 1.0172759
1.0086312 1.0116712 0.9984088 0.9994547 0.98313516 1.0500515 1.0002735 1.0038092
0.9764941 0.97452265 1.0450459 1.011607 0.9893918 1.0387614 1.0652288 1.0081278

conv3.1.bias f4 [32]
00000000: cdb2 91bd 7361 06bc f965 a0bc 8a8c 2dbe
00000010: d615 ddbc c7be 20bc 71a4 b73c d71b df38
00000020: 375a c83c 040d 99bc 5281 67bb 8744 563d
00000030: cd8f 9d3d f253 e5bc 332e 90bc 43e3 2fbd
00000040: 92ec 563c 45c6 48bc 34b5 aabb 5ccc 6ebd
00000050: 14d1 6fbc 948f 0ebd 27f9 023c 6850 60bc
00000060: 8e6a dcbb 2926 72bc 2c89 5dbc f71d 183c
00000070: c4c8 3bbd f37c 23bd 7ddb 80bd 201a 113b
-0.07114182 -0.008201945 -0.019579874 -0.16948143 -0.026987951 -0.00981111 0.022417279 0.00010638654
0.02445708 -0.018682964 -0.0035324884 0.052311447 0.076934434 -0.02799413 -0.017600155 -0.042941343
0.013117926 -0.012254302 -0.0052095894 -0.05830036 -0.01463725 -0.034804896 0.007993973 -0.013691045
-0.0067265695 -0.014779606 -0.013521474 0.009284488 -0.045845762 -0.039914083 -0.06291864 0.0022140816

conv3.1.running_mean f4 [32]
00000000: 0e42 0dbf 411e 1dbf 4a16 22be 1266 93bd
00000010: 6ce3 c3be 9f93 913e 5942 ddbd a5ef 233d
00000020: 0ea8 93bd 4d70 90be 43ed 82be a680 12bf
00000030: 4feb f7be fe6d 61bf c83d c7be c77c a4be
00000040: f95b dabe 3535 23be b6f9 7a3d 8acb 123e
00000050: c3fd 13bf 67ad 8ebc 750c 8bbe e313 87be
00000060: e5eb 2e3e a5a3 c7be cf61 9dbe 99d6 05bf
00000070: 6200 e8bd f8ca 273e 3293 04bf 35ae d8be
-0.55178916 -0.6137429 -0.15828815 -0.07197203 -0.38259447 0.28432938 -0.108036704 0.040023465
-0.07209788 -0.2821068 -0.2557164 -0.5722755 -0.48421714 -0.8805846 -0.38914323 -0.32126448
-0.42648295 -0.15938266 0.0612733 0.14335456 -0.57809085 -0.017416669 -0.2715794 -0.2638236
0.17082174 -0.38992038 -0.30738685 -0.52280575 -0.11328198 0.1638602 -0.517871 -0.4232041

conv3.1.running_var f4 [32]
00000000: 0dfc 4e3e f8a8 903e 3c9f 063e 3a5a 483e
00000010: f600 723e ded5 563e 3491 d33e c865 813e
00000020: 9092 df3d 1123 9e3e 0799 513e 7a6b 933e
00000030: 8250 c83e 11e4 253e f520 413e 44f6 123e
00000040: a21a 393e f63c 3d3e e243 293e d234 f63d
00000050: 3d20 433e adc8 053e d150 813e 8d48 763e
00000060: 2bc8 3b3e 651a 3c3e c5fb 003e 0e74 c83e
00000070: d9d1 653e 9f83 223e 14d6 0f3e a1f1 6d3e
0.20213337 0.28253913 0.1314668 0.19565669 0.23633179 0.20980021 0.4132172 0.25272965
0.109166265 0.3088613 0.20468532 0.28792936 0.39123923 0.16200282 0.18860228 0.14351755
0.18076566 0.18480286 0.16529801 0.120217934 0.19055267 0.13064833 0.2525697 0.24051113
0.18338077 0.18369444 0.12596042 0.39151043 0.22443332 0.15870522 0.14046508 0.23236705

deconv2.0.weight f4 [32, 16, 4, 4]
00000000: 38c2 a3bd 5a3e 543c 499d 94bc cb86 3b3c
00000010: f018 2ebd 8401 783c 0e8c c4bc 842c 6b3a
00000020: 48b6 48bd 06ea 4e3b 6c4e 1dbd 103f 81bd
00000030: fb08 18bd b96d 233d ff7b 64bd b849 013d
00000040: ee8e 513c aef2 6fbc 1f5e b23c cb72 b5bd
00000050: e94e e1bc ded7 d03c f5d7 e53d f708 5e3c
00000060: 53fe d33c c4e3 ccbc a22f 2a3d d2f0 493c
00000070: ca53 82bd 889a 663d 52c8 2f3d 0c86 ba3b
00000080: eb0e 4b3d 8da5 033b 8365 443d cb52 363b
00000090: 1314 e73c f42a 3b3d 8582 aa3a 518f b83c
000000a0: 77f1 233d b258 fc3c 967a 3ab9 43ce ac3c
000000b0: a548 423c 3185 62bd 302b 8d3b bc06 963b
000000c0: 0b7a d1bc c430 093d 3580 0cbd 0f4e 173d
000000d0: 0ea8 92bd a145 c4bd 22b0 da3d 8d33 03bd
000000e0: 10ef a6bd 8f45 923c 56ff 92bd 0705 27bb
000000f0: 4118 73bc 47ed f6bd baf8 973d 8a57 f6bd
00000100: 8c42 443c d15b 5c3d 400a 06bc 2210 dc3a
00000110: 53b3 08bd 6a56 97bd 7239 0dbd 6071 9fbc
00000120: 4f54 433b e916 163d 8959 32bc 0e25 d33c
00000130: ba26 7c3d 9229 233d 7ec9 253c b9ba b13c
00000140: 2475 d1bc 50d7 a43c e343 25bd e145 88bd
00000150: 3db1 633d de77 063d 39c6 383d 787f b1ba
00000160: bbc2 b33b d441 15bc afb9 85bd 2fef acbd
00000170: b1e7 a0bc d258 743c bae6 d13c baa3 073c
00000180: c317 48bc 32e3 2ebd 76a9 9dbd 0edb 673c
00000190: ed3c 5d3d c22c 99bd 4a3b 1f3c cd9e 9fbc
000001a0: f618 c2bc e896 babc 8c63 11bb 241d 193c
000001b0: a9c3 c03c baad 343d 1bc8 153d 489c 62bc
000001c0: 0abe a0bd 5405 b43c bdc1 c43a a7a9 413c
000001d0: 5c35 8fbc d13b 6b3c f89a 323c 962d e33b
000001e0: 9464 8dbd 4833 c03b 6827 4a3d f9ce 8a3c
000001f0: a61e c8bc 930d 033d 4d9b ddbc 1738 033c
00000200: d407 e83b 6071 14bc 3ce5 52bc ec12 0abc
00000210: 48ee 48bd 2676 39bd 48ac 9e3b 3d07 17bd
00000220: c1e1 073d bfdf 0bbd 5b7e f23c c30c 4fbd
00000230: e968 a7bc b53c 413d 44a7 a43c ac62 44bd
00000240: 278b c9bb 3e21 94bc 44b5 743c b13c 34bd
00000250: 5e52 403d 7319 95bc a7d9 ffbd cec3 453c
00000260: 58ba 713d cd3c aebc 6fb3 3c3d 2163 c7bd
00000270: 2dd4 833d c892 36bc 50c9 00be e949 34bc
00000280: 543f 42bd 0de6 adbd d79d 53bd 5555 a9bd
00000290: 864c e03c 69fc 98bc 9ee9 1abd 6f17 c3bc
000002a0: b1ac 0dbd 65fa c4bd fb9a ccbb e67a 1abd
000002b0: 527d 163d f1a3 dfbb 747f 723c 2114 9d3b
000002c0: 7a1f 76bd fbfd f6bc 49fa 74bd 0fd1 8fbd
000002d0: 6992 3abb 0108 58bd c251 863c 2b22 cebd
000002e0: 9a79 9bbd 7879 81bd b57c 69bd bb2c dabc
000002f0: 1dcc 23bd 7854 1bbd b89c 5d3c 5125 bbbc
00000300: 1508 41bc 359d 9b3c c403 7cbd fbec 0b3d
00000310: c865 75bd bbce f0bb 2b8b 96bb 591f 2bbd
00000320: a24a 0dbc 2fa6 7c3d ce07 7abd 0a6f 263d
00000330: 2ef1 12bc f6fd 9bbc f039 373c 48bd c7bb
00000340: 81ab a03a ec4a 56bc eac5 80bd 7183 15bc
00000350: 7b08 943d f574 3f3d 4256 9dbc e941 d73c
00000360: 75cb 813c ab9b 7ebc 25b9 79bd ebfa 053c
00000370: c812 9c3d 3466 c73b 3548 1d3d df22 083d
00000380: 82e4 8dbd 647a 71bb 3a4d 85bc 03d8 1fbd
00000390: 6e2a 123c 9867 a5bc ebbc 983c 34ab 79bb
000003a0: 57bd 33bd 8aa8 63bd 497f 5fbd 7bed a8bd
000003b0: ff0c 363a 1066 2fbd fb3c babb c522 fbbc
000003c0: 165c 06bd 7bb4 7cbd de61 983b 4588 ab3c
000003d0: 0b7e 89bc 3d5f bcbc ef60 cfbd 0de2 ed3c
000003e0: 1b6a 0fbd 5a3b 40bd 0916 743c 823f 8fbd
000003f0: 1b58 b53d 7e36 c6bc 327b 83bd 3266 df3b
-0.07996029 0.012954319 -0.018141406 0.011445711 -0.04250425 0.01513708 -0.023992565 0.0008971172
-0.049001962 0.0031572594 -0.038404867 -0.06310856 -0.03711794 0.03989956 -0.055782314 0.031564444
0.012790425 -0.014645262 0.021773396 -0.08859786 -0.027503448 0.025493558 0.11222831 0.013551942
0.025878107 -0.02501095 0.041549332 0.012325482 -0.06363638 0.056299716 0.04291565 0.005692249
0.049574774 0.002008769 0.04794837 0.0027820345 0.028207814 0.04569526 0.0013008869 0.022529276
0.0400252 0.030804012 -0.00017784009 0.021094447 0.01185814 -0.055302802 0.004308127 0.0045784395
-0.02557089 0.033493772 -0.034301955 0.036939677 -0.0716096 -0.09583593 0.10678126 -0.032031585
-0.08151066 0.017855434 -0.07177608 -0.0025485174 -0.014837326 -0.12056976 0.07420488 -0.120284155
0.011978757 0.0537985 -0.008181155 0.0016789476 -0.033374142 -0.07389529 -0.034478612 -0.019463241
0.002980489 0.036642943 -0.010885605 0.025774505 0.06156037 0.039834566 0.01011884 0.021695482
-0.025568552 0.0201222 -0.040347945 -0.06653953 0.05558895 0.032829158 0.045110915 -0.0013542017
0.00548586 -0.009109933 -0.06529557 -0.08444058 -0.01964173 0.014913755 0.025622714 0.008278782
-0.0122126965 -0.04269714 -0.07698338 0.014151348 0.05401318 -0.0747924 0.009718725 -0.019484902
-0.023693543 -0.022777036 -0.0022184579 0.009345327 0.023530798 0.04411099 0.03656779 -0.013831206
-0.07848747 0.021975197 0.0015011352 0.011820233 -0.017481498 0.014357523 0.010901205 0.0069329245
-0.069039494 0.005865488 0.049353987 0.016944395 -0.024428677 0.031995367 -0.027051592 0.008008978
0.0070810113 -0.009060234 -0.012872037 -0.008427363 -0.049055368 -0.04527869 0.004842315 -0.036872137
0.03317428 -0.034148928 0.029601267 -0.05054928 -0.020435767 0.047177035 0.02009929 -0.047945663
-0.0061506215 -0.018082257 0.014935795 -0.044003192 0.04695355 -0.018200612 -0.12492686 0.012070609
0.059015602 -0.021269226 0.04606956 -0.09735704 0.06436954 -0.011143394 -0.12576795 -0.01100395
-0.047423676 -0.08491144 -0.0516642 -0.08268229 0.02738024 -0.018675046 -0.03782045 -0.023814885
-0.03458852 -0.096180715 -0.006244061 -0.03771486 0.03674061 -0.0068249633 0.014800895 0.0047936593
-0.060088612 -0.030150404 -0.059809003 -0.07022297 -0.0028468615 -0.052742008 0.016396407 -0.10065111
-0.07591553 -0.063219965 -0.057003696 -0.026632657 -0.03998958 -0.037922353 0.013526134 -0.022844942
-0.011781712 0.01899586 -0.06152703 0.03416155 -0.05991152 -0.007348863 -0.004594227 -0.041777942
-0.008623751 0.061681923 -0.0610426 0.04063324 -0.0089686345 -0.019041996 0.011183247 -0.006095562
0.0012258143 -0.013079386 -0.06287749 -0.009125576 0.0722818 0.0467424 -0.01920617 0.026276546
0.015844086 -0.015540044 -0.060967583 0.008177499 0.0762077 0.0060851816 0.03839894 0.03323638
-0.0692835 -0.0036846632 -0.016272176 -0.039024364 0.008921249 -0.020190999 0.01864477 -0.003809643
-0.04388174 -0.055580653 -0.054564748 -0.08248421 0.00069446856 -0.042821944 -0.005683539 -0.030656228
-0.032802664 -0.061695557 0.0046503386 0.020939002 -0.016783735 -0.022994632 -0.101259105 0.029038453
-0.0350133 -0.046931602 0.014897832 -0.06994535 0.088546954 -0.024195906 -0.06419982 0.0068176026

deconv2.0.bias f4 [16]
00000000: 9bd4 f13c 81b6 76bd ea84 f63c 580e da3c
00000010: 255b 1e3d e86c 66bd 4ca5 463d 2814 86bc
00000020: 5aee 77bd 56bc 533d df48 e03c ab9f 62bd
00000030: 13c4 d13c 1533 6bbc d9db 743c f618 853c
0.029520324 -0.060232643 0.030092675 0.026618168 0.03866114 -0.056256205 0.048497483 -0.016367033
-0.060530044 0.051693283 0.027378498 -0.055328052 0.02560619 -0.014355441 0.014944994 0.016247254

deconv2.1.weight f4 [16]
00000000: f162 733f 605b 813f d769 803f bb2e 793f
00000010: 96e2 7c3f 8461 723f f1a0 723f 184c 713f
00000020: 310b 773f 4f48 833f 1070 763f e959 8e3f
00000030: 0e0a 7c3f ac24 743f 6ec4 853f 3b08 803f
0.9507285 1.010601 1.00323 0.9733693 0.9878324 0.9468005 0.9477683 0.94256735
0.9650145 1.0256442 0.96264744 1.1121188 0.9845284 0.95368457 1.045057 1.0002512

deconv2.1.bias f4 [16]
00000000: c948 0f3c 73bd b63d 0d8b 5e3d 87d9 553c
00000010: 8c6c 9f3c 685b 773c 5e45 e83c 73aa 33bd
00000020: dc3a 66bc 9140 0a3e 3728 023d 9315 51bd
00000030: d7c3 0fbd c55f d63c 13e8 303d baab 8e3c
0.008745381 0.08922853 0.054331828 0.013052351 0.019460939 0.015097477 0.02835339 -0.043863725
-0.014052119 0.13501193 0.031776633 -0.051045965 -0.035098877 0.026168713 0.043190073 0.01741587

deconv2.1.running_mean f4 [16]
00000000: 382b 39bf 2966 14bf 655c 94be c6a5 19bf
00000010: 9ee7 83be ef2b 57bf 1080 07bf c9bb cbbe
00000020: f198 35bf 2688 55bf fbd9 6ebf 2830 45bf
00000030: 9dcb eabc 2156 71be 2051 4fbf a68f 69bf
-0.7233157 -0.57968384 -0.2897674 -0.60018575 -0.25762647 -0.8405141 -0.5292978 -0.39791706
-0.70936495 -0.8341087 -0.9330136 -0.77026606 -0.028661544 -0.23568012 -0.8098316 -0.91234815

deconv2.1.running_var f4 [16]
00000000: 7455 4c3f 130d 5f3f 94d6 663f ed4d 303f
00000010: 2b17 073f 5f3f bb3f 1881 a83f afd4 383f
00000020: 3535 0c3f 93f3 0b40 1958 ea3f e423 f73d
00000030: e8d2 a93e 645a 953f ffd3 0c3f d0f9 4a3f
0.7981789 0.87129325 0.9017117 0.68868905 0.52769727 1.4628714 1.3164396 0.7219953
0.5476869 2.1867416 1.8308135 0.120673925 0.3316872 1.166821 0.5501098 0.79287434

deconv3.0.weight f4 [16, 8, 4, 4]
00000000: f1eb 66bd a6d1 943c d9c8 3ebc f4a6 bcbd
00000010: 931e adbd c35b 54bd adfb ae3c 9dfd 92bc
00000020: 0844 67bd e42d ac3c 99e1 b13c 2942 943d
00000030: 48b1 80bd bdd8 07bd 023e 103d 9ff7 cabb
00000040: fcbc f3bb 8e40 15bd 1c55 ba3c a747 a63d
00000050: 0a10 143d 2816 dd3c a444 673d ae06 b43c
00000060: 216a d9bb f9a6 c13d 968a 4e3d e970 213d
00000070: 9ad8 ce3a 801c 893d b789 803d 554d e3bc
00000080: b1cb 583d 4407 043d f715 fcbc 0d83 813d
00000090: 3d35 4a3d 070d 053e 187f 783c a366 e33c
000000a0: 4302 a33c 83dc 923d 3616 5abd 42f9 8a3d
000000b0: 9335 6b3c dd9d ea3c 9793 03bc ecf3 26bc
000000c0: eb4c ec3c 9625 c13d 73c9 89bd 781e 5a39
000000d0: a70b e63b d881 10bd 2ba1 f13c 0c58 ad3d
000000e0: 7f0f 133d 6eab a93d eda1 bbbc 7df2 9a3d
000000f0: 3653 fa3c f687 f43c c448 993c 37c8 b33c
00000100: 0d06 083d 3d1c 5a3d f69d 1fbc 1db5 4cbd
00000110: 84df 0e3d 5390 523c 95d2 943c 07d9 84bd
00000120: 3eb8 9cbc 656b 213d 26e3 0cbd 0cab a73b
00000130: a6c5 563b 67cc 963c 115a 43bc 97c6 413d
00000140: 9cb9 993c 85a6 9fbc 87d7 bb3a 6402 02bb
00000150: d4fa 073c a7cc 1dbc fb59 883c aa8c 8e3d
00000160: d322 e7b9 3527 313d e654 21bd 0db9 d1bb
00000170: a347 533d ea5e 1e3c e9fb e63c 58b8 a23c
00000180: 68ef ecbc 41b8 a2bd c173 f9bc 4752 7cbd
00000190: debf 333d 6a9d 27bd 4928 9fbb c300 92bc
000001a0: 0e1c 023c a8b4 a63d 6040 073d ae7d d43b
000001b0: e253 763b 692d 08bd 2a01 b1bc ad18 3fbd
000001c0: 73cc 243d fc1a a03d b108 083d 72a0 f83c
000001d0: 0f40 b43c e8b4 cb3d dbd7 6fbd 5831 eebc
000001e0: 5c21 423d bac6 98bd 3cdb cfbc fa57 14bc
000001f0: 6072 3d3d 6d0d 653d 3bb3 fabc bfe2 1b3d
00000200: 96ba 48bc 5dc7 b53b b044 813d 68e7 b8bd
00000210: 9fa0 1ebd 8681 10bd 4142 0c3e dedc 4b3d
00000220: fef0 923c f4b3 483c 0a7f 013d efbc 24bc
00000230: d229 94bb 7591 11bd 9595 4f3d 7310 763b
00000240: 46d9 483d d689 c4bd afa2 1b3b 4afd 0cbd
00000250: 9e90 eabc 592f a0bd f16d c63d babd 41bd
00000260: e1e8 853c 8616 57bb 7332 0e3c fb00 873c
00000270: cd30 f1b9 9911 733b be32 323d 34c6 fc3c
00000280: 0930 2c3c afae a93c c4ee df3d 519f 1fbb
00000290: 79f4 2ebb 4bc5 d03b aa00 41bc 00bd 5e3d
000002a0: cb68 86bc 0e40 0f3d 5240 d43a 0504 d3bb
000002b0: d498 a6bc c2be bebc 64e0 eb3c 3fbe 6bbd
000002c0: 7625 9fbd 3f10 02bd 6534 753d 9a7f 0bbd
000002d0: 293d a03d 6317 48bd 4015 47bd bf5a 2c3d
000002e0: c9a7 4dbd baa2 053d 5b57 d73d 6b24 573c
000002f0: 0591 533d 04c7 6d3b 04fd 4ebd 7517 2c3d
00000300: 9f19 463d 1a27 03bb ca4a b23c bee3 543d
00000310: cb7d a23d a3db 6b3d 89f3 05bd 4fce d73c
00000320: aac0 4c3d eb8a 1f3d ed96 173d ad35 e33d
00000330: f6d1 073c 83c8 05bd d82d 373d 7955 793c
00000340: 3156 ba3c 536d 70bd b575 14bd a6dd 7b3d
00000350: 16e6 2dbd d51d 353d 26ce f93d c28f 023e
00000360: d4ea 203c 561d 5b3d 5752 0f3b 972d ec3d
00000370: 3711 bf3d 9634 f43c 407e a93d 0ad0 f63d
00000380: c937 0abd 09ba b3bd 6d21 9bbc 7d33 ce3c
00000390: a97e 183d fd8e a83c 77bd db3d 1f11 5fba
000003a0: e104 d93c ff53 ecbc 074e 9e3c 76e0 a63c
000003b0: a60a 6bbb a6c1 4c3b 1ada dc3d 1dcc 0e3d
000003c0: 1288 b23c fdc4 413d f147 f1bb f16e 4e3d
000003d0: 1c6f 563c 5190 8dbc 3765 9cbd 84c3 aabd
000003e0: 272a 49bd d6d5 3cbc c190 2bbd 208d 86bd
000003f0: 1ea3 77bc 2b19 4cbc 14b9 c9bd 96eb 9fbd
-0.056377355 0.018166374 -0.0116445655 -0.09211531 -0.08453097 -0.051845323 0.021360243 -0.017943198
-0.056461364 0.021017976 0.021714019 0.072391815 -0.06283814 -0.033165682 0.035215385 -0.0061940695
-0.0074383 -0.036438517 0.022745661 0.08119135 0.03614811 0.026988104 0.056461945 0.021975841
-0.006634966 0.09455676 0.050425135 0.03941432 0.0015781105 0.06694889 0.06276267 -0.027746836
0.05292863 0.03223349 -0.030772192 0.06323824 0.04936718 0.12993251 0.01516702 0.027758902
0.01989854 0.071709655 -0.05324384 0.067858234 0.014356035 0.028639728 -0.008030794 -0.010189991
0.028845271 0.09430997 -0.067278765 0.0002080145 0.007020432 -0.03528008 0.029495796 0.08464059
0.03590345 0.08284651 -0.02290436 0.07565782 0.030557256 0.029849987 0.018711455 0.021946056
0.033208895 0.053249586 -0.009742251 -0.04997741 0.03488113 0.012851792 0.01816682 -0.06486707
-0.019130822 0.03940906 -0.034396313 0.005116826 0.0032771616 0.018408014 -0.011923329 0.04730853
0.018765263 -0.019488582 0.00143312 -0.001983785 0.008299548 -0.009631312 0.016644469 0.06960423
-0.000440857 0.04325028 -0.039387606 -0.0064002336 0.05158199 0.009666184 0.028196292 0.019863293
-0.028922752 -0.079453 -0.030450704 -0.061601903 0.04388415 -0.040921606 -0.0048570973 -0.017822629
0.007941259 0.08139926 0.033020377 0.0064847087 0.003758662 -0.03324643 -0.021607 -0.046654392
0.04023404 0.07817647 0.033211414 0.030349944 0.022003202 0.099466145 -0.058555465 -0.029076263
0.047395095 -0.07459779 -0.025373094 -0.009054178 0.046251655 0.055921007 -0.030603042 0.03805804
-0.012251517 0.0055474476 0.06311929 -0.09028512 -0.0387274 -0.035279773 0.13697149 0.049771182
0.01793718 0.012249935 0.031615295 -0.010054811 -0.004521587 -0.03553911 0.050679762 0.0037546426
0.049035333 -0.095966026 0.002374809 -0.034421243 -0.028633412 -0.07821531 0.096889384 -0.047300078
0.016346397 -0.0032819821 0.00867902 0.01647996 -0.00046003461 0.0037089346 0.043505423 0.03085623
0.010509499 0.020713178 0.10934213 -0.0024356435 -0.002669601 0.0063711754 -0.0117799435 0.054379463
-0.016407391 0.034973197 0.0016193485 -0.006439688 -0.020336546 -0.02328432 0.028793521 -0.05755448
-0.07770817 -0.031753775 0.05986442 -0.034057237 0.078241654 -0.04885043 -0.04860425 0.04207873
-0.05020884 0.03262589 0.105147086 0.013131241 0.051651973 0.0036281953 -0.050534263 0.042014558
0.048364278 -0.002001232 0.021764178 0.051975004 0.07934149 0.05758251 -0.032702956 0.026343493
0.049988426 0.038950842 0.03700917 0.11094222 0.008289805 -0.032661926 0.044721454 0.015218132
0.022746177 -0.05869801 -0.036245067 0.061490677 -0.042455755 0.044217903 0.12197523 0.12750152
0.009821612 0.053494774 0.0021869147 0.11532133 0.09329455 0.029810231 0.082760334 0.12051399
-0.033744607 -0.08775718 -0.018936837 0.025171036 0.037230168 0.020575995 0.10729497 -0.0008509326
0.026491584 -0.028848646 0.019324316 0.020370703 -0.0035864501 0.0031243353 0.10783787 0.034862626
0.021793399 0.047307003 -0.0073633124 0.05039877 0.013088014 -0.01728073 -0.07636493 -0.08338073
-0.049112465 -0.011525592 -0.041886095 -0.06569886 -0.015114574 -0.012457172 -0.09849754 -0.07808606

deconv3.0.bias f4 [8]
00000000: 5454 90bd 2c68 9d3d 2b06 5bbd 3a26 443d
00000010: 12c8 cf3c 313a 7f3d 600a 073d 9c83 813d
-0.07047334 0.07685885 -0.05347268 0.04788802 0.025363956 0.062311355 0.03296888 0.063239306

deconv3.1.weight f4 [8]
00000000: 1d08 9f3f 4421 9c3f 4aad 9c3f f9b7 9c3f
00000010: 1e6b 993f 63a6 9c3f ab47 9e3f 317f 973f
1.2424351 1.2197652 1.2240384 1.2243644 1.1985815 1.2238277 1.2365621 1.1835691

deconv3.1.bias f4 [8]
00000000: a751 753e 9e5b 5a3e faa4 5e3e c2f6 603e
00000010: 8541 4d3e 14b2 5e3e 310c 6e3e 3f07 423e
0.23956929 0.21324012 0.21742621 0.2196913 0.20044525 0.21747619 0.23246838 0.18948077

deconv3.1.running_mean f4 [8]
00000000: 2342 3ebe b7e9 2dbd e99e 993d 3977 fb3d
00000010: f77a d13e 18c6 e93e 9874 093d 125b ffbd
-0.18579917 -0.042459216 0.07501013 0.12278599 0.40914127 0.45658946 0.033558458 -0.12468542

deconv3.1.running_var f4 [8]
00000000: c70f 9c3d fa5d 6b3d 0ad1 be3d 9ab2 893d
00000010: 5ad9 463d 8203 7b3d e2d9 993d 9ccf 933d
0.07620197 0.05746267 0.09317215 0.06723519 0.048547126 0.061282642 0.07512261 0.07217333

deconv4.0.weight f4 [8, 3, 4, 4]
00000000: e280 54bd 1763 8d3d 379e 003e ede1 793d
00000010: 7e48 3ebd 5d89 973d 60c0 a83d 8d62 933c
00000020: 9f7f 633b f892 0b3e fd8b d23d 33d8 80bd
00000030: 3830 89bd cd9b aa3c ec1f 3f3e 2cde 7b3b
00000040: a19c 88be 5dc1 8dbe 0155 5dbe b753 34bd
00000050: 1eba bdbd 4564 25be 4860 88be ecdf c5bc
00000060: 0057 ecbd b342 75be c75a 06be d81b 08bd
00000070: 3870 abbd 7774 e1bd 95ff 89be 3338 bfbd
00000080: 968b 93bd 7d4c e2bd 5a3a 18be 5065 36be
00000090: 5e49 11be 60d0 0cbe 78d9 8bbe 98d7 8cbd
000000a0: 4e7c 80be 6513 0ebe c029 90be 9eca 23be
000000b0: 222b 2bbe 6966 6ebe a689 46bd c201 54be
000000c0: e681 313e b56b ddbd af4b 26bd 4b76 d3bd
000000d0: 9d39 f33c 8f84 53bc e987 ec3d 4197 713d
000000e0: efca 88bd 1e2c d73d b0d2 ff3d bd48 1f3e
000000f0: 7a67 443e 6b98 c23d e122 7abc 9755 52bd
00000100: 64e5 2dbe db26 83be 7359 02bd f4fc 8cbe
00000110: 4b8a 23bd d9dd 98bd f37b fbbd 8723 3abe
00000120: 1335 89be b119 68be aa28 67be 171e fcbd
00000130: a17d 07bc 1db6 39be bc56 26be f0c2 1fbe
00000140: 3294 1abe 5c7f e4bd 074a 44be 76ce 2bbe
00000150: 03ed f1bd 5001 41be f0d1 8cbe cbda 86be
00000160: 3661 c2bd 1fc7 adbd ddd9 88be dbdd 37be
00000170: 276a 3fbe 8598 5bbe e703 1ebe 2d01 9bbd
00000180: f46b 8039 44ac c2ba 63ec 9d3d 18e4 053e
00000190: f260 3c3e bbdb 1b3e f748 413e 9f9b 223e
000001a0: ca8c 4e3c 9391 163d 4513 463e c677 e83c
000001b0: 9f50 b2bc 66af 8b3d 046d ec3d e741 33ba
000001c0: 6634 92be 0f57 35be e694 6dbe 3379 c9bd
000001d0: 0194 0ebd 609f efbd 35c4 35be eb19 24be
000001e0: 4dea 72be cb47 8dbe 33b5 e0bc 9e81 e1bd
000001f0: 0246 2dbe b448 41be 227b 63bd 6bcd 95be
00000200: 157b 96bd bbdf 75be 0675 c7bd 1acf c0bd
00000210: 85b2 19be 93ba d8bd 0dc6 85be 7c5a 8abe
00000220: 31ce dbbd 36c4 91bd ce35 fbbd 69d9 f8bd
00000230: d77c d0bd e04f 67bb 1598 adbd f34a 1ebe
00000240: 56e9 4f3e debf 4a3d 357c 1d3d 5581 b53d
00000250: 6158 433d 74a5 983d a5e3 d73c b4a6 8d3c
00000260: a8bd fd3d 4be8 233e 8f4e 443d 4c2b d33d
00000270: da0b 1a3e 8135 143d 202d fd3c 95fd 103c
00000280: 46f0 41be df3f 3dbe ef3a 52be bf92 3cbe
00000290: f66f bdbd 3704 56be 2978 43bd 3b18 07be
000002a0: 589f 3abe 36c9 07be c9cc 24bd 4f61 a3bd
000002b0: 4a34 8abe f300 87bd 6206 1cbe 93d6 36be
000002c0: 81b0 85be 29f0 3dbe 12a2 84be 545f 71be
000002d0: 9a09 0dbe f6a5 1dbd 621c 37be 0a51 babd
000002e0: b4e3 0cbe a4af 93be 3964 7fbc ae66 13bd
000002f0: 6f95 80be d736 52bd 757c adbd e9a2 89be
00000300: 0343 703e 0e13 533e 6ba3 6e3e be66 9d3d
00000310: 74a0 313e 19be 003e 5f17 583d 9a12 133e
00000320: 540b 143e ce92 0a3d b9b5 98bb d8e6 5b3e
00000330: 28e7 723e c14c 833e 5cbe a23d 9c84 c23d
00000340: edc3 64be 4adb f8bd c956 733b 039f 81be
00000350: 2282 6ebe 6d9a 8fbe 0139 a2bd c4b8 68be
00000360: db4e 50be 46b1 0bbd b193 f0bd 6614 65bd
00000370: fa5d 74bd 8bbf 8bbe dcb4 66be a72a 43be
00000380: 991d d1bd c0bd 84be eb57 4bbe 224f 3abe
00000390: 11c0 4bbd 8bb0 66be 498c dfbd c674 55be
000003a0: 88d2 87be 8d7c 99bd f87b c8bc 2657 47be
000003b0: 73fc 93bd 5b04 0fbe b0c7 c4bd a8d7 00be
000003c0: 1307 5c3e 6dad 483e 3c97 b73d d150 723e
000003d0: 03a0 a93d 9a53 de3d 3940 e83d 5a21 233c
000003e0: 27f8 09bc 6c68 9ebb 6136 bb3d a94c 303e
000003f0: d276 4f3e 5589 333e 2852 c9b9 b012 fa3c
-0.051880725 0.069036655 0.12560354 0.061006475 -0.046455853 0.07399247 0.082398176 0.017991329
0.003471352 0.13630283 0.10280607 -0.06291237 -0.0669865 0.020826245 0.18664521 0.0038431985
-0.26681998 -0.27686587 -0.21614458 -0.04402515 -0.09264015 -0.16151531 -0.26635957 -0.024154626
-0.115400314 -0.23951225 -0.13120566 -0.03322968 -0.083710134 -0.11008542 -0.26952806 -0.09336891
-0.07204358 -0.11049745 -0.1486601 -0.17812085 -0.14188144 -0.13751364 -0.27314353 -0.06877059
-0.25094837 -0.13874586 -0.28156853 -0.15995261 -0.16715673 -0.23281254 -0.048471116 -0.20703796
0.17334709 -0.10811559 -0.04059952 -0.10325297 0.029690558 -0.012910022 0.1154936 0.058982138
-0.066793315 0.105064616 0.12491357 0.15555091 0.19180098 0.09501728 -0.015267105 -0.051351156
-0.16982037 -0.25615582 -0.031823587 -0.27536738 -0.03992681 -0.07464189 -0.12279501 -0.18177615
-0.26798305 -0.2266605 -0.22574106 -0.12310427 -0.008269698 -0.18135877 -0.16244024 -0.15601707
-0.15095595 -0.111571044 -0.19168864 -0.16777977 -0.118127845 -0.18848157 -0.2750392 -0.263388
-0.09491198 -0.08485245 -0.26728716 -0.17955725 -0.18692838 -0.214449 -0.15431176 -0.07568584
0.00024494494 -0.0014852365 0.07711103 0.13075292 0.18396357 0.1522054 0.1887549 0.15879677
0.012606809 0.036759924 0.19343288 0.028377425 -0.021766959 0.06820564 0.115442306 -0.00068381283
-0.28555602 -0.17708991 -0.23201331 -0.0983757 -0.034809116 -0.1170032 -0.17750628 -0.16025512
-0.23722191 -0.27593836 -0.027430153 -0.11011051 -0.16921237 -0.1887539 -0.05553735 -0.29258284
-0.07347695 -0.24011128 -0.09739117 -0.094145015 -0.15009506 -0.10582461 -0.26127663 -0.2702216
-0.10732687 -0.071175024 -0.12266122 -0.12150843 -0.10180061 -0.0035295412 -0.08476273 -0.15458278
0.20303854 0.049499385 0.03844853 0.08862559 0.047691707 0.07453433 0.026353667 0.017291404
0.1238969 0.16006581 0.04792648 0.103109926 0.15043584 0.036183838 0.030905306 0.008849521
-0.18939313 -0.18481396 -0.20530294 -0.18415354 -0.092498705 -0.20900045 -0.047722016 -0.13192837
-0.18224847 -0.1326035 -0.04023436 -0.079775445 -0.26993018 -0.06591978 -0.1523681 -0.17855291
-0.26111224 -0.18548645 -0.259049 -0.23571521 -0.13773194 -0.03848835 -0.17881921 -0.09097488
-0.13758737 -0.2884494 -0.01558786 -0.035986595 -0.2511401 -0.05132183 -0.08471004 -0.26882103
0.23463063 0.20612738 0.23304527 0.07685612 0.17346364 0.12572517 0.052756663 0.14362565
0.14457446 0.03383141 -0.004660335 0.21474779 0.23720992 0.25644496 0.079464644 0.094979495
-0.22340365 -0.12151201 0.0037130585 -0.2531663 -0.23291829 -0.28047505 -0.07921029 -0.22726732
-0.20342581 -0.034104608 -0.1174692 -0.055927657 -0.059659936 -0.27294573 -0.2252993 -0.1905924
-0.102107234 -0.25926018 -0.19857757 -0.1819425 -0.049743716 -0.22528283 -0.10915429 -0.20845327
-0.2652781 -0.07494459 -0.024473175 -0.19466838 -0.07225885 -0.13966505 -0.096084 -0.12582266
0.21487074 0.19597407 0.089643925 0.23663642 0.08282473 0.108557895 0.113403745 0.009956682
-0.008420981 -0.0048342254 0.09141231 0.17216744 0.2026017 0.17532857 -0.0003839892 0.030526489

deconv4.0.bias f4 [3]
00000000: 8db8 d9bd 0dc3 a0bc 31bd 7ebd
-0.106309034 -0.019624257 -0.062192146
