03_hw/Pix2Pix/checkpoints/pix2pix_model_epoch_490.pth (torch, 99191 bytes, 32 tensors)

conv1.0.weight f4 [8, 3, 4, 4]
0	0xbdcd5e00	-0.10027695
1	0xbdeb4479	-0.114876695
2	0xbd5d565f	-0.054037448
3	0xbe3de90d	-0.18545933
4	0x3d6eb261	0.058275584
5	0xbdd1f4d8	-0.10251778
6	0xbcb1378b	-0.02163293
7	0x3d7a132e	0.061053447
8	0xbe114320	-0.14185762
9	0xbd3a8e08	-0.045545608
10	0xbb8405f3	-0.0040290295
11	0x3d244601	0.040105823
12	0xbcb7be08	-0.022429481
13	0x3d95f980	0.07322979
14	0x3d909790	0.07060158
15	0xbe0b8e0c	-0.13628405
16	0x3e090aab	0.13382976
17	0x3e4031ee	0.18769047
18	0x3d621fc5	0.05520608
19	0xbbe734ea	-0.0070558684
20	0x3d0ef262	0.034899123
21	0xbcd2065c	-0.025637798
22	0xbda06432	-0.07831611
23	0x3d498f7d	0.049209107
24	0x3df338f2	0.11876096
25	0x3d59ccaf	0.053173717
26	0x3d231bcc	0.03982143
27	0xbd26971f	-0.040671464
28	0xbd97af85	-0.074065246
29	0x3cecd9d6	0.028912466
30	0xbd8460ab	-0.064637505
31	0x3e2a502a	0.16632143
32	0xbdd54018	-0.104126155
33	0x3d21cdcf	0.039502915
34	0xbe17b6dc	-0.14815849
35	0x3d572891	0.05252892
36	0xbde230e6	-0.11044483
37	0xbdda199b	-0.10649415
38	0xbbcabe38	-0.0061872266
39	0xbdf77645	-0.12083105
40	0x3cd3c409	0.025850313
41	0xbcc6451b	-0.024202874
42	0xbabe58dc	-0.0014522332
43	0xbd16582b	-0.036705177
44	0xbd3c82b4	-0.046023086
45	0x3d33cdee	0.04389756
46	0x3d94fab7	0.072743826
47	0x3d3c7c15	0.04601677
48	0xbd8f4ac9	-0.06996686
49	0x3d8da8bf	0.069169514
50	0xbc99d272	-0.018777106
51	0xbc9727c5	-0.01845158
52	0xbb803876	-0.0039129807
53	0x3de83b3b	0.11339422
54	0x3d0b4cc5	0.03400876
55	0xbc3cd063	-0.011524293
56	0x3e157130	0.14593959
57	0x3db3a7fd	0.087722756
58	0xbdcc2b89	-0.09969241
59	0xbd952253	-0.072819375
60	0x3d0e933f	0.034808394
61	0x3e02401c	0.12719768
62	0xbcf3dcd3	-0.029768383
63	0xbcb27d87	-0.021788372
64	0xbb23c4eb	-0.0024989198
65	0x3e0a0d4e	0.13481638
66	0x3c38006a	0.0112305675
67	0xbdac3a7b	-0.08409592
68	0xbd399b68	-0.045314223
69	0xbd9d0f98	-0.0766899
70	0x3d1b3292	0.037890024
71	0xbd06ab08	-0.03287795
72	0x3cfd68a6	0.03093369
73	0xbc0d4a6e	-0.008623702
74	0x3d182b9e	0.03715097
75	0xbe02e212	-0.12781551
76	0x3d7e64da	0.0621079
77	0xbce02664	-0.027362056
78	0x3d7727c6	0.060340665
79	0x3dbd2106	0.09234814
80	0x3b090bb0	0.0020911507
81	0xbd810a7f	-0.0630083
82	0x3d454325	0.048159737
83	0xbe04c6ff	-0.12966536
84	0xbd66eed5	-0.05638011
85	0x3daa6e3e	0.08321808
86	0xbd950813	-0.07276931
87	0x3d863749	0.065535136
88	0xbbb6817e	-0.005569636
89	0xbb91b84c	-0.0044470187
90	0xbc917356	-0.017755192
91	0x3b9bf4c2	0.004759402
92	0xbd80a514	-0.06281486
93	0xbdbea660	-0.09309077
94	0xbced7363	-0.028985685
95	0xbdc55370	-0.09635055
96	0xbe06ae91	-0.1315253
97	0x3d62f465	0.055408854
98	0x3c5b3589	0.013379463
99	0xbd6834a6	-0.056690834
100	0x3c5fdf9a	0.013664151
101	0xbcbf4e65	-0.023352811
102	0x3d847882	0.064682975
103	0x3e0e1a26	0.13877162
104	0xbd9de64d	-0.07709942
105	0x3d3bec1e	0.045879476
106	0xbde458a5	-0.1114972
107	0xbd4ccead	-0.05000179
108	0x3e1dd719	0.15414084
109	0x3d112450	0.03543502
110	0x3d2659db	0.040613037
111	0xbd62909a	-0.055313684
112	0xbd6bb750	-0.057547867
113	0x3b16fad0	0.002303768
114	0x3dcef271	0.10104836
115	0xbde61d93	-0.112361096
116	0x3e04f26a	0.12983099
117	0xbd03e34c	-0.03219919
118	0x3c58e0dc	0.013237204
119	0x3e0495c8	0.12947762
120	0x3cfe2d98	0.0310276
121	0x3d94c6f5	0.072645105
122	0xbdbd96ca	-0.09257276
123	0xbddc32ab	-0.10751852
124	0x3d1fdcb3	0.039028835
125	0x3d03cdc5	0.03217866
126	0xbbbe64b8	-0.0058103465
127	0x3dee6dbe	0.116420254
128	0xbdd18b48	-0.10231644
129	0x3dc133a8	0.09433681
130	0xbc7831c0	-0.01514858
131	0x3d1d4c3c	0.03840278
132	0x3c884f23	0.016639298
133	0x3d860a22	0.065449014
134	0x3dbf303c	0.09335372
135	0xbc57c814	-0.013170261
136	0x3d9e2b39	0.07723088
137	0x3e2ec989	0.17069067
138	0x3dfb27ab	0.122634254
139	0x3d9dca4f	0.07704603
140	0xbdb57523	-0.08860233
141	0x3cdcd7aa	0.026958305
142	0x3dd14494	0.10218158
143	0x3df2684b	0.118362986
144	0x3d778185	0.060426254
145	0x3de96e5e	0.11398004
146	0x3e316859	0.17324962
147	0x3d4d92fe	0.05018901
148	0x3b92e746	0.0044831363
149	0xbd5018b1	-0.050804798
150	0xba91ec9d	-0.0011133138
151	0xbd5158d6	-0.05111011
152	0x3d1d44e0	0.038395762
153	0xbd8a023a	-0.06738706
154	0x3e12a4f3	0.14320736
155	0xbd6da7f1	-0.05802149
156	0x3d59f1c1	0.05320907
157	0x3de795fb	0.113079034
158	0x3dd1226a	0.10211642
159	0xbe226d8e	-0.15862104
160	0xbddf9ceb	-0.109186016
161	0x3db288df	0.08717512
162	0x3e1f94e3	0.1558414
163	0x3cd282f3	0.025697207
164	0x3d8a69c4	0.067584544
165	0x3dc7e479	0.097603746
166	0x3a17e216	0.00057938823
167	0xbd210008	-0.03930667
168	0xbdbdd21b	-0.0926859
169	0xbdb43f1b	-0.08801099
170	0x3d8c24b6	0.068429396
171	0x3dcdfe00	0.10058212
172	0xbdb04c51	-0.08608306
173	0xbd691f19	-0.056914423
174	0xbc647ca5	-0.013945733
175	0xbdadccfb	-0.084863625
176	0x3da318f8	0.07963747
177	0xbe33f7bf	-0.17574976
178	0x3c8d3f6b	0.017242154
179	0x3d007947	0.03136566
180	0xbd65c6b3	-0.056097697
181	0xbde722f0	-0.11285961
182	0xbd307930	-0.043084323
183	0x3c95b5e6	0.018275212
184	0xbded2b36	-0.115805075
185	0x3ddcbf01	0.107786186
186	0xbda29e2e	-0.07940327
187	0x3de2cd5a	0.11074324
188	0xbd6d5bc3	-0.05794884
189	0xbd2af3cb	-0.041736405
190	0xbde01ab1	-0.10942591
191	0x3e035ab2	0.12827566
192	0xbdbc5d7e	-0.0919752
193	0xbe0edbbf	-0.13951014
194	0x3d236ede	0.039900653
195	0x3d4a93dd	0.04945742
196	0x3e09cfae	0.1345813
197	0xbc7d7516	-0.01546981
198	0xb9cedb28	-0.00039454666
199	0xbe0eb48d	-0.13936062
200	0x3dc0be61	0.09411312
201	0xbd9fef6b	-0.07809337
202	0x3de816bd	0.11332462
203	0x3d535798	0.051597208
204	0x3d3f8620	0.04675877
205	0xbe333ed9	-0.17504443
206	0xbdbd77f3	-0.09251394
207	0xbc99c6e0	-0.018771589
208	0xbcd9390c	-0.02651646
209	0x3d798b9f	0.06092417
210	0x3d1e6a42	0.038675554
211	0x3dc17e65	0.09447936
212	0xbdc3877e	-0.095473275
213	0xbd9e9723	-0.07743671
214	0xbb8f7c91	-0.004378863
215	0x3da163ef	0.07880389
216	0xbd070f19	-0.032973383
217	0xbe04a5c4	-0.1295386
218	0xbe47ec4f	-0.19523738
219	0xbe6c6a2a	-0.23087373
220	0xbde1e55d	-0.11030076
221	0xbcaa570f	-0.020793466
222	0xbe49a032	-0.19690016
223	0x3cf8269e	0.030291852
224	0x3de12b3e	0.10994576
225	0x3c903d1a	0.01760726
226	0x3d7b8ba1	0.061412457
227	0xbdd61bc5	-0.10454515
228	0x3d9594a8	0.073037446
229	0xbd726bb8	-0.05918476
230	0x3dbfa2b2	0.093572035
231	0xbd9b4820	-0.07582116
232	0xbd6651da	-0.056230403
233	0x3dbe0e8b	0.092801176
234	0xbd5813f1	-0.052753393
235	0x3d8306bb	0.06397768
236	0x3dc9ca09	0.09852988
237	0x3cf7781d	0.030208642
238	0xbbb2f0c3	-0.00546083
239	0xbd6dcc2b	-0.058056038
240	0x3d1dff6f	0.03857368
241	0xbdec8466	-0.115486905
242	0xbd8bfbff	-0.06835174
243	0xbd28f4d1	-0.0412491
244	0xbd69e46e	-0.057102613
245	0xbdc59cab	-0.09649023
246	0x3df3aea0	0.118985415
247	0xbb0d54fa	-0.0021565543
248	0x3dce2805	0.10066227
249	0x3c7b9320	0.015354902
250	0x3dc1e75d	0.09467957
251	0xbde8394e	-0.11339055
252	0xbd1de548	-0.038548738
253	0x3ddd4c32	0.10805549
254	0x3e00f2af	0.12592576
255	0x3d613f8c	0.054992244

conv1.0.bias f4 [8]
0	0x3e0861d7	0.13318573
1	0x3b8e6f8b	0.004346793
2	0xbd0f41cd	-0.034974862
3	0x3dfeee4b	0.124477945
4	0x3d91ba76	0.07115643
5	0x3dce996c	0.10087857
6	0xbddea781	-0.108717926
7	0xbc43421e	-0.011917619

conv1.1.weight f4 [8]
0	0x3f80cbad	1.0062157
1	0x3f7b94cb	0.98273915
2	0x3f7f81d5	0.9980748
3	0x3f7494ca	0.95539534
4	0x3f80d53e	1.0065076
5	0x3f73117e	0.94948566
6	0x3f829ed1	1.0204717
7	0x3f874abd	1.0569683

conv1.1.bias f4 [8]
0	0xba14224d	-0.0005650863
1	0xbd2e4a41	-0.042551283
2	0xbd011e22	-0.031522878
3	0xbc0f7532	-0.008755969
4	0xbb9e106e	-0.004823736
5	0x3da121e7	0.078677945
6	0xbd33a62a	-0.04385964
7	0x3dd27a5e	0.10277246

conv1.1.running_mean f4 [8]
0	0x3e4d3d02	0.20042804
1	0xbce75c84	-0.028242357
2	0xbdd22c9c	-0.10262415
3	0x3d6e7cc3	0.05822445
4	0x3e338e86	0.17534837
5	0x3da029cb	0.078204714
6	0xbdeb0ea3	-0.11477401
7	0xbc3969bf	-0.011316716

conv1.1.running_var f4 [8]
0	0x3d49cf16	0.04926976
1	0x3c67cb34	0.0141475685
2	0x3e82a70e	0.25518078
3	0x3cce3670	0.025172442
4	0x3e1041c8	0.14087594
5	0x3d0a8c82	0.033825405
6	0x3ca3bc0a	0.019987125
7	0x3cf7334a	0.030175824

conv2.0.weight f4 [16, 8, 4, 4]
0	0x3d8ad8ed	0.067796566
1	0x3dc4723b	0.095921
2	0x3cf86188	0.030319944
3	0x3d390d3f	0.045178648
4	0xbda490d5	-0.08035437
5	0x3d9606c6	0.07325511
6	0xbd3ff3e4	-0.04686345
7	0x3d91793e	0.07103203
8	0xbd9c8012	-0.07641615
9	0x3d8dc985	0.069232024
10	0x3d5298f1	0.051415388
11	0x3c91f615	0.017817536
12	0xbce9186c	-0.028454028
13	0xbdcf6dc5	-0.10128359
14	0xbdd0c933	-0.10194626
15	0x3c93885f	0.018009363
16	0xbc8957f9	-0.016765581
17	0x3dcd1dac	0.10015425
18	0x3d95979d	0.073043086
19	0xbcb3272e	-0.021869268
20	0x3d60d035	0.05488606
21	0xbd899341	-0.067175396
22	0x3cce1cbc	0.025160186
23	0xbcc5b096	-0.024132054
24	0x3ce7745f	0.028253732
25	0x3c091305	0.008366351
26	0xbd586ed8	-0.052840084
27	0x3cb56f9d	0.022147948
28	0x3d1b03f5	0.03784557
29	0x3ce393be	0.02778041
30	0xbcd03859	-0.025417494
31	0xbdb611db	-0.088901244
32	0xbd2d9aa4	-0.042383805
33	0x3c93a55c	0.018023185
34	0x3d2affb5	0.041747767
35	0xbd1f3eb3	-0.038878154
36	0xbdb27507	-0.087137274
37	0xbc9d9989	-0.01923825
38	0xbc246afb	-0.010035272
39	0x3d44cca6	0.04804673
40	0xbd19a463	-0.037510287
41	0xbd8f5d0d	-0.0700017
42	0xbc4c6783	-0.012475851
43	0xbcd3e75f	-0.025867162
44	0xbdda2ae8	-0.10652715
45	0xbdbdf583	-0.09275343
46	0xbd9d02f2	-0.076665774
47	0xbdc3d5eb	-0.09562286
48	0x3d2b28b7	0.041786876
49	0xbccfb567	-0.025355054
50	0x3cfa42ab	0.030549368
51	0x3c7b828b	0.015350948
52	0x3c93dae7	0.018048717
53	0x3cda9790	0.026683599
54	0xbd784fd2	-0.060622998
55	0xbd44c47c	-0.048038945
56	0x3ac4ea49	0.0015023436
57	0xbcfde99b	-0.03099518
58	0x3c256b60	0.010096401
59	0xbb0107af	-0.0019688418
60	0x3db5d8b3	0.08879223
61	0xbc9c07f0	-0.019046754
62	0x3bbdb6bb	0.0057896054
63	0x37d392f4	2.522159e-05
64	0x3d756994	0.05991514
65	0xbce01640	-0.02735436
66	0x3b715783	0.0036825843
67	0x3d36a031	0.044586364
68	0x3d24d24d	0.04023962
69	0x3b5c6abd	0.0033632957
70	0x3dceb102	0.10092355
71	0xbc20c4e5	-0.009812568
72	0x3d5b616b	0.053559702
73	0xbd0ac94e	-0.033883385
74	0x3da95d5b	0.08269759
75	0x3d4a27f9	0.049354527
76	0xbd9e8fc5	-0.077422656
77	0xbcc7f9d4	-0.02441112
78	0xbd57b8e1	-0.05266655
79	0xbd1f621b	-0.03891192
80	0xbda9aa07	-0.08284383
81	0xbdc82b0d	-0.09773836
82	0x3bceeff3	0.0063152253
83	0x3a89d211	0.0010514875
84	0xbbb3b009	-0.0054836315
85	0xbcb18f9e	-0.021674927
86	0x3d2faff0	0.042892396
87	0x3c079613	0.008275527
88	0x3b6da8c0	0.0036263913
89	0x3d8898ff	0.06669807
90	0x3d40a5c1	0.047033075
91	0x3d909786	0.07060151
92	0xbbbe4af1	-0.0058072736
93	0x3bfc7534	0.0077044014
94	0xbd8ac27f	-0.067753784
95	0x3c3b79c3	0.0114426045
96	0x3d8db540	0.06919336
97	0x3ada25d7	0.0016643357
98	0x3db6b55b	0.089213096
99	0x3d45ff1e	0.048339
100	0x3d9a2191	0.075259335
101	0x3d21a013	0.0394593
102	0x3cd08eec	0.025458775
103	0x3d5ebccb	0.054379266
104	0xbc851321	-0.016244473
105	0x3cf425c5	0.029803166
106	0xbc3b9cfe	-0.011451004
107	0x3d6518e1	0.05593193
108	0xbb495ad3	-0.0030724301
109	0x3dc20841	0.094742306
110	0x3ce38002	0.027771
111	0x3dbf97e7	0.09355145
112	0x3abd3906	0.001443655
113	0x3c819824	0.015819617
114	0xbd035789	-0.032065902
115	0x3bcbe77a	0.0062226625
116	0xbd0662c5	-0.032809038
117	0xbbc2f60d	-0.0059497417
118	0xbceabc93	-0.028654372
119	0xbcc2de83	-0.023787742
120	0x3d97a7c4	0.07405046
121	0x3ca286e7	0.019839717
122	0x3d4c5451	0.049885098
123	0x3d447b20	0.047968984
124	0x3d5c87e3	0.05384053
125	0xbc277b0f	-0.010222211
126	0x3d4adf75	0.04952951
127	0xbd096d0a	-0.033551253
128	0x3cd2b986	0.02572323
129	0x3bc26e6b	0.005933573
130	0xbd014a73	-0.03156514
131	0xbd760259	-0.060060833
132	0xbd3f75cd	-0.046743203
133	0xbd95c115	-0.07312218
134	0xbd17ff3a	-0.037108637
135	0x3d9b6654	0.07587877
136	0x3d52f64e	0.051504426
137	0x3a3723ea	0.00069862476
138	0xbbfa919d	-0.007646753
139	0x3d929384	0.071570426
140	0xbd5dc865	-0.05414619
141	0xbbbeb96c	-0.005820444
142	0x3dc0047c	0.09375855
143	0xbd4d353c	-0.050099596
144	0x3c9ff11b	0.019524148
145	0x3d0d4cd9	0.034497116
146	0xbd543c82	-0.051815517
147	0xbd95c765	-0.07313422
148	0xbdbd0ba4	-0.09230736
149	0xbd5792ad	-0.052630115
150	0xbdadbf75	-0.08483783
151	0xbd0674a7	-0.032826092
152	0x3c287f8e	0.010284318
153	0xbd4e71c4	-0.050401464
154	0x3d75e6f6	0.060034715
155	0x3cef061a	0.029177714
156	0x39e75a3f	0.00044126992
157	0xbd02eb31	-0.031962577
158	0x3da7883c	0.081802815
159	0x3deb357e	0.11484812
160	0xbdd28dd8	-0.10280961
161	0xbcf607ba	-0.030032981
162	0x3d86796d	0.06566129
163	0xbc9ea36c	-0.019365035
164	0x3d831e23	0.064022325
165	0x3d0d4ce8	0.03449717
166	0x3d333a70	0.043756902
167	0xbd779580	-0.06044531
168	0x3c95ad52	0.018271122
169	0xbc382841	-0.011240066
170	0xbdadbaa7	-0.08482867
171	0x3d1447f6	0.03620144
172	0x3c642fd3	0.013927418
173	0xbd5df3d3	-0.054187607
174	0x3ca77ad1	0.020444306
175	0x3d7fde16	0.062467657
176	0xbcc7c5ba	-0.024386276
177	0xbd0a8cdc	-0.03382574
178	0x3dcc42d9	0.09973688
179	0xbbfc3f52	-0.007697978
180	0xbd5cabf6	-0.053874932
181	0xbd2bfe12	-0.041990347
182	0xbd58e0ce	-0.052948765
183	0x3d31c57b	0.043401223
184	0xbcd845f5	-0.026400546
185	0xbd79a40d	-0.060947467
186	0xbda69afd	-0.081350304
187	0x3c803238	0.015648946
188	0xbd9030e1	-0.07040573
189	0x3c1776ec	0.009244662
190	0x3d1ee0af	0.038788494
191	0xbc245e12	-0.010032194
192	0xbcd724ba	-0.02626263
193	0xbd80d100	-0.062898636
194	0xbb949932	-0.004534864
195	0x3b687056	0.0035467348
196	0xbc92e816	-0.017932933
197	0x3d2f0d59	0.04273734
198	0x3d0cf5cb	0.034414094
199	0xbd50dbcf	-0.050990876
200	0xbd7a4a1f	-0.061105844
201	0xbd86409c	-0.06555292
202	0xbd9fd90d	-0.07805071
203	0x3d3fd6af	0.046835598
204	0xbbdf8d29	-0.0068222475
205	0xbcc599fa	-0.024121273
206	0x3dc638ac	0.09678778
207	0xbd0d973e	-0.034568064
208	0xbcee23f5	-0.02906988
209	0xbd1a0926	-0.03760638
210	0xbd985584	-0.07438186
211	0xbd56382c	-0.052299663
212	0x3d209c7e	0.039211743
213	0xbd0f2806	-0.03495028
214	0xbdba4ff2	-0.090972796
215	0xbdf0875d	-0.117445685
216	0x3ca04524	0.019564219
217	0xbd158a26	-0.0365087
218	0xbcef5fca	-0.02922048
219	0xbc6750e1	-0.014118404
220	0x3c5b9b86	0.013403779
221	0xbd8a0ee3	-0.06741121
222	0xbd1b361c	-0.0378934
223	0x3c7374dd	0.014859405
224	0x3c70a5d5	0.014687975
225	0xbb873469	-0.004126121
226	0xbcfb65a9	-0.030688124
227	0x3d8ecd55	0.06972758
228	0x3d4bccf5	0.04975601
229	0xbd52843d	-0.051395644
230	0xbd2b1bcd	-0.04177456
231	0x3caf791f	0.02142006
232	0xbda9a771	-0.0828389
233	0xbc5b26ee	-0.013375981
234	0xbe35d49e	-0.17756888
235	0xbd77eaa9	-0.060526524
236	0x3b0102af	0.0019685437
237	0xbd98138e	-0.07425605
238	0xbdad8775	-0.08473102
239	0x3cd11ae5	0.02552552
240	0x3ccfb8f8	0.025356755
241	0xbd73fed1	-0.059569184
242	0x3b8ca5bd	0.0042922185
243	0xbc64c4bc	-0.013962921
244	0xbe2cedbb	-0.16887562
245	0xbe0fcdee	-0.140434
246	0xbdbca6bd	-0.0921149
247	0x3c897b7d	0.016782517
248	0xbce194fb	-0.02753686
249	0xbe5817d6	-0.21102843
250	0xbdfd90b3	-0.12381115
251	0xbd990d68	-0.0747326
252	0xbabcb592	-0.0014397374
253	0xbc9a5398	-0.018838689
254	0xbd958fe4	-0.073028356
255	0x3cdf83fa	0.027284611

conv2.0.bias f4 [16]
0	0xbdb21f7b	-0.08697411
1	0x3daa3792	0.083113804
2	0x3d8824a4	0.06647614
3	0xbc450e72	-0.01202737
4	0xbd0fe5e9	-0.03513137
5	0x3be2f0c1	0.0069256728
6	0xbd1345cb	-0.03595523
7	0xbd6edb29	-0.058314476
8	0xbca7be21	-0.020476403
9	0x3d2c33ee	0.04204171
10	0xbd722060	-0.059112906
11	0xbd079fe7	-0.03311148
12	0xbd328c34	-0.04359074
13	0xbdad54f7	-0.084634714
14	0x3d8ce3ca	0.06879385
15	0xbd93965b	-0.072064124

conv2.1.weight f4 [16]
0	0x3f78dd59	0.9721275
1	0x3f88c842	1.0686114
2	0x3f7b228a	0.9809958
3	0x3f7bafe5	0.9831527
4	0x3f7d8b25	0.9904044
5	0x3f7b5d65	0.98189384
6	0x3f801ead	1.0009362
7	0x3f829afe	1.020355
8	0x3f75a28a	0.9595114
9	0x3f803d0d	1.0018631
10	0x3f810ce9	1.0082065
11	0x3f8146f3	1.0099777
12	0x3f8a1841	1.0788652
13	0x3f7e4be1	0.9933453
14	0x3f803af9	1.0017997
15	0x3f7f7904	0.9979403

conv2.1.bias f4 [16]
0	0xbbcbe9c2	-0.0062229345
1	0xbbedafdf	-0.0072536315
2	0x3c1078de	0.0088178795
3	0xbda79237	-0.08182185
4	0xbc324b00	-0.010882139
5	0xbd28e469	-0.041233454
6	0xbd09dcb4	-0.033657745
7	0xbd2e66e5	-0.042578597
8	0xbce3a532	-0.027788732
9	0x3cabb339	0.020959483
10	0x3c369370	0.01114355
11	0xbc39ee40	-0.011348307
12	0xbd2beae3	-0.041972052
13	0x3caa0d00	0.020758152
14	0x3cacba42	0.021084908
15	0xbb8ed5a9	-0.0043589664

conv2.1.running_mean f4 [16]
0	0x3d88b171	0.06674469
1	0xbf52f7cc	-0.8240936
2	0xbe35fc70	-0.17772079
3	0x3f8827f8	1.0637197
4	0xbe579298	-0.21052015
5	0xbe67b5fb	-0.22628014
6	0xbb8b1d74	-0.0042454544
7	0x3d0e0153	0.03466923
8	0xbe1d4063	-0.15356593
9	0xbf307200	-0.6892395
10	0xbcb61c9a	-0.022230435
11	0x3f02ba05	0.51065093
12	0xbd5730c5	-0.052536745
13	0xbef2d9b7	-0.47431728
14	0x3d72059e	0.05908739
15	0x3e13da28	0.14438689

conv2.1.running_var f4 [16]
0	0x3e8c915e	0.27454656
1	0x3eb759e8	0.3581078
2	0x3f020f9f	0.50805086
3	0x3eaf79f2	0.34272724
4	0x3e5e7aa8	0.21726477
5	0x3dfb1b9b	0.12261125
6	0x3d9ae226	0.07562666
7	0x3e35f1ab	0.1776797
8	0x3efb37f6	0.49066132
9	0x3ed8bded	0.42332402
10	0x3e22022e	0.15821144
11	0x3e5d4bfb	0.21611015
12	0x3ecb69ee	0.39729255
13	0x3e7b4773	0.24538974
14	0x3e638793	0.22219686
15	0x3e8799d6	0.26484555

conv3.0.weight f4 [32, 16, 4, 4]
0	0x3cb5472e	0.022128668
1	0xbb92ef56	-0.0044840975
2	0xbd62c4bc	-0.0553634
3	0xbd868a94	-0.065694004
4	0xbd4e2006	-0.05032351
5	0xba9c8b20	-0.0011943318
6	0x3b0782d3	0.0020677343
7	0xbc884c5f	-0.01663798
8	0xbd26957b	-0.0406699
9	0xbc7e2992	-0.015512841
10	0xbb377f67	-0.0027999522
11	0xbd3e6f93	-0.046493124
12	0xbd1810ce	-0.0371254
13	0x3cf05679	0.029338108
14	0x3cdb485a	0.026767898
15	0x3c3a5615	0.011373063
16	0xbda72f23	-0.081632875
17	0xbd0c1d2b	-0.034207504
18	0xbc33790e	-0.010954155
19	0xbabf24e8	-0.0014583142
20	0xbcb824d9	-0.022478508
21	0xbcf803f2	-0.030275319
22	0x3d0e429f	0.034731504
23	0xbd207602	-0.03917504
24	0xbd2ff4e3	-0.04295815
25	0xbd89983a	-0.06718488
26	0xbc959213	-0.01825813
27	0x3a889113	0.0010419212
28	0xbd08be50	-0.03338462
29	0x3bea9504	0.0071588773
30	0xbd25e078	-0.040497273
31	0xbd7d5bf2	-0.061855264
32	0x3d549089	0.051895652
33	0xbb8d5148	-0.004312668
34	0xbb14cc67	-0.002270484
35	0x3ced9eaa	0.029006321
36	0x3c97dcfe	0.018537994
37	0xbc513d42	-0.012770953
38	0x3c08a0a7	0.008339084
39	0x3d6f0647	0.058355596
40	0x3c332839	0.010934883
41	0x3d3b0a67	0.045664217
42	0x3c5ef74d	0.013608766
43	0xbbc84a0e	-0.0061123436
44	0x3c1f057a	0.009705896
45	0x3ca21c35	0.01978884
46	0x3cadadd5	0.021201054
47	0x3c48dc50	0.012259558
48	0xba9c54fa	-0.001192718
49	0xbc1adcb2	-0.009452032
50	0xbcfdb345	-0.030969271
51	0xbd8a2d8c	-0.067469686
52	0xbc2d08ac	-0.01056115
53	0x3d64c2cf	0.055849846
54	0xbce30550	-0.027712494
55	0xbd1c041c	-0.038089857
56	0x3cc2a362	0.023759548
57	0xbce48b1f	-0.02789837
58	0xbd20ad9e	-0.039228074
59	0xbd5bebd6	-0.053691708
60	0x3d2cfcfc	0.042233452
61	0xbceccc3d	-0.028905982
62	0x3d406def	0.04697984
63	0xbd791acb	-0.060816567
64	0x3d411423	0.047138344
65	0x3c69aa19	0.014261746
66	0x3d00546e	0.03133052
67	0x3ccf4a53	0.025303995
68	0x3b558c59	0.0032584874
69	0x3c063326	0.008190906
70	0x3d134f38	0.03596422
71	0xbc8022f1	-0.015641661
72	0xbc0e13df	-0.00867173
73	0xbcc34f84	-0.023841627
74	0xbc7fbf4b	-0.015609573
75	0x3ccea70a	0.025226135
76	0xbd45f8cc	-0.048332974
77	0x3d72bb40	0.059260607
78	0xbc139e65	-0.009009932
79	0xbc30b21b	-0.010784651
80	0xbbaf240d	-0.0053448738
81	0x3d06bad3	0.032893013
82	0x3c19280b	0.009347926
83	0xbcc674c4	-0.0242256
84	0xbcf9043e	-0.03039753
85	0x3cf41926	0.029797148
86	0x3ba72bf5	0.0051016756
87	0x3aa1f855	0.0012357334
88	0x3d68ca06	0.05683329
89	0xbce7d8a9	-0.028301554
90	0x3c3757a2	0.011190327
91	0x3cc4c122	0.024017874
92	0xbc4613ee	-0.012089713
93	0xbd5641c7	-0.052308824
94	0xbc2448ae	-0.010027094
95	0xbd09664d	-0.033544827
96	0x3d994584	0.07483962
97	0x3d0eb38b	0.034839194
98	0x3be68052	0.00703434
99	0x3b2fe014	0.0026836442
100	0x3d11070d	0.035407115
101	0xbaf1cc92	-0.0018447808
102	0xbd05582c	-0.03255479
103	0xbc94d06a	-0.018165786
104	0x3ccbb624	0.024867125
105	0xbd8431f9	-0.06454844
106	0xbd818619	-0.06324405
107	0xbc9c616b	-0.019089421
108	0x3d4682fa	0.048464753
109	0xbccb442b	-0.024812778
110	0xbd234f5d	-0.03987061
111	0x3c9cda34	0.019147016
112	0x3c0a5490	0.008443013
113	0x3d41315a	0.047166206
114	0xbd5df8a7	-0.05419221
115	0xbd7f6f62	-0.062362082
116	0x3d86d2e8	0.06583196
117	0xbb6b37be	-0.003589138
118	0xbd4974d5	-0.049183685
119	0xbd1bef78	-0.038070172
120	0xbd8d4256	-0.06897418
121	0x3c0eed1f	0.008723526
122	0xbd9c8b7a	-0.076437905
123	0xbdf2fa7e	-0.11864184
124	0xbc375e4e	-0.011191918
125	0x3d8ea6ea	0.0696543
126	0xbb28f9e4	-0.0025783712
127	0xbd43bee7	-0.04778948
128	0xbc11fce3	-0.008910391
129	0xbd53c956	-0.05170568
130	0xbcdb0a74	-0.026738383
131	0xbd37972b	-0.0448219
132	0xbc134746	-0.008989161
133	0x3d302b8f	0.04301029
134	0xbc7dfb59	-0.0155018205
135	0xbce4666a	-0.027880866
136	0xbd39bdaf	-0.045346912
137	0xbc8b8ff1	-0.01703641
138	0x3793ce1c	1.7619743e-05
139	0xbd4da353	-0.050204586
140	0xbd122bba	-0.035686232
141	0x3ce52941	0.027973773
142	0x3c1eac9c	0.009684708
143	0xbd9a6fc5	-0.075408496
144	0xbc7c5c3d	-0.015402851
145	0x3d035792	0.032065935
146	0x3d26f21b	0.040758234
147	0xbd3d3639	-0.04619429
148	0xbbb44c62	-0.0055022696
149	0xbd5782d0	-0.052614987
150	0xbaa0a6f9	-0.0012256793
151	0xbd1e08c6	-0.038582586
152	0xbd58017a	-0.052735783
153	0xbd3ee2c0	-0.046602964
154	0xbc44aa35	-0.012003471
155	0x3d8b37fa	0.06797786
156	0x3c8d406a	0.01724263
157	0x3ce3ca2a	0.02780636
158	0xbd3f7acd	-0.04674797
159	0xbd8eb780	-0.069685936
160	0x3d35985b	0.04433475
161	0x3da2b8ae	0.07945381
162	0x3bf83bbe	0.007575481
163	0x3d15368c	0.036428973
164	0xbcb7ca01	-0.02243519
165	0x3bc400a6	0.0059815226
166	0xbbf548c1	-0.0074854796
167	0x3c229f21	0.009925635
168	0x3d8b447d	0.068001725
169	0x3d3d7337	0.046252456
170	0x3d2eac22	0.042644627
171	0xbcec2a87	-0.028828872
172	0x3d2dae4d	0.042402554
173	0xbd1f51fa	-0.03889654
174	0x3c87db9d	0.016584212
175	0x3cde8625	0.027163574
176	0x3c893e6c	0.016753398
177	0x3d2e4be2	0.042552836
178	0xba439b90	-0.000746184
179	0xbd9660bd	-0.0734267
180	0xbc08ad52	-0.008342104
181	0x3c8bd07c	0.017067187
182	0xbdade22f	-0.08490407
183	0xbd694b83	-0.05695678
184	0x3d8c6a55	0.06856219
185	0x3cf23a6c	0.029568873
186	0x3d39233f	0.04519963
187	0x3bb5e625	0.005551117
188	0x3d5d0593	0.053960394
189	0xbd32bd5c	-0.04363762
190	0xbd6bd5e7	-0.05757704
191	0x3b9c43b1	0.0047688116
192	0xbd167086	-0.036728404
193	0x3c070ff5	0.008243551
194	0x3d2feb7b	0.04294918
195	0xbd9904c9	-0.07471616
196	0x3cd6b028	0.026207045
197	0xbc686b04	-0.014185671
198	0xbd3c67a6	-0.045997284
199	0xbdafd52b	-0.085855804
200	0xbc8a3c72	-0.016874526
201	0xbdb82e65	-0.08993224
202	0xbd24441f	-0.040104028
203	0xbe000edf	-0.12505673
204	0xbd69eb84	-0.05710937
205	0x3d2c716f	0.042100366
206	0xbd7f7b66	-0.06237354
207	0xbd59b94f	-0.05315524
208	0x3d545c9c	0.05184613
209	0x3c50904b	0.012729715
210	0x3d0e87aa	0.034797348
211	0xbcd34937	-0.025791747
212	0x3ca134f1	0.019678565
213	0x3b94c71e	0.004540338
214	0xbb4700ab	-0.0030365388
215	0xbcdafb2f	-0.026731102
216	0x3d09c40e	0.033634238
217	0x3d095cbc	0.033535704
218	0x3d125d27	0.03573337
219	0xbc259ec6	-0.010108655
220	0xbc8bf44d	-0.017084265
221	0xbd9d95ef	-0.07694613
222	0x3d035026	0.032058857
223	0xbc2ddaeb	-0.010611276
224	0x3d8ff618	0.070293605
225	0x3d5ac32a	0.05340878
226	0xbd1fb903	-0.0389948
227	0xbd0726e4	-0.032996073
228	0x3c997cef	0.01873633
229	0xbd4c7551	-0.04991657
230	0xbd1b7f34	-0.037963107
231	0x3cbf0da9	0.023321943
232	0x3b960e80	0.0045793653
233	0x3d264dc7	0.040601518
234	0x3d56e43a	0.052463748
235	0xbd3d1663	-0.046163928
236	0xbd1bc2db	-0.038027626
237	0x3d2d243d	0.042270888
238	0xbd968e4f	-0.07351362
239	0xbc4a5f2b	-0.012351791
240	0xbc0d07b9	-0.008607798
241	0x3bb7ed95	0.005613039
242	0x3c96e664	0.018420406
243	0x3ac34b1a	0.0014899701
244	0x3d833640	0.06406832
245	0xbce4b7e5	-0.027919719
246	0x3d27b27b	0.040941697
247	0x3d36def5	0.044646222
248	0x3d290d32	0.04127235
249	0x3d3caddc	0.046064243
250	0xbd9c7e18	-0.07641238
251	0xbdb04e42	-0.086086765
252	0xbd058087	-0.032593276
253	0xbbb2708b	-0.005445545
254	0xbd66ae3d	-0.05631851
255	0xbd44df8c	-0.048064753

conv3.0.bias f4 [32]
0	0x3c6c1a63	0.014410588
1	0x3d6d2735	0.05789872
2	0x3c678ad4	0.01413222
3	0xbd71face	-0.059077077
4	0x3b86d11d	0.0041142837
5	0xbd61b41e	-0.055103414
6	0xbcc1bbeb	-0.023649177
7	0x3d7a01bd	0.061036814
8	0x3d0d40ba	0.034485556
9	0x3caaa07c	0.020828478
10	0xbc73e947	-0.014887161
11	0x3cfe7203	0.031060224
12	0x3cffbafe	0.031217095
13	0xbbede861	-0.0072603677
14	0xbd7c1b0c	-0.06154923
15	0x3c2bbe1f	0.01048234
16	0xbd020503	-0.03174306
17	0x3c96a29e	0.018388089
18	0x3d411538	0.047139376
19	0x3cd210ff	0.02564287
20	0x3d3d236c	0.04617636
21	0x3d502641	0.05081773
22	0x3c378050	0.011200026
23	0x3d3fdc91	0.046841208
24	0x3c3f7358	0.011685215
25	0xbd268379	-0.040652726
26	0xbc3ec8cb	-0.011644552
27	0xbc541c8f	-0.012946262
28	0xbd7f16db	-0.062277656
29	0xbd4fa8c1	-0.050698046
30	0xbd5c3e74	-0.053770497
31	0x3d74ceea	0.05976764

conv3.1.weight f4 [32]
0	0x3f7cd9b4	0.9876969
1	0x3f7dc43d	0.9912756
2	0x3f807e1c	1.0038486
3	0x3f84d279	1.0376731
4	0x3f7a34e5	0.9773696
5	0x3f7dcc01	0.9913941
6	0x3f7ca431	0.98688036
7	0x3f7bf1e6	0.9841598
8	0x3f7953ae	0.9739331
9	0x3f80fd05	1.0077215
10	0x3f7ccf46	0.98753774
11	0x3f7d0f4b	0.9885146
12	0x3f848541	1.0353166
13	0x3f794452	0.97369874
14	0x3f813ae6	1.0096099
15	0x3f8235a5	1.0172621
16	0x3f811c00	1.008667
17	0x3f817c14	1.0115991
18	0x3f7f9800	0.9984131
19	0x3f7fdb22	0.99943745
20	0x3f7bb340	0.9832039
21	0x3f866a03	1.0501102
22	0x3f800a14	1.0003076
23	0x3f807e97	1.0038632
24	0x3f7a0486	0.9766315
25	0x3f797851	0.97449213
26	0x3f85c92f	1.0452021
27	0x3f817a3d	1.0115429
28	0x3f7d4859	0.9893852
29	0x3f84f835	1.0388247
30	0x3f885b2f	1.0652827
31	0x3f810b3b	1.0081552

conv3.1.bias f4 [32]
0	0xbd9162a5	-0.07098893
1	0xbc0295bd	-0.007970271
2	0xbc9e340d	-0.01931193
3	0xbe2cee7d	-0.16887851
4	0xbcdb7b55	-0.026792208
5	0xbc1ee239	-0.00969749
6	0x3cb8dd7a	0.022566546
7	0x3970a320	0.00022948952
8	0x3cc623e9	0.024187045
9	0xbc9621b3	-0.018326616
10	0xbb62212b	-0.0034504633
11	0x3d556220	0.052095532
12	0x3d9c748a	0.076394156
13	0xbce44dc8	-0.02786912
14	0xbc8cc801	-0.017185213
15	0xbd2e0c35	-0.04249211
16	0x3c57b649	0.013166019
17	0xbc4344bf	-0.011918246
18	0xbbaa294e	-0.005192912
19	0xbd6eeeff	-0.058333393
20	0xbc6bf9f6	-0.014402857
21	0xbd0fe3d7	-0.035129394
22	0x3c04db72	0.00810896
23	0xbc5f9b0c	-0.013647806
24	0xbbd6c0da	-0.0065537514
25	0xbc70fbd9	-0.014708483
26	0xbc59f0f8	-0.01330208
27	0x3c18e350	0.009331539
28	0xbd3b2571	-0.045690004
29	0xbd23787a	-0.039909817
30	0xbd80cf28	-0.06289512
31	0x3b176bb0	0.0023104958

conv3.1.running_mean f4 [32]
0	0xbf0cefa4	-0.5505316
1	0xbf1d4620	-0.6143513
2	0xbe2066ea	-0.15664259
3	0xbd928462	-0.07154156
4	0xbec3b6ce	-0.38225406
5	0x3e924723	0.28569898
6	0xbddefe77	-0.10888379
7	0x3d1e2a0e	0.038614325
8	0xbd97eb86	-0.074179694
9	0xbe9044ab	-0.2817739
10	0xbe833eb9	-0.2563379
11	0xbf111d13	-0.5668499
12	0xbef84dfd	-0.48497
13	0xbf619811	-0.8812266
14	0xbec6f49a	-0.3885849
15	0xbea4811c	-0.32129753
16	0xbedafa56	-0.42769116
17	0xbe231cf5	-0.15929015
18	0x3d7b18bc	0.061302885
19	0x3e154b50	0.1457951
20	0xbf140ec7	-0.5783505
21	0xbcad3ef8	-0.02114819
22	0xbe8b492e	-0.2720427
23	0xbe88b4eb	-0.2670053
24	0x3e2ee4df	0.17079495
25	0xbec87a48	-0.39155793
26	0xbe9ddf08	-0.30834222
27	0xbf06489e	-0.52454555
28	0xbdeb0331	-0.11475218
29	0x3e281c18	0.16416967
30	0xbf04615b	-0.5171105
31	0xbeda4bee	-0.42636055

conv3.1.running_var f4 [32]
0	0x3e4f1f4e	0.20226786
1	0x3e90e27c	0.28297794
2	0x3e0702d8	0.13184679
3	0x3e488684	0.19582564
4	0x3e7306fc	0.23733133
5	0x3e574cd9	0.21025409
6	0x3ed4170b	0.4142383
7	0x3e81ea13	0.25373897
8	0x3ddfc172	0.10925569
9	0x3e9e0825	0.3086559
10	0x3e523062	0.20526269
11	0x3e92ecdd	0.28696337
12	0x3ec97717	0.3934867
13	0x3e260401	0.16212465
14	0x3e414e19	0.18877448
15	0x3e131c85	0.14366348
16	0x3e3952e1	0.18098022
17	0x3e3cb22a	0.18427339
18	0x3e2948da	0.16531697
19	0x3df6a1a4	0.12042549
20	0x3e438d05	0.19096763
21	0x3e060262	0.13086846
22	0x3e81183c	0.25213802
23	0x3e7746fc	0.24148172
24	0x3e3ca22b	0.18421237
25	0x3e3cea5c	0.18448776
26	0x3e013715	0.12618668
27	0x3ec87620	0.39152622
28	0x3e66835b	0.22511046
29	0x3e2290c1	0.15875532
30	0x3e0ff1d9	0.14057101
31	0x3e6e9d3a	0.23302165

deconv2.0.weight f4 [32, 16, 4, 4]
0	0xbda38aa1	-0.07985426
1	0x3c51a752	0.01279624
2	0xbc956baf	-0.018239824
3	0x3c3940fe	0.011306999
4	0xbd2d7f14	-0.04235752
5	0x3c79746d	0.015225512
6	0xbcc3cb9e	-0.023900803
7	0x3a8d94c1	0.0010801778
8	0xbd479d7b	-0.04873417
9	0x3b4b101c	0.0030984944
10	0xbd1d96c8	-0.038473874
11	0xbd80fbd9	-0.06298036
12	0xbd17428d	-0.036928702
13	0x3d23b359	0.03996596
14	0xbd63eb97	-0.055644598
15	0x3d0179b6	0.031610213
16	0x3c4d5487	0.01253236
17	0xbc7053df	-0.014668434
18	0x3cb2a348	0.021806374
19	0xbdb57c6c	-0.08861622
20	0xbce2dc4d	-0.027692938
21	0x3cd0750a	0.025446434
22	0x3de60f58	0.11233395
23	0x3c60b396	0.013714692
24	0x3cd4f07c	0.025993578
25	0xbccd13c6	-0.025033843
26	0x3d2bf423	0.041980874
27	0x3c49949b	0.012303497
28	0xbd82bc5d	-0.06383584
29	0x3d658bd1	0.056041542
30	0x3d30441a	0.043033697
31	0x3bb17ff9	0.005416867
32	0x3d49da92	0.04928071
33	0x3b09d955	0.002103408
34	0x3d44b6e1	0.04802597
35	0x3b3c8ae7	0.0028769316
36	0x3ce7d771	0.028300973
37	0x3d3b3a53	0.04570992
38	0x3ab69eea	0.0013932858
39	0x3cb89f2c	0.022536837
40	0x3d234a52	0.0398658
41	0x3cfecf25	0.031104634
42	0xb7786a23	-1.4806664e-05
43	0x3caed0af	0.021339742
44	0x3c3fe76f	0.011712893
45	0xbd627430	-0.055286586
46	0x3b8e2500	0.004337907
47	0x3b9659b0	0.0045883283
48	0xbcd0cf97	-0.025489612
49	0x3d0871da	0.033311702
50	0xbd0e3b8d	-0.03472476
51	0x3d16fbde	0.036861293
52	0xbd92ad40	-0.07161951
53	0xbdc43ac7	-0.095815234
54	0x3dda7e19	0.106685825
55	0xbd027a4c	-0.031854913
56	0xbda63d55	-0.08117167
57	0x3c91ec1e	0.017812785
58	0xbd9307aa	-0.07179196
59	0xbb2e6e68	-0.00266161
60	0xbc757990	-0.014982596
61	0xbdf6cc4a	-0.12050684
62	0x3d97de15	0.07415406
63	0xbdf65157	-0.12027233
64	0x3c43b181	0.011944176
65	0x3d5c86a2	0.053839333
66	0xbc050255	-0.008118232
67	0x3adeaada	0.0016988174
68	0xbd086e55	-0.033308346
69	0xbd97cbf7	-0.0741195
70	0xbd0e1d41	-0.034695867
71	0xbca0ef27	-0.019645287
72	0x3b3c7977	0.0028758922
73	0x3d1739a4	0.036920205
74	0xbc2f9047	-0.010715551
75	0x3cd45d13	0.025923287
76	0x3d7d977c	0.061912045
77	0x3d221f1e	0.039580457
78	0x3c2864e6	0.010277962
79	0x3cafe53a	0.021471608
80	0xbcd14fb6	-0.025550704
81	0x3ca4d514	0.020121135
82	0xbd251395	-0.040301878
83	0xbd88446d	-0.06653676
84	0x3d6364cc	0.05551605
85	0x3d05a9ca	0.032632627
86	0x3d3913f7	0.045185056
87	0xbab552ca	-0.0013833877
88	0x3bb45348	0.005503092
89	0xbc14c0c6	-0.009079164
90	0xbd85d5dc	-0.06534931
91	0xbdaccfe5	-0.0843809
92	0xbca12940	-0.01967299
93	0x3c7617e5	0.015020345
94	0x3cd26026	0.025680613
95	0x3c099cdc	0.008399215
96	0xbc478822	-0.012178453
97	0xbd2f6efa	-0.042830445
98	0xbd9d97ad	-0.076949455
99	0x3c679e82	0.014136912
100	0x3d5dcda1	0.05415118
101	0xbd991987	-0.07475572
102	0x3c216718	0.00985124
103	0xbc9f6618	-0.019457862
104	0xbcc1d796	-0.02366237
105	0xbcb9709b	-0.022636702
106	0xbb0f88c0	-0.0021901578
107	0x3c1b480d	0.009477627
108	0x3cc093fa	0.02350806
109	0x3d34cdaf	0.044141468
110	0x3d15d515	0.036580164
111	0xbc621b6c	-0.013800483
112	0xbda09df2	-0.07842626
113	0x3cb4581c	0.02201467
114	0x3ac28cc4	0.0014842977
115	0x3c3f63a4	0.011681471
116	0xbc8e72b8	-0.017388687
117	0x3c644d05	0.0139343785
118	0x3c359303	0.011082414
119	0x3bdc48f8	0.0067225657
120	0xbd8d4592	-0.06898035
121	0x3bbdf8a6	0.0057974635
122	0x3d49ff2b	0.049315613
123	0x3c8aac63	0.016927904
124	0xbcc72bb7	-0.024312837
125	0x3d02eae4	0.03196229
126	0xbcdb4bb1	-0.02676949
127	0x3c006c45	0.0078383135
128	0x3be123c0	0.006870717
129	0xbc17ca2e	-0.009264512
130	0xbc556a1f	-0.0130257895
131	0xbc08f4df	-0.008359163
132	0xbd48499a	-0.048898317
133	0xbd3a5bd6	-0.045497738
134	0x3ba395a0	0.004992202
135	0xbd16ad21	-0.036786202
136	0x3d082a5a	0.033243515
137	0xbd0b6857	-0.034035053
138	0x3cf4184c	0.029796742
139	0xbd4e5ca6	-0.050381325
140	0xbca7982a	-0.0204583
141	0x3d409b45	0.047023077
142	0x3ca56be0	0.02019304
143	0xbd434690	-0.047674716
144	0xbbccf860	-0.0062551945
145	0xbc933cd5	-0.017973343
146	0x3c7413f9	0.01489734
147	0xbd33d9f9	-0.043909047
148	0x3d3f8340	0.04675603
149	0xbc95d4be	-0.01828992
150	0xbe00115a	-0.12506619
151	0x3c4833ca	0.012219379
152	0x3d72094b	0.059090894
153	0xbcad406a	-0.02114888
154	0x3d3df931	0.046380226
155	0xbdc732b9	-0.097264715
156	0x3d840add	0.064473845
157	0xbc33ea7e	-0.0109812
158	0xbe00694d	-0.12540169
159	0xbc32d254	-0.010914404
160	0xbd41db4f	-0.04732829
161	0xbdad8ce4	-0.084741384
162	0xbd534205	-0.051576633
163	0xbda91bb2	-0.082572356
164	0x3cdfb6db	0.027308872
165	0xbc98efa1	-0.018668951
166	0xbd1b0641	-0.03784776
167	0xbcc2c703	-0.023776537
168	0xbd0d449e	-0.034489267
169	0xbdc46aba	-0.09590669
170	0xbbc841a0	-0.0061113387
171	0xbd19b08b	-0.03752188
172	0x3d1692b1	0.03676099
173	0xbbdf729b	-0.006819082
174	0x3c726bb9	0.014796191
175	0x3b9a30ef	0.0047055404
176	0xbd75fa62	-0.060053237
177	0xbcf7e970	-0.030262679
178	0xbd742782	-0.05960799
179	0xbd9061d3	-0.070499085
180	0xbb3c2583	-0.0028708882
181	0xbd57ea56	-0.052713715
182	0x3c862202	0.016373638
183	0xbdce6514	-0.10077873
184	0xbd9b2718	-0.07575816
185	0xbd827b80	-0.06371212
186	0xbd69dbe0	-0.057094455
187	0xbcd8b723	-0.026454514
188	0xbd243712	-0.04009158
189	0xbd19c6da	-0.037543155
190	0x3c62470b	0.013810883
191	0xbcb6d40d	-0.02231791
192	0xbc40bdf9	-0.011764043
193	0x3c9ad750	0.018901497
194	0xbd7de308	-0.061984092
195	0x3d0ce03d	0.034393538
196	0xbd75c28f	-0.06
197	0xbbfe3b51	-0.007758536
198	0xbb80c351	-0.0039295335
199	0xbd2d49ac	-0.042306587
200	0xbc17e0b5	-0.009269883
201	0x3d7cee1c	0.061750516
202	0xbd7ab02e	-0.061203174
203	0x3d27b715	0.040946085
204	0xbc1ee58a	-0.009698281
205	0xbca043d7	-0.019563599
206	0x3c3a0847	0.011354513
207	0xbbd8cc3f	-0.006616145
208	0x3a93bc58	0.0011271341
209	0xbc594ead	-0.013263387
210	0xbd80f96f	-0.06297576
211	0xbc16e62e	-0.009210153
212	0x3d941bac	0.072318405
213	0x3d3f6765	0.046729464
214	0xbc9be246	-0.019028794
215	0x3cd98bbd	0.02655589
216	0x3c80ffb4	0.015746929
217	0xbc7faeae	-0.015605612
218	0xbd7a1cab	-0.061062496
219	0x3c076068	0.008262731
220	0x3d9bf30b	0.07614716
221	0x3bc14e62	0.0058992365
222	0x3d1d8b43	0.03846289
223	0x3d08177d	0.033225525
224	0xbd8e4da7	-0.06948405
225	0xbb793cb3	-0.0038030564
226	0xbc855276	-0.016274672
227	0xbd1f099f	-0.038827535
228	0x3c11b27b	0.008892651
229	0xbca5a75d	-0.020221407
230	0x3c9acca2	0.018896405
231	0xbb7f87e3	-0.0038990907
232	0xbd33e543	-0.043919813
233	0xbd64d643	-0.0558684
234	0xbd5eef1f	-0.054427262
235	0xbda84c61	-0.08217693
236	0x39c153f7	0.00036874387
237	0xbd2fc693	-0.042913985
238	0xbbb67a07	-0.005568746
239	0xbcfc20a3	-0.030777281
240	0xbd069a65	-0.032862086
241	0xbd7c8603	-0.06165124
242	0x3b938303	0.004501702
243	0x3cac07cc	0.020999812
244	0xbc868de0	-0.016425073
245	0xbcbd197f	-0.023083447
246	0xbdcf05b7	-0.10108512
247	0x3cee233a	0.029069532
248	0xbd0f508a	-0.034988917
249	0xbd3faf00	-0.046797752
250	0x3c733deb	0.014846305
251	0xbd8eeac4	-0.06978372
252	0x3db48e4a	0.08816202
253	0xbcc68d39	-0.024237262
254	0xbd839c4f	-0.06426298
255	0x3bd9064c	0.006623065

deconv2.0.bias f4 [16]
0	0x3cf1d2d5	0.029519478
1	0xbd76b52d	-0.060231376
2	0x3cf67bfd	0.03008842
3	0x3cda0e3e	0.02661812
4	0x3d1e5e5b	0.038664203
5	0xbd666d3a	-0.05625651
6	0x3d46a4c3	0.048496973
7	0xbc861536	-0.016367536
8	0xbd77ee62	-0.060530074
9	0x3d53bd1d	0.051694024
10	0x3ce048e8	0.027378514
11	0xbd629070	-0.055313528
12	0x3cd1c194	0.025605
13	0xbc6b38e4	-0.0143568255
14	0x3c74e823	0.014947924
15	0x3c851e9f	0.016249953

deconv2.1.weight f4 [16]
0	0x3f737a68	0.9510865
1	0x3f815ff8	1.0107412
2	0x3f807056	1.0034282
3	0x3f793dc7	0.9735989
4	0x3f7cee82	0.98801434
5	0x3f726b20	0.9469471
6	0x3f72b43f	0.94806284
7	0x3f715095	0.94263583
8	0x3f770cae	0.9650372
9	0x3f834a11	1.0256978
10	0x3f767cdf	0.9628429
11	0x3f8e4bf6	1.1116931
12	0x3f7c0128	0.98439264
13	0x3f74266f	0.95371145
14	0x3f85be92	1.0448782
15	0x3f801191	1.0005361

deconv2.1.bias f4 [16]
0	0x3c0eb23e	0.008709488
1	0x3db7364d	0.08945904
2	0x3d5f2059	0.05447421
3	0x3c57be78	0.01316797
4	0x3ca37f72	0.019958232
5	0x3c78c0b4	0.015182663
6	0x3ce97251	0.028496893
7	0xbd338f45	-0.043837804
8	0xbc68dc51	-0.014212684
9	0x3e0a1761	0.13485481
10	0x3d025a6b	0.03182451
11	0xbd4f8777	-0.0506663
12	0xbd0ec6a7	-0.03485742
13	0x3cd89f36	0.026443105
14	0x3d31fd96	0.04345473
15	0x3c900146	0.017578732

deconv2.1.running_mean f4 [16]
0	0xbf38ad47	-0.721394
1	0xbf148789	-0.5801931
2	0xbe942596	-0.28934926
3	0xbf19497d	-0.5987776
4	0xbe84b939	-0.25922564
5	0xbf570aba	-0.8400074
6	0xbf074c3d	-0.52850705
7	0xbecb9860	-0.3976469
8	0xbf3534ab	-0.7078349
9	0xbf551691	-0.8323756
10	0xbf6e801a	-0.9316422
11	0xbf454e92	-0.77073014
12	0xbcfdece0	-0.03099674
13	0xbe72fbf5	-0.23728926
14	0xbf4fccab	-0.81171674
15	0xbf6968a4	-0.91175294

deconv2.1.running_var f4 [16]
0	0x3f4b930d	0.79521257
1	0x3f5f4664	0.8721678
2	0x3f668927	0.9005303
3	0x3f2fc370	0.6865759
4	0x3f07d040	0.5305214
5	0x3fbb1a56	1.4617412
6	0x3fa8310f	1.3139971
7	0x3f385014	0.7199719
8	0x3f0c08c5	0.5470088
9	0x400b9994	2.1812487
10	0x3fe9a41c	1.8253207
11	0x3df7ced9	0.121
12	0x3eabb4eb	0.33536467
13	0x3f95ef5d	1.1713673
14	0x3f0dd0bd	0.55396634
15	0x3f4a9614	0.7913525

deconv3.0.weight f4 [16, 8, 4, 4]
0	0xbd6723f0	-0.056430757
1	0x3c96c655	0.018405119
2	0xbc41bd69	-0.011824944
3	0xbdbcbeaf	-0.092160575
4	0xbdad6c21	-0.084678896
5	0xbd53ae3c	-0.051679835
6	0x3cae22ca	0.021256823
7	0xbc939468	-0.018015102
8	0xbd676821	-0.05649579
9	0x3cac4cd5	0.02103273
10	0x3cb26c4f	0.021780161
11	0x3d93c980	0.072161674
12	0xbd7fe366	-0.062472723
13	0xbd079402	-0.033100136
14	0x3d104e2d	0.035230804
15	0xbbcba823	-0.006215112
16	0xbbf48a73	-0.0074627935
17	0xbd1770b7	-0.036972728
18	0x3cba0219	0.022706078
19	0x3da67efe	0.081296906
20	0x3d1464b6	0.036228858
21	0x3cde2c67	0.027120782
22	0x3d6723fd	0.056430805
23	0x3cb36338	0.021897897
24	0xbbd678c8	-0.00654516
25	0x3dc1c3e2	0.0946119
26	0x3d4f295f	0.050576564
27	0x3d225d8c	0.039639995
28	0x3acbceab	0.0015549263
29	0x3d899973	0.06718721
30	0x3d80daec	0.06291756
31	0xbce3db00	-0.027814388
32	0x3d590517	0.05298337
33	0x3d03ea69	0.032205973
34	0xbcf7b820	-0.030239165
35	0x3d817f2a	0.06323083
36	0x3d4a6f71	0.049422685
37	0x3e057081	0.13031198
38	0x3c75b710	0.014997259
39	0x3ce46e48	0.027884617
40	0x3ca29ab1	0.019849153
41	0x3d931088	0.071808875
42	0xbd5a6923	-0.053322922
43	0x3d8b4dcf	0.0680195
44	0x3c6cd5aa	0.014455238
45	0x3ceb13b7	0.028695924
46	0xbc055709	-0.008138427
47	0xbc27c5a4	-0.010239992
48	0x3cead787	0.028667225
49	0x3dc00c93	0.09377398
50	0xbd8996cb	-0.067182146
51	0x399abbee	0.00029513187
52	0x3be3fe03	0.006957771
53	0xbd1198fc	-0.035546288
54	0x3cf0639c	0.029344372
55	0x3dae4bab	0.08510526
56	0x3d12bf2e	0.035826854
57	0x3daa05c1	0.08301879
58	0xbcbcdea1	-0.023055376
59	0x3d9b37e4	0.0757902
60	0x3cfae7cf	0.030628113
61	0x3cf66a23	0.030079907
62	0x3c98c682	0.018649343
63	0x3cb66c0f	0.022268323
64	0x3d08f615	0.033437807
65	0x3d5aba2a	0.053400196
66	0xbc1f2c5a	-0.009715164
67	0xbd4cbcba	-0.04998467
68	0x3d0f16e5	0.034933943
69	0x3c52e7e3	0.012872669
70	0x3c948f39	0.0181347
71	0xbd84a68d	-0.064770795
72	0xbc9d5c54	-0.019209065
73	0x3d221160	0.03956735
74	0xbd0d4c5e	-0.034496658
75	0x3ba62511	0.0050703366
76	0x3b51cbeb	0.0032012414
77	0x3c9593a4	0.018258877
78	0xbc43f3da	-0.011959994
79	0x3d4156ea	0.04720203
80	0x3c9a4aff	0.018834589
81	0xbca0df46	-0.019637715
82	0x3acb0128	0.0015488015
83	0xbaeaac65	-0.0017904161
84	0x3c094481	0.008378149
85	0xbc21ee09	-0.009883412
86	0x3c8a161e	0.01685625
87	0x3d8efc2e	0.06981693
88	0xba03ead9	-0.00050322484
89	0x3d31a0dd	0.0433663
90	0xbd219653	-0.03945
91	0xbbd2feb1	-0.006439053
92	0x3d5353ca	0.05159358
93	0x3c248f49	0.0100439275
94	0x3ce75047	0.028236521
95	0x3ca45073	0.020057892
96	0xbcec04fa	-0.028810967
97	0xbda33356	-0.07968776
98	0xbcfb3694	-0.030665673
99	0xbd7c80de	-0.061646335
100	0x3d348c26	0.04407897
101	0xbd280d6e	-0.041028433
102	0xbba179ad	-0.004927835
103	0xbc93258d	-0.017962242
104	0x3c028b71	0.007967816
105	0x3da6b7e0	0.0814054
106	0x3d0725a5	0.032994885
107	0x3bd7b8f6	0.0065833284
108	0x3b7a829c	0.0038224822
109	0xbd07a6b0	-0.03311795
110	0xbcb16513	-0.021654641
111	0xbd3ec708	-0.04657653
112	0x3d24f538	0.04027292
113	0x3da0622f	0.07831227
114	0x3d0850b1	0.03328008
115	0x3cf8cff7	0.030372603
116	0x3cb3a029	0.021926956
117	0x3dcc685d	0.09980843
118	0xbd703c45	-0.058651228
119	0xbcee5b58	-0.02909629
120	0x3d428dc9	0.047498498
121	0xbd98d2c7	-0.074620776
122	0xbcd06624	-0.02543933
123	0xbc15616e	-0.009117467
124	0x3d3d4b4b	0.046214383
125	0x3d65b58d	0.056081343
126	0xbcfa3f2e	-0.030547705
127	0x3d1c09e7	0.03809538
128	0xbc49fc3a	-0.012328202
129	0x3bb899e5	0.00563358
130	0x3d816e3e	0.06319855
131	0xbdb95573	-0.09049501
132	0xbd208c6d	-0.03919642
133	0xbd1113ee	-0.035419397
134	0x3e0cc37e	0.1374645
135	0x3d4c8c75	0.049938638
136	0x3c91ca15	0.017796556
137	0x3c4ecaa0	0.012621552
138	0x3d02db35	0.031947333
139	0xbc209a98	-0.009802483
140	0xbb9b8f69	-0.0047473204
141	0xbd11857f	-0.035527702
142	0x3d507ce7	0.050900366
143	0x3b68902a	0.003548632
144	0x3d4952a8	0.049151093
145	0xbdc4d747	-0.096113734
146	0x3b11db4f	0.0022255962
147	0xbd0e81d6	-0.03479179
148	0xbce92dfd	-0.028464312
149	0xbda04f22	-0.078275934
150	0x3dc66d0a	0.09688766
151	0xbd4266f7	-0.047461476
152	0x3c85c867	0.01633091
153	0xbb47267f	-0.0030387936
154	0x3c12cacd	0.008959484
155	0x3c88ab2e	0.016683187
156	0xb83bcc7f	-4.4774726e-05
157	0x3b68955a	0.003548941
158	0x3d319881	0.04335833
159	0x3cfc10f5	0.030769804
160	0x3c2a3038	0.010387473
161	0x3cab6dab	0.020926317
162	0x3de117ef	0.10990893
163	0xbb231a06	-0.0024887337
164	0xbb2b78b4	-0.0026164474
165	0x3bd11520	0.006380692
166	0xbc3b4a12	-0.011431234
167	0x3d5dcc34	0.05414982
168	0xbc86f53e	-0.016474362
169	0x3d0f29a6	0.03495183
170	0x3adbfb4b	0.0016783265
171	0xbbd69341	-0.0065483158
172	0xbca8d075	-0.020607213
173	0xbcbd8ad8	-0.023137495
174	0x3ceea8fa	0.029133309
175	0xbd6c1e17	-0.057645883
176	0xbd9f5b9b	-0.07781144
177	0xbd032fe6	-0.0320281
178	0x3d75903d	0.05995201
179	0xbd0b6f01	-0.03404141
180	0x3da0435e	0.07825349
181	0xbd489a77	-0.048975434
182	0xbd46c309	-0.048525844
183	0x3d2bb550	0.04192096
184	0xbd4d5bb8	-0.050136298
185	0x3d06b028	0.03288284
186	0x3dd827c7	0.10554462
187	0x3c56ea9b	0.013117458
188	0x3d532faa	0.051559128
189	0x3b64a2da	0.0034887106
190	0xbd4f012e	-0.050538234
191	0x3d2aff00	0.041747093
192	0x3d46a534	0.048497394
193	0xbb13f324	-0.0022575343
194	0x3caf56ed	0.021403754
195	0x3d54755d	0.05186974
196	0x3da28934	0.07936326
197	0x3d6b80ef	0.057496008
198	0xbd071210	-0.03297621
199	0x3cd7599a	0.026287843
200	0x3d4c9534	0.04994698
201	0x3d1e422f	0.038637336
202	0x3d14fa4d	0.036371518
203	0x3de315a5	0.11088113
204	0x3c08c26b	0.008347134
205	0xbd05bd79	-0.0326514
206	0x3d371aaa	0.044703163
207	0x3c7b38e7	0.015333391
208	0x3cbad88e	0.02280834
209	0xbd6f2383	-0.058383476
210	0xbd15398c	-0.036431834
211	0x3d7bac21	0.06144345
212	0xbd2ea14a	-0.042634286
213	0x3d34b0bf	0.04411387
214	0x3dfa2bd2	0.12215389
215	0x3e02191c	0.12704891
216	0x3c225a5b	0.009909238
217	0x3d5b7b9d	0.053584684
218	0x3b09a3be	0.002100214
219	0x3dec02c3	0.11523964
220	0x3dbec683	0.09315207
221	0x3cf0d2a1	0.02939731
222	0x3daa23d1	0.08307613
223	0x3df6b7b0	0.12046754
224	0xbd0aed8e	-0.033917956
225	0xbdb41208	-0.08792502
226	0xbc9c01c9	-0.01904382
227	0x3cccf3fa	0.02501868
228	0x3d17c501	0.037053112
229	0x3ca8a465	0.020586202
230	0x3ddb6da2	0.1071427
231	0xba636842	-0.00086748984
232	0x3cd8f222	0.026482645
233	0xbcebbefa	-0.028777588
234	0x3c9dba6a	0.019253928
235	0x3ca50dc6	0.02014817
236	0xbb76dbde	-0.0037667672
237	0x3b537405	0.0032265198
238	0x3ddc8e6b	0.107693516
239	0x3d0eabe6	0.034831904
240	0x3cb2a9ce	0.021809485
241	0x3d425f95	0.047454435
242	0xbbedbaa5	-0.007254916
243	0x3d4fae60	0.050703406
244	0x3c574c13	0.013140696
245	0xbc8a41f9	-0.016877161
246	0xbd9c573d	-0.07633827
247	0xbdab26a7	-0.08356982
248	0xbd498a00	-0.049203873
249	0xbc36a7eb	-0.011148433
250	0xbd2b73b8	-0.041858405
251	0xbd85fa1a	-0.06541844
252	0xbc735d48	-0.014853783
253	0xbc476972	-0.012171136
254	0xbdc98531	-0.09839857
255	0xbda0586a	-0.07829364

deconv3.0.bias f4 [8]
0	0xbd9066d0	-0.0705086
1	0x3d9d5ba7	0.07683497
2	0xbd5afde0	-0.05346477
3	0x3d443a6a	0.04790727
4	0x3ccfe845	0.02537931
5	0x3d7f80ce	0.062378697
6	0x3d070e27	0.03297248
7	0x3d8194f3	0.06327238

deconv3.1.weight f4 [8]
0	0x3f9ef714	1.2419152
1	0x3f9c122b	1.2193044
2	0x3f9c9e1d	1.2235752
3	0x3f9ca874	1.2238908
4	0x3f995c32	1.1981261
5	0x3f9c941a	1.2232697
6	0x3f9e36cc	1.2360473
7	0x3f977224	1.1831708

deconv3.1.bias f4 [8]
0	0x3e74c076	0.23901543
1	0x3e59e54b	0.21278875
2	0x3e5e3225	0.21698816
3	0x3e607cd9	0.21922626
4	0x3e4cd92a	0.20004717
5	0x3e5e2cbf	0.21696757
6	0x3e6d89ef	0.23197149
7	0x3e419ad5	0.1890672

deconv3.1.running_mean f4 [8]
0	0xbe3d511b	-0.1848797
1	0xbd2826ec	-0.041052744
2	0x3d9c6bd4	0.07637754
3	0x3dfcf61b	0.123516284
4	0x3ed15a93	0.40889415
5	0x3eea184a	0.45721656
6	0x3d094875	0.033516366
7	0xbdfbacc6	-0.12288813

deconv3.1.running_var f4 [8]
0	0x3d9ce1e4	0.07660273
1	0x3d6d2bfc	0.057903275
2	0x3dc00acd	0.0937706
3	0x3d8ac5f8	0.06776041
4	0x3d479610	0.048727095
5	0x3d7c7daa	0.06164328
6	0x3d9aef35	0.07565156
7	0x3d950846	0.07276969
