03_hw/Pix2Pix/checkpoints/pix2pix_model_epoch_320.pth (torch, 99191 bytes, 32 tensors)

conv1.0.weight f4 [8, 3, 4, 4]
000000 dd 0a d9 bd c5 c9 ef bd be c4 67 bd 4b 93 43 be
       -0.10597775 -0.11708406 -0.056584112 -0.19099157
000010 b9 bc 5c 3d 4c 23 de bd 05 93 b7 bc ff fe 86 3d
       0.053890917 -0.10846576 -0.022408972 0.065916054
000020 74 ea 11 be 6e 22 41 bd de a9 19 bb 67 27 20 3d
       -0.14249593 -0.047151975 -0.0023447196 0.039100077
000030 ce 93 92 bc e8 4a 9a 3d 02 24 92 3d a8 65 0b be
       -0.017892744 0.075338185 0.07135774 -0.13612998
000040 7e f6 05 3e ed 7a 40 3e 24 3f 64 3d 8f 17 40 bc
       0.1308231 0.18796892 0.055724278 -0.011724367
000050 ac 2f 01 3d 55 3c f4 bc 9c 2d a1 bd d2 ea 4f 3d
       0.031539604 -0.029813925 -0.078700274 0.05076105
000060 69 fa f0 3d 2d 37 51 3d 01 b2 27 3d cd 10 30 bd
       0.11766512 0.05107801 0.040941242 -0.042984772
000070 ef e7 91 bd 3f 77 f2 3c 26 8e 84 bd 66 f8 28 3e
       -0.07124316 0.029597877 -0.06472425 0.16501006
000080 f6 a0 d5 bd b0 bb 2a 3d 66 61 15 be 0d b6 51 3d
       -0.104310915 0.0416829 -0.14587936 0.051199008
000090 47 b4 e2 bd 75 aa da bd 60 34 82 bb 35 ab f0 bd
       -0.110695414 -0.10677043 -0.0039735287 -0.11751405
0000a0 5a a9 d6 3c c7 dd c5 bc bb 39 a1 3a 29 69 17 bd
       0.0262038 -0.024153603 0.001230053 -0.036965523
0000b0 9f a7 30 bd 98 73 39 3d 64 67 96 3d 50 16 3b 3d
       -0.043128606 0.045276254 0.07343939 0.045675576
0000c0 cc 87 90 bd 6a 2e 8d 3d ea cd 9b bc 81 02 9c bc
       -0.07057151 0.068936184 -0.019019086 -0.019044163
0000d0 c8 b1 98 bb a4 31 e7 3d 7c 30 0a 3d c9 93 3b bc
       -0.004659865 0.11288765 0.033737645 -0.011448809
0000e0 1f e9 14 3e da 70 b2 3d b1 b5 cd bd dc d2 94 bd
       0.14542054 0.08712931 -0.100444205 -0.07266781
0000f0 23 d7 0e 3d a3 3c 02 3e 06 3f f5 bc 96 cb aa bc
       0.03487314 0.12718444 -0.029937278 -0.02084903
000100 3c c5 22 bb 37 ae 0a 3e 2a 8f 42 3c bd 6e ab bd
       -0.00248368 0.1354302 0.011874953 -0.08370731
000110 98 4b 3a bd e2 7a 9c bd 9e 93 1d 3d f1 46 02 bd
       -0.045482248 -0.076406255 0.038470857 -0.031805936
000120 3b 19 fd 3c 5f 0d 0c bc 4c 06 18 3d db db 01 be
       0.03089582 -0.00854811 0.03711538 -0.12681524
000130 30 23 80 3d 9b e5 db bc ae d4 78 3d 9f 63 c0 3d
       0.062567115 -0.026842883 0.060749702 0.09394001
000140 96 3e a6 3a 50 9e 81 bd 86 d0 43 3d 75 e6 05 be
       0.0012683447 -0.06329024 0.047806285 -0.13076194
000150 6c f1 69 bd 5c c5 a9 3d 34 3a 95 bd 24 5f 86 3d
       -0.057115003 0.082895964 -0.07286492 0.065611154
000160 84 be c0 bb 37 05 9a bb fb 0c 95 bc f6 50 a8 3b
       -0.005882086 -0.0047003287 -0.018194666 0.0051366044
000170 bb 2d 80 bd ec 0d be bd 5d 13 ed bc 36 0b c3 bd
       -0.062587224 -0.09279999 -0.028939897 -0.09523623
000180 4f 20 05 be 74 34 6a 3d 2f 02 3a 3c 92 8f 6a bd
       -0.13000606 0.05717893 0.01135306 -0.057265826
000190 46 32 9d 3c bb 5a 9e bc 38 5d 83 3d 19 55 0f 3e
       0.019189011 -0.019330373 0.064142644 0.13997306
0001a0 69 18 9b bd e4 c1 3d 3d d3 26 e2 bd 89 28 4b bd
       -0.07573015 0.046327487 -0.110425614 -0.049599204
0001b0 a8 cc 19 3e 13 84 15 3d 1b e7 1e 3d 41 7e 70 bd
       0.15019476 0.03650291 0.038794618 -0.058714155
0001c0 35 e2 6b bd 1e d8 85 3b bf 39 c9 3d c5 16 e3 bd
       -0.057588775 0.004084601 0.09825467 -0.11088327
0001d0 61 e5 0a 3e ef af f0 bc 61 63 03 3c 15 a4 05 3e
       0.13564064 -0.029380767 0.008019299 0.13050874
0001e0 ca 35 ed 3c 63 03 8e 3d f2 41 bf bd c9 ac de bd
       0.028956313 0.0693424 -0.0933875 -0.108728
0001f0 01 ea fd 3c ef dd 0c 3d ee e0 26 bc 5f da e4 3d
       0.03099537 0.03439134 -0.010185463 0.111744635
000200 b1 07 d7 bd 21 d4 c0 3d 86 04 93 bc 55 80 2b 3d
       -0.10499514 0.094154604 -0.017946493 0.041870434
000210 ca db 90 3c 57 3c 89 3d 16 29 b2 3d 4e ec d4 bb
       0.017682929 0.06700962 0.08699243 -0.0064978963
000220 9f b6 96 3d 31 39 2b 3e 4a 78 fe 3d af d3 a5 3d
       0.07359051 0.16721036 0.12425287 0.08097016
000230 1c bd bb bd e0 d3 00 3d 5c 14 d8 3d 32 2a fd 3d
       -0.09166929 0.03145206 0.10550758 0.12361564
000240 59 72 77 3d 1e 8f e6 3d 0e dc 31 3e 23 3f 54 3d
       0.060411785 0.11257766 0.173691 0.051818024
000250 8d 50 6e 3b 25 fa 51 bd f4 fa 0a bb 74 f3 52 bd
       0.003636393 -0.051263947 -0.0021206709 -0.051501706
000260 b1 62 19 3d 54 92 8a bd 67 cf 12 3e a6 61 67 bd
       0.037447635 -0.06766191 0.1433693 -0.05648961
000270 96 7d 5b 3d 2a 1e ea 3d 51 e4 d4 3d 9a 95 22 be
       0.053586565 0.114315346 0.103951104 -0.15877381
000280 71 d6 e0 bd 56 59 ae 3d 7b fd 1f 3e 6b 89 c8 3c
       -0.109784015 0.08513133 0.15624039 0.024479588
000290 c3 15 86 3d 7f 63 c4 3d 5a 89 7d ba 9d b5 2b bd
       0.065471195 0.0958929 -0.0009671651 -0.041921247
0002a0 35 72 c2 bd 39 4f b7 bd d2 dc 8a 3d 20 55 cd 3d
       -0.094944395 -0.089506574 0.067803994 0.10026002
0002b0 e8 2c b4 bd 37 4c 6b bd 97 85 59 bc 67 38 b2 bd
       -0.08797628 -0.05744573 -0.013276479 -0.08702164
0002c0 c8 00 a8 3d dc a9 32 be 27 a6 a1 3c 37 4d f9 3c
       0.08203274 -0.17447609 0.019732548 0.030432327
0002d0 5b 88 62 bd 96 20 e5 bd 40 81 2f bd 4d cb 82 3c
       -0.05530582 -0.11187856 -0.04284787 0.015966082
0002e0 df a9 ec bd a7 dd dd 3d 3d fa a0 bd f8 cd e2 3d
       -0.11555838 0.108332925 -0.07860229 0.11074442
0002f0 4e dd 6a bd c4 64 24 bd 95 6e dc bd ac 6b 01 3e
       -0.05733996 -0.04013516 -0.10763279 0.1263873
000300 09 46 b5 bd 99 ca 0f be 73 5a 2f 3d cd 40 43 3d
       -0.08851249 -0.14042129 0.04281087 0.04766922
000310 9e b8 0a 3e bb 53 8e bc 81 3b f6 ba 85 f4 0c be
       0.13546988 -0.01737391 -0.0018786044 -0.13765152
000320 7f 1c bc 3d 9c ac c2 bd 13 2d c6 3d e3 80 1d 3d
       0.09185123 -0.09505579 0.09676566 0.038452994
000330 44 87 43 3d 18 6e 42 be ef 73 e4 bd 76 cc 05 bd
       0.04773642 -0.1898731 -0.11154925 -0.032665692
000340 0e e1 bb bc e3 fd 7d 3d b7 05 31 3d 33 4f c5 3d
       -0.022934463 0.062009703 0.04321834 0.09634247
000350 e2 55 bf bd c8 1d 9b bd 83 a1 c1 ba 98 54 ac 3d
       -0.09342553 -0.0757404 -0.0014772866 0.084145725
000360 7a 0c 00 bd 63 f4 06 be ef c5 47 be db 5e 69 be
       -0.0312619 -0.13179164 -0.195091 -0.2279009
000370 27 eb da bd 7d 9e a8 bc 6f 4a 47 be 7c 60 00 3d
       -0.10689383 -0.020583386 -0.19461988 0.031342015
000380 95 fd df 3d fc ce 7b 3c da 79 7d 3d e5 8a d8 bd
       0.10937039 0.015369173 0.061883785 -0.10573367
000390 50 bd 92 3d d1 14 79 bd c7 82 be 3d c5 36 97 bd
       0.07165015 -0.060810868 0.093022875 -0.07383493
0003a0 3c 4e 6c bd 44 fc b6 3d 4a 4c 5f bd ea fc 84 3d
       -0.057691798 0.089348346 -0.054516114 0.06493552
0003b0 f2 c8 cb 3d 0f 24 f3 3c 6b cc 87 bb b3 b9 66 bd
       0.09950437 0.02968028 -0.0041442416 -0.05632944
0003c0 f0 81 1e 3d 5a 4b ed bd 1e 82 8c bd 51 19 2d bd
       0.038698137 -0.11586638 -0.068607554 -0.04226047
0003d0 64 69 65 bd a9 39 c6 bd 7b 28 f6 3d 2d 8d ec 38
       -0.05600871 -0.096789666 0.1201944 0.00011279653
0003e0 14 99 cd 3d a1 f7 81 3c 42 eb c3 3d 52 06 e5 bd
       0.10038963 0.015865149 0.09566356 -0.11182846
0003f0 c8 53 23 bd 35 42 df 3d fe 5f 00 3e cd d8 6c 3d
       -0.039874822 0.109013 0.12536618 0.057823945

conv1.0.bias f4 [8]
000000 34 16 08 3e 0b c7 7e 3b 34 9b 0f bd 67 3f fe 3d
       0.1328972 0.0038875963 -0.035060123 0.12414437
000010 1b c0 91 3d e5 7a cd 3d dc fc dd bd e7 9c 3d bc
       0.07116719 0.10033206 -0.10839245 -0.011573053

conv1.1.weight f4 [8]
000000 ab c1 80 3f 0f fb 7a 3f b0 75 7e 3f 3f 18 75 3f
       1.0059103 0.98039335 0.99398327 0.9574012
000010 d7 b0 80 3f d4 00 75 3f ec 80 82 3f 9d 25 88 3f
       1.0053967 0.9570439 1.0195594 1.0636479

conv1.1.bias f4 [8]
000000 91 a6 28 3b 51 7b 3a bd ef da f8 bc 47 0f ad bb
       0.0025734047 -0.04552776 -0.030377833 -0.005281362
000010 9f 11 0d bc 80 f2 9f 3d 59 29 31 bd 98 bc c6 3d
       -0.008610158 0.07809925 -0.043252323 0.0970394

conv1.1.running_mean f4 [8]
000000 e0 bf 50 3e 1d 6b eb bc 9b 49 d1 bd 56 50 72 3d
       0.20385695 -0.028737599 -0.10219117 0.059158646
000010 c5 44 41 3e 4a 15 9e 3d 5c 5f e9 bd 17 c0 2d bc
       0.1887389 0.07718904 -0.113951415 -0.01060488

conv1.1.running_var f4 [8]
000000 e9 89 59 3d 13 d8 64 3c 0a 52 81 3e b8 96 c7 3c
       0.053110037 0.013967532 0.25257903 0.02436386
000010 b0 57 2a 3e 8e c8 0b 3d d4 4f a4 3c 2f 73 f7 3c
       0.16635013 0.03412681 0.020057596 0.030206291

conv2.0.weight f4 [16, 8, 4, 4]
000000 b7 b8 91 3d 62 5b c8 3d 74 c8 ff 3c 90 1b 41 3d
       0.0711531 0.09783055 0.031223513 0.047145426
000010 c1 b3 a1 bd 9d ea 96 3d f2 28 43 bd 9f 5a 92 3d
       -0.078956135 0.07368968 -0.04764647 0.07146191
000020 c9 e2 9d bd fa 6c 8b 3d 2b 1b 56 3d 90 a4 8a 3c
       -0.077092715 0.06807895 0.052272003 0.016924173
000030 c2 97 e4 bc 73 aa cb bd d9 96 cf bd 76 fb 9b 3c
       -0.027904395 -0.0994462 -0.10136194 0.019040804
000040 0f f3 85 bc 1b 68 ba 3d 28 c2 8f 3d ca 76 d0 bc
       -0.016351251 0.09101888 0.07019454 -0.025447268
000050 c5 63 5e 3d 16 c9 96 bd bc f4 ef 3c cd 1a e8 bc
       0.054294366 -0.07362573 0.029291503 -0.028333092
000060 5c 97 ce 3c 0c 5c 13 3c 1c 72 5c bd 60 df c5 3c
       0.025218658 0.008994114 -0.05381976 0.024154365
000070 08 c7 18 3d 1f c2 eb 3c df da cc bc 7f 3a b5 bd
       0.037299186 0.028779088 -0.02500671 -0.08849048
000080 e0 71 2e bd dc cb 99 3c 6e 16 2f 3d d5 89 1c bd
       -0.04258907 0.018773966 0.042746 -0.038217384
000090 f5 ca af bd 92 3d 97 bc 85 a4 09 bc dc 70 40 3d
       -0.08583633 -0.018461976 -0.008401041 0.04698263
0000a0 ee 53 0f bd c4 ff 8a bd d5 f9 3a bc f1 f9 cf bc
       -0.03499215 -0.06787065 -0.011412104 -0.025387736
0000b0 74 ab d4 bd 1d 88 ba bd 28 47 9b bd a7 22 c0 bd
       -0.103842646 -0.09107993 -0.07581931 -0.093816094
0000c0 72 ef 3d 3d 16 61 bf bc 61 6e 1e 3d 57 e5 7c 3c
       0.04637093 -0.023361724 0.038679484 0.015435538
0000d0 6a 68 c1 3c 7b 83 ea 3c af 00 62 bd 33 31 3c bd
       0.023609359 0.028627148 -0.055176433 -0.045945358
0000e0 b0 5e 47 3b 67 c8 e6 bc a1 27 2e 3c 9e 33 26 ba
       0.0030421428 -0.028171731 0.010629565 -0.0006340089
0000f0 e0 0d ac 3d 62 fe a4 bc f3 64 70 3a b0 ee a4 ba
       0.08401084 -0.02014083 0.0009170316 -0.0012583341
000100 27 95 7b 3d df 6d dc bc b6 dc 8e 3b b9 7d 3c 3d
       0.06142154 -0.02690786 0.004359807 0.046018336
000110 d7 d8 22 3d 69 47 ff 3a 31 d1 cd 3d ca e8 21 bc
       0.039757576 0.0019476238 0.10049666 -0.009882161
000120 74 5b 58 3d 77 8b 09 bd e2 e7 a7 3d ff b3 4c 3d
       0.05282159 -0.03358027 0.08198525 0.049976345
000130 51 cc 9f bd 00 87 d9 bc 35 d4 5c bd 1b 08 25 bd
       -0.07802642 -0.02655363 -0.053913314 -0.040290933
000140 c6 d5 a9 bd 5b 36 c5 bd 51 d7 c2 3b c3 e2 5c ba
       -0.08292727 -0.09629508 0.005946078 -0.0008426124
000150 b7 59 0f bb 26 aa a8 bc b1 79 21 3d ab 58 20 3c
       -0.0021873543 -0.020588946 0.039422695 0.009786765
000160 2d 20 87 3b 0f 54 89 3d f2 3e 40 3d 71 1f 95 3d
       0.0041237087 0.06705486 0.04693503 0.072813876
000170 e5 cd 55 bb 24 22 1f 3c 5a 0a 90 bd f9 37 35 3c
       -0.0032623943 0.00971273 -0.070332244 0.011060708
000180 bc d2 94 3d 46 c0 7e b8 ae 66 b3 3d f3 cc 47 3d
       0.07266757 -6.0737388e-05 0.08759819 0.04877944
000190 4f 6b a1 3d 18 f3 14 3d 57 be bb 3c e8 30 4b 3d
       0.078817956 0.036364645 0.02291791 0.049607188
0001a0 34 db 95 bc be a0 f2 3c 24 40 64 bc fe 07 6b 3d
       -0.018293 0.029617663 -0.013931308 0.05738067
0001b0 e7 f3 9f bb 71 26 c7 3d 13 63 e6 3c 49 86 b8 3d
       -0.0048813703 0.09724129 0.028123414 0.09009988
0001c0 47 55 a3 bb db 90 92 3c fb 71 fb bc dd a7 24 3c
       -0.004984531 0.017891338 -0.030693999 0.010049787
0001d0 fc 6c 12 bd a4 aa 6d bb ca 2a e9 bc fb e6 e2 bc
       -0.035748467 -0.003626504 -0.028462786 -0.02769803
0001e0 09 8b 97 3d f4 15 a7 3c ae c1 50 3d 4c 70 43 3d
       0.07399566 0.02039621 0.050965957 0.047714517
0001f0 6e 8d 5e 3d 69 a4 02 bc ad 61 66 3d 7b 70 06 bd
       0.054334097 -0.007973769 0.056245495 -0.032822113
000200 0f 10 de 3c d4 fc f6 3b 1d 68 f1 bc 56 81 70 bd
       0.027107267 0.0075374637 -0.02946859 -0.058717094
000210 0d a2 40 bd 06 97 94 bd 55 24 16 bd 6f 9c 9e 3d
       -0.047029544 -0.07255368 -0.036655743 0.07744681
000220 27 8a 5d 3d 77 9c 28 3b 8c ef ca bb 98 d8 94 3d
       0.05408683 0.0025728026 -0.006193107 0.072678745
000230 36 5a 5c bd 9a d7 85 bb 3c fd be 3d 8c 7c 45 bd
       -0.05379697 -0.0040845396 0.093256444 -0.04821448
000240 57 c1 9d 3c 08 65 f7 3c 7a 2e 4c bd 5d 3a 9c bd
       0.01925723 0.030199543 -0.04984901 -0.076283194
000250 ee 56 ba bd c1 2b 52 bd b0 7c ac bd 0b b9 0e bd
       -0.09098612 -0.05131126 -0.0842222 -0.03484444
000260 3e bf 6f 3c 32 96 42 bd 93 e0 76 3d 11 c2 f0 3c
       0.014632998 -0.04750652 0.060272764 0.029389413
000270 03 c0 fa 3a e3 3a 0c bd e4 3e a1 3d bb 15 e8 3d
       0.001913071 -0.034235846 0.078733236 0.1133227
000280 02 d7 ca bd 23 4d e5 bc c5 46 87 3d 74 83 aa bc
       -0.09904291 -0.027990883 0.06605295 -0.020814635
000290 4c 15 88 3d b1 3d 0f 3d ca 76 30 3d 88 ca 7c bd
       0.06644687 0.034970943 0.043082036 -0.061716586
0002a0 99 5d a1 3c 40 b8 3d bc 88 94 b0 bd 5f f2 0e 3d
       0.019697951 -0.011579573 -0.0862208 0.03489911
0002b0 7c b4 72 3c 24 31 62 bd 99 68 9c 3c b7 c2 7b 3d
       0.014813539 -0.055222645 0.019092845 0.06146499
0002c0 07 ea b9 bc f8 1b e7 bc 81 47 cf 3d 15 06 d3 bb
       -0.0226946 -0.028211579 0.1012106 -0.006439934
0002d0 c8 bb 4e bd 2c f1 16 bd 59 17 54 bd c1 6f 08 3d
       -0.05047205 -0.036851093 -0.05178008 0.0333097
0002e0 73 36 ed bc a5 f1 87 bd 5e 97 a3 bd 8d 39 03 3c
       -0.028956627 -0.06637887 -0.079878554 0.008009327
0002f0 11 06 8e bd 6f c5 c0 3a 93 da 13 3d c0 f8 95 bc
       -0.06934751 0.0014707277 0.03609712 -0.01830709
000300 94 e0 e5 bc 36 ce 82 bd f2 2e ac bb 43 f8 33 3b
       -0.028061189 -0.06386988 -0.0052546198 0.0027461208
000310 30 a8 99 bc 68 bb 2c 3d 86 ff 0b 3d 84 91 54 bd
       -0.018756956 0.042170912 0.034179233 -0.051896587
000320 48 c2 7c bd 69 25 86 bd 9a f0 a0 bd bb 7f 43 3d
       -0.06170872 -0.06550104 -0.07858391 0.047729235
000330 f5 87 1b bc 9c 7c e4 bc 53 dd c4 3d 79 3c 10 bd
       -0.009492864 -0.02789145 0.09612527 -0.03521392
000340 74 4d e7 bc 19 6a 13 bd 34 da 97 bd 58 7a 57 bd
       -0.028235175 -0.035989854 -0.07414666 -0.05260691
000350 17 a9 16 3d 35 36 18 bd 5c a0 b8 bd b0 b4 f3 bd
       0.03678235 -0.03716107 -0.09014961 -0.11899698
000360 e4 6b a1 3c 86 80 2a bd f8 a2 fe bc be c0 a3 bc
       0.019704767 -0.041626476 -0.031083569 -0.019989368
000370 19 d6 68 3c 0c 53 8a bd 01 0b 27 bd 42 79 63 3c
       0.014211201 -0.06754121 -0.04078198 0.013883891
000380 2c 64 a9 3c 70 ed a5 3b 02 75 e5 bc 99 cf 9a 3d
       0.020677648 0.005063705 -0.028009895 0.07559127
000390 1e 9e 50 3d 10 38 4c bd ac ff 2e bd c8 6d a4 3c
       0.050932042 -0.049858153 -0.042724296 0.020071879
0003a0 10 cf ac bd 87 ee 6d bc b3 04 35 be 80 81 76 bd
       -0.084379315 -0.014522201 -0.17677574 -0.060182095
0003b0 9f 25 38 3b 08 5e 95 bd bc ef b3 bd 96 5e b7 3c
       0.0028098596 -0.07293326 -0.0878596 0.02238397
0003c0 05 d3 c6 3c ef 1b 73 bd b1 cd d1 3b 52 e5 32 bc
       0.024270544 -0.05935281 0.006402694 -0.010918932
0003d0 7d b7 22 be bf 43 0f be 8f 54 c1 bd 08 ba 92 3c
       -0.15890308 -0.13990687 -0.094399564 0.017910972
0003e0 b5 ab f9 bc 99 57 5a be d0 8c 01 be ee ff 90 bd
       -0.030477384 -0.21322478 -0.12651372 -0.07080065
0003f0 23 fc 0d bc a2 c5 b4 bc 26 69 89 bd ad 8b 09 3d
       -0.008666071 -0.022066895 -0.067095086 0.03358047

conv2.0.bias f4 [16]
000000 47 36 b2 bd b3 43 aa 3d a3 12 88 3d 6b a4 44 bc
       -0.08701759 0.08313694 0.0664418 -0.012002091
000010 f0 2e 10 bd 19 79 de 3b 8c 39 13 bd dc 7c 6f bd
       -0.035201013 0.0067893383 -0.035943553 -0.058468685
000020 db d6 a7 bc 49 6c 2c 3d 90 70 72 bd 4b d8 07 bd
       -0.020488193 0.042095456 -0.05918938 -0.033165257
000030 0e 73 32 bd be 57 ad bd 31 ff 8c 3d 00 84 93 bd
       -0.043566756 -0.08464001 0.068846114 -0.072029114

conv2.1.weight f4 [16]
000000 8c f6 78 3f 5d 00 88 3f 29 48 7b 3f 97 33 7c 3f
       0.972512 1.0625111 0.9815698 0.9851622
000010 5a 79 7d 3f 70 d8 7a 3f f6 1e 80 3f 68 0e 83 3f
       0.9901329 0.9798651 1.0009449 1.0238771
000020 b0 0d 75 3f eb 38 80 3f 06 ed 80 3f df 69 81 3f
       0.9572401 1.001737 1.0072334 1.0110434
000030 8c 6e 8a 3f 91 25 7e 3f a5 28 80 3f 18 0c 80 3f
       1.0814986 0.9927607 1.0012404 1.0003691

conv2.1.bias f4 [16]
000000 46 eb f1 bb 2c c4 b2 bb e8 95 20 3c 88 80 9e bd
       -0.007382783 -0.0054555144 0.009801365 -0.07739359
000010 bd 3e e0 bb 96 87 1f bd 5d 0e f4 bc f5 1e 18 bd
       -0.0068434165 -0.038947664 -0.029792005 -0.037138898
000020 db 69 ef bc 9e 17 a3 3c de 2a 2e 3c 88 f6 5d bc
       -0.02922528 0.019908722 0.0106303375 -0.013547547
000030 27 c9 19 bd 2f 0d 96 3c 89 ff ae 3c 75 ed 92 bb
       -0.03754535 0.018316833 0.021362083 -0.0044838735

conv2.1.running_mean f4 [16]
000000 a0 90 a6 3d ed 63 54 bf 26 0d 50 be f6 13 8b 3f
       0.08133054 -0.82964975 -0.20317516 1.0865467
000010 46 10 4a be fc cf 4f be 67 23 67 bc fc 60 22 3d
       -0.1973277 -0.20294183 -0.014107562 0.039643273
000020 d2 96 2b be d3 e5 2d bf a2 73 16 bc c8 f5 09 3f
       -0.16756752 -0.6792881 -0.009182842 0.5389066
000030 74 94 61 bd fb f6 ed be 1d 9d 8b 3d c5 7d 0b 3e
       -0.055073217 -0.46477494 0.06817076 0.13622196

conv2.1.running_var f4 [16]
000000 c7 59 84 3e 9a bb b8 3e 06 cd 08 3f 08 7a b0 3e
       0.25849745 0.3608063 0.5343784 0.34468102
000010 08 04 64 3e 12 ce ee 3d 08 b9 98 3d d6 ad 40 3e
       0.22267163 0.116603985 0.07457167 0.18816313
000020 60 77 f5 3e 54 81 d5 3e c5 23 2f 3e 7c 43 5d 3e
       0.47942638 0.41700232 0.17103489 0.21607774
000030 e5 95 ca 3e 56 d1 75 3e c7 03 6a 3e 67 5e 89 3e
       0.39567485 0.24005637 0.22853003 0.26829836

conv3.0.weight f4 [32, 16, 4, 4]
000000 62 21 b8 3c 5d 75 44 bb c6 34 69 bd b4 e6 86 bd
       0.022476856 -0.002997718 -0.056935094 -0.06586972
000010 f0 31 44 bd 46 25 3e 39 d0 89 88 3b d6 1a 74 bc
       -0.047899187 0.00018133697 0.004166819 -0.014898976
000020 eb d1 1d bd ea d2 67 bc 97 17 0d bb 1e ec 3c bd
       -0.03853027 -0.014149407 -0.0021528953 -0.046123616
000030 9c 0f 12 bd 51 c2 fc 3c 25 5a df 3c b2 1b 2a 3c
       -0.035659418 0.030854376 0.027264664 0.01038258
000040 5e 9c 9a bd c9 07 e7 bc 35 4c d3 bb 4e 1a ca 3b
       -0.07549356 -0.028201954 -0.0064482936 0.0061676865
000050 e0 40 9a bc 12 79 ef bc 54 52 16 3d b5 08 20 bd
       -0.018829763 -0.029232536 0.036699608 -0.039070804
000060 44 c9 31 bd bd 94 85 bd 63 ec 89 bc ed ab 4c 3b
       -0.043404832 -0.0652251 -0.01683635 0.0031230405
000070 8e a2 02 bd b9 6e fd 3b e7 e4 2e bd 65 fa 7a bd
       -0.031893305 0.0077341464 -0.042698767 -0.06127395
000080 65 a6 4f 3d c6 e2 a8 bb ca 0f 48 bb 75 4f e8 3c
       0.050695796 -0.0051539866 -0.003052699 0.0283582
000090 6e da 8d 3c 87 67 5d bc 16 03 f3 3b 42 8a 6d 3d
       0.01731607 -0.013513452 0.0074161394 0.05799318
0000a0 be 2c 1e 3c 03 8b 36 3d 13 a3 5c 3c e9 e3 cb bb
       0.009654222 0.044566166 0.013466614 -0.0062222374
0000b0 ac 84 c5 3b 92 66 95 3c 9b a4 a8 3c dc aa 43 3c
       0.0060277786 0.018237386 0.020586303 0.0119425915
0000c0 91 49 3c ba 33 56 23 bc 8b 5e 07 bd 4b e6 87 bd
       -0.0007182593 -0.009969282 -0.033049148 -0.06635722
0000d0 fc b8 20 bc c3 a6 61 3d 4f d4 fb bc c9 89 1c bd
       -0.009809729 0.055090677 -0.030740885 -0.03821734
0000e0 f0 68 bd 3c aa 59 f7 bc a4 44 29 bd e1 88 5b bd
       0.023121327 -0.030194122 -0.041325226 -0.053597335
0000f0 64 e2 23 3d 76 71 fb bc 75 eb 36 3d a3 17 79 bd
       0.040010825 -0.03069375 0.044658143 -0.060813557
000100 43 f7 46 3d 74 cd 69 3c e4 7f eb 3c e0 d4 d1 3c
       0.04857565 0.014270175 0.028747506 0.025614202
000110 c6 a8 c1 3b e1 f3 06 3c 7e 87 12 3d 91 6f 61 bc
       0.005910012 0.008236856 0.035773747 -0.01375951
000120 dc aa ee bb 42 20 c8 bc 00 14 85 bc df 82 dd 3c
       -0.0072835516 -0.024429444 -0.016244888 0.027039943
000130 0c 8d 44 bd eb 07 75 3d f0 4b 1c bc 2a 57 00 bc
       -0.047986075 0.059822004 -0.009539589 -0.0078332815
000140 9f f3 8e bb af a4 15 3d 66 9c 77 3c 9e dc 80 bc
       -0.004362538 0.036534008 0.015112972 -0.015730198
000150 db 7d f4 bc 32 e5 0b 3d 4f f5 01 3c 80 a0 c1 3b
       -0.029845169 0.034154125 0.007932021 0.0059090257
000160 ae d5 6d 3d f1 24 e5 bc 0d a4 6a 3c 34 71 e5 3c
       0.05806511 -0.027971717 0.014321339 0.028008081
000170 4d c1 de bb 74 ef 4e bd 8e 19 6c bb 47 f3 fd bc
       -0.0067979456 -0.05052133 -0.0036025974 -0.030999793
000180 93 80 92 3d d0 98 23 3d 0e 03 f0 ba ae c4 1d bc
       0.0715343 0.039940655 -0.0018311457 -0.009629412
000190 4a d6 f1 3c ad 36 fe 38 61 be 29 bd 47 d4 73 bc
       0.029521126 0.00012121848 -0.041441325 -0.014882154
0001a0 67 70 e4 3c e8 06 7f bd b7 f3 80 bd bd 01 a0 bc
       0.027885629 -0.062262446 -0.06296485 -0.019532079
0001b0 18 55 41 3d 9b f4 b7 bc c9 a5 21 bd 77 2a 97 3c
       0.047200292 -0.022455504 -0.039464746 0.018452866
0001c0 9f ca 19 3c c8 83 4e 3d 38 28 5d bd 9f 6a 7a bd
       0.009386688 0.050418645 -0.053993434 -0.061136838
0001d0 ce 15 82 3d fb ce ca bb f1 93 4d bd 47 99 1d bd
       0.06351815 -0.006189225 -0.050189916 -0.038476255
0001e0 6e 54 8c bd 9c ba b4 3b 9f c5 9c bd 94 c0 ec bd
       -0.06852041 0.0055154096 -0.07654881 -0.11560169
0001f0 d7 40 f5 bb 1d e5 90 3d a8 13 ad 3a e4 b1 53 bd
       -0.007484536 0.0707495 0.001320471 -0.05168332
000200 be 2e ce bb e3 9d 50 bd df 0f e6 bc 14 32 35 bd
       -0.006292193 -0.050931823 -0.02808374 -0.04423721
000210 67 f2 17 bc 74 d5 30 3d af f2 7b bc 0b 34 da bc
       -0.009274102 0.043172315 -0.0153776845 -0.026636144
000220 8a 82 3e bd 46 65 94 bc 6b a8 43 ba 54 40 4f bd
       -0.04651121 -0.018114697 -0.0007463756 -0.050598457
000230 ed a0 10 bd a0 95 e8 3c fa e1 21 3c 0e 88 9a bd
       -0.03530972 0.02839166 0.009880537 -0.075454816
000240 33 b1 92 bc be 6f 02 3d ce bb 2a 3d 3d 4d 35 bd
       -0.01790676 0.031844847 0.04168301 -0.044263113
000250 b3 b9 cb bb 60 73 5b bd 52 c3 c7 ba 4a 10 20 bd
       -0.0062172054 -0.053576827 -0.0015240705 -0.039078034
000260 44 b1 5a bd cc 08 42 bd d8 bb 42 bc 08 50 88 3d
       -0.05339171 -0.04737167 -0.011885606 0.0665589
000270 ad da 75 3c 78 95 d8 3c e0 0e 47 bd 7f b9 90 bd
       0.01500575 0.02643846 -0.04859817 -0.070666306
000280 f3 df 3c 3d d1 a8 a3 3d a5 f5 d9 3b f7 92 19 3d
       0.046112012 0.079911835 0.0066515976 0.037493672
000290 8c 4e a4 bc cc 67 3b 3c 78 fc bb bb ef e2 47 3c
       -0.020056985 0.011438321 -0.0057368837 0.012200101
0002a0 a3 14 8a 3d 74 ed 37 3d 2b 6b 23 3d d6 47 02 bd
       0.067422174 0.044904187 0.039897125 -0.03180679
0002b0 ae 5c 2e 3d 31 f1 21 bd d1 28 97 3c 90 d2 e8 3c
       0.042568855 -0.03953666 0.01845208 0.028420717
0002c0 66 ca 6c 3c a4 1b 35 3d 3b 8c ee b9 29 9e 99 bd
       0.014452552 0.044215813 -0.00045499377 -0.0750087
0002d0 eb 80 d5 bb de d7 ab 3c 0f 1b aa bd b0 18 76 bd
       -0.0065156124 0.020976957 -0.08305942 -0.060082138
0002e0 27 a5 8a 3d 4d f4 e8 3c 9d bb 34 3d 1d 6a 61 3b
       0.067697816 0.028436804 0.044124234 0.0034395524
0002f0 90 66 52 3d 76 97 32 bd 76 87 6e bd f3 06 10 3b
       0.051367342 -0.043601476 -0.058234654 0.0021976798
000300 26 44 20 bd 12 92 1b 3c df 12 37 3d e9 44 a6 bd
       -0.03912749 0.009495275 0.04469573 -0.08118612
000310 c6 10 df 3c 66 71 69 bc 16 ce 2b bd ca 32 b1 bd
       0.027229678 -0.014248228 -0.041944586 -0.08652265
000320 4a 2c 94 bc 60 99 b5 bd 03 b7 26 bd dc 69 02 be
       -0.018087525 -0.088671446 -0.040701877 -0.12735695
000330 5b 9b 6c bd 0a 42 3d 3d 6c 20 61 bd 2a 71 4e bd
       -0.057765346 0.046205558 -0.05496256 -0.05040089
000340 3e 6f 54 3d 83 40 2d 3c 2f cd 10 3d 39 bd f0 bc
       0.0518639 0.010574463 0.03535193 -0.029387103
000350 4f ee a5 3c 36 14 47 3b 7a 2a 05 bb 01 1d f3 bc
       0.020255236 0.0030377037 -0.0020319507 -0.029676916
000360 01 3f 06 3d c6 a1 06 3d 24 03 10 3d 79 bb 4c bc
       0.03277493 0.032869123 0.035159245 -0.012495869
000370 6d 91 92 bc ec 0d 9b bd c0 04 0f 3d 2e a0 2d bc
       -0.01789161 -0.07571015 0.03491664 -0.010597272
000380 a3 1f 92 3d 03 36 62 3d 5a db 1e bd 83 fe fb bc
       0.071349405 0.05522729 -0.03878341 -0.03076101
000390 18 86 b8 3c f9 4d 49 bd 36 f3 10 bd c6 2a d5 3c
       0.022524878 -0.049146626 -0.035388194 0.026021373
0003a0 37 2a 07 3c 2c 87 37 3d 6e b4 49 3d 75 d2 47 bd
       0.008249811 0.044806644 0.049244337 -0.04878469
0003b0 7f 78 0f bd c1 61 36 3d 5a d9 8b bd 70 1c 32 bc
       -0.035027023 0.04452682 -0.06828566 -0.010871038
0003c0 bb 76 13 bc 32 16 19 3c 3e f7 a5 3c ec 6b 0e 3b
       -0.0090004755 0.009343671 0.020259496 0.0021731807
0003d0 10 d8 84 3d b7 b8 d9 bc 91 4f 2e 3d c2 01 36 3d
       0.06486523 -0.026577337 0.04255635 0.04443527
0003e0 52 89 2d 3d 70 83 3f 3d ea 43 97 bd a6 7e b2 bd
       0.042367287 0.046756208 -0.073860005 -0.087155625
0003f0 f1 cd 08 bd 56 9d b5 bb d4 c3 6d bd bb 83 64 bd
       -0.033399526 -0.0055424375 -0.058048084 -0.05578969

conv3.0.bias f4 [32]
000000 d9 6d 6c 3c cf 44 6d 3d 43 d2 68 3c 9f f8 71 bd
       0.014430487 0.05792695 0.014210287 -0.059074994
000010 bf d3 86 3b 8a 8f 61 bd 14 c3 c1 bc 28 e5 79 3d
       0.0041145976 -0.05506853 -0.02365259 0.061009556
000020 36 5d 0d 3d b6 d5 aa 3c 1f 97 73 bc 1a 7d fe 3c
       0.03451272 0.020853858 -0.014867573 0.031065512
000030 57 cd ff 3c 11 0c ef bb ef 0c 7c bd 75 3b 2c 3c
       0.031225843 -0.0072951396 -0.061535772 0.010512223
000040 5a 01 02 bd 91 74 96 3c ba fa 40 3d 99 16 d2 3c
       -0.03173957 0.01836613 0.04711411 0.025645541
000050 f9 1b 3d 3d c6 68 50 3d 5f ea 37 3c 51 f0 3f 3d
       0.046169255 0.05088117 0.011225312 0.046860043
000060 76 8a 3f 3c a2 96 26 bd 04 44 3e bc 62 09 54 bc
       0.0116907265 -0.040671 -0.011612896 -0.01294169
000070 d7 fe 7e bd 0e a9 4f bd 27 64 5c bd db b8 74 3d
       -0.062254753 -0.050698332 -0.05380645 0.059746604

conv3.1.weight f4 [32]
000000 43 fc 7c 3f 75 f2 7d 3f 7b 8e 80 3f 87 78 83 3f
       0.9882242 0.99198085 1.0043482 1.0271157
000010 9a 0b 7a 3f 5b f9 7d 3f 74 e5 7c 3f 1e f2 7b 3f
       0.9767395 0.9920861 0.9878762 0.98416317
000020 3b d5 78 3f e8 25 81 3f 45 48 7c 3f c3 8b 7c 3f
       0.97200364 1.0089693 0.98547775 0.9865076
000030 84 5a 83 3f 7f 6d 79 3f ae 53 81 3f 2f 1f 82 3f
       1.0261998 0.974327 1.0103662 1.0165766
000040 ec 2c 81 3f 11 4d 81 3f 50 91 7f 3f b0 d0 7f 3f
       1.0091834 1.0101644 0.99831104 0.99927807
000050 30 10 7c 3f ba 90 86 3f 4c 1e 80 3f dc a3 80 3f
       0.984622 1.0512917 1.0009246 1.0050006
000060 6f a5 7a 3f ae 5b 79 3f 06 29 86 3f f5 51 81 3f
       0.9790868 0.9740552 1.0481269 1.0103136
000070 a5 52 7d 3f a6 34 85 3f f9 88 88 3f e6 12 81 3f
       0.9895423 1.0406692 1.0666801 1.0083892

conv3.1.bias f4 [32]
000000 29 f6 87 bd 12 ea 49 bb 9e 97 5e bc 9b ae 20 be
       -0.06638748 -0.0030809683 -0.013585953 -0.15691607
000010 0e b3 b7 bc f7 6a 01 bc d3 c7 d0 3c 33 72 5a 3b
       -0.022424247 -0.007899038 0.025485909 0.0033332228
000020 a6 ed a2 3c 4f 11 3d bc e3 5f a9 ba ef 80 3c 3d
       0.01988871 -0.011539771 -0.0012922253 0.0460214
000030 04 fd 84 3d 6c 67 c9 bc 85 8d 07 bc 52 6d 0b bd
       0.064935714 -0.024585448 -0.008273487 -0.034039803
000040 46 c6 6f 3c 80 3f 9b bb bc a0 a2 bb 46 94 6d bd
       0.014634674 -0.0047377944 -0.0049630087 -0.058002733
000050 2c 76 18 bc 19 a0 1d bd 57 62 30 3c 57 9b 50 bc
       -0.009305518 -0.03848276 0.010765634 -0.012732348
000060 6e 30 d5 ba 52 fa 52 bc 8f b2 11 bc 78 ea 2a 3c
       -0.0016265044 -0.012877064 -0.008892669 0.010431878
000070 55 6f 2e bd a5 78 21 bd 4d 83 80 bd 44 7d 81 3b
       -0.042586643 -0.039421696 -0.06275044 0.0039517004

conv3.1.running_mean f4 [32]
000000 5f bd 05 bf 87 19 22 bf 95 cf e9 bd 62 b4 9e bd
       -0.5224208 -0.633202 -0.11416546 -0.07749249
000010 5c a7 bc be 2b 52 a9 3e 4d 62 d0 bd 8f 3c 94 bc
       -0.36846435 0.33070502 -0.101749994 -0.018095283
000020 d1 52 d6 bd 9e fd 8a be 1e 6e 70 be 6e e2 eb be
       -0.10465015 -0.2714662 -0.23479506 -0.4607119
000030 7a 56 fd be 1f 02 66 bf 98 6c c6 be 01 c8 a5 be
       -0.4948004 -0.89846987 -0.38754725 -0.32379153
000040 30 4d f1 be a2 ed 18 be cc ba 7b 3d 9d 4e 4a 3e
       -0.47129202 -0.149344 0.06145744 0.19756551
000050 03 0d 17 bf 96 a8 e9 bd a6 ac 9c be 91 89 a7 be
       -0.5900423 -0.11409108 -0.3060047 -0.32722142
000060 a7 74 2a 3e 20 d9 d8 be dc 55 a8 be 76 c2 0d bf
       0.16646062 -0.42353153 -0.32878006 -0.5537485
000070 22 c8 15 be af d7 30 3e 4a 2d fc be 98 22 f8 be
       -0.14627126 0.17269777 -0.49253303 -0.48463893

conv3.1.running_var f4 [32]
000000 1d 34 55 3e 73 9a 97 3e fe ae 0e 3e e7 6c 5f 3e
       0.20820661 0.29610023 0.13933942 0.21818887
000010 81 cd 85 3e 76 1d 63 3e 08 28 dc 3e 28 d1 8d 3e
       0.2613335 0.22179207 0.4299929 0.27698636
000020 71 09 ea 3d 10 5b 9c 3e cd d0 70 3e d2 09 87 3e
       0.11427582 0.30538225 0.23517151 0.2637468
000030 3d e1 dc 3e db 2a 2c 3e 7b 59 49 3e cf 77 15 3e
       0.43140593 0.16813223 0.1966304 0.14596485
000040 4e e9 3c 3e 76 42 32 3e 60 11 28 3e 52 76 02 3e
       0.18448374 0.17408165 0.16412878 0.12740448
000050 69 ac 4c 3e ed a5 0f 3e 7d b9 83 3e fa 50 86 3e
       0.19987644 0.1402814 0.25727454 0.26233655
000060 cc f2 4f 3e cb 85 54 3e 22 38 08 3e d6 6d ca 3e
       0.20307463 0.20754163 0.13302663 0.39536923
000070 1f 17 75 3e 52 3d 25 3e 9f a4 14 3e d1 84 79 3e
       0.23934601 0.16136673 0.14515923 0.24367072

deconv2.0.weight f4 [32, 16, 4, 4]
000000 21 00 9f bd 91 a6 23 3c a7 b6 ab bc 95 45 18 3c
       -0.077636965 0.009988443 -0.020961119 0.009293933
000010 d0 8c 1d bd 14 96 8b 3c f0 a5 b0 bc 9e f7 d1 3b
       -0.038464367 0.017039336 -0.0215635 0.006407692
000020 08 e4 30 bd 50 9b b6 3a 55 05 25 bd 5e 6c 78 bd
       -0.043186218 0.0013931785 -0.04028829 -0.060650222
000030 46 de 02 bd 61 f8 26 3d 19 38 55 bd 29 62 0a 3d
       -0.031950258 0.040764216 -0.052055452 0.03378502
000040 87 34 ec 3b e2 52 79 bc 79 54 ad 3c a2 69 b6 bd
       0.00720841 -0.015217515 0.021158444 -0.089068666
000050 24 eb 00 bd d7 db c7 3c 46 b9 e9 3d d9 f7 8b 3c
       -0.031474248 0.02439682 0.11412291 0.017085956
000060 e5 fe df 3c 1d ba d1 bc c4 ea 47 3d 63 92 40 3c
       0.027343223 -0.025601441 0.048807874 0.011753651
000070 d2 de 89 bd b2 f7 4f 3d 55 99 34 3d 60 18 e9 b9
       -0.06731953 0.05077333 0.04409154 -0.00044459384
000080 1a 80 2b 3d 8e f7 ae 3b 52 1a 46 3d b7 88 b7 3b
       0.041870214 0.0053395694 0.048364945 0.0056010145
000090 a2 14 f7 3c b3 c3 3c 3d d8 12 2d 3b db 68 ba 3c
       0.030161206 0.04608507 0.0026408937 0.022755077
0000a0 39 b5 0a 3d 5e 70 1b 3d 9a 66 28 3b 86 35 d7 3c
       0.033864234 0.03794896 0.002569592 0.02627064
0000b0 1e 25 f4 3b f6 f3 60 bd de 33 7a 3b a3 86 9f 3b
       0.007450714 -0.05492016 0.0038177888 0.004868345
0000c0 ea a9 e1 bc fe b4 f3 3c 00 f7 34 bd 27 5c 14 3d
       -0.027546842 0.02974939 -0.04418087 0.036220696
0000d0 99 13 91 bd 48 df c4 bd b0 95 d6 3d 86 83 d6 bc
       -0.07083816 -0.096129 0.104777694 -0.026185762
0000e0 d7 8e 9d bd 3b dc 89 3c 5e 1a 90 bd 98 e0 98 bb
       -0.0769326 0.016828647 -0.07036279 -0.0046654455
0000f0 6e 5b 8a bc 01 26 f0 bd 9d ac 94 3d 5c 5a f8 bd
       -0.0168893 -0.11725999 0.07259486 -0.1212661
000100 f8 c9 51 3c 0a 1b 64 3d 0b f9 e2 bb 3f dc 2b 3b
       0.012804501 0.05568985 -0.006926661 0.0026223806
000110 ce 64 06 bd 04 6e a0 bd 37 1d 1b bd d6 9c bc bc
       -0.03281098 -0.07833484 -0.03786966 -0.023024004
000120 0a a4 33 3a 32 0e 30 3d 8d f1 0a bc 48 35 e8 3c
       0.0006852752 0.042982288 -0.008480442 0.028345719
000130 70 b5 89 3d b3 a2 0d 3d 1d 10 61 3c c2 39 8d 3c
       0.067240596 0.03457899 0.013736752 0.017239455
000140 e7 13 c9 bc a2 f4 a6 3c 76 ec 1d bd e8 75 87 bd
       -0.024545623 0.020380322 -0.038555585 -0.06614286
000150 dd 1c 5f 3d 55 70 dd 3c b0 9b 40 3d be 4f af bb
       0.054470886 0.027031103 0.047023475 -0.005350082
000160 64 be d4 3b d0 02 07 bc 6b f9 85 bd d3 b1 a9 bd
       0.006492423 -0.008240417 -0.06541713 -0.082858704
000170 a6 ab a6 bc fd db 80 3c 77 aa dd 3c d3 64 09 3c
       -0.02034552 0.015729899 0.027058823 0.008385855
000180 95 f5 3e bc da 5d 39 bd 87 91 9c bd e5 a7 6a 3c
       -0.011655231 -0.04525552 -0.07644945 0.014322256
000190 4a 9b 6a 3d d7 f5 97 bd 4c 55 44 3c b0 76 9c bc
       0.057277 -0.07419937 0.011983227 -0.019099563
0001a0 a8 f4 bd bc c1 8e a1 bc 6c 95 ea ba 40 ff 45 3c
       -0.02318795 -0.01972139 -0.0017897314 0.012084782
0001b0 c0 21 bb 3c 3a 82 36 3d b4 81 14 3d 46 6c 5a bc
       0.022843242 0.044557787 0.036256507 -0.013331478
0001c0 a7 df 9d bd d1 98 ad 3c 7f 05 51 3a bd 21 00 3c
       -0.07708674 0.021191033 0.0007973536 0.007820544
0001d0 d0 a6 79 bc 7b c0 94 3b c5 ef 81 3c d3 56 53 3b
       -0.015237525 0.004539547 0.015861401 0.0032247796
0001e0 ff b2 8a bd 5f d5 27 3b db c3 45 3d 96 a9 7d 3c
       -0.06772422 0.0025609357 0.048282485 0.015482327
0001f0 a2 f5 b4 bc 64 4d ff 3c 9c 48 a8 bc 84 25 b3 3b
       -0.022089783 0.031164832 -0.020542435 0.0054671187
000200 73 ae d3 3a d0 e3 57 bc 28 9b 86 bc 85 8f 95 bb
       0.0016150012 -0.013176873 -0.016431406 -0.004564228
000210 2d bf 40 bd 79 39 50 bd ff df 02 3c 2f 2f 0e bd
       -0.04705732 -0.05083606 0.007987975 -0.034712967
000220 ff 9a 0e 3d df 78 05 bd fb b9 0d 3d 5a 7b 37 bd
       0.034815785 -0.032585975 0.034601193 -0.04479537
000230 95 98 ae bc 1e 80 2f 3d 99 95 b7 3c 0b 14 2d bd
       -0.021312991 0.04284679 0.0224102 -0.042255443
000240 44 4b 0e bc 24 48 7e bc f3 03 5d 3c 87 35 2b bd
       -0.008684937 -0.015520129 0.013489711 -0.041799095
000250 6e 7a 2f 3d e3 a7 a6 bc e3 b3 00 be 4f 73 6c 3c
       0.042841367 -0.020343727 -0.12568621 0.014431789
000260 fe 96 77 3d f1 96 97 bc 92 e3 56 3d aa f4 c2 bd
       0.06044673 -0.018504592 0.05246312 -0.09519322
000270 d2 81 86 3d a9 9d 05 bc 6a 13 f2 bd 60 6f 22 bc
       0.0656773 -0.008155265 -0.11820109 -0.009914249
000280 1f 2e 39 bd bf 36 a7 bd 50 45 4b bd 9e 21 a4 bd
       -0.04521 -0.08164739 -0.04962665 -0.080142245
000290 79 1f d7 3c 98 df 96 bc e8 52 1c bd 2a 64 b9 bc
       0.026260125 -0.018417165 -0.038165003 -0.02263077
0002a0 82 51 04 bd e0 33 ba bd 46 3c 4c bb f6 f5 09 bd
       -0.032304294 -0.090919256 -0.0031163855 -0.033681832
0002b0 a1 0b 18 3d 36 0a e5 bb 55 7c 70 3c e5 75 44 3b
       0.037120465 -0.0069897426 0.014678081 0.0029977497
0002c0 3d 5c 79 bd 0a 7e ff bc 53 2f 5d bd 0e c9 96 bd
       -0.06087898 -0.03118803 -0.05400021 -0.07362567
0002d0 64 33 3f bb 05 3a 4a bd e8 5a 89 3c 1c 97 cf bd
       -0.0029174918 -0.049371738 0.01676698 -0.10136244
0002e0 11 6f 92 bd ad 2d 94 bd f9 14 65 bd 9f ca b5 bc
       -0.071500905 -0.072352745 -0.055928204 -0.022191344
0002f0 e9 0e 2b bd d8 ad f2 bc 67 e7 a5 3c 6f 85 1d bc
       -0.041762266 -0.02962391 0.020251943 -0.009614333
000300 3c 81 56 bb 1e aa 9b 3c 6c 67 8e bd a7 2f 1d 3d
       -0.0032730838 0.019002017 -0.0695332 0.038375523
000310 ac ee 6e bd 8e 80 80 bc 48 e7 6a 3c a1 cc 57 bd
       -0.058333084 -0.0156863 0.014337368 -0.052685384
000320 83 91 8b bc 9f 14 87 3d 7a 51 78 bd c0 dd 39 3d
       -0.017037159 0.0659573 -0.060624577 0.045377493
000330 d2 d6 df bc 7c e7 f2 bc 59 22 9b 3c b4 c4 99 bc
       -0.027324114 -0.029651396 0.018937277 -0.018770553
000340 97 bd 94 ba 24 17 73 bc cc 96 85 bd 83 49 1a bc
       -0.0011348006 -0.01483706 -0.06522903 -0.009416941
000350 46 21 95 3d 04 1d 3b 3d 89 3b 87 bc 15 ed ea 3c
       0.07281737 0.04568197 -0.01650788 0.028677503
000360 f1 87 5d 3c ff 37 82 bc f0 82 81 bd b1 50 25 3c
       0.0135211805 -0.015895842 -0.063238025 0.010090039
000370 ae 47 98 3d 8d db fd 3a 00 05 1e 3d 6a 63 f5 3c
       0.07435547 0.0019367799 0.038578987 0.02995463
000380 d4 df 98 bd f1 56 94 bb 50 b0 88 bc a7 08 0c bd
       -0.07464567 -0.004526966 -0.016685635 -0.03418794
000390 52 c7 0a 3c ab a8 a6 bc c6 6a c6 3c ed 91 ae bb
       0.008470373 -0.020344099 0.024220835 -0.0053274543
0003a0 c0 7e 37 bd 2d 9b 6c bd f4 38 51 bd b6 e1 9a bd
       -0.044798613 -0.057765175 -0.051079705 -0.07562582
0003b0 19 9b b8 bb 9e cf 34 bd 7e 59 28 bb c7 41 07 bd
       -0.0056337235 -0.04414331 -0.0025688107 -0.033021715
0003c0 b0 39 0a bd 4c 7f 7b bd 1d 57 c8 3a d7 d8 b4 3c
       -0.03374642 -0.061400697 0.0015284751 0.022076054
0003d0 6e 3b 24 bc 95 fc cc bc 04 5d cb bd 2c a5 f8 3c
       -0.010023935 -0.025022784 -0.09929851 0.030352198
0003e0 11 74 0a bd c0 bb 31 bd cd e4 64 3c 80 a8 87 bd
       -0.033802096 -0.043391943 0.013970566 -0.06623936
0003f0 cc 17 a5 3d cf 66 d1 bc 0d bb 84 bd 67 9a 3f 3b
       0.080611795 -0.025561718 -0.064809896 0.0029236318

deconv2.0.bias f4 [16]
000000 63 e4 f1 3c 79 c6 76 bd 39 76 f6 3c 24 17 da 3c
       0.029527849 -0.060247872 0.03008567 0.026622362
000010 a9 59 1e 3d 45 5f 66 bd 15 97 46 3d 8e 19 86 bc
       0.038659725 -0.0562432 0.048483927 -0.016369607
000020 1d e4 77 bd 67 c3 53 3d fe 4b e0 3c 74 f8 62 bd
       -0.06052028 0.051700022 0.027379986 -0.055412725
000030 09 85 d1 3c b7 9f 6b bc ce 12 75 3c b6 1d 85 3c
       0.025576131 -0.014381341 0.014958097 0.016249519

deconv2.1.weight f4 [16]
000000 67 04 76 3f 4d d8 81 3f 3f fa 80 3f 08 c4 7a 3f
       0.9610047 1.0144135 1.0076369 0.9795537
000010 0e 45 7e 3f 18 25 73 3f 2f ff 73 3f 77 d9 71 3f
       0.9932412 0.94978476 0.95311254 0.9447245
000020 47 36 77 3f cb 42 83 3f 6c 92 77 3f 61 fb 8c 3f
       0.96567196 1.0254759 0.967078 1.1014215
000030 63 a7 7b 3f b5 4c 74 3f f0 1b 85 3f ca b0 80 3f
       0.98302287 0.95429546 1.0399151 1.0053952

deconv2.1.bias f4 [16]
000000 a2 2b 07 3c 11 9a c3 3d 35 7e 6a 3d b2 47 85 3c
       0.008250149 0.0955087 0.057249267 0.016269539
000010 e9 82 06 3d ec 06 80 3c 41 63 ff 3c 1f c7 2c bd
       0.03283969 0.0156283 0.031175258 -0.042182084
000020 8a a0 8b bc e9 99 05 3e ee 4d 06 3d ca 4a 31 bd
       -0.017044324 0.13046993 0.032789163 -0.043284215
000030 62 d5 fd bc c7 cc 06 3d 2e 8a 40 3d 7d ea a7 3c
       -0.030985538 0.032910135 0.04700678 0.020497555

deconv2.1.running_mean f4 [16]
000000 c8 f6 2b bf 86 c2 17 bf 9c c8 90 be b0 64 12 bf
       -0.67173433 -0.59281194 -0.28278053 -0.57184887
000010 5f 1e 95 be 37 5b 51 bf 26 69 04 bf 5f be c6 be
       -0.29124734 -0.8177981 -0.51722944 -0.38817117
000020 04 3a 2b bf 8f b3 4a bf fa e1 65 bf 23 37 46 bf
       -0.668854 -0.79180235 -0.8979794 -0.7742788
000030 bf df c3 bd eb 7d 8d be 42 01 59 bf e0 f5 64 bf
       -0.095641606 -0.2763513 -0.84767544 -0.89437675

deconv2.1.running_var f4 [16]
000000 23 63 3a 3f 2d 98 61 3f 38 a3 5f 3f c6 68 26 3f
       0.7280752 0.88122827 0.8735843 0.6500362
000010 34 ae 17 3f db 35 b1 3f 9a 81 a3 3f 36 f5 29 3f
       0.5925019 1.384456 1.2773926 0.6638979
000020 e3 04 08 3f 81 8c 02 40 10 04 d9 3f df 54 06 3e
       0.53132457 2.0398257 1.6954365 0.13118313
000030 14 44 d4 3e 5f a3 a4 3f 29 27 22 3f 4a 95 42 3f
       0.4145819 1.2862357 0.63341004 0.7600905

deconv3.0.weight f4 [16, 8, 4, 4]
000000 c0 89 60 bd 98 c2 a2 3c 8f 7a 78 bc 95 ab b7 bd
       -0.05481887 0.01986818 -0.015165939 -0.089682736
000010 71 1a d8 bd e5 da 41 bd a1 49 ca 3c 88 1a a4 bc
       -0.10551918 -0.047327895 0.024693312 -0.020032182
000020 d3 bc 60 bd 19 10 a3 3c 1b c3 b4 3c f2 3f 8c 3d
       -0.054867577 0.019905137 0.02206569 0.06848134
000030 0b c7 56 bd 31 f7 03 bd 5c b9 2a 3d 94 1f c8 bb
       -0.052435916 -0.032218162 0.04168068 -0.00610728
000040 41 6a d5 bb 19 3c 2b bd 61 07 a8 3c 7e 6d aa 3d
       -0.0065129106 -0.04180536 0.020511331 0.08321665
000050 51 a7 28 3d 76 fc f7 3c 5d 16 5d 3d d0 76 a5 3c
       0.04117519 0.03027175 0.053976405 0.020198256
000060 47 3c 55 bb 37 49 c3 3d fd 18 55 3d e4 59 32 3d
       -0.0032537149 0.09535449 0.052025784 0.043542758
000070 7d 12 62 3a 9e 55 90 3d fd 6d 84 3d 0a 05 f3 bc
       0.0008623971 0.0704758 0.06466291 -0.029665489
000080 59 81 63 3d 18 1e 00 3d 81 6f 55 bc 05 f9 80 3d
       0.055543277 0.0312787 -0.013027073 0.06297497
000090 0b 9a 50 3d 58 74 0d 3e 47 b4 49 3c b5 41 fe 3c
       0.050928157 0.13813913 0.012311048 0.03103719
0000a0 8e d0 ab 3c 5b d9 99 3d 4d a6 5e bd 23 c3 91 3d
       0.02097347 0.075121604 -0.054357816 0.071172975
0000b0 0c 75 8c 3c ee 49 f5 3c 91 a1 1e bc 7e 75 37 bc
       0.017145656 0.029942479 -0.009682075 -0.011197446
0000c0 0a bd cf 3c 74 0b a2 3d 36 e0 81 bd eb 77 65 3b
       0.025358696 0.07912341 -0.06341593 0.0035014104
0000d0 69 ab 9a 3b 40 72 26 bd cb 80 ea 3c 46 0c c2 3d
       0.0047201407 -0.0406363 0.028625866 0.09474997
0000e0 a3 bc 0e 3d 34 08 b1 3d f6 bc d3 bc b4 77 a1 3d
       0.034847867 0.08644143 -0.02584694 0.0788416
0000f0 2c 24 01 3d 04 b8 09 3d 00 78 8a 3c 6f a2 e9 3c
       0.031528637 0.033622757 0.016902924 0.028519837
000100 87 be 1c 3d ad 6e 6b 3d a2 08 06 bc 10 22 50 bd
       0.03826764 0.057478596 -0.008180769 -0.050813735
000110 8e 30 14 3d 9a 20 52 3c 37 29 8a 3c 97 57 82 bd
       0.036179118 0.012825156 0.016865356 -0.06364363
000120 77 fe a6 bc da 79 33 3d e0 3a 17 bd fa c8 8d 3b
       -0.02038501 0.04381738 -0.036921382 0.004326937
000130 7e b5 de 3a b9 2e 70 3c 4c 03 58 bc b4 26 35 3d
       0.0016991345 0.014659577 -0.01318438 0.044226363
000140 ac 79 a4 3c a1 3c c4 bc 88 54 73 3b 8c d6 9a 3a
       0.020077549 -0.023954691 0.0037129242 0.0011813208
000150 7d 41 1d 3c 7b 42 54 bc 2e af ab 3c b1 69 96 3d
       0.009598133 -0.012955303 0.020957556 0.07344378
000160 a8 64 ef ba 9f 36 3b 3d 2b bf 26 bd f1 85 ee bb
       -0.0018264251 0.045706388 -0.040709656 -0.0072791507
000170 34 17 55 3d eb 52 97 3c 8f d8 e7 3c 54 75 bd 3c
       0.05202408 0.018472156 0.028301505 0.023127235
000180 b7 a3 d4 bc 2c 21 ad bd b5 0b 0f bd c1 98 7d bd
       -0.025956972 -0.08453593 -0.034923274 -0.061913256
000190 ba da 4b 3d 92 cf 2f bd f5 3b ea bb 66 4e aa bc
       0.04976914 -0.042922564 -0.0071482607 -0.020789336
0001a0 ba 5a 0a 3c fd c6 a5 3d a9 87 03 3d 32 38 0e 3c
       0.008444482 0.08094595 0.032111797 0.00868039
0001b0 9f 57 b0 3b 99 50 f5 bc bd 44 c1 bc 46 cd 3a bd
       0.005381539 -0.029945659 -0.023592347 -0.04560592
0001c0 a5 05 2d 3d a3 49 a5 3d 40 50 0e 3d b5 1f 00 3d
       0.04224171 0.08070686 0.0347445 0.03128024
0001d0 a9 8b 99 3c 57 db d8 3d 81 59 72 bd 2f 67 f1 bc
       0.018743353 0.10588711 -0.05916739 -0.029468147
0001e0 65 39 4f 3d 2b 3d 97 bd ac c2 da bc 51 6b 26 bc
       0.050591845 -0.07384714 -0.026704155 -0.010157422
0001f0 66 a6 3b 3d 63 8b 71 3d 6a 7a ee bc 40 f9 19 3d
       0.045812987 0.05897082 -0.029111106 0.03759122
000200 cd c5 5a bc 19 98 c7 3b 94 81 85 3d 7b 61 c1 bd
       -0.013352823 0.0060911295 0.06518856 -0.09442421
000210 26 07 78 bd 80 da 17 bd 5d 81 1a 3e f7 0f 59 3d
       -0.060553692 -0.037073612 0.1508841 0.05299374
000220 91 0c 8a 3c 2d 76 ad 3c 2c c3 1e 3d 97 93 c1 bb
       0.016851695 0.021174515 0.03876035 -0.0059074867
000230 03 eb f7 bb 8d ee 10 bd e3 28 37 3d c0 99 2a 3a
       -0.0075658574 -0.03538375 0.044716727 0.0006507896
000240 f7 4f 4e 3d 2f 0c c1 bd e7 fc 5d 38 7a d6 32 bd
       0.05036923 -0.09426152 5.292604e-05 -0.043661572
000250 ba 5d d1 bc f2 e4 a1 bd 7a ad c6 3d 04 9d 4c bd
       -0.025557388 -0.07904996 0.09701057 -0.04995443
000260 f9 d3 7f 3c 4d 87 ee 3a 41 f2 7a 3c 52 bc 94 3c
       0.015614503 0.0018198282 0.015316547 0.018156204
000270 e5 e4 07 3c e2 06 22 ba 53 48 24 3d 34 f3 eb 3c
       0.008294319 -0.0006180835 0.040108036 0.028802492
000280 29 f5 17 3c 8d bd d9 3c 02 ec 01 3e 0d fd db ba
       0.009274759 0.026579643 0.12687686 -0.0016783789
000290 40 8f 13 ba ef 51 d0 3b 29 a4 7a bb 1b fb 4f 3d
       -0.0005628951 0.0063574235 -0.003824482 0.050776582
0002a0 4d 77 8d bc ce 7c 10 3d 07 67 49 3b 72 1b 0a bc
       -0.017268801 0.035275273 0.0030731575 -0.008429395
0002b0 02 59 d3 bc bf a8 90 bc 47 cf 12 3d 58 59 69 bd
       -0.025799278 -0.01765859 0.035842206 -0.05696997
0002c0 e9 32 a4 bd ad 41 19 bd 35 c9 81 3d 26 f4 fc bc
       -0.08017523 -0.03741615 0.06337205 -0.030878138
0002d0 c7 09 a2 3d 78 fc 4d bd a1 2e 3e bd 6c 49 27 3d
       0.07912021 -0.0502896 -0.046431188 0.040841505
0002e0 d1 23 40 bd ea 6c 17 3d 29 a0 ea 3d 7e b9 42 3c
       -0.046909157 0.036969103 0.114563294 0.011885045
0002f0 1d 92 4d 3d a2 f7 88 3a a4 8b 51 bd da bf 17 3d
       0.050188173 0.0010449777 -0.051158562 0.0370482
000300 0f 4c 4f 3d ce 96 f2 bb 82 2c 5f 3c 9e ee 48 3d
       0.050609645 -0.007403231 0.013621451 0.049055688
000310 80 93 a2 3d 4a 23 5d 3d 7a 9b 20 bd 6c 8d c6 3c
       0.0793829 0.053988732 -0.039210774 0.024237357
000320 1d 9e 45 3d 48 02 06 3d 99 48 b2 3c 24 d2 de 3d
       0.04824649 0.03271702 0.021763133 0.10879925
000330 29 72 1c 3c ca 4d 03 bd e0 0d 38 3d 53 83 9c 3c
       0.009548702 -0.032056607 0.044935107 0.019105589
000340 a5 99 c2 3c 2c ba 51 bd 39 62 26 bd cf 17 76 3d
       0.023754904 -0.051202938 -0.040621016 0.0600813
000350 47 9d 41 bd a7 4d 2d 3d 39 3d ff 3d c7 3f ef 3d
       -0.047269132 0.042310383 0.12462849 0.116820864
000360 07 70 3c 3c 8d 2a 60 3d 0d d1 ef b8 f9 dd e6 3d
       0.011501319 0.05472808 -0.00011435347 0.11272807
000370 36 0c b8 3d c6 05 b7 3c 23 3c b8 3d 9e 31 f4 3d
       0.08986704 0.02234162 0.08995845 0.11923526
000380 03 c2 18 bd 40 0d ba bd b3 aa b1 bc 4f 1a b8 3c
       -0.0372944 -0.090845585 -0.021687841 0.022473482
000390 8d 20 03 3d 47 a6 ac 3c 7f 73 d4 3d 24 4a aa ba
       0.032013465 0.021075381 0.10373592 -0.0012992066
0003a0 14 72 d9 3c b4 6a dc bc 14 10 90 3c 93 e0 84 3c
       0.026543655 -0.026906349 0.017585792 0.016220367
0003b0 4c 23 e1 bb 41 6a a9 3b cb b2 da 3d 8a 6e 0d 3d
       -0.006870663 0.005170137 0.10678633 0.034529246
0003c0 f3 9b be 3c 86 bd 4c 3d b3 13 6b bb 88 f7 6c 3d
       0.023267722 0.04998543 -0.0035869896 0.05785325
0003d0 62 39 72 3c a3 02 ec bb 01 6b 9a bd 88 c1 b1 bd
       0.014784189 -0.0072024628 -0.075399406 -0.08679491
0003e0 31 70 51 bd 0b 21 74 bb 08 5a 25 bd 4a 27 6e bd
       -0.051132385 -0.003725114 -0.040369064 -0.058142938
0003f0 d6 d8 06 bc 44 06 d8 bb ec ca c5 bd bd c1 a4 bd
       -0.008230409 -0.006592544 -0.09657845 -0.08044765

deconv3.0.bias f4 [8]
000000 f9 11 92 bd 8c 7f 9c 3d 4b 27 5b bd 95 bb 42 3d
       -0.07132334 0.07641515 -0.05350427 0.047542173
000010 bb 79 cd 3c c1 04 80 3d 1e b9 05 3d 3e 00 81 3d
       0.02508246 0.06250907 0.032647245 0.06298874

deconv3.1.weight f4 [8]
000000 5b 6a 9d 3f 17 b3 9a 3f 29 3f 9b 3f 2c 40 9b 3f
       1.2298082 1.2085904 1.212865 1.2128959
000010 78 09 98 3f 35 e8 9a 3f 4f ab 9c 3f dc 47 96 3f
       1.187789 1.2102114 1.2239779 1.174068

deconv3.1.bias f4 [8]
000000 89 78 67 3e a7 2e 4f 3e f0 cc 53 3e d3 75 55 3e
       0.22604574 0.2023264 0.20683646 0.20845728
000010 37 78 43 3e d2 f5 51 3e d2 9b 61 3e e0 da 37 3e
       0.19088827 0.2050393 0.22032097 0.17954588

deconv3.1.running_mean f4 [8]
000000 7a 88 27 be ab 3c 19 bc ed 33 0c 3e c7 8d 1b 3e
       -0.16360655 -0.009352843 0.13691683 0.15190803
000010 c0 7c cb 3e c0 e7 ef 3e 4e e8 22 3d 65 93 90 bd
       0.39743614 0.468565 0.039772324 -0.07059363

deconv3.1.running_var f4 [8]
000000 5f 21 90 3d 70 a9 8d 3d 75 b2 e2 3d 92 19 ad 3d
       0.07037615 0.06917083 0.11069194 0.08452143
000010 e1 10 63 3d ce 60 95 3d 1e f6 b5 3d 97 c0 b7 3d
       0.05543602 0.07293855 0.08884834 0.089722805
