03_hw/Pix2Pix/checkpoints/pix2pix_model_epoch_640.pth (torch, 99191 bytes, 32 tensors)

conv1.0.weight f4 [8, 3, 4, 4]
-0.098839074 -0.11401875 -0.053261876 -0.1839873 0.059786312 -0.10015168 -0.02093175 0.060158823
-0.1417244 -0.045430765 -0.0048282025 0.040279966 -0.023873022 0.0723147 0.07019505 -0.13655046
0.13470493 0.18798923 0.055073183 -0.0056365854 0.036298446 -0.023701943 -0.077784956 0.04936728
0.11925922 0.053748384 0.03935406 -0.039901596 -0.07480293 0.028676637 -0.064622864 0.16674364
-0.104181826 0.039008476 -0.14889951 0.052898772 -0.11027138 -0.106044084 -0.006703982 -0.12152857
0.025706757 -0.024394682 -0.0024707625 -0.03668903 -0.04691573 0.043326795 0.07241519 0.046001084
-0.069873445 0.06924818 -0.018705586 -0.018286811 -0.0037656487 0.11355645 0.034108113 -0.011549036
0.1460398 0.08790503 -0.09952221 -0.07290003 0.034793228 0.12720777 -0.02974024 -0.022090947
-0.0025726475 0.13466433 0.011060798 -0.0841959 -0.045337506 -0.07675418 0.037744444 -0.03317316
0.030891838 -0.008637154 0.037113015 -0.12812999 0.061975203 -0.027506523 0.06020297 0.09187428
0.0022815256 -0.062859096 0.048339073 -0.12924406 -0.056208376 0.083370864 -0.07265756 0.065610245
-0.005508096 -0.004322662 -0.017623167 0.0047047697 -0.06284954 -0.09312508 -0.028959952 -0.09660816
-0.13219512 0.055102333 0.013814704 -0.05657246 0.01183844 -0.024434622 0.064852275 0.13856164
-0.07776226 0.045750167 -0.11183809 -0.050161153 0.1547268 0.034857616 0.04106221 -0.054182444
-0.057919208 0.0020234522 0.10123057 -0.112800196 0.12781867 -0.032703117 0.014584119 0.12960987
0.031169806 0.07363063 -0.092597134 -0.107165694 0.03975078 0.030496694 -0.0054070028 0.117882654
-0.10155623 0.09489402 -0.014628404 0.03754828 0.016192248 0.06568312 0.095154315 -0.014124016
0.07783832 0.17165536 0.1217277 0.07576448 -0.088718414 0.024796156 0.10039462 0.1166555
0.060260203 0.11463306 0.173318 0.049243767 0.004611374 -0.05063757 -0.00053494435 -0.051207587
0.038419485 -0.06753067 0.14294937 -0.058743406 0.053060908 0.1125908 0.10131451 -0.15876363
-0.10900656 0.08820854 0.15620911 0.025786223 0.0682281 0.09830004 0.0015084251 -0.038614925
-0.09210765 -0.08761771 0.06862359 0.10053888 -0.08529831 -0.056617275 -0.014086233 -0.08418442
0.07879364 -0.17581482 0.0169945 0.031520028 -0.05644347 -0.11304423 -0.042677246 0.018954452
-0.11610324 0.10749054 -0.07965136 0.110645674 -0.058048844 -0.042185288 -0.109965816 0.128842
-0.09323471 -0.13886383 0.038968373 0.049867656 0.13386665 -0.014487988 0.00010530807 -0.13987939
0.09453744 -0.07288585 0.11739007 0.055998076 0.04690849 -0.17063637 -0.08845194 -0.0145984115
-0.027827244 0.060768444 0.03721311 0.093761824 -0.096494004 -0.07779689 -0.0052902712 0.07717148
-0.03374858 -0.12828714 -0.1955155 -0.23132144 -0.111144595 -0.02078269 -0.19818157 0.03016907
0.110000834 0.018520791 0.061343323 -0.104071625 0.073199145 -0.058536693 0.093829535 -0.07628804
-0.055953056 0.094149135 -0.05225179 0.064118326 0.09837014 0.030448208 -0.006054824 -0.05830199
0.03860385 -0.115369454 -0.068236336 -0.040927928 -0.057211798 -0.096306816 0.1187982 -0.0028320835
0.10081889 0.015336805 0.09439954 -0.11381234 -0.038221583 0.10779291 0.12602976 0.054104537
00000000: 246c cabd aa82 e9bd 2029 5abd 2b67 3cbe
00000010: 7ee2 743d 531c cdbd 1079 abbc 1969 763d
00000020: 3320 11be 9c15 3abd e635 9ebb 9bfc 243d
00000030: 5b91 c3bc bb19 943d 6cc2 8f3d e2d3 0bbe
00000040: 17f0 093e 4080 403e 6b94 613d 1bb3 b8bb
00000050: aead 143d 942a c2bc b84d 9fbd 5835 4a3d
00000060: 2e3e f43d 4427 5c3d b931 213d db6f 23bd
00000070: 4732 99bd 44eb ea3c fe58 84bd d8be 2a3e
00000080: 485d d5bd 5ac7 1f3d 1d79 18be 62ac 583d
00000090: f6d5 e1bd a42d d9bd 14ad dbbb f9e3 f8bd
000000a0: fa96 d23c 5bd7 c7bc 84ec 21bb 3c47 16bd
000000b0: b52a 40bd 7077 313d 6a4e 943d a26b 3c3d
000000c0: cf19 8fbd fdd1 8d3d 753c 99bc 39ce 95bc
000000d0: 1ac9 76bb 4990 e83d f3b4 0b3d 2b38 3dbc
000000e0: 758b 153e 8d07 b43d 4dd2 cbbd 9c4c 95bd
000000f0: 5883 0e3d c142 023e cea1 f3bc 13f8 b4bc
00000100: dd99 28bb 72e5 093e 5938 353c e66e acbd
00000110: d2b3 39bd 4c31 9dbd eb99 1a3d 94e0 07bd
00000120: e110 fd3c d982 0dbc d103 183d 8234 03be
00000130: b6d9 7d3d 5c55 e1bc 6497 763d 9528 bc3d
00000140: a685 153b 45bc 80bd 31ff 453d 8e58 04be
00000150: c13a 66bd 58be aa3d 7dcd 94bd aa5e 863d
00000160: 427d b4bb 1ea5 8dbb 765e 90bc 782a 9a3b
00000170: 42b7 80bd 5db8 bebd 6c3d edbc 80da c5bd
00000180: 285e 07be fcb2 613d 1157 623c 86b8 67bd
00000190: 04f6 413c 1e2b c8bc 45d1 843d 1ae3 0d3e
000001a0: d241 9fbd 8764 3b3d 5e0b e5bd c875 4dbd
000001b0: b470 1e3e dcc6 0e3d d930 283d 69ee 5dbd
000001c0: b13c 6dbd e59b 043b f951 cf3d ca03 e7bd
000001d0: e6e2 023e b4f3 05bd 3bf2 6e3c 73b8 043e
000001e0: d257 ff3c a8cb 963d 91a3 bdbd b079 dbbd
000001f0: b7d1 223d 34d4 f93c 3a2d b1bb 766c f13d
00000200: b6fc cfbd cc57 c23d f9ab 6fbc 3acc 193d
00000210: 9ba5 843c df84 863d 44e0 c23d 6b68 67bc
00000220: b269 9f3d 6cc6 2f3e 5f4c f93d 682a 9b3d
00000230: 00b2 b5bd 4f21 cb3c b29b cd3d 14e9 ee3d
00000240: 67d3 763d bdc4 ea3d 467a 313e d5b3 493d
00000250: 021b 973b 5769 4fbd 823b 0cba 0cbf 51bd
00000260: c05d 1d3d 854d 8abd 5261 123e ed9c 70bd
00000270: 6556 593d 0196 e63d fb7d cf3d ef92 22be
00000280: d53e dfbd aea6 b43d 48f5 1f3e a13d d33c
00000290: 2dbb 8b3d 8851 c93d 59b6 c53a af2a 1ebd
000002a0: f0a2 bcbd ea70 b3bd 868a 8c3d 54e7 cd3d
000002b0: e1b0 aebd 84e7 67bd f2c9 66bc e268 acbd
000002c0: 8f5e a13d cd08 34be 0d38 8b3c 251b 013d
000002d0: 4531 67bd bc83 e7bd 56ce 2ebd 5e46 9b3c
000002e0: 89c7 edbd 0024 dc3d 4120 a3bd 339a e23d
000002f0: a0c4 6dbd 7bca 2cbd c235 e1bd 28ef 033e
00000300: d7f1 bebd 5232 0ebe 4d9d 1f3d 0742 4c3d
00000310: 5714 093e 075f 6dbc d7d8 dc38 8b3c 0fbe
00000320: d89c c13d 2d45 95bd 346a f03d 3d5e 653d
00000330: 1e23 403d 4dbb 2ebe 4a26 b5bd 2d2e 6fbc
00000340: f6f5 e3bc 55e8 783d c66c 183d 3306 c03d
00000350: a69e c5bd fa53 9fbd 035a adbb 150c 9e3d
00000360: f33b 0abd b45d 03be 3735 48be 87df 6cbe
00000370: c79f e3bd 7640 aabc 1cf0 4abe 2025 f73c
00000380: 1e48 e13d eab8 973c 2343 7b3d 8123 d5bd
00000390: 6fe9 953d 2cc4 6fbd b329 c03d e73c 9cbd
000003a0: 082f 65bd 43d1 c03d f905 56bd 7850 833d
000003b0: 4976 c93d 856e f93c 8c67 c6bb 11ce 6ebd
000003c0: 121f 1e3d d246 ecbd 7ebf 8bbd 0ba4 27bd
000003d0: eb56 6abd 823c c5bd 784c f33d 7a9a 39bb
000003e0: 227a ce3d 3947 7b3c 8c54 c13d 7216 e9bd
000003f0: 3c8e 1cbd 87c2 dc3d f20d 013e b89c 5d3d

conv1.0.bias f4 [8]
0.13337359 0.0044669393 -0.03499993 0.12437285 0.07115615 0.100753754 -0.10869071 -0.011804191
00000000: 1693 083e 675f 923b 165c 0fbd 31b7 fe3d
00000010: 51ba 913d fc57 ce3d 3c99 debd 5e66 41bc

conv1.1.weight f4 [8]
1.0063379 0.9834491 0.9991171 0.95497143 1.0068185 0.94731605 1.0207632 1.0550034
00000000: aecf 803f 52c3 7b3f 23c6 7f3f 0279 743f
00000010: 6edf 803f 4e83 723f 5ea8 823f 5a0a 873f

conv1.1.bias f4 [8]
-0.002536316 -0.04163538 -0.03216707 -0.010185839 -0.0037895904 0.07850773 -0.04417193 0.10444877
00000000: 5238 26bb dc89 2abd 9ec1 03bd 81e2 26bc
00000010: c75a 78bb a9c8 a03d a0ed 34bd 3de9 d53d

conv1.1.running_mean f4 [8]
0.19930588 -0.028138632 -0.10198059 0.057890598 0.17155366 0.07836955 -0.114817165 -0.011233265
00000000: d716 4c3e fd82 e6bc 33db d0bd b11e 6d3d
00000010: c3ab 2f3e 3780 a03d 4325 ebbd ba0b 38bc

conv1.1.running_var f4 [8]
0.047604147 0.014166144 0.2518731 0.025451597 0.13372219 0.033456795 0.019981025 0.030194817
00000000: 91fc 423d 1d19 683c 83f5 803e de7f d03c
00000010: 78ee 083e fe09 093d 3faf a33c 1f5b f73c

conv2.0.weight f4 [16, 8, 4, 4]
0.06686561 0.09546059 0.03011911 0.044632643 -0.08064202 0.07322514 -0.046487603 0.07105456
-0.07606148 0.06977735 0.05137145 0.01823802 -0.028575188 -0.10179657 -0.10212024 0.017628891
-0.016928708 0.102665424 0.07385009 -0.020670483 0.05489419 -0.06528021 0.023759425 -0.023021465
0.02923383 0.008163669 -0.052654967 0.021271866 0.038136974 0.027595783 -0.025399568 -0.08888722
-0.042552043 0.017407447 0.041198913 -0.039393436 -0.08739724 -0.019404512 -0.010422943 0.04849216
-0.038107987 -0.07038527 -0.012480589 -0.025787883 -0.10707674 -0.093035296 -0.07673012 -0.09586475
0.040393956 -0.025998844 0.028247692 0.015467127 0.016461592 0.02620472 -0.06216512 -0.048539907
0.0010872703 -0.031722553 0.009943359 -0.002519478 0.08994318 -0.018923862 0.0074861 0.00036969993
0.0594886 -0.027540842 0.0034269532 0.044207897 0.04035166 0.0038176563 0.101054564 -0.009817597
0.05384155 -0.033907745 0.082856975 0.04913996 -0.07723904 -0.02370182 -0.052281708 -0.038375907
-0.08293289 -0.09795938 0.0063515636 0.001484878 -0.006416299 -0.02199308 0.043922342 0.007744612
0.0033622987 0.066559084 0.047143366 0.06993295 -0.0066471165 0.0072210236 -0.06674842 0.011398207
0.06757203 0.0023373808 0.08959911 0.048011653 0.073958874 0.040387608 0.026046805 0.05554802
-0.015259854 0.029859154 -0.010366924 0.055807896 -0.0022562672 0.09418144 0.028012516 0.09468883
0.0028852834 0.014880142 -0.032044508 0.005569949 -0.03234089 -0.0071997265 -0.02910684 -0.022883689
0.0747139 0.020015081 0.04954516 0.04791883 0.0529567 -0.010634994 0.048266128 -0.032523345
0.025647188 0.0058754 -0.031997144 -0.06048013 -0.046371635 -0.07295904 -0.036978904 0.07554244
0.051077224 0.0006523734 -0.007729454 0.07135164 -0.053918526 -0.006055352 0.09403889 -0.050568063
0.019908462 0.035700276 -0.052971076 -0.072276376 -0.092634656 -0.05266532 -0.085232444 -0.03190714
0.009029152 -0.051607445 0.059842814 0.029791864 0.00019083997 -0.03101968 0.08265532 0.11587242
-0.1038864 -0.03046635 0.06587835 -0.01843028 0.06335676 0.034486778 0.044169173 -0.05968326
0.017979125 -0.011042151 -0.08426383 0.036860432 0.013758519 -0.053801335 0.020957226 0.06294621
-0.02519603 -0.03562498 0.099410966 -0.0074184276 -0.05514391 -0.04360437 -0.053078216 0.046273157
-0.025205065 -0.05894065 -0.08134379 0.018185835 -0.07110939 0.0112252 0.040012248 -0.0076207207
-0.025628174 -0.06262388 -0.0043883603 0.0036677963 -0.017604042 0.0428613 0.034306705 -0.050928462
-0.060830574 -0.06578245 -0.07818716 0.046331577 -0.0061963834 -0.02316235 0.09675512 -0.03473112
-0.029051604 -0.037718285 -0.07408412 -0.051651288 0.039966617 -0.034718245 -0.09146982 -0.11709618
0.019507045 -0.03517672 -0.028396955 -0.0123751 0.013476919 -0.06763141 -0.037007272 0.01468332
0.013618981 -0.0065825507 -0.03137329 0.06822327 0.048929192 -0.05173751 -0.0417925 0.021708248
-0.08226236 -0.013267517 -0.17720486 -0.06048374 0.0015104886 -0.07483447 -0.08414327 0.026115049
0.025911102 -0.059593484 0.003817175 -0.014135883 -0.17051761 -0.14026178 -0.09128014 0.016837364
-0.02606088 -0.21006997 -0.12251642 -0.073714696 0.0004040301 -0.017471472 -0.07467162 0.025163122
00000000: d6f0 883d d880 c33d 5abc f63c b8d0 363d
00000010: a527 a5bd 10f7 953d c969 3ebd 0e85 913d
00000020: 1fc6 9bbd 6de7 8e3d df6a 523d e667 953c
00000030: 8316 eabc b87a d0bd 6b24 d1bd 776a 903c
00000040: 13ae 8abc 4042 d23d b73e 973d 2555 a9bc
00000050: bbd8 603d a1b1 85bd 20a3 c23c 8397 bcbc
00000060: c97b ef3c e9c0 053c bcac 57bd 5642 ae3c
00000070: 8435 1c3d 8d10 e23c c112 d0bc 810a b6bd
00000080: 0d4b 2ebd 109a 8e3c 31c0 283d 035b 21bd
00000090: 53fd b2bd 36f6 9ebc fec4 2abc b79f 463d
000000a0: 1f17 1cbd 2726 90bd 627b 4cbc 1c41 d3bc
000000b0: 0d4b dbbd 4a89 bebd ae24 9dbd bd54 c4bd
000000c0: 2274 253d 87fb d4bc b467 e73c d569 7d3c
000000d0: 76da 863c 48ab d63c daa0 7ebd c8d1 46bd
000000e0: bd82 8e3a 82ef 01bd 78e9 223c d41d 25bb
000000f0: 2134 b83d 3706 9bbc f54d f53b 49d4 c139
00000100: 51aa 733d 559d e1bc bc96 603b 5713 353d
00000110: c847 253d a531 7a3b b2f5 ce3d fdd9 20bc
00000120: f588 5c3d d9e2 0abd ebb0 a93d fc46 493d
00000130: 802f 9ebd 522a c2bc 5825 56bd 0e30 1dbd
00000140: b8d8 a9bd ed9e c8bd c720 d03b 3da0 c23a
00000150: d13f d2bb d52a b4bc eae7 333d 84c6 fd3b
00000160: 035a 5c3b 2150 883d 6719 413d 0239 8f3d
00000170: 0ed0 d9bb 569e ec3b 65b3 88bd 8cbf 3a3c
00000180: 3463 8a3d be2e 193b bd7f b73d dea7 443d
00000190: c077 973d 7a6d 253d 1c60 d53c 5286 633d
000001a0: 7704 7abc 2f9b f43c 08da 29bc d296 643d
000001b0: e2dd 13bb 33e2 c03d 817a e53c 38ec c13d
000001c0: 0617 3d3b d7cb 733c 1a41 03bd 1e84 b63b
000001d0: e277 04bd afeb ebbb 7871 eebc 9376 bbbc
000001e0: 9a03 993d abf6 a33c deef 4a3d 8946 443d
000001f0: 20e9 583d 663e 2ebc b4b2 453d 3337 05bd
00000200: 0d1a d23c 6d86 c03b 700f 03bd 03ba 77bd
00000210: 2ff0 3dbd 8d6b 95bd 3177 17bd ffb5 9a3d
00000220: 5a36 513d 0a04 2b3a 5c47 fdbb cf20 923d
00000230: acd9 5cbd f96b c6bb 7697 c03d 7520 4fbd
00000240: 1217 a33c 743a 123d 33f8 58bd a305 94bd
00000250: 3db7 bdbd 97b7 57bd 598e aebd 10b1 02bd
00000260: 02ef 133c 5462 53bd bd1d 753d 110e f43c
00000270: 371c 4839 fc1c febc 3147 a93d 854e ed3d
00000280: 65c2 d4bd 9194 f9bc 3aeb 863d 19fb 96bc
00000290: 30c1 813d 0242 0d3d bcea 343d 6f76 74bd
000002a0: f548 933c 23ea 34bc 8492 acbd f7fa 163d
000002b0: 696b 613c ca5e 5cbd 7dae ab3c f1e9 803d
000002c0: e867 cebc 80eb 11bd fa97 cb3d 4816 f3bb
000002d0: 95de 61bd 7f9a 32bd 8b68 59bd ec88 3d3d
000002e0: da7a cebc c06b 71bd 9397 a6bd 76fa 943c
000002f0: cda1 91bd e7e9 373c e2e3 233d 3db7 f9bb
00000300: 2df2 d1bc f340 80bd 3ccc 8fbb 695f 703b
00000310: 5a36 90bc 558f 2f3d 3085 0c3d 5d9a 50bd
00000320: 7b29 79bd f3b8 86bd 9720 a0bd 2ec6 3d3d
00000330: 080b cbbb f8be bdbc 8c27 c63d 3842 0ebd
00000340: a1fd edbc 7d7e 1abd 6ab9 97bd 4d90 53bd
00000350: 09b4 233d b834 0ebd 8754 bbbd 1fd0 efbd
00000360: 3dcd 9f3c 7715 10bd bba0 e8bc eec0 4abc
00000370: 4cce 5c3c 5682 8abd f094 17bd 4f92 703c
00000380: 2522 5f3c 70b2 d7bb 4781 00bd a4b8 8b3d
00000390: fa69 483d b6ea 53bd 9d2e 2bbd 7fd5 b13c
000003a0: 2b79 a8bd 0060 59bc 3175 35be ccbd 77bd
000003b0: 96fb c53a d142 99bd 4f53 acbd 3aef d53c
000003c0: 8543 d43c 4c18 74bd 9229 7a3b 319a 67bc
000003d0: 2b9c 2ebe c9a0 0fbe 15f1 babd 83ee 893c
000003e0: a07d d5bc 951c 57be e4e9 fabd bbf7 96bd
000003f0: 01d4 d339 5520 8fbc 6fed 98bd e422 ce3c

conv2.0.bias f4 [16]
-0.08698071 0.08310537 0.06647515 -0.012029651 -0.035142235 0.0069593773 -0.03597867 -0.05834921
-0.020476082 0.0420572 -0.059090447 -0.03310739 -0.04359175 -0.08464185 0.06879472 -0.072068624
00000000: f122 b2bd 2633 aa3d 2024 883d 0318 45bc
00000010: 4ef1 0fbd 7d0b e43b 5f5e 13bd 95ff 6ebd
00000020: 75bd a7bc 2c44 2c3d d308 72bd 9d9b 07bd
00000030: 438d 32bd b558 adbd 3fe4 8c3d b798 93bd

conv2.1.weight f4 [16]
0.97190326 1.0705452 0.98078376 0.9828167 0.9905372 0.98250145 1.0010809 1.019357
0.9601937 1.0018334 1.0083648 1.0095661 1.0779359 0.9936403 1.0020986 0.9972679
00000000: a7ce 783f a007 893f a514 7b3f e099 7b3f
00000010: d993 7d3f 3785 7b3f 6b23 803f 4a7a 823f
00000020: 41cf 753f 143c 803f 1912 813f 7639 813f
00000030: cef9 893f 365f 7e3f c444 803f f34c 7f3f

conv2.1.bias f4 [16]
-0.0058165044 -0.0070804344 0.008526712 -0.08261848 -0.012072069 -0.041802 -0.035000555 -0.044137757
-0.027365772 0.021239193 0.0115273325 -0.010721539 -0.043270133 0.021606058 0.02082802 -0.004607195
00000000: 6098 bebb fd02 e8bb 9fb3 0b3c e133 a9bd
00000010: edc9 45bc 9338 2bbd be5c 0fbd cbc9 34bd
00000020: 2f2e e0bc d1fd ad3c 23dd 3c3c 65a9 2fbc
00000030: 063c 31bd 30ff b03c 869f aa3c f4f7 96bb

conv2.1.running_mean f4 [16]
0.06416442 -0.8157396 -0.17167722 1.0551594 -0.21450737 -0.23166539 -0.0015751167 0.034547187
-0.14506564 -0.6916329 -0.026211794 0.5069311 -0.051530555 -0.47663477 0.056389734 0.14807728
00000000: a368 833d 4fd4 50bf 27cc 2fbe 770f 873f
00000010: d2a7 5bbe b139 6dbe 2574 ceba 5a81 0d3d
00000020: 168c 14be db0e 31bf 1eba d6bc 3dc6 013f
00000030: b411 53bd 7909 f4be ecf8 663d 92a1 173e

conv2.1.running_var f4 [16]
0.28009543 0.35390475 0.49858305 0.33979157 0.21524356 0.12444041 0.07596016 0.17428063
0.4828989 0.4237168 0.15696424 0.21681567 0.3971802 0.246362 0.22045873 0.26387897
00000000: ab68 8f3e 0133 b53e 4746 ff3e 29f9 ad3e
00000010: cf68 5c3e 9dda fe3d 0091 9b3d 9f76 323e
00000020: 863e f73e 69f1 d83e 3cbb 203e ed04 5e3e
00000030: 345b cb3e 5246 7c3e efbf 613e 251b 873e

conv3.0.weight f4 [32, 16, 4, 4]
0.021778787 -0.0049649826 -0.054770105 -0.06531635 -0.051089212 -0.0015411444 0.0015268758 -0.01677637
-0.041288115 -0.015917445 -0.0028904951 -0.046425 -0.037564937 0.028794868 0.026593601 0.0117442375
-0.08311273 -0.035598695 -0.011908849 -0.0036171973 -0.02325204 -0.030175677 0.034482677 -0.039160747
-0.042828996 -0.06768223 -0.018852828 0.00045274018 -0.033473562 0.007375971 -0.039715346 -0.061956532
0.052321315 -0.0040286835 -0.0019424635 0.029151315 0.018793875 -0.012728295 0.008432071 0.058097463
0.011194908 0.045884866 0.013599289 -0.0062980377 0.010672442 0.020124132 0.021163573 0.012094092
-0.0016308506 -0.009505752 -0.030361164 -0.067875944 -0.011053282 0.05591819 -0.026908467 -0.038051892
0.023891725 -0.027184794 -0.038631167 -0.053793862 0.042772755 -0.028546441 0.047522124 -0.06100656
0.046688404 0.014224837 0.032086708 0.02516254 0.0025216849 0.008074661 0.03589109 -0.01630482
-0.008999197 -0.023661634 -0.015402493 0.024641134 -0.048656456 0.058866594 -0.008948043 -0.011728872
-0.005117055 0.032292068 0.0081953 -0.026627094 -0.0304206 0.028326366 0.004656161 -0.0003051568
0.056766912 -0.02817658 0.010653418 0.022636872 -0.013595006 -0.05287595 -0.0116714295 -0.034675542
0.075925514 0.03290923 0.009191072 0.0065726014 0.036405966 -0.002818424 -0.031114396 -0.01842974
0.023242187 -0.06630198 -0.06410481 -0.019525168 0.04866289 -0.02608357 -0.04063631 0.019191263
0.008304129 0.046381894 -0.05401693 -0.06268048 0.06714176 -0.0025091902 -0.048839346 -0.037692517
-0.06904463 0.009754557 -0.076647766 -0.11958012 -0.011476081 0.06908931 -0.0045193434 -0.047241464
-0.0096442355 -0.051823806 -0.026066158 -0.045105115 -0.008815335 0.04311673 -0.01540282 -0.028117288
-0.045040473 -0.016705694 0.00019368983 -0.050320547 -0.03583349 0.027866414 0.009659081 -0.07546115
-0.0143950535 0.032269463 0.04053109 -0.046842583 -0.005206147 -0.052278902 -0.0010320647 -0.03841643
-0.052609835 -0.046361532 -0.012054521 0.06827457 0.017964058 0.028392768 -0.04600375 -0.069359414
0.04317136 0.07904338 0.0077688713 0.036222443 -0.023229422 0.004425094 -0.007954011 0.009470685
0.068384714 0.0467876 0.043635037 -0.027770506 0.04242012 -0.038703125 0.015997428 0.026965233
0.017130569 0.041780677 -0.00095813465 -0.07261695 -0.0088312 0.01597949 -0.08526078 -0.055718705
0.06899048 0.02995826 0.045280788 0.006453193 0.055132784 -0.043507855 -0.05718861 0.0055231373
-0.03596522 0.008149186 0.0424917 -0.072251745 0.026714375 -0.01360912 -0.046639945 -0.08504568
-0.01629539 -0.090324074 -0.039916556 -0.12407507 -0.056195375 0.041388266 -0.06420156 -0.05381084
0.052086268 0.013415755 0.034581624 -0.02460447 0.019605963 0.004964556 -0.0031718435 -0.025733951
0.034025025 0.034038007 0.03611711 -0.009232552 -0.016762258 -0.07719982 0.0313446 -0.01058407
0.069470905 0.052517895 -0.039463334 -0.034413543 0.017305506 -0.05003786 -0.038829964 0.022809157
0.0038688716 0.038900133 0.052944057 -0.04575993 -0.038618352 0.041757178 -0.07496383 -0.012389658
-0.008076994 0.004825421 0.018146327 0.0015636167 0.06413736 -0.02828512 0.040525146 0.044711888
0.04091701 0.045974534 -0.07696832 -0.08526762 -0.031846613 -0.005466587 -0.056247987 -0.046250083
00000000: 6d69 b23c 4bb1 a2bb 9e56 60bd 94c4 85bd
00000010: ec42 51bd 3a00 caba 7321 c83a 996e 89bc
00000020: ba1d 29bd 4d65 82bc 766e 3dbb 2428 3ebd
00000030: b1dd 19bd 37e3 eb3c d3da d93c e76a 403c
00000040: 0237 aabd f0cf 11bd 551d 43bc 800e 6dbb
00000050: 107b bebc fb32 f7bc b53d 0d3d 0567 20bd
00000060: 756d 2fbd fb9c 8abd 3f71 9abc c25d ed39
00000070: 931b 09bd 21b2 f13b 8fac 22bd 22c6 7dbd
00000080: e04e 563d 0c03 84bb 429a feba bdce ee3c
00000090: 9df5 993c 578a 50bc ab26 0a3c 9bf7 6d3d
000000a0: d96a 373c c5f1 3b3d 8dcf 5e3c c55f cebb
000000b0: 77db 2e3c 5ddb a43c 3b5f ad3c 4c26 463c
000000c0: 44c2 d5ba 03be 1bbc fab7 f8bc 8b02 8bbd
000000d0: d318 35bc 790a 653d 256f dcbc 4ddc 1bbd
000000e0: 94b8 c33c a5b2 debc b73b 1ebd f456 5cbd
000000f0: 7c32 2f3d 3ada e9bc 8fa6 423d 04e2 79bd
00000100: 573c 3f3d 4a0f 693c 5a6d 033d ac21 ce3c
00000110: da42 253b 954b 043c 8902 133d b091 85bc
00000120: 5e71 13bc 0bd6 c1bc bd5a 7cbc 34dc c93c
00000130: fe4b 47bd 191e 713d d09a 12bc 742a 40bc
00000140: f8ac a7bb b044 043d 9445 063c 1021 dabc
00000150: 9f34 f9bc b20c e83c b692 983b 74fd 9fb9
00000160: 6c84 683d 92d2 e6bc ac8b 2e3c f670 b93c
00000170: 97bd 5ebc 7494 58bd 8639 3fbc f107 0ebd
00000180: d67e 9b3d d4cb 063d 2696 163c fa5e d73b
00000190: 6c1e 153d 4fb5 38bb 9ee3 febc f7f9 96bc
000001a0: 6666 be3c 55c9 87bd 6249 83bd 3ff3 9fbc
000001b0: bd52 473d 36ad d5bc 4272 26bd ff36 9d3c
000001c0: 0b0e 083c f1fa 3d3d db40 5dbd a05e 80bd
000001d0: 9e81 893d 3a71 24bb c40b 48bd 7863 1abd
000001e0: 4567 8dbd 94d1 1f3c 81f9 9cbd 6ce6 f4bd
000001f0: 2c06 3cbc b27e 8d3d 0017 94bb 4480 41bd
00000200: db02 1ebc 3345 54bd b288 d5bc 24c0 38bd
00000210: 326e 10bc 2b9b 303d 1c5c 7cbc 3a56 e6bc
00000220: 5c7c 38bd 61da 88bc 3819 4b39 eb1c 4ebd
00000230: 23c6 12bd 1b48 e43c 1f41 1e3c 608b 9abd
00000240: 3bd9 6bbc fc2c 043d ee03 263d 02de 3fbd
00000250: 5498 aabb 6722 56bd 5846 87ba 8c5a 1dbd
00000260: 697d 57bd 97e5 3dbd 5380 45bc 8ad3 8b3d
00000270: 5c29 933c f397 e83c 6e6e 3cbd 4f0c 8ebd
00000280: 74d4 303d 7fe1 a13d 0492 fe3b fc5d 143d
00000290: a14b bebc 6100 913b 8a51 02bc ef2a 1b3c
000002a0: 490d 8c3d 5ba4 3f3d a7ba 323d f97e e3bc
000002b0: b8c0 2d3d 2b87 1ebd 0a0d 833c 31e6 dc3c
000002c0: 6855 8c3c 3722 2b3d 542b 7bba 32b8 94bd
000002d0: bdb0 10bc 6be7 823c 349d aebd 4c39 64bd
000002e0: e14a 8d3d 066b f53c 5978 393d 4e75 d33b
000002f0: ead2 613d 4b35 32bd 9b3e 6abd 6ffb b43b
00000300: 4450 13bd 2a84 053c c70b 2e3d b9f8 93bd
00000310: 1bd8 da3c c9f8 5ebc 8709 3fbd 6e2c aebd
00000320: e97d 85bc d4fb b8bd 8b7f 23bd 121b febd
00000330: 1f2d 66bd be86 293d 1c7c 83bd c168 5cbd
00000340: 6958 553d c1cd 5b3c 76a5 0d3d 508f c9bc
00000350: af9c a03c b7ad a23b b4de 4fbb 02d0 d2bc
00000360: d35d 0b3d 706b 0b3d 89ef 133d 2144 17bc
00000370: 0151 89bc f01a 9ebd 3263 003d cf68 2dbc
00000380: c346 8e3d 011d 573d 4ea4 21bd 37f5 0cbd
00000390: 47c4 8d3c 80f4 4cbd 2b0c 1fbd 45da ba3c
000003a0: e58c 7d3b bf55 1f3d dedb 583d c46e 3bbd
000003b0: 472e 1ebd 9309 2b3d a386 99bd fefd 4abc
000003c0: 5e55 04bc 911e 9e3b 9ba7 943c 45f2 cc3a
000003d0: 735a 833d 32b6 e7bc b2fd 253d d023 373d
000003e0: 9898 273d cb4f 3c3d 91a1 9dbd caa0 aebd
000003f0: 9871 02bd 0e21 b3bb 4a64 66bd ba70 3dbd

conv3.0.bias f4 [32]
0.014425688 0.057894923 0.014120555 -0.059068006 0.004107427 -0.05512079 -0.023652075 0.061037775
0.034486707 0.020826627 -0.014899153 0.031057827 0.031217681 -0.0072589666 -0.061553042 0.010478304
-0.03173582 0.018392572 0.047151558 0.025635256 0.046179567 0.05081446 0.011201572 0.046840627
0.011695983 -0.040641658 -0.011647157 -0.012939359 -0.062285535 -0.050700817 -0.053775653 0.059765823
00000000: b959 6c3c 3a23 6d3d e659 673c 4bf1 71bd
00000010: 9897 863b 56c6 61bd ffc1 c1bc bf02 7a3d
00000020: ef41 0d3d 9a9c aa3c 941b 74bc fc6c fe3c
00000030: 39bc ff3c a0dc edbb 0b1f 7cbd 31ad 2b3c
00000040: 6bfd 01bd 05ac 963c fe21 413d 0701 d23c
00000050: c926 3d3d d322 503d cc86 373c f5db 3f3d
00000060: 82a0 3f3c de77 26bd b8d3 3ebc 9bff 53bc
00000070: 1e1f 7fbd a9ab 4fbd dc43 5cbd 02cd 743d

conv3.1.weight f4 [32]
0.9874063 0.99095875 1.0035962 1.0405669 0.977377 0.9912871 0.98658246 0.9843395
0.9745376 1.0072737 0.98812824 0.9889661 1.0378826 0.973596 1.0091993 1.0173277
1.0084958 1.0119821 0.9984252 0.99959797 0.9827852 1.0496756 1.0001075 1.0035219
0.9757706 0.9747235 1.0442386 1.0119455 0.9894465 1.038436 1.064918 1.0079798
00000000: a9c6 7c3f 79af 7d3f d775 803f 4c31 853f
00000010: 6135 7a3f fec4 7d3f ab90 7c3f acfd 7b3f
00000020: 4c7b 793f 58ee 803f f9f5 7c3f e22c 7d3f
00000030: 56d9 843f 963d 793f 712d 813f cb37 823f
00000040: 6416 813f a188 813f cb98 7f3f a7e5 7f3f
00000050: d097 7b3f c55b 863f 8603 803f 6873 803f
00000060: 1acc 793f 7b87 793f 9ca9 853f 6e87 813f
00000070: 5e4c 7d3f 79eb 843f 3c4f 883f 7b05 813f

conv3.1.bias f4 [32]
-0.07188984 -0.009373099 -0.02109663 -0.17265813 -0.02796847 -0.01041327 0.021624485 -0.0005016121
0.026095275 -0.020513859 -0.003984401 0.05354161 0.07975117 -0.028712202 -0.019811455 -0.045185413
0.012872282 -0.014003801 -0.0052041975 -0.057644382 -0.015944175 -0.033111684 0.007371848 -0.013919435
-0.007565446 -0.015287146 -0.01445998 0.0090384465 -0.046671353 -0.03984883 -0.0630592 0.0016775352
00000000: fb3a 93bd a091 19bc d7d2 acbc 4bcd 30be
00000010: 221e e5bc 6c9c 2abc d525 b13c 9e7e 03ba
00000020: c2c5 d53c ae0c a8bc 948f 82bb 724e 5b3d
00000030: 9554 a33d da35 ebbc a24b a2bc 5714 39bd
00000040: 44e6 523c 3370 65bc f987 aabb 841c 6cbd
00000050: 5c9d 82bc 1ea0 07bd 8b8f f13b 580e 64bc
00000060: 90e7 f7bb f076 7abc 8de9 6cbc fe15 143c
00000070: 762a 3fbd 8738 23bd 2f25 81bd bee0 db3a

conv3.1.running_mean f4 [32]
-0.5569651 -0.61161923 -0.16821742 -0.07719608 -0.3839504 0.27600348 -0.10393843 0.04596414
-0.06396503 -0.28247994 -0.25261942 -0.60249025 -0.47936094 -0.87736356 -0.3918965 -0.32020497
-0.41895264 -0.15794878 0.058093462 0.1273652 -0.57673866 0.0051687495 -0.26726207 -0.2462915
0.16644564 -0.38077575 -0.3030579 -0.5136608 -0.10636043 0.16226913 -0.52155113 -0.40775466
00000000: 4495 0ebf 1493 1cbf 3041 2cbe fa18 9ebd
00000010: 2695 c4be 5450 8d3e acdd d4bd e544 3c3d
00000020: 1900 83bd 36a1 90be 5557 81be cd3c 1abf
00000030: cc6e f5be e69a 60bf a8a6 c8be e8f1 a3be
00000040: f680 d6be 53bd 21be 69f3 6d3d 066c 023e
00000050: 25a5 13bf 9d5e a93b 93d6 88be d733 7cbe
00000060: ba70 2a3e 0af5 c2be 682a 9bbe 467f 03bf
00000070: 7fd3 d9bd e129 263e 6084 05bf 38c5 d0be

conv3.1.running_var f4 [32]
0.20161194 0.28023398 0.12952363 0.19504516 0.23022656 0.20754936 0.40887073 0.24624589
0.10838089 0.3097667 0.20191798 0.29303813 0.37994304 0.16130045 0.18742213 0.14299446
0.18035376 0.18819608 0.1652023 0.11903332 0.18820767 0.12949401 0.25451323 0.23460142
0.17965737 0.17831537 0.1245241 0.39065447 0.22112568 0.15854985 0.13998543 0.22844969
00000000: 5c73 4e3e d47a 8f3e d8a1 043e ebb9 473e
00000010: 83c0 6b3e d287 543e 8157 d13e e227 7c3e
00000020: cdf6 dd3d be99 9e3e 96c3 4e3e 1809 963e
00000030: e587 c23e f22b 253e 96eb 3f3e 246d 123e
00000040: a8ae 383e 79b6 403e cb2a 293e bec7 f33d
00000050: 83b9 403e 149a 043e 8f4f 823e 5b3b 703e
00000060: 1af8 373e 4e98 363e 7e06 ff3d dd03 c83e
00000070: c56e 623e e45a 223e 5758 0f3e b7ee 693e

deconv2.0.weight f4 [32, 16, 4, 4]
-0.08053194 0.0140022775 -0.017654223 0.0120998295 -0.043379083 0.014663693 -0.024565618 7.0224756e-05
-0.05041902 0.0036138068 -0.03802208 -0.06387192 -0.038193762 0.03952641 -0.056575276 0.0314179
0.014264247 -0.0145305805 0.021692075 -0.08850896 -0.026407126 0.025744282 0.11168551 0.0127740875
0.025323723 -0.024897812 0.039349996 0.012436176 -0.06252376 0.057595327 0.042304557 0.0070828195
0.05123029 0.0015947508 0.047563735 0.0023246843 0.02773587 0.04560702 0.0009102753 0.022482527
0.040784918 0.029280016 -0.0010566728 0.01981511 0.012505047 -0.05539566 0.004115707 0.0045203017
-0.025361933 0.03443968 -0.0321462 0.037374783 -0.071534775 -0.09616418 0.107371345 -0.033230327
-0.083323516 0.018092608 -0.07176248 -0.0019372867 -0.014371448 -0.12074376 0.074407294 -0.120238364
0.01238305 0.053619254 -0.008391178 0.0016524633 -0.03367662 -0.07255254 -0.03329448 -0.018393042
0.0035979403 0.03516476 -0.011776814 0.024960702 0.059770104 0.041283146 0.009297391 0.022987684
-0.025646415 0.020125268 -0.04057685 -0.0665566 0.056034982 0.03381517 0.044753242 -0.0012796938
0.0054091252 -0.009277747 -0.06498704 -0.08476903 -0.019469818 0.014304045 0.0253767 0.0075651063
-0.012388162 -0.041984152 -0.07715667 0.01429734 0.0533318 -0.074979916 0.009070528 -0.019634582
-0.023852928 -0.023503229 -0.0023657493 0.008706138 0.023629019 0.04395358 0.036456145 -0.013995907
-0.07880366 0.021930061 0.0015783024 0.0123425545 -0.017889116 0.016512336 0.009918078 0.008054156
-0.06934951 0.006322988 0.049554035 0.016862404 -0.025018321 0.03234689 -0.02860495 0.008922587
0.008165185 -0.008019825 -0.012129247 -0.008768083 -0.04983249 -0.044096857 0.0039051564 -0.037352845
0.032919746 -0.034591984 0.02864088 -0.051220745 -0.02021214 0.048009988 0.019541306 -0.049383063
-0.0055602156 -0.018616343 0.015106995 -0.044463065 0.047752712 -0.017699964 -0.124181546 0.01122074
0.058636624 -0.021870686 0.04447969 -0.0978106 0.063542746 -0.012034834 -0.1277291 -0.011633436
-0.047920257 -0.085687324 -0.052114654 -0.083195895 0.027797474 -0.018681059 -0.037592735 -0.023947144
-0.03510196 -0.097536996 -0.006909663 -0.038699623 0.036630876 -0.0068605635 0.014833684 0.005268925
-0.06008083 -0.02958585 -0.06074442 -0.069073394 -0.0027341116 -0.052999023 0.016431097 -0.10007189
-0.076607786 -0.060777508 -0.056312263 -0.027645538 -0.03943351 -0.03947222 0.012027706 -0.02505386
-0.010658542 0.01970081 -0.058699735 0.032791886 -0.059393615 -0.0051664514 -0.008245849 -0.039103024
-0.0059264638 0.061410595 -0.059975926 0.038740534 -0.00605799 -0.016377684 0.009095409 -0.0035847973
0.0016794313 -0.01206709 -0.062425356 -0.008606878 0.072114386 0.04686801 -0.02016289 0.024629263
0.016290978 -0.01517839 -0.060530834 0.0077524483 0.07652266 0.007064708 0.037988283 0.032968994
-0.06826044 -0.003367485 -0.016735943 -0.040181085 0.009064731 -0.020019285 0.017355585 -0.0032485395
-0.044013135 -0.05394345 -0.055355944 -0.084167466 0.002438423 -0.042341497 -0.0061911456 -0.029933019
-0.03241275 -0.061933342 0.005527477 0.02061082 -0.018592903 -0.02250635 -0.10223582 0.028980372
-0.03514185 -0.04750898 0.015172543 -0.07072735 0.09047827 -0.02397452 -0.06395143 0.007936743
00000000: eeed a4bd cf69 653c 979f 90bc 5d3e 463c
00000010: 44ae 31bd fc3f 703c d63d c9bc a145 9338
00000020: 2d84 4ebd 9ed5 6c3b 0abd 1bbd 48cf 82bd
00000030: 1071 1cbd 72e6 213d 7abb 67bd 0eb0 003d
00000040: 97b4 693c ac11 6ebc 94b3 b13c 3044 b5bd
00000050: c253 d8bc ace5 d23c 5fbb e43d 684a 513c
00000060: b273 cf3c 7ff6 cbbc 762d 213d 1ac1 4b3c
00000070: 750c 80bd 14e9 6b3d 8b47 2d3d ff16 e83b
00000080: dad6 513d f506 d13a 31d2 423d bb59 183b
00000090: 5636 e33c 6dce 3a3d 8b9f 6e3a 472d b83c
000000a0: 160e 273d a5dc ef3c 0e80 8aba 4c53 a23c
000000b0: f8e1 4c3c 8fe6 62bd 0ddd 863b 0a1f 943b
000000c0: d4c3 cfbc 9f10 0d3d bcab 03bd 4d16 193d
000000d0: d380 92bd baf1 c4bd 82e5 db3d 861c 08bd
000000e0: 85a5 aabd f336 943c 35f8 92bd 8eec fdba
000000f0: 3976 6bbc 8148 f7bd da62 983d 883f f6bd
00000100: 47e2 4a3c dd9f 5b3d 277b 09bc 7897 d83a
00000110: 7ff0 09bd 6d96 94bd cb5f 08bd 01ad 96bc
00000120: 6ccb 6b3b ec08 103d 8af3 40bc 637a cc3c
00000130: 7fd1 743d 8418 293d 1654 183c ab50 bc3c
00000140: 6e18 d2bc bfdd a43c e933 26bd d44e 88bd
00000150: f084 653d c781 0a3d 2d4f 373d 66bb a7ba
00000160: 083f b13b b101 18bc ed17 85bd 639b adbd
00000170: 2b7f 9fbc 835b 6a3c cce2 cf3c b6e4 f73b
00000180: b8f7 4abc 93f7 2bbd 5104 9ebd 643f 6a3c
00000190: 7272 5a3d 128f 99bd 8d9c 143c b4d8 a0bc
000001a0: 3767 c3bc d889 c0bc b00a 1bbb 30a4 0e3c
000001b0: a591 c13c ab08 343d 0a53 153d 174f 65bc
000001c0: d063 a1bd aca6 b33c 0adf ce3a 6d38 4a3c
000001d0: 328c 92bc e144 873c 6f7f 223c 94f5 033c
000001e0: 1e07 8ebd 1131 cf3b 2cf9 4a3d 0623 8a3c
000001f0: 39f3 ccbc 2c7e 043d ee54 eabc 0b30 123c
00000200: 45c7 053c 9665 03bc c0b9 46bc 01a8 0fbc
00000210: 271d 4cbd e89e 34bd a7ed 7f3b 4cff 18bd
00000220: dbd6 063d 53b0 0dbd 47a0 ea3c d8cc 51bd
00000230: ee93 a5bc 1fa6 443d 1715 a03c e545 4abd
00000240: 7832 b6bb 4d81 98bc 5483 773c e71e 36bd
00000250: 5998 433d 84ff 90bc e552 febd 32d7 373c
00000260: f52c 703d 272a b3bc 5630 363d ed50 c8bd
00000270: b322 823d c12d 45bc 6bcb 02be 2b9a 3ebc
00000280: 0848 44bd d67c afbd 2d76 55bd 9c62 aabd
00000290: 87b7 e33c 0509 99bc d7fa 19bd cd2c c4bc
000002a0: 13c7 0fbd 7ac1 c7bd 746a e2bb 7f83 1ebd
000002b0: 420a 163d 94ce e0bb fb08 733c f2a6 ac3b
000002c0: 5117 76bd 065e f2bc 24cf 78bd 5a76 8dbd
000002d0: c82e 33bb 8115 59bd 829a 863c 7ef2 ccbd
000002e0: 8be4 9cbd d6f1 78bd b0a7 66bd e578 e2bc
000002f0: 0885 21bd 9fad 21bd db0f 453c c13d cdbc
00000300: 2aa1 2ebc 9863 a13c 226f 70bd c950 063d
00000310: b846 73bd 564b a9bb 9919 07bc 7e2a 20bd
00000320: c832 c2bb ad89 7b3d 51a9 75bd 65ae 1e3d
00000330: 1a82 c6bb 7e2a 86bc e904 153c ebee 6abb
00000340: 5d20 dc3a 0bb5 45bc bbb1 7fbd dd03 0dbc
00000350: b5b0 933d acf8 3f3d a52c a5bc 4fc3 c93c
00000360: a874 853c c8ae 78bc 2eef 77bd 4008 fe3b
00000370: eab7 9c3d 117f e73b 9a99 1b3d 7f0a 073d
00000380: 21cc 8bbd 06b1 5cbb d119 89bc ec94 24bd
00000390: 3d84 143c 7cff a3bc 4d2d 8e3c 73e5 54bb
000003a0: 1e47 34bd cff3 5cbd eabc 62bd fe5f acbd
000003b0: f3cd 1f3b 476e 2dbd 18df cabb 1736 f5bc
000003c0: 3bc3 04bd d1ad 7dbd d61f b53b 06d8 a83c
000003d0: 2550 98bc 3d5f b8bc 0361 d1bd 3f68 ed3c
000003e0: e7f0 0fbd c798 42bd 4296 783c 80d9 90bd
000003f0: ac4c b93d 3666 c4bc f8f8 82bd 1d09 023c

deconv2.0.bias f4 [16]
0.029522063 -0.060232393 0.03010109 0.026622327 0.03865894 -0.05625595 0.048504654 -0.016368516
-0.060533214 0.051694788 0.027379254 -0.05533009 0.025602393 -0.014357643 0.014949953 0.016243456
00000000: 41d8 f13c 3eb6 76bd 9096 f63c 1117 da3c
00000010: d658 1e3d a46c 66bd d1ac 463d 4417 86bc
00000020: adf1 77bd eabd 533d 754a e03c cea1 62bd
00000030: 1cbc d13c 523c 6bbc a6f0 743c ff10 853c

deconv2.1.weight f4 [16]
0.9485852 1.009723 1.002142 0.97211933 0.9869414 0.94622594 0.94619924 0.9422854
0.9648669 1.0258383 0.9615297 1.1143754 0.98519224 0.95353967 1.0459874 0.9985372
00000000: 7bd6 723f 9a3e 813f 3046 803f d0dc 783f
00000010: 31a8 7c3f dd3b 723f 1d3a 723f 9e39 713f
00000020: 8401 773f ab4e 833f cf26 763f daa3 8e3f
00000030: 8f35 7c3f 2d1b 743f eae2 853f 22a0 7f3f

deconv2.1.bias f4 [16]
0.00888404 0.08786501 0.05356407 0.012497449 0.016861597 0.014778498 0.02754704 -0.04386708
-0.013173411 0.13607894 0.031387478 -0.053062066 -0.036386386 0.024893017 0.04161518 0.016349612
00000000: 5d8e 113c 92f2 b33d 0066 5b3d 1ac2 4c3c
00000010: 5521 8a3c 8321 723c 54aa e13c f8ad 33bd
00000020: 4ad5 57bc 4758 0b3e 2890 003d 9c57 59bd
00000030: e409 15bd 71ec cb3c ae74 2a3d 9fef 853c

deconv2.1.running_mean f4 [16]
-0.73420084 -0.5761216 -0.29228386 -0.6079329 -0.24752006 -0.8432668 -0.53351426 -0.4004505
-0.7183539 -0.8449564 -0.94062567 -0.7673499 -0.020635873 -0.22732794 -0.79871005 -0.9153522
00000000: 96f4 3bbf b57c 13bf 3ba6 95be 7ea1 1bbf
00000010: e675 7dbe 55e0 57bf 6494 08bf d907 cdbe
00000020: 0be6 37bf 104f 58bf d8cc 70bf 0b71 44bf
00000030: 900c a9bc a8c8 68be 4378 4cbf 8654 6abf

deconv2.1.running_var f4 [16]
0.8166645 0.86665577 0.90893674 0.70074314 0.51002944 1.4677465 1.3310143 0.73288566
0.5531312 2.217802 1.8629972 0.118811324 0.31445396 1.1440803 0.5286462 0.80238193
00000000: ed10 513f 27dd 5d3f 14b0 683f e763 333f
00000010: 4a91 023f 1edf bb3f ad5e aa3f 659e 3b3f
00000020: 029a 0d3f 78f0 0d40 b176 ee3f 5a53 f33d
00000030: 1c00 a13e 3971 923f 5b55 073f e768 4d3f

deconv3.0.weight f4 [16, 8, 4, 4]
-0.0559397 0.016832512 -0.010713862 -0.091799766 -0.083749995 -0.0526888 0.02184013 -0.0175924
-0.056217704 0.020915613 0.021374734 0.07361501 -0.06457519 -0.033569455 0.035023272 -0.006118475
-0.0074529806 -0.030549295 0.022735883 0.080462724 0.035423182 0.026142098 0.056323472 0.022108959
-0.0072403383 0.09397162 0.04943103 0.037973803 0.0013612318 0.065441445 0.061677266 -0.027605925
0.052754052 0.03232762 -0.033245202 0.0633431 0.049030934 0.12791726 0.016051391 0.027187908
0.020208677 0.07116563 -0.052824296 0.06706586 0.013941025 0.028279401 -0.007524414 -0.0099795
0.0297229 0.09661397 -0.06770782 -0.00015984804 0.0073659793 -0.03391501 0.03035089 0.082358554
0.036352817 0.082055934 -0.02202979 0.074982755 0.030233633 0.028685452 0.01908458 0.02026111
0.032098796 0.052504845 -0.009801934 -0.04999763 0.03460204 0.012589842 0.018296588 -0.06541848
-0.018714957 0.038588617 -0.033873044 0.0054816185 0.0036751418 0.019097181 -0.01174625 0.04785977
0.018395882 -0.018862063 0.0008071383 -0.002959354 0.007829613 -0.008375847 0.015473567 0.0683612
-0.0001272815 0.042701785 -0.039066218 -0.0061807483 0.051493153 0.007677703 0.027885104 0.01889578
-0.029461436 -0.07830123 -0.029344304 -0.06134619 0.042926535 -0.040345244 -0.004473915 -0.017053718
0.0077085956 0.081405096 0.03313585 0.005971588 0.0034343838 -0.03390618 -0.021343406 -0.047091935
0.04006712 0.07745523 0.032869887 0.030283965 0.02238854 0.097660445 -0.05800258 -0.02887918
0.04689497 -0.07435921 -0.025058001 -0.008623221 0.046510354 0.05500114 -0.030834895 0.037791107
-0.011771975 0.005024129 0.062614605 -0.089166775 -0.03650502 -0.034520373 0.1344901 0.048897456
0.01868546 0.010265147 0.029926453 -0.011230489 -0.003360693 -0.035576016 0.04943826 0.004827906
0.048233718 -0.093042195 0.002946108 -0.032839358 -0.029825835 -0.07805259 0.096521854 -0.046552606
0.016153688 -0.0049452754 0.006953936 0.013982301 -0.0027094148 0.004248238 0.0438672 0.031182947
0.011222169 0.01970993 0.10664261 -0.002103363 -0.002943899 0.006272821 -0.013504352 0.05557799
-0.016112566 0.03506255 0.001341346 -0.005840038 -0.018920163 -0.023942418 0.027020033 -0.056869317
-0.077136055 -0.030574892 0.05946949 -0.033959843 0.0782151 -0.04801894 -0.048930548 0.043088287
-0.05049116 0.03132903 0.10316688 0.013449632 0.052172758 0.004557008 -0.050467864 0.04345063
0.047697507 -0.0006092597 0.023563717 0.052422132 0.07914739 0.057938643 -0.0313218 0.026551556
0.050219078 0.040595282 0.040224854 0.111205086 0.007992527 -0.032666955 0.04483428 0.014746454
0.022394648 -0.060350236 -0.035303358 0.061789375 -0.041587785 0.045062013 0.12090745 0.12961094
0.009332417 0.053030144 0.0025959555 0.11560944 0.09394013 0.0319489 0.08112931 0.120807625
-0.0328197 -0.08687526 -0.018460682 0.025986345 0.038154524 0.020536903 0.10811954 -0.0007947308
0.02650564 -0.029161794 0.01971853 0.021446016 -0.0024999273 0.0025598851 0.10860871 0.0350399
0.021764558 0.046514645 -0.007799803 0.048901834 0.012839137 -0.019264046 -0.07643277 -0.08231316
-0.04860431 -0.013506647 -0.04199319 -0.06706097 -0.016427359 -0.013980347 -0.09894962 -0.07682409
00000000: 0721 65bd 56e4 893c 3289 2fbc 8401 bcbd
00000010: 1e85 abbd 36d0 57bd 13ea b23c f01d 90bc
00000020: 8944 66bd 3857 ab3c 111a af3c 77c3 963d
00000030: ff3f 84bd 2080 09bd 9074 0f3d 7d7d c8bb
00000040: 2238 f4bb 8442 fabc 9a40 ba3c a4c9 a43d
00000050: e617 113d f427 d63c 71b3 663d d91d b53c
00000060: 5c40 edbb 3174 c03d 3178 4a3d 6b8a 1b3d
00000070: 5c6b b23a 2a06 863d 4da1 7c3d d225 e2bc
00000080: a214 583d f769 043d 1f2c 08bd 07ba 813d
00000090: a9d4 483d befc 023e 357e 833c 2db9 de3c
000000a0: ab8c a53c 49bf 913d 4a5e 58bd d359 893d
000000b0: e668 643c 34aa e73c 5c8f f6bb 0f81 23bc
000000c0: 707d f33c 8cdd c53d 66aa 8abd e29c 27b9
000000d0: 505e f13b 77ea 0abd 6ea2 f83c 9aab a83d
000000e0: b1e6 143d f10c a83d d177 b4bc 8f90 993d
000000f0: 86ac f73c c1fd ea3c 4457 9c3c a1fa a53c
00000100: 077a 033d 520f 573d 4a98 20bc 51ca 4cbd
00000110: deba 0d3d a045 4e3c bae2 953c 20fa 85bd
00000120: 1c50 99bc 190f 1e3d 76be 0abd 269f b33b
00000130: a6da 703b b171 9c3c 5873 40bc 9b08 443d
00000140: f6b2 963c 9d84 9abc 2296 533a b9f1 41bb
00000150: c747 003c d93a 09bc d884 7d3c f500 8c3d
00000160: de76 05b9 11e8 2e3d e603 20bd e087 cabb
00000170: 7cea 523d 3e95 fb3b 4d6f e43c 53cb 9a3c
00000180: 1c59 f1bc 655c a0bd 7763 f0bc 2446 7bbd
00000190: bcd3 2f3d 0e41 25bd eb99 92bb 3db4 8bbc
000001a0: 6398 fc3b b7b7 a63d 75b9 073d 50ad c33b
000001b0: 6613 613b 35e1 0abd 5ed8 aebc 79e3 40bd
000001c0: 6c1d 243d d9a0 9e3d 93a2 063d 1416 f83c
000001d0: 2c68 b73c 3302 c83d 1d94 6dbd 0894 ecbc
000001e0: f114 403d a449 98bd 7046 cdbc 6948 0dbc
000001f0: a481 3e3d e048 613d 7699 fcbc d9ca 1a3d
00000200: 3edf 40bc 73a1 a43b 163c 803d 129d b6bd
00000210: 4a86 15bd 3c65 0dbd c6b7 093e b348 483d
00000220: 4012 993c 262f 283c 5228 f53c 1600 38bc
00000230: 133f 5cbb 28b8 11bd c67f 4a3d 6933 9e3b
00000240: b890 453d e88c bebd 7e13 413b 9082 06bd
00000250: 4f55 f4bc 09da 9fbd 40ad c53d f2ad 3ebd
00000260: bd54 843c fa0b a2bb d8dd e33b 0516 653c
00000270: 7090 31bb ce34 8b3b 18ae 333d 6173 ff3c
00000280: 30dd 373c b876 a13c 7167 da3d 93d8 09bb
00000290: 6eee 40bb 3d8c cd3b 5c41 5dbc bfa5 633d
000002a0: 80fe 83bc c09d 0f3d 1ad0 af3a ca5d bfbb
000002b0: 75fe 9abc e422 c4bc 1e59 dd3c cdef 68bd
000002c0: 82f9 9dbd 3278 fabc 4896 733d 7a19 0bbd
000002d0: 3d2f a03d 82af 44bd 666b 48bd 587d 303d
000002e0: d2cf 4ebd de52 003d 2849 d33d d85b 5c3c
000002f0: 1ab3 553d f452 953b 64b7 4ebd 4af9 313d
00000300: 765e 433d bab6 1fba b208 c13c 97b8 563d
00000310: 0718 a23d 1251 6d3d 4a4b 00bd a682 d93c
00000320: 85b2 4d3d 3d47 263d d1c2 243d 7ebf e33d
00000330: 17f3 023c c9cd 05bd 26a4 373d 1c9b 713c
00000340: fb74 b73c cf31 77bd 419a 10bd db16 7d3d
00000350: f457 2abd f292 383d 539e f73d bbb8 043e
00000360: fee6 183c 2336 593d e820 2a3b a4c4 ec3d
00000370: af63 c03d dadc 023d 2027 a63d fd69 f73d
00000380: f36d 06bd a8eb b1bd db3a 97bc 51e1 d43c
00000390: eb47 1c3d 023d a83c c76d dd3d 7b55 50ba
000003a0: 5b22 d93c b7e4 eebc c188 a13c 8eaf af3c
000003b0: d2d5 23bb bfc3 273b 3e6e de3d 0086 0f3d
000003c0: 964b b23c 2486 3e3d 7d95 ffbb 4a4d 483d
000003d0: 3e5b 523c a2cf 9dbc c988 9cbd cd93 a8bd
000003e0: 5015 47bd fc4a 5dbc 0d01 2cbd 4357 89bd
000003f0: ab92 86bc d30d 65bc 19a6 cabd f355 9dbd

deconv3.0.bias f4 [8]
-0.070246704 0.076924376 -0.053399686 0.04791046 0.025222655 0.062280845 0.033062357 0.063387945
00000000: 81dd 8fbd 878a 9d3d a1b9 5abd c23d 443d
00000010: be9f ce3c 331a 7f3d 656c 073d 8ad1 813d

deconv3.1.weight f4 [8]
1.2450485 1.2220916 1.2263813 1.226756 1.2008975 1.2266287 1.2391517 1.1855936
00000000: c05d 9f3f 7f6d 9c3f 10fa 9c3f 5706 9d3f
00000010: 02b7 993f 2b02 9d3f 869c 9e3f 88c1 973f

deconv3.1.bias f4 [8]
0.24233992 0.21553066 0.21964405 0.22204012 0.20246793 0.22003566 0.2349696 0.1915776
00000000: f527 783e 12b4 5c3e 5fea 603e 7c5e 633e
00000010: c153 4f3e 0751 613e df9b 703e eb2c 443e

deconv3.1.running_mean f4 [8]
-0.1906988 -0.05628703 0.068745606 0.12040489 0.41053346 0.45309243 0.034255467 -0.13356684
00000000: 8c46 43be 3b8d 66bd 7fca 8c3d d796 f63d
00000010: 7131 d23e bbfb e73e 764f 0c3d bfc5 08be

deconv3.1.running_var f4 [8]
0.07376859 0.0546456 0.09007537 0.064446814 0.047641996 0.059408713 0.07230419 0.06885257
00000000: fd13 973d 11d4 5f3d 7079 b83d b1fc 833d
00000010: 4124 433d 8d56 733d 3814 943d 9402 8d3d

deconv4.0.weight f4 [8, 3, 4, 4]
-0.052913997 0.06685363 0.12430532 0.059845466 -0.047720604 0.07302359 0.08103666 0.017914733
0.0025021958 0.1338991 0.10145144 -0.06337579 -0.06806912 0.020188466 0.18486337 0.003978404
-0.2683584 -0.27838933 -0.21779959 -0.045642253 -0.0943733 -0.16338411 -0.2682264 -0.02600208
-0.11714272 -0.24133304 -0.13288392 -0.034949042 -0.08545276 -0.11189959 -0.27123025 -0.09506513
-0.073448986 -0.1120608 -0.15006682 -0.1795553 -0.14332354 -0.13906968 -0.27462214 -0.07015111
-0.25241527 -0.14045522 -0.28312746 -0.16163452 -0.1684992 -0.23416163 -0.050005812 -0.20849715
0.17184938 -0.10915705 -0.041665327 -0.10379028 0.029113295 -0.013520404 0.11419708 0.058395993
-0.067169905 0.102463305 0.12359295 0.1543066 0.1905996 0.09422676 -0.016477903 -0.05162282
-0.1712761 -0.25755772 -0.03345659 -0.27689597 -0.041604716 -0.07643012 -0.12452501 -0.18353757
-0.26945567 -0.22820742 -0.2273034 -0.12470062 -0.009930369 -0.18306847 -0.16394918 -0.15764804
-0.15228826 -0.113114715 -0.19301043 -0.16913232 -0.11948716 -0.18995 -0.27635932 -0.26466453
-0.096193925 -0.08644012 -0.26864848 -0.18099971 -0.18819764 -0.2157103 -0.15569884 -0.07698825
0.0001826599 -0.00046218495 0.07727947 0.13021235 0.18444946 0.15215127 0.18891343 0.15872985
0.01288735 0.037350632 0.1936638 0.028754959 -0.021872027 0.06783914 0.11584139 -0.00033134472
-0.2868933 -0.17856416 -0.23342992 -0.0996981 -0.036336854 -0.11861946 -0.17905852 -0.16180125
-0.2385448 -0.2772696 -0.028988317 -0.11158205 -0.1705087 -0.1901998 -0.057034504 -0.29400706
-0.074748434 -0.24149495 -0.09875262 -0.09553067 -0.15151572 -0.10723825 -0.26275802 -0.271624
-0.10870905 -0.0727027 -0.12406798 -0.12293716 -0.103107035 -0.004903069 -0.086077645 -0.15569459
0.20247051 0.049683083 0.0388528 0.08849829 0.04747463 0.07436803 0.026685903 0.017943677
0.1242715 0.16031586 0.048791148 0.10404118 0.15008743 0.03576823 0.031140551 0.009737299
-0.19075495 -0.18622714 -0.20661765 -0.18545198 -0.093871236 -0.21052836 -0.049188107 -0.13340716
-0.18376116 -0.13412143 -0.041812748 -0.08130496 -0.2712047 -0.06740099 -0.15381637 -0.17996962
-0.26241982 -0.1869776 -0.2603562 -0.23712751 -0.13911375 -0.039930895 -0.1802096 -0.09222766
-0.1391207 -0.29008153 -0.017118245 -0.03755181 -0.25237855 -0.05271343 -0.08606636 -0.2700465
0.23668046 0.20888099 0.23504822 0.07960437 0.17557758 0.12746322 0.05485935 0.14539495
0.14695714 0.036647048 -0.0023153499 0.2174101 0.23908938 0.25817117 0.08133195 0.09668404
-0.22448231 -0.12267121 0.0026477482 -0.2542606 -0.23401847 -0.28158394 -0.08029438 -0.22835782
-0.20454493 -0.035260692 -0.11867579 -0.057110578 -0.060722142 -0.27399603 -0.22639285 -0.19167572
-0.10322561 -0.26036566 -0.19972052 -0.18305668 -0.05094278 -0.22632568 -0.110359274 -0.20955953
-0.26647663 -0.076163724 -0.02566935 -0.19587615 -0.073412195 -0.14078307 -0.09724648 -0.12693185
0.21648495 0.1987454 0.09146243 0.23900913 0.084321916 0.10958382 0.11519654 0.011510176
-0.0066916156 -0.0023792973 0.09356524 0.17478979 0.20396402 0.17619231 0.0015535832 0.032417934
00000000: 59bc 58bd 8eea 883d ca93 fe3d 8520 753d
00000010: ae76 43bd 648d 953d 8cf6 a53d ebc1 923c
00000020: e1fb 233b d81c 093e c6c5 cf3d 2bcb 81bd
00000030: d367 8bbd 4862 a53c d34c 3d3e 465d 823b
00000040: 4666 89be 0c89 8ebe db06 5fbe 5ff3 3abd
00000050: ca46 c1bd 2a4e 27be f854 89be 5002 d5bc
00000060: 86e8 efbd 0220 77be b912 08be ba26 0fbd
00000070: db01 afbd 9d2b e5bd b1de 8abe 82b1 c2bd
00000080: 6c6c 96bd 2280 e5bd 1eab 19be 58dd 37be
00000090: 68c3 12be 4868 0ebe 469b 8cbe 63ab 8fbd
000000a0: 933c 81be 7ed3 0fbe 15f6 90be 8583 25be
000000b0: 0e8b 2cbe 11c8 6fbe e5d2 4cbd 4780 55be
000000c0: 49f9 2f3e bb8d dfbd 43a9 2abd 0090 d4bd
000000d0: 017f ee3c af84 5dbc 29e0 e93d a330 6f3d
000000e0: 6090 89bd 48d8 d13d 4d1e fd3d 8d02 1e3e
000000f0: 8b2c 433e f6f9 c03d abfc 86bc 7372 53bd
00000100: 0163 2fbe 9bde 83be c709 09bd 4fc5 8dbe
00000110: b569 2abd 6587 9cbd f806 ffbd 46f1 3bbe
00000120: 18f6 89be 35af 69be 39c2 68be 0a63 ffbd
00000130: fdb2 22bc 4d76 3bbe 4be2 27be 7d6e 21be
00000140: 74f1 1bbe b0a8 e7bd 87a4 45be 0631 2dbe
00000150: afb5 f4bd 4182 42be f87e 8dbe 1c82 87be
00000160: 5201 c5bd 8507 b1bd 4b8c 89be fd57 39be
00000170: e2b6 40be 29e3 5cbe 846f 1fbe 04ac 9dbd
00000180: 6588 3f39 6a51 f2b9 b344 9e3d 6356 053e
00000190: 52e0 3c3e 8bcd 1b3e 8672 413e 148a 223e
000001a0: 7725 533c fafc 183d ce4f 463e 858f eb3c
000001b0: f72c b3bc 3fef 8a3d 403e ed3d 56b8 adb9
000001c0: aee3 92be 86d9 36be 4108 6fbe 842e ccbd
000001d0: f4d5 14bd c2ee f2bd 1e5b 37be 3aaf 25be
000001e0: 1745 74be 48f6 8dbe e878 edbc 2185 e4bd
000001f0: d599 2ebe bdc3 42be 039d 69bd 1888 96be
00000200: b515 99bd 744a 77be d03e cabd 95a5 c3bd
00000210: f026 1bbe ba9f dbbd 3888 86be 4d12 8bbe
00000220: daa2 debd 27e5 94bd 5a17 febd 7ac6 fbbd
00000230: c829 d3bd eda9 a0bb 7a49 b0bd 676e 1fbe
00000240: 6e54 4f3e 7d80 4b3d 1d24 1f3d 973e b53d
00000250: c274 423d 444e 983d 659c da3c 9efe 923c
00000260: 0e82 fe3d d729 243e 3ad9 473d 8b13 d53d
00000270: 85b0 193e b581 123d 781a ff3c 3189 1f3c
00000280: 4455 43be 54b2 3ebe 9493 53be 20e7 3dbe
00000290: 903f c0bd bf94 57be 7879 49bd e39b 08be
000002a0: e32b 3cbe 2157 09be d843 2bbd 3783 a6bd
000002b0: 58db 8abe 8809 8abd 0a82 1dbe f549 38be
000002c0: e45b 86be 0e77 3fbe 684d 85be 8ed1 72be
000002d0: d673 0ebe 948e 23bd de88 38be dbe1 bcbd
000002e0: a875 0ebe 9185 94be 903b 8cbc edcf 19bd
000002f0: c337 81be 0aea 57bd 8f43 b0bd 8943 8abe
00000300: 5d5c 723e e6e4 553e 7bb0 703e 9e07 a33d
00000310: 9cca 333e b885 023e 33b4 603d 6ae2 143e
00000320: ef7b 163e 371b 163d 20bd 17bb c1a0 5e3e
00000330: d9d3 743e 032f 843e 5e91 a63d 4802 c63d
00000340: b1de 65be 0b3b fbbd d885 2d3b 722e 82be
00000350: 8aa2 6fbe c52b 90be 6171 a4bd a2d6 69be
00000360: 3a74 51be 846d 10bd 4b0c f3bd c8ec 69bd
00000370: c8b7 78bd 3549 8cbe 87d3 67be a446 44be
00000380: f367 d3bd a64e 85be 8983 4cbe 3673 3bbe
00000390: 60a9 50bd ebc1 67be 0b04 e2bd c696 56be
000003a0: a06f 88be bafb 9bbd 8748 d2bc c293 48be
000003b0: 2259 96bd 7029 10be 2a29 c7bd 6cfa 01be
000003c0: 3bae 5d3e ea83 4b3e a850 bb3d cfbe 743e
000003d0: f8b0 ac3d 7b6d e03d 2aec eb3d 2d95 3c3c
000003e0: 5745 dbbb fced 1bbb 229f bf3d 18fc 323e
000003f0: f2db 503e c26b 343e 9aa1 cb3a abc8 043d

deconv4.0.bias f4 [3]
-0.1089862 -0.021195559 -0.06274625
00000000: 2834 dfbd 4fa2 adbc 1b81 80bd
