03_hw/Pix2Pix/checkpoints/pix2pix_model_epoch_660.pth (torch, 99191 bytes, 32 tensors)

conv1.0.weight f4 [8, 3, 4, 4]
-0.09880295 -0.11399081 -0.053223044 -0.18393292 0.05984133 -0.10006364 -0.020885564 0.06012795
-0.14172219 -0.045437623 -0.0048595774 0.040278405 -0.023925813 0.07228035 0.07018626 -0.13655892
0.1347254 0.1879991 0.055076472 -0.0055818018 0.036353104 -0.02362706 -0.07775084 0.04937674
0.1192782 0.05376324 0.039335847 -0.039877955 -0.07482737 0.028669624 -0.06461539 0.16676246
-0.104188636 0.03899201 -0.14891967 0.052919477 -0.11026167 -0.10602338 -0.006712204 -0.121548586
0.025702974 -0.024406236 -0.0025077146 -0.036689356 -0.046944693 0.04330884 0.072411254 0.04600632
-0.06986984 0.06925177 -0.018701497 -0.018280111 -0.0037602675 0.11356322 0.034113597 -0.011548966
0.14604409 0.08791298 -0.09951358 -0.07290164 0.034793556 0.12720963 -0.029736869 -0.022100668
-0.0025754713 0.13465913 0.011055845 -0.08419902 -0.04533893 -0.076756276 0.03774051 -0.033183176
0.030890262 -0.008636918 0.03711365 -0.12814033 0.06197067 -0.027510826 0.06019994 0.0918582
0.002287936 -0.062853605 0.048346855 -0.1292277 -0.056203015 0.08337646 -0.07265201 0.06561414
-0.0055061574 -0.00431742 -0.017616095 0.004704463 -0.06285055 -0.093125135 -0.028956575 -0.09661557
-0.13222574 0.05508199 0.013817465 -0.05656542 0.011763707 -0.024480036 0.06484816 0.1385486
-0.077789634 0.04574214 -0.11185364 -0.050173495 0.15474048 0.034822937 0.041075304 -0.05413819
-0.057931893 0.0020076993 0.10122301 -0.11279744 0.12774052 -0.032721702 0.014624271 0.12961976
0.031178717 0.07366936 -0.09259493 -0.10715234 0.03976791 0.030410642 -0.0053911177 0.117953986
-0.10152294 0.09491257 -0.014617972 0.03754203 0.01617961 0.06570038 0.09521581 -0.0141408425
0.0778723 0.17170143 0.121705934 0.075724825 -0.08872525 0.02470712 0.1003317 0.116611145
0.060256638 0.1146595 0.17332262 0.04920657 0.004620348 -0.05063143 -0.0005117452 -0.05121465
0.038426425 -0.067535065 0.14294142 -0.058770232 0.053064145 0.11257332 0.1012882 -0.15876685
-0.10899889 0.08824704 0.15622419 0.025785731 0.06825498 0.098324634 0.0015444626 -0.038593996
-0.09208062 -0.08760247 0.06863292 0.10053651 -0.08526 -0.056604702 -0.014086567 -0.084156826
0.07875784 -0.17582266 0.01698167 0.03151859 -0.05645818 -0.11305707 -0.042664673 0.018971993
-0.11611285 0.10747653 -0.07966202 0.11063867 -0.058047105 -0.042203967 -0.10998401 0.12886325
-0.09328178 -0.13883744 0.03893198 0.049881272 0.1338492 -0.014435602 0.00015137557 -0.1398792
0.09454761 -0.07271477 0.117540255 0.05616556 0.046914928 -0.17049302 -0.08830786 -0.014440435
-0.027878907 0.06076118 0.037155285 0.09373105 -0.09652886 -0.077804856 -0.005310601 0.07711983
-0.033786193 -0.12824847 -0.19552402 -0.2313327 -0.11118054 -0.020794595 -0.19823518 0.03016897
0.11000042 0.018554373 0.061339 -0.104055025 0.07320676 -0.058509137 0.09384832 -0.07629786
-0.055949584 0.09419449 -0.052232824 0.06412743 0.0983595 0.030449782 -0.006080294 -0.05830786
0.038602613 -0.115369536 -0.06823517 -0.040916316 -0.057214376 -0.09630221 0.11878932 -0.0028582807
0.100826114 0.015334711 0.09438633 -0.113830805 -0.038208663 0.107781455 0.12603061 0.05406745
00000000: 3359 cabd 0474 e9bd 6800 5abd e958 3cbe
00000010: 2f1c 753d 2aee ccbd 3418 abbc ba48 763d
00000020: 9f1f 11be cd1c 3abd 173d 9fbb f8fa 243d
00000030: 1100 c4bc b807 943d d0bd 8f3d 1ad6 0bbe
00000040: 75f5 093e d682 403e de97 613d 8ce7 b6bb
00000050: fee6 143d 898d c1bc d53b 9fbd 443f 4a3d
00000060: 2148 f43d d836 5c3d a01e 213d 1157 23bd
00000070: 183f 99bd 8fdc ea3c 1355 84bd c7c3 2a3e
00000080: da60 d5bd 16b6 1f3d 667e 18be 18c2 583d
00000090: dfd0 e1bd c922 d9bd 0cf2 dbbb 77ee f8bd
000000a0: 0b8f d23c 96ef c7bc 7858 24bb 9447 16bd
000000b0: 1449 40bd 9c64 313d 5a4c 943d 1f71 3c3d
000000c0: eb17 8fbd dfd3 8d3d e233 99bc 2cc0 95bc
000000d0: d26e 76bb d593 e83d b3ba 0b3d e037 3dbc
000000e0: 958c 153e b80b b43d c7cd cbbd 744d 95bd
000000f0: b083 0e3d 3e43 023e bc9a f3bc 760c b5bc
00000100: 3dc9 28bb 15e4 093e 9323 353c 8970 acbd
00000110: 50b5 39bd 6532 9dbd cb95 1a3d 15eb 07bd
00000120: 930d fd3c dc81 0dbc 7c04 183d 3837 03be
00000130: f5d4 7d3d 625e e1bc 3694 763d 2720 bc3d
00000140: 32f1 153b 64b9 80bd 5a07 463d 4454 04be
00000150: 2235 66bd 47c1 aa3d 94ca 94bd b560 863d
00000160: ff6c b4bb 2579 8dbb a14f 90bc e527 9a3b
00000170: cab7 80bd 64b8 bebd 5736 edbc 62de c5bd
00000180: 2f66 07be a79d 613d a662 623c 24b1 67bd
00000190: 90bc 403c 5b8a c8bc 1dcf 843d afdf 0d3e
000001a0: 2c50 9fbd 1c5c 3b3d 8513 e5bd b982 4dbd
000001b0: 4a74 1e3e 7fa2 0e3d 943e 283d 02c0 5dbd
000001c0: fe49 6dbd 9b93 033b 024e cf3d 5802 e7bd
000001d0: 69ce 023e 3107 06bd a39a 6f3c 0bbb 043e
000001e0: 826a ff3c f6df 963d 69a2 bdbd b072 dbbd
000001f0: ade3 223d bd1f f93c f9a7 b0bb dc91 f13d
00000200: 42eb cfbd 8661 c23d 3880 6fbc acc5 193d
00000210: 1a8b 843c ec8d 863d 8200 c33d feae 67bc
00000220: 837b 9f3d 80d2 2f3e f640 f93d 9e15 9b3d
00000230: 95b5 b5bd 9666 ca3c b57a cd3d d3d1 ee3d
00000240: aacf 763d 9ad2 ea3d 7c7b 313e d48c 493d
00000250: 4a66 973b e762 4fbd a426 06ba 74c6 51bd
00000260: 0765 1d3d d34f 8abd 3c5f 123e 0eb9 70bd
00000270: ca59 593d d78c e63d 3070 cf3d c793 22be
00000280: cf3a dfbd ddba b43d 3cf9 1f3e 993c d33c
00000290: 44c9 8b3d 6d5e c93d 916f ca3a bd14 1ebd
000002a0: c494 bcbd ec68 b3bd 6b8f 8c3d 16e6 cd3d
000002b0: cb9c aebd 55da 67bd 58cb 66bc 6a5a acbd
000002c0: ca4b a13d db0a 34be 251d 8b3c a319 013d
000002d0: b140 67bd 778a e7bd 27c1 2ebd 276b 9b3c
000002e0: 93cc edbd a81c dc3d d725 a3bd 8796 e23d
000002f0: cdc2 6dbd 11de 2cbd 4c3f e1bd baf4 033e
00000300: 850a bfbd 672b 0ebe 2477 1f3d 4e50 4c3d
00000310: c40f 093e 4e83 6cbc 92ba 1e39 7e3c 0fbe
00000320: 2da2 c13d 7beb 94bd f2b8 f03d dc0d 663d
00000330: de29 403d b995 2ebe c0da b4bd 9397 6cbc
00000340: 4e62 e4bc b7e0 783d 2430 183d 11f6 bf3d
00000350: ecb0 c5bd 2758 9fbd 8d04 aebb 00f1 9d3d
00000360: 6463 0abd 9153 03be 7337 48be 7be2 6cbe
00000370: 9fb2 e3bd 6d59 aabc 2afe 4abe ea24 f73c
00000380: e647 e13d 57ff 973c 9a3e 7b3d cd1a d5bd
00000390: 6ded 953d 47a7 6fbd 8c33 c03d 0d42 9cbd
000003a0: 642b 65bd 0ae9 c03d 16f2 55bd 3e55 833d
000003b0: b570 c93d d271 f93c 343d c7bb 39d4 6ebd
000003c0: c61d 1e3d dd46 ecbd e1be 8bbd de97 27bd
000003d0: 9f59 6abd 183a c5bd d147 f33d fe51 3bbb
000003e0: ec7d ce3d 713e 7b3c 9f4d c13d 2020 e9bd
000003f0: b080 1cbd 86bc dc3d 2b0e 013e d575 5d3d

conv1.0.bias f4 [8]
0.133376 0.0044617523 -0.034998596 0.12437404 0.0711613 0.10075323 -0.10868158 -0.011799725
00000000: b893 083e e433 923b b05a 0fbd d1b7 fe3d
00000010: 04bd 913d b657 ce3d 7394 debd a253 41bc

conv1.1.weight f4 [8]
1.0063455 0.9834765 0.9991546 0.9549556 1.0068271 0.94724035 1.0207812 1.0549234
00000000: eecf 803f 1ec5 7b3f 99c8 7f3f f877 743f
00000010: b6df 803f 587e 723f f5a8 823f bb07 873f

conv1.1.bias f4 [8]
-0.0026204165 -0.041601878 -0.032192282 -0.010245471 -0.0037553946 0.078493305 -0.044195738 0.10451481
00000000: 4bbb 2bbb bb66 2abd 0edc 03bd 9fdc 27bc
00000010: 111d 76bb 19c1 a03d 9706 35bd dc0b d63d

conv1.1.running_mean f4 [8]
0.19925717 -0.028148487 -0.10194704 0.05787926 0.1714209 0.07839532 -0.114812024 -0.011233299
00000000: 120a 4c3e a897 e6bc 9cc9 d0bd ce12 6d3d
00000010: f688 2f3e ba8d a03d 9122 ebbd df0b 38bc

conv1.1.running_var f4 [8]
0.047532175 0.014165782 0.25176027 0.025463482 0.13347867 0.033431802 0.019980803 0.030195074
00000000: 19b1 423d 9917 683c b9e6 803e cb98 d03c
00000010: a2ae 083e c9ef 083d c8ae a33c a95b f73c

conv2.0.weight f4 [16, 8, 4, 4]
0.06683264 0.095444806 0.03011073 0.044609427 -0.08065151 0.073227204 -0.046474114 0.07105506
-0.07604713 0.06979931 0.051369637 0.018251708 -0.028576821 -0.10181306 -0.10212603 0.017613564
-0.016927967 0.10275591 0.07387788 -0.020618264 0.05490051 -0.06521249 0.023706252 -0.022973701
0.029279208 0.008159681 -0.052644026 0.021243846 0.038152896 0.027594643 -0.02539541 -0.08887823
-0.042558283 0.017383475 0.04118819 -0.03940599 -0.08740925 -0.019411251 -0.010431522 0.048513982
-0.038126554 -0.070394866 -0.0124737825 -0.025778094 -0.107097775 -0.09304465 -0.07672769 -0.09586529
0.040345915 -0.026021473 0.028170979 0.015480958 0.016408416 0.02619244 -0.062212452 -0.048546735
0.0010676278 -0.031749375 0.00994118 -0.002535809 0.08998349 -0.018919468 0.0075520426 0.0003853396
0.059473664 -0.0275469 0.0034164314 0.044191718 0.040356394 0.0038344197 0.10105864 -0.009821797
0.053854305 -0.033906836 0.082863316 0.04913095 -0.07723073 -0.023674477 -0.052267544 -0.03835507
-0.08293473 -0.09795983 0.0063643944 0.001505773 -0.0064520543 -0.02200317 0.043960195 0.0077271424
0.003355104 0.06656017 0.047156427 0.069913745 -0.006683006 0.0072064023 -0.06670128 0.011399969
0.06751114 0.0023700262 0.08962041 0.04800126 0.07390768 0.040416498 0.026062366 0.05558372
-0.015218499 0.029865976 -0.010321607 0.055812493 -0.0022331234 0.09415832 0.028025886 0.09473511
0.0029367844 0.01484409 -0.03205045 0.005538885 -0.03231922 -0.007238928 -0.02911907 -0.022859288
0.07474253 0.02002877 0.049542915 0.04792924 0.05292986 -0.010649104 0.04821739 -0.032480173
0.02564903 0.005873768 -0.032013074 -0.060496103 -0.046355385 -0.07294845 -0.03697171 0.07553098
0.051066104 0.00065336167 -0.0077299206 0.071343124 -0.053906962 -0.0060582133 0.09405071 -0.050585456
0.019916689 0.035730682 -0.05301113 -0.072253935 -0.09265693 -0.052671634 -0.08525467 -0.031875707
0.008975552 -0.051657178 0.059826806 0.029813318 0.0001773952 -0.030986637 0.08268476 0.115912355
-0.10393128 -0.030484855 0.065884076 -0.018396163 0.06332607 0.034482982 0.044179525 -0.059656486
0.017964343 -0.011038249 -0.08424714 0.036883246 0.01374861 -0.05379008 0.020972466 0.06296291
-0.02522938 -0.03568759 0.099395834 -0.007413824 -0.05520353 -0.043672595 -0.053079933 0.046376795
-0.025173089 -0.058876183 -0.08134519 0.01827671 -0.07115098 0.011278263 0.0400559 -0.007538696
-0.025601206 -0.062611625 -0.0043833787 0.0036731807 -0.01758745 0.042866237 0.034300573 -0.05092705
-0.06081641 -0.06578955 -0.07819418 0.04631231 -0.0061711683 -0.023127384 0.09675195 -0.034738638
-0.029050063 -0.037721977 -0.07407083 -0.05161752 0.039992876 -0.034725387 -0.091497324 -0.117090106
0.0195041 -0.035137396 -0.028366415 -0.012311595 0.013486459 -0.06764183 -0.03696977 0.014679168
0.013581572 -0.006663473 -0.03139167 0.06817777 0.048880063 -0.051761087 -0.041804794 0.02171403
-0.08223657 -0.013263163 -0.17719138 -0.06047869 0.0014989293 -0.07484421 -0.08410907 0.026147658
0.025934307 -0.059587553 0.0038035074 -0.014136979 -0.17056921 -0.14024471 -0.09125091 0.016829723
-0.02598615 -0.2099956 -0.12247053 -0.07366262 0.00047126375 -0.01741543 -0.07472168 0.025092322
00000000: 8ddf 883d 9178 c33d c7aa f63c 60b8 363d
00000010: 9e2c a5bd 25f8 953d a45b 3ebd 5185 913d
00000020: 99be 9bbd f1f2 8e3d f868 523d 9b84 953c
00000030: f019 eabc 5e83 d0bd 7427 d1bd 524a 903c
00000040: 85ac 8abc b171 d23d 494d 973d a2e7 a8bc
00000050: 5bdf 603d 208e 85bd 9d33 c23c 5833 bcbc
00000060: f3da ef3c 2fb0 053c 43a1 57bd 9307 ae3c
00000070: 3646 1c3d 290e e23c 090a d0bc ca05 b6bd
00000080: 9851 2ebd ca67 8e3c f3b4 283d 2d68 21bd
00000090: 9f03 b3bd 5804 9fbc f9e8 2abc 99b6 463d
000000a0: 972a 1cbd 2f2b 90bd d65e 4cbc 952c d3bc
000000b0: 1456 dbbd 328e bebd 6823 9dbd 0555 c4bd
000000c0: c241 253d fc2a d5bc d3c6 e63c d8a3 7d3c
000000d0: f16a 863c 8791 d63c 7cd2 7ebd f1d8 46bd
000000e0: a5ef 8b3a a20b 02bd 55e0 223c d12f 26bb
000000f0: 4449 b83d 00fd 9abc 2077 f73b 6807 ca39
00000100: a89a 733d 09aa e1bc 35e6 5f3b 6002 353d
00000110: bf4c 253d e34a 7b3b d5f7 ce3d 9aeb 20bc
00000120: 5596 5c3d e5e1 0abd 3eb4 a93d 893d 493d
00000130: 252b 9ebd faf0 c1bc 7e16 56bd 351a 1dbd
00000140: afd9 a9bd 2a9f c8bd 698c d03b 5c5d c53a
00000150: c16b d3bb fe3f b4bc 9b0f 343d f833 fd3b
00000160: 4ee1 5b3b b350 883d 1927 413d f02e 8f3d
00000170: 1efd dabb af23 ec3b ae9a 88bd f0c6 3a3c
00000180: 4843 8a3d 7152 1b3b e88a b73d f89c 443d
00000190: e95c 973d c58b 253d be80 d53c c1ab 633d
000001a0: 0357 79bc 7ea9 f43c f51b 29bc a49b 643d
000001b0: 9859 12bb 14d6 c03d 8b96 e53c 7b04 c23d
000001c0: 1177 403b a034 733c 5547 03bd 897f b53b
000001d0: 2961 04bd 8834 edbb 1e8b eebc 6743 bbbc
000001e0: 9d12 993d 6013 a43c 83ed 4a3d 7351 443d
000001f0: fbcc 583d 9479 2ebc 997f 453d ee09 05bd
00000200: ea1d d23c bd78 c03b 2420 03bd c3ca 77bd
00000210: 25df 3dbd ff65 95bd a66f 17bd fdaf 9a3d
00000220: b12a 513d 5c46 2b3a 464b fdbb 581c 923d
00000230: 8ccd 5cbd fa83 c6bb a99d c03d b232 4fbd
00000240: 5328 a33c 565a 123d 3322 59bd dff9 93bd
00000250: ebc2 bdbd 36be 57bd 009a aebd 1a90 02bd
00000260: 320e 133c 7a96 53bd f40c 753d 0f3b f43c
00000270: 2903 3a39 b0d7 fdbc a156 a93d 7563 ed3d
00000280: ecd9 d4bd 60bb f9bc 3bee 863d 8db3 96bc
00000290: 19b1 813d 073e 0d3d 97f5 343d 5c5a 74bd
000002a0: f529 933c c6d9 34bc c489 acbd e312 173d
000002b0: da41 613c fd52 5cbd 73ce ab3c b3f2 803d
000002c0: d8ad cebc 262d 12bd 0b90 cb3d aaef f2bb
000002d0: 191d 62bd 09e2 32bd 586a 59bd 98f5 3d3d
000002e0: cb37 cebc 2728 71bd 4f98 a6bd 0ab9 953c
000002f0: 9bb7 91bd 77c8 383c a811 243d 2a07 f7bb
00000300: 9fb9 d1bc 863a 80bd 72a2 8fbb bfb9 703b
00000310: 8e13 90bc 8294 2f3d c27e 0c3d e298 50bd
00000320: a11a 79bd acbc 86bd 4524 a0bd fab1 3d3d
00000330: 8337 cabb a475 bdbc e325 c63d 1a4a 0ebd
00000340: 66fa edbc 5c82 1abd 73b2 97bd e56c 53bd
00000350: 92cf 233d 353c 0ebd f362 bbbd f0cc efbd
00000360: 10c7 9f3c 3bec 0fbd af60 e8bc 92b6 49bc
00000370: 4ff6 5c3c cd87 8abd 9d6d 17bd e580 703c
00000380: 3e85 5e3c 4359 dabb 8d94 00bd c9a0 8b3d
00000390: 7636 483d 6f03 54bd 813b 2bbd 9fe1 b13c
000003a0: a66b a8bd bd4d 59bc a871 35be 81b8 77bd
000003b0: b977 c43a ec47 99bd 6041 acbd 9d33 d63c
000003c0: 2f74 d43c 1412 74bd 4444 793b ca9e 67bc
000003d0: b2a9 2ebe 4f9c 0fbe c2e1 babd 7dde 893c
000003e0: e8e0 d4bc 1609 57be d4d1 fabd 6ddc 96bd
000003f0: f313 f739 ceaa 8ebc ae07 99bd 6a8e cd3c

conv2.0.bias f4 [16]
-0.08697975 0.08310455 0.06647507 -0.012029621 -0.035141546 0.0069565144 -0.035978895 -0.058349635
-0.020475911 0.04205882 -0.059093766 -0.03310634 -0.04359362 -0.08464128 0.068795 -0.0720689
00000000: 7022 b2bd b832 aa3d 1524 883d e317 45bc
00000010: 95f0 0fbd 79f3 e33b 9b5e 13bd 0700 6fbd
00000020: 19bd a7bc df45 2c3d 4e0c 72bd 839a 07bd
00000030: 398f 32bd 6858 adbd 65e4 8c3d dc98 93bd

conv2.1.weight f4 [16]
0.9718935 1.0706205 0.98077506 0.98280716 0.9905404 0.9825224 1.001083 1.0193229
0.9602244 1.0018327 1.0083716 1.0095457 1.0779084 0.99365044 1.0021125 0.9972426
00000000: 03ce 783f 180a 893f 1314 7b3f 4099 7b3f
00000010: 0e94 7d3f 9786 7b3f 7d23 803f 2c79 823f
00000020: 44d1 753f 0e3c 803f 5212 813f cb38 813f
00000030: e7f8 893f e05f 7e3f 3945 803f 4b4b 7f3f

conv2.1.bias f4 [16]
-0.0058033075 -0.007064983 0.008517351 -0.082638845 -0.012119574 -0.04182069 -0.035053957 -0.04419356
-0.027357541 0.021249928 0.011550238 -0.010700646 -0.04331938 0.021638516 0.02081901 -0.0046136407
00000000: ac29 bebb 5f81 e7bb 5c8c 0b3c 8e3e a9bd
00000010: 2d91 46bc 2c4c 2bbd bd94 0fbd 4e04 35bd
00000020: ec1c e0bc 5414 ae3c 363d 3d3c c351 2fbc
00000030: aa6f 31bd 4243 b13c a18c aa3c 062e 97bb

conv2.1.running_mean f4 [16]
0.06416925 -0.8154284 -0.17144375 1.0548784 -0.2147019 -0.23183532 -0.0015190174 0.03452743
-0.14465885 -0.69174165 -0.02635343 0.5068086 -0.05145625 -0.47671482 0.05624599 0.14820915
00000000: 2b6b 833d eabf 50bf f38e 2fbe 4106 873f
00000010: d1da 5bbe 3d66 6dbe c419 c7ba a26c 0d3d
00000020: 7321 14be fb15 31bf 26e3 d7bc 35be 013f
00000030: cac3 52bd f713 f4be 3262 663d 24c4 173e

conv2.1.running_var f4 [16]
0.2802717 0.35372344 0.4981429 0.33967414 0.21515653 0.124514975 0.07597006 0.1741492
0.48273754 0.42371202 0.15694647 0.21689096 0.39717218 0.24640499 0.22038749 0.26384002
00000000: c67f 8f3e 3d1b b53e 960c ff3e c5e9 ad3e
00000010: fe51 5c3e b501 ff3d 3196 9b3d 2b54 323e
00000020: 6029 f73e c8f0 d83e 93b6 203e aa18 5e3e
00000030: 275a cb3e 9751 7c3e 42ad 613e 0a16 873e

conv3.0.weight f4 [32, 16, 4, 4]
0.021763977 -0.0049828216 -0.05474881 -0.06530651 -0.05111777 -0.0015561967 0.0015049822 -0.016782463
-0.041306607 -0.015928298 -0.0028874888 -0.046416774 -0.03758294 0.028772168 0.026584791 0.011757674
-0.083172545 -0.035649337 -0.011938424 -0.0036956978 -0.023281563 -0.030170336 0.03447877 -0.03915983
-0.042821903 -0.0677014 -0.018879663 0.00042819124 -0.033470158 0.007388389 -0.03968462 -0.061960127
0.052336983 -0.0040186998 -0.0019324933 0.029155178 0.018805064 -0.012728486 0.008433315 0.058085315
0.0112032555 0.045889802 0.013594819 -0.0063085267 0.010708514 0.020134838 0.021158068 0.012084257
-0.0016493604 -0.009509095 -0.030339362 -0.06789239 -0.011072747 0.055918925 -0.026880309 -0.03805077
0.023898551 -0.027160157 -0.038608685 -0.05379838 0.04278753 -0.02853854 0.04753979 -0.061018307
0.046670876 0.014222537 0.032113176 0.025158128 0.0024959743 0.008072425 0.03588646 -0.016331173
-0.009009613 -0.023651926 -0.015394524 0.02462011 -0.04866487 0.05885143 -0.008944863 -0.011769142
-0.005109207 0.032272052 0.008157934 -0.026715558 -0.030423354 0.028272647 0.004638767 -0.0003697829
0.056759246 -0.028174132 0.010636194 0.02257905 -0.013651792 -0.052894674 -0.011732272 -0.03472779
0.075964786 0.032837685 0.009254262 0.0066993316 0.036433443 -0.002846873 -0.031085068 -0.018439393
0.023188908 -0.06636401 -0.06414809 -0.019544223 0.048674166 -0.026130639 -0.04066948 0.019186314
0.008306022 0.04635855 -0.054005608 -0.06268313 0.06719746 -0.0024647198 -0.048823692 -0.037678596
-0.069035366 0.009795126 -0.07664325 -0.119617835 -0.011494203 0.06906771 -0.004590637 -0.04721999
-0.009669346 -0.051827762 -0.026037956 -0.045115404 -0.008806296 0.043122143 -0.015396437 -0.028124006
-0.045025 -0.01669203 0.00020197313 -0.05032567 -0.03584472 0.02785776 0.009655578 -0.07546747
-0.014358668 0.03227617 0.040521506 -0.046866585 -0.0051976135 -0.052268054 -0.0010251136 -0.0384112
-0.0526052 -0.046355065 -0.012057618 0.06828358 0.017992193 0.028414464 -0.04597652 -0.0693491
0.04311749 0.07902131 0.0077712685 0.03620438 -0.023251932 0.004365082 -0.007975452 0.009450521
0.06840251 0.04680631 0.04367354 -0.027729759 0.04241973 -0.03869682 0.015974522 0.026955308
0.017140543 0.041742213 -0.0009745357 -0.07259526 -0.0088353325 0.015946947 -0.085272536 -0.05567422
0.069007665 0.029971173 0.045289442 0.006490977 0.05517032 -0.043504886 -0.057170417 0.005542785
-0.035942957 0.008141199 0.04246425 -0.07216941 0.026753455 -0.0135798445 -0.046655655 -0.08500781
-0.01629209 -0.090348795 -0.03991418 -0.12404795 -0.056158066 0.041370012 -0.06425631 -0.053833935
0.052096978 0.0134415245 0.03457284 -0.024554975 0.019596344 0.004978823 -0.0031748062 -0.025696924
0.034039777 0.034060456 0.03613052 -0.009198679 -0.016745366 -0.07720323 0.031327587 -0.010580295
0.06944619 0.05249021 -0.03947508 -0.03445499 0.017238991 -0.050046586 -0.038860273 0.022790855
0.0038589446 0.038842343 0.05296966 -0.045732822 -0.03864901 0.04173332 -0.07502387 -0.012397665
-0.008056462 0.004794776 0.018134732 0.0015670039 0.06414546 -0.028295565 0.040513366 0.04471733
0.040896792 0.04596592 -0.07698799 -0.08523887 -0.031811733 -0.0054637813 -0.05623145 -0.04617896
00000000: 5e4a b23c f046 a3bb 4a40 60bd 6bbf 85bd
00000010: de60 51bd 4cf9 cbba d342 c53a 607b 89bc
00000020: 1e31 29bd 107c 82bc 063c 3dbb 841f 3ebd
00000030: 92f0 19bd 9cb3 eb3c 59c8 d93c 42a3 403c
00000040: 5e56 aabd 0a05 12bd 6199 43bc 8533 72bb
00000050: fab8 bebc c827 f7bc 9c39 0d3d 0f66 20bd
00000060: 0566 2fbd 08a7 8abd 86a9 9abc db7e e039
00000070: 0118 09bd 4d1a f23b 578c 22bd e7c9 7dbd
00000080: 4e5f 563d 4caf 83bb b74b fdba d7d6 ee3c
00000090: 140d 9a3c 248b 50bc e32b 0a3c deea 6d3d
000000a0: dc8d 373c f2f6 3b3d cebc 5e3c c2b7 cebb
000000b0: c372 2f3c d1f1 a43c af53 ad3c 0cfd 453c
000000c0: 5a2f d8ba 09cc 1bbc 418a f8bc 2a0b 8bbd
000000d0: 786a 35bc 3e0b 653d 1834 dcbc 20db 1bbd
000000e0: e5c6 c33c fa7e debc 2424 1ebd b15b 5cbd
000000f0: fa41 2f3d a8c9 e9bc 15b9 423d 55ee 79bd
00000100: f629 3f3d a505 693c 1b89 033d 6b18 ce3c
00000110: 8093 233b 3442 043c aefd 123d f4c8 85bc
00000120: 0e9d 13bc afc1 c1bc 5039 7cbc 1db0 c93c
00000130: d154 47bd 320e 713d 7a8d 12bc 5cd3 40bc
00000140: 226b a7bb b32f 043d dba8 053c 96da dabc
00000150: 663a f9bc 0a9c e73c cc00 983b 6cdf c1b9
00000160: 627c 683d 70cd e6bc 6e43 2e3c b3f7 b83c
00000170: c4ab 5fbc 16a8 58bd b738 40bc ba3e 0ebd
00000180: 6d93 9b3d cf80 063d 309f 173c 1186 db3b
00000190: 3c3b 153d 9a92 3abb 1da6 febc 360e 97bc
000001a0: aaf6 bd3c dbe9 87bd 1360 83bd 351b a0bc
000001b0: 905e 473d ec0f d6bc 0a95 26bd 9e2c 9d3c
000001c0: fb15 083c 77e2 3d3d fc34 5dbd 0360 80bd
000001d0: d29e 893d 2387 21bb 5afb 47bd df54 1abd
000001e0: 6a62 8dbd bc7b 203c 23f7 9cbd 32fa f4bd
000001f0: 2e52 3cbc 5f73 8d3d 0e6d 96bb c069 41bd
00000200: 2d6c 1ebc 5949 54bd 8d4d d5bc eeca 38bd
00000210: 4848 10bc d8a0 303d 5641 7cbc 5164 e6bc
00000220: 226c 38bd b9bd 88bc c0c8 5339 4a22 4ebd
00000230: ead1 12bd f535 e43c 6e32 1e3c b08e 9abd
00000240: 9e40 6bbc 0434 043d e1f9 253d 2df7 3fbd
00000250: be50 aabb 0717 56bd 1b5d 86ba 1055 1dbd
00000260: 8d78 57bd cfde 3dbd 518d 45bc 43d8 8b3d
00000270: 5d64 933c 73c5 e83c e051 3cbd e706 8ebd
00000280: f79b 303d edd5 a13d 20a6 fe3b 0b4b 143d
00000290: d67a bebc f608 8f3b 78ab 02bc 5cd6 1a3c
000002a0: 9d16 8c3d f9b7 3f3d 07e3 323d 8529 e3bc
000002b0: 50c0 2d3d 8f80 1ebd 00dd 823c 61d1 dc3c
000002c0: 536a 8c3c e2f9 2a3d fc77 7fba d3ac 94bd
000002d0: 12c2 10bc 2ca3 823c 5ea3 aebd a70a 64bd
000002e0: e453 8d3d 1b86 f53c 6c81 393d 43b2 d43b
000002f0: 46fa 613d 2e32 32bd 872b 6abd 40a0 b53b
00000300: ec38 13bd aa62 053c feee 2d3d 8ecd 93bd
00000310: 102a db3c ff7d 5ebc 001a 3fbd 9318 aebd
00000320: fd76 85bc ca08 b9bd 0d7d 23bd da0c febd
00000330: 0006 66bd 9a73 293d d098 83bd f980 5cbd
00000340: a463 553d d739 5c3c 409c 0d3d 8427 c9bc
00000350: 8388 a03c 6525 a33b 6910 50bb 5b82 d2bc
00000360: 4b6d 0b3d fa82 0b3d 99fd 133d 0eb6 16bc
00000370: 942d 89bc ba1c 9ebd 5b51 003d f958 2dbc
00000380: ce39 8e3d f9ff 563d 9fb0 21bd ad20 0dbd
00000390: c938 8d3c a6fd 4cbd f32b 1fbd e3b3 ba3c
000003a0: 59e6 7c3b 2619 1f3d b7f6 583d 5752 3bbd
000003b0: 6d4e 1ebd 8ff0 2a3d 1da6 99bd 931f 4bbc
000003c0: 40ff 03bc 7f1d 9d3b 4a8f 943c ed63 cd3a
000003d0: b25e 833d 1acc e7bc 58f1 253d 8529 373d
000003e0: 6583 273d c346 3c3d e1ab 9dbd b791 aebd
000003f0: 054d 02bd 8509 b3bb f352 66bd 2626 3dbd

conv3.0.bias f4 [32]
0.014426101 0.057894796 0.014121494 -0.059068073 0.0041075996 -0.055120505 -0.023652045 0.06103779
0.03448643 0.020826194 -0.014899473 0.031058095 0.031218112 -0.0072584394 -0.0615528 0.010477297
-0.03173535 0.018392254 0.047152538 0.025635006 0.046179898 0.05081477 0.011201149 0.046840604
0.011695901 -0.04064181 -0.011645554 -0.012939689 -0.06228568 -0.050700806 -0.05377823 0.05976544
00000000: 745b 6c3c 1823 6d3d d75d 673c 5df1 71bd
00000010: 0b99 863b 0ac6 61bd efc1 c1bc c302 7a3d
00000020: a541 0d3d b29b aa3c eb1c 74bc 8c6d fe3c
00000030: 20bd ff3c 34d8 edbb ca1e 7cbd f8a8 2b3c
00000040: edfc 01bd 5aab 963c 0523 413d 8100 d23c
00000050: 2227 3d3d 2623 503d 0685 373c efdb 3f3d
00000060: 2aa0 3f3c 0778 26bd fecc 3ebc fd00 54bc
00000070: 451f 7fbd a6ab 4fbd 9046 5cbd 9bcc 743d

conv3.1.weight f4 [32]
0.9873926 0.99094564 1.0035866 1.0406666 0.97737855 0.9912848 0.98657256 0.9843454
0.97456133 1.007257 0.98815215 0.98898125 1.0379744 0.9735922 1.0091876 1.0173277
1.0084887 1.0119951 0.9984268 0.9996049 0.98276854 1.0496519 1.0001012 1.00351
0.975737 0.97473305 1.0442045 1.0119598 0.9894487 1.0384216 1.0649059 1.0079725
00000000: c3c5 7c3f 9dae 7d3f 8775 803f 9034 853f
00000010: 7b35 7a3f d7c4 7d3f 0590 7c3f 0ffe 7b3f
00000020: da7c 793f cced 803f 8af7 7c3f e02d 7d3f
00000030: 58dc 843f 573d 793f 0f2d 813f cb37 823f
00000040: 2816 813f 0e89 813f e698 7f3f 1be6 7f3f
00000050: b896 7b3f fe5a 863f 5103 803f 0473 803f
00000060: e6c9 793f 1b88 793f 7ea8 853f e687 813f
00000070: 834c 7d3f 00eb 843f d64e 883f 3e05 813f

conv3.1.bias f4 [32]
-0.071926504 -0.009422995 -0.021167481 -0.17279233 -0.028015727 -0.010442182 0.021590825 -0.00053217396
0.026178578 -0.020590369 -0.00400129 0.053601045 0.07987616 -0.028751263 -0.019908758 -0.04527608
0.012862462 -0.014074919 -0.005199542 -0.05761996 -0.016003052 -0.03303983 0.0073466436 -0.013927538
-0.0076035256 -0.015309153 -0.01450315 0.009030031 -0.046707947 -0.039842874 -0.06306543 0.0016547857
00000000: 344e 93bd e862 1abc 6d67 adbc 79f0 30be
00000010: 3d81 e5bc b015 2bbc 3edf b03c 9781 0bba
00000020: 7574 d63c 22ad a8bc 411d 83bb c58c 5b3d
00000030: 1d96 a33d c587 ebbc b117 a3bc 6973 39bd
00000040: 13bd 523c 7d9a 66bc eb60 aabb e802 6cbd
00000050: d518 83bc c654 07bd 1dbc f03b 5430 64bc
00000060: ff26 f9bb 3ed3 7abc 9f9e 6dbc b2f2 133c
00000070: d550 3fbd 4832 23bd 7328 81bd 65e5 d83a

conv3.1.running_mean f4 [32]
-0.5572 -0.6115388 -0.1685219 -0.07734075 -0.38401258 0.27570605 -0.103702426 0.046250455
-0.06375466 -0.2824668 -0.2525306 -0.6037645 -0.47900832 -0.87729335 -0.392065 -0.32007703
-0.4186278 -0.1578971 0.05792215 0.1265617 -0.5766981 0.006099054 -0.26710242 -0.24562775
0.16627946 -0.3803197 -0.30302072 -0.51333153 -0.10608575 0.16221718 -0.5216628 -0.40714625
00000000: a9a4 0ebf cf8d 1cbf 0191 2cbe d464 9ebd
00000010: 4c9d c4be 5829 8d3e f061 d4bd 1e71 3d3d
00000020: ce91 82bd 7d9f 90be b14b 81be 4f90 1abf
00000030: 9440 f5be 4c96 60bf bebc c8be 23e1 a3be
00000040: 6256 d6be c7af 21be c73f 6d3d 6499 013e
00000050: 7da2 13bf 93da c73b a6c1 88be d785 7bbe
00000060: 2a45 2a3e 44b9 c2be 8825 9bbe b269 03bf
00000070: 7c43 d9bd 431c 263e b18b 05bf 7975 d0be

conv3.1.running_var f4 [32]
0.20158163 0.2801428 0.12946428 0.19501114 0.2299727 0.20745714 0.40862674 0.24592987
0.10837534 0.30976912 0.20187148 0.29323342 0.379312 0.16127957 0.18733956 0.14297654
0.18034697 0.18834113 0.16519654 0.118930124 0.18810943 0.12942281 0.25462976 0.23430759
0.1794953 0.17799284 0.12447876 0.3906745 0.22094148 0.15855786 0.13997535 0.22830053
00000000: 6a6b 4e3e e16e 8f3e 4992 043e 00b1 473e
00000010: f77d 6b3e a56f 543e 8637 d13e 0ad5 7b3e
00000020: e4f3 dd3d 0f9a 9e3e 66b7 4e3e b122 963e
00000030: 2f35 c23e 7926 253e f1d5 3f3e 7168 123e
00000040: e0ac 383e 7fdc 403e 4829 293e a391 f33d
00000050: c29f 403e 6a87 043e d55e 823e 54ee 6f3e
00000060: 9ecd 373e c143 363e b8ee fe3d 7d06 c83e
00000070: 7c3e 623e fe5c 223e b355 0f3e 9dc7 693e

deconv2.0.weight f4 [32, 16, 4, 4]
-0.080550686 0.014050953 -0.017628305 0.012128483 -0.043418184 0.014641351 -0.024588179 3.7662787e-05
-0.0504785 0.0036354486 -0.038001657 -0.063904114 -0.03824049 0.039509088 -0.05660698 0.031415123
0.014329728 -0.014525835 0.021690741 -0.08850547 -0.026356831 0.025752224 0.111661926 0.012741042
0.025296547 -0.024893308 0.039252285 0.01244068 -0.062470913 0.0576501 0.042278763 0.00714374
0.051303558 0.001576595 0.04754364 0.002306364 0.027711444 0.04560256 0.0008916441 0.02248011
0.040813647 0.029210769 -0.001100242 0.019757764 0.0125284195 -0.055399995 0.004104375 0.004517421
-0.025350874 0.034479275 -0.032058805 0.03739493 -0.0715373 -0.09618331 0.1074056 -0.033295337
-0.08341363 0.018100537 -0.071769 -0.0019084684 -0.014349153 -0.1207534 0.074420065 -0.120244086
0.01240627 0.053612433 -0.008398804 0.0016554416 -0.03369242 -0.0724864 -0.033238787 -0.01834188
0.0036218027 0.035095837 -0.011821556 0.02492218 0.059689704 0.041352976 0.00926175 0.023048792
-0.02564863 0.020124905 -0.04058722 -0.06655742 0.056054603 0.033854913 0.044735905 -0.0012770628
0.0054068975 -0.009285969 -0.06497196 -0.08478412 -0.019463127 0.014275354 0.025365643 0.0075311135
-0.012396478 -0.04195223 -0.0771649 0.014305909 0.05329849 -0.07498766 0.009039611 -0.019641718
-0.023860497 -0.023538172 -0.0023727736 0.008678031 0.023630634 0.043946765 0.036448073 -0.014002341
-0.07881708 0.02192259 0.0015819343 0.012358503 -0.017903745 0.016602812 0.009873065 0.008102469
-0.069362774 0.006338222 0.049563427 0.016853156 -0.025044331 0.032363772 -0.028675882 0.008963268
0.008213015 -0.007974404 -0.012097271 -0.0087772515 -0.049869046 -0.044042546 0.0038581598 -0.037374355
0.032912485 -0.034611512 0.028600523 -0.05123698 -0.020201331 0.048048466 0.019513527 -0.049446296
-0.005534586 -0.018638749 0.015113214 -0.04448238 0.047776047 -0.017680896 -0.12414937 0.011180771
0.058616262 -0.021895668 0.044407293 -0.097829714 0.06349157 -0.0120783355 -0.12781721 -0.0116652185
-0.047941655 -0.08572025 -0.052133888 -0.083217986 0.0278168 -0.018680785 -0.037581965 -0.023950594
-0.03512402 -0.097598515 -0.0069378624 -0.03874394 0.036625363 -0.0068624006 0.014835347 0.005290562
-0.060079794 -0.029562272 -0.060783852 -0.06902795 -0.002725054 -0.053009376 0.016435126 -0.10003705
-0.076629326 -0.060669288 -0.056280438 -0.02769644 -0.03940624 -0.039525177 0.011962396 -0.025127133
-0.0105875945 0.01973351 -0.05856016 0.03272516 -0.05934352 -0.005069579 -0.008430766 -0.0389971
-0.0058421823 0.061398137 -0.059921768 0.038655393 -0.005945492 -0.016260955 0.008979752 -0.0034874945
0.0016986824 -0.012017089 -0.06240612 -0.008578962 0.07210429 0.04686807 -0.020208843 0.024547137
0.016309964 -0.015160753 -0.06051226 0.0077349106 0.07653456 0.007104068 0.03796736 0.032942835
-0.06821949 -0.0033538265 -0.016759645 -0.040225737 0.009072139 -0.020006275 0.017300054 -0.003220781
-0.04403018 -0.05386866 -0.05537755 -0.08423315 0.0025171484 -0.042316124 -0.006209024 -0.029897962
-0.032392513 -0.06194642 0.0055719167 0.020595856 -0.018673923 -0.022486473 -0.102283135 0.028981037
-0.03515014 -0.04753336 0.015186183 -0.07076112 0.09055453 -0.023966223 -0.06394662 0.007988047
00000000: c2f7 a4bd f835 663c 3c69 90bc 8bb6 463c
00000010: 44d7 31bd 47e2 6f3c 266d c9bc 1cf8 1d38
00000020: 8bc2 4ebd b540 6e3b a0a7 1bbd 29e0 82bd
00000030: 0fa2 1cbd 48d4 213d b8dc 67bd 25ad 003d
00000040: 3cc7 6a3c c5fd 6dbc c8b0 b13c 5b42 b5bd
00000050: 48ea d7bc 54f6 d23c 02af e43d cebf 503c
00000060: b43a cf3c 0ded cbbc 01c7 203d fed3 4b3c
00000070: 80e1 7fbd 8322 6c3d 7f2c 2d3d 0916 ea3b
00000080: ae23 523d c0a5 ce3a 1fbd 423d 5e26 173b
00000090: 1c03 e33c c0c9 3a3d 39bd 693a 3528 b83c
000000a0: 362c 273d 6c4b ef3c ff35 90ba 09db a13c
000000b0: 0044 4d3c 1beb 62bd fe7d 863b e006 943b
000000c0: a3ac cfbc 243a 0d3d 1850 03bd 6d2b 193d
000000d0: 2682 92bd c1fb c4bd 78f7 db3d b160 08bd
000000e0: c4d4 aabd 9447 943c a0fb 92bd 9325 faba
000000f0: b618 6bbc 8f4d f7bd 8c69 983d 8842 f6bd
00000100: ab43 4b3c b698 5b3d 239b 09bc 67fb d83a
00000110: 1001 0abd c073 94bd 6525 08bd b641 96bc
00000120: c45b 6d3b a7c0 0f3d 33af 41bc 9a29 cc3c
00000130: 317d 743d bd61 293d 98be 173c d2d0 bc3c
00000140: 131d d2bc fcdc a43c c93e 26bd 424f 88bd
00000150: 8399 653d 73ab 0a3d ff3c 373d 1e63 a7ba
00000160: 582c b13b 2d24 18bc 0510 85bd 4ca3 adbd
00000170: 2371 9fbc 2de3 693c 9ccb cf3c 8fc7 f63b
00000180: 991a 4bbc 1ad6 2bbd a208 9ebd 5563 6a3c
00000190: 844f 5a3d 2193 99bd e01a 143c abe7 a0bc
000001a0: 1777 c3bc 20d3 c0bc 8980 1bbb 4d2e 0e3c
000001b0: 0895 c13c 8601 343d 934a 153d 136a 65bc
000001c0: d96a a1bd 0197 b33c e858 cf3a 527b 4a3c
000001d0: e0aa 92bc 9f02 883c a3c2 213c 38c0 043c
000001e0: 120e 8ebd dcb0 cf3b 0503 4b3d a10f 8a3c
000001f0: c529 cdbc e08f 043d afe9 eabc acda 123c
00000200: e28f 063c 13a7 02bc a233 46bc 76ce 0fbc
00000210: 7c43 4cbd f565 34bd 2ed9 7c3b da15 19bd
00000220: 3ecf 063d cdc4 0dbd a54b ea3c dedd 51bd
00000230: 437d a5bc 78ce 443d d5da 9f3c 3388 4abd
00000240: 795b b5bb 4ab0 98bc 6a9d 773c 2833 36bd
00000250: d1b0 433d 87d7 90bc 0642 febd 8d2f 373c
00000260: 9b17 703d 8b5e b3bc 6ce4 353d f25a c8bd
00000270: de07 823d 36e4 45bc 84e2 02be 791f 3fbc
00000280: 785e 44bd 198e afbd 588a 55bd 316e aabd
00000290: 0fe0 e33c 7208 99bc 8cef 19bd 0934 c4bc
000002a0: 34de 0fbd bbe1 c7bd 0257 e3bb f7b1 1ebd
000002b0: 7a04 163d fddd e0bb f50f 733c 735c ad3b
000002c0: 3b16 76bd 942c f2bc 7df8 78bd 875e 8dbd
000002d0: d296 32bb 5c20 59bd f5a2 863c 3ae0 ccbd
000002e0: d6ef 9cbd 5c80 78bd 5186 66bd a5e3 e2bc
000002f0: 7068 21bd 27e5 21bd edfd 433c 6bd7 cdbc
00000300: 9777 2dbc 2ca8 a13c c7dc 6fbd d10a 063d
00000310: 3112 73bd b61e a6bb 3221 0abc 6cbb 1fbd
00000320: c76f bfbb 9d7c 7b3d 8770 75bd 1e55 1e3d
00000330: 67d2 c2bb b235 85bc cf1f 133c 738e 64bb
00000340: 53a6 de3a 53e3 44bc 8f9d 7fbd c68e 0cbc
00000350: 6aab 933d bcf8 3f3d 048d a5bc 1417 c93c
00000360: 799c 853c cf64 78bc b4db 77bd 2275 fd3b
00000370: 27be 9c3d 3ec9 e83b aa83 1b3d 11ef 063d
00000380: a9b6 8bbd dfcb 5bbb 864b 89bc bec3 24bd
00000390: 4fa3 143c 33e4 a3bc d8b8 8d3c bd13 53bb
000003a0: fd58 34bd 62a5 5cbd 92d3 62bd 6e82 acbd
000003b0: bef6 243b ac53 2dbd 1275 cbbb 92ec f4bc
000003c0: 03ae 04bd 88bb 7dbd a094 b63b a4b8 a83c
000003d0: 0efa 98bc 8d35 b8bc d279 d1bd a469 ed3c
000003e0: 98f9 0fbd 57b2 42bd 78cf 783c 35eb 90bd
000003f0: a774 b93d d054 c4bc 72f6 82bd 4ce0 023c

deconv2.0.bias f4 [16]
0.029521653 -0.060232956 0.030101331 0.026622621 0.038659308 -0.05625571 0.048504505 -0.016368566
-0.06053312 0.051694613 0.02737894 -0.055327967 0.025602594 -0.014357187 0.014950009 0.016243042
00000000: 65d7 f13c d5b6 76bd 1197 f63c af17 da3c
00000010: 3959 1e3d 636c 66bd a9ac 463d 5f17 86bc
00000020: 94f1 77bd bbbd 533d cc49 e03c 949f 62bd
00000030: 88bc d13c 683a 6bbc e2f0 743c 2110 853c

deconv2.1.weight f4 [16]
0.94848794 1.00968 1.0020919 0.97206414 0.9869031 0.9462092 0.94613045 0.9422747
0.96486086 1.0258558 0.9614785 1.1144731 0.98521966 0.9535312 1.0460281 0.9984607
00000000: 1bd0 723f 323d 813f 8c44 803f 32d9 783f
00000010: aea5 7c3f c43a 723f 9b35 723f ea38 713f
00000020: 1f01 773f 3e4f 833f 7423 763f 0ea7 8e3f
00000030: 5b37 7c3f 9f1a 743f 40e4 853f 1f9b 7f3f

deconv2.1.bias f4 [16]
0.00888279 0.08780182 0.053529087 0.012472762 0.01674784 0.0147691425 0.027513474 -0.043865506
-0.013132395 0.13612972 0.031366374 -0.05314965 -0.03644521 0.024836577 0.04153806 0.01630216
00000000: 1f89 113c 71d1 b33d 5141 5b3d 8e5a 4c3c
00000010: c432 893c 46fa 713c f063 e13c 51ac 33bd
00000020: 4229 57bc 9765 0b3e 077a 003d 73b3 59bd
00000030: 9347 15bd 1476 cb3c d023 2a3d 1c8c 853c

deconv2.1.running_mean f4 [16]
-0.7346164 -0.5759681 -0.29240447 -0.60827976 -0.24707171 -0.8433732 -0.53369886 -0.4005873
-0.7187411 -0.8454455 -0.94094044 -0.76721466 -0.020417564 -0.227002 -0.7982454 -0.9154825
00000000: d20f 3cbf a572 13bf 0ab6 95be 39b8 1bbf
00000010: 5e00 7dbe 4ee7 57bf 7da0 08bf c719 cdbe
00000020: 6bff 37bf 1e6f 58bf 79e1 70bf 2e68 44bf
00000030: bc42 a7bc 3673 68be cf59 4cbf 105d 6abf

deconv2.1.running_var f4 [16]
0.81745726 0.8664977 0.9092841 0.7013081 0.50927174 1.4679067 1.3317065 0.73332924
0.5534053 2.2191482 1.8644205 0.1187153 0.3138139 1.1431988 0.52775466 0.8028404
00000000: e144 513f cbd2 5d3f d8c6 683f ed88 333f
00000010: a25f 023f 5ee4 bb3f 5c75 aa3f 77bb 3b3f
00000020: f8ab 0d3f 8606 0e40 55a5 ee3f 0221 f33d
00000030: 37ac a03e 5754 923f ee1a 073f f386 4d3f

deconv3.0.weight f4 [16, 8, 4, 4]
-0.055914503 0.016767396 -0.0106741665 -0.091784954 -0.08371484 -0.052727364 0.021854665 -0.01757902
-0.05620375 0.020912347 0.021357553 0.07367186 -0.064647675 -0.033589765 0.035014495 -0.006116623
-0.0074553387 -0.030305116 0.022733795 0.08043947 0.035388492 0.026101172 0.05631265 0.02211325
-0.007264616 0.093935244 0.049385462 0.037908398 0.0013503236 0.06536817 0.0616249 -0.027598182
0.05274595 0.032330185 -0.033340048 0.06335086 0.04901571 0.12782511 0.016092382 0.02715925
0.020221822 0.07114039 -0.052803107 0.067034155 0.01392314 0.02826251 -0.0075024753 -0.009970036
0.029762859 0.096694544 -0.06772331 -0.00017491366 0.0073807593 -0.033859994 0.030392509 0.082259275
0.03637396 0.082026504 -0.021988908 0.07495303 0.030219363 0.028629487 0.019101795 0.02019004
0.032051936 0.052472424 -0.009805782 -0.05000111 0.03459012 0.012572454 0.018300068 -0.0654393
-0.01869725 0.03855263 -0.03384535 0.0055018086 0.003691693 0.019124154 -0.01174025 0.047880422
0.018378988 -0.01883602 0.00077893754 -0.0030092373 0.007807903 -0.008320571 0.015417013 0.06830586
-0.00011362488 0.042681146 -0.03905149 -0.0061733206 0.051492643 0.007591355 0.027866587 0.018851751
-0.029483242 -0.07825194 -0.029295972 -0.06133208 0.042886928 -0.040319182 -0.0044600973 -0.017018473
0.0076957857 0.08140525 0.033139847 0.005949597 0.0034185918 -0.033934493 -0.021332448 -0.047109645
0.040061932 0.07742251 0.032860257 0.030282723 0.022403486 0.097578794 -0.05797858 -0.028870031
0.046871874 -0.07434542 -0.025046315 -0.008600624 0.046524446 0.054960024 -0.030843016 0.03777728
-0.011751317 0.0049954196 0.06259003 -0.08911725 -0.03641317 -0.03448642 0.13438565 0.048861336
0.018717375 0.01017636 0.02985322 -0.011277138 -0.0033096178 -0.035578 0.049383197 0.004875214
0.048193797 -0.092895776 0.0029709712 -0.032767978 -0.029882994 -0.07804248 0.096495844 -0.046510965
0.016143676 -0.005021807 0.00687173 0.013835993 -0.002805656 0.0042718397 0.043877013 0.031200921
0.011259023 0.019669814 0.106533565 -0.0020867086 -0.0029549222 0.0062648905 -0.013577885 0.055628333
-0.016097251 0.035065528 0.0013288768 -0.005811174 -0.018858114 -0.023971042 0.026943693 -0.056828454
-0.07710848 -0.03053379 0.05945471 -0.033945464 0.07821481 -0.047976695 -0.048942003 0.043137483
-0.050499894 0.031276017 0.103083774 0.013473707 0.05219776 0.0046033226 -0.05046468 0.04351529
0.04767109 -0.0005483034 0.023638248 0.052438963 0.07913538 0.05794773 -0.031263143 0.02656086
0.050226796 0.040666956 0.04036101 0.11121388 0.007978382 -0.03266307 0.044841353 0.014730465
0.022378262 -0.06042686 -0.035262465 0.061798386 -0.041551277 0.045104798 0.12085534 0.12969756
0.009309876 0.05300807 0.00261254 0.11561561 0.09396397 0.032050543 0.081058614 0.12081904
-0.032778915 -0.08683337 -0.01844222 0.02602209 0.038198505 0.020537388 0.10815411 -0.00079346576
0.026504753 -0.029172413 0.019735761 0.021491844 -0.002450009 0.0025348673 0.10864242 0.03504875
0.021765215 0.046478458 -0.007814349 0.048838872 0.012826967 -0.019347375 -0.07643328 -0.08226105
-0.048579678 -0.013595139 -0.041997217 -0.06711585 -0.016483745 -0.0140466215 -0.09896802 -0.07675986
00000000: 9b06 65bd c75b 893c b3e2 2ebc c0f9 bbbd
00000010: b072 abbd a6f8 57bd 8e08 b33c e001 90bc
00000020: e735 66bd 5f50 ab3c 09f6 ae3c 46e1 963d
00000030: 0066 84bd 6c95 09bd 5c6b 0f3d f46d c8bb
00000040: ea4b f4bb 6f42 f8bc 393c ba3c 73bd a43d
00000050: 86f3 103d 20d2 d53c 18a8 663d d926 b53c
00000060: 040c eebb 1f61 c03d 6948 4a3d d645 1b3d
00000070: 57fd b03a bfdf 853d 646a 7c3d 9515 e2bc
00000080: 230c 583d a86c 043d 938f 08bd 18be 813d
00000090: b2c4 483d 96e4 023e 2cd4 833c 137d de3c
000000a0: 3ca8 a53c 0eb2 913d 1248 58bd 3449 893d
000000b0: e21d 643c c886 e73c 53d7 f5bb 5d59 23bc
000000c0: 3dd1 f33c ca07 c63d 85b2 8abd 0769 37b9
000000d0: 4cda f13b c7b0 0abd b6f9 f83c 8d77 a83d
000000e0: ddfc 143d 83fd a73d 1522 b4bc f980 993d
000000f0: 998e f73c 6388 ea3c 5e7b 9c3c 9565 a53c
00000100: e448 033d 53ed 563d 6ea8 20bc f7cd 4cbd
00000110: 5fae 0d3d b2fc 4d3c 06ea 953c 0a05 86bd
00000120: fa2a 99bc 5de9 1d3d 6ca1 0abd 8448 b43b
00000130: 55f0 713b 42aa 9c3c 2d5a 40bc 431e 443d
00000140: 888f 963c ff4d 9abc 9d31 4c3a a036 45bb
00000150: 70d9 ff3b 0153 08bc a497 7c3c f1e3 8b3d
00000160: e549 eeb8 6dd2 2e3d 75f4 1fbd 9149 cabb
00000170: f3e9 523d e7c0 f83b 7848 e43c fd6e 9a3c
00000180: d786 f1bc 8e42 a0bd 1bfe efbc 5937 7bbd
00000190: 34aa 2f3d ba25 25bd 0226 92bb 536a 8bbc
000001a0: ee2c fc3b ccb7 a63d a6bd 073d d6f4 c23b
000001b0: 740a 603b e5fe 0abd 63c1 aebc 0bf6 40bd
000001c0: fb17 243d b18f 9e3d 7a98 063d 7913 f83c
000001d0: 8487 b73c 64d7 c73d f37a 6dbd d880 ecbc
000001e0: b9fc 3f3d 6942 98bd ee2d cdbc a2e9 0cbc
000001f0: 6b90 3e3d c31d 613d 7eaa fcbc 59bc 1a3d
00000200: 9988 40bc 9eb0 a33b 342f 803d 1b83 b6bd
00000210: fa25 15bd a241 0dbd 649c 093e d322 483d
00000220: 2e55 993c bfba 263c bd8e f43c bfc3 38bc
00000230: 2ce6 58bb 3dba 11bd 0946 4a3d 42c0 9f3b
00000240: dc66 453d 2440 bebd a0b4 423b b737 06bd
00000250: 2ecd f4bc bcd4 9fbd 9d9f c53d 4882 3ebd
00000260: be3f 843c f88d a4bb 402c e13b 5cb0 623c
00000270: 19df 37bb cafa 8b3b 62b8 333d 1399 ff3c
00000280: c477 383c 9722 a13c 452e da3d 29c1 08bb
00000290: 5ea7 41bb b649 cd3b c775 5ebc 89da 633d
000002a0: 62de 83bc dfa0 0f3d b52d ae3a a96b bebb
000002b0: 557c 9abc eb5e c4bc 05b9 dc3c f4c4 68bd
000002c0: 0deb 9dbd 0022 fabc c886 733d 660a 0bbd
000002d0: 162f a03d 3683 44bd 6977 48bd eeb0 303d
000002e0: fad8 4ebd 481b 003d 961d d33d d3c0 5c3c
000002f0: 52cd 553d 78d7 963b 0db4 4ebd 173d 323d
00000300: c342 433d 05bc 0fba 00a5 c13c 3dca 563d
00000310: bb11 a23d 995a 6d3d c80d 00bd 2996 d93c
00000320: 9dba 4d3d 6592 263d 9651 253d 1ac4 e33d
00000330: c2b7 023c b6c9 05bd 91ab 373d 0c58 713c
00000340: 9e52 b73c 2882 77bd 606f 10bd 4e20 7d3d
00000350: ac31 2abd cfbf 383d 0183 f73d 70cf 043e
00000360: 7388 183c fd1e 593d 2637 2b3b e0c7 ec3d
00000370: 2f70 c03d 6e47 033d 0f02 a63d f96f f73d
00000380: 2f43 06bd b2d5 b1bd 2314 97bc 472c d53c
00000390: 0976 1c3d 063e a83c e77f dd3d 9600 50ba
000003a0: 7f20 d93c fcfa eebc e4ac a13c aa0f b03c
000003b0: 5590 20bb 0420 263b eb7f de3d 478f 0f3d
000003c0: f74c b23c 3260 3e3d c107 00bc 450b 483d
000003d0: 3328 523c 637e 9ebc 0d89 9cbd 7b78 a8bd
000003e0: 7cfb 46bd 25be 5ebc 4605 2cbd 0974 89bd
000003f0: eb08 87bc cd23 66bc bfaf cabd 4634 9dbd

deconv3.0.bias f4 [8]
-0.07025089 0.07691323 -0.053390056 0.04790734 0.025216766 0.062265474 0.03306238 0.06339115
00000000: b3df 8fbd af84 9d3d 88af 5abd 7d3a 443d
00000010: 6493 ce3c 150a 7f3d 6b6c 073d 38d3 813d

deconv3.1.weight f4 [8]
1.2451596 1.2221917 1.2264814 1.2268585 1.2009976 1.2267479 1.2392614 1.1856813
00000000: 6461 9f3f c770 9c3f 58fd 9c3f b309 9d3f
00000010: 4aba 993f 1306 9d3f 1ea0 9e3f 68c4 973f

deconv3.1.bias f4 [8]
0.2424569 0.21562903 0.21973927 0.22214063 0.20255527 0.22014455 0.23507611 0.19166785
00000000: 9f46 783e dbcd 5c3e 5503 613e d578 633e
00000010: a66a 4f3e 936d 613e cbb7 703e 9444 443e

deconv3.1.running_mean f4 [8]
-0.1909121 -0.056945596 0.0685413 0.12036567 0.4105846 0.45291921 0.0342989 -0.13388829
00000000: 767e 43be c93f 69bd 625f 8c3d 4782 f63d
00000010: 2538 d23e 07e5 e73e 017d 0c3d 031a 09be

deconv3.1.running_var f4 [8]
0.07366831 0.054515712 0.08995049 0.06434314 0.047612213 0.059336193 0.07218789 0.06873047
00000000: 69df 963d de4b 5f3d f637 b83d 56c6 833d
00000010: 0605 433d 820a 733d 3fd7 933d 90c2 8c3d

deconv4.0.weight f4 [8, 3, 4, 4]
-0.052960735 0.066758566 0.12424877 0.0597963 -0.047776423 0.07297967 0.08097656 0.017911462
0.0024587568 0.13379711 0.10139084 -0.06339655 -0.06811643 0.020160116 0.18478477 0.0039848313
-0.26842546 -0.2784558 -0.21787156 -0.045712613 -0.09444864 -0.16346508 -0.26830727 -0.026082177
-0.1172184 -0.24141183 -0.13295689 -0.03502377 -0.08552838 -0.11197818 -0.27130422 -0.09513893
-0.07351025 -0.11212874 -0.15012807 -0.17961776 -0.14338635 -0.13913737 -0.2746864 -0.07021129
-0.25247908 -0.14052926 -0.2831952 -0.16170754 -0.16855767 -0.2342203 -0.050072566 -0.20856072
0.17178199 -0.10920464 -0.04171276 -0.103812 0.029087935 -0.013549654 0.11413943 0.058369365
-0.067186125 0.102351345 0.12353351 0.15425174 0.1905469 0.09418966 -0.016531272 -0.051634148
-0.17133959 -0.2576191 -0.033527672 -0.27696258 -0.041677713 -0.07650789 -0.12460019 -0.18361408
-0.26951987 -0.2282749 -0.22737151 -0.124770105 -0.010002584 -0.18314286 -0.16401495 -0.15771903
-0.15234637 -0.1131821 -0.1930681 -0.16919133 -0.11954644 -0.19001423 -0.2764169 -0.2647203
-0.09624985 -0.086509295 -0.2687079 -0.18106262 -0.18825299 -0.2157655 -0.1557594 -0.077045135
0.0001812326 -0.00041386654 0.07728772 0.1301876 0.18447256 0.15214978 0.18892238 0.15872717
0.01290059 0.037377752 0.1936754 0.028774226 -0.02187579 0.0678236 0.11586091 -0.00031555854
-0.2869515 -0.17862818 -0.23349155 -0.099755734 -0.036403242 -0.11868955 -0.17912593 -0.16186842
-0.23860247 -0.27732772 -0.029056085 -0.11164613 -0.17056516 -0.19026263 -0.0570995 -0.29406893
-0.07480402 -0.24155527 -0.09881205 -0.09559109 -0.15157771 -0.10729992 -0.26282263 -0.2716852
-0.10876948 -0.07276926 -0.124129444 -0.12299947 -0.10316413 -0.00496306 -0.08613507 -0.15574332
0.20244536 0.049693037 0.03887127 0.088493966 0.04746599 0.07436142 0.026702208 0.017972616
0.12428759 0.16032659 0.048830785 0.104086116 0.15007313 0.03574985 0.03115201 0.009777159
-0.19081432 -0.18628868 -0.20667496 -0.18550867 -0.093931064 -0.21059479 -0.049251895 -0.13347152
-0.18382694 -0.13418743 -0.04188134 -0.08137143 -0.27126035 -0.06746547 -0.1538794 -0.18003131
-0.26247698 -0.18704262 -0.26041332 -0.23718914 -0.13917406 -0.039993867 -0.1802703 -0.09228251
-0.1391875 -0.2901525 -0.017184902 -0.037619945 -0.25243276 -0.05277423 -0.08612559 -0.27010018
0.23677044 0.20899904 0.23513615 0.07972161 0.17567067 0.12754025 0.054952096 0.14547333
0.14706075 0.036766768 -0.0022134336 0.21752433 0.23917262 0.2582476 0.08141468 0.09675947
-0.22452937 -0.12272168 0.0026012484 -0.2543084 -0.23406644 -0.28163218 -0.08034164 -0.2284053
-0.20459373 -0.03531108 -0.118728355 -0.05716215 -0.06076846 -0.27404174 -0.22644049 -0.19172288
-0.10327449 -0.2604138 -0.19977044 -0.18310525 -0.050995193 -0.22637124 -0.110411935 -0.20960785
-0.2665289 -0.07621683 -0.025721544 -0.19592875 -0.07346262 -0.14083196 -0.0972973 -0.1269804
0.21655719 0.19886339 0.091543 0.2391121 0.084388845 0.10963026 0.11527623 0.011579136
-0.006615166 -0.0022724357 0.093659796 0.1749037 0.20402586 0.1762318 0.0016399453 0.03250154
00000000: 5bed 58bd b7b8 883d 2476 fe3d f7ec 743d
00000010: 36b1 43bd 5d76 953d 0ad7 a53d 0fbb 923c
00000020: 1823 213b 1c02 093e 00a6 cf3d 0dd6 81bd
00000030: a080 8bbd d426 a53c 3838 3d3e 3093 823b
00000040: 106f 89be c291 8ebe b919 5fbe 263d 3bbd
00000050: 4a6e c1bd 6463 27be 925f 89be 4aaa d5bc
00000060: 3310 f0bd aa34 77be da25 08be 1675 0fbd
00000070: 8129 afbd d154 e5bd 63e8 8abe 33d8 c2bd
00000080: 8b8c 96bd c1a3 e5bd 2cbb 19be b8ed 37be
00000090: dfd3 12be 077a 0ebe b2a3 8cbe f0ca 8fbd
000000a0: f044 81be e7e6 0fbe f6fe 90be a996 25be
000000b0: 629a 2cbe 72d7 6fbe e418 4dbd f190 55be
000000c0: 9ee7 2f3e afa6 dfbd 00db 2abd 639b d4bd
000000d0: d249 ee3c 5eff 5dbc efc1 e93d b714 6f3d
000000e0: e198 89bd 959d d13d 23ff fc3d 2bf4 1d3e
000000f0: ba1e 433e 82e6 c03d 976c 87bc 547e 53bd
00000100: a573 2fbe a7e6 83be 5054 09bd 0ace 8dbe
00000110: 40b6 2abd 2bb0 9cbd 622e ffbd 5405 3cbe
00000120: 82fe 89be e5c0 69be 14d4 68be 7887 ffbd
00000130: e1e1 23bc cd89 3bbe 89f3 27be 1981 21be
00000140: b000 1cbe 04cc e7bd a5b3 45be 7e40 2dbe
00000150: c4d4 f4bd 1793 42be 8486 8dbe 6b89 87be
00000160: a41e c5bd c92b b1bd 1594 89be 7b68 39be
00000170: 64c5 40be a2f1 5cbe 647f 1fbe d7c9 9dbd
00000180: 4109 3e39 3afc d8b9 0649 9e3d e64f 053e
00000190: 60e6 3c3e 27cd 1b3e de74 413e 6089 223e
000001a0: ff5c 533c 6a19 193d d852 463e edb7 eb3c
000001b0: db34 b3bc 19e7 8a3d 7c48 ed3d 8d71 a5b9
000001c0: 4feb 92be 4eea 36be 6918 6fbe bc4c ccbd
000001d0: 911b 15bd 8213 f3bd ca6c 37be d6c0 25be
000001e0: 3554 74be e6fd 8dbe 0707 eebc baa6 e4bd
000001f0: a2a8 2ebe 35d4 42be 2ae1 69bd 3490 96be
00000200: da32 99bd 445a 77be f95d cabd 43c5 c3bd
00000210: 3037 1bbe 0fc0 dbbd b090 86be 531a 8bbe
00000220: 88c2 debd 0d08 95bd 9437 febd 25e7 fbbd
00000230: b747 d3bd 2aa1 a2bb 9567 b0bd 2d7b 1fbe
00000240: d64d 4f3e ed8a 4b3d 7b37 1f3d 533c b53d
00000250: b36b 423d cd4a 983d 97be da3c 4f3b 933c
00000260: 7e8a fe3d a72c 243e ca02 483d 1a2b d53d
00000270: c5ac 193e 6f6e 123d 8032 ff3c 6130 203c
00000280: d464 43be 76c2 3ebe 9aa2 53be fcf5 3dbe
00000290: ee5e c0bd 29a6 57be 5bbc 49bd c2ac 08be
000002a0: 213d 3cbe 6e68 09be c58b 2bbd 10a6 a6bd
000002b0: a3e2 8abe 562b 8abd 9092 1dbe 215a 38be
000002c0: 6263 86be 1a88 3fbe e554 85be b6e1 72be
000002d0: a583 0ebe 9cd0 23bd c798 38be 9dfe bcbd
000002e0: 2b87 0ebe de8e 94be 5ac7 8cbc 5f17 1abd
000002f0: de3e 81be ca29 58bd 9d62 b0bd 924a 8abe
00000300: f373 723e d803 563e 88c7 703e 1545 a33d
00000310: 03e3 333e e999 023e 7315 613d f6f6 143e
00000320: 1897 163e c098 163d 410f 11bb b3be 5e3e
00000330: abe9 743e 0839 843e bdbc a63d d429 c63d
00000340: 07eb 65be 8155 fbbd b579 2a3b b634 82be
00000350: 1daf 6fbe 1832 90be 288a a4bd 14e3 69be
00000360: 0581 51be 5aa2 10bd da27 f3bd dc22 6abd
00000370: 59e8 78bd 334f 8cbe 04e0 67be 0153 44be
00000380: 9381 d3bd f554 85be 9f90 4cbe f17f 3bbe
00000390: 56e0 50bd ddcd 67be a71f e2bd 71a3 56be
000003a0: 7a76 88be 9217 9cbd fdb5 d2bc 8ca1 48be
000003b0: 9273 96bd 4136 10be cf43 c7bd 2607 02be
000003c0: 2bc1 5d3e d8a2 4b3e e57a bb3d cdd9 743e
000003d0: 0fd4 ac3d d485 e03d f215 ec3d 6bb6 3d3c
000003e0: 09c4 d8bb 25ed 14bb b5d0 bf3d f519 333e
000003f0: 28ec 503e 1c76 343e 6ff3 d63a 5620 053d

deconv4.0.bias f4 [3]
-0.1091009 -0.021264007 -0.06276989
00000000: 4b70 dfbd db31 aebc 808d 80bd
