03_hw/Pix2Pix/checkpoints/pix2pix_model_epoch_310.pth (torch, 99191 bytes, 32 tensors)

conv1.0.weight f4 [8, 3, 4, 4]
00000000: 002f dabd 68f9 efbd 8833 68bd d515 44be
00000010: 44a0 5a3d 0603 dfbd db82 b8bc c1ef 873d
00000020: 7614 12be b8fc 41bd 9612 1abb 326d 1f3d
00000030: 9407 8fbc 24c2 9a3d a134 923d 0567 0bbe
00000040: c1ae 053e c5a3 403e 43c5 643d f133 46bc
00000050: 0e5e ff3c 275d f6bc 5d5a a1bd 2ca8 503d
00000060: 65a4 f03d 7158 503d bd8a 273d 5f15 31bd
00000070: 8852 91bd 755e f33c baa1 84bd a0dc 283e
00000080: a492 d5bd 1311 2c3d 0716 15be 296f 513d
00000090: f6d6 e2bd 4e8e dabd bffb 79bb be05 f0bd
000000a0: 6366 d63c 9a11 c6bc 4f46 b03a 68c0 17bd
000000b0: 947a 2fbd b21a 3a3d 0d72 963d a5de 3a3d
000000c0: e1ab 90bd 0d22 8d3d c1e0 9bbc 1d47 9cbc
000000d0: 7f9c 9abb 4021 e73d e92f 0a3d 7af1 3abc
000000e0: 08de 143e c856 b23d 6bd8 cdbd b1c6 94bd
000000f0: d8f2 0e3d 463d 023e c35d f5bc 7509 aabc
00000100: 41f8 23bb 62ba 0a3e a196 433c c356 abbd
00000110: 3a56 3abd f767 9cbd 18de 1d3d cdc6 01bd
00000120: 7817 fd3c 85ee 0bbc 8b00 183d 8cc3 01be
00000130: 5b43 803d 1e7d dbbc 83f9 783d 1ab1 c03d
00000140: b2bb 983a 12b2 81bd 31b6 433d b8fb 05be
00000150: cf32 6abd 59bd a93d 9b30 95bd b576 863d
00000160: a792 c1bb a593 9abb de53 95bc 82f3 a93b
00000170: ea17 80bd 88fc bdbd bbfe ecbc 8dcf c2bd
00000180: d31e 05be a2c7 6a3d 103c 363c 98ee 6abd
00000190: dc88 a03c 160c 9bbc 2174 833d 106e 0f3e
000001a0: e9ff 9abd bc20 3e3d fadb e1bd 0367 4bbd
000001b0: 936c 193e ab8c 163d cd21 1e3d 6493 72bd
000001c0: 8dcd 6cbd 66c4 883b 2a5a c83d 7201 e3bd
000001d0: 373c 0b3e 2ded edbc 087a fb3b f8b4 053e
000001e0: b38c ea3c 4794 8d3d 5356 bfbd b43e dfbd
000001f0: 5fee f73c 0247 0f3d e5db 2fbc b212 e33d
00000200: 9b07 d8bd 327d c03d f611 97bc 61ce 2b3d
00000210: 015c 8f3c a98e 893d 1a19 b13d 8a6b c7bb
00000220: 9e92 953d 31ed 2a3e 2ab2 fe3d 0cc7 a53d
00000230: c57b bcbd 8003 033d 6d50 d83d 4e3a fd3d
00000240: c085 773d 165c e63d 39ee 313e 82d7 543d
00000250: 64d6 673b cb65 52bd 8f51 13bb 5c62 53bd
00000260: 05d1 183d 38db 8abd 77bb 123e 2e1b 67bd
00000270: 75b4 5b3d cd51 ea3d 892e d53d 3c94 22be
00000280: a4d5 e0bd 6b1f ae3d aa20 203e abd4 c73c
00000290: adb5 853d f704 c43d 85d5 8fba 27e5 2cbd
000002a0: 7ceb c2bd 59bf b7bd 71a9 8a3d f22a cd3d
000002b0: 4068 b4bd 455d 6bbd bdfa 57bc 3e82 b2bd
000002c0: e582 a83d e97d 32be 7933 a43c c4ad f83c
000002d0: dd4d 62bd 3e08 e5bd bf6a 2fbd d090 803c
000002e0: bdbb ecbd 5ac2 dd3d c6f5 a0bd 44aa e23d
000002f0: 1097 6abd 0bde 23bd b320 dcbd 873f 013e
00000300: 8fa5 b4bd 67ee 0fbe 3624 303d 49a5 423d
00000310: 16af 0a3e fe85 90bc 4d3c 08bb dfca 0cbe
00000320: 8505 bc3d 408f c5bd 5f7c c33d 3065 1a3d
00000330: 421d 453d 7f7b 43be c301 e8bd 1345 09bd
00000340: b9b6 b9bc 7402 7e3d 5a50 323d 1291 c53d
00000350: ef3b bfbd a70a 9bbd 7984 aaba d637 ad3d
00000360: f9b8 febc 0d27 07be 0cac 47be 75f9 68be
00000370: 890a dabd d524 a8bc 6d21 47be 0048 013d
00000380: f9e0 df3d 5e1e 783c e788 7d3d 38bf d8bd
00000390: 0a5c 923d 1bd9 79bd 4b5c be3d 82df 96bd
000003a0: 19a9 6cbd eb6d b63d 4bb5 5fbd 8853 853d
000003b0: cc35 cc3d 192e f33c cef4 83bb 06c0 65bd
000003c0: 897b 1e3d 5961 edbd 9c9c 8cbd 2380 2dbd
000003d0: 64da 64bd a23e c6bd df62 f63d 8b5a af39
000003e0: c99f cd3d 5091 823c 0715 c43d 6fa8 e4bd
000003f0: 94c1 23bd bf71 df3d 8d52 003e c821 6e3d
-0.10653496 -0.11717492 -0.05668977 -0.19148953 0.053375497 -0.108892485 -0.022523334 0.06637526
-0.14265618 -0.047360152 -0.0023509613 0.038922496 -0.017459668 0.07556561 0.071389444 -0.13613518
0.13054945 0.18812473 0.055852186 -0.012097345 0.031172778 -0.030073715 -0.078785636 0.05094163
0.11750106 0.050865594 0.040903796 -0.04323327 -0.0709582 0.029708127 -0.064761594 0.16490412
-0.1042836 0.04200847 -0.14559184 0.0511314 -0.11076157 -0.10671674 -0.0038144437 -0.11719845
0.026171869 -0.024178315 0.0013448688 -0.037048727 -0.04284151 0.045435615 0.07345972 0.045622487
-0.07064033 0.0689126 -0.01902807 -0.019076878 -0.004718363 0.11285639 0.033737097 -0.011410112
0.14537823 0.087079585 -0.10051044 -0.0726446 0.034899563 0.12718686 -0.029951936 -0.020756463
-0.0025019797 0.13547662 0.011937768 -0.08366158 -0.04549239 -0.07637017 0.038541883 -0.03168373
0.03089498 -0.008540754 0.037109893 -0.12672251 0.06262847 -0.026793059 0.060784828 0.094087794
0.0011652617 -0.06332792 0.047781173 -0.13084304 -0.05717736 0.08288068 -0.072846614 0.0656561
-0.005907375 -0.0047173076 -0.018228468 0.005186499 -0.06254561 -0.09276682 -0.028930059 -0.095122434
-0.1300004 0.05731929 0.011122718 -0.057356447 0.01959651 -0.018926661 0.06418634 0.1400683
-0.07568342 0.046417937 -0.11028285 -0.049658787 0.14982824 0.036755245 0.038606454 -0.059222594
-0.057813216 0.004173803 0.097828224 -0.1108426 0.13597189 -0.029043758 0.0076744594 0.13057315
0.028631544 0.06913047 -0.09342637 -0.109006315 0.030265031 0.034979828 -0.010733579 0.1108755
-0.10548326 0.09398879 -0.018441182 0.041944865 0.017499926 0.067166634 0.08647366 -0.0060858177
0.07303356 0.16692044 0.12436326 0.08094606 -0.09203295 0.03198576 0.10562215 0.12364636
0.06043029 0.11248033 0.17376031 0.051963337 0.003537559 -0.05136661 -0.0022479033 -0.051607475
0.03730871 -0.06780094 0.14329325 -0.056422405 0.053638894 0.114413835 0.104092665 -0.1587686
-0.10978249 0.08502086 0.1563746 0.0243934 0.065287925 0.095712595 -0.0010973668 -0.042210724
-0.09517571 -0.089720435 0.067706 0.10017957 -0.088089466 -0.057461996 -0.013182339 -0.08716248
0.08228091 -0.17430843 0.020044075 0.030356295 -0.055250037 -0.11183213 -0.04282641 0.015694052
-0.11559246 0.10828085 -0.078593776 0.11067632 -0.05727297 -0.04000668 -0.107484244 0.1262189
-0.0882064 -0.14055787 0.043003283 0.04752091 0.13543352 -0.017642017 -0.0020787895 -0.13749264
0.0918074 -0.096464634 0.09545206 0.037694156 0.048123606 -0.19090079 -0.11328461 -0.03351314
-0.022670137 0.06201406 0.04353366 0.096468106 -0.09337603 -0.07570391 -0.0013009451 0.084579155
-0.031094061 -0.1319849 -0.19499224 -0.2275141 -0.10646541 -0.020525375 -0.19446345 0.031562805
0.10931582 0.015143959 0.06189814 -0.10583347 0.07146461 -0.060998064 0.09294947 -0.073668495
-0.05777845 0.08907684 -0.054616254 0.06510073 0.099711984 0.029685067 -0.0040269857 -0.05609133
0.03869203 -0.11590833 -0.06865808 -0.04235853 -0.055872336 -0.09679915 0.12030577 0.0003344606
0.10040242 0.015938431 0.09574323 -0.11164939 -0.039979532 0.10910367 0.1253149 0.058137685

conv1.0.bias f4 [8]
00000000: 6a2c 083e 7726 793b 1082 0fbd ec1e fe3d
00000010: 55ea 913d 6098 cd3d 3510 debd 210e 3bbc
0.13298193 0.0038017312 -0.035036147 0.12408242 0.071247734 0.10038829 -0.10842935 -0.011416943

conv1.1.weight f4 [8]
00000000: ccc1 803f 2aeb 7a3f b65f 7e3f 0a26 753f
00000010: cdac 803f b231 753f 1079 823f 193c 883f
1.0059142 0.9801508 0.99364793 0.9576117 1.0052735 0.95778954 1.0193195 1.064334

conv1.1.bias f4 [8]
00000000: 1f64 323b 767d 3bbd fad3 f7bc bfda a2bb
00000010: 4790 12bc c7bc 9f3d e732 31bd ebae c53d
0.0027220321 -0.045773946 -0.030252445 -0.004969924 -0.008945531 0.07799678 -0.043261435 0.096525036

conv1.1.running_mean f4 [8]
00000000: 4619 513e dbbe ebbc faf8 d0bd dacb 723d
00000010: 7707 423e b4e6 9d3d 9a98 e9bd 2269 2abc
0.20419797 -0.02877753 -0.102037385 0.05927644 0.1894816 0.07710019 -0.114060596 -0.010401042

conv1.1.running_var f4 [8]
00000000: ed9c 5a3d 3a9f 643c b1b9 803e d822 c73c
00000010: 0368 2b3e 17fc 0b3d 245a a43c 3f7a f73c
0.053372312 0.013953978 0.2514167 0.024308607 0.16738896 0.03417596 0.020062514 0.030209659

conv2.0.weight f4 [16, 8, 4, 4]
00000000: 497a 923d 74d7 c83d 6173 003d 2f33 423d
00000010: 4e4c a1bd 5d20 973d 7529 43bd 2f90 923d
00000020: 73d4 9dbd b366 8b3d cbc1 563d 5c84 8a3c
00000030: 4ce9 e3bc 9f3d cbbd d460 cfbd 62ed 9c3c
00000040: 6e5a 86bc a7a6 b83d 5649 8f3d 2a80 d3bc
00000050: 1aad 5d3d 1fdd 97bd 8a6d f23c 527e ebbc
00000060: 708d cc3c 58eb 143c 0003 5dbd 944d c73c
00000070: a5c8 183d f0db ec3c 1a3a ccbc c011 b5bd
00000080: dab1 2ebd 8037 9a3c 1b57 2f3d 6c34 1cbd
00000090: 7475 afbd ca4a 96bc de30 07bc bd61 403d
000000a0: 9249 0ebd 1288 8abd 2403 39bc 7849 cfbc
000000b0: 4c2f d4bd 8149 babd c322 9bbd 66b2 bfbd
000000c0: 5b33 3f3d 50b2 bdbc a06c 213d 99a5 7d3c
000000d0: 506f c53c f8e0 ec3c c5f2 5fbd 79d9 3abd
000000e0: ee21 4a3b 739b e4bc 0f26 2f3c 93ab f2b9
000000f0: 97c4 aa3d 67b5 a6bc b56d ef39 be40 b7ba
00000100: 6e5a 7c3d d3fa dbbc 9dda 913b 131f 3d3d
00000110: 3bc2 223d a830 f23a 27c0 cd3d 0af9 21bc
00000120: 562b 583d c455 09bd 4cc7 a73d 02f8 4c3d
00000130: 9ae9 9fbd ece9 dabc 634e 5dbd c27a 25bd
00000140: c8ed a9bd 37c0 c4bd 1aa1 bf3b 5aa2 6eba
00000150: 8b38 f9ba 6b97 a7bc 053f 203d 6201 233c
00000160: 7166 853b 0746 893d aa16 403d 0087 953d
00000170: 69e8 50bb ff67 213c 1f51 90bd 8f92 353c
00000180: 533b 953d a95d 37b9 7eff b23d 9f9c 473d
00000190: 57f1 a13d e2e1 133d 9589 b93c 8b32 493d
000001a0: a404 97bc c635 f23c ccf8 67bc a046 6b3d
000001b0: d5a7 a7bb 3984 c73d 8e86 e73c 5412 b83d
000001c0: 1428 b8bb bba6 933c a8c9 f9bc b892 293c
000001d0: 88c0 13bd 4ee2 65bb 6ac4 e9bc 0125 e6bc
000001e0: 25aa 973d e07d a73c 594e 513d 08ca 433d
000001f0: 6e84 5e3d a56a f9bb e740 693d 92c6 05bd
00000200: 6bcb df3c f683 ff3b 29ed eebc e698 6fbd
00000210: f983 40bd 3f46 94bd 30a0 15bd 5c0b 9f3d
00000220: a1bf 5e3d 5dfc 393b 5ae9 c4bb e418 953d
00000230: b832 5cbd 7dba 7fbb 5dd4 be3d ede4 44bd
00000240: adbf 9e3c 841a f43c e78a 4bbd 479c 9cbd
00000250: af11 babd b68f 51bd 624d acbd 374e 0fbd
00000260: 3162 743c 08de 41bd 7213 773d 16bc f03c
00000270: 6aab 043b 57c4 0dbd 53cf a03d e393 e73d
00000280: 30d6 c9bd 6f97 e2bc 8ba7 873d 377c aabc
00000290: e6d0 883d 11ed 0f3d 319a 303d eedc 7cbd
000002a0: e05b a33c 1580 3cbc 84b1 b0bd acb3 0e3d
000002b0: 8328 763c a923 62bd 6f06 9c3c 55a7 7b3d
000002c0: 8656 b8bc 4cfe e0bc 13e9 cf3d b296 c9bb
000002d0: a439 4dbd 5c82 14bd dce8 52bd 5519 053d
000002e0: 1ce5 ecbc 606f 88bd 69ca a2bd 08eb f53b
000002f0: 94c6 8dbd dcac 603a 4409 133d ed61 9cbc
00000300: f4af e6bc abde 82bd adde acbb dc98 313b
00000310: 08d4 99bc c38a 2c3d 82e6 0b3d a300 55bd
00000320: 16cb 7cbd 3e2d 86bd ef1e a1bd bca8 433d
00000330: a468 1fbc ed8f e7bc f9b4 c43d 4ab7 10bd
00000340: 0d6f e6bc 8cc5 12bd f7db 97bd f29a 57bd
00000350: 45b1 153d 812c 19bd c3a7 b8bd e918 f4bd
00000360: b478 a13c c580 2cbd 0418 00bd 7560 a8bc
00000370: 3a8f 693c 1551 8abd 1fe9 27bd df27 643c
00000380: f6ba ae3c 05ab c23b 6879 e4bc 62d1 9b3d
00000390: 1f7f 503d 5194 4bbd 7df1 2ebd 0fde a33c
000003a0: 4b22 adbd 360a 6fbc 7edb 34be 5819 76bd
000003b0: f62a 483b ba2e 95bd 71f7 b3bd 255d b63c
000003c0: 9749 c63c b1e9 72bd aeb4 d83b b7d1 2cbc
000003d0: f4bc 21be 0f8d 0fbe c839 c2bd dd66 933c
000003e0: 9d78 f9bc 7c9e 5abe 07a0 01be a4ae 8fbd
000003f0: affd 19bc e1b1 b8bc b1b7 88bd 917d 0b3d
0.0715223 0.098067194 0.031360034 0.047412094 -0.07875882 0.0737922 -0.04764696 0.07156407
-0.07706537 0.06806698 0.05243091 0.016908817 -0.027821206 -0.09923863 -0.101258904 0.019156162
-0.016400542 0.090161614 0.069964096 -0.02581795 0.05412016 -0.074152224 0.029593248 -0.028746758
0.024969786 0.009089313 -0.05395794 0.024328984 0.037300725 0.028913468 -0.024930049 -0.08841276
-0.04265008 0.018825293 0.04280768 -0.03813593 -0.08567324 -0.01834621 -0.008251397 0.04696821
-0.03473813 -0.067642346 -0.011292253 -0.025303587 -0.10360584 -0.09096051 -0.0757499 -0.09360199
0.046679836 -0.023156315 0.039410233 0.015481376 0.02410093 0.028915867 -0.054674882 -0.045617554
0.0030842978 -0.027906155 0.010690226 -0.0004628567 0.08338278 -0.020350171 0.0004566737 -0.0013981087
0.061609678 -0.026853 0.0044511096 0.046172213 0.039736014 0.0018477635 0.10046416 -0.009886036
0.052775703 -0.033529058 0.0819231 0.050041206 -0.07808228 -0.02672287 -0.054029834 -0.040400274
-0.08297306 -0.096069746 0.005848062 -0.0009103172 -0.0019014044 -0.020457944 0.0391226 0.00994906
0.00407105 0.0670281 0.046896614 0.0730114 -0.0031876808 0.009851455 -0.070467226 0.011082306
0.07286706 -0.00017487131 0.087401375 0.04873335 0.0790736 0.03610409 0.022648612 0.049120467
-0.01843483 0.029566657 -0.014158439 0.0574404 -0.0051164427 0.09742016 0.028262403 0.08987871
-0.005620012 0.01802384 -0.030491665 0.010349922 -0.036072284 -0.0035077515 -0.02853604 -0.028093817
0.07405499 0.020445764 0.05110011 0.047800094 0.054325514 -0.00761159 0.05694666 -0.032660075
0.027318677 0.0077977134 -0.029165821 -0.058495425 -0.04700086 -0.07239961 -0.03652972 0.077658385
0.05438197 0.002837918 -0.006009263 0.07280138 -0.053759307 -0.0039021068 0.09317849 -0.048069883
0.019378508 0.0297978 -0.049693014 -0.07646995 -0.09085404 -0.051162444 -0.08413197 -0.0349867
0.014915989 -0.047330886 0.06032128 0.029386561 0.0020243772 -0.034611072 0.07852044 0.11307504
-0.09855306 -0.0276601 0.06623753 -0.020811183 0.06680469 0.035138194 0.0431158 -0.061734132
0.01994127 -0.0115051465 -0.086276084 0.034839317 0.015024307 -0.05520979 0.019046037 0.061438877
-0.022502195 -0.027465008 0.10151877 -0.0061519975 -0.0501038 -0.036257133 -0.051491603 0.03249486
-0.028917842 -0.06661868 -0.07948763 0.0075048245 -0.069226414 0.000857068 0.03589751 -0.019089663
-0.028160073 -0.06390127 -0.0052755685 0.0027099168 -0.018777862 0.04212452 0.034155376 -0.05200256
-0.061717115 -0.06551598 -0.07867228 0.04776834 -0.009729538 -0.028266871 0.0960483 -0.035331048
-0.028129125 -0.035832927 -0.07415002 -0.052638 0.03654601 -0.037395958 -0.09016373 -0.11918814
0.019710876 -0.04211499 -0.031272903 -0.020553807 0.014255339 -0.067537464 -0.040993806 0.013925522
0.021329384 0.0059407973 -0.027889922 0.07608296 0.050902482 -0.049701992 -0.04271077 0.020003347
-0.084538065 -0.014589837 -0.17661855 -0.060082763 0.0030543185 -0.07284303 -0.0878743 0.022261212
0.024205012 -0.059304897 0.0066133356 -0.010548047 -0.15794736 -0.14018653 -0.09483677 0.017993385
-0.03045302 -0.2134952 -0.12658702 -0.07015732 -0.009398862 -0.022545757 -0.06675661 0.034055296

conv2.0.bias f4 [16]
00000000: a626 b2bd 883e aa3d 5706 883d 9da7 44bc
00000010: c83a 10bd 7440 de3b 7955 13bd 39a4 6fbd
00000020: 8de8 a7bc 1768 2c3d 0f75 72bd 0ff2 07bd
00000030: c572 32bd 494b adbd 3401 8d3d d384 93bd
-0.08698778 0.08312708 0.06641834 -0.012002853 -0.03521231 0.0067825858 -0.035970185 -0.058506224
-0.020496631 0.042091455 -0.059193667 -0.03318983 -0.043566484 -0.08461625 0.06884995 -0.072030686

conv2.1.weight f4 [16]
00000000: 55f6 783f 31ee 873f f549 7b3f 7144 7c3f
00000010: f376 7d3f e7d0 7a3f 2721 803f 2119 833f
00000020: 2b06 753f 8d37 803f d0e9 803f 506d 813f
00000030: e874 8a3f e91f 7e3f 7a28 803f d714 803f
0.9725087 1.0619565 0.98159724 0.98541933 0.9900963 0.9797501 1.0010117 1.0242044
0.95712537 1.0016953 1.0071354 1.0111485 1.0816927 0.9926744 1.0012352 1.000636

conv2.1.bias f4 [16]
00000000: 8a6c f6bb d94c abbb f9ba 213c 477b 9dbd
00000010: 8708 d4bb 653a 1ebd 5b35 f1bc d0cc 15bd
00000020: d93c efbc 6a38 a23c 5b82 2d3c 894f 61bc
00000030: fc9f 17bd 1f1b 943c 62fb ae3c 0d9b 93bb
-0.007520263 -0.005227667 0.009871238 -0.07689529 -0.006470743 -0.038629908 -0.029444387 -0.036572278
-0.02920382 0.019802291 0.010590161 -0.013751873 -0.037017807 0.018079339 0.021360103 -0.0045045675

conv2.1.running_mean f4 [16]
00000000: edf3 a93d 6000 54bf 1bbc 51be 9f42 8b3f
00000010: f177 48be a69c 4dbe aa14 7cbc e83e 223d
00000020: def9 2bbe 598e 2dbf 9276 13bc efd6 0a3f
00000030: bae0 61bd 159d edbe 1be8 8c3d 1e3b 0a3e
0.08298478 -0.8281307 -0.20481913 1.0879706 -0.19577004 -0.20079288 -0.015385786 0.039610773
-0.16794536 -0.6779533 -0.009000437 0.5423421 -0.055145957 -0.46408907 0.06880208 0.13499114

conv2.1.running_var f4 [16]
00000000: 26d2 833e 3590 b83e 8a89 093f e365 b03e
00000010: 6156 643e 47a2 ed3d f283 983d a6c5 413e
00000020: 1171 f43e ee1c d53e 7e91 303e d67b 5d3e
00000030: 3b72 ca3e cf49 753e c59d 6a3e 905e 893e
0.25746268 0.3604752 0.5372549 0.34452733 0.22298576 0.116032176 0.074470416 0.18923053
0.47742513 0.41623634 0.17243001 0.21629271 0.39540276 0.23953937 0.22911747 0.26829958

conv3.0.weight f4 [32, 16, 4, 4]
00000000: a172 b83c bb23 39bb 7e64 69bd 7697 86bd
00000010: 703f 43bd 249d c039 9c06 903b 7a3b 6fbc
00000020: 58e3 1cbd c04c 65bc a5ac 08bb ab9d 3cbd
00000030: 2c87 11bd 34ea fd3c e0a5 df3c 94c9 283c
00000040: c93c 99bd fafc e1bc 5435 c2bb 8c7d e23b
00000050: eb56 97bc e547 efbc 3a0c 173d c4f7 1fbd
00000060: eada 31bd 273f 85bd 490b 89bc a5fa 563b
00000070: 2794 01bd df54 013c 7dc3 2fbd b37d 7abd
00000080: 9c08 4f3d b2cb abbb f357 4dbb c148 e73c
00000090: 125b 8c3c a8a0 5fbc 96b7 ee3b a5f2 6c3d
000000a0: 0597 1b3c 31df 353d 8ff8 5b3c 9dee cdbb
000000b0: 910a b93b 98a8 933c 31ad a73c 3182 423c
000000c0: b55c 2cba d050 23bc 84de 07bd 0db0 87bd
000000d0: ed71 20bc ab63 613d f919 febc 8ca7 1cbd
000000e0: 7ac7 bc3c 4de8 f8bc 6615 2abd 909d 5bbd
000000f0: 17f1 223d 9e0c fdbc 43f5 353d 1b3e 79bd
00000100: 9644 473d 1b69 693c c53b e93c d2b0 d13c
00000110: 4271 c93b 59f3 053c 405a 123d 7f19 5fbc
00000120: 23ea ebbb cfc1 c8bc 2de3 85bc 5686 de3c
00000130: fef7 44bd a5da 743d 1867 1ebc 3e76 f8bb
00000140: 725a 88bb 9ef9 163d 2766 803c f228 74bc
00000150: 46c2 f2bc 932a 0d3d d57b 063c 59b0 cf3b
00000160: d0f6 6e3d 9595 e4bc 4e4a 703c b272 e83c
00000170: cd43 cfbb 837f 4ebd 084c 4dbb f7e2 fdbc
00000180: 81a0 913d f173 243d 36c7 3bbb 3e6b 2fbc
00000190: 968b ee3c 5626 d038 6ddb 2dbd 6128 6dbc
000001a0: 3eb9 e53c b4aa 7fbd 1926 81bd 216b a0bc
000001b0: d70d 413d 3798 b6bc 4ec2 22bd 0ded 953c
000001c0: 1841 1c3c c4d3 4f3d d3e5 5cbd 5026 7abd
000001d0: 36ec 813d 3d29 cfbb eeb6 4dbd 0661 1dbd
000001e0: 18ca 8bbd 6e56 b43b 22ab 9cbd 5f2b ecbd
000001f0: c4e7 e4bb 4315 913d 67bc bb3a 0ae0 55bd
00000200: 14a3 c7bb 9a48 50bd 082f e7bc 183a 35bd
00000210: 248a 18bc fbe1 303d 7800 7cbc d065 d9bc
00000220: b229 3fbd 355f 95bc 5545 60ba b7b0 4fbd
00000230: a1aa 10bd 8bc0 e83c 9e94 213c 4c9c 9abd
00000240: c98f 94bc bf55 023d 4b1c 2b3d b1d9 34bd
00000250: 452f cfbb e0f1 5bbd d4c0 cbba d75d 20bd
00000260: 0c36 5bbd b98d 42bd 4f5c 43bc 07e9 873d
00000270: 2955 723c cc53 d73c 55bc 47bd b4f4 90bd
00000280: ca40 3d3d 8aad a33d 45ad d73b a5f7 193d
00000290: 672d a2bc effb 433c 9711 b3bb 04ab 4b3c
000002a0: 1efd 893d 2a65 373d 64aa 223d 3167 03bd
000002b0: 7637 2e3d 8126 22bd 5ada 983c b1d4 e93c
000002c0: 1e60 693c 2dd9 353d eaa2 c5b9 5ab2 99bd
000002d0: 6d49 cfbb 94a7 ae3c 98bc a9bd 1af6 76bd
000002e0: 0d7d 8a3d 3ac2 e73c 53c8 333d 48d1 513b
000002f0: 8361 513d 73f7 32bd 2ef1 6ebd ddf6 043b
00000300: 7ed6 20bd 9b3d 1d3c ccc0 373d e128 a7bd
00000310: 2d1a e23c 0e3c 66bc c088 29bd 62ec b0bd
00000320: 09c5 94bc 877c b5bd 03dd 26bd 2280 02be
00000330: 23a4 6cbd c017 3f3d 2914 5ebd fc47 4dbd
00000340: 7084 543d 5072 2a3c 32de 103d ae7a f3bc
00000350: 122e a63c aac9 3e3b b656 ffba 1e47 f5bc
00000360: 464d 063d 74aa 063d ff30 103d 0f9f 4fbc
00000370: afcf 92bc 03ab 9abd 2a43 103d d712 2ebc
00000380: 9442 923d 6680 623d 5032 1fbd 136f fbbc
00000390: 87e2 bb3c 7897 48bd d4bf 0fbd c970 d73c
000003a0: a6b9 0d3c 6216 393d ad3f 483d 1d47 49bd
000003b0: 6af3 0dbd e1a3 373d 44d0 8abd 4dc8 2ebc
000003c0: f083 12bc ea08 1f3c d972 a73c f9c9 113b
000003d0: 0b1b 853d 0e53 d8bc f513 2f3d 90fc 353d
000003e0: 3f14 2e3d 683c 403d 1faf 96bd 9e94 b2bd
000003f0: 7574 08bd 8444 b4bb 7076 6ebd d9ac 67bd
0.022515597 -0.0028250057 -0.056980602 -0.06571858 -0.04766792 0.00036738173 0.004395319 -0.014601583
-0.03830275 -0.013995349 -0.0020854857 -0.0460488 -0.0355293 0.030995466 0.027300775 0.010301966
-0.07482297 -0.027586449 -0.0059267674 0.006911939 -0.018474063 -0.029209087 0.036876895 -0.039054647
-0.043421663 -0.06506186 -0.016729014 0.0032803204 -0.03163543 0.00789377 -0.04291104 -0.061155032
0.05054532 -0.0052427882 -0.003133294 0.028232934 0.01713327 -0.013649143 0.0072850687 0.05784859
0.009496455 0.044402305 0.01342596 -0.0062845484 0.0056470116 0.018024728 0.020468326 0.01187186
-0.0006575094 -0.009967998 -0.03317119 -0.06625376 -0.009792787 0.05502669 -0.031018244 -0.038245723
0.023044337 -0.030384207 -0.041524313 -0.05361706 0.039780702 -0.030889805 0.044423353 -0.060850244
0.048649393 0.0142462505 0.028470883 0.02559701 0.0061475346 0.008175694 0.0357306 -0.013616919
-0.007199542 -0.024506478 -0.016343677 0.027163666 -0.048088066 0.05977883 -0.009668134 -0.007582455
-0.0041611725 0.036859147 0.01567371 -0.01490234 -0.029633652 0.03446443 0.008208235 0.006338161
0.058340847 -0.027903358 0.014666153 0.028375003 -0.006325221 -0.050414573 -0.0031325836 -0.030992014
0.07110692 0.040149633 -0.0028652675 -0.010706721 0.029119294 9.9253535e-05 -0.04244559 -0.014474959
0.028042432 -0.062418655 -0.06306095 -0.019582333 0.04713234 -0.022289379 -0.039736085 0.018301511
0.009537004 0.050739065 -0.053930115 -0.061071694 0.06343882 -0.0063220547 -0.050223283 -0.038422607
-0.06825656 0.0055034673 -0.076498285 -0.1153171 -0.0069856364 0.070841335 0.0014323116 -0.052215613
-0.0060924385 -0.05085049 -0.028220668 -0.044244856 -0.009310279 0.04318426 -0.015380971 -0.026537806
-0.046670623 -0.018233875 -0.0008555253 -0.050705638 -0.035318974 0.028412124 0.009862093 -0.075493425
-0.018134968 0.031820055 0.04177503 -0.04415292 -0.0063227736 -0.053697467 -0.0015545138 -0.039151993
-0.05351834 -0.04749844 -0.011923864 0.06636243 0.014790812 0.026285075 -0.04876359 -0.070779234
0.046204366 0.07992084 0.0065819346 0.037589688 -0.01979704 0.011961921 -0.0054647434 0.01243091
0.067377314 0.044774212 0.03971328 -0.032080833 0.04253336 -0.0395875 0.018658806 0.028543802
0.0142441075 0.044396568 -0.00037696149 -0.07504721 -0.0063258917 0.021320142 -0.082879245 -0.060293294
0.06762133 0.028290857 0.043892216 0.003201561 0.051118385 -0.043693017 -0.058335476 0.0020288744
-0.039267056 0.009597207 0.0448616 -0.08162094 0.027600372 -0.014052404 -0.04139018 -0.086388364
-0.01816036 -0.08861642 -0.040738117 -0.12744191 -0.05777372 0.04665351 -0.054218445 -0.050117478
0.051884115 0.010403231 0.035368152 -0.029721584 0.02028564 0.00291119 -0.0019480798 -0.029941138
0.032788537 0.0328774 0.035202976 -0.0126722 -0.017921297 -0.07552149 0.035220303 -0.010624609
0.07141605 0.05529823 -0.03886634 -0.030692613 0.022935165 -0.048972577 -0.03509505 0.026298897
0.008650219 0.04518736 0.04888885 -0.049140085 -0.034655966 0.04483402 -0.06778005 -0.010667873
-0.008942589 0.009706715 0.020440506 0.002224563 0.06499299 -0.026406791 0.042743642 0.044430315
0.042499777 0.046932608 -0.073576204 -0.08719753 -0.033314187 -0.0055013318 -0.05821842 -0.056561325

conv3.0.bias f4 [32]
00000000: f334 6c3c 8549 6d3d 821d 693c a1f5 71bd
00000010: 32e9 863b 5c9f 61bd d0b8 c1bc 38df 793d
00000020: b362 0d3d 88cf aa3c 9cb1 73bc a17b fe3c
00000030: 44bc ff3c d0d4 eebb 9115 7cbd 2448 2c3c
00000040: 4cf4 01bd 8b60 963c 87fd 403d 7310 d23c
00000050: bb17 3d3d ab63 503d 0eec 373c 25ed 3f3d
00000060: 6183 3f3c f994 26bd 3b4a 3ebc fe13 54bc
00000070: e4f8 7ebd 0aaf 4fbd 2352 5cbd c6bd 743d
0.014416921 0.05793144 0.014228227 -0.05907214 0.0041171545 -0.055083618 -0.023647696 0.061003894
0.034517955 0.020850912 -0.014873888 0.03106481 0.031217702 -0.007288553 -0.061544005 0.010515247
-0.03172712 0.018356582 0.047116783 0.02564261 0.04616521 0.0508763 0.011225713 0.046857018
0.011689038 -0.040669415 -0.011614378 -0.01294422 -0.06224908 -0.05070404 -0.05378927 0.059751295

conv3.1.weight f4 [32]
00000000: f6ff 7c3f 1ff4 7d3f 6090 803f fc51 833f
00000010: b006 7a3f 79ff 7d3f bded 7c3f fef5 7b3f
00000020: 2ccb 783f 0b2a 813f dc3b 7c3f 4c80 7c3f
00000030: 093d 833f 8771 793f da54 813f 091c 823f
00000040: b32d 813f f548 813f 6192 7f3f 34c3 7f3f
00000050: a519 7c3f f194 863f 9b20 803f 2ba6 803f
00000060: cfb1 7a3f 245c 793f 1f34 863f ab4f 813f
00000070: 1753 7d3f 8e36 853f 1d8e 883f e612 813f
0.98828065 0.99200624 1.004406 1.0259395 0.97666454 0.99217945 0.9880026 0.9842223
0.97185016 1.0090955 0.9852884 0.98633265 1.0253001 0.97438854 1.010402 1.0164806
1.0092071 1.010039 0.9983273 0.9990723 0.9847663 1.0514203 1.000995 1.005071
0.97927564 0.9740622 1.0484656 1.0102438 0.9895491 1.0407274 1.066837 1.0083892

conv3.1.bias f4 [32]
00000000: 5cba 86bd 6527 2ebb 3aa7 54bc 39c2 1fbe
00000010: 2cec b3bc fc8d fcbb 38e4 d23c cd79 6c3b
00000020: 68b2 9f3c a4cf 32bc 31af 8eba 48e6 393d
00000030: 94c0 823d 108b c6bc 554d f0bb b072 08bd
00000040: 842d 723c 64b5 85bb 3c70 a0bb 8b05 6fbd
00000050: 34a6 10bc f851 1ebd e942 343c 3bf7 4fbc
00000060: 73f7 87ba 1d4d 4fbc 7ba3 0bbc 746e 2d3c
00000070: 9a6a 2dbd 2312 22bd 619e 80bd ea10 863b
-0.06578514 -0.0026573774 -0.012979323 -0.15601434 -0.021963201 -0.0077073555 0.025743589 0.003608334
0.01949425 -0.010913763 -0.0010885951 0.04538563 0.063843876 -0.024236232 -0.0073334374 -0.0333125
0.01478136 -0.0040804613 -0.004896192 -0.058354896 -0.008828688 -0.03865239 0.011002281 -0.012693222
-0.0010373428 -0.012652663 -0.0085228635 0.010585416 -0.04233799 -0.039568078 -0.062802084 0.004091372

conv3.1.running_mean f4 [32]
00000000: 502a 05bf 5162 22bf 2c4f e2bd 87d0 a4bd
00000010: 0bd8 bbbe 1ec5 ab3e 717b cabd aa66 c0bc
00000020: b0a7 dbbd 3ab1 8abe 5f63 6abe 73ea e7be
00000030: 41d1 fdbe 935d 66bf a5be c6be 51cf a5be
00000040: 790a f3be 9493 18be 5bf5 773d 7ad5 4d3e
00000050: 522f 17bf cef9 f7bd c76b 9fbe 9c06 a9be
00000060: 13c9 2a3e 28e8 dabe dee1 a9be 5570 0ebf
00000070: d90d 16be e5d5 303e 43c2 fabe 1034 fbbe
-0.5201769 -0.6343127 -0.11050257 -0.08047586 -0.36688265 0.33548826 -0.09886826 -0.023486454
-0.10725343 -0.27088338 -0.2288947 -0.45296058 -0.4957371 -0.8998653 -0.38817325 -0.32384732
-0.47468928 -0.14900047 0.060536724 0.20100966 -0.5905658 -0.12108193 -0.31136915 -0.33012855
0.16678266 -0.42755246 -0.33180135 -0.55640155 -0.1465372 0.17269094 -0.48976335 -0.49063158

conv3.1.running_var f4 [32]
00000000: edc3 553e 78e9 973e 5e46 0f3e 15c8 613e
00000010: 749f 863e 777b 643e c221 dc3e 70e6 8e3e
00000020: 548a eb3d 010b 9c3e be4c 743e b12a 863e
00000030: 5e31 dd3e a4cc 2c3e 2abd 493e 8288 153e
00000040: ce32 3d3e dfa0 313e 76b1 273e 286a 033e
00000050: 22a5 4d3e 2d5e 103e b387 843e ee9a 863e
00000060: 6d37 513e aaf5 563e b8e5 083e 21bd ca3e
00000070: 8a18 753e f260 253e 4e47 153e a8de 7a3e
0.20875521 0.2967031 0.13991687 0.22048981 0.26293528 0.22312723 0.42994505 0.27910185
0.11500993 0.30477145 0.238574 0.26204446 0.43201727 0.16874939 0.19701067 0.14602855
0.18476412 0.17346524 0.1637629 0.12833464 0.20082524 0.14098425 0.2588478 0.26290077
0.204313 0.20992151 0.13368881 0.3959742 0.23935142 0.16150263 0.14577982 0.24498999

deconv2.0.weight f4 [32, 16, 4, 4]
00000000: d4c2 9ebd 392d 213c ac5d aebc caae 153c
00000010: 62a5 1cbd 7852 8c3c cc06 b0bc becc e23b
00000020: 414e 2fbd 8454 aa3a e2f8 25bd 6fb4 77bd
00000030: 9e83 01bd 8e7e 263d 3535 54bd ff8c 0a3d
00000040: 925d e13b 59c0 79bc e329 ae3c b273 b6bd
00000050: 8574 02bd b465 c63c 8756 ea3d 1b7c 8e3c
00000060: be01 e23c a2f6 d1bc 5be3 4a3d 6818 403c
00000070: 448b 8abd 1069 4d3d 3010 353d d899 92ba
00000080: c380 283d ff9d ba3b bb08 463d 7217 c13b
00000090: 7aa5 f93c 0ee1 3c3d 9272 323b ca8c ba3c
000000a0: f478 073d 77d7 1d3d 84d7 2f3b ae1f da3c
000000b0: 7d21 ea3b 68db 60bd f0b4 723b e62c a03b
000000c0: d153 e0bc 59f9 f03c f608 37bd 8051 143d
000000d0: e5f2 90bd 577e c4bd bc9d d63d aaaa d0bc
000000e0: 9fdd 9cbd 336b 883c 22d6 8fbd 3746 a0bb
000000f0: ed09 8bbc b945 efbd 3daf 943d 969c f8bd
00000100: 0870 553c 94fb 643d 384a dcbb 0c85 2f3b
00000110: d66e 06bd 5085 a1bd 8f15 1cbd 2f38 c0bc
00000120: 35e9 0b3a 18fe 313d e758 08bc 4194 e83c
00000130: 3666 8a3d 2c2f 0b3d db2e 663c 311f 893c
00000140: e596 c8bc 4817 a73c 4349 1dbd 746e 87bd
00000150: 69c6 5e3d e44d da3c c873 413d 9a3a b3bb
00000160: ca9f d63b ebfe 05bc be04 86bd 4a7a a9bd
00000170: 1cf5 a6bc 4c50 833c 342c df3c 208b 103c
00000180: 2f4c 3ebc 05d7 39bd 437e 9cbd 6dfe 6c3c
00000190: 2ea7 6b3d 14e3 97bd 356d 463c 7a55 9cbc
000001a0: 8ea8 bdbc ea1b 9fbc f908 e7ba 2eb6 4b3c
000001b0: c701 ba3c 0296 363d 6bf1 133d c5db 59bc
000001c0: 9483 9dbd 7624 ae3c 6a17 593a d5de f83b
000001d0: ee76 78bc 4eba 6f3b ab07 853c 608b 3e3b
000001e0: c85c 8abd d92d 193b f1b9 453d 0718 7e3c
000001f0: cdc5 b4bc 927f fe3c cf22 a5bc 0820 ae3b
00000200: 75cf 8c3a 010f 5fbc 4d40 88bc e4d1 88bb
00000210: d600 40bd 0d41 52bd 6cc5 073c d4fc 0cbd
00000220: 2885 0f3d a304 06bd c23e 103d 17ac 35bd
00000230: 9490 aebc 51b0 2d3d 2bdb b83c 0fd2 2abd
00000240: 97f7 10bc a232 79bc 5360 5c3c 0a19 2abd
00000250: d115 2e3d c9c8 a8bc b789 00be 514b 6f3c
00000260: 3f45 783d f702 95bc 3285 593d 856a c2bd
00000270: d297 863d 16dd 02bc df9f f0bd 78a0 21bc
00000280: 4b75 38bd a1b7 a6bd 07a2 4abd 60b4 a3bd
00000290: b683 d63c e5e6 96bc e281 1cbd 2096 b8bc
000002a0: 5699 03bd 7967 b9bd 2dcf 3bbb a1a2 08bd
000002b0: bf1f 183d 537f e8bb 15f0 6e3c a0e5 353b
000002c0: 9898 79bd b83e febc 9f87 5bbd 38f2 96bd
000002d0: adde 3cbb b19d 48bd be17 8a3c c92a cfbd
000002e0: 0864 91bd 83b6 95bd 0d86 64bd 5c6a b4bc
000002f0: 0c64 2bbd 5301 ebbc 2ac9 ab3c c649 07bc
00000300: fb1c 02bb d735 9c3c 7ee4 8ebd 2109 1e3d
00000310: 4bbf 6ebd 929e 85bc ce6b 793c 561b 5bbd
00000320: 4164 90bc 49ed 873d 0350 78bd f25f 3a3d
00000330: a256 e8bc 1842 f9bc 6858 9e3c 4d4e a2bc
00000340: 536c adba df04 74bc 2dfa 85bd 7d92 19bc
00000350: 5446 953d 678d 3a3d 9fd3 85bc 8e24 eb3c
00000360: 787c 5a3c 20bf 82bc bde2 81bd 3b2a 263c
00000370: 9e06 983d 5950 d33a 84ef 1d3d 528a f13c
00000380: b7b3 99bd b795 98bb 378c 8abc d5dd 0abd
00000390: b8af 083c 979f a6bc 06de c93c 53ec b0bb
000003a0: 12a8 37bd e08c 6cbd e635 50bd 8ac9 99bd
000003b0: 7000 cbbb f112 35bd c4f4 14bb 86b9 07bd
000003c0: 9c7d 0abd e95d 7bbd fb73 a53a ebd1 b53c
000003d0: a5e4 1bbc 3d01 cfbc f579 cbbd ddd1 f93c
000003e0: e9cf 09bd ff17 30bd 4d58 633c 25c9 86bd
000003f0: ed76 a33d c155 d3bc cf46 85bd be7f 273b
-0.07752004 0.009837442 -0.0212849 0.009135911 -0.03824366 0.017129168 -0.021487616 0.00692138
-0.042799238 0.0012995158 -0.040520556 -0.06047481 -0.03161966 0.040648036 -0.051808555 0.03382587
0.0068776095 -0.015243613 0.021260208 -0.08908786 -0.031849403 0.024218418 0.11442285 0.017393162
0.027588721 -0.025630299 0.04953323 0.011724569 -0.06764844 0.050149024 0.04420489 -0.0011184765
0.04113842 0.005695104 0.04834817 0.0058926875 0.030474413 0.046113066 0.0027228934 0.022772212
0.033074334 0.03853556 0.0026831338 0.026626434 0.0071451054 -0.054896742 0.0037034117 0.004888165
-0.027383717 0.029415773 -0.04468628 0.036210537 -0.070775785 -0.0959441 0.10479304 -0.025472004
-0.07659458 0.01665268 -0.070232645 -0.0048911828 -0.016972506 -0.116832204 0.072599865 -0.121392414
0.013027199 0.055903986 -0.0067227148 0.0026782183 -0.032820545 -0.078867555 -0.038106497 -0.02346429
0.000533718 0.043455213 -0.008321977 0.028391005 0.067577764 0.033980533 0.014049257 0.016738506
-0.024486015 0.020396844 -0.038399946 -0.06612864 0.054388437 0.02664847 0.04722956 -0.0054696323
0.00654981 -0.008178453 -0.06543873 -0.08275278 -0.02038055 0.0160295 0.027242757 0.0088222325
-0.011614843 -0.045371074 -0.0764127 0.014464957 0.05753248 -0.074163586 0.012110998 -0.019083727
-0.023151662 -0.01942249 -0.0017626575 0.012433572 0.022705926 0.044576652 0.036118906 -0.013297026
-0.07691112 0.02125762 0.0008281382 0.007594923 -0.015165074 0.0036579552 0.016239008 0.0029074773
-0.06755978 0.0023373275 0.04827303 0.015508658 -0.022066975 0.03106669 -0.0201582 0.005313877
0.0010742979 -0.013614417 -0.016632224 -0.0041754115 -0.046875797 -0.05133157 0.008286815 -0.034420803
0.035039097 -0.032719266 0.0352161 -0.04435357 -0.021309175 0.042404477 0.022565445 -0.041704234
-0.0088480925 -0.015209826 0.0134507 -0.041527785 0.042501274 -0.020603554 -0.12552534 0.014605359
0.060612913 -0.01818989 0.05310554 -0.09492973 0.06571926 -0.007987281 -0.11749243 -0.009864919
-0.045033734 -0.08140493 -0.049470928 -0.07993388 0.026185852 -0.018420646 -0.038209803 -0.022532523
-0.032128654 -0.09052939 -0.0028657422 -0.03335822 0.03713965 -0.0070952564 0.014583607 0.0027755275
-0.06093654 -0.031035766 -0.053596135 -0.07370418 -0.0028819249 -0.04897851 0.016857024 -0.101155825
-0.070991576 -0.07310202 -0.055791903 -0.022023372 -0.04184346 -0.028687155 0.020969946 -0.008257335
-0.00198537 0.019068642 -0.06977175 0.038582925 -0.0582879 -0.016310964 0.015223457 -0.053492866
-0.01762593 0.066370554 -0.06062318 0.045501657 -0.028361622 -0.030427024 0.019329265 -0.019812727
-0.0013231136 -0.0148937395 -0.06541858 -0.009373304 0.07288805 0.045545008 -0.01633626 0.028703954
0.01333534 -0.015960276 -0.06342075 0.0101419045 0.07423137 0.0016121968 0.038558498 0.029484902
-0.07504981 -0.0046565193 -0.016912563 -0.03390296 0.008342676 -0.02033977 0.024642002 -0.005399266
-0.04483802 -0.057751536 -0.05083265 -0.07509144 -0.0061951205 -0.044207517 -0.00227289 -0.033135913
-0.033811197 -0.061368857 0.0012623066 0.022194823 -0.009514962 -0.025269145 -0.09935371 0.030495578
-0.033645544 -0.042991634 0.013876033 -0.06581334 0.07981668 -0.025797727 -0.06507646 0.0025558318

deconv2.0.bias f4 [16]
00000000: a9da f13c e3cc 76bd a99c f63c d713 da3c
00000010: be5e 1e3d 695f 66bd b09b 463d 411c 86bc
00000020: 7de9 77bd eec2 533d 024e e03c 8e20 63bd
00000030: 028c d13c ecab 6bbc 3b09 753c 551c 853c
0.02952321 -0.06025399 0.030103998 0.026620788 0.038664572 -0.056243334 0.04848832 -0.016370894
-0.060525406 0.05169957 0.027380947 -0.05545097 0.025579456 -0.014384251 0.014955814 0.016248861

deconv2.1.weight f4 [16]
00000000: ea3d 763f fae4 813f 0a03 813f 29e6 7a3f
00000010: 8c53 7e3f dd39 733f 701f 743f bae4 713f
00000020: f239 773f 634b 833f 1cb1 773f 56db 8c3f
00000030: 7898 7b3f 7855 743f b611 853f c6c2 803f
0.96188223 1.0148003 1.0079052 0.98007447 0.9934623 0.9501017 0.9536047 0.94489634
0.9657279 1.0257381 0.9675462 1.1004436 0.98279524 0.95442915 1.039603 1.005944

deconv2.1.bias f4 [16]
00000000: a9f3 083c 75c2 c43d d835 6b3d 4dc6 873c
00000010: 4023 0b3d 1b35 813c 11f1 003d c79c 2cbd
00000020: 85e0 8ebc 5e3a 053e f74c 073d 67b8 2ebd
00000030: 5f99 fbbc c68a 093d 3836 413d 4d82 aa3c
0.008358874 0.09607402 0.057424396 0.01657405 0.033969164 0.015772393 0.0314799 -0.042141702
-0.017441044 0.13010547 0.033032384 -0.04265633 -0.030712781 0.03357961 0.047170848 0.020814085

deconv2.1.running_mean f4 [16]
00000000: d53c 2bbf e50c 18bf 2091 90be 39d0 11bf
00000010: 6dc6 96be 7d09 51bf a942 04bf f8f5 c5be
00000020: cb2f 2abf 2eb4 49bf 9536 65bf 8726 46bf
00000030: d773 d6bd b5f5 8ebe 01b2 59bf 7679 64bf
-0.668897 -0.59394675 -0.28235722 -0.5695835 -0.29448262 -0.816551 -0.51664215 -0.38664222
-0.66479176 -0.7879056 -0.8953641 -0.7740254 -0.104713134 -0.27921835 -0.8503724 -0.89247835

deconv2.1.running_var f4 [16]
00000000: 0385 393f 79aa 613f ba39 5f3f 11c3 253f
00000010: ffb9 193f 80ac b03f 0a14 a33f 4ea8 283f
00000020: 9b51 073f 728d 0140 57a4 d73f ba96 073e
00000030: fce4 d83e 3fa9 a53f bebb 233f e1cf 413f
0.72468585 0.88150746 0.8719746 0.6475077 0.6004943 1.3802643 1.274049 0.6588181
0.52858895 2.0242581 1.6847028 0.13241091 0.423622 1.2942275 0.63958347 0.75707823

deconv3.0.weight f4 [16, 8, 4, 4]
00000000: 2aa3 61bd d80e a43c 512e 7dbc 72b2 b7bd
00000010: 6c28 dcbd ffe0 40bd 9e2f ce3c f5fd a4bc
00000020: 8ccd 60bd ebfb a33c 7fa9 b53c 3c9c 8b3d
00000030: 4c2a 56bd bd73 03bd bb72 2d3d 7766 c9bb
00000040: f2d0 d6bb 424e 2cbd 10b7 a53c 6193 aa3d
00000050: e094 293d cb82 fa3c b093 5c3d 0e39 a43c
00000060: b96d 3cbb 1e7a c33d cc95 553d 1089 333d
00000070: 8cec 833a 86e4 903d 9fb7 843d d3e2 f4bc
00000080: 1c9e 633d 711a ff3c 8e52 2ebc d7f9 803d
00000090: 605d 513d f60a 0e3e 8f32 483c ac8f 003d
000000a0: d6d2 ac3c 2385 9a3d ff86 5ebd d87c 923d
000000b0: f19d 8e3c f8ad f63c ac39 1ebc 7ab3 36bc
000000c0: 6483 cc3c 7aeb a03d cbca 80bd 35eb 733b
000000d0: a105 8f3b 8f2a 28bd 7155 eb3c 6471 c33d
000000e0: 34e8 0e3d 295a b13d 73f1 d5bc 01d7 a13d
000000f0: 78c6 003d 1f71 0a3d 4844 883c 6147 ed3c
00000100: d86f 1e3d 4ec4 6c3d 3781 02bc 9dcf 50bd
00000110: 4470 143d fb36 503c 5120 893c 8448 82bd
00000120: 6075 a8bc d42c 353d 49da 17bd 03bf 8f3b
00000130: a08d c93a 403c 6b3c 981c 5abc f643 343d
00000140: 6d80 a53c 5dc3 c7bc a17d 7e3b 8d2e 8d3a
00000150: d449 1e3c 72b0 57bc d395 ae3c 3494 963d
00000160: bbf9 00bb 95fa 3b3d 093d 27bd 84b2 f0bb
00000170: f6e6 553d e5c0 9e3c 1e40 e63c 3fec bf3c
00000180: dd6e d3bc 9098 adbd 816f 10bd 1d39 7ebd
00000190: 5253 4d3d 257a 30bd d73b efbb 820e adbc
000001a0: a75b 0c3c d4c1 a53d 5d60 033d 0e2a 103c
000001b0: 311f b93b 7d1f f3bc 2b64 c2bc 0197 3abd
000001c0: 3c90 2d3d 0b87 a53d 45c7 0e3d 6e58 003d
000001d0: 9cc1 953c 4f6e d93d 0315 72bd f55d f1bc
000001e0: 848f 503d 73ef 96bd 1b66 dbbc fbc3 27bc
000001f0: efc3 3b3d 1465 723d 0bb9 edbc 797d 193d
00000200: d3c8 60bc da34 c93b b754 863d 8835 c2bd
00000210: dbad 78bd 9ef1 18bd ee6c 1b3e c164 5a3d
00000220: 2af8 883c 2c50 b43c adc4 213d ba57 b5bb
00000230: fb3a 02bc 8034 11bd acf4 383d 825f a139
00000240: ce0e 4e3d 4d65 c0bd a777 4638 9a7a 36bd
00000250: 4b87 d2bc 0df9 a1bd b628 c73d 5c6e 4dbd
00000260: 4fb6 7c3c 18aa 1d3b a871 823c eb3e 953c
00000270: 331f 133c 59f0 7fba 0813 233d 0266 ea3c
00000280: e28d 153c f8dd de3c da43 043e 988a c2ba
00000290: 328f 51b9 e00c d03b c3fa 48bb 1f52 4f3d
000002a0: 2d8c 8ebc 9bc4 103d b368 563b b5ed 0bbc
000002b0: 7e4f d7bc 0882 8cbc 29d3 153d 64e6 67bd
000002c0: 0a12 a5bd db81 18bd 1fb4 823d 32f2 f9bc
000002d0: 5e92 a23d 05b5 4dbd eba8 3dbd 2411 273d
000002e0: b22f 3fbd 18ba 173d 520c ec3d eff0 363c
000002f0: 8240 4d3d 8a76 283a ea54 52bd fb07 163d
00000300: 7cad 4f3d 7f17 00bc 8e19 533c 64a6 473d
00000310: e391 a23d 65bc 5b3d b409 23bd cc07 c43c
00000320: 81e0 443d b664 043d f9eb a63c 8f40 de3d
00000330: a94f 1e3c 1f1b 03bd 2a56 383d f25c 9f3c
00000340: 2758 c33c 3a72 4fbd 1815 28bd 26e5 743d
00000350: bc9c 43bd 0e2e 2d3d a2a5 ff3d e58b ed3d
00000360: ba76 3e3c 1e31 603d e7a6 a3b9 3c58 e63d
00000370: bd61 b73d 6106 b23c 3379 b93d 61ef f33d
00000380: 356e 1abd d576 babd b0e3 b3bc db93 b63c
00000390: 0073 003d 8a5a ad3c 42f7 d33d 9537 b5ba
000003a0: 65b2 d93c 1600 dcbc 07c2 8d3c 5b6a 823c
000003b0: ac44 efbb 5cd8 ad3b 0d73 da3d b38c 0d3d
000003c0: eba2 bf3c aa46 4d3d ab9c 4fbb d672 6f3d
000003d0: a4fc 753c 242b cebb 553f 9abd 9e51 b2bd
000003e0: c799 52bd 9f13 4abb f0a6 24bd e757 6bbd
000003f0: 228c f5bb ccba c8bb 3db9 c5bd 39ff a4bd
-0.055087246 0.02002661 -0.015452937 -0.089695826 -0.10749897 -0.047089573 0.02516919 -0.020140627
-0.054883525 0.020017585 0.022175549 0.06816909 -0.05228643 -0.0320928 0.042345744 -0.006146248
-0.00655567 -0.04206682 0.020228893 0.083288915 0.041401744 0.030579945 0.053851783 0.020046737
-0.0028751923 0.095447764 0.05214481 0.043831885 0.0010065003 0.070748374 0.064803354 -0.029893314
0.055570707 0.031140538 -0.0106398 0.06297653 0.05111444 0.13871369 0.012219085 0.031387016
0.021096628 0.07544925 -0.05432796 0.07152718 0.017409297 0.030112252 -0.009657305 -0.011151189
0.024964996 0.078574136 -0.0628868 0.0037219052 0.0043646847 -0.041056212 0.028727265 0.09543112
0.034889415 0.08659775 -0.026116109 0.07902337 0.031439275 0.033799287 0.016634122 0.0289647
0.03868088 0.0578044 -0.0079653775 -0.050979245 0.036239877 0.012708421 0.016739042 -0.063614875
-0.020563781 0.044232205 -0.037073407 0.004386784 0.001537729 0.014357626 -0.013312481 0.044010125
0.02020284 -0.024385149 0.0038832205 0.001077132 0.009661157 -0.013164626 0.021311676 0.07352486
-0.00196801 0.04589327 -0.040829692 -0.0073454995 0.052222215 0.019379089 0.028106745 0.02342808
-0.0258097 -0.084763646 -0.03526259 -0.062066186 0.05012829 -0.043085236 -0.0073008346 -0.021125082
0.0085667735 0.080936104 0.03207432 0.008799089 0.0056494703 -0.0296781 -0.023729404 -0.045554165
0.04237388 0.08082398 0.034858007 0.031334333 0.018280797 0.10616743 -0.05910207 -0.029463748
0.050918117 -0.0736989 -0.026782086 -0.0102395965 0.045841154 0.059178427 -0.0290189 0.037473176
-0.013719755 0.0061403336 0.06559127 -0.094828665 -0.060712676 -0.0373398 0.15178272 0.053318743
0.016719896 0.022010885 0.039494205 -0.0055341395 -0.007948632 -0.03545046 0.045155212 0.00030779472
0.050307088 -0.093943216 4.7318314e-05 -0.044550516 -0.025699278 -0.07908831 0.09724562 -0.050154075
0.015424325 0.0024057683 0.015923336 0.018218478 0.008979606 -0.00097632926 0.03981307 0.028613094
0.009128066 0.027205452 0.12916508 -0.001484233 -0.00019985138 0.006349191 -0.0030667044 0.050615426
-0.017400825 0.035343748 0.0032716214 -0.0085405605 -0.026283022 -0.017151847 0.03657833 -0.056616202
-0.08060081 -0.037233215 0.063820116 -0.030510996 0.079380736 -0.05022146 -0.04630367 0.04078783
-0.046676345 0.037042707 0.115257874 0.0111658415 0.050110348 0.0006426355 -0.05135051 0.036628705
0.050702557 -0.007818102 0.012884511 0.048742667 0.07937982 0.053646464 -0.039804175 0.0239295
0.048065666 0.032322608 0.020376192 0.10852157 0.009662547 -0.032008287 0.045004047 0.0194535
0.023845745 -0.050646044 -0.04103574 0.059788845 -0.047756895 0.04228025 0.12482764 0.115989484
0.011624986 0.05473434 -0.00031214135 0.11247298 0.08954189 0.021731557 0.0905632 0.11910892
-0.037702758 -0.09104697 -0.021959156 0.0222873 0.031359673 0.021161336 0.10349895 -0.0013825769
0.026574323 -0.02685551 0.017304434 0.015919855 -0.0073018875 0.005305333 0.106664754 0.03455801
0.023393115 0.05011622 -0.0031679075 0.058459125 0.0150138475 -0.006291764 -0.07531611 -0.087069735
-0.051416185 -0.003083445 -0.040198267 -0.057456877 -0.007493512 -0.0061257835 -0.09654472 -0.08056492

deconv3.0.bias f4 [8]
00000000: 11f1 91bd ed94 9c3d efc8 5bbd 929b 423d
00000010: 32f5 cb3c c3a5 7f3d 7484 053d d7c5 803d
-0.07126058 0.07645593 -0.053658422 0.047511645 0.024897192 0.062413942 0.03259702 0.06287735

deconv3.1.weight f4 [8]
00000000: 6d42 9d3f eb8e 9a3f 3e1b 9b3f 4c1b 9b3f
00000010: 4fe7 973f 7abc 9a3f 9b82 9c3f 9c29 963f
1.2285897 1.2074865 1.2117689 1.2117705 1.1867465 1.2088768 1.2227358 1.1731448

deconv3.1.bias f4 [8]
00000000: e833 663e a814 4e3e d6ba 523e 2656 543e
00000010: 3480 423e 2ab3 503e c860 603e 45dc 363e
0.22480738 0.20125067 0.20579085 0.20735988 0.18994218 0.20380846 0.21911919 0.17857464

deconv3.1.running_mean f4 [8]
00000000: 63fe 24be c90e debb 262e 133e 8b7c 1d3e
00000010: 8205 cb3e c761 f03e 9227 253d f006 87bd
-0.16112666 -0.006776665 0.14373073 0.1537954 0.3965264 0.46949598 0.04032094 -0.0659312

deconv3.1.running_var f4 [8]
00000000: 43c3 913d b0e7 8f3d eda7 e43d be81 b03d
00000010: c65a 653d e678 973d 2758 b83d b2f5 ba3d
0.07117321 0.07026613 0.11164842 0.08618496 0.05599477 0.073961064 0.09001189 0.09128894

deconv4.0.weight f4 [8, 3, 4, 4]
00000000: 7176 40bd edfc a33d 1dd5 073e d479 8b3d
00000010: 5700 27bd db1b a03d 7eaf b53d 9a99 963c
00000020: fcdf 003c 1df7 183e 9074 df3d 1f7b 77bd
00000030: 9c4d 7ebd 38e0 c33c 503f 473e 7313 553b
00000040: ea9e 84be 7fd5 89be ddbe 54be 42ac 12bd
00000050: 92a1 abbd 5c9e 1bbe 9383 83be 8858 70bc
00000060: 0e2b dabd 9bc8 6bbe 9e25 fbbd c8f4 c7bc
00000070: 395e 99bd 2685 cebd 9d97 85be 6188 adbd
00000080: 63df 84bd adf2 d1bd 63e9 10be 3fe9 2ebe
00000090: 9ec1 09be edad 04be 11f7 87be f7a7 7cbd
000000a0: 8a47 79be 5d0c 05be 341a 8cbe c7fe 1abe
000000b0: 6e2a 24be c656 67be 508e 26bd 2971 4cbe
000000c0: aa6c 383e 93ae d2bd d572 11bd f4e3 cbbd
000000d0: 6b5a 043d b3ee 32bc 135f f83d a0a3 7b3d
000000e0: 5fea 83bd 08c8 f23d 22ca 053e cc62 253e
000000f0: 1905 4a3e 2ba7 c83d 8dc1 20bc efbe 4bbd
00000100: c857 26be b011 7fbe faba c0bc b903 89be
00000110: 45e4 00bd e843 86bd 9869 e9bd f4fd 30be
00000120: 1e60 85be 46f3 5fbe 5f0a 5fbe c095 ebbd
00000130: 2c7b 0f39 a1bf 30be 8c6c 1ebe 1f4d 17be
00000140: 27a7 13be 136f d4bd df55 3dbe 17b3 24be
00000150: fbb5 e3bd 6965 39be 9756 89be 8287 83be
00000160: bde8 b4bd d323 9dbd 9243 85be f84a 30be
00000170: 2bb8 38be d1fb 54be 0cbb 16be 2f5e 8dbd
00000180: 90e7 9f3a 5659 97bb 3664 9d3d 92a2 083e
00000190: 35aa 3a3e 5b86 1c3e 4d10 413e e1f3 223e
000001a0: 898d 453c 8a8e 0f3d aee1 453e 7267 e33c
000001b0: ddab aabc fe9f 8f3d b9db e93d 1b04 14bb
000001c0: 55a5 8ebe ec82 2dbe bf17 66be 4767 bbbd
000001d0: 1e19 dcbc a08e debd 568d 2dbe 15ee 1bbe
000001e0: 02f5 6bbe 63d1 89be d97e 9fbc 3715 d2bd
000001f0: 435f 26be d79a 39be 4789 43bd 7204 92be
00000200: d10e 89bd a396 6ebe 5322 b9bd 0940 b2bd
00000210: 4644 12be 9802 cabd d1e8 81be acaf 86be
00000220: f274 cdbd 0fe2 81bd 53aa ecbd 07fd e9bd
00000230: e2dc c2bd 4dd3 623b acc5 9fbd 067e 18be
00000240: c387 523e 67b8 4b3d f454 183d 3b8c b73d
00000250: cbce 473d 258f 9a3d a2fe cd3c 287f 673c
00000260: 14f0 f93d 13c7 223e ca18 373d e74c ce3d
00000270: 3924 1c3e 04f9 1a3d 5e41 f63c 1dcd 9e3b
00000280: b3c6 3abe 72d6 35be 6849 4bbe 33b2 35be
00000290: 3efc aebd 5ffc 4dbe 5ab8 24bd f896 febd
000002a0: 13a7 32be 85a4 ffbd 9b94 03bd 8524 93bd
000002b0: 51dc 86be a1fb 6ebd f660 14be 005c 2fbe
000002c0: c643 82be a035 36be 5d3c 81be 8105 6abe
000002d0: b5dd 05be 6d97 ffbc 23db 2fbe cc58 adbd
000002e0: 1bf3 04be 6473 8fbe af13 00bc 897c e5bc
000002f0: 90c0 7abe 8e9a 35bd 1446 9fbd 1476 86be
00000300: ebc4 663e a1a2 453e 0f4e 653e 37f7 813d
00000310: 51f4 273e e7b8 f13d beb5 313d 0800 0b3e
00000320: cab5 083e ed45 a23c 5622 7fbc 29b8 4e3e
00000330: c277 6a3e 7cae 7e3e 7ec6 913d e8bb b23d
00000340: 2ef5 5ebe 5153 ecbd 3b60 183c e560 7dbe
00000350: 1e8e 68be 2b9b 8cbe 7d7b 96bd b9d3 62be
00000360: 0746 4abe bc97 e5bc b5a1 e3bd e3c2 4bbd
00000370: 8956 5dbd 55e8 88be abc7 60be 3050 3dbe
00000380: 2e23 c5bd 18c1 81be 0b38 45be 7e4d 34be
00000390: 5667 32bd ad1b 61be 7cce d2bd 628c 4fbe
000003a0: 689e 84be 1c60 8cbd d853 95bc 96d8 40be
000003b0: 60bd 87bd d915 09be 6b76 b8bd caf8 f5bd
000003c0: dedc 543e 1f16 3b3e efb2 a73d 1811 673e
000003d0: 9e3b 9c3d a391 d53d 913b d83d 7504 3e3b
000003e0: 9d83 84bc 886c 7fbc cb5b a83d 9602 243e
000003f0: ac9c 493e 970e 303e 9ec3 0dbc 4030 b43c
-0.046987955 0.08007226 0.1326489 0.06810346 -0.04077181 0.07817813 0.08871363 0.01838379
0.007865902 0.14938016 0.109109044 -0.06042015 -0.062085733 0.023910627 0.19457746 0.0032512813
-0.25902492 -0.26920697 -0.20775934 -0.03580881 -0.083804265 -0.15197128 -0.2568632 -0.014669545
-0.10652743 -0.23025744 -0.12263034 -0.024408713 -0.07488675 -0.1008399 -0.26092234 -0.08473278
-0.0648792 -0.10251365 -0.1415153 -0.17081164 -0.13452765 -0.12956972 -0.26555684 -0.06168362
-0.24343696 -0.12992997 -0.2736374 -0.15136252 -0.1603181 -0.22591695 -0.040663064 -0.19965042
0.18010202 -0.10287204 -0.035509903 -0.09955588 0.03231279 -0.010921168 0.12127509 0.06143534
-0.06441187 0.11854559 0.13065389 0.1615097 0.19728507 0.0979751 -0.009811771 -0.049742635
-0.16244423 -0.24909091 -0.023526657 -0.26760653 -0.031467695 -0.06555921 -0.113970935 -0.17284375
-0.26049894 -0.21870145 -0.217813 -0.11503172 0.00013683428 -0.172606 -0.15471095 -0.14775513
-0.14419232 -0.10372748 -0.18489788 -0.16083942 -0.111186944 -0.18105091 -0.26823875 -0.25689322
-0.08833454 -0.076728486 -0.26028115 -0.17216098 -0.18039005 -0.20799185 -0.1471979 -0.0690273
0.0012199748 -0.004618804 0.07685129 0.13343266 0.18228991 0.15285628 0.18853875 0.15913345
0.01205767 0.035048045 0.19324371 0.027759288 -0.020833904 0.07012938 0.11418862 -0.0022585455
-0.27860513 -0.16944474 -0.22469996 -0.09150558 -0.026867446 -0.10867047 -0.16948447 -0.1522754
-0.23042682 -0.26917562 -0.019469665 -0.10257953 -0.16247277 -0.18125473 -0.04773834 -0.28519017
-0.06692279 -0.23299651 -0.0903975 -0.0870362 -0.14283857 -0.09863776 -0.25372937 -0.26305902
-0.10032071 -0.063419454 -0.11555924 -0.11425214 -0.09514786 0.0034610808 -0.07801375 -0.14891824
0.20559601 0.049736407 0.037190393 0.08962294 0.048781198 0.07546834 0.025145832 0.0141294375
0.122039944 0.15896253 0.044701375 0.10073262 0.15248193 0.037835136 0.030060466 0.0048462288
-0.1823986 -0.17757586 -0.19852221 -0.17743759 -0.08544205 -0.20115803 -0.040214874 -0.12431139
-0.17446546 -0.124825515 -0.032124143 -0.071847 -0.26339963 -0.05834544 -0.14490113 -0.17124939
-0.25442332 -0.17793894 -0.25241366 -0.22853662 -0.13072856 -0.031200135 -0.17173438 -0.08464202
-0.12983362 -0.28017724 -0.007817193 -0.028013485 -0.2448752 -0.044336848 -0.07777038 -0.2626196
0.22536056 0.19300319 0.22393058 0.063459806 0.16401793 0.118028454 0.043386213 0.1357423
0.13350597 0.019808734 -0.015572151 0.20187439 0.22897246 0.24871248 0.071179375 0.087272465
-0.21773216 -0.11539329 0.009300287 -0.24743994 -0.22710463 -0.27462134 -0.07347772 -0.22151078
-0.19753276 -0.028026454 -0.111148275 -0.049746405 -0.054037604 -0.26739755 -0.21951167 -0.1848762
-0.096258506 -0.2534263 -0.1925966 -0.17607686 -0.04355558 -0.21983214 -0.1029329 -0.20268396
-0.25902104 -0.06854269 -0.018228456 -0.18832621 -0.06627917 -0.1338724 -0.090069614 -0.120103434
0.20787379 0.18270157 0.08188426 0.22565114 0.076285586 0.104281686 0.105582364 0.0028994356
-0.01617604 -0.015589841 0.08220633 0.16016611 0.19688672 0.17193066 -0.008652596 0.021995664

deconv4.0.bias f4 [3]
00000000: a87e bebd fad3 3ebc 7c6d 71bd
-0.093015015 -0.011647219 -0.058942303
