03_hw/Pix2Pix/checkpoints/pix2pix_model_epoch_480.pth (torch, 99191 bytes, 32 tensors)

conv1.0.weight f4 [8, 3, 4, 4]
0	0xbdcd8edd	-0.10037015
1	0xbdeb5d98	-0.11492461
2	0xbd5da32e	-0.0541107
3	0xbe3e0f71	-0.18560578
4	0x3d6e59c5	0.05819108
5	0xbdd246c4	-0.10267404
6	0xbcb1900e	-0.021675136
7	0x3d7a63bb	0.061130267
8	0xbe114389	-0.14185919
9	0xbd3aa244	-0.045564905
10	0xbb827b31	-0.0039819707
11	0x3d243067	0.040085223
12	0xbcb6c462	-0.02231044
13	0x3d961f51	0.07330192
14	0x3d90a834	0.07063332
15	0xbe0b88eb	-0.13626449
16	0x3e08fcd2	0.13377693
17	0x3e402ed4	0.18767864
18	0x3d6216e5	0.055197615
19	0xbbebc654	-0.0071952734
20	0x3d0e9d55	0.034818012
21	0xbcd312f5	-0.025765875
22	0xbda074f5	-0.07834808
23	0x3d498abb	0.04920457
24	0x3df32a50	0.11873305
25	0x3d5998e2	0.053124316
26	0x3d23375f	0.039847728
27	0xbd26d939	-0.040734503
28	0xbd978c82	-0.073998466
29	0x3ced09da	0.028935362
30	0xbd845fa2	-0.06463553
31	0x3e2a486b	0.16629188
32	0xbdd53b1b	-0.10411664
33	0x3d21faac	0.0395457
34	0xbe17aa3d	-0.14811035
35	0x3d57008d	0.05249076
36	0xbde230d0	-0.110444665
37	0xbdda2468	-0.10651475
38	0xbbc935ff	-0.00614047
39	0xbdf75482	-0.120766655
40	0x3cd3e385	0.025865326
41	0xbcc630c9	-0.024193184
42	0xbab4cb52	-0.0013793504
43	0xbd165669	-0.0367035
44	0xbd3c342d	-0.045948196
45	0x3d33ffc0	0.043945074
46	0x3d950aa2	0.07277419
47	0x3d3c84ff	0.046025272
48	0xbd8f4f05	-0.06997494
49	0x3d8da60a	0.06916435
50	0xbc99dd5a	-0.018782306
51	0xbc9745fa	-0.018465985
52	0xbb80b49d	-0.003927781
53	0x3de83401	0.11338044
54	0x3d0b44a9	0.034001026
55	0xbc3cd17e	-0.011524556
56	0x3e156e54	0.14592868
57	0x3db39f6b	0.08770641
58	0xbdcc335d	-0.09970734
59	0xbd952046	-0.07281546
60	0x3d0e9135	0.03480645
61	0x3e023f67	0.12719499
62	0xbcf3e44f	-0.029771952
63	0xbcb24d2c	-0.021765314
64	0xbb2358a7	-0.0024924667
65	0x3e0a1102	0.1348305
66	0x3c383e8a	0.011245379
67	0xbdac3689	-0.08408839
68	0xbd399c6e	-0.0453152
69	0xbd9d0d49	-0.076685496
70	0x3d1b3eea	0.037901796
71	0xbd06945e	-0.032856338
72	0x3cfd692f	0.030933945
73	0xbc0d4f3b	-0.008624847
74	0x3d182d03	0.0371523
75	0xbe02dc33	-0.12779312
76	0x3d7e6bf0	0.062114656
77	0xbce01392	-0.027353082
78	0x3d773119	0.060349558
79	0x3dbd3412	0.09238447
80	0x3b081118	0.0020762142
81	0xbd810f9c	-0.063018054
82	0x3d45364d	0.04814749
83	0xbe04cf85	-0.12969787
84	0xbd670045	-0.05639674
85	0x3daa676f	0.0832051
86	0xbd950c53	-0.07277741
87	0x3d8633b3	0.065528296
88	0xbbb6c4e8	-0.0055776723
89	0xbb921af0	-0.0044587776
90	0xbc918b54	-0.017766632
91	0x3b9c0d06	0.0047622947
92	0xbd80a556	-0.06281535
93	0xbdbea5d9	-0.09308977
94	0xbced797c	-0.028988592
95	0xbdc54881	-0.0963297
96	0xbe069e39	-0.13146295
97	0x3d63147c	0.055439457
98	0x3c5ab613	0.013349074
99	0xbd682e32	-0.05668468
100	0x3c6264b4	0.013817955
101	0xbcbe90a6	-0.023262333
102	0x3d847326	0.06467275
103	0x3e0e1fc3	0.13879304
104	0xbd9dd512	-0.077066556
105	0x3d3bf621	0.045889024
106	0xbde44fbb	-0.1114802
107	0xbd4cd1e4	-0.050004855
108	0x3e1dbb53	0.1540349
109	0x3d1121c0	0.035432577
110	0x3d2613da	0.040546276
111	0xbd62fdae	-0.05541771
112	0xbd6b7684	-0.057486072
113	0x3b1a1b0a	0.0023514652
114	0x3dcef26c	0.10104832
115	0xbde5f23c	-0.11227843
116	0x3e052863	0.13003688
117	0xbd039961	-0.032128695
118	0x3c577167	0.013149596
119	0x3e049b9a	0.12949982
120	0x3cfdf1cf	0.030999092
121	0x3d94a6bb	0.07258364
122	0xbdbd98b3	-0.09257641
123	0xbddc44e5	-0.10755328
124	0x3d1f3a17	0.03887376
125	0x3d03fd0a	0.03222374
126	0xbbc123ad	-0.0058941455
127	0x3dee309c	0.11630365
128	0xbdd19dcd	-0.10235176
129	0x3dc12796	0.094313785
130	0xbc78afbb	-0.015178616
131	0x3d1dc918	0.038521856
132	0x3c88f9b8	0.016720638
133	0x3d8617ff	0.06547546
134	0x3dbef37a	0.09323783
135	0xbc557964	-0.01302943
136	0x3d9e0d2e	0.077173576
137	0x3e2ebcba	0.17064181
138	0x3dfb4c96	0.12270467
139	0x3d9dfac6	0.07713847
140	0xbdb5895d	-0.088640906
141	0x3cddddba	0.027083267
142	0x3dd17fb6	0.10229437
143	0x3df2b173	0.11850252
144	0x3d7784e9	0.060429487
145	0x3de95673	0.11393442
146	0x3e316666	0.17324218
147	0x3d4dcd57	0.050244655
148	0x3b927263	0.0044692024
149	0xbd50238d	-0.050815154
150	0xba965904	-0.001147062
151	0xbd515695	-0.05110796
152	0x3d1d40b7	0.038391795
153	0xbd89fd3a	-0.06737752
154	0x3e12aa66	0.14322814
155	0xbd6d638b	-0.05795626
156	0x3d59f2ab	0.05320994
157	0x3de7a38e	0.113104925
158	0x3dd1431d	0.10217879
159	0xbe2268cd	-0.15860291
160	0xbddfa594	-0.109202534
161	0x3db26640	0.08710909
162	0x3e1f90aa	0.15582529
163	0x3cd2687e	0.025684591
164	0x3d8a5061	0.06753612
165	0x3dc7cd8b	0.09756001
166	0x3a0a9d18	0.0005287691
167	0xbd2134e4	-0.03935708
168	0xbdbde86d	-0.09272847
169	0xbdb44cc9	-0.08803708
170	0x3d8c2190	0.06842339
171	0x3dce07a4	0.10060051
172	0xbdb06f47	-0.086149745
173	0xbd693d77	-0.056943383
174	0xbc642e0f	-0.013926997
175	0xbdade210	-0.084903836
176	0x3da338bd	0.07969806
177	0xbe33f374	-0.17573339
178	0x3c8d8071	0.01727316
179	0x3d006992	0.03135068
180	0xbd65ab6c	-0.056071684
181	0xbde7173d	-0.11283729
182	0xbd30849b	-0.043095212
183	0x3c954ec0	0.018226027
184	0xbded1f07	-0.115781836
185	0x3ddccc7a	0.10781188
186	0xbda28fba	-0.0793757
187	0x3de2d92e	0.1107658
188	0xbd6d5c11	-0.05794913
189	0xbd2ad72f	-0.04170912
190	0xbde0010a	-0.10937698
191	0x3e035246	0.12824354
192	0xbdbc2937	-0.091875486
193	0xbe0ee69a	-0.13955155
194	0x3d23b1f3	0.039964627
195	0x3d4a665b	0.04941402
196	0x3e09e473	0.13466053
197	0xbc7e4fd8	-0.015521966
198	0xb9dd4aba	-0.0004220808
199	0xbe0ea872	-0.13931444
200	0x3dc0a9f8	0.09407419
201	0xbda0d807	-0.07853704
202	0x3de749dc	0.112933844
203	0x3d51e9bd	0.0512483
204	0x3d3f7c16	0.046749197
205	0xbe339dee	-0.17540714
206	0xbdbe37f2	-0.092880145
207	0xbc9c720d	-0.019097352
208	0xbcd865fa	-0.026415814
209	0x3d799ac9	0.06093863
210	0x3d1ed842	0.03878046
211	0x3dc19635	0.09452478
212	0xbdc355f5	-0.095378794
213	0xbd9e8204	-0.07739642
214	0xbb8cf69d	-0.0043018595
215	0x3da1a8c5	0.07893518
216	0xbd06d20d	-0.032915164
217	0xbe04bf28	-0.12963545
218	0xbe47f19d	-0.19525762
219	0xbe6c5e35	-0.23082812
220	0xbde1c09d	-0.11023066
221	0xbcaa5490	-0.020792276
222	0xbe498947	-0.19681273
223	0x3cf856ee	0.030314889
224	0x3de12652	0.10993637
225	0x3c8fa741	0.017535808
226	0x3d7b8a69	0.061411295
227	0xbdd631ae	-0.104586944
228	0x3d95915e	0.07303117
229	0xbd729b83	-0.05923034
230	0x3dbf9a26	0.09355573
231	0xbd9b325c	-0.07577965
232	0xbd666f96	-0.05625876
233	0x3dbdd5d9	0.09269304
234	0xbd584f36	-0.052809916
235	0x3d8306bb	0.06397768
236	0x3dc9d016	0.09854142
237	0x3cf75216	0.030190509
238	0xbbb18ac8	-0.0054181553
239	0xbd6da855	-0.058021862
240	0x3d1e01d2	0.038575955
241	0xbdec883f	-0.115494244
242	0xbd8bfe15	-0.06835572
243	0xbd290b69	-0.041270647
244	0xbd69cf08	-0.057082206
245	0xbdc5a07f	-0.09649753
246	0x3df3baef	0.11900889
247	0xbb09c40f	-0.00210214
248	0x3dce2488	0.100655615
249	0x3c7bb91d	0.015363959
250	0x3dc1f3eb	0.09470352
251	0xbde826dc	-0.11335537
252	0xbd1e01f2	-0.038576074
253	0x3ddd588c	0.108079046
254	0x3e00f117	0.12591968
255	0x3d618cae	0.055065803

conv1.0.bias f4 [8]
0	0x3e085d55	0.13316853
1	0x3b8f7162	0.00437753
2	0xbd0f468a	-0.03497938
3	0x3dfeef2e	0.12447964
4	0x3d91bc48	0.0711599
5	0x3dcea2f3	0.10089674
6	0xbddea01b	-0.108703814
7	0xbc43a817	-0.011941931

conv1.1.weight f4 [8]
0	0x3f80cb84	1.0062108
1	0x3f7b90b0	0.9826765
2	0x3f7f7c17	0.9979872
3	0x3f7496d9	0.95542675
4	0x3f80d458	1.0064802
5	0x3f731d7a	0.9496685
6	0x3f829e85	1.0204626
7	0x3f875016	1.0571315

conv1.1.bias f4 [8]
0	0xb9e34a94	-0.0004335238
1	0xbd2e9c06	-0.042629264
2	0xbd00edef	-0.03147691
3	0xbc0d70de	-0.008632867
4	0xbba0be9e	-0.004905536
5	0x3da12483	0.07868292
6	0xbd338581	-0.04382849
7	0x3dd22ed8	0.10262841

conv1.1.running_mean f4 [8]
0	0x3e4d5632	0.20052412
1	0xbce6ef58	-0.0281903
2	0xbdd239f3	-0.10264959
3	0x3d6e8bd9	0.058238838
4	0x3e33e0b9	0.17566194
5	0x3da026e4	0.07819918
6	0xbdeaf1b8	-0.114718854
7	0xbc3969f2	-0.011316763

conv1.1.running_var f4 [8]
0	0x3d4a535c	0.049395904
1	0x3c67c5a0	0.014146239
2	0x3e82b760	0.2553053
3	0x3cce15ca	0.025156874
4	0x3e10dd12	0.14146832
5	0x3d0aa34d	0.033847142
6	0x3ca3bd9c	0.019987874
7	0x3cf73323	0.030175751

conv2.0.weight f4 [16, 8, 4, 4]
0	0x3d8afc16	0.06786363
1	0x3dc482dc	0.09595272
2	0x3cf87278	0.03032802
3	0x3d393232	0.045213886
4	0xbda48771	-0.08033646
5	0x3d960627	0.07325392
6	0xbd401807	-0.046897914
7	0x3d91756c	0.071024746
8	0xbd9c9243	-0.07645085
9	0x3d8db0da	0.069184974
10	0x3d529770	0.051413953
11	0x3c919f9d	0.017776305
12	0xbce90bf4	-0.028448083
13	0xbdcf5c19	-0.10124988
14	0xbdd0c6fe	-0.10194205
15	0x3c93aebe	0.01802766
16	0xbc89312f	-0.016747085
17	0x3dccb3e8	0.09995252
18	0x3d9573cf	0.07297479
19	0xbcb3f921	-0.02196938
20	0x3d60c93b	0.05487941
21	0xbd89e155	-0.06732432
22	0x3ccefa28	0.025265768
23	0xbcc69240	-0.02423966
24	0x3ce6db4e	0.028180744
25	0x3c094a88	0.008379586
26	0xbd587aee	-0.05285161
27	0x3cb5e664	0.022204585
28	0x3d1af850	0.037834466
29	0x3ce3ae54	0.027793087
30	0xbcd02ece	-0.025412943
31	0xbdb60ec0	-0.08889532
32	0xbd2d9398	-0.042377084
33	0x3c93f82c	0.018062674
34	0x3d2b2a73	0.04178853
35	0xbd1f1cb5	-0.038845737
36	0xbdb26d30	-0.08712232
37	0xbc9d8624	-0.019229002
38	0xbc23e203	-0.010002616
39	0x3d44a177	0.048005547
40	0xbd19713f	-0.037461516
41	0xbd8f4b95	-0.06996838
42	0xbc4c38ea	-0.012464741
43	0xbcd3e572	-0.025866244
44	0xbdda13ea	-0.106483296
45	0xbdbdeb61	-0.092734106
46	0xbd9cfec8	-0.07665783
47	0xbdc3c793	-0.0955955
48	0x3d2bb084	0.041916385
49	0xbccf36c2	-0.025294665
50	0x3cfbdeb0	0.030745834
51	0x3c7b84ad	0.015351457
52	0x3c95006f	0.018188683
53	0x3cdaefc5	0.02672566
54	0xbd77c21f	-0.060487863
55	0xbd448773	-0.047980737
56	0x3ac9f846	0.0015409074
57	0xbcfd6b02	-0.030934814
58	0x3c259436	0.010106137
59	0xbafc90e0	-0.001926925
60	0x3db5a742	0.088697925
61	0xbc9c158c	-0.019053243
62	0x3bb9b08d	0.0056667984
63	0x362215ab	2.4152494e-06
64	0x3d758995	0.05994566
65	0xbcdffee5	-0.027343223
66	0x3b7272f5	0.003699479
67	0x3d36baf0	0.04461187
68	0x3d24c297	0.040224638
69	0x3b59e17e	0.0033245976
70	0x3dceaa6a	0.10091098
71	0xbc20e2bb	-0.009819682
72	0x3d5b48da	0.053536274
73	0xbd0ac9ae	-0.033883743
74	0x3da95374	0.082678705
75	0x3d4a32b9	0.04936478
76	0xbd9e98e5	-0.07744006
77	0xbcc87327	-0.024468971
78	0xbd57dc75	-0.05270048
79	0xbd1f8ece	-0.03895455
80	0xbda9ab55	-0.08284632
81	0xbdc82468	-0.09772569
82	0x3bcec009	0.0063095135
83	0x3a854fd2	0.0010170883
84	0xbbb0fa3a	-0.005400923
85	0xbcb15e1f	-0.021651326
86	0x3d2f5ac7	0.04281118
87	0x3c085b37	0.008322529
88	0x3b6f0f5a	0.0036477656
89	0x3d88a444	0.06671956
90	0x3d40aa20	0.047037244
91	0x3d90b4ca	0.07065733
92	0xbbbc27ac	-0.005742034
93	0x3bfd8daa	0.007737835
94	0xbd8ae8b3	-0.06782665
95	0x3c3b67da	0.011438334
96	0x3d8de59b	0.069285594
97	0x3ad0b50e	0.0015923099
98	0x3db6a0fd	0.08917425
99	0x3d460792	0.048347063
100	0x3d9a56d5	0.07536093
101	0x3d21539a	0.03938637
102	0x3cd02141	0.025406482
103	0x3d5e58a1	0.05428374
104	0xbc8597e2	-0.016307775
105	0x3cf42c81	0.029806377
106	0xbc3caf50	-0.011516407
107	0x3d653735	0.055960853
108	0xbb4c8d6b	-0.0031212221
109	0x3dc21fb3	0.094787024
110	0x3ce3502b	0.027748188
111	0x3dbf623e	0.0934491
112	0x3aac4dc0	0.001314573
113	0x3c820775	0.015872696
114	0xbd0367c9	-0.0320814
115	0x3bcd0e13	0.0062577813
116	0xbd068d6f	-0.032849725
117	0xbbbf4513	-0.0058370917
118	0xbcea5798	-0.028606221
119	0xbcc35601	-0.02384472
120	0x3d979be8	0.07402784
121	0x3ca28bae	0.019841995
122	0x3d4c68e9	0.049904738
123	0x3d4474d9	0.047962997
124	0x3d5ccf4c	0.05390863
125	0xbc26c27e	-0.0101782065
126	0x3d4b5e26	0.049650334
127	0xbd09a8a4	-0.033608094
128	0x3cd2e36d	0.02574321
129	0x3bc2e1cc	0.0059473272
130	0xbd01238b	-0.031528037
131	0xbd75d713	-0.060019564
132	0xbd3f91a0	-0.04676974
133	0xbd95c3b7	-0.0731272
134	0xbd17fd57	-0.037106838
135	0x3d9b7a5e	0.07591699
136	0x3d532333	0.05154724
137	0x3a3b17c0	0.0007137023
138	0xbbf9ecb6	-0.007627095
139	0x3d92a148	0.07159668
140	0xbd5dd4ad	-0.0541579
141	0xbbbdcaea	-0.0057920115
142	0x3dbffefd	0.09374807
143	0xbd4d0076	-0.050049268
144	0x3c9fb95d	0.019497568
145	0x3d0cea87	0.03440335
146	0xbd53d860	-0.051720023
147	0xbd95e63e	-0.07319306
148	0xbdbcfb64	-0.092276365
149	0xbd577469	-0.05260125
150	0xbdadafa0	-0.084807634
151	0xbd06a996	-0.032876574
152	0x3c2a563a	0.010396535
153	0xbd4df95e	-0.050286643
154	0x3d75ebb6	0.060039245
155	0x3ceeec3d	0.029165382
156	0x39f8f217	0.00047482617
157	0xbd0318b2	-0.032005973
158	0x3da7606f	0.0817269
159	0x3deb14f8	0.11478609
160	0xbdd263f8	-0.10272974
161	0xbcf5bd4d	-0.029997492
162	0x3d86725e	0.065647826
163	0xbc9f2f74	-0.019431807
164	0x3d833792	0.064070836
165	0x3d0d4f7a	0.034499623
166	0x3d331a22	0.043726094
167	0xbd77cd4e	-0.06049853
168	0x3c95dd4b	0.018293997
169	0xbc386919	-0.011255526
170	0xbdadd109	-0.08487136
171	0x3d141962	0.03615702
172	0x3c645ec4	0.0139386095
173	0xbd5e16a7	-0.05422082
174	0x3ca71e15	0.020400086
175	0x3d7fb87a	0.06243179
176	0xbcc74463	-0.024324602
177	0xbd0a0a59	-0.033701275
178	0x3dcc4dce	0.099757776
179	0xbbfcaaa4	-0.0077107716
180	0xbd5c5551	-0.0537923
181	0xbd2ba00c	-0.04190068
182	0xbd58dcf0	-0.052945077
183	0x3d30cae5	0.043162245
184	0xbcd90b8a	-0.02649476
185	0xbd7a5b33	-0.06112213
186	0xbda6974b	-0.081343256
187	0x3c7d0724	0.015443597
188	0xbd901c91	-0.070366986
189	0x3c144db9	0.009051734
190	0x3d1e940a	0.0387154
191	0xbc27839a	-0.010224247
192	0xbcd79c15	-0.026319543
193	0xbd80de78	-0.062924325
194	0xbb95024e	-0.004547394
195	0x3b67f906	0.0035396232
196	0xbc932446	-0.017961632
197	0x3d2f0156	0.042725883
198	0x3d0cfba9	0.03441969
199	0xbd50e1c4	-0.050996557
200	0xbd7a62e5	-0.06112947
201	0xbd863902	-0.06553842
202	0xbd9fd614	-0.07804504
203	0x3d400047	0.046875264
204	0xbbe143d0	-0.006874539
205	0xbcc62f4c	-0.024192475
206	0x3dc63b03	0.09679224
207	0xbd0d88c7	-0.03455427
208	0xbcee0c58	-0.02905862
209	0xbd19fc86	-0.03759434
210	0xbd985bf7	-0.07439416
211	0xbd5659c3	-0.052331697
212	0x3d206ab0	0.039164245
213	0xbd0f4ce5	-0.03498544
214	0xbdba3b18	-0.090933025
215	0xbdf09459	-0.11747045
216	0x3ca05aa9	0.01957448
217	0xbd160f97	-0.03663596
218	0xbcefe9b1	-0.029286237
219	0xbc699efb	-0.014259095
220	0x3c5bd074	0.013416398
221	0xbd8a155f	-0.067423575
222	0xbd1b82be	-0.037966482
223	0x3c737028	0.014858283
224	0x3c728f2a	0.014804641
225	0xbb8004e1	-0.0039068316
226	0xbcfac2f3	-0.030610537
227	0x3d8f1235	0.069858946
228	0x3d4c0bfa	0.04981611
229	0xbd5263d1	-0.051364724
230	0xbd2b1c95	-0.041775305
231	0x3caf5edd	0.021407539
232	0xbda9c1aa	-0.082888916
233	0xbc5b85d0	-0.013398603
234	0xbe35db1d	-0.17759366
235	0xbd77e8a0	-0.060524583
236	0x3b028866	0.0019917726
237	0xbd97ff4b	-0.0742174
238	0xbdadae2d	-0.08480487
239	0x3cd0805a	0.025451828
240	0x3ccf6c68	0.025320247
241	0xbd73eb42	-0.05955053
242	0x3b8e8a3a	0.004349974
243	0xbc64054e	-0.01391728
244	0xbe2ccdbb	-0.16875355
245	0xbe0fd04d	-0.14044304
246	0xbdbcd2f8	-0.092199266
247	0x3c8956f5	0.016765097
248	0xbce22447	-0.027605189
249	0xbe581799	-0.21102752
250	0xbdfdba93	-0.12389102
251	0xbd990d35	-0.07473222
252	0xbad0807c	-0.0015907432
253	0xbc9ad4ab	-0.018900236
254	0xbd95306b	-0.072846256
255	0x3ce1211b	0.027481606

conv2.0.bias f4 [16]
0	0xbdb21ec5	-0.08697275
1	0x3daa3c54	0.08312288
2	0x3d88261a	0.06647892
3	0xbc44ffd7	-0.012023888
4	0xbd0fe7d9	-0.035133217
5	0x3be32a00	0.006932497
6	0xbd1349e3	-0.035959136
7	0xbd6edab3	-0.058314037
8	0xbca7bd82	-0.020476107
9	0x3d2c3282	0.042040356
10	0xbd721d75	-0.059110124
11	0xbd07a1b9	-0.033113215
12	0xbd3292c0	-0.043596983
13	0xbdad5492	-0.08463396
14	0x3d8ce28b	0.06879147
15	0xbd9397a5	-0.07206658

conv2.1.weight f4 [16]
0	0x3f78de4d	0.97214204
1	0x3f88c35d	1.068462
2	0x3f7b239c	0.9810121
3	0x3f7bb1fc	0.9831846
4	0x3f7d8a99	0.9903961
5	0x3f7b5a45	0.98184615
6	0x3f801e0d	1.0009171
7	0x3f829dd8	1.020442
8	0x3f759ed1	0.9594546
9	0x3f803d27	1.0018662
10	0x3f810c81	1.0081941
11	0x3f8147d1	1.0100042
12	0x3f8a1a67	1.0789307
13	0x3f7e4a79	0.99332386
14	0x3f803a5c	1.001781
15	0x3f7f7cfb	0.9980008

conv2.1.bias f4 [16]
0	0xbbcce7dd	-0.006253226
1	0xbbedab3f	-0.00725308
2	0x3c10d880	0.00884068
3	0xbda76356	-0.08173244
4	0xbc30e2b8	-0.010796241
5	0xbd28b94a	-0.04119233
6	0xbd097241	-0.033556227
7	0xbd2deaf9	-0.042460416
8	0xbce4106f	-0.027839867
9	0x3cab7fc1	0.020934941
10	0x3c3650e3	0.011127683
11	0xbc3abdcc	-0.01139779
12	0xbd2b843c	-0.041874155
13	0x3ca99797	0.020702166
14	0x3cace6a7	0.021106077
15	0xbb8e4089	-0.0043411893

conv2.1.running_mean f4 [16]
0	0x3d890560	0.06690478
1	0xbf531127	-0.8244805
2	0xbe368be6	-0.17826805
3	0x3f883d0f	1.0643634
4	0xbe573e44	-0.21019846
5	0xbe6736ca	-0.22579494
6	0xbb90eeeb	-0.0044230125
7	0x3d0e3d0f	0.0347262
8	0xbe1dc18c	-0.15405864
9	0xbf306f2d	-0.6891964
10	0xbcb38c8f	-0.02191761
11	0x3f02d3a8	0.5110421
12	0xbd576b21	-0.0525924
13	0xbef2bfdd	-0.47412005
14	0x3d72de11	0.05929381
15	0x3e13aa52	0.14420441

conv2.1.running_var f4 [16]
0	0x3e8c550d	0.2740864
1	0x3eb77471	0.35831025
2	0x3f023e67	0.5087647
3	0x3eaf99c7	0.3429701
4	0x3e5eb083	0.21747021
5	0x3dfacedc	0.122464865
6	0x3d9ad819	0.075607486
7	0x3e3631a7	0.17792378
8	0x3efb7970	0.49116087
9	0x3ed8be1b	0.4233254
10	0x3e221fc4	0.1583243
11	0x3e5d4538	0.21608436
12	0x3ecb64db	0.39725384
13	0x3e7b3094	0.2453025
14	0x3e63a7d7	0.22231995
15	0x3e87a93a	0.26496297

conv3.0.weight f4 [32, 16, 4, 4]
0	0x3cb5640b	0.02214243
1	0xbb9224a4	-0.0044599343
2	0xbd62fb75	-0.05541559
3	0xbd869b2d	-0.06572566
4	0xbd4de2de	-0.050265186
5	0xba9a55bd	-0.001177482
6	0x3b0a1386	0.0021068766
7	0xbc882f0e	-0.016624
8	0xbd265d7c	-0.040616497
9	0xbc7d8ea2	-0.015475901
10	0xbb3647ee	-0.002781387
11	0xbd3e6e1e	-0.046491735
12	0xbd17f070	-0.037094533
13	0x3cf0a485	0.029375324
14	0x3cdb6186	0.026779901
15	0x3c39e8cf	0.01134701
16	0xbda6ef11	-0.08151067
17	0xbd0b9ab9	-0.034083102
18	0xbc31f6bf	-0.0108620515
19	0xbaa87267	-0.0012851477
20	0xbcb77428	-0.022394255
21	0xbcf7d6d4	-0.030253805
22	0x3d0e62e6	0.034762286
23	0xbd207567	-0.039174464
24	0xbd2ff70c	-0.04296021
25	0xbd897b4b	-0.067129694
26	0xbc9531ce	-0.018212225
27	0x3a90672b	0.0011017075
28	0xbd089b3f	-0.03335118
29	0x3beb03b8	0.007172074
30	0xbd260f72	-0.040542074
31	0xbd7d470a	-0.061835326
32	0x3d5476f4	0.051871255
33	0xbb8dee69	-0.004331399
34	0xbb1601bb	-0.0022889215
35	0x3ced87ea	0.028995473
36	0x3c97ba8f	0.018521575
37	0xbc515167	-0.0127757555
38	0x3c087972	0.008329736
39	0x3d6f143e	0.058368914
40	0x3c32c0b8	0.010910206
41	0x3d3af5ef	0.045644697
42	0x3c5ef173	0.013607371
43	0xbbc7f0c7	-0.006101701
44	0x3c1dc946	0.009630507
45	0x3ca1e6ba	0.01976334
46	0x3cadada7	0.021200968
47	0x3c4903bd	0.012268958
48	0xba993b88	-0.0011690715
49	0xbc1acfac	-0.009448927
50	0xbcfe18d6	-0.031017702
51	0xbd8a1da3	-0.06743934
52	0xbc2c732d	-0.010525507
53	0x3d64b9b6	0.05584117
54	0xbce39432	-0.027780626
55	0xbd1c05b6	-0.038091384
56	0x3cc28d67	0.023749067
57	0xbce5072e	-0.027957525
58	0xbd20e112	-0.039277144
59	0xbd5be347	-0.053683545
60	0x3d2cc486	0.042179607
61	0xbced1cc7	-0.028944386
62	0x3d40352d	0.046925712
63	0xbd7919d2	-0.06081564
64	0x3d414366	0.047183417
65	0x3c69d17f	0.014271139
66	0x3d00193f	0.031274077
67	0x3ccf6d43	0.025320655
68	0x3b596e73	0.0033177405
69	0x3c066d36	0.008204749
70	0x3d13559b	0.03597031
71	0xbc7f68d3	-0.015588957
72	0xbc0d962e	-0.008641763
73	0xbcc3661e	-0.023852404
74	0xbc80024a	-0.015626092
75	0x3ccf05ce	0.025271323
76	0xbd45db64	-0.04830493
77	0x3d72dcb9	0.05929253
78	0xbc13a45b	-0.009011353
79	0xbc2f932e	-0.010716243
80	0xbbaf90b1	-0.0053578247
81	0x3d07005a	0.03295932
82	0x3c1af412	0.009457605
83	0xbcc4da0e	-0.024029758
84	0xbcf9075f	-0.030399023
85	0x3cf5240d	0.029924417
86	0x3ba8ecf7	0.0051552015
87	0x3ab19836	0.0013549391
88	0x3d68d025	0.056839127
89	0xbce7c0b0	-0.028290123
90	0x3c3839c2	0.011244239
91	0x3cc59bcd	0.024122143
92	0xbc43f492	-0.011960166
93	0xbd5602b5	-0.052248675
94	0xbc21bfdd	-0.009872404
95	0xbd090eaa	-0.03346125
96	0x3d991a3b	0.07475706
97	0x3d0f4e57	0.03498682
98	0x3be173f6	0.0068802787
99	0x3b1ac081	0.0023613276
100	0x3d109aeb	0.03530399
101	0xbae8ec8f	-0.0017770695
102	0xbd05f058	-0.032699913
103	0xbc948e55	-0.018134275
104	0x3cccbd60	0.024992645
105	0xbd83e67e	-0.06440447
106	0xbd816476	-0.063179895
107	0xbc9c2d51	-0.019064577
108	0x3d4673a9	0.048450146
109	0xbccaaa8a	-0.024739522
110	0xbd231445	-0.039814252
111	0x3c9ce1f9	0.01915072
112	0x3c0a9dcb	0.008460472
113	0x3d41787c	0.047234043
114	0xbd5dfeec	-0.05419819
115	0xbd7f518c	-0.06233363
116	0x3d86af8e	0.06576453
117	0xbb6f49d8	-0.003651252
118	0xbd4984ff	-0.0491991
119	0xbd1c00fc	-0.038086876
120	0xbd8d4a48	-0.06898934
121	0x3c0d3631	0.008618877
122	0xbd9c877f	-0.07643031
123	0xbdf2de29	-0.1185878
124	0xbc36b88b	-0.011152397
125	0x3d8eb2a5	0.069676675
126	0xbb1f8ee8	-0.0024346653
127	0xbd440a5b	-0.04786144
128	0xbc11021d	-0.0088506015
129	0xbd53b3c7	-0.05168512
130	0xbcdb6690	-0.026782304
131	0xbd377ec6	-0.044798635
132	0xbc1357ca	-0.0089930985
133	0x3d302f71	0.043013994
134	0xbc7df725	-0.015500818
135	0xbce427a3	-0.027850932
136	0xbd39d38f	-0.045367774
137	0xbc8bc057	-0.017059488
138	0x36a8d0e1	5.031107e-06
139	0xbd4d9da2	-0.05019916
140	0xbd122a03	-0.035684597
141	0x3ce52cd5	0.02797548
142	0x3c1eae04	0.009685043
143	0xbd9a6e7a	-0.07540603
144	0xbc7d8669	-0.01547394
145	0x3d035285	0.03206112
146	0x3d270710	0.04077822
147	0xbd3cfdc7	-0.04614046
148	0xbbb50177	-0.0055238563
149	0xbd57966b	-0.052633684
150	0xbaa20ef2	-0.0012364073
151	0xbd1e12a8	-0.03859201
152	0xbd580f3a	-0.052748896
153	0xbd3ef638	-0.04662153
154	0xbc449973	-0.011999476
155	0x3d8b2b2d	0.067953445
156	0x3c8cc83a	0.01718532
157	0x3ce378b6	0.02776752
158	0xbd3fb1fb	-0.046800595
159	0xbd8ec2e3	-0.069707654
160	0x3d35dccb	0.044400018
161	0x3da2c41e	0.07947563
162	0x3bf762d8	0.007549625
163	0x3d154d3b	0.036450606
164	0xbcb74cbb	-0.022375455
165	0x3bc7d38e	0.0060982173
166	0xbbf4395c	-0.007453127
167	0x3c233b35	0.0099628465
168	0x3d8b3a34	0.06798211
169	0x3d3d4dfc	0.04621695
170	0x3d2e64bd	0.04257654
171	0xbcecc3be	-0.02890193
172	0x3d2db19f	0.04240572
173	0xbd1f6119	-0.03891096
174	0x3c88451e	0.01663452
175	0x3cdeb5a9	0.027186232
176	0x3c88ce65	0.01669998
177	0x3d2e6f7c	0.04258679
178	0xba4656c3	-0.0007566029
179	0xbd968900	-0.073503494
180	0xbc07d54a	-0.008290598
181	0x3c8c9a55	0.017163435
182	0xbdadcde6	-0.08486538
183	0xbd69ab0c	-0.05704789
184	0x3d8c5b9b	0.0685341
185	0x3cf20dc1	0.029547574
186	0x3d3924a0	0.045200944
187	0x3bb41297	0.00549538
188	0x3d5cbfa8	0.053893715
189	0xbd32b99a	-0.043634035
190	0xbd6bea7e	-0.057596676
191	0x3b99915d	0.004686518
192	0xbd16d5e1	-0.036825065
193	0x3c06df22	0.00823191
194	0x3d2ff526	0.0429584
195	0xbd996e28	-0.07491714
196	0x3cd6ada8	0.026205853
197	0xbc68c686	-0.014207488
198	0xbd3c0cb2	-0.045910545
199	0xbdafe9d9	-0.08589525
200	0xbc8ac390	-0.016938955
201	0xbdb81f1d	-0.089903094
202	0xbd245623	-0.04012121
203	0xbe001f97	-0.1251205
204	0xbd6a1a05	-0.05715372
205	0x3d2cb82c	0.042167827
206	0xbd7ecd91	-0.062207762
207	0xbd597b1d	-0.053095926
208	0x3d54557d	0.05183934
209	0x3c4fc384	0.012680892
210	0x3d0ea15c	0.034821853
211	0xbcd3f933	-0.025875663
212	0x3ca137fb	0.019680014
213	0x3b936d25	0.004499095
214	0xbb463238	-0.0030242335
215	0xbcdb92fe	-0.02680349
216	0x3d09aebe	0.033613913
217	0x3d0941d3	0.03351004
218	0x3d124ae5	0.035715956
219	0xbc268d72	-0.010165559
220	0xbc8c1b04	-0.017102726
221	0xbd9d887f	-0.0769205
222	0x3d03977a	0.03212688
223	0xbc2da991	-0.01059951
224	0x3d90181a	0.07035847
225	0x3d5b0fe7	0.053481963
226	0xbd1f9290	-0.038958132
227	0xbd06b2c7	-0.03288534
228	0x3c9a848a	0.018862028
229	0xbd4c4f4b	-0.049880307
230	0xbd1b2435	-0.037876327
231	0x3cbf9168	0.023384765
232	0x3b9858d1	0.0046492596
233	0x3d26c674	0.040716603
234	0x3d56a3cb	0.0524023
235	0xbd3d53ac	-0.046222374
236	0xbd1b9aeb	-0.03798954
237	0x3d2d3781	0.04228926
238	0xbd965ad4	-0.07341543
239	0xbc4a5caa	-0.012351194
240	0xbc0db25c	-0.008648481
241	0x3bb9edad	0.005674085
242	0x3c971343	0.018441802
243	0x3ac2c9d0	0.001486117
244	0x3d833b5e	0.06407808
245	0xbce4756c	-0.027888022
246	0x3d27db17	0.040980425
247	0x3d36dc46	0.044643663
248	0x3d2927ae	0.041297607
249	0x3d3caab1	0.04606122
250	0xbd9c650b	-0.0763646
251	0xbdb06e2f	-0.08614766
252	0xbd05ad7e	-0.03263616
253	0xbbb27013	-0.005445489
254	0xbd66bc5c	-0.056331977
255	0xbd458a5d	-0.048227657

conv3.0.bias f4 [32]
0	0x3c6c1c0c	0.014410984
1	0x3d6d28f8	0.0579004
2	0x3c679854	0.014135439
3	0xbd71fb30	-0.05907744
4	0x3b86cdd5	0.0041138926
5	0xbd61b568	-0.055104643
6	0xbcc1bbc8	-0.023649111
7	0x3d7a0136	0.06103631
8	0x3d0d3fbd	0.034484614
9	0x3caaa2f2	0.020829652
10	0xbc73e5cc	-0.014886331
11	0x3cfe720b	0.03106024
12	0x3cffba6e	0.031216826
13	0xbbedfb65	-0.0072626346
14	0xbd7c1da8	-0.06155172
15	0x3c2bcd92	0.0104860235
16	0xbd020335	-0.03174134
17	0x3c96a507	0.018389238
18	0x3d411581	0.04713965
19	0x3cd210fb	0.025642863
20	0x3d3d2375	0.046176393
21	0x3d50262c	0.050817654
22	0x3c377c94	0.011199135
23	0x3d3fddd9	0.04684243
24	0x3c3f76c9	0.011686035
25	0xbd2682db	-0.040652137
26	0xbc3ecbef	-0.011645301
27	0xbc5413e8	-0.012944199
28	0xbd7f1723	-0.062277924
29	0xbd4fa8fa	-0.050698258
30	0xbd5c4520	-0.05377686
31	0x3d74d416	0.059772573

conv3.1.weight f4 [32]
0	0x3f7cdb2f	0.9877195
1	0x3f7dc59c	0.9912965
2	0x3f807ea1	1.0038644
3	0x3f84ca6a	1.0374272
4	0x3f7a34e2	0.9773694
5	0x3f7dcc7e	0.99140155
6	0x3f7ca5c8	0.9869046
7	0x3f7bf0f0	0.98414516
8	0x3f795078	0.9738841
9	0x3f80fe36	1.0077579
10	0x3f7ccc72	0.9874946
11	0x3f7d0ce5	0.988478
12	0x3f847ea3	1.0351146
13	0x3f7944de	0.9737071
14	0x3f813c01	1.0096437
15	0x3f823570	1.0172558
16	0x3f811c9c	1.0086856
17	0x3f817aee	1.011564
18	0x3f7f980d	0.99841386
19	0x3f7fdaa0	0.9994297
20	0x3f7bb56e	0.98323715
21	0x3f866b01	1.0501405
22	0x3f800a9f	1.0003241
23	0x3f807f74	1.0038896
24	0x3f7a08e4	0.97669816
25	0x3f797764	0.974478
26	0x3f85cbd7	1.0452832
27	0x3f817934	1.0115113
28	0x3f7d4836	0.9893831
29	0x3f84f92c	1.0388541
30	0x3f885c14	1.06531
31	0x3f810b9f	1.0081671

conv3.1.bias f4 [32]
0	0xbd913a63	-0.070912145
1	0xbc00b4a9	-0.007855573
2	0xbc9d2e68	-0.019187167
3	0xbe2ca114	-0.16858321
4	0xbcdab65e	-0.026698288
5	0xbc1df0c4	-0.0096399225
6	0x3cb978c6	0.022640597
7	0x399a505f	0.0002943305
8	0x3cc517f5	0.024059275
9	0xbc94b123	-0.018150872
10	0xbb5f1137	-0.003403736
11	0x3d54f709	0.051993404
12	0x3d9be709	0.07612426
13	0xbce3ef75	-0.027824143
14	0xbc8b238e	-0.016984727
15	0xbd2d25ca	-0.042272367
16	0x3c582ffa	0.013195032
17	0xbc409832	-0.011755036
18	0xbbaa1606	-0.0051906137
19	0xbd6eeedc	-0.058333263
20	0xbc6a0d66	-0.014285421
21	0xbd108541	-0.03528333
22	0x3c05d681	0.0081688175
23	0xbc5f449f	-0.0136272
24	0xbbd3e300	-0.0064662695
25	0xbc706d7f	-0.014674543
26	0xbc587896	-0.013212344
27	0x3c193c07	0.009352691
28	0xbd3ad302	-0.04561139
29	0xbd237367	-0.039904978
30	0xbd80c8b7	-0.06288283
31	0x3b1a27b6	0.0023522205

conv3.1.running_mean f4 [32]
0	0xbf0ccb8c	-0.5499809
1	0xbf1d5fb7	-0.61474174
2	0xbe1f96e3	-0.15584902
3	0xbd922073	-0.071350954
4	0xbec3b2b1	-0.38222268
5	0x3e92a966	0.28644866
6	0xbddfeb8f	-0.10933601
7	0x3d1b4653	0.037908863
8	0xbd99ec89	-0.075158186
9	0xbe9029c2	-0.2815686
10	0xbe83501c	-0.25647056
11	0xbf106c57	-0.56415313
12	0xbef869a5	-0.485181
13	0xbf61aa2c	-0.88150287
14	0xbec6cd86	-0.38828677
15	0xbea4845e	-0.32132238
16	0xbedb4ccb	-0.42832026
17	0xbe231386	-0.15925416
18	0x3d7af316	0.06126698
19	0x3e16829d	0.14698263
20	0xbf141b18	-0.5785384
21	0xbcbc9267	-0.023019029
22	0xbe8b7005	-0.27233902
23	0xbe897c59	-0.26852682
24	0x3e2ed9fe	0.17075345
25	0xbec8fb35	-0.39254156
26	0xbe9e0445	-0.30862632
27	0xbf06797f	-0.5252914
28	0xbdec9222	-0.1155131
29	0x3e284ecd	0.1643631
30	0xbf0448f8	-0.5167384
31	0xbedb14fc	-0.42789447

conv3.1.running_var f4 [32]
0	0x3e4f3e90	0.2023871
1	0x3e910326	0.28322715
2	0x3e0731a7	0.13202535
3	0x3e48a2aa	0.19593301
4	0x3e738ae2	0.23783448
5	0x3e57962b	0.21053378
6	0x3ed45b92	0.41476113
7	0x3e822b32	0.2542358
8	0x3ddfc533	0.10926285
9	0x3e9dfdfe	0.30857843
10	0x3e526e84	0.20549971
11	0x3e92af07	0.2864916
12	0x3eca03fe	0.3945617
13	0x3e261108	0.16217434
14	0x3e4163c5	0.18885715
15	0x3e132dac	0.14372891
16	0x3e396ad3	0.18107156
17	0x3e3c6de7	0.184013
18	0x3e2945b3	0.16530494
19	0x3df6ed7e	0.12057017
20	0x3e43bec1	0.19115736
21	0x3e062473	0.13099842
22	0x3e80fe4e	0.2519402
23	0x3e77c464	0.24196011
24	0x3e3d1566	0.18465194
25	0x3e3d5a1d	0.18491407
26	0x3e014b4b	0.12626378
27	0x3ec87869	0.39154366
28	0x3e66e73c	0.22549146
29	0x3e22964f	0.1587765
30	0x3e100087	0.14062701
31	0x3e6ee8eb	0.23331039

deconv2.0.weight f4 [32, 16, 4, 4]
0	0xbda36f74	-0.07980242
1	0x3c506046	0.012718266
2	0xbc95d27f	-0.018288849
3	0x3c3811e1	0.011234731
4	0xbd2d3759	-0.04228911
5	0x3c7a2c68	0.015269376
6	0xbcc370fc	-0.023857586
7	0x3a99a4c7	0.0011722081
8	0xbd471380	-0.04860258
9	0x3b496cc5	0.0030734998
10	0xbd1db8da	-0.038506366
11	0xbd80d8ce	-0.06291352
12	0xbd16e1e5	-0.036836524
13	0x3d23d4a3	0.039997708
14	0xbd63a588	-0.055577785
15	0x3d019159	0.031632755
16	0x3c4b421d	0.012405899
17	0xbc70884a	-0.014680931
18	0x3cb2c6fb	0.021823397
19	0xbdb581b4	-0.088626295
20	0xbce39b33	-0.027783966
21	0x3cd045de	0.02542394
22	0x3de6293a	0.11238332
23	0x3c620395	0.013794799
24	0x3cd5664e	0.02604976
25	0xbccd2d9e	-0.025046166
26	0x3d2cd1af	0.042192157
27	0x3c4962c4	0.012291614
28	0xbd82ec9f	-0.06392788
29	0x3d65059c	0.055913553
30	0x3d308253	0.043093037
31	0x3bacfd65	0.0052792304
32	0x3d494443	0.049137365
33	0x3b0cfd42	0.0021513258
34	0x3d44df47	0.048064496
35	0x3b3fa665	0.0029243466
36	0x3ce836a5	0.028346369
37	0x3d3b41aa	0.04571692
38	0x3abcd351	0.0014406239
39	0x3cb8a69a	0.02254038
40	0x3d22f871	0.039787713
41	0x3d000255	0.031252224
42	0x38979bfa	7.229294e-05
43	0x3cafcc1b	0.02145963
44	0x3c3eb3e9	0.011639574
45	0xbd626c2f	-0.055278953
46	0x3b8e9a76	0.0043519093
47	0x3b96807f	0.0045929546
48	0xbcd0a5db	-0.025469711
49	0x3d081485	0.033222694
50	0xbd0f2771	-0.034949724
51	0x3d16d5b3	0.036824893
52	0xbd92adb2	-0.07162036
53	0xbdc43ef0	-0.09582317
54	0x3dda6440	0.106636524
55	0xbd0223b3	-0.031772327
56	0xbda5ea40	-0.0810132
57	0x3c91c14e	0.01779237
58	0xbd930af3	-0.07179823
59	0xbb320019	-0.0027160703
60	0xbc76918f	-0.015049352
61	0xbdf6be57	-0.12048023
62	0x3d97d013	0.07412734
63	0xbdf65ad6	-0.12029044
64	0x3c437b16	0.011931201
65	0x3d5c9dc4	0.053861395
66	0xbc047730	-0.008085057
67	0x3ae07728	0.0017125355
68	0xbd085085	-0.033279914
69	0xbd98065a	-0.074230865
70	0xbd0e8e7b	-0.03480385
71	0xbca1ab4b	-0.019735
72	0x3b3918c3	0.002824352
73	0x3d17c76e	0.037055425
74	0xbc2e3fa0	-0.010635287
75	0x3cd4f743	0.02599681
76	0x3d7e4e45	0.062086362
77	0x3d21989f	0.03945219
78	0x3c29b254	0.010357458
79	0x3caefc6b	0.021360597
80	0xbcd13be4	-0.025541253
81	0x3ca4d4c6	0.02012099
82	0xbd24fb95	-0.04027899
83	0xbd88436a	-0.06653483
84	0x3d6341f0	0.055482805
85	0x3d0542c9	0.032534394
86	0x3d393bd1	0.04522306
87	0xbab80382	-0.0014039131
88	0x3bb4a01c	0.0055122506
89	0xbc1481fe	-0.009064196
90	0xbd85e355	-0.06537501
91	0xbdacc075	-0.08435146
92	0xbca14e2d	-0.019690597
93	0x3c76fa7d	0.0150743695
94	0x3cd29dc5	0.025709996
95	0x3c0a8a5b	0.008455838
96	0xbc4741f8	-0.012161724
97	0xbd2fb34c	-0.0428956
98	0xbd9d8f05	-0.076932944
99	0x3c678b36	0.014132312
100	0x3d5e1647	0.054220464
101	0xbd990ff4	-0.07473746
102	0x3c227bb1	0.009917186
103	0xbc9f4a69	-0.019444661
104	0xbcc1b7a9	-0.023647146
105	0xbcb8e084	-0.022567995
106	0xbb0ea54b	-0.0021766003
107	0x3c1c5d73	0.009543764
108	0x3cc07ee6	0.02349801
109	0x3d34dda5	0.04415669
110	0x3d15da4e	0.036585145
111	0xbc61dcf3	-0.013785589
112	0xbda08d85	-0.07839493
113	0x3cb4819a	0.022034455
114	0x3ac1902b	0.0014767697
115	0x3c3e433e	0.0116127115
116	0xbc8e11ae	-0.017342415
117	0x3c60e356	0.013726076
118	0x3c371a8d	0.011175764
119	0x3bd8fea7	0.006622154
120	0xbd8d35c9	-0.06895024
121	0x3bbccce5	0.00576173
122	0x3d49ecd7	0.049298134
123	0x3c8a9b15	0.016919652
124	0xbcc6b172	-0.024254534
125	0x3d02da79	0.031946633
126	0xbcda23d1	-0.026628407
127	0x3bfe13a1	0.007753805
128	0x3bddbb92	0.006766745
129	0xbc1959d4	-0.009359796
130	0xbc56aecd	-0.013103199
131	0xbc085a6d	-0.00832234
132	0xbd4800b3	-0.04882879
133	0xbd3acfab	-0.045608204
134	0x3ba5f811	0.005064972
135	0xbd167ff0	-0.036743104
136	0x3d084e89	0.033278022
137	0xbd0b2817	-0.03397378
138	0x3cf4e3d8	0.0298938
139	0xbd4dfd7a	-0.050290562
140	0xbca7a3d0	-0.020463854
141	0x3d404b3a	0.04694674
142	0x3ca5dadf	0.020245967
143	0xbd42bb70	-0.047542036
144	0xbbcebdee	-0.0063092625
145	0xbc92ca74	-0.017918803
146	0x3c73c144	0.014877621
147	0xbd33a880	-0.043861866
148	0x3d3f171a	0.04665289
149	0xbc962b2c	-0.018331133
150	0xbe00232a	-0.12513414
151	0x3c496782	0.012292745
152	0x3d722e5e	0.05912625
153	0xbcacc2b2	-0.021088932
154	0x3d3e98e5	0.04653253
155	0xbdc71a79	-0.09721846
156	0x3d841ff5	0.06451408
157	0xbc329627	-0.010900057
158	0xbe003b35	-0.12522586
159	0xbc321f77	-0.01087176
160	0xbd41a9b5	-0.047280986
161	0xbdad61b1	-0.08465899
162	0xbd531463	-0.051533114
163	0xbda90099	-0.08252067
164	0x3cdf6f3f	0.027274726
165	0xbc98e8e8	-0.018665746
166	0xbd1b11e4	-0.03785886
167	0xbcc2a180	-0.02375865
168	0xbd0d10f6	-0.034440003
169	0xbdc424d8	-0.0957734
170	0xbbc615a6	-0.006045061
171	0xbd194ec0	-0.037428617
172	0x3d169eb3	0.03677244
173	0xbbdf597c	-0.0068160873
174	0x3c7267f4	0.014795292
175	0x3b98af10	0.004659541
176	0xbd75dd9b	-0.060025793
177	0xbcf86a85	-0.03032423
178	0xbd73c3b8	-0.059512824
179	0xbd90aa7d	-0.07063768
180	0xbb3cdacc	-0.0028816937
181	0xbd57d91c	-0.052697286
182	0x3c860c75	0.016363362
183	0xbdce82f1	-0.10083569
184	0xbd9afa8a	-0.07567318
185	0xbd82f8e1	-0.06395126
186	0xbd6a043a	-0.057132937
187	0xbcd7ccf8	-0.026342854
188	0xbd246e24	-0.0401441
189	0xbd190ea6	-0.037367485
190	0x3c649915	0.013952513
191	0xbcb4c044	-0.022064336
192	0xbc3fb865	-0.011701678
193	0x3c9a890f	0.018864183
194	0xbd7ebf6f	-0.062194284
195	0x3d0d5846	0.034508012
196	0xbd75e814	-0.06003578
197	0xbc0252df	-0.007954328
198	0xbb6c8114	-0.0036087679
199	0xbd2e5aad	-0.042566944
200	0xbc1cac79	-0.009562605
201	0x3d7d13da	0.06178651
202	0xbd7af579	-0.061269257
203	0x3d28567d	0.041098107
204	0xbc250b6e	-0.010073526
205	0xbca2587b	-0.019817581
206	0x3c3ab3d4	0.011395413
207	0xbbe1484a	-0.0068750726
208	0x3a8d8a9e	0.0010798757
209	0xbc5ac20d	-0.013351929
210	0xbd81121d	-0.06302283
211	0xbc178ebd	-0.00925034
212	0x3d942535	0.07233659
213	0x3d3f60f5	0.046723325
214	0xbc9b26f3	-0.01893947
215	0x3cdaa1ab	0.026688417
216	0x3c809e1f	0.015700398
217	0xbc801908	-0.015636936
218	0xbd7a4c59	-0.061107967
219	0x3c0817ad	0.008306426
220	0x3d9be35e	0.07611726
221	0x3bbe5e10	0.005809553
222	0x3d1dadb4	0.038495734
223	0x3d080df5	0.033216435
224	0xbd8e84b3	-0.06958904
225	0xbb7cb60f	-0.0038560664
226	0xbc855d56	-0.016279858
227	0xbd1ea57a	-0.03873203
228	0x3c11767e	0.008878348
229	0xbca5c806	-0.02023698
230	0x3c9bd044	0.019020207
231	0xbb814185	-0.003944578
232	0xbd340a07	-0.043954875
233	0xbd655421	-0.055988435
234	0xbd5ead33	-0.054364394
235	0xbda7f612	-0.08201231
236	0x395eb5ee	0.00021239344
237	0xbd2ff518	-0.04295835
238	0xbbb482d6	-0.005508761
239	0xbcfc9ed4	-0.030837454
240	0xbd06b5aa	-0.032888092
241	0xbd7c6ecf	-0.061629113
242	0x3b9131cb	0.0044309846
243	0x3cac4249	0.021027701
244	0xbc8506cf	-0.016238598
245	0xbcbd7547	-0.023127211
246	0xbdcedb29	-0.10100395
247	0x3cee43b8	0.029085025
248	0xbd0f436f	-0.03497642
249	0xbd3f6869	-0.046730433
250	0x3c72de65	0.014823531
251	0xbd8ec133	-0.069704436
252	0x3db4335a	0.08798857
253	0xbcc6ba2a	-0.024258692
254	0xbd83ada6	-0.06429605
255	0x3bd5e40b	0.006527429

deconv2.0.bias f4 [16]
0	0x3cf1d1c0	0.029518962
1	0xbd76b449	-0.060230527
2	0x3cf67bc9	0.030088322
3	0x3cda11bc	0.026619785
4	0x3d1e5aad	0.038660694
5	0xbd666c39	-0.056255553
6	0x3d46a3cd	0.048496056
7	0xbc86150c	-0.016367458
8	0xbd77ee30	-0.060529888
9	0x3d53bd1a	0.051694013
10	0x3ce046d7	0.02737753
11	0xbd628a40	-0.055307627
12	0x3cd1c32c	0.02560576
13	0xbc6b3f47	-0.014358348
14	0x3c74e499	0.01494708
15	0x3c852385	0.016252289

deconv2.1.weight f4 [16]
0	0x3f738583	0.951256
1	0x3f816233	1.0108093
2	0x3f807390	1.0035267
3	0x3f794541	0.973713
4	0x3f7cf46f	0.98810476
5	0x3f726fc7	0.9470181
6	0x3f72bdc7	0.9482083
7	0x3f7152e9	0.94267136
8	0x3f770d57	0.9650473
9	0x3f834b05	1.0257269
10	0x3f76831b	0.962938
11	0x3f8e4518	1.1114836
12	0x3f7bfccd	0.9843262
13	0x3f742753	0.95372504
14	0x3f85bb88	1.0447855
15	0x3f801623	1.0006756

deconv2.1.bias f4 [16]
0	0x3c0e6195	0.008690258
1	0x3db772cd	0.089574434
2	0x3d5f6b77	0.054545846
3	0x3c58a17b	0.013222094
4	0x3ca58935	0.020207027
5	0x3c796768	0.015222408
6	0x3cea07f6	0.02856825
7	0xbd33807e	-0.04382371
8	0xbc6a2398	-0.014290713
9	0x3e0a0326	0.13477764
10	0x3d0270e2	0.031845935
11	0xbd4ec71e	-0.05048286
12	0xbd0e4b80	-0.03473997
13	0x3cd9b580	0.026575804
14	0x3d328280	0.043581486
15	0x3c90a905	0.01765872

deconv2.1.running_mean f4 [16]
0	0xbf386eff	-0.72044367
1	0xbf1497e9	-0.58044297
2	0xbe940a91	-0.28914312
3	0xbf191d0c	-0.59809947
4	0xbe851c57	-0.25998184
5	0xbf56f970	-0.8397436
6	0xbf07327a	-0.52811396
7	0xbecb86f4	-0.397514
8	0xbf350354	-0.70708203
9	0xbf54de79	-0.83151966
10	0xbf6e5355	-0.93095905
11	0xbf455d92	-0.770959
12	0xbd0382f2	-0.0321073
13	0xbe73c9e2	-0.23807481
14	0xbf50092e	-0.8126401
15	0xbf6954b3	-0.91144866

deconv2.1.running_var f4 [16]
0	0x3f4b346c	0.79376864
1	0x3f5f6123	0.87257594
2	0x3f666288	0.89994097
3	0x3f2f8027	0.6855492
4	0x3f0827b8	0.53185606
5	0x3fbb062d	1.461126
6	0x3fa809a2	1.312794
7	0x3f380e3e	0.7189673
8	0x3f0bf3e2	0.5466901
9	0x400b6cee	2.1785235
10	0x3fe94ab9	1.8225929
11	0x3df8291d	0.12117217
12	0x3eac9fdd	0.33715716
13	0x3f963725	1.1735579
14	0x3f0e4d6c	0.55586886
15	0x3f4a6402	0.7905885

deconv3.0.weight f4 [16, 8, 4, 4]
0	0xbd673ae2	-0.05645264
1	0x3c97b3cc	0.018518351
2	0xbc43345c	-0.011914339
3	0xbdbccb0e	-0.09218417
4	0xbdad9321	-0.08475328
5	0xbd535944	-0.051598802
6	0x3cadb7cd	0.021205807
7	0xbc93dfd2	-0.018051062
8	0xbd677755	-0.05651029
9	0x3cac4fb9	0.021034108
10	0x3cb2ad1c	0.02181106
11	0x3d939072	0.07205285
12	0xbd7f24c2	-0.062290914
13	0xbd077272	-0.033068128
14	0x3d1057bf	0.03523993
15	0xbbcc1dae	-0.006229124
16	0xbbf52eb1	-0.0074823727
17	0xbd186800	-0.037208557
18	0x3cb9d4c4	0.022684462
19	0x3da699cb	0.081348024
20	0x3d149e37	0.036283698
21	0x3cdeb534	0.027186014
22	0x3d670a04	0.056406036
23	0x3cb30c9c	0.021856599
24	0xbbd50849	-0.006501232
25	0x3dc1d2d0	0.094640374
26	0x3d4f7b5d	0.050654758
27	0x3d22cf17	0.039748278
28	0x3ac9eb2f	0.0015405173
29	0x3d89d5b0	0.06730211
30	0x3d80fed8	0.062986076
31	0xbce425f9	-0.027850138
32	0x3d591b29	0.053004418
33	0x3d03dd51	0.032193486
34	0xbcf57824	-0.029964514
35	0x3d817be8	0.06322461
36	0x3d4a8c58	0.04945025
37	0x3e05a130	0.1304977
38	0x3c745ae4	0.014914248
39	0x3ce4ed2e	0.027945127
40	0x3ca26d15	0.019827405
41	0x3d932afe	0.071859345
42	0xbd5a8fd0	-0.053359807
43	0x3d8b774a	0.06809862
44	0x3c6da7d1	0.014505343
45	0x3ceb4bae	0.02872261
46	0xbc062f8e	-0.008190049
47	0xbc282c07	-0.010264403
48	0x3cea2103	0.028580194
49	0x3dbf7c43	0.09349873
50	0xbd897b8a	-0.06713016
51	0x39b589ac	0.00034625584
52	0x3be3000f	0.006927497
53	0xbd122102	-0.03567601
54	0x3cefc4f2	0.029268716
55	0x3daebe17	0.085323505
56	0x3d1296f2	0.035788484
57	0x3daa3106	0.08310132
58	0xbcbd76f8	-0.023128018
59	0x3d9b59b4	0.07585469
60	0x3cfb3268	0.030663684
61	0x3cf75c19	0.030195283
62	0x3c9887d8	0.018619463
63	0x3cb7b1ca	0.022423644
64	0x3d096b2d	0.033549476
65	0x3d5b03a8	0.053470284
66	0xbc1ed9cb	-0.009695481
67	0xbd4cbb4a	-0.0499833
68	0x3d0f2f0c	0.034956977
69	0x3c52f8c9	0.012876698
70	0x3c946b4a	0.018117566
71	0xbd848cf3	-0.064721964
72	0xbc9dab0e	-0.019246604
73	0x3d226214	0.039644316
74	0xbd0d7d31	-0.03454322
75	0x3ba5894a	0.0050517665
76	0x3b4f6010	0.003164295
77	0x3c94f8b8	0.018185005
78	0xbc444339	-0.011978918
79	0x3d41206c	0.04715006
80	0x3c9a934c	0.018869065
81	0xbca17e1a	-0.01971345
82	0x3ad26ae5	0.0016053586
83	0xbadeda72	-0.0017002358
84	0x3c09e91e	0.008417396
85	0xbc2413e6	-0.01001451
86	0x3c8af778	0.016963705
87	0x3d8f35e8	0.06992704
88	0xba0bc310	-0.0005331496
89	0x3d31dcad	0.043423343
90	0xbd21b645	-0.039480466
91	0xbbd3b85a	-0.0064611854
92	0x3d535a71	0.051599924
93	0x3c27c2fc	0.010239359
94	0x3ce77887	0.028255714
95	0x3ca51389	0.020150917
96	0xbceb9442	-0.028757218
97	0xbda37006	-0.07980351
98	0xbcfc0e65	-0.030768583
99	0xbd7c92fd	-0.061663616
100	0x3d34e8f8	0.04416749
101	0xbd2842ee	-0.041079454
102	0xbba28855	-0.0049600997
103	0xbc93ae3f	-0.018027423
104	0x3c02c72c	0.007982057
105	0x3da6b820	0.08140588
106	0x3d071a4c	0.032984063
107	0x3bd95091	0.0066319187
108	0x3b7c48ad	0.0038495467
109	0xbd0761ca	-0.033052243
110	0xbcb18905	-0.021671781
111	0xbd3ea518	-0.046544164
112	0x3d250b8e	0.040294223
113	0x3da0840a	0.078376845
114	0x3d08723a	0.03331206
115	0x3cf8ec43	0.030386096
116	0x3cb35465	0.021890828
117	0x3dccc030	0.09997594
118	0xbd706a56	-0.05869516
119	0xbcee6b66	-0.029103946
120	0x3d42c70b	0.047553103
121	0xbd98d689	-0.07462794
122	0xbcd0a610	-0.02546981
123	0xbc15e7ac	-0.009149473
124	0x3d3d38d7	0.046196785
125	0x3d6605ee	0.056158
126	0xbcfa1098	-0.03052549
127	0x3d1c1a0e	0.038110785
128	0xbc4a8ddb	-0.012362923
129	0x3bb9f9be	0.0056755235
130	0x3d81816c	0.063235134
131	0xbdb98e5c	-0.09060356
132	0xbd21846f	-0.03943294
133	0xbd115c55	-0.035488445
134	0x3e0d034b	0.13770787
135	0x3d4ce1aa	0.050019898
136	0x3c913c3c	0.017728917
137	0x3c51a41d	0.012795475
138	0x3d0384e3	0.032109153
139	0xbc1ea77a	-0.009683484
140	0xbb9f3643	-0.0048587634
141	0xbd117ec4	-0.035521284
142	0x3d50eb28	0.051005512
143	0x3b61d2ce	0.0034457925
144	0x3d498ac2	0.049204595
145	0xbdc4f477	-0.096169405
146	0x3b0d1abc	0.0021530828
147	0xbd0f4372	-0.03497643
148	0xbce8808d	-0.02838161
149	0xbda05edb	-0.07830592
150	0x3dc669c7	0.09688144
151	0xbd42b906	-0.047539733
152	0x3c85b50d	0.016321683
153	0xbb3f651b	-0.002920455
154	0x3c1506e2	0.009095879
155	0x3c8968a0	0.016773522
156	0x392139dc	0.00015375711
157	0x3b635474	0.003468779
158	0x3d3150dc	0.043290004
159	0x3cfbb650	0.030726582
160	0x3c292b0b	0.010325204
161	0x3cac52fb	0.021035662
162	0x3de1af13	0.11019721
163	0xbb249733	-0.0025114536
164	0xbb29bdc7	-0.002590047
165	0x3bd152c2	0.0063880393
166	0xbc387233	-0.011257696
167	0x3d5d5401	0.05403519
168	0xbc873030	-0.01650247
169	0x3d0f1e3b	0.03494094
170	0x3adf3cd1	0.0017031675
171	0xbbd84d84	-0.0066010375
172	0xbca9e649	-0.020739691
173	0xbcbced4a	-0.023062367
174	0x3cf008e7	0.02930112
175	0xbd6c4922	-0.057686932
176	0xbd9f7648	-0.07786232
177	0xbd03c10b	-0.032166522
178	0x3d75c0c8	0.059998304
179	0xbd0b6203	-0.034029018
180	0x3da04714	0.07826057
181	0xbd48d983	-0.04903556
182	0xbd469924	-0.04848589
183	0x3d2b613d	0.04184078
184	0xbd4d3137	-0.050095763
185	0x3d0734ea	0.033009447
186	0x3dd89081	0.10574437
187	0x3c56d9c9	0.013113447
188	0x3d53003b	0.05151389
189	0x3b601aa5	0.003419557
190	0xbd4efff7	-0.050537076
191	0x3d2a7609	0.041616473
192	0x3d46e988	0.048562557
193	0xbb1c29c3	-0.0023828603
194	0x3cade63b	0.021227947
195	0x3d543fd0	0.05181867
196	0x3da28d28	0.0793708
197	0x3d6b4fca	0.05744914
198	0xbd07a05c	-0.033111915
199	0x3cd71ef9	0.026259886
200	0x3d4c812c	0.049927875
201	0x3d1da451	0.038486782
202	0x3d13ae4d	0.036054898
203	0x3de30593	0.110850476
204	0x3c0938e6	0.008375382
205	0xbd05b526	-0.03264346
206	0x3d370e7b	0.044691544
207	0x3c7c269e	0.015390066
208	0x3cbb1837	0.022838695
209	0xbd6e82b0	-0.058230102
210	0xbd1599dc	-0.036523685
211	0x3d7b8c3c	0.061413035
212	0xbd2efe57	-0.042723026
213	0x3d347711	0.044058863
214	0x3dfa59c4	0.12224153
215	0x3e01dedf	0.12682675
216	0x3c230ecc	0.009952258
217	0x3d5ba501	0.053624157
218	0x3b06d19c	0.0020571714
219	0x3debeade	0.11519407
220	0x3dbea2e5	0.093084134
221	0x3cef35c4	0.029200442
222	0x3daa765b	0.08323356
223	0x3df6aa13	0.12044158
224	0xbd0b479b	-0.034003835
225	0xbdb43c5a	-0.08800574
226	0xbc9c6cc0	-0.019094825
227	0x3ccc564f	0.024943499
228	0x3d176a57	0.036966648
229	0x3ca8a893	0.020588195
230	0x3ddb465d	0.1070678
231	0xba650251	-0.0008736002
232	0x3cd8ee4a	0.026480813
233	0xbceb70c7	-0.0287403
234	0x3c9d7341	0.019219996
235	0x3ca42743	0.020038253
236	0xbb7c344c	-0.003848332
237	0x3b56e27b	0.0032788801
238	0x3ddc6aa1	0.10762525
239	0x3d0e9898	0.034813493
240	0x3cb2c19d	0.021820838
241	0x3d42a753	0.047522854
242	0xbbebe698	-0.00719912
243	0x3d504f4e	0.05085688
244	0x3c57adad	0.013163966
245	0xbc889ca0	-0.016676247
246	0xbd9c4f9d	-0.076323725
247	0xbdab5694	-0.08366123
248	0xbd49b9a7	-0.049249317
249	0xbc339343	-0.010960403
250	0xbd2b619a	-0.041841127
251	0xbd85b224	-0.06528118
252	0xbc713d0a	-0.0147240255
253	0xbc452469	-0.012032607
254	0xbdc96be5	-0.098350324
255	0xbda08db7	-0.0783953

deconv3.0.bias f4 [8]
0	0xbd906924	-0.07051304
1	0x3d9d509c	0.07681391
2	0xbd5aefb4	-0.053451255
3	0x3d44226f	0.0478844
4	0x3cd06eb3	0.02544341
5	0x3d7f984e	0.06240111
6	0x3d06f723	0.03295053
7	0x3d817eef	0.06323039

deconv3.1.weight f4 [8]
0	0x3f9eee9f	1.2416571
1	0x3f9c0aaf	1.219076
2	0x3f9c9698	1.2233458
3	0x3f9ca0c3	1.223656
4	0x3f9954cf	1.1979007
5	0x3f9c8b06	1.2229927
6	0x3f9e2e6c	1.2357917
7	0x3f976baf	1.1829737

deconv3.1.bias f4 [8]
0	0x3e74784d	0.23874016
1	0x3e59aaac	0.21256512
2	0x3e5df940	0.21677113
3	0x3e60406c	0.21899575
4	0x3e4ca584	0.19985014
5	0x3e5dea94	0.21671516
6	0x3e6d494a	0.23172489
7	0x3e416527	0.18886243

deconv3.1.running_mean f4 [8]
0	0xbe3ce0ef	-0.1844518
1	0xbd254f1b	-0.040358644
2	0x3d9dd731	0.0770706
3	0x3dfdc239	0.12390561
4	0x3ed14b74	0.4087788
5	0x3eea4007	0.45751974
6	0x3d094525	0.033513207
7	0xbdf9de23	-0.12200572

deconv3.1.running_var f4 [8]
0	0x3d9d4c89	0.076806135
1	0x3d6e18f8	0.05812928
2	0x3dc0a75a	0.0940692
3	0x3d8b4e5f	0.068020575
4	0x3d47f335	0.048815925
5	0x3d7d37b5	0.061820704
6	0x3d9b7310	0.07590306
7	0x3d959fb8	0.073058546
