03_hw/Pix2Pix/checkpoints/pix2pix_model_epoch_700.pth (torch, 99191 bytes, 32 tensors)

conv1.0.weight f4 [8, 3, 4, 4]
-0.09871756 -0.11392217 -0.053142056 -0.18381709 0.059959844 -0.09987588 -0.020787349 0.06007101
-0.1417105 -0.045442846 -0.0049163667 0.04028506 -0.024033718 0.07221462 0.07017162 -0.13657421
0.1347759 0.18802725 0.0550825 -0.0054674763 0.0364674 -0.023470964 -0.077681035 0.04939847
0.11932085 0.053798337 0.03930165 -0.039824158 -0.07487878 0.028657323 -0.06459944 0.16680092
-0.10419895 0.038961418 -0.14896265 0.052962467 -0.110242076 -0.105979815 -0.0067306594 -0.121589445
0.025696388 -0.024427982 -0.002582406 -0.036686882 -0.047006786 0.043272406 0.07240243 0.04601549
-0.069863096 0.06925799 -0.018695073 -0.0182688 -0.0037494253 0.11357658 0.034124468 -0.011549525
0.14605197 0.08792831 -0.099496745 -0.07290635 0.034793317 0.12721224 -0.029730946 -0.022122027
-0.0025814723 0.13464788 0.011044169 -0.08420745 -0.045341525 -0.07676053 0.037732664 -0.033203885
0.030886574 -0.0086369375 0.037114657 -0.12816264 0.06196081 -0.027520433 0.06019318 0.09182417
0.0023015027 -0.06284226 0.04836196 -0.12919563 -0.05619112 0.0833886 -0.07263983 0.06562249
-0.0055021746 -0.004306691 -0.017601464 0.004703067 -0.06285274 -0.09312572 -0.028949887 -0.09663167
-0.13227983 0.05504283 0.013831106 -0.056540556 0.011615145 -0.024566567 0.064847335 0.13852482
-0.077850156 0.045722894 -0.11188759 -0.050201766 0.15477516 0.034759555 0.041107804 -0.05404425
-0.05794349 0.0019813038 0.10122302 -0.11277005 0.12759222 -0.03274253 0.014724345 0.1296497
0.031189691 0.0737454 -0.09259218 -0.107127704 0.03981585 0.030254818 -0.00534339 0.11810915
-0.10144894 0.09495044 -0.014588693 0.037547525 0.016155325 0.06574838 0.095355034 -0.014170299
0.0779253 0.17178077 0.1216489 0.07562828 -0.088741325 0.02452736 0.10020158 0.116518006
0.060242917 0.11470787 0.1733318 0.04912783 0.0046351403 -0.050623138 -0.00046751642 -0.051230405
0.038440313 -0.06754736 0.14292154 -0.058826268 0.053069286 0.11253498 0.10123212 -0.15877928
-0.10898639 0.08832361 0.15625931 0.025787422 0.068308435 0.098373204 0.0016180992 -0.0385489
-0.09202388 -0.087572545 0.06865093 0.10053321 -0.085181214 -0.05657964 -0.014087151 -0.08410381
0.07868233 -0.17584005 0.016960535 0.031520624 -0.05648863 -0.11308452 -0.042638075 0.019012084
-0.11613005 0.10744729 -0.079684034 0.110627666 -0.058041897 -0.04224199 -0.110020116 0.128905
-0.0933756 -0.13877822 0.03886197 0.049914 0.13381162 -0.01432877 0.00025580425 -0.1398713
0.09457018 -0.0723779 0.117855385 0.056511533 0.046931777 -0.17019483 -0.0879995 -0.014121034
-0.027986018 0.06074585 0.037036657 0.09366772 -0.096605405 -0.077826716 -0.0053511956 0.077014215
-0.033867083 -0.12817988 -0.19553812 -0.23135547 -0.11125506 -0.02081977 -0.1983406 0.030165924
0.11000051 0.018625524 0.061332554 -0.10401814 0.07322068 -0.058453824 0.09389025 -0.07631513
-0.055943046 0.09428511 -0.05218919 0.064149946 0.09833857 0.030455304 -0.0061274874 -0.05831852
0.0386028 -0.11536901 -0.068235 -0.040894948 -0.057216574 -0.09629225 0.118769005 -0.0029162562
0.10084637 0.015332382 0.09435952 -0.113870025 -0.038174886 0.10776258 0.12603417 0.05399242
00000000: 6f2c cabd 0750 e9bd 7cab 59bd 8c3a 3cbe
00000010: 7498 753d ba8b ccbd 3b4a aabc 050d 763d
00000020: 8f1c 11be 4722 3abd 7919 a1bb f201 253d
00000030: 5ce2 c4bc 42e5 933d 23b6 8f3d 1cda 0bbe
00000040: b202 0a3e 378a 403e 309e 613d 8428 b3bb
00000050: d75e 153d 2e46 c0bc 3c17 9fbd 0d56 4a3d
00000060: 7d5e f43d a55b 5c3d c4fa 203d a81e 23bd
00000070: 0c5a 99bd c3c2 ea3c b64c 84bd dccd 2a3e
00000080: 4266 d5bd 0296 1f3d aa89 18be 2cef 583d
00000090: 99c6 e1bd f20b d9bd dd8c dcbb e303 f9bd
000000a0: 3b81 d23c 311d c8bc 953d 29bb fc44 16bd
000000b0: 308a 40bd 683e 313d ba47 943d bd7a 3c3d
000000c0: 6214 8fbd 22d7 8d3d 6926 99bc 73a8 95bc
000000d0: ebb8 75bb d79a e83d 19c6 0b3d 383a 3dbc
000000e0: a68e 153e c213 b43d f3c4 cbbd ed4f 95bd
000000f0: 7083 0e3d ed43 023e 508e f3bc 4139 b5bc
00000100: eb2d 29bb 22e1 093e 9af2 343c f574 acbd
00000110: 09b8 39bd a034 9dbd 918d 1a3d cc00 08bd
00000120: d705 fd3c f181 0dbc 8a05 183d 113d 03be
00000130: 9eca 7d3d 8872 e1bc 208d 763d 4f0e bc3d
00000140: cfd4 163b 71b3 80bd 3117 463d dc4b 04be
00000150: a928 66bd a4c7 aa3d 31c4 94bd 1665 863d
00000160: 964b b4bb 241f 8dbb f230 90bc 2f1c 9a3b
00000170: f0b8 80bd b3b8 bebd 5028 edbc d3e6 c5bd
00000180: 5d74 07be 9774 613d dd9b 623c 1297 67bd
00000190: 734d 3e3c d33f c9bc aece 843d 73d9 0d3e
000001a0: e76f 9fbd ee47 3b3d 5225 e5bd 5ea0 4dbd
000001b0: 617d 1e3e 0960 0e3d a860 283d 815d 5dbd
000001c0: 2756 6dbd c3d8 013b 044e cf3d fcf3 e6bd
000001d0: 89a7 023e 081d 06bd 613e 713c e4c2 043e
000001e0: 8681 ff3c d407 973d f8a0 bdbd c565 dbbd
000001f0: f215 233d f4d8 f73c 9b17 afbb 36e3 f13d
00000200: 76c4 cfbd 6075 c23d 6a05 6fbc 6fcb 193d
00000210: 2c58 843c 16a7 863d 8049 c33d 8b2a 68bc
00000220: 4d97 9f3d 4ce7 2f3e 0f23 f93d 00e3 9a3d
00000230: 03be b5bd 9aed c83c 7c36 cd3d fea0 ee3d
00000240: 47c1 763d f6eb ea3d e47d 313e 433a 493d
00000250: 60e2 973b 355a 4fbd fe1c f5b9 f9d6 51bd
00000260: 9773 1d3d 4556 8abd 065a 123e d0f3 70bd
00000270: 2e5f 593d bd78 e63d c952 cf3d 0997 22be
00000280: 4234 dfbd 02e3 b43d 7102 203e 2540 d33c
00000290: 4be5 8b3d e477 c93d 6616 d43a 74e5 1dbd
000002a0: 0477 bcbd 3c59 b3bd dc98 8c3d 5be4 cd3d
000002b0: 7d73 aebd 0dc0 67bd cbcd 66bc 9e3e acbd
000002c0: 3424 a13d 6a0f 34be d2f0 8a3c c51b 013d
000002d0: 9f60 67bd db98 e7bd 43a5 2ebd 3bbf 9b3c
000002e0: 97d5 edbd 530d dc3d 6231 a3bd c290 e23d
000002f0: 57bd 6dbd f005 2dbd 3a52 e1bd acff 033e
00000300: b53b bfbd e11b 0ebe bb2d 1f3d 9f72 4c3d
00000310: ea05 093e 38c3 6abc 771d 8639 6c3a 0fbe
00000320: 03ae c13d dd3a 94bd 2a5e f13d a378 673d
00000330: 893b 403d 8e47 2ebe 1539 b4bd e95b 67bc
00000340: ef42 e5bc a4d0 783d c0b3 173d ddd4 bf3d
00000350: 0ed9 c5bd 9d63 9fbd 1559 afbb a1b9 9d3d
00000360: 36b8 0abd 9641 03be 253b 48be 73e8 6cbe
00000370: b1d9 e3bd 398e aabc cc19 4bbe 871e f73c
00000380: f347 e13d 8e94 983c d837 7b3d 7607 d5bd
00000390: b9f4 953d 476d 6fbd 8849 c03d 1b4b 9cbd
000003a0: 8924 65bd 8d18 c13d 55c4 55bd 0c61 833d
000003b0: bb65 c93d 677d f93c 17c9 c8bb 67df 6ebd
000003c0: f81d 1e3d 9646 ecbd cbbe 8bbd 7681 27bd
000003d0: ed5b 6abd df34 c5bd 2a3d f33d a91e 3fbb
000003e0: 8b88 ce3d ac34 7b3c 903f c13d b034 e9bd
000003f0: 455d 1cbd a1b2 dc3d 1a0f 013e 2827 5d3d

conv1.0.bias f4 [8]
0.1333709 0.0044409633 -0.03499809 0.124376215 0.07116843 0.10073821 -0.10868145 -0.0118032405
00000000: 6292 083e 8085 913b 285a 0fbd f5b8 fe3d
00000010: c1c0 913d d64f ce3d 6194 debd 6162 41bc

conv1.1.weight f4 [8]
1.0063565 0.9835312 0.99923116 0.9549292 1.0068434 0.9470873 1.020825 1.0547606
00000000: 4ad0 803f b3c8 7b3f 9dcd 7f3f 3d76 743f
00000010: 3fe0 803f 5074 723f 65aa 823f 6502 873f

conv1.1.bias f4 [8]
-0.0027988288 -0.0415352 -0.032244742 -0.010365681 -0.0036857908 0.07846171 -0.0442263 0.10465255
00000000: 8e6c 37bb d020 2abd 1013 04bd d1d4 29bc
00000010: 4f8d 71bb 88b0 a03d a326 35bd 1354 d63d

conv1.1.running_mean f4 [8]
0.199138 -0.028170811 -0.101886824 0.05785165 0.17115112 0.07842577 -0.11480935 -0.011229373
00000000: d5ea 4b3e 79c6 e6bc 0aaa d0bd daf5 6c3d
00000010: 3d42 2f3e b19d a03d 2a21 ebbd 67fb 37bc

conv1.1.running_var f4 [8]
0.04736954 0.014164179 0.2515875 0.02548275 0.13296966 0.033391673 0.01998029 0.030196443
00000000: 9006 423d df10 683c 14d0 803e 33c1 d03c
00000010: 3329 083e b5c5 083d b5ad a33c 885e f73c

conv2.0.weight f4 [16, 8, 4, 4]
0.06676688 0.09541308 0.030092198 0.044562045 -0.08066733 0.07323383 -0.046444193 0.07105962
-0.07601616 0.06984493 0.051367365 0.018282907 -0.02857804 -0.10184538 -0.10213625 0.017583199
-0.016925517 0.10294667 0.0739362 -0.02050456 0.05491301 -0.06506756 0.023595966 -0.022869809
0.02937348 0.008159649 -0.052620824 0.021188622 0.038179733 0.027594361 -0.025386631 -0.088859804
-0.042571258 0.017331025 0.04116246 -0.0394345 -0.08743747 -0.019431582 -0.01045538 0.04855449
-0.03816826 -0.07041861 -0.0124650095 -0.02576253 -0.107144944 -0.09306776 -0.07672499 -0.09586812
0.040248502 -0.02606568 0.02801694 0.015511905 0.016302826 0.02616327 -0.06230968 -0.048561357
0.0010285812 -0.03180962 0.00993496 -0.0025717241 0.09006888 -0.018914904 0.0076848487 0.00041324933
0.05944428 -0.027558144 0.0033967933 0.044161275 0.04036611 0.0038695568 0.10106808 -0.009828975
0.0538808 -0.033903953 0.08287732 0.049113255 -0.07721609 -0.023620045 -0.052240744 -0.038313266
-0.082937196 -0.09796438 0.0063880393 0.0015452931 -0.006525969 -0.022025174 0.044033803 0.0076849475
0.0033427742 0.066558406 0.047184 0.069873884 -0.006755232 0.0071755545 -0.06660174 0.011402258
0.067383416 0.0024378058 0.08965713 0.047971766 0.07380001 0.040475946 0.026092185 0.055649795
-0.015131522 0.029882649 -0.010229243 0.05582623 -0.0021881545 0.09410989 0.028058654 0.09483424
0.0030482514 0.014776646 -0.032054488 0.00547993 -0.032277174 -0.007313886 -0.029134477 -0.022805884
0.07480055 0.020052234 0.04953286 0.047944088 0.05284887 -0.01069964 0.048095305 -0.032411575
0.025653454 0.005871234 -0.032044325 -0.060523607 -0.046323355 -0.07292668 -0.036958072 0.07551129
0.051043443 0.0006581759 -0.007728219 0.07133021 -0.053882092 -0.0060634753 0.094076484 -0.050621573
0.01993104 0.035804328 -0.053086273 -0.07219108 -0.092699714 -0.05267293 -0.08529036 -0.031800922
0.008866036 -0.051753026 0.059797175 0.029859329 0.00014451018 -0.030913182 0.08274534 0.11600001
-0.104018845 -0.030520543 0.065897524 -0.018323768 0.06326943 0.03447903 0.04420383 -0.05959682
0.017939901 -0.011026794 -0.084209956 0.036934074 0.013730941 -0.05376524 0.021004824 0.062998645
-0.025299048 -0.035816316 0.099370904 -0.0074014678 -0.055329103 -0.04382033 -0.05307932 0.04658771
-0.025105635 -0.058746707 -0.08134277 0.018467125 -0.07123026 0.0113854855 0.040146522 -0.007369369
-0.025548404 -0.06258962 -0.0043756627 0.0036854006 -0.017553424 0.0428761 0.03428839 -0.05092231
-0.060785715 -0.065804504 -0.078209125 0.04627243 -0.006117017 -0.02305463 0.09674518 -0.034751534
-0.02904794 -0.03773859 -0.07404234 -0.05155113 0.040051002 -0.034743864 -0.09155245 -0.11707329
0.019497843 -0.035058316 -0.028300954 -0.012180463 0.013505915 -0.06766858 -0.036889516 0.014666386
0.013497393 -0.0068375743 -0.031434193 0.0680781 0.048789263 -0.0517999 -0.04182627 0.02172793
-0.082198806 -0.013251499 -0.17716499 -0.060468674 0.0014680964 -0.07488104 -0.08404229 0.026216595
0.025975453 -0.0595815 0.0037702848 -0.014140632 -0.17068636 -0.14020334 -0.09119603 0.016801925
-0.025819289 -0.20982544 -0.12237452 -0.07355454 0.0006207379 -0.017290082 -0.07481713 0.024953032
00000000: 13bd 883d ef67 c33d ea83 f63c b186 363d
00000010: ea34 a5bd 9efb 953d 443c 3ebd b587 913d
00000020: 5cae 9bbd dc0a 8f3d 9666 523d 09c6 953c
00000030: 7e1c eabc 5094 d0bd cf2c d1bd a40a 903c
00000040: 62a7 8abc b4d5 d23d dd6b 973d 2ef9 a7bc
00000050: 77ec 603d 2442 85bd 544c c13c 7759 bbbc
00000060: a7a0 f03c 0cb0 053c ef88 57bd c393 ad3c
00000070: 5a62 1c3d 920d e23c a0f7 cfbc 21fc b5bd
00000080: 335f 2ebd cbf9 8d3c f899 283d 1286 21bd
00000090: 6b12 b3bd fb2e 9fbc 0b4d 2bbc 13e1 463d
000000a0: 5256 1cbd a237 90bd 0a3a 4cbc f10b d3bc
000000b0: cf6e dbbd 4f9a bebd fe21 9dbd 8156 c4bd
000000c0: 9ddb 243d b187 d5bc c883 e53c a525 7e3c
000000d0: 818d 853c 5b54 d63c 6f38 7fbd 46e8 46bd
000000e0: 75d1 863a ce4a 02bd 3ec6 223c 5f8a 28bb
000000f0: 0876 b83d 6ef3 9abc 2fd1 fb3b 63a9 d839
00000100: d87b 733d 9ec1 e1bc bc9c 5e3b 74e2 343d
00000110: ef56 253d 6498 7d3b c8fc ce3d b609 21bc
00000120: 1db2 5c3d dfde 0abd 96bb a93d fb2a 493d
00000130: 7823 9ebd d37e c1bc 64fa 55bd 5fee 1cbd
00000140: fada a9bd 8da1 c8bd c252 d13b 6f8b ca3a
00000150: ccd7 d5bb 236e b4bc ca5c 343d 03d2 fb3b
00000160: 7212 5b3b c64f 883d 0344 413d 0a1a 8f3d
00000170: fe5a ddbb ea20 eb3b 7e66 88bd 89d0 3a3c
00000180: 5100 8a3d 98c3 1f3b 289e b73d 0b7e 443d
00000190: 7624 973d 1bca 253d 47bf d53c 0af1 633d
000001a0: 34ea 77bc 75cc f43c 8e98 27bc 0caa 643d
000001b0: 2467 0fbb b0bc c03d 43db e53c 7438 c23d
000001c0: 2cc5 473b bf19 723c 914b 03bd fc90 b33b
000001d0: 1235 04bd 53a9 efbb 6dab eebc 68d3 babc
000001e0: 0831 993d 9544 a43c f8e2 4a3d 0561 443d
000001f0: 0f78 583d 8b4d 2fbc 95ff 443d 00c2 04bd
00000200: 3127 d23c 7b63 c03b e940 03bd 9ae7 77bd
00000210: 8fbd 3dbd 955a 95bd 5961 17bd aaa5 9a3d
00000220: ee12 513d 7089 2c3a 003d fdbb 9315 923d
00000230: 78b3 5cbd 1eb0 c6bb 2cab c03d 9158 4fbd
00000240: 6c46 a33c 8fa7 123d fe70 59bd ebd8 93bd
00000250: 59d9 bdbd 92bf 57bd b6ac aebd af41 02bd
00000260: da42 113c fbfa 53bd e2ed 743d 8d9b f43c
00000270: a887 1739 a43d fdbc 6476 a93d 6a91 ed3d
00000280: d507 d5bd 3806 fabc 48f5 863d ba1b 96bc
00000290: 6793 813d e239 0d3d 130f 353d cc1b 74bd
000002a0: b3f6 923c baa9 34bc 4576 acbd 2f48 173d
000002b0: bef7 603c f138 5cbd 4f12 ac3c 6f05 813d
000002c0: f33f cfbc 21b4 12bd f982 cb3d 0388 f2bb
000002d0: c5a0 62bd f27c 33bd b369 59bd c1d2 3e3d
000002e0: 55aa cdbc 63a0 70bd 0a97 a6bd 5e48 973c
000002f0: 2ce1 91bd 308a 3a3c ae70 243d bf7a f1bb
00000300: e34a d1bc fd2e 80bd b861 8fbb c386 713b
00000310: 33cc 8fbc d99e 2f3d fc71 0c3d ea93 50bd
00000320: 71fa 78bd 83c4 86bd 1b2c a0bd 2988 3d3d
00000330: 4271 c8bb 10dd bcbc 5622 c63d a057 0ebd
00000340: f2f5 edbc c893 1abd 83a3 97bd 4727 53bd
00000350: 850c 243d 954f 0ebd da7f bbbd 1fc4 efbd
00000360: f1b9 9f3c 4f99 0fbd 67d7 e7bc 9190 47bc
00000370: ea47 5d3c d395 8abd 7619 17bd 484b 703c
00000380: 2b24 5d3c bb0d e0bb 24c1 00bd 886c 8b3d
00000390: 40d7 473d 222c 54bd 0652 2bbd c6fe b13c
000003a0: d957 a8bd d11c 59bc bd6a 35be 00ae 77bd
000003b0: 246d c03a 3b5b 99bd 5d1e acbd 2fc4 d63c
000003c0: 79ca d43c bb0b 74bd e216 773b 1cae 67bc
000003d0: 68c8 2ebe 7791 0fbe fcc4 babd 31a4 893c
000003e0: f982 d3bc 7bdc 56be 7e9f fabd c3a3 96bd
000003f0: 04b9 223a eea3 8dbc b939 99bd 4d6a cc3c

conv2.0.bias f4 [16]
-0.086976774 0.08310234 0.0664746 -0.012029523 -0.03514056 0.0069582253 -0.03597785 -0.05835063
-0.020474825 0.04205833 -0.059092153 -0.03310733 -0.043594707 -0.08464125 0.06879319 -0.07206603
00000000: e120 b2bd 8f31 aa3d d623 883d 7a17 45bc
00000010: 8cef 0fbd d301 e43b 835d 13bd 1201 6fbd
00000020: d2ba a7bc 5b45 2c3d 9d0a 72bd 8d9b 07bd
00000030: 5d90 32bd 6458 adbd 72e3 8c3d 5b97 93bd

conv2.1.weight f4 [16]
0.9718711 1.0707804 0.9807571 0.9827906 0.9905445 0.98256713 1.0010904 1.0192475
0.960285 1.0018305 1.0083854 1.009501 1.077852 0.99367046 1.0021471 0.9971953
00000000: 8bcc 783f 550f 893f e612 7b3f 2a98 7b3f
00000010: 5394 7d3f 8589 7b3f bb23 803f b476 823f
00000020: 3dd5 753f fb3b 803f c612 813f 5437 813f
00000030: 0ef7 893f 3061 7e3f 5b46 803f 3148 7f3f

conv2.1.bias f4 [16]
-0.005777378 -0.0070289574 0.0084967995 -0.08267673 -0.012221591 -0.041855235 -0.035162166 -0.04430862
-0.027346682 0.021272307 0.011593828 -0.0106611075 -0.04341352 0.021708623 0.020798694 -0.004625981
00000000: 2950 bdbb 2b53 e6bb 2936 0b3c 6b52 a9bd
00000010: 113d 48bc 6570 2bbd 3406 10bd f57c 35bd
00000020: 2606 e0bc 4343 ae3c 0af4 3d3c edab 2ebc
00000030: 60d2 31bd 48d6 b13c 0662 aa3c 8b95 97bb

conv2.1.running_mean f4 [16]
0.064201266 -0.81481516 -0.17090528 1.0543423 -0.21508011 -0.2321906 -0.0014206999 0.034467902
-0.1439042 -0.6919358 -0.026549172 0.5065906 -0.051305022 -0.47686496 0.05596003 0.14846621
00000000: f47b 833d ba97 50bf cb01 2fbe b0f4 863f
00000010: f63d 5cbe 5fc3 6dbe c736 baba 372e 0d3d
00000020: 9f5b 13be b422 31bf a67d d9bc ecaf 013f
00000030: 3725 52bd a527 f4be 5836 653d 8707 183e

conv2.1.running_var f4 [16]
0.2806511 0.35334563 0.4973733 0.33942187 0.2150177 0.12466308 0.07599976 0.17388023
0.4824977 0.4237856 0.15689524 0.21701257 0.39715245 0.246457 0.22023472 0.26378247
00000000: 80b1 8f3e b8e9 b43e b7a7 fe3e b4c8 ad3e
00000010: 9a2d 5c3e 5b4f ff3d c3a5 9b3d a90d 323e
00000020: f009 f73e 6dfa d83e 25a9 203e 8b38 5e3e
00000030: 9157 cb3e 395f 7c3e 3685 613e 7f0e 873e

conv3.0.weight f4 [32, 16, 4, 4]
0.02173385 -0.005019755 -0.054707084 -0.06528513 -0.051175486 -0.0015866454 0.0014596776 -0.016791252
-0.041343234 -0.01595082 -0.0028816352 -0.04639754 -0.037618276 0.028725637 0.026566926 0.011786337
-0.08328978 -0.035747606 -0.011995007 -0.0038516854 -0.023345636 -0.030160414 0.034471463 -0.039154198
-0.042810198 -0.067740016 -0.018935075 0.00037854258 -0.033461876 0.007414888 -0.03962224 -0.061967053
0.05236668 -0.0039990833 -0.0019117915 0.02916324 0.018827312 -0.012728579 0.008436192 0.05806123
0.01121903 0.045899775 0.013585835 -0.006330087 0.010783006 0.020158237 0.021147626 0.012064394
-0.0016829079 -0.009512692 -0.030294148 -0.0679256 -0.011111999 0.055921502 -0.026822964 -0.038049232
0.023914315 -0.02710906 -0.038563147 -0.05380772 0.0428193 -0.028520571 0.047576573 -0.06104276
0.04663341 0.01421721 0.03216982 0.025150353 0.0024450328 0.00807067 0.035879705 -0.016382957
-0.009028088 -0.023629839 -0.015375539 0.024576686 -0.048682485 0.058820944 -0.0089402925 -0.011853318
-0.0050926977 0.03223178 0.008092173 -0.026892811 -0.030430268 0.028161868 0.0046072365 -0.0005034842
0.056742046 -0.028169302 0.0106015 0.022457385 -0.013770485 -0.052930363 -0.011861357 -0.034838133
0.07604889 0.032676578 0.009380572 0.0069606784 0.036491238 -0.002910965 -0.031016285 -0.018454216
0.02307693 -0.066499256 -0.064230494 -0.019585418 0.048692573 -0.026236625 -0.04073749 0.019172132
0.00831533 0.046312544 -0.05398299 -0.06268766 0.06730646 -0.0023825893 -0.048794642 -0.03765626
-0.06901875 0.009882507 -0.076631434 -0.11969707 -0.011534105 0.069018036 -0.004743784 -0.047182478
-0.009724819 -0.05183943 -0.02598153 -0.045138836 -0.008790162 0.043132965 -0.015382418 -0.028136117
-0.04499279 -0.01666225 0.00021989162 -0.0503343 -0.035866905 0.027841557 0.009648179 -0.075478576
-0.014285829 0.032289922 0.040503196 -0.046915237 -0.0051823957 -0.052245498 -0.0010090378 -0.038398318
-0.052596305 -0.04634087 -0.012062647 0.06830383 0.018049054 0.028459055 -0.04591989 -0.06932714
0.043005943 0.07897759 0.007779307 0.036168706 -0.023293477 0.0042448393 -0.008016987 0.009408616
0.06844437 0.046845783 0.043752223 -0.027645595 0.042424507 -0.038680967 0.015929384 0.026935913
0.017157698 0.041663375 -0.0010060411 -0.07254671 -0.008846618 0.015876075 -0.085303575 -0.055587627
0.069049105 0.030003123 0.045312226 0.0065771546 0.05525222 -0.04349373 -0.05712737 0.005586361
-0.035899185 0.008127573 0.042410947 -0.07199328 0.026835695 -0.013520997 -0.046692096 -0.08493335
-0.016273055 -0.09038945 -0.03990484 -0.12398477 -0.056079555 0.041332737 -0.06437029 -0.053887516
0.05212094 0.01349221 0.034548778 -0.024458094 0.019573333 0.005005584 -0.0031845092 -0.025622608
0.03406669 0.03410521 0.036155295 -0.009131548 -0.016706502 -0.07720561 0.031293992 -0.01057072
0.06939703 0.052432865 -0.039502945 -0.034546107 0.017091744 -0.05007138 -0.038923506 0.022754332
0.003837268 0.038720462 0.05302468 -0.045677025 -0.03871027 0.041685913 -0.07514734 -0.012413683
-0.00801278 0.004731165 0.018109076 0.0015752563 0.06416296 -0.028320374 0.040484242 0.044724215
0.0408512 0.045946594 -0.07702967 -0.08518093 -0.031739812 -0.0054592495 -0.056199376 -0.046035346
00000000: 300b b23c c27c a4bb 8914 60bd 36b4 85bd
00000010: 639d 51bd fcf6 cfba a752 bf3a cf8d 89bc
00000020: 8657 29bd 4bab 82bc d1d9 3cbb 590b 3ebd
00000030: 9f15 1abd 0752 eb3c e2a2 d93c 7b1b 413c
00000040: d593 aabd 156c 12bd b586 44bc 8f6c 7cbb
00000050: 593f bfbc f912 f7bc f331 0d3d 2760 20bd
00000060: bf59 2fbd 47bb 8abd bb1d 9bbc 2077 c639
00000070: 520f 09bd 97f8 f23b ee4a 22bd 2ad1 7dbd
00000080: 727e 563d be0a 83bb 1495 faba bfe7 ee3c
00000090: bc3b 9a3c 888b 50bc f437 0a3c 9dd1 6d3d
000000a0: 06d0 373c 6701 3c3d 1f97 5e3c 9e6c cfbb
000000b0: 35ab 303c e322 a53c c93d ad3c bca9 453c
000000c0: 0595 dcba 1fdb 1bbc 6f2b f8bc 941c 8bbd
000000d0: 1a0f 36bc f20d 653d d5bb dbbc 83d9 1bbd
000000e0: f4e7 c33c d213 debc 64f4 1dbd 7c65 5cbd
000000f0: 4a63 2f3d f9a3 e9bc a7df 423d f907 7abd
00000100: ad02 3f3d 4def 683c 80c4 033d 1d08 ce3c
00000110: d83c 203b d83a 043c 99f6 123d 8d35 86bc
00000120: 8cea 13bc 5d93 c1bc afe9 7bbc 0c55 c93c
00000130: 4967 47bd 3bee 703d 4e7a 12bc 6b34 42bc
00000140: a5e0 a6bb 7905 043d 0995 043c 504e dcbc
00000150: e648 f9bc b8b3 e63c 4df8 963b 41fc 03ba
00000160: 596a 683d 4fc3 e6bc eab1 2d3c 8df8 b73c
00000170: 9a9d 61bc 82cd 58bd 2356 42bc 6eb2 0ebd
00000180: 85bf 9b3d e0d7 053d f8b0 193c 6716 e43b
00000190: d677 153d e3c5 3ebb dd15 febc 4c2d 97bc
000001a0: d40b bd3c c330 88bd 478b 83bd 9971 a0bc
000001b0: dd71 473d 31ee d6bc 5bdc 26bd e00e 9d3c
000001c0: 063d 083c 39b2 3d3d 451d 5dbd 6362 80bd
000001d0: f8d7 893d 3725 1cbb e4dc 47bd 733d 1abd
000001e0: b459 8dbd 3dea 213c f1f0 9cbd bd23 f5bd
000001f0: 8bf9 3cbc 5459 8d3d bf71 9bbb 6a42 41bd
00000200: d954 1fbc 9555 54bd 38d7 d4bc 80e3 38bd
00000210: 9d04 10bc 31ac 303d 8a06 7cbc b77d e6bc
00000220: 5c4a 38bd 457f 88bc b592 6639 572b 4ebd
00000230: 2de9 12bd fa13 e43c 6513 1e3c 8394 9abd
00000240: 1c0f 6abc 7042 043d aee6 253d 312a 40bd
00000250: 16d1 a9bb 60ff 55bd b141 84ba 8e47 1dbd
00000260: 396f 57bd edcf 3dbd 69a2 45bc e1e2 8b3d
00000270: 9cdb 933c f722 e93c 7f16 3cbd 63fb 8dbd
00000280: 0027 303d 01bf a13d 8fe9 fe3b a325 143d
00000290: f6d1 bebc 4b18 8b3b ae59 03bc 9926 1a3c
000002a0: 902c 8c3d 5de1 3f3d 8835 333d 0479 e2bc
000002b0: 52c5 2d3d ef6f 1ebd 577e 823c b4a8 dc3c
000002c0: 4d8e 8c3c 37a7 2a3d 23dd 83ba 5f93 94bd
000002d0: 68f1 10bc 8b0e 823c a4b3 aebd daaf 63bd
000002e0: 9e69 8d3d 1cc9 f53c 5099 393d 2c85 d73b
000002f0: 2750 623d 7b26 32bd 64fe 69bd cb0d b73b
00000300: 060b 13bd 8329 053c 1ab7 2d3d 3671 93bd
00000310: 88d6 db3c 2c87 5dbc 3640 3fbd 89f1 adbd
00000320: 124f 85bc 1b1e b9bd 4273 23bd baeb fdbd
00000330: adb3 65bd 844c 293d 92d4 83bd 28b9 5cbd
00000340: c47c 553d 6e0e 5d3c 0583 0d3d 575c c8bc
00000350: 4158 a03c e205 a43b 33b3 50bb 81e6 d1bc
00000360: 8389 0b3d e8b1 0b3d 9317 143d 7d9c 15bc
00000370: 13dc 88bc fa1d 9ebd 212e 003d d030 2dbc
00000380: 0820 8e3d d8c3 563d d7cd 21bd 3880 0dbd
00000390: fc03 8c3c a617 4dbd 416e 1fbd 4b67 ba3c
000003a0: ad7a 7b3b 5999 1e3d 6830 593d d517 3bbd
000003b0: a98e 1ebd d9be 2a3d d9e6 99bd c362 4bbc
000003c0: 0948 03bc e307 9b3b 7c59 943c d578 ce3a
000003d0: df67 833d 2100 e8bc ced2 253d bd30 373d
000003e0: 9753 273d 7f32 3c3d bbc1 9dbd 5773 aebd
000003f0: 9b01 02bd 81e3 b2bb 5131 66bd 8f8f 3cbd

conv3.0.bias f4 [32]
0.01442564 0.057895295 0.014121872 -0.05906796 0.0041085654 -0.055120688 -0.0236518 0.06103743
0.03448673 0.020826379 -0.014899494 0.031058421 0.031218946 -0.007259184 -0.061553214 0.010477234
-0.03173489 0.018393446 0.04715259 0.025634961 0.04617966 0.05081484 0.011200889 0.04683984
0.011696152 -0.04064336 -0.011644655 -0.012938157 -0.062285542 -0.05070048 -0.05378181 0.059764795
00000000: 8559 6c3c 9e23 6d3d 6d5f 673c 3ff1 71bd
00000010: 25a1 863b 3bc6 61bd 6bc1 c1bc 6202 7a3d
00000020: f541 0d3d 159c aa3c 021d 74bc 3b6e fe3c
00000030: e0be ff3c 73de edbb 391f 7cbd b4a8 2b3c
00000040: 72fc 01bd daad 963c 1323 413d 6900 d23c
00000050: e226 3d3d 3923 503d ef83 373c 22db 3f3d
00000060: 38a1 3f3c a779 26bd 39c9 3ebc 90fa 53bc
00000070: 201f 7fbd 4eab 4fbd 514a 5cbd eecb 743d

conv3.1.weight f4 [32]
0.9873619 0.99091834 1.0035676 1.0408714 0.97738117 0.99128 0.98655206 0.9843555
0.97461194 1.0072215 0.9882007 0.9890131 1.0381621 0.9735829 1.0091637 1.0173277
1.0084735 1.0120224 0.9984285 0.9996247 0.9827348 1.0496049 1.000087 1.003486
0.97566825 0.97475296 1.0441432 1.0119885 0.9894534 1.038393 1.0648806 1.0079573
00000000: c0c3 7c3f d3ac 7d3f e774 803f 463b 853f
00000010: a735 7a3f 87c4 7d3f ad8e 7c3f b9fe 7b3f
00000020: 2b80 793f a2ec 803f b9fa 7c3f f62f 7d3f
00000030: 7fe2 843f bb3c 793f 472c 813f cb37 823f
00000040: a915 813f f389 813f 0399 7f3f 68e7 7f3f
00000050: 8294 7b3f 7459 863f da02 803f 3b72 803f
00000060: 65c5 793f 6989 793f 7ca6 853f d788 813f
00000070: d14c 7d3f 10ea 843f 024e 883f bf04 813f

conv3.1.bias f4 [32]
-0.072009526 -0.009524909 -0.021308811 -0.17305607 -0.02810679 -0.010506086 0.02152437 -0.0005968288
0.026339972 -0.020748468 -0.004037826 0.05371318 0.08013252 -0.028835913 -0.020109234 -0.045460287
0.012843138 -0.014222257 -0.0051858374 -0.057568334 -0.016120415 -0.032901194 0.007295 -0.013944235
-0.007678684 -0.015354853 -0.01458662 0.009011549 -0.046781704 -0.03983102 -0.06307935 0.0016095793
00000000: bb79 93bd 5d0e 1cbc d18f aebc 9c35 31be
00000010: 3640 e6bc b821 2cbc e053 b03c 8174 1cba
00000020: edc6 d73c b1f8 a9bc bd4f 84bb 5a02 5c3d
00000030: 851c a43d 4b39 ecbc 1fbc a4bc 9134 3abd
00000040: 066c 523c 7804 69bc f5ed a9bb c6cc 6bbd
00000050: f60e 84bc 67c3 06bd e50a ef3b 5c76 64bc
00000060: 789d fbbb ec92 7bbc b8fc 6ebc 2da5 133c
00000070: 2c9e 3fbd da25 23bd bf2f 81bd 85f8 d23a

conv3.1.running_mean f4 [32]
-0.5577078 -0.6113362 -0.16903034 -0.07749449 -0.38404897 0.27500483 -0.10319911 0.046658356
-0.06345223 -0.28246692 -0.25234693 -0.6062704 -0.47841728 -0.8771432 -0.39242262 -0.31975043
-0.41798526 -0.15782176 0.05754993 0.12506776 -0.5767376 0.0080143325 -0.26671097 -0.24423252
0.16594854 -0.3794275 -0.30311167 -0.51259935 -0.10548965 0.16219531 -0.5218559 -0.40596262
00000000: f0c5 0ebf 8780 1cbf 4a16 2dbe 6eb5 9ebd
00000010: 11a2 c4be 6fcd 8c3e 0e5a d3bd d51c 3f3d
00000020: 3ef3 81bd 819f 90be 9e33 81be 8934 1bbf
00000030: 1cf3 f4be 758c 60bf 9eeb c8be 54b6 a3be
00000040: 2a02 d6be 079c 21be 7ab9 6b3d c311 003e
00000050: 13a5 13bf 8c4e 033c 578e 88be 1718 7abe
00000060: 6aee 293e 5244 c2be 7431 9bbe b639 03bf
00000070: f50a d8bd 8716 263e 5998 05bf 55da cfbe

conv3.1.running_var f4 [32]
0.20152369 0.2799468 0.12935711 0.19498578 0.22948717 0.20729414 0.40814224 0.24537364
0.1083461 0.3098016 0.20175686 0.29363883 0.37802005 0.16123872 0.18719578 0.14292929
0.18033612 0.18862684 0.1652258 0.11880855 0.1879173 0.12928252 0.25480244 0.23369472
0.17915784 0.17740634 0.1243664 0.39077285 0.22058839 0.15858749 0.13995774 0.22800347
00000000: 3a5c 4e3e 3055 8f3e 3176 043e 5aaa 473e
00000010: affe 6a3e ea44 543e 05f8 d03e 3a43 7b3e
00000020: 8fe4 dd3d 519e 9e3e 5a99 4e3e d457 963e
00000030: d88b c13e c31b 253e 40b0 3f3e 0e5c 123e
00000040: 08aa 383e 6527 413e f430 293e e651 f33d
00000050: 656d 403e a362 043e 7775 823e ab4d 6f3e
00000060: 2775 373e 02aa 353e d0b3 fe3d 6113 c83e
00000070: ece1 613e c264 223e 1551 0f3e be79 693e

deconv2.0.weight f4 [32, 16, 4, 4]
-0.0805886 0.014151282 -0.017574843 0.012189879 -0.043496016 0.014595575 -0.024633685 -2.8165743e-05
-0.05060109 0.0036813037 -0.037958335 -0.06396886 -0.038333207 0.03947314 -0.056670487 0.031410966
0.014464108 -0.014515743 0.021690436 -0.08849798 -0.026252221 0.025768295 0.111615196 0.012673572
0.025241425 -0.024883725 0.039056722 0.012450244 -0.06235987 0.057762112 0.042226423 0.00726748
0.05145551 0.0015377976 0.047504723 0.002268346 0.02766056 0.045593455 0.00085510104 0.022475226
0.040879846 0.029068347 -0.0011887812 0.019639526 0.012576733 -0.055408813 0.004083609 0.004511587
-0.025344374 0.03455998 -0.03188808 0.037435703 -0.07154356 -0.09622826 0.10747575 -0.033431724
-0.083603196 0.018116806 -0.07178334 -0.0018479334 -0.01430529 -0.12078573 0.07444543 -0.12025879
0.012454204 0.053597424 -0.008414116 0.0016621541 -0.03372714 -0.07234803 -0.033122264 -0.018235056
0.003668935 0.034954716 -0.011913386 0.024842614 0.05951649 0.041497253 0.0091893915 0.023176074
-0.025652612 0.020124255 -0.040608153 -0.066559024 0.056096405 0.03393496 0.044700015 -0.0012712696
0.00540286 -0.00930328 -0.06494001 -0.0848153 -0.019446965 0.014215306 0.025343452 0.0074597937
-0.012414016 -0.041886717 -0.077182315 0.014323712 0.053229474 -0.07500389 0.008976477 -0.019656857
-0.023876466 -0.0236102 -0.0023876182 0.008620474 0.02363382 0.04393259 0.03643181 -0.01401596
-0.07884467 0.021907493 0.0015895609 0.012390536 -0.01793165 0.016785728 0.009781016 0.008206381
-0.06939004 0.0063706962 0.049583245 0.016834555 -0.025099225 0.032399144 -0.028823948 0.009045655
0.008311312 -0.007880587 -0.012032761 -0.0087932125 -0.049945667 -0.043930374 0.0037617215 -0.037418343
0.032900058 -0.034647 0.02851743 -0.05127069 -0.02018755 0.048129402 0.019458234 -0.049573846
-0.005482552 -0.018684994 0.015125668 -0.04452231 0.047817737 -0.017641649 -0.124085434 0.011098997
0.058573153 -0.02194627 0.044260133 -0.09786925 0.06338297 -0.012166958 -0.12799962 -0.011729921
-0.04798609 -0.08578587 -0.052173875 -0.0832624 0.027858116 -0.018680617 -0.037558924 -0.023957824
-0.03516983 -0.09772484 -0.0069961445 -0.038833175 0.036615234 -0.006866655 0.014839851 0.0053343233
-0.060075734 -0.029514097 -0.060868453 -0.06894162 -0.0027056069 -0.053037483 0.01644397 -0.09996134
-0.07666632 -0.060423 -0.056214575 -0.027788337 -0.039350484 -0.039631713 0.011828177 -0.025248509
-0.010442343 0.019804906 -0.058266476 0.032588802 -0.059274744 -0.0048779757 -0.008809431 -0.03878589
-0.005679051 0.061375868 -0.059804477 0.038483668 -0.0057194526 -0.01603126 0.0087612765 -0.003296436
0.001738212 -0.0119147785 -0.062366616 -0.008520771 0.07208455 0.046868373 -0.020303331 0.02437977
0.016348958 -0.015123374 -0.060474113 0.007699659 0.076561086 0.0071839285 0.037924595 0.03288684
-0.068128996 -0.003321893 -0.016814359 -0.04031523 0.009086682 -0.019980943 0.017184392 -0.0031653522
-0.04404552 -0.05371339 -0.05541997 -0.08437232 0.0026757005 -0.042263933 -0.0062498893 -0.029826991
-0.032348704 -0.06197184 0.00566148 0.0205671 -0.01883086 -0.022445885 -0.10238025 0.028982818
-0.035165597 -0.047582746 0.015213986 -0.07083043 0.09071057 -0.02394848 -0.06393514 0.008093668
00000000: a30b a5bd c7da 673c 1ef9 8fbc 0fb8 473c
00000010: e128 32bd 4722 6f3c 95cc c9bc 7945 ecb7
00000020: 1743 4fbd 0742 713b 337a 1bbd 1b02 83bd
00000030: 4803 1dbd 96ae 213d 501f 68bd c9a8 003d
00000040: defa 6c3c 70d3 6dbc 24b0 b13c 6e3e b5bd
00000050: e60e d7bc 0818 d33c 8296 e43d d0a4 4f3c
00000060: 1bc7 ce3c f4d8 cbbc f1f9 1f3d 1cfc 4b3c
00000070: 106d 7fbd f797 6c3d 9df5 2c3d 0a24 ee3b
00000080: 03c3 523d ed8f c93a 5094 423d 88a8 143b
00000090: 6698 e23c 34c0 3a3d dc28 603a f71d b83c
000000a0: a071 273d be20 ee3c e1d0 9bba 12e3 a03c
000000b0: a40e 4e3c 5af4 62bd cccf 853b efd5 933b
000000c0: 019f cfbc c48e 0d3d 139d 02bd 2e56 193d
000000d0: 6e85 92bd 5213 c5bd 3f1c dc3d b4ef 08bd
000000e0: 2738 abbd b269 943c 2503 93bd 5b36 f2ba
000000f0: bc60 6abc 825e f7bd d876 983d 3e4a f6bd
00000100: b80c 4c3c f988 5b3d 5cdb 09bc a3dc d93a
00000110: 7825 0abd 342b 94bd 36ab 07bd af61 95bc
00000120: 8472 703b ad2c 0f3d 5d30 43bc bd82 cb3c
00000130: 90c7 733d 06f9 293d 1a8f 163c c0db bd3c
00000140: 6d25 d2bc 9fdb a43c bc54 26bd 1950 88bd
00000150: 58c5 653d 62ff 0a3d 5d17 373d bba0 a6ba
00000160: 7a0a b13b c96c 18bc 45ff 84bd a5b3 adbd
00000170: 3e4f 9fbc 51e7 683c 129d cf3c 4971 f43b
00000180: 2864 4bbc 6891 2bbd c311 9ebd 01ae 6a3c
00000190: 2607 5a3d a49b 99bd 1312 133c 6b07 a1bc
000001a0: 9498 c3bc 2e6a c1bc 9679 1cbb e33c 0d3c
000001b0: b69b c13c a9f2 333d 8639 153d 32a3 65bc
000001c0: 5079 a1bd 5877 b33c d058 d03a ad01 4b3c
000001d0: 65e5 92bc 3982 893c 8e40 203c 0f74 063c
000001e0: 5e1c 8ebd 46c1 d03b cd17 4b3d 9fe8 893c
000001f0: e49c cdbc f7b4 043d 3320 ecbc 3a34 143c
00000200: 2b2c 083c 941d 01bc 0f25 45bc 6811 10bc
00000210: d493 4cbd 56f0 33bd 3787 763b fa43 19bd
00000220: 36c2 063d 03ea 0dbd 639d e93c 3701 52bd
00000230: 5c60 a5bc 5623 453d e066 9f3c f20d 4bbd
00000240: fba6 b3bb 4611 99bc a6d1 773c 075d 36bd
00000250: 88dc 433d 3885 90bc 8120 febd 91d8 353c
00000260: 67ea 6f3d aac8 b3bc 1d4a 353d ac6f c8bd
00000270: eece 813d ec57 47bc 5512 03be db2e 40bc
00000280: 108d 44bd 81b0 afbd 46b4 55bd 7a85 aabd
00000290: b436 e43c 1808 99bc 63d7 19bd 3343 c4bc
000002a0: 3d0e 10bd f623 c8bd ea3f e5bb 890f 1fbd
000002b0: dbf9 153d ad01 e1bb d922 733c 8ccb ae3b
000002c0: f911 76bd 8cc7 f1bc 3351 79bd 4431 8dbd
000002d0: 8d50 31bb d53d 59bd 81b5 863c 88b8 ccbd
000002e0: 3b03 9dbd 1c7e 77bd 4141 66bd 5ea4 e3bc
000002f0: f92d 21bd dd54 22bd f8ca 413c f6d5 cebc
00000300: 5c16 2bbc e63d a23c d4a8 6ebd d67b 053d
00000310: 13ca 72bd 6dd7 9fbb 6f55 10bc f4dd 1ebd
00000320: 5517 babb 4365 7b3d 8af5 74bd 0da1 1d3d
00000330: 3f6a bbbb fd53 83bc 758b 0f3c 0509 58bb
00000340: b7d4 e33a 3436 43bc 2374 7fbd b49a 0bbc
00000350: 11a1 933d 0df9 3f3d 2c53 a6bc 15b8 c73c
00000360: 40ee 853c 07c8 77bc b4b3 77bd 6c4d fc3b
00000370: 0fcc 9c3d 2967 eb3b d256 1b3d 5ab4 063d
00000380: 3787 8bbd 1eb4 59bb 44be 89bc 9521 25bd
00000390: 4fe0 143c 13af a3bc 48c6 8c3c cc71 4fbb
000003a0: 1369 34bd 9202 5cbd 0d00 63bd 65cb acbd
000003b0: ce5a 2f3b f21c 2dbd dfcb ccbb bc57 f4bc
000003c0: 1380 04bd 2fd6 7dbd f083 b93b 567c a83c
000003d0: 2d43 9abc 6fe0 b7bc bdac d1bd 606d ed3c
000003e0: cd09 10bd 20e6 42bd 1544 793c 8b0f 91bd
000003f0: 77c6 b93d 9a2f c4bc 6df0 82bd 4e9b 043c

deconv2.0.bias f4 [16]
0.029521583 -0.060233396 0.030101798 0.026622681 0.03865763 -0.05625561 0.04850414 -0.016368456
-0.060532797 0.051694244 0.027379155 -0.05533026 0.025603447 -0.014357032 0.014949917 0.016242458
00000000: 3fd7 f13c 4bb7 76bd 0c98 f63c cf17 da3c
00000010: 7757 1e3d 486c 66bd 47ac 463d 2417 86bc
00000020: 3df1 77bd 58bd 533d 404a e03c fca1 62bd
00000030: 52be d13c c239 6bbc 7ff0 743c e70e 853c

deconv2.1.weight f4 [16]
0.9482881 1.0095942 1.0019897 0.9719519 0.9868242 0.94617796 0.9459886 0.9422522
0.96484905 1.0258892 0.96137327 1.1146722 0.9852754 0.9535133 1.0461087 0.9983039
00000000: 02c3 723f 623a 813f 3341 803f d7d1 783f
00000010: 83a0 7c3f b838 723f 4f2c 723f 7137 713f
00000020: 5900 773f 5650 833f 8f1c 763f 94ad 8e3f
00000030: 023b 7c3f 7319 743f e4e6 853f d890 7f3f

deconv2.1.bias f4 [16]
0.008878322 0.087673075 0.053456858 0.012420298 0.01651414 0.014751457 0.027445208 -0.043862082
-0.013049496 0.13623276 0.031323425 -0.053330887 -0.0365648 0.024720542 0.04138293 0.016202882
00000000: 6276 113c f18d b33d 94f5 5a3d 817e 4b3c
00000010: a948 873c 18b0 713c c6d4 e03c baa8 33bd
00000020: 8ecd 55bc 9a80 0b3e fe4c 003d 7d71 5abd
00000030: f9c4 15bd bc82 ca3c 2681 293d e8bb 843c

deconv2.1.running_mean f4 [16]
-0.735437 -0.5756697 -0.29264593 -0.60898954 -0.24616964 -0.8435755 -0.5340814 -0.40086067
-0.71951425 -0.8464273 -0.94156915 -0.76692927 -0.020075882 -0.22634648 -0.79726046 -0.9157331
00000000: 9945 3cbf 175f 13bf b0d5 95be bde6 1bbf
00000010: e513 7cbe 90f4 57bf 8fb9 08bf 9c3d cdbe
00000020: 1632 38bf 76af 58bf ad0a 71bf 7a55 44bf
00000030: 2d76 a4bc 5fc7 67be 4319 4cbf 7c6d 6abf

deconv2.1.running_var f4 [16]
0.81902766 0.8661737 0.90995944 0.7024592 0.5077164 1.46819 1.3331207 0.7342124
0.5539502 2.2218292 1.86726 0.11851922 0.3125929 1.1414242 0.52590424 0.80374056
00000000: ccab 513f 8fbd 5d3f 1af3 683f 5ed4 333f
00000010: b4f9 013f a6ed bb3f b3a3 aa3f 58f5 3b3f
00000020: aecf 0d3f 7332 0e40 6002 ef3f 34ba f23d
00000030: 2d0c a03e 301a 923f a9a1 063f f1c1 4d3f

deconv3.0.weight f4 [16, 8, 4, 4]
-0.05585894 0.016625267 -0.01059275 -0.09175172 -0.08364163 -0.05280599 0.02188839 -0.017551553
-0.05617215 0.02089976 0.021320859 0.07379037 -0.064792775 -0.033630993 0.034988634 -0.0061123814
-0.007457469 -0.029840931 0.02272964 0.08039458 0.03531346 0.026017748 0.056292195 0.022123445
-0.0073114517 0.093860276 0.049294718 0.037774216 0.0013229358 0.06521365 0.061528146 -0.027580712
0.052731436 0.03233401 -0.03352578 0.06336709 0.04898339 0.12763523 0.016175648 0.027097238
0.020250015 0.071086854 -0.052759767 0.06696742 0.013890575 0.028228296 -0.0074596745 -0.00995223
0.029844156 0.09685502 -0.06775439 -0.00020405065 0.0074110273 -0.03374666 0.030479204 0.082060024
0.03642258 0.08196069 -0.021905096 0.0748925 0.030189816 0.028514186 0.01913438 0.020041337
0.03195424 0.052402984 -0.009814644 -0.050005518 0.034567147 0.012535426 0.018307092 -0.065485805
-0.018658293 0.038476743 -0.0337909 0.005548671 0.0037258111 0.019178966 -0.011727745 0.04792281
0.018344233 -0.018782645 0.0007210579 -0.0031089603 0.007765312 -0.008210069 0.015299986 0.06818598
-8.556067e-05 0.0426394 -0.03902084 -0.0061612045 0.051491022 0.0074153324 0.027826201 0.018761653
-0.02952917 -0.07815099 -0.029196318 -0.06130464 0.042808745 -0.040266786 -0.00442981 -0.01694665
0.007669334 0.08141229 0.033148877 0.005898351 0.0033889604 -0.03399346 -0.021311559 -0.04714698
0.040051892 0.077353716 0.032841388 0.030279363 0.02243534 0.097410485 -0.05792779 -0.028850382
0.046825357 -0.07431356 -0.025021669 -0.00855364 0.046552546 0.0548745 -0.030856868 0.037749235
-0.011707785 0.004932701 0.062540375 -0.089019254 -0.036228966 -0.03441514 0.13417606 0.048789192
0.01878438 0.009991418 0.02970427 -0.011380524 -0.0031985189 -0.03558166 0.049267173 0.004973274
0.048114922 -0.09261018 0.0030226407 -0.03261858 -0.029994048 -0.07801946 0.09643685 -0.046425365
0.01612581 -0.005177794 0.0067059323 0.013540504 -0.003000488 0.004318144 0.043897707 0.03123996
0.011339609 0.019585142 0.10631662 -0.0020542606 -0.0029792613 0.0062475926 -0.013724225 0.055730525
-0.016061258 0.035070904 0.0013041091 -0.0057522925 -0.018729512 -0.024031665 0.026786037 -0.056743387
-0.07705131 -0.030449566 0.059426498 -0.033916365 0.07821243 -0.047889866 -0.048965074 0.043241575
-0.050515838 0.031166587 0.10291417 0.013525359 0.052249774 0.0047039967 -0.050459065 0.04364762
0.047614463 -0.0004207838 0.023791336 0.052472647 0.07911117 0.057964742 -0.03114298 0.026577951
0.050242998 0.040814534 0.04063311 0.11123254 0.007949534 -0.032655846 0.044858053 0.014698982
0.022344518 -0.06058542 -0.03517855 0.06181808 -0.041475255 0.04519509 0.120747305 0.12986873
0.009263457 0.052962564 0.0026463973 0.115626216 0.09401115 0.032256942 0.08091573 0.12084268
-0.032694682 -0.086749285 -0.018404339 0.026097924 0.038290787 0.02053615 0.108227074 -0.0007919001
0.026503172 -0.029190896 0.019769985 0.021581763 -0.0023433422 0.0024829544 0.1087126 0.035065603
0.02176693 0.04640255 -0.007842758 0.04871087 0.012803949 -0.019516563 -0.07643443 -0.082153946
-0.048527595 -0.013776741 -0.042004853 -0.067228034 -0.01659994 -0.014181189 -0.09900384 -0.07662726
00000000: 58cc 64bd b631 883c 378d 2dbc 53e8 bbbd
00000010: 4e4c abbd 184b 58bd 484f b33c 46c8 8fbc
00000020: c514 66bd f935 ab3c 15a9 ae3c 681f 973d
00000030: 13b2 84bd a7c0 09bd 3e50 0f3d 5f4a c8bb
00000040: c95d f4bb f874 f4bc 8333 ba3c eaa5 a43d
00000050: d9a4 103d 2c23 d53c a592 663d 3a3c b53c
00000060: e794 efbb d139 c03d 42e9 493d 23b9 1a3d
00000070: 5c66 ad3a bc8e 853d f004 7c3d f2f0 e1bc
00000080: ebfc 573d ab70 043d 5452 09bd 9bc6 813d
00000090: cfa2 483d cfb2 023e cb82 843c 07fb dd3c
000000a0: 5ce3 a53c fc95 913d a01a 58bd 3726 893d
000000b0: 4b95 633c 073f e73c 4970 f4bb ae0e 23bc
000000c0: bb7b f43c ed5b c63d d0c2 8abd 6ef6 55b9
000000d0: 34d8 f23b f039 0abd 86af f93c 160f a83d
000000e0: d82f 153d 02db a73d 5172 b3bc 3d61 993d
000000f0: a250 f73c 9596 e93c b4bf 9c3c bb2d a43c
00000100: 73e2 023d 83a4 563d 9acd 20bc 96d2 4cbd
00000110: 4896 0d3d 6361 4d3c c1f8 953c 6c1d 86bd
00000120: 47d9 98bc ca99 1d3d 5468 0abd a0d1 b53b
00000130: bd2c 743b 351d 9d3c ba25 40bc b54a 443d
00000140: a546 963c 10de 99bc 6005 3d3a b3bf 4bbb
00000150: 2974 fe3b 8683 06bc cbac 7a3c 17a5 8b3d
00000160: 096f b3b8 a7a6 2e3d 51d4 1fbd eee3 c9bb
00000170: 40e8 523d 51fc f23b c6f3 e33c 0ab2 993c
00000180: 28e7 f1bc a00d a0bd 1e2d efbc 931a 7bbd
00000190: 3958 2f3d c9ee 24bd f127 91bb b3d3 8abc
000001a0: 094f fb3b 7dbb a63d 1ec7 073d f446 c13b
000001b0: 5219 5e3b ba3c 0bbd 9495 aebc 311d 41bd
000001c0: 740d 243d a06b 9e3d b184 063d 6d0c f83c
000001d0: 51ca b73c 267f c73d b145 6dbd a357 ecbc
000001e0: f2cb 3f3d b531 98bd 3efa ccbc 9124 0cbc
000001f0: e2ad 3e3d 15c4 603d 8bc7 fcbc f19e 1a3d
00000200: 02d2 3fbc 7fa2 a13b 2b15 803d ba4f b6bd
00000210: d364 14bd e4f6 0cbd 7365 093e 2dd7 473d
00000220: b3e1 993c 0bb3 233c 5f56 f33c 6175 3abc
00000230: 3e9e 51bb 13be 11bd 60cc 493d d9f6 a23b
00000240: 2714 453d 68aa bdbd 7f17 463b 0f9b 05bd
00000250: 14b6 f5bc abc8 9fbd af80 c53d 8628 3ebd
00000260: 461a 843c 7caa a9bb 70bd db3b fdd8 5d3c
00000270: d6a3 44bb 387f 8d3b 15ce 333d f2ea ff3c
00000280: c4c9 393c 0571 a03c 87bc d93d c6a0 06bb
00000290: b63f 43bb 9bb8 cc3b 92db 60bc b145 643d
000002a0: e692 83bc 82a6 0f3d a4ee aa3a ba7d bcbb
000002b0: a26e 99bc 0ede c4bc 646e db3c c16b 68bd
000002c0: 14cd 9dbd 5e71 f9bc 3369 733d e3eb 0abd
000002d0: d72d a03d 2a28 44bd 9a8f 48bd 141e 313d
000002e0: b2e9 4ebd 1251 ff3c aac4 d23d 7899 5d3c
000002f0: dc03 563d fc23 9a3b 2aae 4ebd d9c7 323d
00000300: 6207 433d a59c dcb9 0ce6 c23c 8fed 563d
00000310: 0905 a23d 706c 6d3d 901f ffbc 01ba d93c
00000320: 9acb 4d3d 242d 273d e76e 263d e3cd e33d
00000330: c33e 023c 23c2 05bd 14bd 373d 00d4 703c
00000340: da0b b73c 6b28 78bd 6217 10bd f434 7d3d
00000350: f5e1 29bd 7d1e 393d 5d4a f73d 4ffc 043e
00000360: c1c5 173c 46ef 583d 2e6f 2d3b 70cd ec3d
00000370: eb88 c03d db1f 043d 25b7 a53d 5e7c f73d
00000380: dcea 05bd 9ca9 b1bd b2c4 96bc 50cb d53c
00000390: cdd6 1c3d 6e3b a83c 28a6 dd3d 8497 4fba
000003a0: 2e1d d93c bf21 efbc aaf4 a13c 3dcc b03c
000003b0: c292 19bb 10b9 223b b6a4 de3d f3a0 0f3d
000003c0: 9050 b23c 9a10 3e3d e97e 00bc 0d85 473d
000003d0: a8c7 513c 33e1 9fbc a889 9cbd 5440 a8bd
000003e0: dfc4 46bd d7b7 61bc 480d 2cbd daae 89bd
000003f0: 99fc 87bc 3858 68bc 86c2 cabd c1ee 9cbd

deconv3.0.bias f4 [8]
-0.0702167 0.07692029 -0.053387336 0.047905974 0.025222609 0.06226575 0.033062126 0.06341375
00000000: c6cd 8fbd 6388 9d3d aeac 5abd 0e39 443d
00000010: a59f ce3c 5f0a 7f3d 276c 073d 11df 813d

deconv3.1.weight f4 [8]
1.2453846 1.2223942 1.2266856 1.2270664 1.2012005 1.2269877 1.2394849 1.1858596
00000000: c368 9f3f 6a77 9c3f 0904 9d3f 8310 9d3f
00000010: f0c0 993f ef0d 9d3f 71a7 9e3f 3fca 973f

deconv3.1.bias f4 [8]
0.24269369 0.21582913 0.2199331 0.222345 0.20273335 0.2203655 0.23529239 0.19185176
00000000: b284 783e 5002 5d3e 2436 613e 68ae 633e
00000010: 5599 4f3e 7ea7 613e 7df0 703e ca74 443e

deconv3.1.running_mean f4 [8]
-0.1913002 -0.058218464 0.06812136 0.12030819 0.4106932 0.4526019 0.034384266 -0.13450705
00000000: 33e4 43be 7c76 6ebd 3683 8b3d 2464 f63d
00000010: 6146 d23e 70bb e73e 84d6 0c3d 37bc 09be

deconv3.1.running_var f4 [8]
0.07345259 0.05424856 0.08970125 0.06413698 0.047547482 0.059187476 0.07196363 0.068485655
00000000: 506e 963d bd33 5e3d 4ab5 b73d 405a 833d
00000010: 26c1 423d 916e 723d ab61 933d 3542 8c3d

deconv4.0.weight f4 [8, 3, 4, 4]
-0.053056948 0.06656446 0.12413289 0.05969562 -0.047891047 0.07288913 0.080853395 0.017904744
0.002369344 0.13358977 0.101266235 -0.06343943 -0.06821328 0.020101765 0.18462424 0.003998105
-0.2685628 -0.2785918 -0.21801876 -0.045856554 -0.09460268 -0.16363044 -0.26847243 -0.026245778
-0.11737307 -0.24157275 -0.13310611 -0.035176553 -0.08568294 -0.11213871 -0.27145544 -0.095289834
-0.07363568 -0.11226774 -0.15025349 -0.17974567 -0.143515 -0.1392759 -0.27481803 -0.07033457
-0.2526097 -0.14068061 -0.28333387 -0.1618568 -0.16867742 -0.23434046 -0.050209165 -0.20869085
0.17164367 -0.109302826 -0.04181016 -0.10385641 0.029035721 -0.013610414 0.114021 0.058314424
-0.06721923 0.10212388 0.12341134 0.15413904 0.19043909 0.094112895 -0.01664049 -0.051657334
-0.17146957 -0.25774488 -0.033673085 -0.27709895 -0.041827008 -0.07666684 -0.124753855 -0.18377045
-0.26965132 -0.22841299 -0.22751093 -0.12491225 -0.01015026 -0.183295 -0.16414964 -0.15786423
-0.15246545 -0.113320045 -0.19318628 -0.16931221 -0.11966794 -0.1901458 -0.276535 -0.26483467
-0.09636447 -0.08665085 -0.26882973 -0.18119146 -0.18836637 -0.21587871 -0.15588337 -0.0771617
0.0001786884 -0.0003139715 0.077304855 0.13013647 0.1845207 0.15214726 0.18894127 0.1587213
0.012928207 0.037433755 0.19369963 0.028814366 -0.021883314 0.06779173 0.115901455 -0.00028302052
-0.2870708 -0.17875922 -0.23361778 -0.09987381 -0.03653908 -0.1188329 -0.17926385 -0.16200587
-0.23872061 -0.27744675 -0.029194752 -0.11177731 -0.17068084 -0.19039129 -0.05723251 -0.29419568
-0.07491797 -0.24167882 -0.098933764 -0.09571488 -0.15170467 -0.10742619 -0.26295483 -0.2718107
-0.10889328 -0.07290552 -0.12425536 -0.12312707 -0.10328113 -0.005085973 -0.08625274 -0.15584323
0.20239371 0.049713813 0.03890951 0.088485405 0.047448903 0.074347965 0.026736164 0.018032132
0.12432063 0.16034849 0.04891262 0.10417913 0.1500439 0.035712045 0.031176016 0.009859271
-0.19093592 -0.18641469 -0.20679238 -0.18562484 -0.094053574 -0.21073073 -0.049382478 -0.13360325
-0.18396157 -0.13432248 -0.042021673 -0.08150744 -0.2713743 -0.06759744 -0.15400843 -0.18015763
-0.26259416 -0.18717574 -0.26053044 -0.2373154 -0.1392976 -0.04012281 -0.18039465 -0.09239498
-0.13932422 -0.29029763 -0.017321326 -0.037759364 -0.25254396 -0.052898794 -0.08624696 -0.2702102
0.23695421 0.20923838 0.23531586 0.079959214 0.1758608 0.12769805 0.055141598 0.14563382
0.14727171 0.037009254 -0.0020059033 0.21775608 0.23934299 0.25840423 0.081584 0.09691399
-0.22462584 -0.12282513 0.0025058812 -0.2544063 -0.23416477 -0.28173113 -0.08043853 -0.22850266
-0.20469376 -0.03541438 -0.11883608 -0.057267863 -0.06086344 -0.27413556 -0.22653812 -0.1918196
-0.10337472 -0.26051265 -0.19987275 -0.18320483 -0.051102664 -0.2264647 -0.110519886 -0.20970699
-0.26663616 -0.076325685 -0.025828553 -0.19603658 -0.07356603 -0.14093222 -0.09740152 -0.12707995
0.21670549 0.1991024 0.09170794 0.23932163 0.08452622 0.10972588 0.115439445 0.011720574
-0.0064585446 -0.0020550182 0.09385287 0.17513515 0.20415299 0.17631328 0.0018168011 0.03267257
00000000: 3e52 59bd f352 883d 6239 fe3d 6583 743d
00000010: 6729 44bd e546 953d 7796 a53d f8ac 923c
00000020: ff46 1b3b c2cb 083e ac64 cf3d 88ec 81bd
00000030: 67b3 8bbd 75ac a43c 230e 3d3e 8902 833b
00000040: 1081 89be 96a3 8ebe 4f40 5fbe 15d4 3bbd
00000050: 0dbf c1bd bd8e 27be 3875 89be 6301 d7bc
00000060: 4b61 f0bd d95e 77be f84c 08be 4a15 10bd
00000070: 8a7a afbd fba8 e5bd 35fc 8abe 5127 c3bd
00000080: 4ece 96bd a1ec e5bd 0ddc 19be 400f 38be
00000090: 99f5 12be 579e 0ebe f3b4 8cbe 920b 90bd
000000a0: 0f56 81be 940e 10be 2311 91be cabd 25be
000000b0: c6b9 2cbe f2f6 6fbe 20a8 4dbd 0eb3 55be
000000c0: 5cc3 2f3e 29da dfbd 2141 2bbd abb2 d4bd
000000d0: 52dc ed3c 37fe 5ebc d883 e93d 1bdb 6e3d
000000e0: 3caa 89bd 5326 d13d 16bf fc3d a0d6 1d3e
000000f0: 7702 433e 43be c03d a351 88bc a496 53bd
00000100: b895 2fbe 23f7 83be caec 09bd eadf 8dbe
00000110: cc52 2bbd 8103 9dbd f37e ffbd 522e 3cbe
00000120: bd0f 8abe 18e5 69be a0f8 68be fed1 ffbd
00000130: 474d 26bc afb1 3bbe d816 28be 29a7 21be
00000140: e71f 1cbe 5714 e8bd a0d2 45be 2e60 2dbe
00000150: 7714 f5bd 95b5 42be ff95 8dbe 6998 87be
00000160: bc5a c5bd 0076 b1bd 0da4 89be 418a 39be
00000170: 1de3 40be 4f0f 5dbe e49f 1fbe f406 9ebd
00000180: 4d5e 3b39 8b9c a4b9 0252 9e3d 7f42 053e
00000190: fff2 3c3e 7ecc 1b3e d279 413e d687 223e
000001a0: d5d0 533c 2354 193d 3259 463e 1b0c ec3c
000001b0: a344 b3bc 64d6 8a3d be5d ed3d 5f62 94b9
000001c0: f2fa 92be a80c 37be 8039 6fbe a48a ccbd
000001d0: 01aa 15bd aa5e f3bd f190 37be dee4 25be
000001e0: 2d73 74be 800d 8ebe d529 efbc 81eb e4bd
000001f0: f5c6 2ebe eff5 42be a36c 6abd d1a0 96be
00000200: 986e 99bd a77a 77be c99d cabd 2a06 c4bd
00000210: 7858 1bbe 4302 dcbd 04a2 86be c62a 8bbe
00000220: 7103 dfbd 7d4f 95bd 9879 febd 0c2a fcbd
00000230: 0f85 d3bd 3ca8 a6bb 47a5 b0bd 5e95 1fbe
00000240: 4c40 4f3e b6a0 4b3d 945f 1f3d d637 b53d
00000250: c859 423d bf43 983d cd05 db3c 1fb8 933c
00000260: d19b fe3d 6532 243e 9958 483d de5b d53d
00000270: 1ca5 193e cb46 123d d864 ff3c c888 213c
00000280: b584 43be 7ee3 3ebe 62c1 53be 7014 3ebe
00000290: 299f c0bd ccc9 57be 4845 4abd 4acf 08be
000002a0: 6c60 3cbe d58b 09be eb1e 2cbd 5fed a6bd
000002b0: 92f1 8abe 8770 8abd 63b4 1dbe 3e7b 38be
000002c0: be72 86be ffaa 3fbe 3f64 85be cf02 73be
000002d0: 08a4 0ebe d157 24bd 60b9 38be 9439 bdbd
000002e0: 02ab 0ebe e4a1 94be 74e5 8dbc 90a9 1abd
000002f0: 714d 81be 68ac 58bd 3fa2 b0bd fe58 8abe
00000300: 20a4 723e 9642 563e a4f6 703e a8c1 a33d
00000310: db14 343e 47c3 023e 28dc 613d 0821 153e
00000320: 65ce 163e 0497 173d 7975 03bb 73fb 5e3e
00000330: 5416 753e 8f4d 843e 8315 a73d d87a c63d
00000340: 5104 66be be8b fbbd b639 243b 8b41 82be
00000350: e4c8 6fbe 103f 90be f5bc a4bd 9afc 69be
00000360: 3e9b 51be ab0e 11bd 5560 f3bd b591 6abd
00000370: f14b 79bd 7f5b 8cbe 9cf9 67be 5b6c 44be
00000380: 20b6 d3bd ea61 85be 71ab 4cbe 0c9a 3bbe
00000390: 0751 51bd 5de6 67be 4058 e2bd 6ebd 56be
000003a0: 8984 88be a450 9cbd 6796 d3bc d0bd 48be
000003b0: c9a9 96bd 8950 10be 737a c7bd 3f21 02be
000003c0: 0be8 5d3e 80e1 4b3e 5fd1 bb3d bb10 753e
000003d0: 151c ad3d f6b7 e03d 846b ec3d a707 403c
000003e0: 33a2 d3bb 7cad 06bb ef35 c03d a156 333e
000003f0: 7b0d 513e 788b 343e bb21 ee3a acd3 053d

deconv4.0.bias f4 [3]
-0.10933364 -0.02140408 -0.06281828
00000000: 51ea dfbd 9c57 afbc dfa6 80bd
