03_hw/Pix2Pix/checkpoints/pix2pix_model_epoch_750.pth (torch, 99191 bytes, 32 tensors)

conv1.0.weight f4 [8, 3, 4, 4]
0	0xbdc9f019	-0.09860248
1	0xbde92a81	-0.1138506
2	0xbd593ba4	-0.053035393
3	0xbe3c142b	-0.18367068
4	0x3d76226d	0.060091425
5	0xbdcc1cc9	-0.09966428
6	0xbca96b36	-0.020681005
7	0x3d75a705	0.059973735
8	0xbe111bdc	-0.14170784
9	0xbd3a31e9	-0.045457754
10	0xbba3a9d8	-0.004994612
11	0x3d250861	0.040291194
12	0xbcc61dc1	-0.02418411
13	0x3d93b6b5	0.07212583
14	0x3d8fa93d	0.070147015
15	0xbe0be165	-0.136602
16	0x3e0a1444	0.13484293
17	0x3e40901f	0.18804978
18	0x3d61a882	0.055092342
19	0xbbae530e	-0.0053199595
20	0x3d15e551	0.036595646
21	0xbcbed268	-0.023293689
22	0xbd9ef0b5	-0.07760755
23	0x3d4a637a	0.049411274
24	0x3df4759e	0.11936496
25	0x3d5c83f6	0.053836785
26	0x3d20c6db	0.039252143
27	0xbd22d737	-0.039756026
28	0xbd99820c	-0.074955076
29	0x3cea9b5c	0.028638534
30	0xbd84444a	-0.064583376
31	0x3e2ad94d	0.16684456
32	0xbdd56495	-0.10419575
33	0x3d1f7315	0.03892811
34	0xbe189424	-0.14900261
35	0x3d593aab	0.053034466
36	0xbde1bb80	-0.11022091
37	0xbdd8f1f6	-0.105930254
38	0xbbdd5690	-0.006754704
39	0xbdf91f3c	-0.121641606
40	0x3cd26979	0.025685059
41	0xbcc85647	-0.024455203
42	0xbb2f578d	-0.0026755065
43	0xbd163a95	-0.036676962
44	0xbd40e292	-0.047091074
45	0x3d310f60	0.043227553
46	0x3d94427c	0.072392434
47	0x3d3c87ca	0.046027936
48	0xbd8f1032	-0.06985511
49	0x3d8ddb43	0.069265865
50	0xbc9917a7	-0.018688036
51	0xbc958d27	-0.018255783
52	0xbb74d1d5	-0.0037356515
53	0x3de8a453	0.11359467
54	0x3d0bd3dc	0.03413759
55	0xbc3d44b7	-0.011552027
56	0x3e159130	0.14606166
57	0x3db41ec1	0.08794928
58	0xbdcbb96b	-0.09947475
59	0xbd955333	-0.072912596
60	0x3d0e7fb6	0.034789763
61	0x3e02443c	0.12721342
62	0xbcf38636	-0.029727083
63	0xbcb57aee	-0.022153344
64	0xbb29b7cd	-0.0025896907
65	0x3e09dd67	0.13463365
66	0x3c34b078	0.011028402
67	0xbdac7b2f	-0.08421933
68	0xbd39bb41	-0.045344595
69	0xbd9d36a1	-0.07676435
70	0x3d1a82e7	0.037722494
71	0xbd081dda	-0.033231594
72	0x3cfcfc2b	0.030881962
73	0xbc0d78e3	-0.008634779
74	0x3d18084f	0.0371173
75	0xbe034459	-0.12819041
76	0x3d7dba80	0.06194544
77	0xbce18f58	-0.027534172
78	0x3d768129	0.06018177
79	0x3dbbf5f4	0.09177771
80	0x3b17ed04	0.0023182044
81	0xbd80aba6	-0.06282739
82	0x3d462acb	0.048380654
83	0xbe044139	-0.12915505
84	0xbd66188d	-0.056175757
85	0x3daad0c0	0.08340597
86	0xbd94bbec	-0.07262406
87	0x3d866a6d	0.06563268
88	0xbbb420c9	-0.0054970724
89	0xbb8c976c	-0.004290512
90	0xbc9005f2	-0.01758096
91	0x3b9a1ae3	0.004702912
92	0xbd80bbef	-0.062858455
93	0xbdbeb9c3	-0.09312775
94	0xbced1b86	-0.028943788
95	0xbdc5f2c2	-0.09665443
96	0xbe0786d5	-0.13235028
97	0x3d6145d2	0.054998226
98	0x3c631e49	0.013862201
99	0xbd6765bb	-0.056493502
100	0x3c3b3fee	0.011428816
101	0xbcca139f	-0.02466756
102	0x3d84d390	0.06485665
103	0x3e0dd487	0.13850604
104	0xbd9f9385	-0.07791809
105	0x3d3b36b0	0.04570645
106	0xbde53a94	-0.111928135
107	0xbd4dbd47	-0.050229337
108	0x3e1e8e94	0.15484077
109	0x3d0e1443	0.03468729
110	0x3d288ffa	0.04115293
111	0xbd5cd5a2	-0.053914674
112	0xbd6d7854	-0.057976082
113	0x3afdf4d8	0.0019375337
114	0x3dcf4fd9	0.101226516
115	0xbde6db5b	-0.112723075
116	0x3e0274a1	0.12739803
117	0xbd063079	-0.03276107
118	0x3c73711c	0.01485851
119	0x3e04d023	0.12970023
120	0x3cffb524	0.031214304
121	0x3d973dd2	0.07384838
122	0xbdbda1ce	-0.092593774
123	0xbddb50d0	-0.10708773
124	0x3d2378ca	0.039910115
125	0x3cf646f5	0.030063132
126	0xbbad661e	-0.0052917143
127	0x3df24e8b	0.11831387
128	0xbdcfa00c	-0.101379484
129	0x3dc282e7	0.09497624
130	0xbc6e9935	-0.014562895
131	0x3d19ccb4	0.037548736
132	0x3c83ddd7	0.016096992
133	0x3d86c0bf	0.06579732
134	0x3dc3a0cb	0.09552153
135	0xbc68e38d	-0.014214409
136	0x3d9fb742	0.077986255
137	0x3e2ffeac	0.17186993
138	0x3df8f019	0.1215517
139	0x3d9aa011	0.075500615
140	0xbdb5c735	-0.08875886
141	0x3cc6f72e	0.024287786
142	0x3dccd4c4	0.10001519
143	0x3dee5e97	0.11639135
144	0x3d76b437	0.06023046
145	0x3deb0b37	0.114767484
146	0x3e317e30	0.17333293
147	0x3d48cfb6	0.049026214
148	0x3b98213b	0.0046426333
149	0xbd4f6424	-0.05063261
150	0xb9ded136	-0.00042499014
151	0xbd51f0ec	-0.05125515
152	0x3d1d812c	0.038453266
153	0xbd8a6209	-0.0675698
154	0x3e1251b4	0.1428898
155	0xbd7144c3	-0.058903467
156	0x3d59638b	0.053073447
157	0x3de65d65	0.11248282
158	0x3dcf2d02	0.101160064
159	0xbe229c9a	-0.15880051
160	0xbddf2719	-0.10896129
161	0x3db517b8	0.088424146
162	0x3e200d17	0.15629993
163	0x3cd35286	0.025796186
164	0x3d8c0591	0.06836999
165	0x3dc9907a	0.0984201
166	0x3adf3c1e	0.0017031466
167	0xbd1da759	-0.038489673
168	0xbdbc516a	-0.09195216
169	0xbdb34689	-0.08753688
170	0x3d8ca3ec	0.06867203
171	0x3dcde1b8	0.10052818
172	0xbdae3db4	-0.08507863
173	0xbd679cfa	-0.05654619
174	0xbc66c19e	-0.014084248
175	0xbdac1b85	-0.084036864
176	0x3da0f4c6	0.07859187
177	0xbe34157e	-0.17586324
178	0x3c8aa869	0.016926007
179	0x3d0122ce	0.031527333
180	0xbd6792cb	-0.056536477
181	0xbde7b4a5	-0.11313752
182	0xbd2e8e3d	-0.042616118
183	0x3c9c2ac2	0.019063357
184	0xbdede2a9	-0.116154976
185	0x3ddbf70c	0.1074048
186	0xbda34270	-0.07971656
187	0x3de2886c	0.11061177
188	0xbd6db68d	-0.058035422
189	0xbd2d3a36	-0.042291842
190	0xbde169ad	-0.11006484
191	0x3e040d24	0.12895638
192	0xbdbf72c5	-0.093480624
193	0xbe0e0424	-0.13868767
194	0x3d1edb8a	0.038783588
195	0x3d4ca6b7	0.04996368
196	0x3e08fbbe	0.13377282
197	0xbc68728f	-0.014187469
198	0x39d11a01	0.0003988296
199	0xbe0f3615	-0.13985474
200	0x3dc1c2f7	0.09461015
201	0xbd93674e	-0.07197438
202	0x3df2261d	0.11823676
203	0x3d693088	0.05693105
204	0x3d40600f	0.04696661
205	0xbe2de62c	-0.16982335
206	0xbdb36c9a	-0.087609485
207	0xbc60e407	-0.013726241
208	0xbce64b03	-0.02811194
209	0x3d78c65c	0.060736045
210	0x3d171d50	0.03689319
211	0x3dbfac2e	0.093590125
212	0xbdc60885	-0.09669594
213	0xbd9f6ffc	-0.07785031
214	0xbbb0cd19	-0.0053955433
215	0x3d9d7444	0.076881915
216	0xbd0b1b81	-0.033961777
217	0xbe032bfd	-0.12809749
218	0xbe4840cd	-0.1955597
219	0xbe6cf151	-0.2313893
220	0xbde4062b	-0.11133989
221	0xbcaacb9b	-0.02084904
222	0xbe4b3a77	-0.19846521
223	0x3cf7158d	0.030161643
224	0x3de14bdf	0.110007994
225	0x3c995f0b	0.018722078
226	0x3d7b3327	0.06132808
227	0xbdd4ee13	-0.103969716
228	0x3d95ffae	0.07324158
229	0xbd6f22ff	-0.058382984
230	0x3dc06666	0.09394531
231	0xbd9c5745	-0.07633833
232	0xbd6519cf	-0.055932816
233	0x3dc151de	0.09439443
234	0xbd559145	-0.052140493
235	0x3d836c51	0.06417144
236	0x3dc95935	0.09831468
237	0x3cf98524	0.030458994
238	0xbbcad3db	-0.006189806
239	0xbd6ef303	-0.058337223
240	0x3d1e2b32	0.038615413
241	0xbdec40cd	-0.11535797
242	0xbd8bba65	-0.06822661
243	0xbd275d17	-0.04086026
244	0xbd6a56b1	-0.05721158
245	0xbdc52a2e	-0.09627186
246	0x3df33153	0.11874642
247	0xbb440747	-0.0029911564
248	0x3dce9be8	0.100883305
249	0x3c7b5525	0.015340124
250	0x3dc13291	0.09433473
251	0xbde94a75	-0.11391155
252	0xbd1c27db	-0.038123947
253	0x3ddca9ab	0.10774549
254	0x3e0112d2	0.12604836
255	0x3d5ccb7a	0.053904988

conv1.0.bias f4 [8]
0	0x3e08910b	0.1333658
1	0x3b92a8f9	0.0044757095
2	0xbd0f50e5	-0.034989256
3	0x3dfeb9ec	0.124378055
4	0x3d91c5d1	0.071178086
5	0x3dce5242	0.10074283
6	0xbdde9580	-0.108683586
7	0xbc41b771	-0.011823521

conv1.1.weight f4 [8]
0	0x3f80d0d7	1.0063733
1	0x3f7bcd9d	0.98360616
2	0x3f7fd445	0.9993327
3	0x3f747417	0.9548964
4	0x3f80e0fc	1.006866
5	0x3f726704	0.9468844
6	0x3f82ac27	1.0208787
7	0x3f86fb3a	1.0545418

conv1.1.bias f4 [8]
0	0xbb45f65a	-0.0030206651
1	0xbd29c72c	-0.04144971
2	0xbd0459db	-0.032312255
3	0xbc2c39b3	-0.010511803
4	0xbb6bb51a	-0.00359661
5	0x3da09359	0.07840604
6	0xbd354ae9	-0.044260893
7	0x3dd6b012	0.104828015

conv1.1.running_mean f4 [8]
0	0x3e4bc7d9	0.19900455
1	0xbce6aa5a	-0.028157402
2	0xbdd089d8	-0.101825416
3	0x3d6cf16c	0.057847425
4	0x3e2ee443	0.17079262
5	0x3da0a786	0.078444526
6	0xbdeb2553	-0.114817284
7	0xbc382879	-0.011240118

conv1.1.running_var f4 [8]
0	0x3d4140f3	0.04718108
1	0x3c68088a	0.014162192
2	0x3e80b4b9	0.2513788
3	0x3cd0dab3	0.025494909
4	0x3e07757b	0.13228409
5	0x3d08a413	0.0333596
6	0x3ca3ac23	0.019979542
7	0x3cf762b1	0.030198427

conv2.0.weight f4 [16, 8, 4, 4]
0	0x3d888f24	0.06667927
1	0x3dc35174	0.0953702
2	0x3cf650ee	0.030067887
3	0x3d3645b4	0.044500068
4	0xbda53e3c	-0.08068511
5	0x3d9601f2	0.0732459
6	0xbd3e0f2a	-0.04640118
7	0x3d918b78	0.0710668
8	0xbd9b9abc	-0.075978726
9	0x3d8f2870	0.06990135
10	0x3d52601c	0.05136119
11	0x3c9616d2	0.018321428
12	0xbcea1648	-0.028575078
13	0xbdd0a86c	-0.10188374
14	0xbdd1327f	-0.102147095
15	0x3c8fba38	0.01754485
16	0xbc8aa19e	-0.016922768
17	0x3dd357ba	0.10319467
18	0x3d978d25	0.07399968
19	0xbca6cfad	-0.0203627
20	0x3d60f734	0.05492325
21	0xbd84dff9	-0.06488032
22	0x3cc00f59	0.023444818
23	0xbcba509a	-0.022743512
24	0x3cf19f06	0.029494774
25	0x3c05b597	0.00816097
26	0xbd5776a9	-0.052603398
27	0x3cace15d	0.021103555
28	0x3d1c7f2b	0.038207214
29	0x3ce20944	0.027592309
30	0xbccff4ad	-0.025385225
31	0xbdb5f27c	-0.08884141
32	0xbd2e7034	-0.042587474
33	0x3c8d64c5	0.017259965
34	0x3d287509	0.04112724
35	0xbd21b3e7	-0.03947821
36	0xbdb32534	-0.0874733
37	0xbc9f6bf5	-0.019460658
38	0xbc2bde07	-0.010489947
39	0x3d4712ee	0.048602037
40	0xbd1c8a0a	-0.03821758
41	0xbd904750	-0.07044852
42	0xbc4c0cb5	-0.0124542015
43	0xbcd2e936	-0.02574597
44	0xbddb9168	-0.107210934
45	0xbdbead8b	-0.093104444
46	0xbd9d2500	-0.07673073
47	0xbdc45ca3	-0.095879816
48	0x3d245460	0.04011953
49	0xbcd60ace	-0.026128199
50	0x3ce3e398	0.027818486
51	0x3c7ed38d	0.015553367
52	0x3c84678b	0.016162654
53	0x3cd5e90b	0.0261121
54	0xbd7fc39f	-0.06244242
55	0xbd470343	-0.048587095
56	0x3a802ec7	0.0009779566
57	0xbd02a045	-0.031891126
58	0x3c22ade9	0.009929159
59	0xbb2bb293	-0.0026198968
60	0x3db8b468	0.09018785
61	0xbc9aec10	-0.018911391
62	0x3c00cf44	0.007861916
63	0x39eaf28d	0.00044812672
64	0x3d7354e5	0.059407134
65	0xbce1ddfe	-0.027571674
66	0x3b5d1064	0.0033731693
67	0x3d34b8c4	0.04412152
68	0x3d2562c0	0.04037738
69	0x3b804063	0.0039139255
70	0x3dcf021f	0.101078264
71	0xbc213721	-0.009839804
72	0x3d5cd9e7	0.053918745
73	0xbd0ad7e5	-0.0338973
74	0x3da9c64b	0.082897745
75	0x3d4914f6	0.049092256
76	0xbd9e1901	-0.07719613
77	0xbcc0e485	-0.023546467
78	0xbd55d431	-0.052204315
79	0xbd1cb27b	-0.03825615
80	0xbda9dd9e	-0.08294223
81	0xbdc8a444	-0.09796956
82	0x3bd2505d	0.0064182715
83	0x3ad0c803	0.0015928749
84	0xbbd8c90a	-0.0066157626
85	0xbcb4a81d	-0.022052819
86	0x3d34c787	0.044135597
87	0x3bf9ecea	0.0076271193
88	0x3b59ed6a	0.0033253082
89	0x3d884786	0.06654267
90	0x3d4165e0	0.047216296
91	0x3d8efe45	0.06982092
92	0xbbe09047	-0.0068531367
93	0x3be985aa	0.0071265297
94	0xbd8827f4	-0.066482455
95	0x3c3a9e96	0.011390349
96	0x3d89a939	0.0672173
97	0x3b25a7af	0.002527695
98	0x3db7b62a	0.08970292
99	0x3d444fb7	0.047927584
100	0x3d96dd8c	0.073664755
101	0x3d2621b4	0.040559486
102	0x3cd61a94	0.02613572
103	0x3d64502d	0.055740524
104	0xbc762db4	-0.015025545
105	0x3cf4e083	0.029892212
106	0xbc25d05f	-0.01012048
107	0x3d64b592	0.05583722
108	0xbb0c2265	-0.0021382805
109	0x3dc096db	0.094037734
110	0x3ce62865	0.028095433
111	0x3dc275da	0.09495135
112	0x3b51f216	0.0032035164
113	0x3c70fbae	0.014708443
114	0xbd0333fc	-0.032031998
115	0x3bb1d703	0.0054272427
116	0xbd040a6e	-0.03223651
117	0xbbf357ff	-0.0074262614
118	0xbceefdda	-0.02917378
119	0xbcba4811	-0.022739442
120	0x3d995cbf	0.07488393
121	0x3ca496c9	0.020091431
122	0x3d4ad7d1	0.049522225
123	0x3d447edb	0.04797254
124	0x3d5812a5	0.052752156
125	0xbc3023d1	-0.010750727
126	0x3d4468cb	0.0479515
127	0xbd044874	-0.03229566
128	0x3cd23b47	0.025663031
129	0x3bc09034	0.0058765654
130	0xbd036368	-0.032077223
131	0xbd780597	-0.060552206
132	0xbd3d9727	-0.04628673
133	0xbd954ed8	-0.07290429
134	0xbd175333	-0.03694458
135	0x3d9a958e	0.075480565
136	0x3d50f32b	0.051013153
137	0x3a2e68cf	0.0006653191
138	0xbbfd1324	-0.007723229
139	0x3d920d73	0.071314715
140	0xbd5c97f7	-0.053855862
141	0xbbc70ada	-0.0060742917
142	0x3dc0bb4a	0.094107226
143	0xbd4f8aff	-0.050669666
144	0x3ca36706	0.019946586
145	0x3d131bf8	0.035915345
146	0xbd59d531	-0.05318183
147	0xbd93b268	-0.07211763
148	0xbdbdf27a	-0.09274764
149	0xbd57acbd	-0.05265497
150	0xbdaec0bd	-0.08532856
151	0xbd01dd9a	-0.031705476
152	0x3c0f18bc	0.0087339245
153	0xbd546bfd	-0.0518608
154	0x3d74c646	0.0597594
155	0x3cf52049	0.029922621
156	0x38f6d78d	0.000117703436
157	0xbcfc5e7b	-0.03080677
158	0x3da99f89	0.08282382
159	0x3dedcd15	0.11611382
160	0xbdd54003	-0.104126
161	0xbcfa5c90	-0.030561715
162	0x3d870023	0.06591823
163	0xbc95533d	-0.018228168
164	0x3d81715d	0.063204505
165	0x3d0d3beb	0.03448097
166	0x3d3535d2	0.04424078
167	0xbd73c673	-0.059515428
168	0x3c92c3d5	0.017915646
169	0xbc3456ac	-0.011006992
170	0xbdac5b34	-0.08415833
171	0x3d178e7a	0.03700111
172	0x3c60ad15	0.013713141
173	0xbd5c137e	-0.053729527
174	0x3cac6e73	0.02104876
175	0x3d811e3c	0.06304595
176	0xbccfe31f	-0.025376854
177	0xbd135d6a	-0.03597776
178	0x3dcb711d	0.09933684
179	0xbbf1d042	-0.0073795626
180	0xbd634903	-0.05548955
181	0xbd344681	-0.04401255
182	0xbd596b91	-0.0530811
183	0x3d3fe95c	0.04685341
184	0xbccce886	-0.02501322
185	0xbd6feda8	-0.058576256
186	0xbda693d4	-0.08133665
187	0x3c994efe	0.018714424
188	0xbd921028	-0.07131988
189	0x3c3cf50e	0.011533035
190	0x3d24ee72	0.04026646
191	0xbbea4200	-0.007148981
192	0xbcd0c49c	-0.025484376
193	0xbd8023e5	-0.06256846
194	0xbb8f2c17	-0.0043692696
195	0x3b722d74	0.0036953362
196	0xbc8f7408	-0.017511383
197	0x3d2fa970	0.042886198
198	0x3d0c5fd7	0.034271087
199	0xbd508fa2	-0.05091823
200	0xbd78d345	-0.060748357
201	0xbd86d071	-0.06582726
202	0xbda0383e	-0.07823227
203	0x3d3d4cdb	0.046215873
204	0xbbc61a81	-0.00604564
205	0xbcbc1601	-0.022959711
206	0x3dc61daa	0.09673627
207	0xbd0e6b0b	-0.034770053
208	0xbcedde16	-0.029036563
209	0xbd1aa409	-0.037754092
210	0xbd978d03	-0.07399943
211	0xbd52cd3e	-0.051465265
212	0x3d245e56	0.04012903
213	0xbd0e6d3f	-0.034772154
214	0xbdbba726	-0.091627404
215	0xbdefbc9f	-0.117058985
216	0x3c9faf73	0.01949284
217	0xbd0f2fca	-0.034957685
218	0xbce725f7	-0.028216345
219	0xbc44e5ad	-0.01201765
220	0x3c5d9978	0.013525359
221	0xbd8aa949	-0.0677057
222	0xbd16ad42	-0.036786325
223	0x3c700b58	0.014651142
224	0x3c5b75e6	0.013394808
225	0xbbe70e77	-0.007051285
226	0xbd00e003	-0.031463634
227	0x3d8b32dc	0.0679681
228	0x3d475a8f	0.048670348
229	0xbd5466b0	-0.051855743
230	0xbd2b754b	-0.041859906
231	0x3cb21f90	0.021743566
232	0xbda83661	-0.08213497
233	0xbc58dec2	-0.013236703
234	0xbe356277	-0.17713343
235	0xbd77a581	-0.06046057
236	0x3ab76fbe	0.0013995094
237	0xbd998378	-0.07495779
238	0xbdabf4a1	-0.08396269
239	0x3cd77b07	0.026303781
240	0x3cd53b7f	0.026029347
241	0xbd740829	-0.059578095
242	0x3b73fa63	0.00372281
243	0xbc67bcd0	-0.0141441375
244	0xbe2eec7c	-0.17082399
245	0xbe0f827a	-0.14014617
246	0xbdbaa058	-0.091126144
247	0x3c897aa3	0.01678211
248	0xbcd1e139	-0.02562009
249	0xbe569f2f	-0.20959161
250	0xbdfa5b62	-0.12224461
251	0xbd9657d4	-0.07340971
252	0x3a5a98d2	0.0008338812
253	0xbc8c1f6a	-0.017104823
254	0xbd9973c1	-0.074927814
255	0x3ccb1cc1	0.024793984

conv2.0.bias f4 [16]
0	0xbdb21f6d	-0.086974
1	0x3daa30b1	0.083100684
2	0x3d88246b	0.06647571
3	0xbc4520ff	-0.012031793
4	0xbd0ff0a2	-0.035141595
5	0x3be3dfc7	0.0069541666
6	0xbd1360b9	-0.035980914
7	0xbd6eff84	-0.058349147
8	0xbca7ba4c	-0.020474575
9	0x3d2c434b	0.042056363
10	0xbd720607	-0.05908778
11	0xbd079a4f	-0.033106145
12	0xbd3290f8	-0.043595284
13	0xbdad5909	-0.08464248
14	0x3d8ce2be	0.06879185
15	0xbd93984b	-0.07206782

conv2.1.weight f4 [16]
0	0x3f78cad9	0.9718452
1	0x3f89162e	1.0709894
2	0x3f7b117e	0.98073566
3	0x3f7b964c	0.9827621
4	0x3f7d9458	0.9905448
5	0x3f7b8d55	0.9826253
6	0x3f802414	1.001101
7	0x3f8273ca	1.0191586
8	0x3f75d9de	0.96035564
9	0x3f803bd1	1.0018255
10	0x3f81136c	1.0084052
11	0x3f81357a	1.0094445
12	0x3f89f468	1.0777712
13	0x3f7e62ed	0.993697
14	0x3f8047c4	1.0021901
15	0x3f7f445a	0.9971367

conv2.1.bias f4 [16]
0	0xbbbbf39b	-0.005735827
1	0xbbe48e0f	-0.0069749425
2	0x3c0acb4d	0.008471322
3	0xbda96e18	-0.08272952
4	0xbc4a8436	-0.012360623
5	0xbd2b9a3f	-0.041895147
6	0xbd109a86	-0.035303615
7	0xbd36141a	-0.044452764
8	0xbcdfee6c	-0.027335368
9	0x3cae7daf	0.021300165
10	0x3c3eec4f	0.01165302
11	0xbc2dcb67	-0.010607577
12	0xbd325638	-0.043539256
13	0x3cb29487	0.021799339
14	0x3caa22ee	0.020768609
15	0xbb98024f	-0.004638947

conv2.1.running_mean f4 [16]
0	0x3d83705f	0.064179175
1	0xbf505eaa	-0.81394446
2	0xbe2e4c56	-0.17021307
3	0x3f86dd6f	1.0536326
4	0xbe5cb4c4	-0.21553332
5	0xbe6e442b	-0.23268192
6	0xbaa89343	-0.001286127
7	0x3d0d0b90	0.034434855
8	0xbe1296be	-0.14315316
9	0xbf31304d	-0.69214326
10	0xbcdaf463	-0.02672786
11	0x3f01a146	0.5063671
12	0xbd5156cf	-0.051108178
13	0xbef447a4	-0.47710907
14	0x3d63ca6b	0.055612963
15	0x3e18529d	0.14875264

conv2.1.running_var f4 [16]
0	0x3e8ff3e4	0.2811576
1	0x3eb4a77a	0.35284024
2	0x3efe31ef	0.4964747
3	0x3ead9d98	0.33909297
4	0x3e5c0ec7	0.21490012
5	0x3dffb38d	0.124854185
6	0x3d9bbd51	0.076044686
7	0x3e31b59e	0.17354438
8	0x3ef6e119	0.4821861
9	0x3ed911a0	0.4239626
10	0x3e209417	0.15681492
11	0x3e5e4d96	0.21709284
12	0x3ecb51d2	0.3971086
13	0x3e7c6fa2	0.2465196
14	0x3e6155dc	0.22005409
15	0x3e870526	0.26371115

conv3.0.weight f4 [32, 16, 4, 4]
0	0x3cb1ba32	0.02169523
1	0xbba60947	-0.005067024
2	0xbd5fdeeb	-0.05465595
3	0xbd85a69b	-0.06525918
4	0xbd51edd4	-0.0512522
5	0xbad54d6b	-0.0016273683
6	0x3ab731c6	0.0013976626
7	0xbc89aa14	-0.016804732
8	0xbd298988	-0.041390926
9	0xbc82f216	-0.015984576
10	0xbb3c97dc	-0.0028777039
11	0xbd3df123	-0.046372544
12	0xbd1a47a0	-0.037665963
13	0x3ceaca35	0.028660873
14	0x3cd96f69	0.026542382
15	0x3c41ba52	0.011824207
16	0xbdaade49	-0.08343179
17	0xbd12f77a	-0.035880543
18	0xbc45ba17	-0.012068293
19	0xbb84bdee	-0.0040509617
20	0xbcbff1d3	-0.02343074
21	0xbcf70af2	-0.030156586
22	0x3d0d27de	0.03446185
23	0xbd2054a0	-0.039143205
24	0xbd2f4b5d	-0.04279648
25	0xbd8ad73b	-0.06779333
26	0xbc9bbad3	-0.019009983
27	0x39a4a8f4	0.00031406397
28	0xbd091184	-0.03346397
29	0x3bf3d546	0.0074411957
30	0xbd21ff48	-0.039550096
31	0xbd7de272	-0.061983533
32	0x3d56af19	0.05241308
33	0xbb81fbc3	-0.00396678
34	0xbaf61741	-0.0018775241
35	0x3cef0b39	0.029180156
36	0x3c9a87d5	0.018863598
37	0xbc507ae3	-0.012724611
38	0x3c0a5d6f	0.008445128
39	0x3d6db63e	0.058035128
40	0x3c383446	0.011242932
41	0x3d3c1213	0.045915674
42	0x3c5e72f8	0.013577215
43	0xbbd0371e	-0.0063542267
44	0x3c325386	0.010884171
45	0x3ca56b63	0.020192808
46	0x3cad2880	0.021137476
47	0x3c4547f1	0.012041078
48	0xbae12a29	-0.0017178702
49	0xbc1bd6da	-0.009511674
50	0xbcf7a4c6	-0.030229937
51	0xbd8b30aa	-0.06796391
52	0xbc36c905	-0.011156325
53	0x3d651609	0.055929217
54	0xbcdb185c	-0.026745014
55	0xbd1bd16e	-0.038041525
56	0x3cc424d1	0.023943337
57	0xbcdd82cf	-0.027039913
58	0xbd1db1f0	-0.038499773
59	0xbd5c6d3a	-0.053815104
60	0x3d2f912a	0.04286305
61	0xbce96b5e	-0.02849358
62	0x3d4314fe	0.04762744
63	0xbd7a2455	-0.061069805
64	0x3d3ecf87	0.046584632
65	0x3c68d641	0.014211238
66	0x3d0414a3	0.032246243
67	0x3ccdf49d	0.025141055
68	0x3b1c0ea5	0.002381244
69	0x3c043b52	0.008070784
70	0x3d12ef68	0.035872847
71	0xbc86bdd6	-0.016447943
72	0xbc144c8d	-0.009051454
73	0xbcc15625	-0.023600647
74	0xbc7b8251	-0.015350894
75	0x3cc8dd0f	0.024519471
76	0xbd4782b4	-0.048708633
77	0x3d70bfaf	0.058776554
78	0xbc12746f	-0.008938893
79	0xbc4412eb	-0.011967401
80	0xbba6057e	-0.0050665727
81	0x3d03d7a4	0.032188073
82	0x3c035bed	0.008017522
83	0xbcde2687	-0.02711798
84	0xbcf95849	-0.030437605
85	0x3ce590dd	0.028023178
86	0x3b957489	0.004561011
87	0xba3212ba	-0.00067929516
88	0x3d684f29	0.056716118
89	0xbce6a4a2	-0.028154675
90	0x3c2d1168	0.010563232
91	0x3cb6acf3	0.022299265
92	0xbc645261	-0.013935656
93	0xbd590567	-0.052983668
94	0xbc450798	-0.012025736
95	0xbd0f4815	-0.034980852
96	0x3d9bf941	0.07615901
97	0x3d04f4b8	0.032459944
98	0x3c1c82af	0.009552642
99	0x3bef374c	0.007300293
100	0x3d15df5e	0.036589973
101	0xbb42d36b	-0.0029728066
102	0xbcfd53cb	-0.030923745
103	0xbc9735e5	-0.018458316
104	0x3cbbfd69	0.022947984
105	0xbd888178	-0.06665319
106	0xbd83c0bc	-0.064332455
107	0xbca0b3da	-0.01961701
108	0x3d478b2e	0.048716716
109	0xbcd8072d	-0.02637061
110	0xbd27318d	-0.04081874
111	0x3c9cf049	0.019157546
112	0x3c086937	0.008325866
113	0x3d3d71a9	0.046250973
114	0xbd5d0063	-0.053955447
115	0xbd8068f7	-0.062700205
116	0x3d8a24a8	0.06745273
117	0xbb14d7fb	-0.0022711742
118	0xbd47ac6c	-0.04874842
119	0xbd1a1baf	-0.037624057
120	0xbd8d50cf	-0.06900179
121	0x3c2403c1	0.010010661
122	0xbd9ce03a	-0.07659955
123	0xbdf556cb	-0.11979445
124	0xbc3db6e2	-0.011579247
125	0x3d8d3b0d	0.06896029
126	0xbba1e92a	-0.0049411254
127	0xbd411081	-0.04713488
128	0xbc2074dc	-0.009793486
129	0xbd5464ad	-0.051853824
130	0xbcd43697	-0.025904937
131	0xbd390230	-0.0451681
132	0xbc0f973c	-0.008764084
133	0x3d30c087	0.04315236
134	0xbc7ba6bd	-0.015359578
135	0xbce69854	-0.028148808
136	0xbd3817ca	-0.044944562
137	0xbc882246	-0.016617905
138	0x3981f249	0.00024785314
139	0xbd4e3205	-0.05034067
140	0xbd13041c	-0.03589259
141	0x3ce3f0ba	0.027824748
142	0x3c1dfd02	0.009642841
143	0xbd9a994b	-0.075487696
144	0xbc686d66	-0.014186239
145	0x3d045756	0.032309853
146	0x3d25d10a	0.04048256
147	0xbd40699d	-0.04697572
148	0xbba8fc17	-0.0051570046
149	0xbd55dc1b	-0.052211862
150	0xba80e3d4	-0.0009833523
151	0xbd1d3014	-0.03837593
152	0xbd575f12	-0.0525809
153	0xbd3db98d	-0.046319533
154	0xbc45ab15	-0.012064715
155	0x3d8bf2ca	0.06833418
156	0x3c94794b	0.018124243
157	0x3ce9a066	0.028518867
158	0xbd3bc74d	-0.045844365
159	0xbd8dec0f	-0.0692979
160	0x3d2f9074	0.04286237
161	0x3da1a5da	0.07892962
162	0x3bff72ed	0.0077956826
163	0x3d13f597	0.036122885
164	0xbcbf5013	-0.023353612
165	0x3b85d914	0.0040847156
166	0xbc045728	-0.00807742
167	0x3c191685	0.009343748
168	0x3d8c4773	0.06849565
169	0x3d40124a	0.04689244
170	0x3d33995e	0.043847434
171	0xbce19f85	-0.027541885
172	0x3d2dc9a3	0.042428624
173	0xbd1e5cf8	-0.03866288
174	0x3c81f706	0.01586486
175	0x3cdc6cd9	0.026907371
176	0x3c8cc4cf	0.01718369
177	0x3d2a4101	0.0415659
178	0xba88007e	-0.0010376123
179	0xbd946e57	-0.07247608
180	0xbc114d51	-0.008868531
181	0x3c81409f	0.015777884
182	0xbdaecff0	-0.08535755
183	0xbd6344c7	-0.055485513
184	0x3d8d86ff	0.06910514
185	0x3cf62837	0.030048473
186	0x3d39b4e0	0.04533851
187	0x3bdb6c39	0.0066962508
188	0x3d62c2de	0.05536162
189	0xbd32150b	-0.0434771
190	0xbd69c6a5	-0.057074208
191	0x3bb8d47f	0.005640566
192	0xbd12d377	-0.0358462
193	0x3c04f750	0.0081156045
194	0x3d2d72c4	0.042345777
195	0xbd92f795	-0.07176129
196	0x3cdca93b	0.026936164
197	0xbc5c84bf	-0.0134593835
198	0xbd3f854f	-0.046757992
199	0xbdadc434	-0.084846884
200	0xbc851fc8	-0.016250506
201	0xbdb93ba0	-0.09044576
202	0xbd23719e	-0.039903276
203	0xbdfdc2ff	-0.12390708
204	0xbd653b5f	-0.055964824
205	0x3d291ab9	0.04128525
206	0xbd841f14	-0.0645124
207	0xbd5cfde1	-0.053953055
208	0x3d559d25	0.052151818
209	0x3c5e230f	0.013558163
210	0x3d0d618d	0.03451686
211	0xbcc750bb	-0.024330487
212	0x3ca011c1	0.019539716
213	0x3ba52d13	0.0050407737
214	0xbb5160f6	-0.0031948662
215	0xbcd1164d	-0.02552333
216	0x3d0badc7	0.034101274
217	0x3d0bec45	0.03416087
218	0x3d1436ae	0.03618496
219	0xbc142fa5	-0.0090445625
220	0xbc88671c	-0.016650729
221	0xbd9e1d52	-0.07720436
222	0x3cfffe8c	0.031249307
223	0xbc2cf40c	-0.010556232
224	0x3d8dfe9c	0.069333285
225	0x3d567692	0.05235917
226	0xbd21f816	-0.039543234
227	0xbd0dfd86	-0.034665607
228	0x3c8a7cc5	0.016905198
229	0xbd4d3725	-0.050101418
230	0xbd1fbf17	-0.039000597
231	0x3cba0d41	0.022711398
232	0x3b7a1486	0.0038159206
233	0x3d1dfe4a	0.038572587
234	0x3d5982c7	0.053103235
235	0xbd3ac20d	-0.045595217
236	0xbd1edab3	-0.038782787
237	0x3d2a8218	0.041627973
238	0xbd9a3971	-0.07530487
239	0xbc4ba90b	-0.01243044
240	0xbc026887	-0.007959492
241	0x3b981646	0.004641327
242	0x3c94092b	0.018070778
243	0x3acf83d8	0.0015832139
244	0x3d837408	0.064186156
245	0xbce848f6	-0.028355103
246	0x3d25a682	0.040441997
247	0x3d3736cc	0.044729993
248	0x3d271538	0.04079172
249	0x3d3c1ac7	0.045923974
250	0xbd9dda94	-0.07707706
251	0xbdae4965	-0.08510093
252	0xbd019620	-0.03163731
253	0xbbb27e49	-0.0054471833
254	0xbd65ffeb	-0.056152266
255	0xbd3bcbbe	-0.0458486

conv3.0.bias f4 [32]
0	0x3c6c54c6	0.014424508
1	0x3d6d2317	0.057894792
2	0x3c675a44	0.014120642
3	0xbd71f0ad	-0.059067417
4	0x3b86a5aa	0.004109104
5	0xbd61c618	-0.055120558
6	0xbcc1c1a1	-0.0236519
7	0x3d7a0275	0.0610375
8	0x3d0d4154	0.03448613
9	0x3caa9c0f	0.020826368
10	0xbc741709	-0.01489807
11	0x3cfe6ed8	0.031058714
12	0x3cffbe07	0.031218542
13	0xbbedece3	-0.007260905
14	0xbd7c2086	-0.061554454
15	0x3c2ba8a0	0.010477215
16	0xbd01fc7c	-0.03173493
17	0x3c96aef5	0.018393973
18	0x3d4121cb	0.047151368
19	0x3cd20039	0.025634872
20	0x3d3d2801	0.04618073
21	0x3d50228e	0.050814204
22	0x3c378361	0.011200757
23	0x3d3fdbfd	0.046840657
24	0x3c3f9f9e	0.011695771
25	0xbd267b7a	-0.0406451
26	0xbc3ebe4c	-0.01164205
27	0xbc53fa3e	-0.01293808
28	0xbd7f1f69	-0.062285814
29	0xbd4faa57	-0.050699558
30	0xbd5c4691	-0.053778235
31	0x3d74cb2d	0.059764076

conv3.1.weight f4 [32]
0	0x3f7cc164	0.9873259
1	0x3f7daa76	0.9908823
2	0x3f80741f	1.0035437
3	0x3f8543f0	1.0411358
4	0x3f7a35ba	0.9773823
5	0x3f7dc40e	0.9912728
6	0x3f7c8ce5	0.9865249
7	0x3f7bff8e	0.9843682
8	0x3f7984c0	0.97468185
9	0x3f80eb10	1.0071735
10	0x3f7cfec1	0.98826224
11	0x3f7d32b3	0.98905486
12	0x3f84ea44	1.0383992
13	0x3f793bd7	0.97356933
14	0x3f812b2f	1.0091304
15	0x3f8237c0	1.0173264
16	0x3f8114f8	1.0084524
17	0x3f818b04	1.0120549
18	0x3f7f9927	0.99843067
19	0x3f7fe919	0.99965054
20	0x3f7b91a1	0.9826909
21	0x3f865773	1.0495437
22	0x3f800248	1.0000696
23	0x3f807133	1.0034546
24	0x3f79bf73	0.97557753
25	0x3f798b12	0.9747783
26	0x3f85a3d7	1.0440625
27	0x3f818a2a	1.0120289
28	0x3f7d4d35	0.98945934
29	0x3f84e8f1	1.0383588
30	0x3f884cea	1.0648472
31	0x3f810424	1.0079389

conv3.1.bias f4 [32]
0	0xbd93af1f	-0.07211136
1	0xbc1e366f	-0.009656533
2	0xbcb02b01	-0.02150488
3	0xbe318d46	-0.17339048
4	0xbce74197	-0.028229518
5	0xbc2d88f9	-0.010591739
6	0x3caf9a12	0.021435771
7	0xba328270	-0.0006809598
8	0x3cd975ce	0.026545431
9	0xbcab9c4b	-0.02094855
10	0xbb85e4a1	-0.0040860926
11	0x3d5c9a71	0.053858224
12	0x3da4c5e1	0.08045555
13	0xbced2324	-0.02894742
14	0xbca6cf64	-0.020362563
15	0xbd3b28cf	-0.045693215
16	0x3c521a87	0.012823707
17	0xbc6c2a21	-0.014414341
18	0xbba94527	-0.0051657143
19	0xbd6b775c	-0.057486877
20	0xbc854ef0	-0.016272992
21	0xbd0600c2	-0.032715566
22	0x3becd2d0	0.0072272792
23	0xbc64d897	-0.013967655
24	0xbbff0e48	-0.007783685
25	0xbc7c9e9b	-0.015418674
26	0xbc70bb6f	-0.014693125
27	0x3c13359c	0.008984949
28	0xbd3ffd5d	-0.046872485
29	0xbd2318ae	-0.03981846
30	0xbd81388e	-0.06309615
31	0x3acb0cb2	0.0015491454

conv3.1.running_mean f4 [32]
0	0xbf0ee941	-0.5582467
1	0xbf1c72ba	-0.6111256
2	0xbe2db446	-0.169633
3	0xbd9f2a95	-0.07771794
4	0xbec48473	-0.383823
5	0x3e8c5358	0.27407336
6	0xbdd20397	-0.10254591
7	0x3d40bd0a	0.04705528
8	0xbd8097df	-0.06278967
9	0xbe909ac5	-0.2824308
10	0xbe8124d0	-0.25223398
11	0xbf1c04c5	-0.6094478
12	0xbef47f01	-0.47753146
13	0xbf607bdd	-0.87689
14	0xbec934d1	-0.39298108
15	0xbea37351	-0.31923917
16	0xbed595ee	-0.4171595
17	0xbe218c7a	-0.15776244
18	0x3d697ebc	0.05700563
19	0x3dfbce5c	0.12295219
20	0xbf13af99	-0.57689816
21	0x3c2b2184	0.0104450025
22	0xbe8846a6	-0.266164
23	0xbe782e37	-0.2423638
24	0x3e29433f	0.16529559
25	0xbec19168	-0.3780625
26	0xbe9b223e	-0.30299562
27	0xbf02fe07	-0.51168865
28	0xbdd63d90	-0.10460961
29	0x3e260b57	0.16215263
30	0xbf05a9dc	-0.5221231
31	0xbecf11da	-0.40443307

conv3.1.running_var f4 [32]
0	0x3e4e3dc4	0.20140749
1	0x3e8f38e8	0.27973104
2	0x3e044fd3	0.12921076
3	0x3e479935	0.19492038
4	0x3e6a5e78	0.228876
5	0x3e54204b	0.20715444
6	0x3ed0b20f	0.40760848
7	0x3e7a8e4d	0.24468346
8	0x3ddddf3f	0.108335964
9	0x3e9ea318	0.30983806
10	0x3e4e6f63	0.20159678
11	0x3e96a03a	0.29419118
12	0x3ec0be6a	0.37645274
13	0x3e25079a	0.16116181
14	0x3e3f8d87	0.18706332
15	0x3e124963	0.14285807
16	0x3e38a0a8	0.18030035
17	0x3e4185f4	0.18898755
18	0x3e2931bd	0.1652288
19	0x3df317b8	0.11869758
20	0x3e4037ea	0.1877133
21	0x3e04334f	0.12910198
22	0x3e829567	0.2550461
23	0x3e6e74dd	0.23286767
24	0x3e37008e	0.17871305
25	0x3e34df3e	0.17663285
26	0x3dfe52c8	0.12418133
27	0x3ec82c21	0.39096168
28	0x3e6167fc	0.22012323
29	0x3e226c18	0.15861547
30	0x3e0f49fd	0.13993068
31	0x3e6910c5	0.22760303

deconv2.0.weight f4 [32, 16, 4, 4]
0	0xbda52382	-0.08063413
1	0x3c69ee3b	0.01427799
2	0xbc8f69ce	-0.017506506
3	0x3c490b90	0.012270823
4	0xbd3298b0	-0.043602645
5	0x3c6e1f51	0.014533834
6	0xbcca494b	-0.024693152
7	0xb8ecee50	-0.00011297746
8	0xbd4fe9f2	-0.050760217
9	0x3b75195c	0.0037399149
10	0xbd1b426b	-0.037905138
11	0xbd832e83	-0.06405356
12	0xbd1d856f	-0.03845733
13	0x3d217ceb	0.03942577
14	0xbd6875d5	-0.056753
15	0x3d00a491	0.031406943
16	0x3c6fc76a	0.014634946
17	0xbc6d9f9a	-0.014503384
18	0x3cb1ac87	0.021688713
19	0xbdb539bb	-0.08848902
20	0xbcd5f0b6	-0.026115756
21	0x3cd34146	0.02578796
22	0x3de478df	0.11155867
23	0x3c4e2e5d	0.012584296
24	0x3cce2775	0.025165299
25	0xbccbc085	-0.024872074
26	0x3d1ef398	0.038806528
27	0x3c4c2cee	0.012461884
28	0xbd7ed810	-0.062217772
29	0x3d6d2f46	0.05790641
30	0x3d2cad92	0.042157717
31	0x3bf34c12	0.00742484
32	0x3d539193	0.051652502
33	0x3ac2ce98	0.0014862595
34	0x3d426471	0.04745907
35	0x3b116b65	0.0022189256
36	0x3ce20cf6	0.02759407
37	0x3d3ab450	0.045582116
38	0x3a54678c	0.0008102588
39	0x3cb8118b	0.022469303
40	0x3d27d0d9	0.040970657
41	0x3cec993d	0.028881663
42	0xbaaabb30	-0.0013025757
43	0x3c9f9cad	0.019483889
44	0x3c4f1625	0.012639557
45	0xbd630034	-0.055420116
46	0x3b851096	0.004060815
47	0x3b939a59	0.0045044837
48	0xbccfaa89	-0.025349872
49	0x3d0dfba9	0.03466383
50	0xbd01b899	-0.031670187
51	0x3d198d29	0.037488136
52	0xbd92870a	-0.07154663
53	0xbdc531a2	-0.09628607
54	0x3ddc4d4f	0.10756933
55	0xbd09b7d5	-0.03362258
56	0xbdabb79e	-0.083846316
57	0x3c949673	0.018138146
58	0xbd930d39	-0.071802564
59	0xbae81036	-0.0017705027
60	0xbc696d39	-0.014247232
61	0xbdf7703a	-0.120819524
62	0x3d988788	0.074477255
63	0xbdf64dbb	-0.12026545
64	0x3c4d1194	0.012516398
65	0x3d5b7370	0.053576887
66	0xbc0a2386	-0.008431321
67	0x3adb1cd8	0.001671697
68	0xbd0a47e3	-0.033759963
69	0xbd93ccf6	-0.072168276
70	0xbd07079c	-0.03296624
71	0xbc943f5c	-0.018096618
72	0x3b746a67	0.0037294866
73	0x3d0e6b9b	0.03477059
74	0xbc451d5d	-0.0120309265
75	0x3ccaa2e8	0.024735883
76	0x3d72edda	0.059308864
77	0x3d2abe1c	0.04168521
78	0x3c15208b	0.009101997
79	0x3cbf3737	0.023341758
80	0xbcd231ca	-0.025658507
81	0x3ca4d7ed	0.020122493
82	0xbd26716e	-0.04063552
83	0xbd8851bc	-0.066562146
84	0x3d65fec9	0.056151185
85	0x3d0b66bf	0.034033533
86	0x3d36e350	0.044650376
87	0xbaa5aabd	-0.0012639385
88	0x3bb0d813	0.005396852
89	0xbc18cfe3	-0.009326908
90	0xbd84e915	-0.06489769
91	0xbdadc982	-0.084857
92	0xbc9f2127	-0.019424988
93	0x3c6794d8	0.014134608
94	0x3ccf5860	0.025310695
95	0x3bf16aa3	0.0073674484
96	0xbc4bc54e	-0.012437178
97	0xbd2b37a1	-0.0418011
98	0xbd9e1dcb	-0.07720526
99	0x3c6b13a2	0.014347943
100	0x3d59a730	0.053137958
101	0xbd99a6ed	-0.07502542
102	0x3c11b5d2	0.008893447
103	0xbca13131	-0.019676777
104	0xbcc3c4d8	-0.023897573
105	0xbcc22e81	-0.023703815
106	0xbb1dc2e5	-0.0024072465
107	0x3c0c059d	0.00854626
108	0x3cc1a438	0.023637876
109	0x3d33decd	0.04391365
110	0x3d152246	0.03640964
111	0xbc65eee3	-0.014034006
112	0xbda18c2b	-0.07888063
113	0x3cb356d2	0.021891985
114	0x3ad1a5cb	0.0015994845
115	0x3c4bb00b	0.012432109
116	0xbc9334dc	-0.017969541
117	0x3c8b684b	0.017017504
118	0x3c1e494e	0.009661032
119	0x3c08b703	0.008344415
120	0xbd8e2f09	-0.06942565
121	0x3bd2387a	0.006415424
122	0x3d4b3338	0.049609393
123	0x3c89b65e	0.016810592
124	0xbcce397d	-0.025173897
125	0x3d04de7f	0.03243875
126	0xbcedb043	-0.029014712
127	0x3c15f05d	0.009151545
128	0x3c0a3b30	0.008436963
129	0xbbfe6495	-0.007763455
130	0xbc43cdea	-0.011950949
131	0xbc106fc3	-0.008815709
132	0xbd4cfe16	-0.050047003
133	0xbd3358a0	-0.04378569
134	0x3b6ec5a0	0.0036433712
135	0xbd197ea4	-0.03747429
136	0x3d06b505	0.032887477
137	0xbd0e17f6	-0.03469082
138	0x3ce8b9aa	0.028408844
139	0xbd522aac	-0.051310226
140	0xbca54907	-0.020176424
141	0x3d458fb2	0.04823274
142	0x3c9ecee0	0.019385755
143	0xbd4bb899	-0.049736593
144	0xbbb1658b	-0.005413716
145	0xbc99914d	-0.018746043
146	0x3c781511	0.015141741
147	0xbd36946a	-0.044575132
148	0x3d441215	0.047868807
149	0xbc901ef9	-0.017592894
150	0xbdfdf341	-0.123999126
151	0x3c3414c7	0.010991282
152	0x3d6faf33	0.058516692
153	0xbcb453af	-0.02201256
154	0x3d348512	0.04407222
155	0xbdc88b1c	-0.09792158
156	0x3d8185fd	0.06324384
157	0xbc493f43	-0.012283149
158	0xbe034ef3	-0.12823085
159	0xbc4192ed	-0.011814815
160	0xbd44ca25	-0.048044343
161	0xbdafda3f	-0.08586549
162	0xbd55eb69	-0.052226458
163	0xbdaaa256	-0.083317444
164	0x3ce4a9b3	0.02791295
165	0xbc990a26	-0.018681597
166	0xbd19b82c	-0.037529156
167	0xbcc4590a	-0.023968238
168	0xbd104d6c	-0.035230085
169	0xbdc87a62	-0.09788968
170	0xbbe7c02a	-0.0070724683
171	0xbd1f891e	-0.038949125
172	0x3d15ecf3	0.036602926
173	0xbbe131df	-0.0068724
174	0x3c733aea	0.014845589
175	0x3bb0a2d6	0.0053905053
176	0xbd761638	-0.060079783
177	0xbcf14a77	-0.029454453
178	0xbd79c30b	-0.060977023
179	0xbd8cfb6c	-0.068838924
180	0xbb2f4880	-0.0026746094
181	0xbd5960bd	-0.053070772
182	0x3c86d1bc	0.016457431
183	0xbdcc8678	-0.099865854
184	0xbd9d2948	-0.076738894
185	0xbd761f22	-0.060088284
186	0xbd65f0ff	-0.056138035
187	0xbce47575	-0.02788804
188	0xbd20e05d	-0.03927647
189	0xbd22e286	-0.03976681
190	0x3c3ef33c	0.011654671
191	0xbcd02e0b	-0.02541258
192	0xbc28c3a8	-0.010300554
193	0x3ca2f757	0.019893331
194	0xbd6d315b	-0.057908397
195	0x3d04c2a9	0.032412205
196	0xbd721ff4	-0.059112504
197	0xbb97903b	-0.004625348
198	0xbc173027	-0.009227789
199	0xbd1db6f3	-0.038504552
200	0xbbb4b8af	-0.00551518
201	0x3d7b466f	0.061346468
202	0xbd7468c2	-0.059670217
203	0x3d1cb4a6	0.038258217
204	0xbbb21039	-0.005434063
205	0xbc80e53f	-0.015734313
206	0x3c0b8df4	0.008517731
207	0xbb474e86	-0.0030411794
208	0x3aea9d17	0.00178996
209	0xbc41076f	-0.011781557
210	0xbd7f3deb	-0.06231491
211	0xbc0a541b	-0.008442904
212	0x3d939351	0.07205833
213	0x3d3ffa7b	0.046869736
214	0xbca7590c	-0.020428203
215	0x3cc5f0c6	0.024162661
216	0x3c86594b	0.0164
217	0xbc76f971	-0.01507412
218	0xbd777f55	-0.060424168
219	0x3bfad41a	0.007654679
220	0x3d9cde88	0.07659632
221	0x3beecf95	0.0072879293
222	0x3d1b1b4e	0.037867837
223	0x3d0667ad	0.032813717
224	0xbd8b4cb5	-0.0680174
225	0xbb567a88	-0.0032726843
226	0xbc8a882e	-0.016910639
227	0xbd259bf0	-0.040431917
228	0x3c1535bd	0.0091070505
229	0xbca3622d	-0.019944275
230	0x3c8b88d3	0.017033016
231	0xbb4a7306	-0.0030891313
232	0xbd3473a1	-0.044055585
233	0xbd5b3719	-0.053519342
234	0xbd63487f	-0.05548906
235	0xbdad31f3	-0.08456793
236	0x3b3cbe60	0.0028799996
237	0xbd2cce4f	-0.04218894
238	0xbbce9a5d	-0.0063050226
239	0xbcf38f32	-0.029731367
240	0xbd044a5c	-0.032297477
241	0xbd7dfb86	-0.06200745
242	0x3bbd0f12	0.005769619
243	0x3ca82c26	0.020528864
244	0xbc9bdc30	-0.019025892
245	0xbcb77462	-0.022394363
246	0xbdd1f0a1	-0.102509744
247	0x3ced711b	0.028984597
248	0xbd10249c	-0.035191163
249	0xbd432f09	-0.047652278
250	0x3c79bfee	0.0152435135
251	0xbd914110	-0.07092488
252	0x3dba3350	0.09091818
253	0xbcc3ff83	-0.023925548
254	0xbd82e6f9	-0.06391711
255	0x3c06d5cc	0.008229684

deconv2.0.bias f4 [16]
0	0x3cf1d66d	0.029521191
1	0xbd76b804	-0.060234085
2	0x3cf6974b	0.030101439
3	0x3cda1906	0.02662326
4	0x3d1e570c	0.038657233
5	0xbd666ca0	-0.056255937
6	0x3d46ac11	0.04850394
7	0xbc8616f3	-0.016368365
8	0xbd77f1a0	-0.060533166
9	0x3d53bcce	0.05169373
10	0x3ce04a19	0.027379083
11	0xbd6297bf	-0.055320498
12	0x3cd1be6e	0.0256035
13	0xbc6b3ad9	-0.014357292
14	0x3c74f06c	0.014949899
15	0x3c850ece	0.016242411

deconv2.1.weight f4 [16]
0	0x3f72b253	0.9480335
1	0x3f8136c2	1.0094836
2	0x3f803cd6	1.0018566
3	0x3f78c875	0.97180873
4	0x3f7c99a9	0.98671967
5	0x3f723699	0.9461456
6	0x3f72204e	0.94580543
7	0x3f71357a	0.94222224
8	0x3f76ff65	0.9648345
9	0x3f8351c6	1.025933
10	0x3f7613b2	0.961238
11	0x3f8eb5ca	1.1149228
12	0x3f7c3fae	0.9853467
13	0x3f7417e7	0.9534897
14	0x3f85ea73	1.0462173
15	0x3f7f83aa	0.9981028

deconv2.1.bias f4 [16]
0	0x3c1158e6	0.008871293
1	0x3db338c4	0.087510616
2	0x3d5a901b	0.053360086
3	0x3c4a63fa	0.012352938
4	0x3c84d878	0.016216502
5	0x3c71702a	0.014736215
6	0x3ce01d6c	0.02735778
7	0xbd33a568	-0.043858916
8	0xbc540aec	-0.012942057
9	0x3e0ba414	0.1363681
10	0x3d0015a2	0.03127063
11	0xbd5b668a	-0.053564586
12	0xbd1670da	-0.036728717
13	0x3cc9466a	0.024569709
14	0x3d28a94d	0.041177083
15	0x3c83bb4b	0.01608052

deconv2.1.running_mean f4 [16]
0	0xbf3c89ff	-0.73648065
1	0xbf134744	-0.5753062
2	0xbe95fb41	-0.29293254
3	0xbf1c232e	-0.6099118
4	0xbe7adb28	-0.24497664
5	0xbf5806a9	-0.8438516
6	0xbf08dad4	-0.53458905
7	0xbecd6cd4	-0.40122092
8	0xbf387346	-0.72050893
9	0xbf590265	-0.8476928
10	0xbf713f8c	-0.9423759
11	0xbf443b7a	-0.76653254
12	0xbc9f7ca1	-0.019468607
13	0xbe66e669	-0.22548832
14	0xbf4bbf8f	-0.7958917
15	0xbf6a83ca	-0.91607344

deconv2.1.running_var f4 [16]
0	0x3f522fe5	0.8210433
1	0x3f5da1da	0.8657509
2	0x3f6927be	0.91076267
3	0x3f34360f	0.70394987
4	0x3f0175e3	0.50570506
5	0x3fbbf94a	1.4685452
6	0x3faae06c	1.3349738
7	0x3f3c3ffd	0.7353514
8	0x3f0dfcbf	0.55463785
9	0x400e6a88	2.2252522
10	0x3fef7a80	1.8709259
11	0x3df24050	0.11828673
12	0x3e9f2e22	0.31089884
13	0x3f91cdd6	1.1390941
14	0x3f05fd14	0.5233929
15	0x3f4e0f29	0.8049188

deconv3.0.weight f4 [16, 8, 4, 4]
0	0xbd647f7f	-0.055785652
1	0x3c86adaa	0.016440231
2	0xbc2bdbdf	-0.010489433
3	0xbdbbd089	-0.09170634
4	0xbdab19c9	-0.083545275
5	0xbd58b760	-0.052909255
6	0x3cb3a6fb	0.021930208
7	0xbc8f784e	-0.01751342
8	0xbd65ea2c	-0.056131527
9	0x3cab11f8	0.020882592
10	0x3cae4baa	0.021276314
11	0x3d976cf7	0.0739383
12	0xbd851405	-0.06497959
13	0xbd09fc87	-0.033688094
14	0x3d0f2a30	0.034952343
15	0xbbc82e3d	-0.0061090277
16	0xbbf41232	-0.007448458
17	0xbcf011f0	-0.029305428
18	0x3cba212f	0.022720901
19	0x3da489f2	0.080341235
20	0x3d104428	0.03522125
21	0x3cd43ee2	0.025908891
22	0x3d6680a1	0.056275014
23	0x3cb559f3	0.022137618
24	0xbbf181ee	-0.007370225
25	0x3dc0056f	0.093760364
26	0x3d496ccb	0.04917602
27	0x3d1a048c	0.037601992
28	0x3aa9799a	0.0012929917
29	0x3d852643	0.065014385
30	0x3d7b856e	0.061406545
31	0xbce1bd7f	-0.02755618
32	0x3d57f338	0.052722186
33	0x3d047666	0.032339476
34	0xbd0a4c43	-0.033764135
35	0x3d81d185	0.06338791
36	0x3d4876ec	0.048941538
37	0x3e02710d	0.12738438
38	0x3c85693e	0.016285535
39	0x3cdd5f99	0.027023124
40	0x3ca62e2e	0.020285692
41	0x3d917330	0.071020484
42	0xbd57e04c	-0.05270414
43	0x3d88f93b	0.06688162
44	0x3c62c291	0.013840334
45	0x3ce6e572	0.02818558
46	0xbbf2979b	-0.0074033267
47	0xbc22b10e	-0.009929908
48	0x3cf552f8	0.02994679
49	0x3dc6c4c7	0.09705501
50	0xbd8ad822	-0.06779505
51	0xb981daaf	-0.0002476773
52	0x3bf435ec	0.007452717
53	0xbd099fa9	-0.03359953
54	0x3cfaaffc	0.030601494
55	0x3da7873e	0.08180092
56	0x3d156e10	0.036481917
57	0x3da7ac67	0.0818718
58	0xbcb27f6b	-0.021789273
59	0x3d993741	0.07481242
60	0x3cf703e4	0.030153222
61	0x3ce86246	0.028367173
62	0x3c9d1e80	0.019179583
63	0x3ca2acf1	0.019857856
64	0x3d0259e9	0.031824026
65	0x3d56428f	0.05230957
66	0xbc210a0c	-0.0098290555
67	0xbd4cd4c1	-0.050007585
68	0x3d0d79bd	0.034539927
69	0x3c4c88c5	0.01248378
70	0x3c9609f7	0.018315298
71	0xbd863f98	-0.06555098
72	0xbc98623a	-0.018601526
73	0x3d1d35bf	0.038381334
74	0xbd0a1de6	-0.03371992
75	0x3bb791e6	0.0056021092
76	0x3b772455	0.0037710865
77	0x3c9db13d	0.019249553
78	0xbc3fe7de	-0.011712996
79	0x3d4482b2	0.047976203
80	0x3c95e5e5	0.018298099
81	0xbc995299	-0.018716143
82	0x3a292678	0.00064525707
83	0xbb53e0f4	-0.0032330127
84	0x3bfc9983	0.0077087297
85	0xbc0420a0	-0.008064419
86	0x3c783d91	0.015151397
87	0x3d8b4fe3	0.068023466
88	0xb85046a4	-4.9656854e-05
89	0x3d2e664c	0.042578027
90	0xbd1faacb	-0.03898124
91	0xbbc9730c	-0.006147748
92	0x3d52e84a	0.05149106
93	0x3beb572e	0.0071820235
94	0x3ce380b5	0.027771333
95	0x3c98c7fa	0.018650044
96	0xbcf267ae	-0.029590454
97	0xbd9fca4b	-0.07802256
98	0xbcee1fc1	-0.029067876
99	0xbd7af732	-0.0612709
100	0x3d2ef0d7	0.04271015
101	0xbd24a971	-0.040200654
102	0xbb8fd5ea	-0.004389514
103	0xbc8a1247	-0.016854418
104	0x3bfa2738	0.00763407
105	0x3da6c3a5	0.08142785
106	0x3d07d27e	0.033159725
107	0x3bbf04ce	0.00582943
108	0x3b5b861c	0.0033496683
109	0xbd0b8e49	-0.03407124
110	0xbcae5efc	-0.021285526
111	0xbd414f80	-0.047194958
112	0x3d2402fd	0.040041912
113	0x3d9e3be2	0.077262655
114	0x3d066b5b	0.032817226
115	0x3cf80883	0.030277496
116	0x3cb81999	0.022473143
117	0x3dc70d03	0.09719279
118	0xbd6d0225	-0.057863373
119	0xbcec279c	-0.028827481
120	0x3d3f8a7d	0.046762932
121	0xbd981bc6	-0.07427172
122	0xbcccbd8e	-0.02499273
123	0xbc0b1c52	-0.008490639
124	0x3d3ed4f3	0.046589803
125	0x3d604eb4	0.054762557
126	0xbcfce4fc	-0.030870907
127	0x3d1a7811	0.03771216
128	0xbc3ed7d7	-0.01164814
129	0x3b9ebc0b	0.004844194
130	0x3d7fe3f5	0.062473256
131	0xbdb60ce4	-0.088891774
132	0xbd136fb0	-0.035995185
133	0xbd0c954d	-0.03432207
134	0x3e091f5a	0.13390866
135	0x3d477507	0.04869559
136	0x3c9a947c	0.018869631
137	0x3c1fd613	0.009755629
138	0x3cf1c7df	0.029514251
139	0xbc3ca588	-0.011514075
140	0xbb480160	-0.0030518398
141	0xbd11c103	-0.03558446
142	0x3d492fa2	0.04911769
143	0x3ba7184e	0.005099333
144	0x3d44adb2	0.04801721
145	0xbdbcf71b	-0.09226819
146	0x3b4a7a64	0.0030895704
147	0xbd04ccaa	-0.032421745
148	0xbcf6cc0d	-0.030126596
149	0xbd9fb73d	-0.07798622
150	0x3dc559d1	0.09636272
151	0xbd3dae2c	-0.04630868
152	0x3c83e605	0.016100893
153	0xbbb0346c	-0.005377343
154	0x3bd4ef18	0.0064982288
155	0x3c57af68	0.013164379
156	0xbb544a33	-0.003239286
157	0x3b8f992b	0.0043822727
158	0x3d33ec17	0.043926325
159	0x3d002d3b	0.031293135
160	0x3c3bad8a	0.011454949
161	0x3c9f8fba	0.019477714
162	0x3dd92b4a	0.1060396
163	0xbb0388f6	-0.0020070649
164	0xbb454301	-0.0030099752
165	0x3bcbf2e2	0.0062240222
166	0xbc640c12	-0.013918893
167	0x3d64d78f	0.055869635
168	0xbc83377d	-0.01601767
169	0x3d0fb1f3	0.035081815
170	0x3aa798e7	0.0012786657
171	0xbbb9ef19	-0.0056742546
172	0xbc981ab2	-0.018567417
173	0xbcc57779	-0.02410482
174	0x3cd9c7cf	0.026584534
175	0xbd67f827	-0.05663314
176	0xbd9da5e0	-0.07697654
177	0xbcf88e9b	-0.030341437
178	0x3d734254	0.059389427
179	0xbd0ac816	-0.033882223
180	0x3da02d10	0.07821095
181	0xbd43a93a	-0.04776881
182	0xbd48a8fc	-0.04898928
183	0x3d31aeab	0.043379467
184	0xbd4f038c	-0.050540492
185	0x3cfe25da	0.031023908
186	0x3dd25348	0.10269791
187	0x3c5ec731	0.013597296
188	0x3d565082	0.052322872
189	0x3b9ea519	0.0048414585
190	0xbd4ea3a1	-0.050449017
191	0x3d337de0	0.043821216
192	0x3d42b791	0.047538344
193	0xb9890915	-0.00026137443
194	0x3cc48893	0.023990905
195	0x3d571de8	0.052518755
196	0x3da1f3cd	0.079078294
197	0x3d6d7ea2	0.057982095
198	0xbcfdda40	-0.030987859
199	0x3cd9e260	0.026597202
200	0x3d4de5db	0.050268035
201	0x3d27f8e8	0.04100886
202	0x3d27d465	0.04097404
203	0x3de3d640	0.11124849
204	0x3c01a271	0.007912264
205	0xbd05b7e2	-0.032646067
206	0x3d37d51f	0.044880982
207	0x3c70378a	0.014661679
208	0x3cb6ad6f	0.022299496
209	0xbd79073d	-0.06079792
210	0xbd0fa60c	-0.035070464
211	0x3d7d4973	0.061837625
212	0xbd297a26	-0.041376255
213	0x3d39a3c3	0.04532219
214	0x3df7010e	0.12060748
215	0x3e05337c	0.13007921
216	0x3c16c45d	0.00920209
217	0x3d58ad82	0.052899845
218	0x3b303906	0.0026889457
219	0x3decd366	0.115637586
220	0x3dc0aa7b	0.094075166
221	0x3d053786	0.032523654
222	0x3da55674	0.0807313
223	0x3df78e41	0.1208768
224	0xbd057854	-0.032585457
225	0xbdb16f9a	-0.086638644
226	0xbc96603e	-0.018356439
227	0x3cd69a00	0.02619648
228	0x3d1d53fa	0.038410164
229	0x3ca833c3	0.020532494
230	0x3dddd8fa	0.108324006
231	0xba4f8d09	-0.0007917439
232	0x3cd91562	0.026499454
233	0xbcef4b12	-0.029210601
234	0x3ca24dcf	0.019812493
235	0x3cb1bd4a	0.021696705
236	0xbb101bab	-0.0021989148
237	0x3b1e571f	0.0024160815
238	0x3dded514	0.10880485
239	0x3d0fb5b5	0.0350854
240	0x3cb25571	0.021769257
241	0x3d3da796	0.0463024
242	0xbc011c6a	-0.00788031
243	0x3d46d8de	0.048546664
244	0x3c514908	0.01277376
245	0xbca1a40c	-0.019731544
246	0xbd9c8a8d	-0.07643614
247	0xbda7f71e	-0.08201431
248	0xbd467ecd	-0.04846077
249	0xbc658aff	-0.01401019
250	0xbd2c17e8	-0.042014986
251	0xbd89f9a4	-0.06737068
252	0xbc893a6c	-0.01675149
253	0xbc6b309b	-0.01435485
254	0xbdcada88	-0.09904963
255	0xbd9c9366	-0.076453015

deconv3.0.bias f4 [8]
0	0xbd8fcb5b	-0.07021209
1	0x3d9d9309	0.0769406
2	0xbd5a9e1a	-0.053373434
3	0x3d443773	0.047904443
4	0x3ccea930	0.02522716
5	0x3d7f0668	0.06226197
6	0x3d07725c	0.033068046
7	0x3d81e215	0.0634195

deconv3.1.weight f4 [8]
0	0x3f9f722a	1.2456715
1	0x3f9c7fe8	1.2226534
2	0x3f9d0c97	1.2269467
3	0x3f9d1938	1.2273321
4	0x3f99c973	1.2014602
5	0x3f9d17ee	1.2272928
6	0x3f9eb0c5	1.2397696
7	0x3f97d1c0	1.1860886

deconv3.1.bias f4 [8]
0	0x3e78d39d	0.24299474
1	0x3e5d457a	0.21608534
2	0x3e617740	0.22018147
3	0x3e63f2f1	0.22260644
4	0x3e4fd552	0.20296219
5	0x3e61f161	0.22064735
6	0x3e7138dc	0.23556846
7	0x3e44b2aa	0.1920878

deconv3.1.running_mean f4 [8]
0	0xbe446e0f	-0.19182609
1	0xbd74bf8b	-0.059752982
2	0x3d8a7207	0.0676003
3	0x3df64d58	0.12026471
4	0x3ed256ea	0.41081935
5	0x3ee783b0	0.45217657
6	0x3d0d5467	0.03450432
7	0xbe0a8c19	-0.13530006

deconv3.1.running_var f4 [8]
0	0x3d95dda5	0.07317666
1	0x3d5cdc04	0.05392076
2	0x3db70f43	0.08938458
3	0x3d82cb9e	0.06386493
4	0x3d4269ac	0.047464058
5	0x3d71aead	0.059004474
6	0x3d92d189	0.07168872
7	0x3d8ba618	0.06818789
