03_hw/Pix2Pix/checkpoints/pix2pix_model_epoch_400.pth (torch, 99191 bytes, 32 tensors)

conv1.0.weight f4 [8, 3, 4, 4]
-0.101422146 -0.115426674 -0.054617967 -0.18670556 0.057364516 -0.10385095 -0.021799896 0.06181687
-0.14199738 -0.04577692 -0.0035254774 0.03993346 -0.02155471 0.07373094 0.07084695 -0.13621026
0.13316217 0.18757811 0.055292092 -0.0081088105 0.034114636 -0.026678022 -0.07840631 0.049308877
0.11845269 0.052724764 0.040146988 -0.04118712 -0.07359819 0.029026043 -0.06463174 0.16600403
-0.104199 0.039859165 -0.14765814 0.052277714 -0.11052624 -0.10663414 -0.0056712287 -0.12020453
0.025903113 -0.024153965 -0.0007606727 -0.0366927 -0.045494832 0.044208795 0.07297363 0.046004735
-0.07002839 0.06914857 -0.018802416 -0.018558636 -0.004026371 0.1133078 0.033972442 -0.0114888605
0.14585179 0.08760229 -0.09981017 -0.07276164 0.03481042 0.12720343 -0.029773338 -0.02156073
-0.0024370637 0.13496134 0.011377887 -0.08401462 -0.045309715 -0.076618664 0.03802222 -0.032652184
0.030942181 -0.008611711 0.037174717 -0.12759617 0.062187657 -0.027252173 0.060447372 0.09269517
0.001975743 -0.0630612 0.048081256 -0.12992026 -0.056504708 0.083145455 -0.07280248 0.06552274
-0.005629565 -0.004523166 -0.017838778 0.0048161787 -0.06279445 -0.09304558 -0.028976629 -0.09613085
-0.13113399 0.055626873 0.0130704455 -0.05677038 0.014935141 -0.022574663 0.06463842 0.13896833
-0.07674508 0.046014056 -0.11130182 -0.049997292 0.15332113 0.03548315 0.04008912 -0.056138955
-0.05729962 0.0025649965 0.100855015 -0.11196771 0.13140436 -0.03167121 0.012444146 0.12959707
0.030843956 0.07213148 -0.092643775 -0.10786118 0.037662648 0.03252623 -0.0066794665 0.11536502
-0.10275733 0.09410316 -0.015495458 0.039131295 0.01715748 0.06558581 0.09231497 -0.012114411
0.07672739 0.17020561 0.1231047 0.07766868 -0.08905101 0.027874961 0.10293706 0.11939032
0.060457475 0.113574035 0.17318475 0.050574288 0.0044112904 -0.05088719 -0.0013903828 -0.051137093
0.038341433 -0.06731114 0.14338078 -0.05752598 0.05319603 0.11330947 0.10262631 -0.15850753
-0.10934268 0.0865646 0.15567563 0.025450293 0.06720099 0.097215965 0.00013977078 -0.039812006
-0.09307224 -0.088243924 0.06836891 0.10066049 -0.08666302 -0.057141904 -0.013793637 -0.08525002
0.08011062 -0.17568335 0.017452618 0.03108775 -0.05587353 -0.112709686 -0.04320672 0.017764153
-0.11565631 0.10796585 -0.07919886 0.11084447 -0.057985324 -0.041507166 -0.109034255 0.127946
-0.09112704 -0.13978548 0.04045891 0.04901854 0.13520633 -0.015722977 -0.0006591173 -0.13899581
0.093860924 -0.08154573 0.10992886 0.048650928 0.04676534 -0.17804493 -0.09601666 -0.021817053
-0.025655856 0.061113257 0.03959035 0.09482913 -0.09471793 -0.07698898 -0.0037558137 0.07990597
-0.03246149 -0.13010873 -0.19541089 -0.23045374 -0.10968345 -0.020754674 -0.1963672 0.030345205
0.109879375 0.017067673 0.061441608 -0.104892895 0.07295677 -0.059486978 0.09344114 -0.07544658
-0.056456394 0.09202344 -0.053204086 0.06404332 0.09865076 0.030087566 -0.0051602013 -0.05780695
0.03865601 -0.11549259 -0.0683331 -0.041405372 -0.056876402 -0.09650025 0.11926183 -0.0016493561
0.100612074 0.0154638 0.0949257 -0.1130701 -0.038762894 0.10832003 0.1259159 0.055625543
00000000: 6ab6 cfbd d264 ecbd 17b7 5fbd be2f 3fbe
00000010: 0ef7 6a3d cfaf d4bd b295 b2bc b033 7d3d
00000020: c367 11be 9480 3bbd b20b 67bb 4591 233d
00000030: 8193 b0bc 3f00 973d 3518 913d b47a 0bbe
00000040: aa5b 083e 7a14 403e f679 623d d1da 04bc
00000050: cabb 0b3d de8b dabc 7d93 a0bd 1bf8 493d
00000060: 5397 f23d ecf5 573d 2b71 243d d3b3 28bd
00000070: a6ba 96bd 06c8 ed3c a55d 84bd f6fc 293e
00000080: 4966 d5bd 5d43 233d b233 17be 2821 563d
00000090: 955b e2bd 0063 dabd b7d5 b9bb cb2d f6bd
000000a0: c432 d43c 89de c5bc e167 47ba 164b 16bd
000000b0: ca58 3abd 4814 353d 3373 953d 766f 3c3d
000000c0: 0b6b 8fbd c49d 8d3d 8607 9abc 4808 98bc
000000d0: a6ef 83bb eb0d e83d b026 0b3d c63b 3cbc
000000e0: 2c5a 153e d468 b33d 4669 ccbd 0e04 95bd
000000f0: 5f95 0e3d 9e41 023e 37e7 f3bc 21a0 b0bc
00000100: 25b7 1fbb 4e33 0a3e 516a 3a3c db0f acbd
00000110: ae96 39bd 3fea 9cbd 30bd 1b3d 4cbe 05bd
00000120: 757a fd3c 2218 0dbc 8444 183d 92a8 02be
00000130: 7cb8 7e3d f33f dfbc aa97 773d f7d6 bd3d
00000140: 787b 013b 3b26 81bd daf0 443d d109 05be
00000150: 7b71 67bd 2a48 aa3d 7719 95bd c930 863d
00000160: 3778 b8bb 1137 94bb a122 92bc 09d1 9d3b
00000170: 609a 80bd ae8e bebd 6560 edbc 40e0 c4bd
00000180: fd47 06be 01d9 633d 6c25 563c 0f88 68bd
00000190: 86b2 743c 80ee b8bc 2661 843d b74d 0e3e
000001a0: 862c 9dbd 3c79 3c3d 35f2 e3bd f6c9 4cbd
000001b0: 3700 1d3e c856 113d 7d34 243d f6f1 65bd
000001c0: 02b3 6abd 8019 283b 138d ce3d 544f e5bd
000001d0: dd8e 063e acb9 01bd 88e2 4b3c 18b5 043e
000001e0: 77ac fc3c abb9 933d 05bc bdbd 53e6 dcbd
000001f0: 2644 1a3d 393a 053d 6ddf dabb 7f44 ec3d
00000200: 6f72 d2bd 28b9 c03d a9e0 7dbc 2348 203d
00000210: d88d 8c3c da51 863d a20f bd3d 867b 46bc
00000220: 4023 9d3d 614a 2e3e 511e fc3d c210 9f3d
00000230: 6060 b6bd 085a e43c aad0 d23d e982 f43d
00000240: 42a2 773d 8199 e83d 5857 313e fc26 4f3d
00000250: 968c 903b 166f 50bd 813d b6ba 2175 51bd
00000260: e80b 1d3d 6cda 89bd 69d2 123e 5da0 6bbd
00000270: 15e4 593d cc0e e83d be2d d23d cc4f 22be
00000280: 0eef dfbd c848 b13d 6f69 1f3e 227d d03c
00000290: aca0 893d 2a19 c73d 6f8f 1239 ea11 23bd
000002a0: a99c bebd 3bb9 b4bd 0005 8c3d 1627 ce3d
000002b0: 627c b1bd a10d 6abd b5fe 61bc 9097 aebd
000002c0: 0911 a43d 56e6 33be cbf8 8e3c bdab fe3c
000002d0: a5db 64bd 56d4 e6bd 88f9 30bd 2186 913c
000002e0: 37dd ecbd 331d dd3d 0333 a2bd 6d02 e33d
000002f0: 0582 6dbd 6b03 2abd 5a4d dfbd 4704 033e
00000300: d0a0 babd ed23 0fbe 3eb8 253d aac7 483d
00000310: 8773 0a3e 79cd 80bc 9dc8 2cba eb54 0ebe
00000320: 283a c03d 7301 a7bd 6222 e13d 3246 473d
00000330: 038d 3f3d 6951 36be 62a4 c4bd adb9 b2bc
00000340: 3b2c d2bc e551 7a3d 7e29 223d c635 c23d
00000350: 79fb c1bd 66ac 9dbd 1924 76bb bea5 a33d
00000360: 57f6 04bd 393b 05be cb19 48be 11fc 6bbe
00000370: b7a1 e0bd b505 aabc 7c14 49be 8296 f83c
00000380: 7008 e13d 81d1 8b3c 32aa 7b3d 16d2 d6bd
00000390: 5c6a 953d 9ea8 73bd 125e bf3d bd83 9abd
000003a0: d23e 67bd c976 bc3d 87ec 59bd 2529 833d
000003b0: 6909 ca3d 337a f63c e816 a9bb fbc6 6cbd
000003c0: c455 1e3d 6187 ecbd 39f2 8bbd ae98 29bd
000003d0: 3bf7 68bd eca1 c5bd 8c3f f43d 352f d8ba
000003e0: b40d ce3d e15b 7d3c 6868 c23d 4c91 e7bd
000003f0: d7c5 1ebd e4d6 dd3d 19f0 003e 9cd7 633d

conv1.0.bias f4 [8]
0.13320105 0.004447503 -0.035012808 0.12443823 0.07117234 0.10096184 -0.10856569 -0.011839267
00000000: db65 083e 5cbc 913b 9769 0fbd 79d9 fe3d
00000010: cec2 913d 15c5 ce3d b057 debd 7cf9 41bc

conv1.1.weight f4 [8]
1.0062191 0.9822586 0.9972698 0.9557328 1.0062715 0.95095205 1.020295 1.0583637
00000000: cacb 803f 4d75 7b3f 134d 7f3f e8aa 743f
00000010: 81cd 803f 9871 733f 0799 823f 7678 873f

conv1.1.bias f4 [8]
0.0004512275 -0.043125734 -0.03118022 -0.007708094 -0.005563865 0.07876948 -0.04403142 0.1015439
00000000: bb92 ec39 9ca4 30bd a96d ffbc 2e94 fcbb
00000010: 1551 b6bb e551 a13d 4a5a 34bd 40f6 cf3d

conv1.1.running_mean f4 [8]
0.20136367 -0.028161494 -0.1029139 0.058456767 0.1790686 0.07800091 -0.114558935 -0.011180098
00000000: 4732 4e3e efb2 e6bc 86c4 d2bd 5d70 6f3d
00000010: c25d 373e f1be 9f3d e09d eabd bb2c 37bc

conv1.1.running_var f4 [8]
0.05037503 0.014113175 0.25625736 0.024908334 0.14783676 0.033978123 0.020004835 0.030176956
00000000: 0c56 4e3d f23a 673c 2a34 833e 900c cc3c
00000010: 8562 173e a52c 0b3d 2ee1 a33c aa35 f73c

conv2.0.weight f4 [16, 8, 4, 4]
0.068407826 0.09625401 0.030443175 0.045512352 -0.08015401 0.07329056 -0.047084425 0.07104042
-0.07668731 0.06886886 0.05144934 0.017508157 -0.028384138 -0.10097285 -0.101906106 0.018168055
-0.016570479 0.09846857 0.0724138 -0.022692217 0.05491215 -0.06843885 0.026048811 -0.025054945
0.027618088 0.008445089 -0.0529873 0.022582183 0.037715737 0.02784483 -0.025393715 -0.08887042
-0.042218056 0.018359764 0.04209504 -0.038569864 -0.08694904 -0.019167572 -0.009749014 0.047729526
-0.03706069 -0.06969081 -0.012357544 -0.025791435 -0.10602218 -0.0924898 -0.07653515 -0.09531136
0.042827737 -0.02500298 0.03218035 0.015381835 0.019199021 0.02698251 -0.05954512 -0.047587138
0.0018130748 -0.030513566 0.010145104 -0.0016576857 0.08786803 -0.019229747 0.004720838 -0.00020130216
0.060212422 -0.027218815 0.0038746446 0.044882555 0.040136505 0.0030587618 0.10084027 -0.009833656
0.053401545 -0.03384899 0.08254873 0.049465884 -0.07754138 -0.024868965 -0.05292891 -0.039240804
-0.082867555 -0.09763086 0.006308048 0.00074293185 -0.0047881976 -0.021466475 0.04218705 0.00866028
0.0037418874 0.066832915 0.047057208 0.071075186 -0.005209319 0.008071206 -0.06839407 0.011436783
0.070001096 0.0011205277 0.08890788 0.048433203 0.07607489 0.038881473 0.025064055 0.05355542
-0.016828755 0.0297135 -0.012058077 0.05616821 -0.0035062053 0.09518981 0.027592953 0.092637815
0.00026981236 0.016233144 -0.032167614 0.006704267 -0.033161588 -0.0052009523 -0.028546153 -0.024569618
0.073920004 0.019850612 0.04989695 0.04775876 0.05399663 -0.010052557 0.05057547 -0.034068342
0.025943493 0.006092452 -0.03125453 -0.059758782 -0.046898592 -0.07311523 -0.037063975 0.07619206
0.0518838 0.0009127683 -0.007443725 0.07177747 -0.054217413 -0.005568285 0.09363173 -0.04969509
0.019209685 0.03371914 -0.05108377 -0.073861495 -0.0920647 -0.05231678 -0.08464149 -0.033366863
0.011265975 -0.04945272 0.060027964 0.029064976 0.0007909979 -0.032281473 0.08109899 0.1143883
-0.1021425 -0.029715283 0.0655704 -0.01987779 0.06441664 0.0345049 0.04348804 -0.06087919
0.018473487 -0.011380663 -0.08520614 0.03582116 0.014030429 -0.05447978 0.020060703 0.062150538
-0.0239064 -0.032701604 0.09997858 -0.0075339694 -0.05321301 -0.041070674 -0.052892048 0.04139248
-0.027191864 -0.06234072 -0.08128831 0.013903316 -0.07023567 0.0075710635 0.03805751 -0.01171748
-0.0267543 -0.063166134 -0.0046945307 0.0033902507 -0.018228587 0.04258724 0.034389608 -0.051139623
-0.061353914 -0.06553556 -0.07811161 0.04705661 -0.0073715067 -0.024838602 0.09671483 -0.03457849
-0.028910058 -0.03739225 -0.074451685 -0.05252027 0.038791846 -0.035305288 -0.09066275 -0.11764154
0.019606574 -0.037547484 -0.029736 -0.015313037 0.013480502 -0.067459606 -0.038583122 0.014825607
0.015877305 -0.002135803 -0.03001286 0.07090095 0.050395112 -0.051058296 -0.041866634 0.021358348
-0.08309844 -0.013507268 -0.17745404 -0.060479164 0.00203966 -0.073980495 -0.085459575 0.024818497
0.025023602 -0.05947403 0.0047900327 -0.013443589 -0.1676469 -0.14031427 -0.0925899 0.01688101
-0.028357815 -0.21139067 -0.124487564 -0.07457124 -0.002963178 -0.019496962 -0.07162086 0.028894527
00000000: 6719 8c3d d320 c53d f763 f93c 296b 3a3d
00000010: c927 a4bd 5c19 963d 99db 40bd a47d 913d
00000020: 3d0e 9dbd 1e0b 8d3d 8bbc 523d 446d 8f3c
00000030: da85 e8bc dbca cebd 26b4 d0bd 2cd5 943c
00000040: d0be 87bc e4a9 c93d b04d 943d 07e5 b9bc
00000050: 90eb 603d ab29 8cbd 5164 d53c 0740 cdbc
00000060: 543f e23c 455d 0a3c 3609 59bd 45fe b83c
00000070: d17b 1a3d d71a e43c 7b06 d0bc b201 b6bd
00000080: d7ec 2cbd 3767 963c d96b 2c3d 6ffb 1dbd
00000090: 5712 b2bd 5005 9dbc 54ba 1fbc 0980 433d
000000a0: f3cc 17bd 0eba 8ebd 4c77 4abc 8f48 d3bc
000000b0: 2822 d9bd 4b6b bdbd 76be 9cbd 9a32 c3bd
000000c0: 236c 2f3d 0dd3 ccbc 8bcf 033d 1804 7c3c
000000d0: 4447 9d3c 6d0a dd3c 95e5 73bd bbea 42bd
000000e0: b2a4 ed3a 96f7 f9bc a637 263c b446 d9ba
000000f0: 27f4 b33d b487 9dbc 42b1 9a3b a314 53b9
00000100: 4da1 763d fef9 debc c0ed 7d3b c5d6 373d
00000110: 2d66 243d 8275 483b 5885 ce3d 581d 21bc
00000120: 94bb 5a3d 3da5 0abd 4f0f a93d bd9c 4a3d
00000130: 04ce 9ebd 00ba cbbc fccb 58bd f7ba 20bd
00000140: 77b6 a9bd b0f2 c7bd beb3 ce3b 50c1 423a
00000150: 50e6 9cbb 76da afbc 54cc 2c3d d9e3 0d3c
00000160: 743a 753b b2df 883d 0fbf 403d de8f 913d
00000170: efb2 aabb 173d 043c 3112 8cbd 5861 3b3c
00000180: bc5c 8f3d acde 923a 5615 b63d e561 463d
00000190: 27cd 9b3d 2e42 1f3d 2253 cd3c ee5c 5b3d
000001a0: 75dc 89bc ba69 f33c 3e8f 45bc a310 663d
000001b0: 5dc8 65bb e0f2 c23d 9e0a e23c e5b8 bd3d
000001c0: 9a75 8d39 5ffb 843c 30c2 03bd 78af db3b
000001d0: 72d4 07bd c06c aabb 9fd9 e9bc 3946 c9bc
000001e0: 5f63 973d c09d a23c bf60 4c3d b19e 433d
000001f0: 922b 5d3d 7bb3 24bc 3928 4f3d 3f8b 0bbd
00000200: 7387 d43c 31a3 c73b c004 00bd a0c5 74bd
00000210: bd18 40bd 70bd 95bd 65d0 17bd 950a 9c3d
00000220: 1c84 543d d846 6f3a 7eea f3bb 1100 933d
00000230: 1413 5ebd 2976 b6bb fec1 bf3d 148d 4bbd
00000240: a15d 9d3c 151d 0a3d 373d 51bd b244 97bd
00000250: 6b8c bcbd 1f4a 56bd 8458 adbd b1ab 08bd
00000260: ed94 383c ef8e 4abd e2df 753d ac19 ee3c
00000270: f85a 4f3a 9439 04bd 3a17 a63d 6a44 ea3d
00000280: 1630 d1bd 776d f3bc c649 863d bfd6 a2bc
00000290: dfec 833d 0355 0d3d 8420 323d 755c 79bd
000002a0: b655 973c f675 3abc 8f80 aebd 35b9 123d
000002b0: e2df 653c 3126 5fbd 5856 a43c 9091 7e3d
000002c0: 5bd7 c3bc 1ef2 05bd 92c1 cc3d 84df f6bb
000002d0: e3f5 59bd b939 28bd 55a5 58bd 298b 293d
000002e0: 79c1 debc fc58 7fbd 7c7a a6bd bcca 633c
000002f0: b8d7 8fbd af16 f83b 31e2 1b3d acfa 3fbc
00000300: d52b dbbc 3f5d 81bd 94d4 99bb f82e 5e3b
00000310: 1e54 95bc f56f 2e3d 1edc 0c3d c877 51bd
00000320: 3e4e 7bbd 8237 86bd fbf8 9fbd 6fbe 403d
00000330: ae8c f1bb 537a cbbc 6d12 c63d 2da2 0dbd
00000340: c9d4 ecbc 9e28 19bd 207a 98bd 7f1f 57bd
00000350: 33e4 1e3d 479c 10bd 64ad b9bd 0cee f0bd
00000360: f79d a03c 64cb 19bd e998 f3bc 88e3 7abc
00000370: 53dd 5c3c 4328 8abd 5609 1ebd 1ae7 723c
00000380: 1f11 823c d4f8 0bbb 88dd f5bc 8434 913d
00000390: 1b6b 4e3d 8122 51bd 597c 2bbd b4f7 ae3c
000003a0: 842f aabd 974d 5dbc 83b6 35be 00b9 77bd
000003b0: d1ab 053b 1683 97bd 6e05 afbd 2950 cb3c
000003c0: 4cfe cc3c 0a9b 73bd b5f5 9c3b 8042 5cbc
000003d0: a1ab 2bbe 8bae 0fbe c69f bdbd 0b4a 8a3c
000003e0: a64e e8bc cc76 58be 56f3 febd ceb8 98bd
000003f0: e131 42bb 18b8 9fbc f5ad 92bd 37b4 ec3c

conv2.0.bias f4 [16]
-0.08697944 0.08312402 0.066485465 -0.012023744 -0.03514399 0.006951289 -0.0359632 -0.05831383
-0.02048005 0.042043734 -0.05907204 -0.033097412 -0.043595236 -0.08461389 0.068785176 -0.07206854
00000000: 4722 b2bd ed3c aa3d 8829 883d 3dff 44bc
00000010: 25f3 0fbd a3c7 e33b 264e 13bd 7cda 6ebd
00000020: c7c5 a7bc 0d36 2c3d 86f5 71bd 2791 07bd
00000030: eb90 32bd 0c4a adbd 3edf 8c3d ac98 93bd

conv2.1.weight f4 [16]
0.9722457 1.0673444 0.98115164 0.9833896 0.99036545 0.98144835 1.0007697 1.0210962
0.95902026 1.0018779 1.0080876 1.0101908 1.0794518 0.9931713 1.0016983 0.9984431
00000000: 18e5 783f be9e 883f c12c 7b3f 6cbf 7b3f
00000010: 9788 7d3f 3340 7b3f 3919 803f 48b3 823f
00000020: 5a82 753f 893d 803f 0409 813f ef4d 813f
00000030: 7a2b 8a3f 7940 7e3f a637 803f f899 7f3f

conv2.1.bias f4 [16]
-0.0064829127 -0.007149994 0.009025967 -0.081133686 -0.010089716 -0.040870998 -0.03284344 -0.04156937
-0.02805461 0.020743499 0.011034914 -0.011729647 -0.041135225 0.020268118 0.021278178 -0.004309379
00000000: 9d6e d4bb 7f4a eabb a6e1 133c 6b29 a6bd
00000010: 564f 25bc 5968 27bd d886 06bd a544 2abd
00000020: c8d2 e5bc 45ee a93c c9cb 343c b52d 40bc
00000030: 697d 28bd 5309 a63c 934f ae3c b135 8dbb

conv2.1.running_mean f4 [16]
0.06902624 -0.829019 -0.18476045 1.0704421 -0.20727162 -0.22057697 -0.0058904616 0.036096286
-0.15844256 -0.68924624 -0.018000184 0.5163262 -0.05318327 -0.4717775 0.061680805 0.14283523
00000000: a15d 8d3d 973a 54bf d831 3dbe 3f04 893f
00000010: 033f 54be eede 61be c604 c1bb b3d9 133d
00000020: c43e 22be 7172 30bf 1f75 93bc f42d 043f
00000030: b3d6 59bd d28c f1be 03a5 7c3d 6643 123e

conv2.1.running_var f4 [16]
0.26899558 0.36036038 0.5168551 0.3444504 0.21934527 0.1211273 0.07537053 0.1803894
0.4938564 0.4225957 0.16073884 0.2158373 0.39688542 0.24435098 0.22378297 0.266068
00000000: cab9 893e 2881 b83e 9e50 043f ce5b b03e
00000010: 0c9c 603e 9711 f83d dd5b 9a3d 00b8 383e
00000020: bfda fc3e 775e d83e b998 243e 7404 5d3e
00000030: 9134 cb3e 2537 7a3e 5d27 653e 113a 883e

conv3.0.weight f4 [32, 16, 4, 4]
0.022264678 -0.004223166 -0.055806313 -0.065949544 -0.049814 -0.0010265829 0.0024046537 -0.01648889
-0.040182963 -0.015180985 -0.0026313965 -0.046471585 -0.03684932 0.029637877 0.026860926 0.011171938
-0.080538206 -0.033082552 -0.0101470575 4.6172576e-05 -0.021708604 -0.03005406 0.035092305 -0.039136697
-0.042966414 -0.06671396 -0.017848445 0.0015889795 -0.03305823 0.0073075416 -0.04086824 -0.061666295
0.05166307 -0.0044753617 -0.0024228196 0.02890847 0.018360501 -0.0128395455 0.0082559455 0.058456652
0.0107051 0.045490477 0.013607253 -0.006023969 0.00904774 0.01957973 0.021194184 0.012314271
-0.0009278689 -0.009371051 -0.03132032 -0.067127146 -0.010244787 0.055791892 -0.02824199 -0.03803129
0.023714352 -0.028359875 -0.039594796 -0.053582232 0.041802 -0.029212063 0.046561215 -0.060799222
0.04750329 0.014323546 0.030852878 0.025436176 0.0037567846 0.008296536 0.03599377 -0.015191738
-0.008402073 -0.023926146 -0.015742451 0.025613263 -0.04811522 0.05953755 -0.009008118 -0.0101674255
-0.0054459907 0.03342466 0.010260126 -0.022595726 -0.03039816 0.030841148 0.005562626 0.0022481142
0.05685978 -0.028270785 0.011675382 0.024778547 -0.011036309 -0.05176055 -0.008646061 -0.032865096
0.07421205 0.035953976 0.0055032214 -0.00011543037 0.034282953 -0.0012857507 -0.0340401 -0.017765347
0.025885738 -0.06352016 -0.06281998 -0.018862782 0.048234586 -0.024295505 -0.03956252 0.019212332
0.008557241 0.0477675 -0.054199237 -0.06212766 0.06523254 -0.004181536 -0.049415994 -0.038197763
-0.069241665 0.0077467086 -0.07646978 -0.1182324 -0.010971006 0.0697754 -0.0014331833 -0.048437554
-0.0083228825 -0.051512733 -0.02702096 -0.044594437 -0.009052478 0.04302157 -0.015483987 -0.02762855
-0.045543592 -0.017231872 -7.144104e-05 -0.05017894 -0.035661094 0.028012086 0.009731007 -0.0753659
-0.015996218 0.032051016 0.040957052 -0.045716412 -0.005660109 -0.05275624 -0.0012779168 -0.038638122
-0.0528379 -0.046741102 -0.011933442 0.06779232 0.016756319 0.02751493 -0.047163833 -0.06985334
0.044869635 0.079679176 0.0074069425 0.036624398 -0.02193959 0.007050925 -0.007158459 0.010301488
0.06784403 0.04597842 0.042070772 -0.029454323 0.042435467 -0.039045833 0.016993145 0.027370546
0.016188152 0.042792473 -0.00081880135 -0.074027136 -0.007886639 0.017950332 -0.08449829 -0.05768645
0.06838568 0.029410917 0.045227796 0.0051004738 0.053366285 -0.04366443 -0.057771318 0.004103581
-0.037610363 0.008124696 0.04311721 -0.076418765 0.026263328 -0.014297874 -0.04518906 -0.08612965
-0.017357465 -0.0896597 -0.040219113 -0.1255517 -0.057465956 0.04266586 -0.060993966 -0.052676838
0.05175342 0.0122712925 0.034936544 -0.026537403 0.019635523 0.0041303295 -0.002948558 -0.02738508
0.03334503 0.033245772 0.035526384 -0.010650264 -0.017299239 -0.07677003 0.032633174 -0.010528709
0.070861384 0.05404879 -0.03861872 -0.03210787 0.01956332 -0.049797002 -0.03738636 0.02375068
0.0052522444 0.04155931 0.051888417 -0.04669836 -0.037766542 0.04245251 -0.07267268 -0.012264868
-0.008976031 0.0060939933 0.018608633 0.0014816513 0.06423686 -0.027600506 0.041321665 0.044662718
0.041382954 0.04601037 -0.076029874 -0.08662174 -0.032940947 -0.0054714344 -0.056490984 -0.049569894
00000000: 6a64 b63c 7c62 8abb 2995 64bd 8e10 87bd
00000010: c409 4cbd 688e 86ba 6597 1d3b b513 87bc
00000020: e496 24bd abb9 78bc 8273 2cbb fd58 3ebd
00000030: 50ef 16bd 22cb f23c 720b dc3c 810a 373c
00000040: 37f1 a4bd 9281 07bd d83f 26bc 6da9 4138
00000050: 3ed6 b1bc ef33 f6bc f3bc 0f3d cd4d 20bd
00000060: 8dfd 2fbd 54a1 88bd e736 92bc 4e45 d03a
00000070: 1168 07bd 1a74 ef3b 7565 27bd cc95 7cbd
00000080: a89c 533d 0ea6 92bb 2bc8 1ebb 75d1 ec3c
00000090: c368 963c f55c 52bc f243 073c 3e70 6f3d
000000a0: 7264 2f3c 3954 3a3d f5f0 5e3c b764 c5bb
000000b0: f93c 143c ac65 a03c 6d9f ad3c ccc1 493c
000000c0: 3a3c 73ba 0989 19bc bc49 00bd f579 89bd
000000d0: c0d9 27bc 0a86 643d bf5b e7bc b3c6 1bbd
000000e0: 9a44 c23c f852 e8bc 272e 22bd 0b79 5bbd
000000f0: 9338 2b3d 234e efbc f9b6 3e3d 9b08 79bd
00000100: cf92 423d 4ead 6a3c 2dbf fc3c 875f d03c
00000110: 6334 763b 32ee 073c 346e 133d c4e6 78bc
00000120: d9a8 09bc c400 c4bc 50f6 80bc e8d2 d13c
00000130: 7714 45bd a5dd 733d c996 13bc 4695 26bc
00000140: 4874 b2bb 4ce8 083d 161a 283c ac1a b9bc
00000150: 9005 f9bc 93a6 fc3c b046 b63b 1955 133b
00000160: cde5 683d 2298 e7bc 1a4a 3f3c 61fc ca3c
00000170: a3d1 34bc df02 54bd 35a8 0dbc 8d9d 06bd
00000180: 7dfc 973d 7a44 133d 5e54 b43b 3513 f2b8
00000190: 486c 0c3d a286 a8ba a26d 0bbd a288 91bc
000001a0: 540e d43c dc16 82bd c3a7 80bd 1f86 9abc
000001b0: a191 453d 5e07 c7bc 4f0c 22bd 2e63 9d3c
000001c0: ac33 0c3c dba7 433d 0500 5ebd 9379 7ebd
000001d0: a398 853d 4405 89bb 6d68 4abd 4275 1cbd
000001e0: 93ce 8dbd 1ad8 fd3b 309c 9cbd d423 f2bd
000001f0: bcbf 33bc 68e6 8e3d a7d9 bbba 7566 46bd
00000200: b35c 08bc 04ff 52bd 0f5b ddbc a8a8 36bd
00000210: d850 14bc 6337 303d 8cb0 7dbc 4555 e2bc
00000220: eb8b 3abd db29 8dbc 9ed2 95b8 6f88 4dbd
00000230: 5e11 12bd 9a79 e53c cd6e 1f3c 7059 9abd
00000240: 800a 83bc ed47 033d 95c2 273d 2241 3bbd
00000250: 7078 b9bb ed16 58bd c67f a7ba 0243 1ebd
00000260: 8e6c 58bd 9973 3fbd 7c84 43bc b3d6 8a3d
00000270: 8c44 893c fe66 e13c dd2e 41bd 450f 8fbd
00000280: 39c9 373d d62e a33d f0b5 f23b 7703 163d
00000290: a8ba b3bc 720b e73b 8291 eabb 93c7 283c
000002a0: d0f1 8a3d de53 3c3d 6752 2c3d 314a f1bc
000002b0: d0d0 2d3d 86ee 1fbd 3535 8b3c 3238 e03c
000002c0: 049d 843c 2947 2f3d d4a4 56ba 8a9b 97bd
000002d0: f636 01bc 930c 933c 710d adbd a148 6cbd
000002e0: cb0d 8c3d 2aef f03c c840 393d e021 a73b
000002f0: 9b96 5a3d 79d9 32bd 9ea1 6cbd 5577 863b
00000300: 530d 1abd 721d 053c ac9b 303d 7181 9cbd
00000310: 3126 d73c a141 6abc 2a18 39bd be64 b0bd
00000320: 3e31 8ebc 819f b7bd ccbc 24bd a090 00be
00000330: 6c61 6bbd 66c2 2e3d cfd4 79bd abc3 57bd
00000340: 65fb 533d 880d 493c 9f19 0f3d f864 d9bc
00000350: adda a03c b757 873b 983c 41bb ad56 e0bc
00000360: cc94 083d b82c 083d 1d84 113d 727e 2ebc
00000370: 22b7 8dbc 9b39 9dbd 5daa 053d 9b80 2cbc
00000380: c61f 913d 4462 5d3d aa2e 1ebd 8b83 03bd
00000390: 4143 a03c f1f7 4bbd 7122 19bd c990 c23c
000003a0: 051b ac3b 183a 2a3d f388 543d c846 3fbd
000003b0: 17b1 1abd afe2 2d3d 6ad5 94bd 96f2 48bc
000003c0: 3410 13bc 1fb0 c73b 2271 983c f833 c23a
000003d0: 9d8e 833d 751a e2bc e840 293d 41f0 363d
000003e0: 2c81 293d 5f75 3c3d 8db5 9bbd bd66 b1bd
000003f0: 16ed 06bd b849 b3bb 1763 67bd cd09 4bbd

conv3.0.bias f4 [32]
0.014404413 0.057897154 0.014131442 -0.05907579 0.0041122455 -0.055105153 -0.023653675 0.061039593
0.0344911 0.020831576 -0.014885173 0.031058922 0.031211738 -0.0072622024 -0.061547447 0.010483483
-0.03174073 0.01837513 0.04713681 0.025639057 0.046175953 0.050819803 0.011196367 0.046846878
0.011690021 -0.040652607 -0.011639981 -0.012941301 -0.062278274 -0.050702434 -0.053771846 0.059775457
00000000: 7d00 6c3c 9125 6d3d 9087 673c 75f9 71bd
00000010: 04c0 863b f1b5 61bd 5ac5 c1bc a704 7a3d
00000020: 8a46 0d3d fba6 aa3c f1e0 73bc 486f fe3c
00000030: c2af ff3c c5f7 edbb 2d19 7cbd eac2 2b3c
00000040: 9102 02bd 7187 963c 8712 413d 0009 d23c
00000050: ff22 3d3d 6d28 503d f870 373c 83e2 3f3d
00000060: 8087 3f3c 5983 26bd 9eb5 3ebc c007 54bc
00000070: 8117 7fbd 5bad 4fbd de3f 5cbd 1cd7 743d

conv3.1.weight f4 [32]
0.98789644 0.9914551 1.0040072 1.035565 0.97734946 0.99146986 0.9870889 0.98403674
0.9734956 1.0080311 0.9871787 0.9881609 1.0335282 0.9737915 1.0098997 1.0171785
1.0088472 1.0112997 0.99840045 0.9993639 0.9834984 1.0503144 1.0004354 1.0040966
0.9771874 0.9743819 1.0458981 1.0112618 0.98937654 1.0390915 1.0655178 1.0082414
00000000: c8e6 7c3f 00d0 7d3f 4f83 803f 658d 843f
00000010: 9333 7a3f f8d0 7d3f dcb1 7c3f d5e9 7b3f
00000020: 0237 793f 2a07 813f beb7 7c3f 1df8 7c3f
00000030: a74a 843f 664a 793f 6544 813f e832 823f
00000040: e821 813f 4572 813f 2c97 7f3f 50d6 7f3f
00000050: 8dc6 7b3f b470 863f 440e 803f 3d86 803f
00000060: f428 7a3f 1871 793f fddf 853f 0771 813f
00000070: c847 7d3f f300 853f e362 883f 0e0e 813f

conv3.1.bias f4 [32]
-0.070301585 -0.0069597596 -0.01817062 -0.16632473 -0.026010126 -0.009244997 0.023202447 0.0007892336
0.023073077 -0.01684603 -0.0030006527 0.05113243 0.0740757 -0.027441537 -0.015409034 -0.040709037
0.013441825 -0.010542171 -0.005212649 -0.058277838 -0.013346969 -0.036414362 0.008626594 -0.013504514
-0.0057963585 -0.014400221 -0.012526041 0.009511592 -0.04504249 -0.039863266 -0.06280905 0.0026757244
00000000: 47fa 8fbd b20e e4bb 8dda 94bc 0851 2abe
00000010: 3013 d5bc 5478 17bc 0f13 be3c 92e4 4e3a
00000020: c003 bd3c af00 8abc 99a6 44bb 3d70 513d
00000030: 00b5 973d 13cd e0bc 2c76 7cbc 85be 26bd
00000040: 1a3b 5c3c 12b9 2cbc dece aabb beb4 6ebd
00000050: 3fad 5abc 3a27 15bd 8f56 0d3c 0942 5dbc
00000060: 61ef bdbb e8ee 6bbc 063a 4dbc 82d6 1b3c
00000070: 797e 38bd aa47 23bd 08a2 80bd 355b 2f3b

conv3.1.running_mean f4 [32]
-0.5433155 -0.6196679 -0.14597103 -0.06628705 -0.38079718 0.2956356 -0.11262924 0.025774144
-0.08233707 -0.27880853 -0.2602656 -0.5350849 -0.48859382 -0.884362 -0.38649568 -0.32177645
-0.4384678 -0.15699008 0.060674272 0.16238666 -0.5815133 -0.0449185 -0.27765518 -0.28502887
0.17252705 -0.4007408 -0.31056222 -0.53359413 -0.12331116 0.16664802 -0.51175815 -0.44277334
00000000: b916 0bbf 8ea2 1ebf 6e79 15be 81c1 87bd
00000010: d9f7 c2be 8d5d 973e 29aa e6bd 4c24 d33c
00000020: 56a0 a8bd febf 8ebe 8841 85be 53fb 08bf
00000030: f828 fabe 8c65 62bf c3e2 c5be e2bf a4be
00000040: da7e e0be 02c2 20be 9685 783d b048 263e
00000050: 0ede 14bf 76fc 37bd d228 8ebe 4eef 91be
00000060: eeaa 303e e62d cdbe 0302 9fbe a099 08bf
00000070: 908a fcbd c7a5 2a3e 9502 03bf 30b3 e2be

conv3.1.running_var f4 [32]
0.20384438 0.2862133 0.13390861 0.19936782 0.24355887 0.21349068 0.41995898 0.2609999
0.109720476 0.30815616 0.2103765 0.2811166 0.40448433 0.1629907 0.19037849 0.14463031
0.18201166 0.1813488 0.16508259 0.12132938 0.19278385 0.1328395 0.2511798 0.2480318
0.18908778 0.18966298 0.12790869 0.39327028 0.22936957 0.15905514 0.14151081 0.23602633
00000000: 95bc 503e 8d8a 923e 571f 093e 1427 4c3e
00000010: 7f67 793e 4d9d 5a3e dd04 d73e c7a1 853e
00000020: 21b5 e03d a5c6 9d3e f06c 573e 84ee 8f3e
00000030: 9218 cf3e 09e7 263e 94f2 423e f819 143e
00000040: 4461 3a3e 80b3 393e 690b 293e 8a7b f83d
00000050: 2169 453e 1407 083e a49a 803e 0cfc 7d3e
00000060: 3aa0 413e 0337 423e 7ffa 023e b95a c93e
00000070: dbdf 6a3e 5adf 223e 36e8 103e e3b0 713e

deconv2.0.weight f4 [32, 16, 4, 4]
-0.07943127 0.012154674 -0.01868325 0.010744864 -0.041760396 0.015605505 -0.023533512 0.0018923195
-0.04758696 0.0028549081 -0.038747545 -0.062387247 -0.03612691 0.040238205 -0.055080563 0.03181892
0.011525464 -0.014771282 0.021964107 -0.08869894 -0.028497942 0.025283605 0.11273399 0.014397463
0.02650906 -0.025135873 0.043789838 0.012205635 -0.06459846 0.054997567 0.043524075 0.004231592
0.048014916 0.0025689474 0.0483784 0.0032827796 0.028712912 0.045773674 0.0018405053 0.022569163
0.03914893 0.032411296 0.00081693905 0.022341229 0.011101936 -0.055219263 0.004510946 0.004630828
-0.025624715 0.03254973 -0.036758162 0.036573555 -0.07149102 -0.095860094 0.106268115 -0.031066595
-0.07998914 0.017630538 -0.07191852 -0.0031196654 -0.015512493 -0.12028161 0.07394238 -0.12039583
0.011908659 0.054090753 -0.007816155 0.0018374962 -0.03310424 -0.0750479 -0.035529975 -0.020387124
0.0024545465 0.038126424 -0.010053408 0.02654115 0.063413136 0.038511418 0.010999082 0.020549951
-0.025450194 0.020116702 -0.0400926 -0.06651642 0.055258837 0.031736765 0.045540296 -0.0016963055
0.005600063 -0.0089535555 -0.065540925 -0.08412979 -0.019783372 0.015429573 0.025962379 0.008785589
-0.012045078 -0.043359015 -0.076818846 0.014125327 0.054762945 -0.07461381 0.010401471 -0.01935301
-0.02354129 -0.022026885 -0.0020846357 0.010062736 0.023448808 0.044266462 0.036626738 -0.01368036
-0.078161895 0.022105623 0.0013879138 0.01106206 -0.016986633 0.012167422 0.011907084 0.005915298
-0.068726435 0.0054395567 0.049141314 0.016832404 -0.023788132 0.031923868 -0.025511777 0.0072079925
0.00594469 -0.009953172 -0.013715249 -0.007890119 -0.04843689 -0.046484187 0.005629101 -0.036438104
0.033566445 -0.033474192 0.030649798 -0.049486242 -0.020603672 0.046335448 0.020648247 -0.046585094
-0.0067279693 -0.017496135 0.014710791 -0.04349684 0.045939237 -0.01862164 -0.12555191 0.012824032
0.059396803 -0.020627705 0.047716387 -0.096860886 0.06485033 -0.010243645 -0.12390089 -0.010555925
-0.046922855 -0.08403152 -0.05120331 -0.08213686 0.027036002 -0.018630506 -0.037914015 -0.023628728
-0.034067027 -0.094812095 -0.005539631 -0.036725983 0.03688222 -0.0067801434 0.014822806 0.0043029613
-0.059974685 -0.030765641 -0.05856112 -0.07157099 -0.0029458539 -0.05238543 0.016318886 -0.10118784
-0.0751535 -0.06575533 -0.057335332 -0.025541723 -0.040577855 -0.036195993 0.015030988 -0.020101441
-0.011271872 0.018660666 -0.0641649 0.035300042 -0.060011357 -0.00947387 -0.00058052957 -0.0446462
-0.011640464 0.062204834 -0.06155667 0.042183153 -0.013107687 -0.021771703 0.012136337 -0.009079166
0.00072682474 -0.013914022 -0.0633745 -0.009518885 0.072490945 0.04664032 -0.018284597 0.027518805
0.0153528415 -0.01581343 -0.061447572 0.008638448 0.07592135 0.0051757786 0.038737014 0.033024084
-0.07041543 -0.004121935 -0.016531425 -0.037801128 0.008767617 -0.02036671 0.019940086 -0.004325962
-0.04404304 -0.056800693 -0.05406811 -0.08074492 -0.00094072643 -0.043283474 -0.005093187 -0.03133661
-0.033044472 -0.061509024 0.0039009287 0.021205474 -0.014913281 -0.02343837 -0.10043925 0.029209418
-0.034807775 -0.046180896 0.014693572 -0.06912639 0.08670581 -0.024402943 -0.06437507 0.005806322
00000000: ddac a2bd 6624 473c 9d0d 99bc 3a0b 303c
00000010: f30c 2bbd 3bae 7f3c 5ac9 c0bc b507 f83a
00000020: 8bea 42bd 6919 3b3b bfb5 1ebd c589 7fbd
00000030: d0f9 13bd d1d0 243d 289c 61bd 8e54 023d
00000040: 4dd5 3c3c 3f03 72bc 12ee b33c caa7 b5bd
00000050: 8474 e9bc 901f cf3c 14e1 e63d 56e3 6b3c
00000060: 8729 d93c bfe9 cdbc f95c 333d 25fa 473c
00000070: 334c 84bd 2145 613d 4d46 323d 2ba9 8a3b
00000080: 4aab 443d c95b 283b 6e28 463d e723 573b
00000090: 5737 eb3c 2d7d 3b3d 1c3d f13a f7e2 b83c
000000a0: a15a 203d b5c1 043d da27 563a f404 b73c
000000b0: e5e4 353c 982d 62bd 8fd0 933b 33be 973b
000000c0: ecea d1bc de52 053d ba8f 16bd 27ce 153d
000000d0: e269 92bd 4c52 c4bd 19a3 d93d 5f7f febc
000000e0: 59d1 a3bd eb6d 903c 044a 93bd 4d73 4cbb
000000f0: 1d28 7ebc 3456 f6bd 1a6f 973d 1792 f6bd
00000100: 891c 433c 448e 5d3d 550f 00bc 24d8 f03a
00000110: 5098 07bd b7b2 99bd e187 11bd e602 a7bc
00000120: 75dc 203b 742a 1c3d 0db7 24bc d36c d93c
00000130: bfde 813d 26be 1d3d 7e35 343c 5f58 a83c
00000140: ed7c d0bc c8cb a43c 2338 24bd c339 88bd
00000150: 1757 623d 69fe 013d 7688 3a3d 9156 deba
00000160: bc80 b73b efb1 12bc 523a 86bd 3d4c acbd
00000170: bd10 a2bc 52cc 7c3c 0eaf d43c 6ef1 0f3c
00000180: b858 45bc 3999 31bd 3353 9dbd ea6d 673c
00000190: 1c4f 603d 20cf 98bd ee6a 2a3c 348a 9ebc
000001a0: aad9 c0bc ba71 b4bc 629e 08bb 2dde 243c
000001b0: b717 c03c c050 353d eb05 163d 9723 60bc
000001c0: 5813 a0bd da16 b53c a9ea b53a a43d 353c
000001d0: 8d27 8bbc de59 473c ee15 433c 1ed5 c13b
000001e0: 72c0 8cbd 4f3e b23b 6748 493d 1ce4 893c
000001f0: 54df c2bc 9ac2 023d 13fe d0bc 0631 ec3b
00000200: adcb c23b a112 23bc ecb5 60bc 8f45 01bc
00000210: c365 46bd 3466 3ebd 5274 b83b 1f40 15bd
00000220: f87c 093d 3c1c 09bd 4915 fb3c 16b2 4abd
00000230: 08c9 a8bc 3dca 3d3d 8326 a93c 03d0 3ebd
00000240: 4c76 dcbb 0e54 8fbc 8805 713c be29 32bd
00000250: c82a 3c3d 698c 98bc ae90 00be e41b 523c
00000260: 104a 733d 6ffb a8bc 4272 433d 005f c6bd
00000270: 40d0 843d f6d4 27bc c0bf fdbd c2f2 2cbc
00000280: 2e32 40bd b818 acbd 90ba 51bd 5f37 a8bd
00000290: 9b7a dd3c 019f 98bc ba4b 1bbd 0991 c1bc
000002a0: de89 0bbd d82c c2bd cb85 b5bb fc6d 16bd
000002b0: d011 173d f72b debb 5bdb 723c dbff 8c3b
000002c0: 04a8 75bd 3a08 fcbc c9dd 6fbd d093 92bd
000002d0: 3a0f 41bb 1b92 56bd 2faf 853c 923b cfbd
000002e0: 14ea 99bd bbaa 86bd 74d8 6abd e03c d1bc
000002f0: f734 26bd 4042 14bd 8844 763c c7ab a4bc
00000300: a8ad 38bc 41de 983c e368 83bd c796 103d
00000310: 78ce 75bd 4a38 1bbc ae2e 18ba efde 36bd
00000320: a5b7 3ebc 7fca 7e3d d922 7cbd 3ec8 2c3d
00000330: a0c1 56bc 925a b2bc 7dd7 463c c8c0 14bc
00000340: 6288 3e3a a3f7 63bc 7dca 81bd 19f5 1bbc
00000350: 2276 943d ec09 3f3d 94c9 95bc 1e6f e13c
00000360: 7c8a 7b3c 2b8b 81bc 73b0 7bbd 4788 0d3c
00000370: a77c 9b3d 9499 a93b b4aa 1e3d 4344 073d
00000380: f735 90bd 4c11 87bb e96c 87bc 5bd5 1abd
00000390: 0da6 0f3c 16d8 a6bc 6459 a33c cdc0 8dbb
000003a0: 7a66 34bd d8a7 68bd 8676 5dbd 985d a5bd
000003b0: 159b 76ba 034a 31bd c0e4 a6bb d15a 00bd
000003c0: a459 07bd e3f0 7bbd b9a6 7f3b 1ab7 ad3c
000003d0: d656 74bc d301 c0bc 18b3 cdbd 9748 ef3c
000003e0: 9992 0ebd 2e28 3dbd 4fbd 703c 2392 8dbd
000003f0: d192 b13d aee8 c7bc 14d7 83bd f642 be3b

deconv2.0.bias f4 [16]
0.029523814 -0.060233325 0.030087076 0.026621463 0.038666062 -0.056254543 0.04849796 -0.016369494
-0.06053086 0.051696163 0.027378704 -0.055339925 0.025607575 -0.01435968 0.014948067 0.016257033
00000000: eddb f13c 38b7 76bd 2c79 f63c 4115 da3c
00000010: 4e60 1e3d 2a6b 66bd cca5 463d 5119 86bc
00000020: 35ef 77bd 5bbf 533d 4e49 e03c 1eac 62bd
00000030: fac6 d13c dd44 6bbc bde8 743c 782d 853c

deconv2.1.weight f4 [16]
0.9525295 1.011317 1.0042483 0.97460234 0.98878914 0.9476678 0.9492968 0.94295716
0.96511203 1.0259676 0.96365875 1.109856 0.98384905 0.9538206 1.0441126 1.001728
00000000: f9d8 733f d672 813f 358b 803f 8a7f 793f
00000010: 4921 7d3f 5b9a 723f 1d05 733f a465 713f
00000020: 9511 773f e852 833f 57b2 763f c30f 8e3f
00000030: 88dd 7b3f 962d 743f 7ba5 853f a038 803f

deconv2.1.bias f4 [16]
0.008521489 0.09043032 0.055062506 0.0136725595 0.022094835 0.015577167 0.029132903 -0.043679487
-0.014862089 0.13419294 0.032008175 -0.0491475 -0.033796526 0.02756796 0.04466509 0.018297842
00000000: b79d 0b3c 8833 b93d 3989 613d df02 603c
00000010: 3a00 b53c 6037 7f3c 20a8 ee3c 43e9 32bd
00000020: 1f80 73bc e069 093e 011b 033d e44e 49bd
00000030: 3a6e 0abd 34d6 e13c bef2 363d 5be5 953c

deconv2.1.running_mean f4 [16]
-0.7087899 -0.58344007 -0.2872025 -0.5897154 -0.26781246 -0.8359704 -0.5242256 -0.39589867
-0.69824624 -0.8218792 -0.923143 -0.77309066 -0.046253342 -0.24703528 -0.82297003 -0.9078759
00000000: 4173 35bf 545c 15bf 350c 93be 97f7 16bf
00000010: b71e 89be 2802 56bf a633 06bf 3bb3 cabe
00000020: 44c0 32bf ad66 52bf 1a53 6cbf 45e9 45bf
00000030: 2574 3dbd d1f6 7cbe 2aae 52bf 8e6a 68bf

deconv2.1.running_var f4 [16]
0.7772503 0.87699354 0.8941695 0.6742077 0.54556316 1.4508548 1.3010328 0.7068531
0.5429914 2.1469748 1.7918845 0.12348384 0.35793796 1.1976459 0.57678205 0.7826804
00000000: e0f9 463f a682 603f 4be8 643f e098 2c3f
00000010: 07aa 0b3f 9cb5 b93f 3e88 a63f 53f4 343f
00000020: 7c01 0b3f 0968 0940 795c e53f 18e5 fc3d
00000030: a543 b73e 764c 993f fda7 133f be5d 483f

deconv3.0.weight f4 [16, 8, 4, 4]
-0.05656725 0.019323137 -0.012651201 -0.092360534 -0.08532352 -0.05103374 0.02081753 -0.018355181
-0.056619234 0.021060847 0.022026876 0.071236305 -0.060817398 -0.032803863 0.035251103 -0.0064083743
-0.0076409257 -0.038811754 0.022458483 0.08173549 0.036623225 0.02768457 0.056235667 0.021507656
-0.0061591496 0.094832756 0.05116698 0.0405501 0.0013658988 0.06813588 0.06356945 -0.028156297
0.05321651 0.03211656 -0.027739218 0.06316289 0.0496705 0.13193223 0.014289899 0.028466454
0.019714873 0.07234847 -0.05362513 0.0686443 0.014908674 0.028918719 -0.008588325 -0.01046718
0.02788221 0.09110254 -0.066687256 0.00076375314 0.0067027616 -0.03667366 0.028759023 0.08697023
0.035467844 0.083692506 -0.023662861 0.07636809 0.030938856 0.031059064 0.01838909 0.023635367
0.03434449 0.054017875 -0.009541076 -0.049998432 0.035184458 0.012878656 0.017982876 -0.06438731
-0.019539544 0.04024957 -0.034859788 0.0048749624 0.0029107933 0.017587146 -0.0121272 0.046759617
0.019137809 -0.020331653 0.0020380465 -0.0009879649 0.008709764 -0.01105017 0.01782697 0.07073961
-0.0007452487 0.04383842 -0.03969731 -0.0065834033 0.051636588 0.011739506 0.028428622 0.02083899
-0.028349333 -0.080721565 -0.031538703 -0.061799508 0.044815667 -0.04146087 -0.0052661933 -0.018509617
0.008071585 0.08138048 0.03288546 0.0070268367 0.003951382 -0.032528505 -0.021867532 -0.04631324
0.04045962 0.07889417 0.03356149 0.030470133 0.021573603 0.10123051 -0.059005372 -0.029168742
0.04799352 -0.074645795 -0.025691012 -0.009416963 0.046081375 0.05674195 -0.030313233 0.03819996
-0.012608567 0.005956701 0.063395336 -0.09145858 -0.04136534 -0.03600597 0.13960373 0.050638776
0.01723271 0.01412801 0.033288017 -0.00884546 -0.005682681 -0.035453834 0.051692702 0.0026285967
0.04952175 -0.09647232 0.0016892463 -0.036408592 -0.027787209 -0.07852716 0.09681412 -0.04807292
0.016246915 -0.0020542901 0.010161204 0.01734248 0.0016397336 0.0028163127 0.042715166 0.030383935
0.009891181 0.021868318 0.112464614 -0.0025684948 -0.0023797015 0.0064879996 -0.009935981 0.053170666
-0.016706202 0.034898542 0.0018648622 -0.0070331413 -0.021757437 -0.022376047 0.03056864 -0.05792805
-0.07826845 -0.03329654 0.06042065 -0.03387017 0.07832022 -0.04942628 -0.048166517 0.041320305
-0.04971368 0.033912987 0.107344314 0.0131635275 0.051183064 0.0029416613 -0.05051604 0.040671162
0.04907536 -0.003339818 0.019857572 0.051388916 0.079435915 0.057078082 -0.034139257 0.025990434
0.049766153 0.037334576 0.033566706 0.110533915 0.008609696 -0.03254944 0.044661183 0.015860297
0.023068892 -0.0569361 -0.03721664 0.061104774 -0.043383114 0.04372866 0.1228603 0.12502272
0.010284745 0.053964335 0.001725136 0.11481386 0.09256799 0.027720448 0.08445703 0.120219015
-0.034660224 -0.08858589 -0.019476438 0.024337212 0.03624912 0.02064159 0.1064936 -0.00091621774
0.026475763 -0.028470647 0.018977234 0.019214587 -0.0044890307 0.003672814 0.107175134 0.03468724
0.02193573 0.048008338 -0.0067296145 0.052045956 0.013364772 -0.01510791 -0.07619009 -0.0843352
-0.049577456 -0.009566775 -0.041708726 -0.06419234 -0.01371281 -0.011002577 -0.09797406 -0.07910714
00000000: 10b3 67bd 8e4b 9e3c fc46 4fbc 8527 bdbd
00000010: 19be aebd c108 51bd 8689 aa3c 9b5d 96bc
00000020: 92e9 67bd cc87 ac3c b571 b43c 57e4 913d
00000030: aa1b 79bd 585d 06bd 7663 103d 57fd d1bb
00000040: bb60 fabb 13f9 1ebd dafa b73c f064 a73d
00000050: 3c02 163d c0ca e23c 5f57 663d d330 b03c
00000060: b1d2 c9bb ad37 c23d 7894 513d dd17 263d
00000070: f507 b33a d38a 8b3d b330 823d 09a8 e6bc
00000080: 8ef9 593d a78c 033d 5b3d e3bc 8c5b 813d
00000090: 4b73 4b3d 3e19 073e 2e20 6a3c 7b32 e93c
000000a0: 1681 a13c 6f2b 943d 06a6 5bbd 6295 8c3d
000000b0: 8343 743c f3e6 ec3c 0cb6 0cbc 897e 2bbc
000000c0: 3c69 e43c f893 ba3d 5493 88bd 9b36 483a
000000d0: d7a2 db3b 1f37 16bd 0b98 eb3c 731d b23d
000000e0: bb46 113d fa66 ab3d 9ed8 c1bc e066 9c3d
000000f0: 7c73 fd3c 946f fe3c b8a4 963c f59e c13c
00000100: cfac 0c3d d941 5d3d 2c52 1cbc 28cb 4cbd
00000110: 941d 103d 0001 533c d350 933c 7edd 83bd
00000120: 6511 a0bc bcdc 243d 23c9 0ebd 26be 9f3b
00000130: 02c3 3e3b eb12 903c 2ab1 46bc 0387 3f3d
00000140: e5c6 9c3c 918e a6bc bf90 053b 9a7e 81ba
00000150: 66b3 0e3c c60b 35bc de09 923c eedf 903d
00000160: cb5c 43ba ea8f 333d a699 22bd 97b9 d7bb
00000170: e380 533d 0f57 403c 24e3 e83c 88b6 aa3c
00000180: dc3c e8bc 5951 a5bd ba2e 01bd 7b21 7dbd
00000190: a290 373d e0d2 29bd 0890 acbb 7ba1 97bc
000001a0: ae3e 043c cfaa a63d e7b2 063d 6141 e63b
000001b0: 987a 813b 9c3c 05bd 8a23 b3bc f4b2 3dbd
000001c0: fdb8 253d 4493 a13d c677 093d 809c f93c
000001d0: 20bb b03c f151 cf3d 9eaf 71bd 49f3 eebc
000001e0: da94 443d e5df 98bd f575 d2bc 9b49 1abc
000001f0: d3bf 3c3d 3f6a 683d 7553 f8bc 9077 1c3d
00000200: 2a94 4ebc 6e30 c33b 6ad5 813d a34e bbbd
00000210: b46e 29bd ff7a 13bd 48f4 0e3e 9b6a 4f3d
00000220: 9d2b 8d3c 2b79 673c 0459 083d 8cec 10bc
00000230: c935 babb 0a38 11bd babb 533d 8944 2c3b
00000240: 52d7 4a3d 4893 c5bd b369 dd3a 2d21 15bd
00000250: 00a2 e3bc d9d2 a0bd 7b46 c63d 1ce8 44bd
00000260: 4018 853c 45a1 06bb 2e7b 263c d111 8e3c
00000270: 54ec d63a e391 383b 19f6 2e3d bbe7 f83c
00000280: 9f0e 223c 3025 b33c d953 e63d 3154 28bb
00000290: c4f4 1bbb 4999 d43b 86ca 22bc 7cc9 593d
000002a0: 72db 88bc c6f1 0e3d 646e f43a 4476 e6bb
000002b0: a73c b2bc f94d b7bc 166b fa3c f745 6dbd
000002c0: 364b a0bd f461 08bd a57b 773d 73bb 0abd
000002d0: 5a66 a03d 3673 4abd 414a 45bd 7b3f 293d
000002e0: 92a0 4bbd 58e8 0a3d 56d7 db3d d6ab 573c
000002f0: 55a5 513d e3c8 403b e8e9 4ebd ce96 263d
00000300: 3f03 493d d9e0 5abb 59ac a23c 2f7d 523d
00000310: 4caf a23d b5ca 693d 9bd5 0bbd e4e9 d43c
00000320: 98d7 4b3d 24ec 183d 3e7d 093d 9b5f e23d
00000330: af0f 0d3c 9052 05bd a5ee 363d 74ed 813c
00000340: f9fa bc3c d435 69bd 7a70 18bd 0049 7a3d
00000350: 7eb2 31bd d31c 333d 2e9e fb3d f505 003e
00000360: 5981 283c b509 5d3d f51d e23a 8723 eb3d
00000370: 4994 bd3d fe15 e33c cff7 ac3d 6335 f63d
00000380: e1f7 0dbd 856c b5bd 0d8d 9fbc d55e c73c
00000390: f579 143d 8d18 a93c 5119 da3d 552e 70ba
000003a0: b3e3 d83c 463b e9bc 2576 9b3c e967 9d3c
000003b0: b818 93bb 98b3 703b a37e db3d 3514 0e3d
000003c0: 8fb2 b33c 64a4 443d 1984 dcbb 242e 553d
000003d0: ebf7 5a3c 2b87 77bc 8d09 9cbd efb7 acbd
000003e0: bb11 4bbd f6bd 1cbc c5d6 2abd 4677 83bd
000003f0: b2ab 60bc 2744 34bc a0a6 c8bd ed02 a2bd

deconv3.0.bias f4 [8]
-0.07067017 0.07673044 -0.053569786 0.047912285 0.02544998 0.062355857 0.032841478 0.063023575
00000000: 86bb 90bd d924 9d3d fe6b 5bbd ac3f 443d
00000010: 7a7c d03c db68 7f3d c984 063d 8112 813d

deconv3.1.weight f4 [8]
1.2396445 1.2173023 1.221565 1.2218322 1.1961584 1.2208287 1.2337995 1.1814511
00000000: acac 9e3f 90d0 9b3f 3e5c 9c3f ff64 9c3f
00000010: b81b 993f 1d44 9c3f 24ed 9d3f ca39 973f

deconv3.1.bias f4 [8]
0.23658471 0.21083038 0.21508855 0.21720605 0.19832666 0.21474798 0.22980365 0.1872774
00000000: 4343 723e ebe3 573e 2c40 5c3e 436b 5e3e
00000010: 2516 4b3e e5e6 5b3e a651 6b3e a6c5 3f3e

deconv3.1.running_mean f4 [8]
-0.18038592 -0.033296842 0.086442135 0.12942022 0.40672258 0.46033403 0.03379646 -0.11096091
00000000: 16b7 38be 4562 08bd 9308 b13d bc86 043e
00000010: f13d d03e e7b0 eb3e 286e 0a3d 793f e3bd

deconv3.1.running_var f4 [8]
0.07879333 0.060547773 0.097610146 0.07126202 0.0498758 0.063938506 0.07856859 0.07665989
00000000: 665e a13d f100 783d d4e7 c73d d2f1 913d
00000010: 914a 4c3d 31f2 823d 92e8 a03d dcff 9c3d

deconv4.0.weight f4 [8, 3, 4, 4]
-0.05087263 0.07129 0.12696733 0.062261485 -0.045159727 0.07491566 0.08378044 0.018064743
0.0044503487 0.13885318 0.10415424 -0.062456038 -0.0658562 0.021459889 0.18841837 0.003715106
-0.26522768 -0.27529025 -0.21442585 -0.042346515 -0.09084112 -0.15956764 -0.26441288 -0.022230985
-0.113588884 -0.23761103 -0.12946312 -0.031443883 -0.08189549 -0.108193874 -0.26776007 -0.091610424
-0.07058671 -0.10887156 -0.14719902 -0.17663193 -0.14038454 -0.13589919 -0.2716055 -0.067339644
-0.24942265 -0.13696148 -0.27994692 -0.15820187 -0.16576184 -0.23141056 -0.046876214 -0.20552386
0.17481908 -0.10708198 -0.039504852 -0.102636255 0.03029454 -0.012370917 0.116809316 0.05953587
-0.066376716 0.107806794 0.12621157 0.1567834 0.19302568 0.0957517 -0.014036913 -0.051060636
-0.16831371 -0.25471157 -0.030130668 -0.27378532 -0.03818723 -0.07278594 -0.12099799 -0.1799467
-0.26645863 -0.22505783 -0.22412454 -0.121449254 -0.006546152 -0.1795836 -0.16087855 -0.15432607
-0.14957562 -0.109971605 -0.19031802 -0.1663768 -0.116718635 -0.18696411 -0.27367124 -0.2620675
-0.09358221 -0.08320315 -0.2658773 -0.17806177 -0.18560989 -0.21314456 -0.15287444 -0.0743376
0.00038052534 -0.0023924245 0.07697659 0.13128446 0.18354397 0.1522899 0.18866129 0.15886998
0.012366406 0.036214728 0.19327469 0.028092336 -0.021616202 0.06858997 0.11511548 -0.0010322164
-0.28416437 -0.17555246 -0.23053904 -0.097001635 -0.03321819 -0.115316994 -0.17588812 -0.1586443
-0.23584849 -0.27455986 -0.025810776 -0.10858298 -0.16786368 -0.18724681 -0.053973753 -0.29109728
-0.07216251 -0.23867673 -0.09598163 -0.092708394 -0.14862531 -0.10436236 -0.2597412 -0.2687713
-0.10590059 -0.06959217 -0.12120813 -0.12002936 -0.10044928 -0.0021095364 -0.083401576 -0.1534357
0.20360808 0.049387667 0.03807379 0.08879803 0.04793964 0.07471914 0.026065096 0.016634041
0.123492934 0.15980864 0.04712479 0.10233525 0.15084054 0.03658537 0.030707056 0.007974901
-0.18797916 -0.1833461 -0.2039377 -0.18280865 -0.091074616 -0.20741181 -0.046197433 -0.13039169
-0.18067501 -0.13102593 -0.03859244 -0.07818259 -0.2686079 -0.06438261 -0.15086178 -0.17708081
-0.25976148 -0.1839438 -0.25769815 -0.23425338 -0.13630211 -0.03699876 -0.17738077 -0.08968432
-0.13599868 -0.286756 -0.014001578 -0.034362987 -0.24986292 -0.049887147 -0.083307415 -0.2675583
0.23257168 0.20326619 0.23102528 0.07397526 0.17134775 0.1239934 0.05065454 0.14186013
0.14214511 0.030857217 -0.00705093 0.21197186 0.23534426 0.25471872 0.077604674 0.09327496
-0.22228137 -0.1203033 0.0048202774 -0.25202906 -0.23177275 -0.27931696 -0.07808107 -0.22612911
-0.20226082 -0.032900877 -0.11621244 -0.054696582 -0.058553968 -0.27184942 -0.22415854 -0.18946156
-0.10094739 -0.25810865 -0.19739102 -0.18078212 -0.048502635 -0.22420083 -0.1079065 -0.20730557
-0.26403394 -0.07367453 -0.02323064 -0.19340965 -0.0710647 -0.13850708 -0.09488014 -0.124675415
0.21329299 0.19306633 0.08784184 0.2342151 0.0813597 0.107559554 0.111629084 0.008407833
-0.010147309 -0.0073197815 0.08926369 0.16949692 0.20129158 0.17450325 -0.002291643 0.028630825
00000000: d25f 50bd 7e00 923d b903 023e e605 7f3d
00000010: 68f9 38bd 626d 993d 1495 ab3d 83fc 933c
00000020: 3bd4 913b 872f 0e3e d14e d53d e7d1 7fbd
00000030: 9edf 86bd a6cc af3c bff0 403e 2379 733b
00000040: eccb 87be d8f2 8cbe 7392 5bbe 8a73 2dbd
00000050: e90a babd b365 23be 2061 87be c11d b6bc
00000060: 4aa1 e8bd 4e50 73be fb91 04be 4dcb 00bd
00000070: d3b8 a7bd c094 ddbd d917 89be 3f9e bbbd
00000080: c48f 90bd 0df8 debd 57bb 16be 00df 34be
00000090: f7c0 0fbe 2829 0bbe e00f 8bbe 5ee9 89bd
000000a0: a768 7fbe a13f 0cbe 3455 8fbe acff 21be
000000b0: 79bd 29be e4f6 6cbe 4601 40bd d974 52be
000000c0: c603 333e cc4d dbbd d7cf 21bd f532 d2bd
000000d0: 412c f83c 63af 4abc b939 ef3d e2db 733d
000000e0: 84f0 87bd cfc9 dc3d 9b3d 013e d48b 203e
000000f0: 86a8 453e 7819 c43d 15fb 65bc f524 51bd
00000100: 6e5a 2cbe 8e69 82be 97d4 f6bc 972d 8cbe
00000110: 366a 1cbd cb10 95bd cbcd f7bd f343 38be
00000120: 446d 88be 8f75 66be e780 65be 63ba f8bd
00000130: 1a81 d6bb c3e4 37be 59bd 24be a707 1ebe
00000140: 5a2a 19be cb38 e1bd bae2 42be ae5e 2abe
00000150: 2e0a efbd 8573 3fbe a31e 8cbe b62d 86be
00000160: 08a8 bfbd 6a66 aabd 1221 88be d355 36be
00000170: 8510 3ebe 9142 5abe 1e8b 1cbe 503e 98bd
00000180: 3f81 c739 39ca 1cbb e7a5 9d3d 6f6f 063e
00000190: f3f2 3b3e e2f1 1b3e 6d30 413e d0ae 223e
000001a0: 779c 4a3c e555 143d cde9 453e e621 e63c
000001b0: 7614 b1bc e678 8c3d aac1 eb3d 6f4b 87ba
000001c0: fe7d 91be 06c4 33be 6d12 6cbe cba8 c6bd
000001d0: cc0f 08bd 512b ecbd 041c 34be a773 22be
000001e0: 4482 71be 1c93 8cbe 1f71 d3bc c160 debd
000001f0: 75e4 2bbe a1bd 3fbe 9513 5dbd b40a 95be
00000200: f0c9 93bd ac67 74be 0492 c4bd e6dd bdbd
00000210: 3c31 18be efbb d5bd ccfc 84be 649c 89be
00000220: 69e2 d8bd 5786 8ebd f83b f8bd f4d1 f5bd
00000230: 5ab8 cdbd 2640 0abb 72ce aabd 401e 1dbe
00000240: a37e 503e b94a 4a3d 43f3 1b3d bedb b53d
00000250: 5b5c 443d 5906 993d 7886 d53c 1d44 883c
00000260: dde9 fc3d e0a4 233e ec05 413d 2595 d13d
00000270: f175 1a3e 8ada 153d 5d8d fb3c 29a9 023c
00000280: 9c7d 40be 14bf 3bbe 0bd5 50be 3132 3bbe
00000290: 5485 babd c363 54be 8539 3dbd 6685 05be
000002a0: df02 39be a92b 06be 1b13 1ebd 321e a0bd
000002b0: fa86 89be 08db 83bd 837b 1abe ac54 35be
000002c0: 75ff 84be c35b 3cbe 03f1 83be 1ee0 6fbe
000002d0: c892 0bbe 038c 17bd 4ea3 35be 6aac b7bd
000002e0: 3d43 0bbe afd1 92be e066 65bc 34c0 0cbd
000002f0: 11dc 7fbe 7756 4cbd 149d aabd 67fd 88be
00000300: 4527 6e3e 0325 503e e491 6c3e 5780 973d
00000310: c975 2f3e 40f0 fd3d 237b 4f3d c843 113e
00000320: 7d8e 113e 46c8 fc3c 7d0b e7bb 270f 593e
00000330: 16fe 703e 7e6a 823e 33ef 9e3d f106 bf3d
00000340: ba9d 63be 9461 f6bd 6bf3 9d3b f409 81be
00000350: d655 6dbe a202 8fbe f8e8 9fbd 648e 67be
00000360: 761d 4fbe 12c3 06bd ca00 eebd 8609 60bd
00000370: 49d6 6fbd d92f 8bbe d189 65be 3602 42be
00000380: 81bd cebd d126 84be df20 4abe f31e 39be
00000390: b3aa 46bd e794 65be 15fe dcbd e947 54be
000003a0: 752f 87be ace2 96bd 2f4e bebc 2e0d 46be
000003b0: 5f8a 91bd cdd4 0dbe 8550 c2bd d355 ffbd
000003c0: 7a69 5a3e 2eb3 453e 6ce6 b33d 15d6 6f3e
000003d0: ea9f a63d 2f48 dc3d ca9d e43d 02c1 093c
000003e0: e640 26bc c7da efbb e2cf b63d 9a90 2d3e
000003f0: 611f 4e3e fbb0 323e 642f 16bb 318b ea3c

deconv4.0.bias f4 [3]
-0.10350856 -0.017996138 -0.061591107
00000000: 4cfc d3bd a36c 93bc f546 7cbd
