03_hw/Pix2Pix/checkpoints/pix2pix_model_epoch_690.pth (torch, 99191 bytes, 32 tensors)

conv1.0.weight f4 [8, 3, 4, 4]
-0.09873984 -0.11393995 -0.053164035 -0.1838485 0.059930272 -0.09992317 -0.020812504 0.06008455
-0.14171337 -0.045441676 -0.0049023163 0.040282615 -0.02400554 0.07223126 0.0701753 -0.13656992
0.13476306 0.18802024 0.05508048 -0.0054974626 0.03643918 -0.023509914 -0.077698335 0.049392845
0.11931032 0.053789552 0.039310414 -0.039838016 -0.07486493 0.028660547 -0.06460332 0.16679169
-0.104196124 0.03896954 -0.14895175 0.0529511 -0.110246286 -0.105990216 -0.0067254636 -0.121578954
0.025698617 -0.024422063 -0.0025631217 -0.036687456 -0.046990015 0.043282043 0.07240511 0.04601395
-0.069864996 0.06925621 -0.018696776 -0.018271668 -0.003752301 0.11357299 0.034121633 -0.011549472
0.14605002 0.08792436 -0.099501036 -0.07290515 0.03479349 0.12721168 -0.029732373 -0.022116551
-0.002580146 0.1346505 0.011047016 -0.08420535 -0.04534102 -0.07675971 0.037734516 -0.033198785
0.030887539 -0.0086370455 0.0371143 -0.12815702 0.061963387 -0.027517954 0.060194895 0.09183277
0.0022978473 -0.0628454 0.04835801 -0.1292038 -0.05619431 0.08338522 -0.07264309 0.0656202
-0.005503176 -0.0043095597 -0.017605303 0.004703338 -0.06285213 -0.09312557 -0.02895161 -0.09662763
-0.13226806 0.055051137 0.013825821 -0.05654802 0.011652004 -0.024546249 0.06484644 0.13853042
-0.07783574 0.045726594 -0.11187916 -0.050194565 0.1547632 0.034772538 0.041097637 -0.054069202
-0.057942376 0.0019868165 0.10122147 -0.11277775 0.1276295 -0.032739293 0.014698272 0.12964241
0.031186322 0.073725134 -0.09259207 -0.107133046 0.03979873 0.03028858 -0.0053581544 0.11806884
-0.10146748 0.09494156 -0.014595658 0.037547793 0.01616393 0.06573647 0.09532141 -0.014158262
0.07791351 0.17176177 0.12166679 0.07565688 -0.08873823 0.024571236 0.100234546 0.11654227
0.06024676 0.11469597 0.17333005 0.04914822 0.0046328497 -0.050623566 -0.00047693285 -0.051225137
0.03843767 -0.06754316 0.142928 -0.058810923 0.053069018 0.112545446 0.10124719 -0.15877458
-0.10898987 0.08830381 0.15624994 0.02578631 0.068295754 0.09836194 0.0016004614 -0.03855997
-0.09203787 -0.08757956 0.068647124 0.10053448 -0.08520063 -0.056585755 -0.014086759 -0.084116355
0.07870075 -0.17583655 0.016964821 0.031518582 -0.056480486 -0.11307695 -0.0426443 0.019001631
-0.1161257 0.107454866 -0.0796781 0.11063034 -0.05804312 -0.042232517 -0.11001114 0.12889479
-0.09335354 -0.1387946 0.038878106 0.049904995 0.13382028 -0.01435574 0.00022781253 -0.13987437
0.09456161 -0.072461136 0.117776304 0.056425508 0.046925414 -0.17027111 -0.088078015 -0.014199508
-0.027960004 0.060748935 0.037065595 0.093683444 -0.096586555 -0.07782112 -0.005341952 0.07704041
-0.033848356 -0.12819685 -0.19553521 -0.23134948 -0.11123766 -0.020814406 -0.19831502 0.030167669
0.10999966 0.01860698 0.06133349 -0.10402768 0.07321683 -0.0584677 0.09387912 -0.07631105
-0.055945724 0.09426247 -0.05220027 0.06414443 0.098342925 0.030453458 -0.006115882 -0.058315188
0.03860236 -0.11536942 -0.06823475 -0.04089985 -0.057216283 -0.09629491 0.11877458 -0.0029007588
0.100840576 0.015332369 0.09436619 -0.11386015 -0.038184006 0.10776684 0.126033 0.054011207
00000000: 1d38 cabd 5959 e9bd 88c2 59bd c842 3cbe
00000010: 7279 753d 85a4 ccbd fc7e aabc 381b 763d
00000020: 4f1d 11be 0d21 3abd 9ca3 a0bb 62ff 243d
00000030: 44a7 c4bc fced 933d 11b8 8f3d fcd8 0bbe
00000040: 54ff 093e 6188 403e 129c 613d 0f24 b4bb
00000050: 4041 153d dd97 c0bc 4e20 9fbd 2750 4a3d
00000060: f858 f43d 6f52 5c3d f503 213d 302d 23bd
00000070: c952 99bd 86c9 ea3c bf4e 84bd 71cb 2a3e
00000080: c764 d5bd 869e 1f3d cf86 18be 41e3 583d
00000090: cec8 e1bd 6611 d9bd 4761 dcbb 63fe f8bd
000000a0: e885 d23c c710 c8bc 0cfa 27bb 9645 16bd
000000b0: 9a78 40bd 8348 313d 2149 943d 2079 3c3d
000000c0: 6115 8fbd 33d6 8d3d fb29 99bc 77ae 95bc
000000d0: 2ae9 75bb f598 e83d 20c3 0b3d ff39 3dbc
000000e0: 238e 153e b011 b43d 33c7 cbbd 4c4f 95bd
000000f0: 9e83 0e3d c743 023e 4e91 f3bc c52d b5bc
00000100: ab17 29bb d2e1 093e 8bfe 343c db73 acbd
00000110: 81b7 39bd 3234 9dbd 828f 1a3d 73fb 07bd
00000120: dd07 fd3c 6582 0dbc 2a05 183d 983b 03be
00000130: 52cd 7d3d 556d e1bc ec8e 763d d212 bc3d
00000140: 7b97 163b 17b5 80bd 0c13 463d 004e 04be
00000150: 012c 66bd dfc5 aa3d e6c5 94bd e263 863d
00000160: fc53 b4bb 3537 8dbb ff38 90bc 751e 9a3b
00000170: 9eb8 80bd 9eb8 bebd ed2b edbc b5e4 c5bd
00000180: 4771 07be 4d7d 613d b285 623c e69e 67bd
00000190: 0ce8 3e3c 3715 c9bc 36ce 843d ebda 0d3e
000001a0: 5868 9fbd cf4b 3b3d e720 e5bd d198 4dbd
000001b0: 3f7a 1e3e a66d 0e3d ff55 283d ab77 5dbd
000001c0: fc54 6dbd 4035 023b 344d cf3d 05f8 e6bd
000001d0: 4fb1 023e a319 06bd 05d1 703c fbc0 043e
000001e0: 757a ff3c 34fd 963d e9a0 bdbd 9268 dbbd
000001f0: fe03 233d c21f f83c 7593 afbb 13ce f13d
00000200: 2fce cfbd b870 c23d a022 6fbc b7cb 193d
00000210: 386a 843c d8a0 863d df37 c33d 0ef8 67bc
00000220: 1e91 9f3d 51e2 2f3e 702c f93d fff1 9a3d
00000230: 64bc b5bd 9e49 c93c c547 cd3d b7ad ee3d
00000240: 4ec5 763d b9e5 ea3d 6f7d 313e a54f 493d
00000250: 29cf 973b a85a 4fbd d80c fab9 73d1 51bd
00000260: d170 1d3d 1154 8abd b85b 123e b9e3 70bd
00000270: e65e 593d 3a7e e63d b05a cf3d ce95 22be
00000280: 1536 dfbd a1d8 b43d fcff 1f3e d03d d33c
00000290: a5de 8b3d fc71 c93d 93c6 d13a 0ff1 1dbd
000002a0: 5a7e bcbd ea5c b3bd dd96 8c3d 05e5 cd3d
000002b0: ab7d aebd 77c6 67bd 26cc 66bc 3245 acbd
000002c0: dc2d a13d 7f0e 34be cff9 8a3c a119 013d
000002d0: 1558 67bd e394 e7bd caab 2ebd 4fa9 9b3c
000002e0: 50d3 edbd 4c11 dc3d 462e a3bd 2992 e23d
000002f0: 9fbe 6dbd 01fc 2cbd 854d e1bd fffc 033e
00000300: 2430 bfbd 2c20 0ebe a63e 1f3d 2e69 4c3d
00000310: 2f08 093e 5634 6bbc f6e0 6e39 3a3b 0fbe
00000320: 84a9 c13d 8166 94bd b434 f13d 6f1e 673d
00000330: dd34 403d 8d5b 2ebe 3f62 b4bd 0ea5 68bc
00000340: 610c e5bc e0d3 783d 18d2 173d 1bdd bf3d
00000350: 2ccf c5bd ae60 9fbd 8b0b afbb 5dc7 9d3d
00000360: 93a4 0abd 0946 03be 623a 48be e1e6 6cbe
00000370: 92d0 e3bd f982 aabc 1813 4bbe 3022 f73c
00000380: 8047 e13d aa6d 983c d338 7b3d 770c d5bd
00000390: b5f2 953d d47b 6fbd b243 c03d f848 9cbd
000003a0: 5827 65bd af0c c13d f3cf 55bd 285e 833d
000003b0: 0468 c93d 8879 f93c bd67 c8bb e8db 6ebd
000003c0: 821d 1e3d cd46 ecbd a9be 8bbd 9a86 27bd
000003d0: 9f5b 6abd 4436 c5bd 1640 f33d a81a 3ebb
000003e0: 8185 ce3d 9e34 7b3c 1043 c13d 832f e9bd
000003f0: d566 1cbd dcb4 dc3d cb0e 013e db3a 5d3d

conv1.0.bias f4 [8]
0.13337189 0.004448856 -0.034998335 0.1243678 0.07116394 0.100746274 -0.10867985 -0.011797544
00000000: a492 083e b6c7 913b 6a5a 0fbd 8cb4 fe3d
00000010: 66be 913d 1054 ce3d 8b93 debd 7c4a 41bc

conv1.1.weight f4 [8]
1.0063548 0.9835175 0.99921197 0.95493436 1.0068396 0.9471255 1.0208129 1.0548016
00000000: 3cd0 803f cec7 7b3f 5bcc 7f3f 9476 743f
00000010: 1fe0 803f d176 723f ffa9 823f bd03 873f

conv1.1.bias f4 [8]
-0.002752342 -0.04155219 -0.0322311 -0.010338744 -0.0037033842 0.07846979 -0.044215236 0.10461812
00000000: a360 34bb a132 2abd c204 04bd d663 29bc
00000010: 7ab4 72bb c5b4 a03d 091b 35bd 0642 d63d

conv1.1.running_mean f4 [8]
0.19917126 -0.02816035 -0.101899415 0.057855025 0.17122358 0.07841885 -0.11480605 -0.011230219
00000000: 8df3 4b3e 89b0 e6bc a4b0 d0bd 64f9 6c3d
00000010: 3c55 2f3e 109a a03d 6f1f ebbd f4fe 37bc

conv1.1.running_var f4 [8]
0.0474139 0.014164654 0.25162345 0.025477987 0.13310333 0.033401 0.019980425 0.030196067
00000000: 1435 423d dd12 683c cad4 803e 36b7 d03c
00000010: 3d4c 083e 7dcf 083d fdad a33c be5d f73c

conv2.0.weight f4 [16, 8, 4, 4]
0.06678359 0.09542121 0.030097172 0.044574 -0.08066359 0.07323195 -0.04645184 0.0710586
-0.076023735 0.069833785 0.05136837 0.018275326 -0.02857797 -0.101837404 -0.10213368 0.017590944
-0.016925067 0.10289909 0.0739228 -0.020533009 0.054911084 -0.06510346 0.023625331 -0.02289516
0.029350895 0.0081601 -0.0526251 0.021204198 0.038174573 0.027595373 -0.025388 -0.08886321
-0.04256822 0.017344385 0.041168965 -0.03942697 -0.08743054 -0.019426543 -0.010449407 0.04854412
-0.038158223 -0.070413224 -0.012467623 -0.025766542 -0.107132815 -0.09306188 -0.07672575 -0.095867306
0.04027366 -0.026054231 0.028056076 0.015504429 0.016330017 0.026171746 -0.062284265 -0.04855677
0.0010384757 -0.031794194 0.009936505 -0.002562602 0.09004665 -0.018916072 0.0076509654 0.0004063059
0.059451662 -0.027555112 0.003401858 0.04416921 0.04036392 0.0038610154 0.10106603 -0.009826754
0.053873997 -0.033904694 0.08287373 0.04911774 -0.07721961 -0.023633596 -0.052247327 -0.038323857
-0.08293662 -0.097963095 0.0063823266 0.0015352318 -0.0065078787 -0.022020228 0.044014547 0.0076957
0.003345609 0.06655921 0.047177017 0.06988404 -0.006737087 0.007183161 -0.06662648 0.011402628
0.0674161 0.0024211798 0.08964831 0.04797935 0.07382712 0.040459882 0.026083859 0.055632442
-0.01515343 0.0298784 -0.010252281 0.05582305 -0.0021990505 0.09412258 0.028049992 0.094809875
0.0030208137 0.014793712 -0.03205385 0.005495286 -0.032284517 -0.0072918413 -0.029128859 -0.02281764
0.0747848 0.020045888 0.049534712 0.047939323 0.052868873 -0.010687152 0.048125997 -0.032429807
0.025652867 0.0058723665 -0.03203584 -0.060516573 -0.046330843 -0.07293141 -0.036960833 0.07551656
0.05104983 0.00065741147 -0.0077282586 0.07133404 -0.053887963 -0.006061503 0.09407042 -0.05061203
0.019928072 0.035785116 -0.05306848 -0.07220773 -0.09268918 -0.052673228 -0.08528332 -0.031820055
0.00889312 -0.051729463 0.059803545 0.02984704 0.0001521067 -0.030932337 0.08272887 0.115977556
-0.10399671 -0.030511297 0.06589436 -0.018341735 0.063283645 0.03448015 0.04419765 -0.059611846
0.01794606 -0.01102943 -0.08421929 0.03692135 0.013735585 -0.053771146 0.02099689 0.06299003
-0.025282979 -0.035785466 0.09937501 -0.0074058194 -0.055298213 -0.04378405 -0.05308112 0.046534017
-0.025123794 -0.058781363 -0.08134514 0.018417459 -0.07121211 0.011356763 0.040122095 -0.0074132932
-0.025561096 -0.06259423 -0.004376873 0.003682866 -0.0175614 0.042874407 0.034292154 -0.050922837
-0.060793128 -0.065799914 -0.078204565 0.046283264 -0.0061305 -0.023072513 0.096747555 -0.034747653
-0.029048061 -0.037733983 -0.07404959 -0.051567234 0.040036004 -0.034739487 -0.09153901 -0.11707806
0.019500311 -0.035078462 -0.028317409 -0.012212831 0.013501697 -0.067661695 -0.03691001 0.014670204
0.013519593 -0.0067925276 -0.03142366 0.06810373 0.04881036 -0.051791325 -0.041821346 0.02172296
-0.08220772 -0.01325402 -0.17717077 -0.060470194 0.0014779584 -0.07486993 -0.084058285 0.026200255
0.025965124 -0.059582785 0.0037786434 -0.014140273 -0.17065635 -0.14021413 -0.091209054 0.016809506
-0.02586288 -0.20987076 -0.12239954 -0.073582806 0.0005819298 -0.017322278 -0.07479289 0.02498809
00000000: d6c5 883d 326c c33d 588e f63c 3a93 363d
00000010: f432 a5bd a2fa 953d 4944 3ebd 2c87 913d
00000020: 55b2 9bbd 0405 8f3d a467 523d 23b6 953c
00000030: 591c eabc 2190 d0bd 762b d1bd e21a 903c
00000040: 70a6 8abc c2bc d23d d664 973d d734 a8bc
00000050: 72ea 603d f654 85bd e989 c13c a18e bbbc
00000060: 4a71 f03c f1b1 053c 6b8d 57bd 6db4 ad3c
00000070: f15c 1c3d b10f e23c 7ffa cfbc eafd b5bd
00000080: 045c 2ebd d015 8e3c caa0 283d 2d7e 21bd
00000090: c80e b3bd 6a24 9fbc fd33 2bbc 33d6 463d
000000a0: cc4b 1cbd cf34 90bd 0045 4cbc 5b14 d3bc
000000b0: 7368 dbbd 3a97 bebd 6422 9dbd 1456 c4bd
000000c0: fef5 243d af6f d5bc dbd5 e53c 4a06 7e3c
000000d0: 87c6 853c 2166 d63c c91d 7fbd 77e3 46bd
000000e0: 761d 883a a13a 02bd b9cc 223c 54f1 27bb
000000f0: 616a b83d e1f5 9abc f3b4 fa3b 7405 d539
00000100: 9683 733d 42bb e1bc b5f1 5e3b c6ea 343d
00000110: a354 253d 1709 7d3b b5fb ce3d 6500 21bc
00000120: fbaa 5c3d a6df 0abd b4b9 a93d af2f 493d
00000130: 5125 9ebd 3e9b c1bc 4b01 56bd 7af9 1cbd
00000140: adda a9bd e0a0 c8bd d622 d13b d539 c93a
00000150: 0b40 d5bb c463 b4bc 9948 343d 362c fc3b
00000160: 0142 5b3b 3250 883d b03c 413d 5d1f 8f3d
00000170: c8c2 dcbb b960 eb3b 7773 88bd 17d2 3a3c
00000180: 7411 8a3d a8ac 1e3b 8899 b73d ff85 443d
00000190: ac32 973d 43b9 253d d1ad d53c d8de 633d
000001a0: 1846 78bc 8cc3 f43c 2ff9 27bc b6a6 643d
000001b0: f21d 10bb 57c3 c03d 19c9 e53c ae2b c23d
000001c0: d8f8 453b 5361 723c e64a 03bd cd11 b43b
000001d0: c53c 04bd 66f0 eebb a59f eebc 0fec babc
000001e0: c628 993d 4637 a43c e9e4 4a3d 065c 443d
000001f0: 088d 583d 2a19 2fbc c41f 453d 1ed5 04bd
00000200: f625 d23c fb6c c03b 0338 03bd 3ae0 77bd
00000210: 69c5 3dbd 105d 95bd 3e64 17bd 6da8 9a3d
00000220: a019 513d 2356 2c3a 553d fdbb 9517 923d
00000230: a0b9 5cbd 939f c6bb fea7 c03d 8f4e 4fbd
00000240: 3240 a33c 6a93 123d 565e 59bd a5e1 93bd
00000250: d3d3 bdbd e2bf 57bd 05a9 aebd bf55 02bd
00000260: 73b4 113c 46e2 53bd 90f4 743d c881 f43c
00000270: d57e 1f39 d065 fdbc c16d a93d a485 ed3d
00000280: 3afc d4bd d4f2 f9bc 9ff3 863d 6841 96bc
00000290: db9a 813d 0f3b 0d3d 9808 353d 8d2b 74bd
000002a0: 9e03 933c c8b4 34bc 2a7b acbd d73a 173d
000002b0: 380b 613c 223f 5cbd ab01 ac3c eb00 813d
000002c0: 401e cfbc c893 12bd 2085 cb3d 84ac f2bb
000002d0: 6180 62bd e756 33bd 976b 59bd 749a 3e3d
000002e0: 6ad0 cdbc bac4 70bd 4898 a6bd 36e0 963c
000002f0: a8d7 91bd b711 3a3c 1157 243d 36eb f2bb
00000300: 8165 d1bc 6731 80bd df6b 8fbb 3d5c 713b
00000310: eddc 8fbc 139d 2f3d ee75 0c3d 7794 50bd
00000320: 3702 79bd 1bc2 86bd b729 a0bd 8593 3d3d
00000330: 5de2 c8bb 9102 bdbc 9523 c63d 8e53 0ebd
00000340: 33f6 edbc f38e 1abd 50a7 97bd 2a38 53bd
00000350: cbfc 233d fe4a 0ebd ce78 bbbd 9fc6 efbd
00000360: 1ebf 9f3c 6fae 0fbd e9f9 e7bc 5318 48bc
00000370: 3936 5d3c 3792 8abd f32e 17bd 4c5b 703c
00000380: 4881 5d3c da93 debb 19b6 00bd f879 8b3d
00000390: 5fed 473d 2423 54bd dc4c 2bbd 59f4 b13c
000003a0: 855c a8bd 6427 59bc 416c 35be 98af 77bd
000003b0: 0eb8 c13a 6855 99bd c026 acbd eba1 d63c
000003c0: d0b4 d43c 140d 74bd 1ea3 773b 9bac 67bc
000003d0: 8ac0 2ebe 4b94 0fbe d0cb babd 17b4 893c
000003e0: 64de d3bc 5ce8 56be 9cac fabd 95b2 96bd
000003f0: a68c 183a 73e7 8dbc 042d 99bd d3b3 cc3c

conv2.0.bias f4 [16]
-0.08697914 0.083102494 0.06647413 -0.0120290965 -0.0351412 0.0069586486 -0.035978254 -0.058349222
-0.020475281 0.04205805 -0.059092216 -0.03310644 -0.043594223 -0.084641434 0.06879337 -0.07206822
00000000: 1f22 b2bd a431 aa3d 9723 883d b015 45bc
00000010: 38f0 0fbd 6005 e43b ef5d 13bd 98ff 6ebd
00000020: c7bb a7bc 1045 2c3d ae0a 72bd 9e9a 07bd
00000030: db8f 32bd 7d58 adbd 8ae3 8c3d 8198 93bd

conv2.1.weight f4 [16]
0.9718766 1.0707393 0.98076177 0.98279566 0.9905437 0.9825558 1.001088 1.0192667
0.9602707 1.0018313 1.0083821 1.0095129 1.0778661 0.9936649 1.0021381 0.9972072
00000000: e8cc 783f fc0d 893f 3413 7b3f 7f98 7b3f
00000010: 4694 7d3f c788 7b3f a723 803f 5577 823f
00000020: 4dd4 753f 023c 803f aa12 813f b837 813f
00000030: 84f7 893f d360 7e3f 1046 803f f948 7f3f

conv2.1.bias f4 [16]
-0.00578423 -0.007039312 0.008502019 -0.0826675 -0.012195276 -0.041846484 -0.0351353 -0.04427898
-0.027348945 0.021266593 0.0115829 -0.010670614 -0.04339001 0.02169056 0.020804474 -0.0046226084
00000000: a389 bdbb 07aa e6bb 0d4c 0b3c 944d a9bd
00000010: b2ce 47bc 3867 2bbd 08ea 0fbd e05d 35bd
00000020: e50a e0bc 4737 ae3c 34c6 3d3c cdd3 2ebc
00000030: b9b9 31bd 67b0 b13c 256e aa3c 4079 97bb

conv2.1.running_mean f4 [16]
0.06420233 -0.8149796 -0.1710288 1.0544778 -0.21498357 -0.23210177 -0.0014473243 0.034480415
-0.14407864 -0.6918935 -0.026501639 0.5066394 -0.05134222 -0.47681767 0.056028727 0.14840311
00000000: 837c 833d 81a2 50bf 2c22 2fbe 21f9 863f
00000010: a724 5cbe 16ac 6dbe 25b4 bdba 563b 0d3d
00000020: 5a89 13be ef1f 31bf f719 d9bc 1fb3 013f
00000030: 384c 52bd 7221 f4be 617e 653d fcf6 173e

conv2.1.running_var f4 [16]
0.2805472 0.35344124 0.49755305 0.3394872 0.21504608 0.12462662 0.07599127 0.17394832
0.4825522 0.42375648 0.15690908 0.21698233 0.39715692 0.24644664 0.22027239 0.26379633
00000000: e2a3 8f3e 40f6 b43e 46bf fe3e 44d1 ad3e
00000010: 0a35 5c3e 3e3c ff3d 50a1 9b3d 821f 323e
00000020: 1511 f73e 9cf6 d83e c6ac 203e 9e30 5e3e
00000030: 2758 cb3e 825c 7c3e 168f 613e 5010 873e

conv3.0.weight f4 [32, 16, 4, 4]
0.021740684 -0.0050110524 -0.054717936 -0.065291174 -0.05116125 -0.0015791832 0.0014711011 -0.016789354
-0.041333932 -0.015944846 -0.0028829097 -0.04640257 -0.03760963 0.028737186 0.02657104 0.011778649
-0.08325985 -0.035722245 -0.011980238 -0.0038121082 -0.02332819 -0.03016203 0.034473766 -0.03915546
-0.04281137 -0.06772939 -0.01891999 0.00039200776 -0.033462558 0.007409275 -0.03963676 -0.061963987
0.05235914 -0.004004143 -0.0019173508 0.029161079 0.018821454 -0.012728868 0.008435315 0.05806712
0.0112149725 0.045897063 0.013587938 -0.006324762 0.010764017 0.020152139 0.0211503 0.012069456
-0.0016756757 -0.009512993 -0.030306637 -0.06791817 -0.011103025 0.05591992 -0.026838273 -0.0380506
0.02390905 -0.027123014 -0.038575802 -0.053806473 0.04281031 -0.02852636 0.047566097 -0.0610377
0.046643153 0.014218705 0.032155365 0.025152301 0.0024578124 0.008070968 0.03588132 -0.01636995
-0.009023461 -0.023635445 -0.015380265 0.024587842 -0.04867775 0.05882887 -0.008941027 -0.011831597
-0.005096986 0.032241616 0.008107653 -0.026848488 -0.03042835 0.028190522 0.0046149725 -0.00046956458
0.056747727 -0.02817024 0.010610242 0.022488674 -0.01373976 -0.052920956 -0.0118284905 -0.034809645
0.07602745 0.032719005 0.009347721 0.006893771 0.03647588 -0.0028954188 -0.031033896 -0.01845195
0.02310389 -0.06646564 -0.06421061 -0.019575793 0.048687372 -0.026209965 -0.04072148 0.019175155
0.008312608 0.046323966 -0.05398857 -0.06268588 0.06727979 -0.0024025922 -0.048801918 -0.03766196
-0.06902467 0.009858129 -0.076636285 -0.11967839 -0.01152377 0.06903086 -0.0047042556 -0.04719135
-0.0097102355 -0.05183607 -0.025995487 -0.045132603 -0.008794277 0.04313002 -0.015386143 -0.028133262
-0.045001015 -0.016670048 0.00021521766 -0.050332498 -0.03586146 0.027845353 0.00964976 -0.07547623
-0.014303681 0.032286867 0.040508065 -0.046902455 -0.0051860386 -0.052251145 -0.0010131239 -0.038401622
-0.052598435 -0.04634454 -0.012061463 0.06829868 0.018035032 0.028447904 -0.045934018 -0.06933237
0.043033026 0.07898742 0.0077761402 0.036176708 -0.02328321 0.004275288 -0.008006509 0.009419441
0.068433926 0.046836145 0.04373248 -0.027666865 0.04242314 -0.038684994 0.015940756 0.026940823
0.017152568 0.041682605 -0.0009985775 -0.072559744 -0.008842938 0.015895115 -0.085294046 -0.055608492
0.06903804 0.029994389 0.04530606 0.006554368 0.055231076 -0.0434971 -0.057138827 0.005574683
-0.035911087 0.008130211 0.042423908 -0.07203884 0.02681635 -0.013533971 -0.04668127 -0.084950976
-0.016278403 -0.09037967 -0.039906826 -0.124000624 -0.056099877 0.041342147 -0.064341836 -0.053874526
0.052114483 0.0134793185 0.0345551 -0.02448222 0.019579308 0.004998537 -0.0031821337 -0.025641445
0.034060635 0.034094796 0.03614972 -0.009147754 -0.016716251 -0.07720489 0.031302992 -0.01057286
0.0694102 0.052447394 -0.039495014 -0.03452198 0.017129755 -0.050064966 -0.038908068 0.02276304
0.003841977 0.03875032 0.053010356 -0.045691673 -0.038695436 0.04169683 -0.07511668 -0.0124106165
-0.008023995 0.004747601 0.01811566 0.0015730205 0.06415876 -0.02831365 0.040492162 0.044722978
0.040862676 0.045950953 -0.07702015 -0.0851964 -0.031758144 -0.005460382 -0.05620741 -0.04607133
00000000: 8519 b23c c133 a4bb ea1f 60bd 61b7 85bd
00000010: 758e 51bd 98fc ceba f6d1 c03a d489 89bc
00000020: c54d 29bd c49e 82bc 33ef 3cbb 9f10 3ebd
00000030: 8e0c 1abd 3f6a eb3c 82ab d93c 3cfb 403c
00000040: 2484 aabd 7d51 12bd c348 44bc 90d4 79bb
00000050: c31a bfbc 5d16 f7bc 5d34 0d3d 7a61 20bd
00000060: fa5a 2fbd b5b5 8abd 18fe 9abc 6486 cd39
00000070: 0910 09bd 81c9 f23b 285a 22bd f3cd 7dbd
00000080: 8a76 563d 3035 83bb 9e4f fbba 37e3 ee3c
00000090: 732f 9a3c be8c 50bc 4734 0a3c cad7 6d3d
000000a0: 01bf 373c 8ffe 3b3d f19f 5e3c f33f cfbb
000000b0: 8f5b 303c 1916 a53c 6543 ad3c f8be 453c
000000c0: 59a2 dbba 62dc 1bbc a045 f8bc ae18 8bbd
000000d0: 76e9 35bc 490c 653d f0db dbbc f2da 1bbd
000000e0: e9dc c33c 1531 debc a901 1ebd 2d64 5cbd
000000f0: dd59 2f3d 1db0 e9bc abd4 423d ab02 7abd
00000100: e40c 3f3d 92f5 683c 58b5 033d 330c ce3c
00000110: 4013 213b 183c 043c 4af8 123d 461a 86bc
00000120: 23d7 13bc 1f9f c1bc 82fd 7bbc 716c c93c
00000130: 5262 47bd 8bf6 703d 637d 12bc 51d9 41bc
00000140: 9e04 a7bb c90f 043d f6d5 043c 5cf1 dbbc
00000150: e044 f9bc cfef e63c 3239 973b e42f f6b9
00000160: 4e70 683d 46c5 e6bc 95d6 2d3c 2b3a b83c
00000170: bb1c 61bc a5c3 58bd 49cc 41bc 8f94 0ebd
00000180: 48b4 9b3d 5d04 063d 2f27 193c 24e5 e13b
00000190: bb67 153d 11c1 3dbb cc3a febc 8b28 97bc
000001a0: 5e44 bd3c 231f 88bd da80 83bd 6a5d a0bc
000001b0: 696c 473d 48b6 d6bc 91cb 26bd 3715 9d3c
000001c0: 9b31 083c 33be 3d3d 1e23 5dbd 7461 80bd
000001d0: fdc9 893d cf74 1dbb 85e4 47bd 6d43 1abd
000001e0: ce5c 8dbd fd83 213c 7cf3 9cbd f219 f5bd
000001f0: 32ce 3cbc 0d60 8d3d 2826 9abb b84b 41bd
00000200: ae17 1fbc 0f52 54bd 7df4 d4bc f7dc 38bd
00000210: df15 10bc 1ba9 303d 2916 7cbc ba77 e6bc
00000220: fc52 38bd a08f 88bc 0dac 6139 7329 4ebd
00000230: 77e3 12bd f01b e43c 071a 1e3c 4893 9abd
00000240: fd59 6abc 3c3f 043d c9eb 253d ca1c 40bd
00000250: a5ef a9bb 4c05 56bd ccca 84ba 054b 1dbd
00000260: 7571 57bd c6d3 3dbd 719d 45bc 2ee0 8b3d
00000270: 34be 933c 940b e93c 4f25 3cbd 21fe 8dbd
00000280: 6643 303d 28c4 a13d fece fe3b 072e 143d
00000290: 6ebc bebc b717 8c3b bc2d 03bc 0054 1a3c
000002a0: 1627 8c3d 42d7 3f3d d420 333d 9fa5 e2bc
000002b0: e3c3 2d3d 2874 1ebd 3096 823c 00b3 dc3c
000002c0: 8b83 8c3c 61bb 2a3d b3e2 82ba 349a 94bd
000002d0: f8e1 10bc 7936 823c a5ae aebd bbc5 63bd
000002e0: d163 8d3d cbb6 f53c d992 393d 06c6 d63b
000002f0: fb39 623d 042a 32bd 670a 6abd d5ab b63b
00000300: 8117 13bd 9434 053c b1c4 2d3d 1989 93bd
00000310: f6ad db3c 97bd 5dbc dc34 3fbd c7fa adbd
00000320: 495a 85bc fa18 b9bd 5775 23bd 0af4 fdbd
00000330: fcc8 65bd 6256 293d a7c5 83bd 89ab 5cbd
00000340: ff75 553d 5cd8 5c3c a689 0d3d f08e c8bc
00000350: c964 a03c c4ca a33b 588b 50bb 020e d2bc
00000360: 2a83 0b3d fca6 0b3d bb11 143d 76e0 15bc
00000370: 85f0 88bc 991d 9ebd 9137 003d ca39 2dbc
00000380: ef26 8e3d 14d3 563d 86c5 21bd eb66 0dbd
00000390: b353 8c3c ec10 4dbd 115e 1fbd 8e79 ba3c
000003a0: aec9 7b3b a8b8 1e3d 6321 593d 3127 3bbd
000003b0: 1b7f 1ebd 4cca 2a3d c6d6 99bd e655 4bbc
000003c0: 1377 03bc c491 9b3b 4b67 943c cf2d ce3a
000003d0: ab65 833d 07f2 e7bc 1cdb 253d 712f 373d
000003e0: 9f5f 273d 1137 3c3d bebc 9dbd 737b aebd
000003f0: d414 02bd 01ed b2bb be39 66bd 4ab5 3cbd

conv3.0.bias f4 [32]
0.014425943 0.057895076 0.014121453 -0.059067845 0.0041082413 -0.055120427 -0.023651794 0.06103767
0.034486875 0.020826444 -0.014899543 0.031058181 0.03121875 -0.0072593377 -0.061552834 0.010477159
-0.031734467 0.018393297 0.047152415 0.025634982 0.046179894 0.05081467 0.011201012 0.046840414
0.011695627 -0.04064327 -0.011644824 -0.012939173 -0.06228572 -0.050700404 -0.05378087 0.059764523
00000000: ca5a 6c3c 6323 6d3d ab5d 673c 20f1 71bd
00000010: 6d9e 863b f5c5 61bd 68c1 c1bc a302 7a3d
00000020: 1c42 0d3d 389c aa3c 361d 74bc ba6d fe3c
00000030: 77be ff3c bddf edbb d31e 7cbd 64a8 2b3c
00000040: 00fc 01bd 8aad 963c e422 413d 7400 d23c
00000050: 2127 3d3d 0b23 503d 7384 373c bcdb 3f3d
00000060: 049f 3f3c 8f79 26bd efc9 3ebc d3fe 53bc
00000070: 501f 7fbd 3aab 4fbd 5449 5cbd a5cb 743d

conv3.1.weight f4 [32]
0.98736966 0.99092543 1.0035723 1.040819 0.9773806 0.9912812 0.98655736 0.98435307
0.9745987 1.0072309 0.9881885 0.98900497 1.0381145 0.9735853 1.0091703 1.0173277
1.0084773 1.0120157 0.9984279 0.9996194 0.98274344 1.0496168 1.0000906 1.003492
0.97568554 0.9747477 1.0441585 1.0119812 0.9894522 1.0384002 1.0648873 1.007961
00000000: 42c4 7c3f 4aad 7d3f 0f75 803f 8f39 853f
00000010: 9d35 7a3f 9bc4 7d3f 068f 7c3f 90fe 7b3f
00000020: 4d7f 793f f1ec 803f ecf9 7c3f 6e2f 7d3f
00000030: f0e0 843f e33c 793f 7e2c 813f cb37 823f
00000040: c915 813f bb89 813f f998 7f3f 0fe7 7f3f
00000050: 1395 7b3f d859 863f f802 803f 6d72 803f
00000060: 87c6 793f 1189 793f fca6 853f 9a88 813f
00000070: bd4c 7d3f 4cea 843f 3a4e 883f de04 813f

conv3.1.bias f4 [32]
-0.07198701 -0.0094993245 -0.021272164 -0.17299068 -0.02808358 -0.0104898065 0.021541152 -0.0005802463
0.026298856 -0.020708736 -0.004028773 0.053685106 0.08006841 -0.028814686 -0.020058496 -0.045413166
0.012847601 -0.014184523 -0.00518953 -0.05758159 -0.016090782 -0.032935366 0.0073085 -0.0139400605
-0.007659246 -0.015342546 -0.014566224 0.00901638 -0.046763636 -0.0398339 -0.063075826 0.0016212007
00000000: ed6d 93bd 0ea3 1bbc f642 aebc 7824 31be
00000010: 890f e6bc 70dd 2bbc 1277 b03c ac1b 18ba
00000020: b370 d73c 5ea5 a9bc cc03 84bb eae4 5b3d
00000030: e8fa a33d c70c ecbc b751 a4bc 2803 3abd
00000040: bf7e 523c 3466 68bc ef0c aabb acda 6bbd
00000050: d1d0 83bc 3ce7 06bd 247c ef3b da64 64bc
00000060: 6afa fabb 4d5f 7bbc 2ca7 6ebc 70b9 133c
00000070: 3a8b 3fbd df28 23bd e62d 81bd 787e d43a

conv3.1.running_mean f4 [32]
-0.55758595 -0.6113854 -0.16891874 -0.07747429 -0.3840663 0.275191 -0.10332843 0.046569567
-0.06352667 -0.28246891 -0.25239307 -0.60563576 -0.4785534 -0.8771866 -0.39232114 -0.3198392
-0.41815564 -0.15783611 0.05763992 0.1254191 -0.57671225 0.0075378874 -0.2668132 -0.24458626
0.16604748 -0.37966833 -0.3031105 -0.5127922 -0.105641305 0.16219234 -0.5218056 -0.40626773
00000000: f4bd 0ebf c183 1cbf 09f9 2cbe d7aa 9ebd
00000010: 57a4 c4be d6e5 8c3e db9d d3bd bbbf 3e3d
00000020: 451a 82bd c49f 90be aa39 81be f20a 1bbf
00000030: f404 f5be 4d8f 60bf 51de c8be f7c1 a3be
00000040: 7f18 d6be ca9f 21be d617 6c3d dd6d 003e
00000050: 6aa3 13bf 6200 f73b bd9b 88be d274 7abe
00000060: 5a08 2a3e e363 c2be 4d31 9bbe 5a46 03bf
00000070: 785a d8bd c015 263e 0d95 05bf 5302 d0be

conv3.1.running_var f4 [32]
0.20153922 0.2799962 0.12938285 0.19499922 0.22960545 0.20732917 0.40826324 0.24551226
0.108352825 0.30979297 0.20178787 0.29353604 0.37835616 0.16125 0.18722881 0.14294304
0.18034126 0.18855825 0.16522044 0.118832394 0.1879638 0.12931857 0.2547617 0.23384775
0.17924316 0.17755713 0.124400154 0.39075193 0.22067049 0.15858139 0.13996427 0.2280804
00000000: 4c60 4e3e a95b 8f3e f07c 043e e0ad 473e
00000010: b11d 6b3e 194e 543e e107 d13e 9167 7b3e
00000020: 16e8 dd3d 2f9d 9e3e 7ba1 4e3e 5b4a 963e
00000030: e6b7 c13e b81e 253e e9b8 3f3e a95f 123e
00000040: 61ab 383e 6a15 413e 8c2f 293e 665e f33d
00000050: 9579 403e 166c 043e 2070 823e c975 6f3e
00000060: 858b 373e 89d1 353e 82c5 fe3d a310 c83e
00000070: 72f7 613e 2963 223e cb52 0f3e e98d 693e

deconv2.0.weight f4 [32, 16, 4, 4]
-0.08057932 0.014126084 -0.017588217 0.012174223 -0.043476414 0.01460719 -0.024622342 -1.1538318e-05
-0.05057003 0.003669356 -0.037969194 -0.0639527 -0.038309947 0.03948236 -0.056654587 0.031411946
0.014430161 -0.014518294 0.021690356 -0.088499874 -0.026278932 0.025764236 0.111627065 0.012690703
0.025255565 -0.024886146 0.039106008 0.0124478275 -0.06238778 0.05773388 0.042239856 0.007236284
0.05141604 0.0015477423 0.047513824 0.0022780222 0.027673254 0.045595676 0.0008639552 0.022476384
0.04086199 0.029104644 -0.0011666967 0.019669803 0.012564375 -0.055406664 0.004088557 0.004512981
-0.025346147 0.03453958 -0.031931125 0.03742546 -0.07154279 -0.09621749 0.107457794 -0.033397626
-0.083555415 0.018112699 -0.07177996 -0.0018632071 -0.014316322 -0.12077801 0.0744392 -0.12025507
0.01244207 0.05360128 -0.008410222 0.0016603406 -0.033718802 -0.07238303 -0.033152107 -0.018262133
0.0036569382 0.0349904 -0.0118903 0.024862982 0.059559222 0.041460864 0.009207579 0.02314381
-0.025651572 0.020124504 -0.04060275 -0.06655851 0.0560856 0.0339151 0.044709317 -0.0012727301
0.0054039224 -0.0092987865 -0.06494806 -0.08480727 -0.019451318 0.014230814 0.025349319 0.0074779964
-0.012409517 -0.041903354 -0.077177845 0.014319088 0.053246994 -0.074999735 0.00899245 -0.019652976
-0.023872368 -0.023591863 -0.0023838065 0.008635098 0.023633035 0.0439362 0.036436044 -0.014012456
-0.0788376 0.02191103 0.0015876989 0.012382344 -0.017924555 0.01674022 0.009804232 0.008180243
-0.06938307 0.006362351 0.049578257 0.016839327 -0.025085159 0.032390814 -0.02878648 0.009024682
0.008286388 -0.007903911 -0.012048803 -0.008788811 -0.04992554 -0.043958716 0.0037857287 -0.037407685
0.03290282 -0.034638762 0.028538523 -0.051262256 -0.020189753 0.048108634 0.0194724 -0.049542196
-0.0054957136 -0.018673407 0.015122527 -0.0445123 0.04780774 -0.017651664 -0.12410176 0.011119686
0.05858425 -0.021933613 0.04429727 -0.09785933 0.06341019 -0.012144544 -0.12795374 -0.011713539
-0.04797474 -0.08576974 -0.05216365 -0.083251595 0.02784749 -0.018680586 -0.037564795 -0.023955919
-0.03515811 -0.097692795 -0.0069812876 -0.03881078 0.036617722 -0.0068655703 0.01483878 0.0053233006
-0.06007559 -0.029526876 -0.060845997 -0.068962224 -0.002710785 -0.053031407 0.016441379 -0.09998031
-0.07665552 -0.060486678 -0.056229644 -0.027765961 -0.03936511 -0.03960604 0.011861749 -0.025220223
-0.010475119 0.019786755 -0.05834238 0.032623406 -0.059292953 -0.004925731 -0.008715174 -0.038839042
-0.0057173045 0.061381485 -0.05983321 0.038527675 -0.0057767686 -0.016088296 0.008814111 -0.0033445752
0.0017281868 -0.011940473 -0.06237664 -0.008535514 0.07208937 0.04686822 -0.020279417 0.024422176
0.01633907 -0.015132726 -0.06048379 0.007708876 0.07655405 0.0071638795 0.037935402 0.032900974
-0.068152234 -0.0033306135 -0.01680015 -0.040292524 0.009083298 -0.01998699 0.017214127 -0.003179116
-0.044041045 -0.053753998 -0.055408753 -0.084337234 0.0026359456 -0.042277213 -0.0062388796 -0.029844826
-0.03235959 -0.061965436 0.005639369 0.020574208 -0.018792124 -0.022456227 -0.10235508 0.028982267
-0.035161383 -0.0475702 0.015207428 -0.070812784 0.09067139 -0.023953041 -0.06393757 0.008066821
00000000: c506 a5bd 1771 673c 2a15 90bc 6476 473c
00000010: 5314 32bd ff52 6f3c cbb4 c9bc b394 41b7
00000020: 8522 4fbd 9479 703b 9685 1bbd a2f9 82bd
00000030: e4ea 1cbd 41b8 213d a40e 68bd d0a9 003d
00000040: 7b6c 6c3c 23de 6dbc f9af b13c 6c3f b5bd
00000050: ea46 d7bc 850f d33c bb9c e43d abec 4f3c
00000060: c2e4 ce3c 08de cbbc 9f2d 203d f9f1 4b3c
00000070: 548a 7fbd 5c7a 6c3d b303 2d3d 5a1e ed3b
00000080: a099 523d 9ddd ca3a db9d 423d df4a 153b
00000090: 05b3 e23c 88c2 3a3d 0d7b 623a 6520 b83c
000000a0: e75e 273d dd6c ee3c d8eb 98ba 9122 a13c
000000b0: cfda 4d3c 19f2 62bd 4df9 853b a1e1 933b
000000c0: b9a2 cfbc 6079 0d3d 36ca 02bd 704b 193d
000000d0: 0785 92bd ad0d c5bd d512 dc3d f3cb 08bd
000000e0: 1a1f abbd 1561 943c 5f01 93bd db36 f4ba
000000f0: 028f 6abc 765a f7bd 9473 983d 4a48 f6bd
00000100: d3d9 4b3c 048d 5b3d 07cb 09bc c99f d93a
00000110: ba1c 0abd 8e3d 94bd 81ca 07bd 789a 95bc
00000120: 3ea9 6f3b 1852 0f3d 88cf 42bc 74ad cb3c
00000130: 5ff4 733d ded2 293d 63db 163c 1698 bd3c
00000140: 3f23 d2bc 25dc a43c 124f 26bd d44f 88bd
00000150: 04ba 653d 8fea 0a3d 1e21 373d bcd1 a6ba
00000160: 6313 b13b f059 18bc 7d03 85bd 6faf adbd
00000170: 5f58 9fbc 5c28 693c 60a9 cf3c fb09 f53b
00000180: 4951 4bbc daa2 2bbd 6b0f 9ebd 9c9a 6a3c
00000190: 8519 5a3d 7699 99bd 1255 133c 47ff a0bc
000001a0: fc8f c3bc b943 c1bc a339 1cbb 3a7a 0d3c
000001b0: 119a c13c 72f6 333d f63d 153d 8094 65bc
000001c0: 9c75 a1bd c37e b33c 561a d03a 51df 4a3c
000001d0: 84d6 92bc c922 893c eea1 203c 6d06 063c
000001e0: b618 8ebd 457b d03b 9212 4b3d a1f2 893c
000001f0: 647f cdbc 3bac 043d a0d1 ebbc 43dc 133c
00000200: a1c3 073c 687f 01bc 5868 45bc f2fe 0fbc
00000210: b97e 4cbd 0e0e 34bd fd19 783b cd38 19bd
00000220: 1bc5 063d 60e1 0dbd 9fc9 e93c 5ff8 51bd
00000230: fb64 a5bc 8f0d 453d 9584 9f3c c2ec 4abd
00000240: 6315 b4bb f9f8 98bc 7ac4 773c 8852 36bd
00000250: 0cd2 433d 399a 90bc 1029 febd 582f 363c
00000260: 0af6 6f3d 1fae b3bc 0e71 353d 796a c8bd
00000270: 34dd 813d e9f9 46bc 4e06 03be 25ea 3fbc
00000280: 2981 44bd 0ca8 afbd 8da9 55bd d07f aabd
00000290: 6b20 e43c 0708 99bc 8bdd 19bd 343f c4bc
000002a0: f301 10bd 2913 c8bd 49c3 e4bb 0df8 1ebd
000002b0: 77fc 153d 94f8 e0bb 5b1e 733c 156f ae3b
000002c0: d211 76bd 59e2 f1bc a739 79bd 113c 8dbd
000002d0: 6da7 31bb 7637 59bd 12b0 863c 7ac2 ccbd
000002e0: 92fd 9cbd e1c0 77bd 0e51 66bd 7175 e3bc
000002f0: 4f3d 21bd f139 22bd c857 423c a49a cebc
00000300: d59f 2bbc d517 a23c 6bf8 6ebd 1fa0 053d
00000310: 2bdd 72bd 0768 a1bb 17ca 0ebc b015 1fbd
00000320: 3a58 bbbb 276b 7b3d ab13 75bd 32cf 1d3d
00000330: 0c4b bdbb 9acb 83bc 1069 103c a930 5bbb
00000340: 5484 e23a f9a1 43bc a67e 7fbd 8ad8 0bbc
00000350: 97a3 933d e4f8 3f3d 0521 a6bc 0411 c83c
00000360: 83d9 853c 41ef 77bc dabd 77bd bd9a fc3b
00000370: 5fc8 9c3d fabe ea3b 2762 1b3d 2cc3 063d
00000380: 6693 8bbd 6c46 5abb 78a0 89bc c609 25bd
00000390: 1dd2 143c c2bb a3bc a404 8d3c b758 50bb
000003a0: 6264 34bd 272d 5cbd 4af4 62bd 00b9 acbd
000003b0: d4bf 2c3b df2a 2dbd 846f ccbb 237d f4bc
000003c0: 7d8b 04bd 78cf 7dbd 75ca b83b 3e8b a83c
000003d0: f1f1 99bc 1ff6 b7bc 8a9f d1bd 386c ed3c
000003e0: 6205 10bd f8d8 42bd 9328 793c 4b06 91bd
000003f0: ecb1 b93d 2b39 c4bc b3f1 82bd b32a 043c

deconv2.0.bias f4 [16]
0.029521413 -0.06023334 0.030101543 0.026622511 0.038657855 -0.056255467 0.04850416 -0.016368544
-0.060532786 0.05169413 0.027379137 -0.055329554 0.025603352 -0.014356963 0.014950021 0.016242724
00000000: e4d6 f13c 3cb7 76bd 8397 f63c 7417 da3c
00000010: b357 1e3d 226c 66bd 4cac 463d 5317 86bc
00000020: 3af1 77bd 39bd 533d 364a e03c 3ea1 62bd
00000030: 1fbe d13c 7839 6bbc eff0 743c 760f 853c

deconv2.1.weight f4 [16]
0.9483384 1.0096157 1.002016 0.97198015 0.98684454 0.94618464 0.94602454 0.94225794
0.9648519 1.0258808 0.9614001 1.1146221 0.9852615 0.95351785 1.0460883 0.99834377
00000000: 4ec6 723f 163b 813f 0f42 803f b1d3 783f
00000010: d8a1 7c3f 2839 723f aa2e 723f d137 713f
00000020: 8900 773f 1050 833f 511e 763f f0ab 8e3f
00000030: 193a 7c3f bf19 743f 39e6 853f 7593 7f3f

deconv2.1.bias f4 [16]
0.008879796 0.087705635 0.053475693 0.012433585 0.01657336 0.014754923 0.027462462 -0.043863107
-0.013070272 0.13620695 0.031334218 -0.053284656 -0.036534544 0.024749836 0.041420855 0.016228331
00000000: 907c 113c 039f b33d 5409 5b3d 3cb6 4b3c
00000010: dbc4 873c a2be 713c f5f8 e03c cda9 33bd
00000020: b224 56bc d679 0b3e 4f58 003d 0341 5abd
00000030: 3fa5 15bd 2bc0 ca3c eaa8 293d 47f1 843c

deconv2.1.running_mean f4 [16]
-0.73523045 -0.5757426 -0.29258794 -0.6088088 -0.24639903 -0.8435236 -0.5339825 -0.40079153
-0.7193202 -0.8461787 -0.9414107 -0.7670048 -0.020171724 -0.22651212 -0.79751456 -0.91567063
00000000: 1038 3cbf de63 13bf 16ce 95be e5da 1bbf
00000010: 0750 7cbe 2af1 57bf 14b3 08bf 8c34 cdbe
00000020: 5e25 38bf 2b9f 58bf 4b00 71bf 6d5a 44bf
00000030: 2c3f a5bc cbf2 67be ea29 4cbf 6469 6abf

deconv2.1.running_var f4 [16]
0.818632 0.86625594 0.9097981 0.7021676 0.5081117 1.4681216 1.3327596 0.73398876
0.5538143 2.221154 1.8665427 0.11856701 0.3129032 1.1418743 0.5263792 0.8035137
00000000: de91 513f f3c2 5d3f 87e8 683f 41c1 333f
00000010: 9c13 023f 69eb bb3f de97 aa3f b0e6 3b3f
00000020: c6c6 0d3f 6327 0e40 dfea ee3f 43d3 f23d
00000030: d934 a03e f028 923f cac0 063f 13b3 4d3f

deconv3.0.weight f4 [16, 8, 4, 4]
-0.05587318 0.016661879 -0.010613216 -0.09176033 -0.08366059 -0.052785914 0.02187946 -0.017558495
-0.05618015 0.020903233 0.021329857 0.073761135 -0.06475616 -0.033620298 0.034995455 -0.0061132847
-0.0074572805 -0.029953687 0.02273072 0.08040548 0.035331488 0.026038673 0.056296084 0.02212046
-0.0072998935 0.09387908 0.049317475 0.037807904 0.0013301801 0.06525269 0.06155442 -0.027585523
0.052734036 0.0323331 -0.033479214 0.06336285 0.048991565 0.12768336 0.01615453 0.027112918
0.0202429 0.07110088 -0.05277078 0.06698427 0.01389898 0.028236767 -0.0074704494 -0.009956692
0.029824562 0.09681511 -0.06774647 -0.00019627293 0.007403132 -0.03377534 0.030457053 0.08211011
0.036409575 0.08197844 -0.02192654 0.07490739 0.030197123 0.02854268 0.019126542 0.020076977
0.031979874 0.052420642 -0.009811801 -0.05000369 0.034572255 0.012544348 0.018305438 -0.06547421
-0.018668618 0.03849587 -0.033804696 0.0055365935 0.003717189 0.019165186 -0.011730782 0.04791207
0.018353175 -0.018795814 0.000735817 -0.003083667 0.0077759284 -0.008238386 0.015329152 0.0682173
-9.258251e-05 0.042650323 -0.039028507 -0.0061647086 0.051491212 0.007460989 0.027836952 0.018783977
-0.029517924 -0.07817676 -0.02922158 -0.061311122 0.042828325 -0.04028005 -0.0044378685 -0.016964832
0.007676057 0.08140972 0.03314654 0.005912312 0.0033968538 -0.033978548 -0.021316547 -0.04713765
0.040054094 0.07737141 0.032846075 0.030280793 0.022427522 0.09745275 -0.057940524 -0.028855283
0.04683727 -0.074321754 -0.025027717 -0.008565923 0.046545565 0.054895777 -0.030854026 0.03775631
-0.011719255 0.004949495 0.062553115 -0.08904411 -0.036275484 -0.034433167 0.13422866 0.048807587
0.018767567 0.010038217 0.029741654 -0.011353319 -0.0032273568 -0.035580683 0.049296293 0.0049485727
0.048134524 -0.09268067 0.00300935 -0.03265684 -0.02996577 -0.07802573 0.096451834 -0.04644779
0.016130256 -0.005138608 0.00674748 0.013614789 -0.0029521657 0.0043060267 0.043892868 0.031229641
0.011317925 0.019606546 0.10637108 -0.0020622641 -0.0029730825 0.006251846 -0.013687081 0.05570425
-0.016070325 0.035069603 0.0013095682 -0.005767279 -0.018761877 -0.024016423 0.026825875 -0.056765135
-0.077065416 -0.030471234 0.059433427 -0.03392308 0.07821326 -0.047912966 -0.048959468 0.043214686
-0.050511807 0.031195091 0.10295755 0.013511799 0.052236497 0.004677449 -0.050460488 0.04361357
0.047629528 -0.0004529146 0.023752594 0.05246449 0.079116985 0.057960372 -0.031173293 0.026573677
0.050238874 0.04077748 0.040565435 0.11122788 0.007956903 -0.032657925 0.04485315 0.014706322
0.022353232 -0.06054557 -0.035199687 0.061813917 -0.04149442 0.045171116 0.120774284 0.12982693
0.009275357 0.05297456 0.0026379956 0.115623474 0.09399883 0.032205325 0.08095183 0.12083643
-0.03271639 -0.086770445 -0.018413952 0.02607878 0.038267687 0.020536343 0.108208455 -0.0007922842
0.026503567 -0.029186413 0.019760955 0.021559235 -0.002370807 0.0024959522 0.10869508 0.035061385
0.021766318 0.046421777 -0.007835585 0.04874335 0.012809423 -0.019474214 -0.07643397 -0.08218149
-0.048540756 -0.01373035 -0.04200309 -0.06719977 -0.016570304 -0.014147578 -0.09899506 -0.07666121
00000000: 47db 64bd 7e7e 883c 0ee3 2dbc d7ec bbbd
00000010: 3e56 abbd 0b36 58bd 8e3c b33c d5d6 8fbc
00000020: 281d 66bd 423d ab3c f4bb ae3c 1410 973d
00000030: e19e 84bd 70b5 09bd 6557 0f3d f351 c8bb
00000040: 345c f4bb 6f61 f5bc c635 ba3c a1ab a43d
00000050: c0b7 103d 0e4f d53c b996 663d f835 b53c
00000060: f233 efbb ad43 c03d 1f01 4a3d 76dc 1a3d
00000070: 7059 ae3a 34a3 853d 7d20 7c3d 09fb e1bc
00000080: a5ff 573d b66f 043d 8021 09bd 62c4 813d
00000090: 61ab 483d 6dbf 023e 8156 843c e91b de3c
000000a0: 70d4 a53c 579d 913d 2c26 58bd 0d2f 893d
000000b0: 8cb8 633c cb50 e73c acca f4bb 6521 23bc
000000c0: a452 f43c 0047 c63d a9be 8abd 9dce 4db9
000000d0: f995 f23b 0358 0abd 1281 f93c 5829 a83d
000000e0: 3522 153d 50e4 a73d 4a9f b3bc 0c69 993d
000000f0: f55f f73c 57d2 e93c 44af 9c3c 7978 a43c
00000100: 54fd 023d 07b7 563d adc1 20bc abd0 4cbd
00000110: a39b 0d3d cf86 4d3c 49f5 953c 5817 86bd
00000120: eeee 98bc d8ad 1d3d cb76 0abd 506c b53b
00000130: 159c 733b 4f00 9d3c 7732 40bc 723f 443d
00000140: 6659 963c aef9 99bc d8e3 403a 5917 4abb
00000150: 37cd fe3b 4cfa 06bc 2027 7b3c 83b5 8b3d
00000160: db28 c2b8 1bb2 2e3d 5bdc 1fbd 5301 cabb
00000170: 73e8 523d 507b f43b 520a e43c dbe0 993c
00000180: 93cf f1bc 231b a0bd 1862 efbc 5f21 7bbd
00000190: c16c 2f3d b2fc 24bd 8a6b 91bb d5f9 8abc
000001a0: 6f87 fb3b 24ba a63d abc4 073d 11bc c13b
000001b0: c09d 5e3b 172d 0bbd 0aa0 aebc 6913 41bd
000001c0: c30f 243d e774 9e3d 9b89 063d 6d0f f83c
000001d0: ecb9 b73c 4f95 c73d 0b53 6dbd ea61 ecbc
000001e0: 70d8 3f3d 0136 98bd ed06 cdbc 1658 0cbc
000001f0: 90a6 3e3d 65da 603d 95c1 fcbc 5ca6 1a3d
00000200: 1e02 40bc 602f a23b d91b 803d c25c b6bd
00000210: 9a95 14bd cb09 0dbd 3d73 093e 77ea 473d
00000220: 71be 993c 5577 243c c5a4 f33c 4503 3abc
00000230: 1082 53bb 0dbd 11bd e9ea 493d a327 a23b
00000240: b528 453d 5dcf bdbd 8438 453b 2ec3 05bd
00000250: c67a f5bc f4cb 9fbd 8a88 c53d 0a40 3ebd
00000260: 9923 843c c561 a8bb f719 dd3b 9010 5f3c
00000270: 1f79 41bb 9219 8d3b 02c9 333d 4ed5 ff3c
00000280: d16e 393c e89d a03c 15d9 d93d 0d27 07bb
00000290: 0cd8 42bb 49dc cc3b c73f 60bc 242a 643d
000002a0: eaa5 83bc 25a5 0f3d d1a5 ab3a 71fb bcbb
000002b0: 82b2 99bc 17be c4bc f0c1 db3c 8f82 68bd
000002c0: 79d4 9dbd cf9e f9bc 7770 733d edf2 0abd
000002d0: 462e a03d 6340 44bd b989 48bd e201 313d
000002e0: 78e5 4ebd d98c ff3c 68db d23d 9860 5d3c
000002f0: f0f5 553d 4945 993b a8af 4ebd 25a4 323d
00000300: 2e17 433d 2b75 edb9 cd94 c23c 01e5 563d
00000310: 1608 a23d db67 6d3d 225f ffbc 0ab1 d93c
00000320: 47c7 4d3d 4906 273d f127 263d 71cb e33d
00000330: ac5d 023c 51c4 05bd f0b7 373d c9f2 703c
00000340: 201e b73c a2fe 77bd 8c2d 10bd 9730 7d3d
00000350: 0ef6 29bd 5905 393d 8258 f73d 5af1 043e
00000360: abf7 173c dafb 583d 39e2 2c3b 00cc ec3d
00000370: 7582 c03d bbe9 033d 13ca a53d 1779 f73d
00000380: 9f01 06bd b4b4 b1bd dbd8 96bc 2aa3 d53c
00000390: 94be 1c3d d53b a83c 659c dd3d 4bb1 4fba
000003a0: 021e d93c 5818 efbc bae1 a13c fe9c b03c
000003b0: 8b5f 1bbb 2193 233b 879b de3d 879c 0f3d
000003c0: 474f b23c c324 3e3d d360 00bc 1ba7 473d
000003d0: 9dde 513c 6388 9fbc 6a89 9cbd c54e a8bd
000003e0: acd2 46bd 43f5 60bc 6f0b 2cbd 08a0 89bd
000003f0: 72be 87bc 3ecb 67bc ecbd cabd 8d00 9dbd

deconv3.0.bias f4 [8]
-0.070222974 0.076914236 -0.05338738 0.047907572 0.025226263 0.062273927 0.033059243 0.063402824
00000000: 10d1 8fbd 3685 9d3d baac 5abd bb3a 443d
00000010: 4fa7 ce3c f212 7f3d 2169 073d 57d9 813d

deconv3.1.weight f4 [8]
1.2453277 1.222343 1.2266344 1.227014 1.2011492 1.2269269 1.2394289 1.1858143
00000000: e666 9f3f bc75 9c3f 5b02 9d3f cb0e 9d3f
00000010: 42bf 993f f10b 9d3f 9ba5 9e3f c3c8 973f

deconv3.1.bias f4 [8]
0.24263415 0.2157787 0.21988422 0.2222935 0.20268841 0.22030985 0.23523793 0.19180536
00000000: 1675 783e 17f5 5c3e 5429 613e e8a0 633e
00000010: 8d8d 4f3e e898 613e 36e2 703e a068 443e

deconv3.1.running_mean f4 [8]
-0.1912038 -0.05790628 0.06822827 0.12032361 0.41066095 0.4526844 0.034363955 -0.13435636
00000000: eeca 43be 232f 6dbd 43bb 8b3d 3a6c f63d
00000010: 2742 d23e 40c6 e73e 38c1 0c3d b794 09be

deconv3.1.running_var f4 [8]
0.07350814 0.05431681 0.08976408 0.06418907 0.047564574 0.059225284 0.072020374 0.06854652
00000000: 708b 963d 4e7b 5e3d 3bd6 b73d 8f75 833d
00000010: 12d3 423d 3696 723d 6b7f 933d 1e62 8c3d

deconv4.0.weight f4 [8, 3, 4, 4]
-0.053032566 0.066613466 0.124162145 0.05972107 -0.047862027 0.072912104 0.080884576 0.017906439
0.0023919812 0.133642 0.101297796 -0.063428566 -0.06818877 0.02011656 0.18466479 0.0039947317
-0.26852807 -0.27855742 -0.21798156 -0.045820173 -0.09456376 -0.16358867 -0.2684307 -0.026204461
-0.11733399 -0.24153212 -0.13306841 -0.03513795 -0.085643895 -0.112098165 -0.27141723 -0.0952517
-0.07360396 -0.11223261 -0.15022178 -0.17971334 -0.14348246 -0.13924088 -0.27478474 -0.07030339
-0.25257665 -0.14064237 -0.28329882 -0.16181909 -0.16864713 -0.23431008 -0.05017463 -0.20865795
0.1716787 -0.10927794 -0.04178554 -0.10384519 0.029048953 -0.013594937 0.11405099 0.058328364
-0.067210846 0.102181144 0.123442255 0.15416758 0.19046634 0.0941324 -0.01661288 -0.051651478
-0.17143671 -0.25771305 -0.033636335 -0.27706447 -0.04178928 -0.07662668 -0.12471503 -0.18373094
-0.2696181 -0.22837806 -0.22747569 -0.12487632 -0.010112941 -0.18325655 -0.1641156 -0.15782753
-0.15243532 -0.11328516 -0.19315639 -0.16928163 -0.119637206 -0.19011252 -0.27650514 -0.26480576
-0.09633547 -0.08661506 -0.26879892 -0.18115889 -0.18833768 -0.21585006 -0.155852 -0.07713221
0.0001792647 -0.0003393775 0.07730048 0.13014945 0.18450846 0.15214786 0.1889364 0.15872279
0.012921185 0.037419498 0.19369343 0.028804114 -0.021881433 0.0677998 0.11589112 -0.00029127215
-0.28704065 -0.17872608 -0.23358586 -0.09984395 -0.036504745 -0.11879668 -0.17922898 -0.16197112
-0.23869073 -0.27741665 -0.029159699 -0.11174414 -0.17065157 -0.19035874 -0.05719889 -0.29416364
-0.074889146 -0.24164759 -0.09890298 -0.095683575 -0.15167256 -0.10739426 -0.26292142 -0.27177897
-0.108861975 -0.07287106 -0.12422351 -0.1230948 -0.10325153 -0.0050548827 -0.08622298 -0.15581794
0.20240681 0.04970849 0.03889981 0.08848749 0.04745318 0.074351355 0.026727492 0.018017052
0.12431227 0.16034298 0.04889183 0.104155466 0.15005124 0.035721626 0.031169893 0.009838443
-0.19090517 -0.18638283 -0.20676267 -0.18559544 -0.094022594 -0.21069637 -0.04934946 -0.13356994
-0.18392752 -0.13428833 -0.041986205 -0.08147305 -0.27134544 -0.06756408 -0.15397581 -0.18012568
-0.2625645 -0.18714209 -0.26050082 -0.23728347 -0.13926637 -0.040090203 -0.18036321 -0.09236652
-0.13928965 -0.29026094 -0.017286835 -0.037724122 -0.25251582 -0.052867286 -0.086216256 -0.27018237
0.2369078 0.20917815 0.23527046 0.07989942 0.1758128 0.12765813 0.05509373 0.14559324
0.14721851 0.036948264 -0.0020582387 0.21769774 0.23929991 0.25836462 0.08154118 0.09687491
-0.22460143 -0.12279896 0.002530017 -0.25438157 -0.23413989 -0.2817061 -0.08041401 -0.22847801
-0.20466846 -0.035388242 -0.11880882 -0.057241116 -0.060839403 -0.2741118 -0.22651343 -0.19179511
-0.10334935 -0.26048762 -0.19984686 -0.18317963 -0.05107547 -0.22644106 -0.11049257 -0.2096819
-0.26660904 -0.07629815 -0.025801478 -0.1960093 -0.07353986 -0.14090684 -0.09737515 -0.12705475
0.2166679 0.19904228 0.091666244 0.23926878 0.08449144 0.109701626 0.11539816 0.011684779
-0.006498139 -0.0021098407 0.09380412 0.17507683 0.20412077 0.17629261 0.0017720805 0.032629345
00000000: ad38 59bd a46c 883d b948 fe3d 159e 743d
00000010: f90a 44bd f152 953d d0a6 a53d 86b0 923c
00000020: c9c2 1c3b 73d9 083e 3875 cf3d d6e6 81bd
00000030: 8ea6 8bbd 7ccb a43c c418 3d3e 3de6 823b
00000040: 837c 89be 149f 8ebe 8f36 5fbe efad 3bbd
00000050: a5aa c1bd ca83 27be c06f 89be bdaa d6bc
00000060: ce4c f0bd 3254 77be 1643 08be d0ec 0fbd
00000070: 1166 afbd b993 e5bd 33f7 8abe 5313 c3bd
00000080: acbd 96bd 36da e5bd bdd3 19be c606 38be
00000090: 11ed 12be 2995 0ebe 96b0 8cbe 39fb 8fbd
000000a0: ba51 81be 8e04 10be 8b0c 91be e7b3 25be
000000b0: d5b1 2cbe fbee 6fbe ea83 4dbd 6eaa 55be
000000c0: 8bcc 2f3e 1dcd dfbd 5027 2bbd c9ac d4bd
000000d0: 12f8 ed3c 4cbd 5ebc 9193 e93d b9e9 6e3d
000000e0: d7a5 89bd 5944 d13d 4bcf fc3d 1bde 1d3e
000000f0: 9c09 433e 7dc8 c03d bc17 88bc 8090 53bd
00000100: 1b8d 2fbe f7f2 83be 41c6 09bd 65db 8dbe
00000110: 3c2b 2bbd 73ee 9cbd 986a ffbd f723 3cbe
00000120: 620b 8abe f0db 69be 63ef 68be 28bf ffbd
00000130: c0b0 25bc 9ba7 3bbe eb0d 28be 8a9d 21be
00000140: 0118 1cbe 0d02 e8bd caca 45be 2a58 2dbe
00000150: 5a04 f5bd dbac 42be 1592 8dbe 9f94 87be
00000160: 884b c5bd 3d63 b1bd 03a0 89be b781 39be
00000170: 98db 40be cc07 5dbe ab97 1fbe 7ef7 9dbd
00000180: 00f9 3b39 7aee b1b9 b74f 9e3d e645 053e
00000190: c9ef 3c3e a6cc 1b3e 8b78 413e 3a88 223e
000001a0: 61b3 533c 3045 193d 9257 463e 9bf6 eb3c
000001b0: b140 b3bc 9fda 8a3d 5358 ed3d e3b5 98b9
000001c0: fef6 92be f803 37be 2231 6fbe fc7a ccbd
000001d0: 0086 15bd ac4b f3bd cd87 37be c2db 25be
000001e0: 586b 74be 8e09 8ebe 52e0 eebc 1dda e4bd
000001f0: 49bf 2ebe 67ed 42be 6249 6abd 9e9c 96be
00000200: 7b5f 99bd 7772 77be a58d cabd c0f5 c3bd
00000210: 0d50 1bbe 86f1 dbbd a39d 86be 9d26 8bbe
00000220: 07f3 debd 6c3d 95bd e568 febd 2019 fcbd
00000230: 8a75 d3bd 6ea3 a5bb ac95 b0bd bd8e 1fbe
00000240: bb43 4f3e 219b 4b3d 6855 1f3d ee38 b53d
00000250: 445e 423d 8645 983d 9df3 da3c 7f98 933c
00000260: 6e97 fe3d f330 243e cd42 483d 764f d53d
00000270: 08a7 193e d750 123d 0158 ff3c 6c31 213c
00000280: a57c 43be 24db 3ebe 98b9 53be bb0c 3ebe
00000290: eb8e c0bd cac0 57be a922 4abd 8fc6 08be
000002a0: 7f57 3cbe e182 09be baf9 2bbd 58db a6bd
000002b0: caed 8abe 095f 8abd d6ab 1dbe de72 38be
000002c0: db6e 86be 2da2 3fbe 5d60 85be 70fa 72be
000002d0: d89b 0ebe a035 24bd 22b1 38be a82a bdbd
000002e0: f2a1 0ebe 159d 94be 1f9d 8dbc 9c84 1abd
000002f0: c149 81be 5e8b 58bd 2692 b0bd 5855 8abe
00000300: f597 723e cc32 563e bdea 703e 4fa2 a33d
00000310: 4508 343e d0b8 023e f7a9 613d 6516 153e
00000320: 73c0 163e 1057 173d 84e3 06bb 28ec 5e3e
00000330: 090b 753e 5e48 843e 10ff a63d 5a66 c63d
00000340: ebfd 65be 057e fbbd a4ce 253b 4d3e 82be
00000350: 5ec2 6fbe c83b 90be 1ab0 a4bd 24f6 69be
00000360: 9c94 51be 43f3 10bd 0a52 f3bd a975 6abd
00000370: bd32 79bd 6258 8cbe 23f3 67be f065 44be
00000380: d3a8 d3bd a25e 85be a8a4 4cbe 7193 3bbe
00000390: 8334 51bd 2ae0 67be ee49 e2bd dab6 56be
000003a0: fb80 88be 3442 9cbd 9f5d d3bc a9b6 48be
000003b0: 119c 96bd e249 10be 9f6c c7bd a41a 02be
000003c0: 31de 5d3e bdd1 4b3e 83bb bb3d e002 753e
000003d0: d909 ad3d 3fab e03d df55 ec3d 8471 3f3c
000003e0: 57ee d4bb 4145 0abb 601c c03d 5747 333e
000003f0: 0905 513e 0d86 343e 2845 e83a 59a6 053d

deconv4.0.bias f4 [3]
-0.10927505 -0.02136867 -0.06280604
00000000: 99cb dfbd 590d afbc 74a0 80bd
