03_hw/Pix2Pix/checkpoints/pix2pix_model_epoch_420.pth (torch, 99191 bytes, 32 tensors)

conv1.0.weight f4 [8, 3, 4, 4]
000000 da 1f cf bd e8 18 ec bd 8f 19 5f bd ce e3 3e be
       -0.10113497 -0.11528188 -0.054467734 -0.18641588
000010 7f cf 6b 3d 14 24 d4 bd 4f 41 b2 bc 4a 9a 7c 3d
       0.05757093 -0.10358444 -0.021759657 0.06167058
000020 c8 5e 11 be 65 57 3b bd a5 07 6f bb fc bd 23 3d
       -0.14196312 -0.045737643 -0.0036473062 0.039976105
000030 be ea b1 bc 3c cf 96 3d 40 00 91 3d e9 7a 0b be
       -0.02171838 0.073637456 0.07080126 -0.13621105
000040 41 86 08 3e f9 1b 40 3e 89 69 62 3d 50 30 01 bc
       0.13332464 0.1876067 0.055276427 -0.007885054
000050 c0 69 0c 3d 8b ec d8 bc d7 8c a0 bd 23 e4 49 3d
       0.03428054 -0.02647998 -0.07839363 0.049289834
000060 89 b8 f2 3d 1f 4b 58 3d 92 17 24 3d 04 40 28 bd
       0.118516035 0.052806016 0.04006154 -0.041076675
000070 fb e6 96 bd 07 a2 ed 3c 47 5d 84 bd f4 10 2a 3e
       -0.07368275 0.029007925 -0.06463104 0.1660803
000080 73 5a d5 bd 63 eb 22 3d 59 52 17 be c1 4c 56 3d
       -0.104176424 0.039775264 -0.14777507 0.052319292
000090 5d 54 e2 bd 49 5f da bd 71 c7 bd bb 0e 76 f6 bd
       -0.11051247 -0.106627055 -0.0057915975 -0.12034236
0000a0 82 15 d4 3c f6 10 c6 bc c9 10 72 ba 1e 4f 16 bd
       0.025889162 -0.02417801 -0.00092340686 -0.036696546
0000b0 a0 bf 3a bd 1a d6 34 3d f4 5a 95 3d e1 7c 3c 3d
       -0.045592904 0.044149496 0.072927386 0.04601753
0000c0 88 6b 8f bd 88 97 8d 3d 37 1e 9a bc 2e fe 97 bc
       -0.07002932 0.06913668 -0.018813236 -0.01855382
0000d0 aa 98 83 bb 1d 0f e8 3d f3 1e 0b 3d 14 a6 3c bc
       -0.0040160017 0.11331008 0.033965062 -0.0115142055
0000e0 d6 5b 15 3e b6 6e b3 3d 29 63 cc bd 30 13 95 bd
       0.14585814 0.08761351 -0.09979851 -0.0727905
0000f0 69 87 0e 3d bd 3d 02 3e 1e 02 f4 bc 6b 24 b1 bc
       0.034797106 0.12718864 -0.029786166 -0.02162381
000100 a3 55 21 bb 78 27 0a 3e 78 a9 39 3c a1 21 ac bd
       -0.0024617694 0.13491619 0.011331908 -0.08404852
000110 85 a3 39 bd a8 f9 9c bd a4 91 1b 3d 28 02 06 bd
       -0.04532196 -0.07664806 0.03798069 -0.0327169
000120 8c 61 fd 3c 56 58 0d bc ac 32 18 3d e7 b8 02 be
       0.030930303 -0.008627018 0.0371577 -0.12765847
000130 38 9b 7e 3d 14 8a df bc 88 72 77 3d fb a8 bd 3d
       0.062159747 -0.02728752 0.06041196 0.09260746
000140 36 4f 02 3b f3 27 81 bd f9 f2 44 3d 05 00 05 be
       0.001988364 -0.06306448 0.04808328 -0.12988289
000150 b6 61 67 bd d2 48 aa 3d ae 1c 95 bd 70 29 86 3d
       -0.05648967 0.083146706 -0.07280861 0.06550872
000160 08 5f b8 bb 5d 16 94 bb 37 15 92 bc 80 ea 9c 3b
       -0.005626563 -0.0045192675 -0.017832382 0.0047886968
000170 40 a2 80 bd db 99 be bd 5f 7e ed bc f7 ff c4 bd
       -0.06280947 -0.09306689 -0.028990922 -0.09619134
000180 6d 5f 06 be 88 8f 63 3d 72 38 57 3c 03 7c 68 bd
       -0.1312234 0.055556804 0.013136016 -0.05675889
000190 57 59 70 3c 90 5e ba bc f8 64 84 3d 80 41 0e 3e
       0.014669738 -0.022750169 0.06464571 0.13892174
0001a0 9d 58 9d bd 6d 5a 3c 3d d3 06 e4 bd ea cf 4c bd
       -0.07682917 0.045984674 -0.11134114 -0.05000297
0001b0 22 2e 1d 3e 7c 58 11 3d d4 bc 24 3d c3 45 65 bd
       0.1534963 0.035484776 0.040219143 -0.055974733
0001c0 1e ec 6a bd f5 40 22 3b 18 aa ce 3d 13 7b e5 bd
       -0.057354085 0.0024757956 0.100910366 -0.11205115
0001d0 f0 3b 06 3e e8 3f 02 bd 80 d9 4e 3c 4e af 04 3e
       0.13108802 -0.031799227 0.012625098 0.12957498
0001e0 6e e7 fc 3c 09 f6 93 3d bc a9 bd bd 15 be dc bd
       0.030872073 0.07224662 -0.0926089 -0.10778443
0001f0 1c 90 1b 3d 6c 21 05 3d 91 4a d2 bb 87 ba ec 3d
       0.03797923 0.032502577 -0.0064175804 0.11559015
000200 8c 53 d2 bd e6 b0 c0 3d d9 06 7d bc c1 7b 1f 3d
       -0.102698416 0.09408741 -0.015443527 0.03893638
000210 c8 8a 8b 3c be 23 86 3d 40 7c bd 3d 93 b3 4a bc
       0.01703395 0.06549786 0.092522144 -0.012371915
000220 dc 4b 9d 3d 14 63 2e 3e df ef fb 3d 81 c8 9e 3d
       0.07680485 0.17029983 0.12301611 0.07753087
000230 bb 2d b6 bd 83 ea e2 3c 40 91 d2 3d cb 0e f4 3d
       -0.08895441 0.027699715 0.102816105 0.11916884
000240 72 a3 77 3d c5 c6 e8 3d c5 59 31 3e 9e e1 4e 3d
       0.060458608 0.11366037 0.173194 0.050508134
000250 ee 1e 91 3b db 5f 50 bd 14 73 af ba 5a 72 51 bd
       0.004428736 -0.050872665 -0.0013385736 -0.051134445
000260 07 17 1d 3d fc e6 89 bd 72 c6 12 3e a6 0f 6c bd
       0.03835204 -0.0673351 0.14333513 -0.05763211
000270 0c dd 59 3d a8 ee e7 3d e7 f4 d1 3d 13 55 22 be
       0.053189322 0.11324817 0.102517895 -0.15852766
000280 d5 d7 df bd 3e 8f b1 3d 91 72 1f 3e 9f 1e d1 3c
       -0.109298386 0.086698994 0.15571047 0.025527297
000290 ae ce 89 3d d3 44 c7 3d 90 7e 71 39 59 9d 22 bd
       0.06728874 0.09729924 0.00023030699 -0.03970084
0002a0 36 71 be bd 3a a2 b4 bd cb 08 8c 3d 96 20 ce 3d
       -0.09298937 -0.08820005 0.068376146 0.10064809
0002b0 36 40 b1 bd 52 e7 69 bd a6 85 62 bc ee 68 ae bd
       -0.086548254 -0.05710537 -0.01382581 -0.085161075
0002c0 9d e1 a3 3d ca e8 33 be ae 99 8e 3c 7f 53 ff 3c
       0.08002017 -0.1756927 0.017407265 0.031167744
0002d0 d8 05 65 bd 95 e3 e6 bd 3c e0 30 bd 5d 72 92 3c
       -0.055913776 -0.112738766 -0.043182597 0.017876798
0002e0 37 ec ec bd b4 07 dd 3d c9 4b a2 bd 14 fa e2 3d
       -0.11568492 0.10792485 -0.07924611 0.11082855
0002f0 90 80 6d bd 96 3f 2a bd 57 77 df bd fa 18 03 3e
       -0.057983935 -0.041564547 -0.10911434 0.12802497
000300 75 02 bb bd a7 1a 0f be ce 30 25 3d 96 2b 49 3d
       -0.09131328 -0.13975011 0.040329747 0.049113832
000310 a6 4f 0a 3e 46 9e 80 bc 59 0d 1f ba 3a 6b 0e be
       0.13506946 -0.01570047 -0.00060673576 -0.13908091
000320 f4 48 c0 3d ee 8d a5 bd fa b0 e2 3d e2 d8 49 3d
       0.09388915 -0.080837116 0.11068912 0.0492791
000330 84 84 3f 3d 30 a8 35 be c3 01 c3 bd 7a 1a ad bc
       0.046757236 -0.1773994 -0.095218204 -0.02113079
000340 2a b0 d3 bc d5 18 7a 3d eb 56 21 3d 2c 10 c2 3d
       -0.025840838 0.061058838 0.039389532 0.09475741
000350 ce 4e c2 bd d7 e5 9d bd dc b6 7e bb 36 29 a3 3d
       -0.09487687 -0.07709854 -0.0038866317 0.07966845
000360 24 71 05 bd aa 21 05 be 66 0b 48 be 0d 14 6c be
       -0.032578602 -0.13001123 -0.19535598 -0.23054524
000370 49 e6 e0 bd 1b 10 aa bc f1 2b 49 be 87 a2 f8 3c
       -0.109814234 -0.020759633 -0.19645669 0.030350937
000380 41 10 e1 3d 0c ac 8c 3c fb 9d 7b 3d b7 ac d6 bd
       0.10989428 0.017171882 0.06142996 -0.104821615
000390 cd 75 95 3d 4f 6e 73 bd 4c 6c bf 3d b9 b0 9a bd
       0.07297859 -0.05943137 0.09346828 -0.075532384
0003a0 ed 0c 67 bd b4 c8 bc 3d 9a 80 59 bd 63 1e 83 3d
       -0.05640881 0.092179686 -0.05310116 0.0640228
0003b0 57 fe c9 3d ac b9 f6 3c 38 d3 aa bb 46 f7 6c bd
       0.098629646 0.030117832 -0.0052131675 -0.057853006
0003c0 de 3a 1e 3d 1c 8b ec bd 6a f8 8b bd 7d 7e 29 bd
       0.03863036 -0.115499705 -0.068344906 -0.041380394
0003d0 94 35 69 bd 65 a8 c5 bd 1b 1a f4 3d 4a ec e7 ba
       -0.05693586 -0.09651259 0.11919042 -0.0017694321
0003e0 50 0e ce 3d fa bc 7c 3c 9b 46 c2 3d ae bd e7 bd
       0.10061324 0.015425915 0.09486123 -0.113154754
0003f0 bd 9e 1e bd 00 b3 dd 3d 81 ef 00 3e bf 41 63 3d
       -0.038725603 0.10825157 0.12591363 0.055482622

conv1.0.bias f4 [8]
000000 50 63 08 3e 5d 43 92 3b 77 71 0f bd 00 01 ff 3d
       0.13319135 0.0044635967 -0.035020318 0.124513626
000010 32 bc 91 3d de b2 ce 3d 07 6c de bd 5c 84 42 bc
       0.071159735 0.1009271 -0.10860448 -0.011872377

conv1.1.weight f4 [8]
000000 90 cb 80 3f 1d 7c 7b 3f 76 58 7f 3f d9 a4 74 3f
       1.0062122 0.98236257 0.99744356 0.9556404
000010 25 cf 80 3f 72 5f 73 3f 21 9a 82 3f 86 6e 87 3f
       1.0063215 0.95067513 1.0203286 1.0580604

conv1.1.bias f4 [8]
000000 72 bb 86 39 c8 3e 30 bd f6 e8 ff bc 25 7d 02 bc
       0.0002569813 -0.043028623 -0.031239014 -0.007964407
000010 d8 f3 b0 bb 62 39 a1 3d b0 40 33 bd 71 86 d0 3d
       -0.005400162 0.07872273 -0.043762863 0.10181893

conv1.1.running_mean f4 [8]
000000 42 e1 4d 3e a1 62 e6 bc 32 70 d2 bd 61 2c 6f 3d
       0.2010546 -0.028123202 -0.10275306 0.058391932
000010 da bc 35 3e 3b c7 9f 3d 9e b6 ea bd 57 10 37 bc
       0.17747822 0.07801672 -0.11460613 -0.011173329

conv1.1.running_var f4 [8]
000000 10 b9 4c 3d 0f 90 67 3c 08 ea 82 3e 5f d9 cc 3c
       0.049981177 0.014133467 0.25569177 0.025005994
000010 01 60 14 3e ad 27 0b 3d 78 ce a3 3c 5b 34 f7 3c
       0.14489748 0.033973385 0.019995913 0.030176332

conv2.0.weight f4 [16, 8, 4, 4]
000000 78 d6 8b 3d bd f9 c4 3d 6e 1f f9 3c c2 1d 3a 3d
       0.06828016 0.09617946 0.030410495 0.045438536
000010 35 43 a4 bd 08 0f 96 3d 14 b8 40 bd 75 78 91 3d
       -0.08020631 0.07327086 -0.04705055 0.071030535
000020 e0 f1 9c bd 30 30 8d 3d 93 ad 52 3d ae e5 8f 3c
       -0.076633215 0.06893957 0.051435065 0.017565574
000030 ae a9 e8 bc 9e ef ce bd 7a bb d0 bd 40 85 94 3c
       -0.028401222 -0.10104297 -0.10192008 0.018129945
000040 6c 29 88 bc 3a 60 ca 3d 72 9e 94 3d a0 7d b8 bc
       -0.016621314 0.09881635 0.072567835 -0.02252084
000050 1a dd 60 3d f6 9f 8b bd 9f e8 d3 3c 7c a6 cb bc
       0.05489836 -0.068176195 0.025867758 -0.02485966
000060 fa 65 e3 3c 12 01 0a 3c ab db 58 bd de 48 b8 3c
       0.027758587 0.008423107 -0.052943867 0.022495683
000070 fb 9a 1a 3d d1 f5 e3 3c 74 11 d0 bc 4f ff b5 bd
       0.037745457 0.027827175 -0.025398947 -0.08886587
000080 54 22 2d bd a1 d9 95 3c 60 24 2c 3d e2 41 1e bd
       -0.042269066 0.01829225 0.042026877 -0.03863705
000090 27 2a b2 bd e0 14 9d bc ad 9c 20 bc 38 c6 43 3d
       -0.08699446 -0.019174993 -0.009802979 0.047796458
0000a0 77 2e 18 bd fc d7 8e bd ce c9 4a bc 79 66 d3 bc
       -0.037153687 -0.069747895 -0.012377216 -0.025805699
0000b0 b7 61 d9 bd a2 8b bd bd 4c cc 9c bd cb 58 c3 bd
       -0.10614341 -0.092551485 -0.07656154 -0.0953842
0000c0 db 90 2e 3d 93 3b cd bc 58 72 02 3d 64 da 7b 3c
       0.042618614 -0.025052821 0.031847328 0.015371893
0000d0 b5 4a 9b 3c f9 98 dc 3c 50 cb 74 bd 2b 54 43 bd
       0.018956522 0.026928412 -0.059764206 -0.04768769
0000e0 f9 58 e4 3a dd cd fa bc 5e 1e 26 3c 41 7a e1 ba
       0.0017421535 -0.030615741 0.010139076 -0.0017202572
0000f0 0f 62 b4 3d ed 01 9d bc 3e 71 a2 3b 38 24 1b b9
       0.08807766 -0.019165957 0.004957347 -0.00014795444
000100 dc 57 76 3d b8 49 df bc de b2 7a 3b 1b 8b 37 3d
       0.060142383 -0.027256832 0.0038253586 0.044810396
000110 47 7b 24 3d 0e 6e 4c 3b 7f 8b ce 3d 22 2a 21 bc
       0.04015663 0.0031193527 0.100852005 -0.009836705
000120 7b d8 5a 3d a0 b4 0a bd 8d 1c a9 3d bc 7c 4a 3d
       0.053429108 -0.033863664 0.08257399 0.049435362
000130 cd c3 9e bd c4 ff ca bc a9 9c 58 bd 2b 7e 20 bd
       -0.0775219 -0.024780162 -0.052883778 -0.039182823
000140 13 ad a9 bd d8 f7 c7 bd 48 f3 ce 3b ca fd 54 3a
       -0.082849644 -0.09764069 0.0063156225 0.0008124976
000150 fd 53 a1 bb a2 1f b0 bc c9 77 2d 3d d4 b9 0c 3c
       -0.0049233423 -0.021499459 0.042350564 0.008589227
000160 98 90 74 3b b4 d6 88 3d 3c c3 40 3d 75 5c 91 3d
       0.003731763 0.06681576 0.04706119 0.07097713
000170 1e 08 af bb e6 02 03 3c 29 cb 8b bd d6 6a 3b 3c
       -0.005341544 0.0079962965 -0.06825859 0.011439046
000180 43 08 8f 3d d5 29 a3 3a b9 3b b6 3d 0a 4e 46 3d
       0.06983998 0.001244838 0.0889811 0.048414268
000190 4c 7a 9b 3d 96 c2 1f 3d 0b 04 ce 3c d1 1f 5c 3d
       0.07591686 0.03900393 0.025148412 0.05374128
0001a0 ce d4 88 bc 57 b0 f3 3c c7 5b 43 bc c2 df 65 3d
       -0.016703036 0.029747171 -0.011923737 0.056121595
0001b0 a5 08 61 bb c4 b9 c2 3d 74 50 e2 3c eb 1c be 3d
       -0.0034337428 0.09508088 0.027626254 0.092828594
0001c0 96 d4 03 3a 94 2c 84 3c 1c c5 03 bd 6e 5e d7 3b
       0.0005028931 0.016134538 -0.0321704 0.006572536
0001d0 37 71 07 bd e7 2c ae bb f6 f9 e9 bc fa ee c7 bc
       -0.033066954 -0.0053154114 -0.028561573 -0.024405945
0001e0 6c 62 97 3d 24 8a a2 3c 54 62 4c 3d 16 dc 43 3d
       0.07391819 0.019841261 0.04989846 0.047817312
0001f0 83 25 5d 3d 7b 55 25 bc 29 1d 4e 3d fc 37 0b bd
       0.053990852 -0.010091181 0.050320778 -0.033988938
000200 96 2f d4 3c 47 89 c6 3b 7b 40 00 bd 55 f4 74 bd
       0.025901597 0.006058845 -0.031311493 -0.059803326
000210 18 f1 3f bd bd bb 95 bd eb ce 17 bd 29 f1 9b 3d
       -0.046860784 -0.07311199 -0.037062567 0.07614357
000220 21 3b 54 3d 24 3a 64 3a d3 e8 f4 bb 3f f5 92 3d
       0.051814202 0.00087061734 -0.007474044 0.07175683
000230 3d 00 5e bd de f5 b7 bb af d7 bf 3d 8f d3 4b bd
       -0.054199446 -0.0056140264 0.0936731 -0.049762305
000240 9a 15 9e 3c 25 d0 0a 3d f1 a3 51 bd f2 d4 96 bd
       0.01929741 0.03388991 -0.051181737 -0.07364835
000250 46 9b bc bd 59 8e 56 bd 5f 5a ad bd 38 0b 08 bd
       -0.092093036 -0.052381847 -0.084645025 -0.033213824
000260 08 96 35 3c e5 41 4b bd dd 07 76 3d ef 8a ee 3c
       0.0110831335 -0.04962339 0.060066093 0.029118983
000270 85 cd 3f 3a 5a e7 03 bd bc 77 a6 3d 88 7d ea 3d
       0.00073166966 -0.032203056 0.08128306 0.114497244
000280 de 7b d1 bd 9e 02 f4 bc 6f 4f 86 3d 85 1d a2 bc
       -0.10228704 -0.029786404 0.065581195 -0.019789467
000290 7b bf 83 3d 6a 53 0d 3d 71 57 32 3d 66 0c 79 bd
       0.064330064 0.034503378 0.043540422 -0.06080284
0002a0 5a eb 96 3c 88 f8 39 bc fa 57 ae bd 7b 02 13 3d
       0.018422771 -0.011350758 -0.08512874 0.035891037
0002b0 d6 65 65 3c 98 e7 5e bd 94 f7 a4 3c 72 ce 7e 3d
       0.01400133 -0.054420084 0.020137586 0.0622086
0002c0 96 a5 c4 bc 10 fc 06 bd 87 95 cc 3d 19 62 fa bb
       -0.024004739 -0.03295523 0.099894576 -0.0076410887
0002d0 6f 87 5a bd 9d 29 29 bd 1d ce 58 bd 58 1c 2b 3d
       -0.053351816 -0.04129945 -0.05293094 0.041775078
0002e0 d6 71 dd bc 81 4b 7e bd ab 8f a6 bd 6f a1 68 3c
       -0.02703182 -0.062083725 -0.08132871 0.014198645
0002f0 04 e5 8f bd df ac 01 3c cb 6e 1c 3d 16 0d 3b bc
       -0.07026103 0.007914751 0.038191598 -0.011416694
000300 ad 48 da bc aa 39 81 bd 56 69 98 bb 1f 00 62 3b
       -0.026645983 -0.06309827 -0.004651229 0.0034484935
000310 cb bf 94 bc b9 a0 2e 3d 78 f3 0c 3d 39 38 51 bd
       -0.01815786 0.042633746 0.034411877 -0.05107901
000320 88 15 7b bd ce 31 86 bd 84 e9 9f bd 55 a6 40 3d
       -0.06129983 -0.06552468 -0.078082114 0.047033627
000330 6d 7f ed bb f3 26 ca bc 6b 22 c6 3d 24 88 0d bd
       -0.0072478564 -0.024676776 0.096745335 -0.034553662
000340 34 22 ed bc 3c 6f 19 bd 9b 75 98 bd c3 13 57 bd
       -0.028946973 -0.037459597 -0.074443065 -0.05250908
000350 ed 50 1f 3d 09 41 10 bd 39 cd b9 bd 6f e7 f0 bd
       0.038895536 -0.035218272 -0.09072346 -0.117628925
000360 f1 9b a0 3c 0b e8 18 bd 14 d9 f2 bc bf 22 77 bc
       0.019605609 -0.03733067 -0.029644527 -0.015083968
000370 cf 95 5c 3c 88 25 8a bd 6c 72 1d bd b0 b7 72 3c
       0.0134634515 -0.0674544 -0.0384392 0.014814302
000380 90 a0 7f 3c 17 ec 28 bb 04 11 f7 bc 47 ac 90 3d
       0.015602246 -0.0025775486 -0.03015948 0.07064109
000390 b8 eb 4d 3d 11 5f 51 bd 7c 47 2b bd 66 2a af 3c
       0.050273627 -0.051116053 -0.04181622 0.021382522
0003a0 25 16 aa bd 61 8f 5c bc 4c c5 35 be bf b9 77 bd
       -0.08305005 -0.013461919 -0.17751044 -0.060479876
0003b0 89 a5 07 3b fc 96 97 bd 5d a1 ae bd bb 8f cc 3c
       0.0020698032 -0.07401845 -0.08526871 0.02497088
0003c0 ef 87 cd 3c 2e a3 73 bd d9 71 99 3b 09 37 5e bc
       0.025089232 -0.059481792 0.004682761 -0.013562926
0003d0 02 f9 2b be 17 b1 0f be 94 64 bd bd b2 4d 8a 3c
       -0.16794208 -0.14032398 -0.092476994 0.016882751
0003e0 d0 9f e6 bc d9 59 58 be fc b5 fe bd 10 e8 98 bd
       -0.028152376 -0.21128024 -0.124370545 -0.074661374
0003f0 8d 99 2d bb 5b b9 9e bc 6f 51 93 bd 0a ad e9 3c
       -0.0026489228 -0.019375494 -0.071932666 0.028524894

conv2.0.bias f4 [16]
000000 02 28 b2 bd 9a 3d aa 3d 7e 29 88 3d 0f fa 44 bc
       -0.08699037 0.08312531 0.06648539 -0.012022509
000010 81 e9 0f bd 31 f9 e3 3b 2f 4d 13 bd e4 ce 6e bd
       -0.035134796 0.006957196 -0.03596228 -0.058302775
000020 6c c7 a7 bc 4e 2e 2c 3d 40 f9 71 bd 76 96 07 bd
       -0.020480834 0.042036347 -0.059075594 -0.033102475
000030 f8 91 32 bd 76 45 ad bd c9 de 8c 3d 23 94 93 bd
       -0.043596238 -0.08460514 0.068784304 -0.07205989

conv2.1.weight f4 [16]
000000 5b e3 78 3f f6 a6 88 3f 93 2a 7b 3f e2 bb 7b 3f
       0.97221917 1.0675952 0.9811184 0.9833356
000010 e1 88 7d 3f 29 46 7b 3f 35 1a 80 3f c2 ae 82 3f
       0.99036986 0.9815393 1.0007998 1.0209582
000020 cf 88 75 3f 82 3d 80 3f 11 0a 81 3f 99 4c 81 3f
       0.9591188 1.0018771 1.0081197 1.0101501
000030 b0 27 8a 3f ae 42 7e 3f 37 38 80 3f 77 93 7f 3f
       1.0793362 0.99320495 1.0017155 0.9983439

conv2.1.bias f4 [16]
000000 72 bf d2 bb 5b 1d ec bb 4e 11 13 3c cb 6a a6 bd
       -0.0064315135 -0.007205648 0.008976294 -0.08125838
000010 6d 42 28 bc bc b5 27 bd 32 3d 07 bd 80 20 2b bd
       -0.010269743 -0.0409448 -0.033017345 -0.04177904
000020 95 7d e5 bc 8a 4e aa 3c 05 45 35 3c aa c2 3e bc
       -0.028013984 0.020789403 0.011063819 -0.011643091
000030 d8 22 29 bd f1 f2 a6 3c 95 f3 ad 3c f7 05 8d bb
       -0.041292995 0.020379515 0.021234313 -0.0043036896

conv2.1.running_mean f4 [16]
000000 98 ee 8a 3d cb c0 53 bf 83 2b 3a be d8 b2 88 3f
       0.067837894 -0.82716054 -0.18180661 1.0679579
000010 f1 57 55 be cd 5f 64 be c3 ba ae bb 85 8b 10 3d
       -0.20834328 -0.2230217 -0.0053323223 0.035289306
000020 4e 6a 20 be fc 5f 30 bf 62 d2 a1 bc 85 85 03 3f
       -0.15665552 -0.6889646 -0.019753639 0.5137561
000030 49 d2 58 bd b8 20 f2 be 08 09 78 3d 82 f9 12 3e
       -0.05293492 -0.47290587 0.060555488 0.14352992

conv2.1.running_var f4 [16]
000000 fd e3 8a 3e 6d 17 b8 3e f2 7c 03 3f 29 32 b0 3e
       0.27127066 0.35955372 0.51362526 0.3441327
000010 dc 03 60 3e 84 35 f9 3d f6 9e 9a 3d 99 97 37 3e
       0.21876472 0.121684104 0.07549851 0.17928924
000020 e9 3e fc 3e 66 ba d8 3e a3 6b 23 3e 4d 04 5d 3e
       0.49266747 0.4232971 0.15959029 0.21583672
000030 d7 4a cb 3e 16 c1 7a 3e 9f 7c 64 3e 2a fe 87 3e
       0.39705536 0.24487719 0.22313164 0.265611

conv3.0.weight f4 [32, 16, 4, 4]
000000 f0 12 b6 3c 6e d4 8c bb 0c 40 64 bd 64 fe 86 bd
       0.022225827 -0.0042977845 -0.055725142 -0.0659149
000010 70 82 4c bd 72 07 8d ba 56 29 18 3b 9c 7b 87 bc
       -0.049929082 -0.0010759665 0.0023217998 -0.016538434
000020 55 05 25 bd 28 ef 79 bc bf 14 2f bb ba 65 3e bd
       -0.04028829 -0.015254773 -0.0026715246 -0.046483733
000030 25 33 17 bd 90 44 f2 3c 69 e6 db 3c b0 ad 37 3c
       -0.03691401 0.029573709 0.026843267 0.011210844
000040 bd 5a a5 bd 8b 68 08 bd df ba 28 bc 6e db 81 b9
       -0.080739476 -0.033302825 -0.01029846 -0.00024768285
000050 5c 05 b3 bc 65 82 f6 bc 34 68 0f 3d b8 46 20 bd
       -0.021853141 -0.030091474 0.035011485 -0.039129943
000060 cd e4 2f bd 23 d1 88 bd c3 d6 92 bc 6c 88 c2 3a
       -0.04294281 -0.06680515 -0.017924672 0.0014841682
000070 e4 9b 07 bd 63 cf ee 3b 38 01 27 bd 7b a6 7c bd
       -0.033107653 0.007287906 -0.040772647 -0.061682206
000080 d6 d2 53 3d 8d 62 91 bb 65 7c 1c bb b1 03 ed 3c
       0.05171474 -0.004436797 -0.0023877856 0.028932424
000090 a0 c1 96 3c 41 fe 51 bc 2d ab 07 3c d3 63 6f 3d
       0.018402874 -0.0128169665 0.008280558 0.05844481
0000a0 8e 43 30 3c d8 7c 3a 3d 68 fd 5e 3c 74 d5 c5 bb
       0.010758294 0.045529217 0.013610221 -0.0060374085
0000b0 90 a7 16 3c 0e c8 a0 3c 39 ae ad 3c cc af 49 3c
       0.009195223 0.019626644 0.02120124 0.01230998
0000c0 50 97 81 ba 35 d5 19 bc 57 02 00 bd 14 a2 89 bd
       -0.0009887014 -0.009389211 -0.03125223 -0.06720367
0000d0 63 16 29 bc 79 8b 64 3d 36 8e e6 bc 28 e5 1b bd
       -0.010320279 0.055797074 -0.028143983 -0.038060337
0000e0 77 3d c2 3c 9a 9b e7 bc 6e e6 21 bd 4c 9a 5b bd
       0.02371095 -0.028272439 -0.039526395 -0.053613946
0000f0 65 91 2b 3d 37 d1 ee bc d0 09 3f 3d 61 14 79 bd
       0.041886706 -0.029152496 0.046640217 -0.06081045
000100 73 45 42 3d 41 a9 6a 3c 7c a0 fd 3c 2d 33 d0 3c
       0.047429513 0.01432258 0.030960314 0.025415028
000110 7c 21 6f 3b 9c a2 07 3c b5 6f 13 3d 16 68 7a bc
       0.0036488464 0.008278515 0.035995204 -0.015283605
000120 80 a1 0a bc 7d d4 c3 bc 01 b0 80 bc 58 30 d1 3c
       -0.008461356 -0.023905033 -0.015708925 0.025535747
000130 52 38 45 bd 11 ac 73 3d 12 62 13 bc 62 a2 28 bc
       -0.048149414 0.059490267 -0.00899555 -0.010292621
000140 30 f1 b1 bb dd 61 08 3d 24 9b 24 3c d7 12 bc bc
       -0.005430363 0.033296455 0.010046754 -0.022958202
000150 d0 f3 f8 bc bb d0 fa 3c 3d 78 b2 3b d5 75 04 3b
       -0.030389696 0.030617109 0.0054464624 0.0020211835
000160 b8 e5 68 3d 46 bf e7 bc f0 ff 3c 3c c9 9a c9 3c
       0.056859702 -0.028289448 0.01153563 0.02460994
000170 63 2e 38 bc 73 8b 54 bd 74 f7 12 bc c1 42 07 bd
       -0.011241528 -0.0518908 -0.00897013 -0.033022646
000180 3e 33 98 3d 2b 32 12 3d 84 59 bf 3b f4 25 05 3a
       0.07431649 0.035692375 0.0058395285 0.0005079203
000190 31 8e 0d 3d 82 a6 ba ba 22 12 0a bd 6a 44 92 bc
       0.034559432 -0.0014240297 -0.0337087 -0.017854888
0001a0 45 53 d2 3c c9 85 82 bd b7 d4 80 bd cf bb 9a bc
       0.025674472 -0.06373174 -0.06290572 -0.018888382
0001b0 41 b1 45 3d 07 e8 c7 bc 01 48 22 bd e6 3f 9d 3c
       0.048264746 -0.024402631 -0.03961945 0.019195508
0001c0 27 10 0c 3c ad 28 43 3d 54 f4 5d bd 47 a6 7e bd
       0.008548773 0.047646213 -0.054188088 -0.062170293
0001d0 32 e5 85 3d ed 86 84 bb 6f 1e 4a bd c7 4f 1c bd
       0.06537856 -0.0040444047 -0.04934543 -0.03816202
0001e0 d6 9d 8d bd bc 66 02 3c e4 9a 9c bd 8f 5a f2 bd
       -0.069148704 0.007959064 -0.076467305 -0.11833679
0001f0 2d 8b 34 bc 1b d3 8e 3d fe 9e de ba 8e 0f 46 bd
       -0.01101951 0.06973859 -0.0016984639 -0.048354678
000200 f8 5a 0a bc 42 1d 53 bd 99 d7 dc bc c8 d4 36 bd
       -0.00844454 -0.051541574 -0.026958274 -0.044636518
000210 83 fd 13 bc db 38 30 3d a0 b8 7d bc 9b c9 e2 bc
       -0.00903261 0.04302297 -0.015485913 -0.027684024
000220 55 5d 3a bd ed c9 8c bc e0 80 59 b8 7b 8c 4d bd
       -0.045499165 -0.01718613 -5.1856856e-05 -0.0501828
000230 82 16 12 bd 5b 66 e5 3c f6 39 1f 3c 49 5e 9a bd
       -0.035665996 0.028002908 0.009718409 -0.07537515
000240 6f f3 81 bc 68 53 03 3d ec 9f 27 3d fe a0 3b bd
       -0.015863148 0.032061964 0.040923998 -0.04580783
000250 32 2d b8 bb 8a f1 57 bd 78 b9 a5 ba 84 30 1e bd
       -0.005620622 -0.052720584 -0.0012643775 -0.038620487
000260 4e 53 58 bd d9 52 3f bd 02 b6 43 bc 6e ee 8a 3d
       -0.05281382 -0.04670987 -0.0119452495 0.06783758
000270 cc 29 8a 3c 8b e3 e1 3c 33 d2 40 bd b3 f9 8e bd
       0.016865633 0.027574321 -0.04707546 -0.0698122
000280 8b 49 37 3d 0e 0a a3 3d 41 65 f3 3b 47 c9 15 3d
       0.04474787 0.07960902 0.007427842 0.036568906
000290 00 b1 b4 bc e3 f1 de 3b 38 6e ed bb 36 18 27 3c
       -0.022057056 0.0068037375 -0.007245805 0.010198643
0002a0 68 ff 8a 3d 4d 88 3c 3d d2 cc 2c 3d a5 41 f0 bc
       0.06786996 0.046028424 0.04218752 -0.029328177
0002b0 ce c6 2d 3d 78 c9 1f bd dc 7f 8a 3c 12 d9 df 3c
       0.042425923 -0.039010495 0.016906671 0.027325187
0002c0 e6 5e 85 3c 5c fd 2e 3d 75 81 5c ba f2 70 97 bd
       0.016280603 0.04272209 -0.00084116246 -0.073945895
0002d0 38 01 03 bc df 62 91 3c d6 48 ad bd 30 c4 6b bd
       -0.007995896 0.01774734 -0.08461158 -0.057560146
0002e0 b0 19 8c 3d 71 2c f1 3c ce 2e 39 3d ed 9a a9 3b
       0.06840837 0.029440137 0.045210652 0.0051759393
0002f0 3e 07 5b 3d 2c d6 32 bd d5 84 6c bd de 75 8a 3b
       0.053473704 -0.04366128 -0.057743866 0.0042254766
000300 09 71 19 bd 78 d1 04 3c 81 46 30 3d 88 db 9b bd
       -0.037461314 0.008106582 0.043035988 -0.07610232
000310 8c ed d6 3c 9a 07 6a bc 32 de 39 bd ab 52 b0 bd
       0.026236318 -0.014284039 -0.045377918 -0.08609518
000320 a4 73 8d bc 8c bd b7 bd 01 a5 24 bd bc 76 00 be
       -0.017267056 -0.089717 -0.040196422 -0.12545294
000330 76 27 6b bd cd 34 2e 3d 9a 0a 7b bd f2 3d 58 bd
       -0.05741068 0.042530823 -0.061289407 -0.05279345
000340 a9 07 54 3d d9 82 4a 3c 2d ed 0e 3d 29 2e d8 bc
       0.051765118 0.012360298 0.034894157 -0.026389198
000350 30 ce a0 3c 52 11 8a 3b b8 38 43 bb a6 54 df bc
       0.019629568 0.0042134905 -0.0029788446 -0.027262043
000360 bc d2 08 3d f2 63 08 3d 82 a4 11 3d df db 2c bc
       0.033404097 0.03329844 0.035557278 -0.010550468
000370 56 59 8d bc 19 4f 9d bd 47 21 05 3d ab eb 2c bc
       -0.017254513 -0.07681102 0.03250244 -0.0105542345
000380 e9 f3 90 3d e3 ea 5c 3d f6 65 1e bd 36 1f 04 bd
       0.07077772 0.053934943 -0.038671456 -0.032256328
000390 fb 0b 9f 3c b2 ff 4b bd 33 91 19 bd 77 e3 c1 3c
       0.019414892 -0.049804397 -0.03749199 0.023668034
0003a0 9f 73 a6 3b 37 5c 29 3d 31 f9 54 3d 65 e1 3e bd
       0.005079701 0.04134771 0.05199546 -0.04660167
0003b0 1b ec 1a bd a5 ab 2d 3d a5 3c 95 bd 35 f2 49 bc
       -0.037822824 0.04240002 -0.07286958 -0.012325813
0003c0 3f ff 11 bc 7e c3 c3 3b 2a f2 97 3c 98 f8 be 3a
       -0.008910953 0.005974232 0.01854809 0.0014569936
0003d0 ba 7a 83 3d a4 a0 e2 bc 93 f4 28 3d 0b fa 36 3d
       0.064198926 -0.02766449 0.04124887 0.044672053
0003e0 55 6f 29 3d ae 7c 3c 3d a5 e4 9b bd 51 31 b1 bd
       0.04136594 0.04601734 -0.0761197 -0.086519845
0003f0 19 ab 06 bd fa 12 b3 bb ef 36 67 bd ce bd 49 bd
       -0.032878015 -0.0054649087 -0.056448873 -0.049253277

conv3.0.bias f4 [32]
000000 1e ff 6b 3c 7d 25 6d 3d a4 91 67 3c 93 fb 71 bd
       0.014404086 0.05789708 0.0141338445 -0.05907781
000010 22 ba 86 3b 14 b8 61 bd 64 c4 c1 bc ca 03 7a 3d
       0.004111544 -0.05510719 -0.023653217 0.06103877
000020 98 43 0d 3d ac a6 aa 3c 06 cf 73 bc ec 71 fe 3c
       0.03448829 0.020831428 -0.014880901 0.031060182
000030 b8 af ff 3c be fa ed bb d4 1a 7c bd ce c0 2b 3c
       0.031211719 -0.007262557 -0.061549023 0.01048298
000040 d4 03 02 bd 42 8f 96 3c 79 14 41 3d 40 0b d2 3c
       -0.031741932 0.018378858 0.047138665 0.02564013
000050 c1 20 3d 3d 56 23 50 3d d2 6b 37 3c 6a df 3f 3d
       0.046173815 0.05081495 0.01119514 0.046843924
000060 b7 84 3f 3c c9 81 26 bd 52 c0 3e bc 32 18 54 bc
       0.0116893565 -0.040651117 -0.011642532 -0.012945222
000070 df 18 7f bd 8d a9 4f bd 61 3b 5c bd 41 d5 74 3d
       -0.06227958 -0.050698806 -0.053767566 0.059773687

conv3.1.weight f4 [32]
000000 07 e4 7c 3f a1 cd 7d 3f 18 82 80 3f 8e 9b 84 3f
       0.9878544 0.9914189 1.0039701 1.0359972
000010 59 34 7a 3f cd cf 7d 3f 06 af 7c 3f 8e eb 7b 3f
       0.97736126 0.99145204 0.98704565 0.984063
000020 49 3d 79 3f 17 05 81 3f de bc 7c 3f 79 fd 7c 3f
       0.9735914 1.0079678 0.9872569 0.9882427
000030 58 57 84 3f ec 48 79 3f 85 42 81 3f 9f 33 82 3f
       1.0339155 0.97376895 1.0098425 1.0172004
000040 82 20 81 3f 27 74 81 3f 40 97 7f 3f 43 d6 7f 3f
       1.0088046 1.0113572 0.99840164 0.9993631
000050 80 c2 7b 3f ed 6f 86 3f 89 0d 80 3f a0 84 80 3f
       0.9834366 1.0502907 1.0004131 1.0040474
000060 ca 20 7a 3f 66 72 79 3f 1d db 85 3f 13 73 81 3f
       0.9770628 0.97440183 1.0457493 1.0113243
000070 c7 47 7d 3f 0e ff 84 3f 52 61 88 3f 73 0d 81 3f
       0.9893765 1.0390337 1.06547 1.0082229

conv3.1.bias f4 [32]
000000 d0 3c 90 bd 30 39 eb bb 0b f1 96 bc 81 e7 2a be
       -0.07042849 -0.007178448 -0.018425485 -0.16689874
000010 4b 75 d6 bc 30 f1 18 bc 8d f3 bc 3c be 75 2b 3a
       -0.026178977 -0.009334847 0.023065353 0.0006540677
000020 28 f8 be 3c 45 9a 8c bc bf 98 4b bb 1c 4a 52 3d
       0.02331169 -0.017163405 -0.0031066386 0.051340207
000030 44 b8 98 3d e4 bd e1 bc 21 5c 81 bc 60 27 28 bd
       0.07457021 -0.027556367 -0.015791 -0.041053176
000040 08 13 5b 3c a5 8c 31 bc d7 d4 aa bb f7 e3 6e bd
       0.013371237 -0.010836755 -0.005213361 -0.058322873
000050 79 81 5e bc 3d 20 14 bd 9f 8c 0b 3c 3c c2 5d bc
       -0.013580673 -0.036163557 0.008517413 -0.013535079
000060 a8 ee c2 bb e6 e8 6c bc aa 7a 4f bc 66 27 1b 3c
       -0.00594886 -0.014459824 -0.012663523 0.009469843
000070 e9 f9 38 bd 17 4d 23 bd 73 a9 80 bd 1b 0f 2a 3b
       -0.045160208 -0.03986844 -0.0628232 0.0025948945

conv3.1.running_mean f4 [32]
000000 73 db 0b bf e4 17 1e bf 02 68 1a be 84 6f 8e bd
       -0.5463173 -0.61755204 -0.15078738 -0.06954864
000010 0b 8b c3 be 72 45 95 3e 47 5e e4 bd 63 ea 01 3d
       -0.3819202 0.29154545 -0.111507945 0.03171767
000020 7c e4 a2 bd b6 6c 8f be 5e 98 84 be 00 48 0c bf
       -0.07953736 -0.28012627 -0.25897497 -0.54797363
000030 8e 97 f9 be 0f 04 62 bf 18 1f c6 be e6 9d a4 be
       -0.4874844 -0.8828744 -0.38695598 -0.32151717
000040 c1 03 de be 8d a7 21 be be fd 79 3d cd a3 1f 3e
       -0.4336224 -0.15786572 0.061033003 0.15589829
000050 7c 7d 14 bf c5 87 0f bd 57 ce 8c be be 1b 8e be
       -0.58003974 -0.03504159 -0.27501175 -0.2775554
000060 dc 88 2f 3e b8 dc cb be 65 45 9e be 7d a9 07 bf
       0.17142051 -0.39816833 -0.3091232 -0.52992994
000070 c3 96 f5 bd 02 97 29 3e c3 9d 03 bf 1c 95 df be
       -0.11991646 0.16561511 -0.514126 -0.4366845

conv3.1.running_var f4 [32]
000000 26 1e 50 3e 75 c8 91 3e 00 4e 08 3e 01 6f 4a 3e
       0.20324 0.2847325 0.13311005 0.19768907
000010 00 f0 76 3e 39 a3 59 3e f1 de d5 3e 1e 1f 84 3e
       0.2411499 0.21253671 0.41771653 0.2580499
000020 da 29 e0 3d 7a e2 9d 3e 30 eb 54 3e 2f 50 91 3e
       0.109454826 0.3083685 0.20792842 0.28381488
000030 a4 43 cd 3e 02 63 26 3e 4c 07 42 3e ed a5 13 3e
       0.40090668 0.16248706 0.18948096 0.14418764
000040 82 ee 39 3e 25 f7 3a 3e 72 0f 29 3e dd c9 f7 3d
       0.1815739 0.1825834 0.16509798 0.12099049
000050 36 d0 44 3e e1 1b 07 3e af 9b 80 3e 73 4e 7b 3e
       0.19220051 0.13194229 0.25118777 0.24541645
000060 71 a5 3f 3e 01 12 40 3e c2 07 02 3e 75 e3 c8 3e
       0.18715455 0.18756868 0.12698272 0.39236036
000070 10 2b 69 3e 73 ba 22 3e 50 70 10 3e 2f 98 70 3e
       0.22770333 0.15891437 0.14105344 0.23495553

deconv2.0.weight f4 [32, 16, 4, 4]
000000 0e e0 a2 bd 95 4e 49 3c 15 46 98 bc e7 cb 31 3c
       -0.07952891 0.012286802 -0.018588105 0.010851837
000010 d5 9c 2b bd 1d 50 7e 3c 97 70 c1 bc 17 8b e0 3a
       -0.041897614 0.01552203 -0.023613257 0.0017131296
000020 67 ee 43 bd fa 01 3f 3b 54 78 1e bd 10 09 80 bd
       -0.04783478 0.0029145465 -0.038688973 -0.062517285
000030 22 b6 14 bd 84 8f 24 3d d6 1a 62 bd e4 21 02 3d
       -0.036306508 0.04017593 -0.055201374 0.031770602
000040 8e 22 40 3c ed ad 71 bc 55 b1 b3 3c 3a 9f b5 bd
       0.0117269885 -0.01475094 0.021935144 -0.08868261
000050 51 fd e7 bc 4c 56 cf 3c 8c bb e6 3d 46 81 69 3c
       -0.028319033 0.025309704 0.112662405 0.014252013
000060 b0 38 d8 3c 6b bf cd bc d9 cf 31 3d a2 4b 48 3c
       0.026394218 -0.02511569 0.04341111 0.0122250635
000070 45 f5 83 bd 7a 1e 62 3d 32 e3 31 3d d2 e5 92 3b
       -0.06443266 0.055204846 0.04342956 0.004482963
000080 31 c7 45 3d a2 1d 21 3b f9 d8 45 3d 66 71 51 3b
       0.048285667 0.0024584313 0.048302624 0.003195846
000090 58 6c ea 3c 8d 6e 3b 3d ae dc e3 3a 05 d4 b8 3c
       0.028616115 0.045759726 0.0017384493 0.022562036
0000a0 b6 ff 20 3d 45 94 03 3d 05 af 27 3a 25 53 b5 3c
       0.039306365 0.032123823 0.00063966244 0.022134373
0000b0 5b e9 37 3c 9c 3c 62 bd 1d 56 92 3b 19 6f 97 3b
       0.01122507 -0.055233583 0.004465832 0.004621398
0000c0 a3 57 d1 bc 57 fa 05 3d 42 b0 14 bd b9 0a 16 3d
       -0.025554484 0.032709446 -0.036300905 0.03663132
0000d0 44 8c 92 bd c5 52 c4 bd a1 c7 d9 3d 61 c5 ff bc
       -0.0715566 -0.095860995 0.10633779 -0.031222047
0000e0 ab 4f a4 bd 5e c0 90 3c f3 39 93 bd 2e da 45 bb
       -0.08023008 0.017669853 -0.07188787 -0.003018986
0000f0 42 97 7c bc 55 6d f6 bd ff 83 97 3d c4 88 f6 bd
       -0.015416922 -0.12032572 0.07398223 -0.12037805
000100 3b 05 43 3c 01 49 5d 3d 44 20 01 bc 12 59 ec 3a
       0.0119031025 0.0540247 -0.007881228 0.0018031916
000110 04 c6 07 bd d3 4f 99 bd 25 e7 10 bd b5 c9 a5 bc
       -0.033147827 -0.074859284 -0.035376687 -0.020237783
000120 a0 70 26 3b 29 11 1b 3d 4b ed 26 bc 98 64 d8 3c
       0.002539672 0.037858162 -0.010188411 0.026415154
000130 1b 3e 81 3d de a1 1e 3d a9 b6 31 3c 10 e3 a9 3c
       0.06310674 0.038728587 0.010846772 0.020738155
000140 6a ae d0 bc 9e d1 a4 3c 45 68 24 bd 72 3b 88 bd
       -0.025473792 0.020119485 -0.0401385 -0.06651963
000150 71 88 62 3d dc ce 02 3d a5 31 3a 3d fa 3d d3 ba
       0.055305902 0.031935558 0.0454575 -0.0016116493
000160 aa c3 b6 3b 26 1a 13 bc 5a 27 86 bd 21 67 ac bd
       0.005577524 -0.008978402 -0.065504745 -0.08418108
000170 9d f9 a1 bc f9 91 7b 3c 2a 20 d4 3c 02 e4 0e 3c
       -0.019772345 0.015354627 0.025894243 0.0087213535
000180 4e c9 45 bc 58 29 31 bd e9 60 9d bd d0 65 67 3c
       -0.012071921 -0.04325232 -0.076845 0.014123395
000190 1a c3 5f 3d c8 dd 98 bd fc 90 28 3c 77 b5 9e bc
       0.054629423 -0.074641764 0.010288473 -0.019373639
0001a0 b2 0c c1 bc 28 8d b5 bc b6 fb 09 bb b6 cf 22 3c
       -0.023565624 -0.022162035 -0.0021054572 0.009937217
0001b0 42 27 c0 3c 47 37 35 3d 4f fa 15 3d 54 88 60 bc
       0.02345622 0.04424217 0.036615666 -0.013704378
0001c0 11 32 a0 bd 8f 05 b5 3c bf cf b8 3a 71 80 37 3c
       -0.078220494 0.022097377 0.0014099999 0.011200056
0001d0 63 e5 8b bc 0a b1 4d 3c 1d 08 40 3c c8 4b c7 3b
       -0.017077154 0.012554416 0.011720684 0.006082032
0001e0 e4 dd 8c bd e2 21 b5 3b 28 70 49 3d d0 1c 8a 3c
       -0.0687826 0.005527721 0.049179226 0.016859442
0001f0 2b d1 c3 bc eb c9 02 3d db 3e d3 bc 43 56 f0 3b
       -0.02390345 0.031930845 -0.025786808 0.007334502
000200 3d 56 c9 3b b2 f9 20 bc 50 49 5e bc 14 8a 03 bc
       0.0061443136 -0.009825157 -0.013567284 -0.008028526
000210 3f be 46 bd 71 7e 3d bd 76 18 b4 3b 85 88 15 bd
       -0.048521277 -0.046263162 0.00549608 -0.03650715
000220 54 2c 09 3d 85 99 09 bd 09 91 f9 3c 68 8f 4b bd
       0.03348954 -0.033593673 0.030464666 -0.04969731
000230 9f 83 a8 bc d1 67 3e 3d 19 4d a8 3c 6e bd 3f bd
       -0.020570574 0.046485726 0.020544576 -0.046811514
000240 94 08 d9 bb bc 2f 90 bc c3 c2 71 3c cf 88 32 bd
       -0.006623337 -0.017600887 0.0147559075 -0.043587502
000250 10 d4 3c 3d 1b 03 98 bc 34 7a 00 be cc 13 50 3c
       0.046100676 -0.018556168 -0.12546617 0.012700032
000260 8d 08 73 3d bc e9 a9 bc 35 44 42 3d 86 8d c6 bd
       0.059334327 -0.020741336 0.04742833 -0.09694962
000270 09 a2 84 3d 47 7c 2a bc 45 69 fe bd cd 23 2e bc
       0.06476218 -0.010405607 -0.12422422 -0.010628653
000280 47 8d 40 bd 61 66 ac bd 5f 0e 52 bd 35 69 a8 bd
       -0.047009733 -0.08417965 -0.051283237 -0.08223192
000290 ad eb dd 3c 4c b8 98 bc 53 41 1b bd 0e d4 c1 bc
       0.027089918 -0.018642567 -0.037904095 -0.023660686
0002a0 ac e8 0b bd 03 a2 c2 bd ea 89 b9 bb 5c 1d 17 bd
       -0.03415744 -0.095035575 -0.0056621926 -0.036893234
0002b0 9c f2 16 3d fc 8b de bb db b4 72 3c 43 d7 8f 3b
       0.036852464 -0.00679159 0.014813627 0.004389675
0002c0 7d 9f 75 bd 31 28 fb bc 3c de 70 bd f8 18 92 bd
       -0.059966553 -0.030658813 -0.05880569 -0.07133669
0002d0 47 e0 3f bb 01 f0 56 bd 55 b5 85 3c 0f 10 cf bd
       -0.0029277967 -0.05247498 0.016321817 -0.10110485
0002e0 91 2a 9a bd b8 cf 85 bd 8b ca 6a bd 41 ff d2 bc
       -0.0752765 -0.0653376 -0.057322066 -0.02575648
0002f0 e0 bb 25 bd 1d 6c 15 bd 32 fc 71 3c 8c ba a8 bc
       -0.040462375 -0.036480058 0.014769601 -0.020596765
000300 8d 1a 3b bc 41 1e 99 3c ed 45 82 bd bf d8 0f 3d
       -0.011419904 0.018691184 -0.063609935 0.035118815
000310 46 21 76 bd dd 1f 15 bc 41 f2 b8 ba ec c8 34 bd
       -0.060090326 -0.009101835 -0.0014110283 -0.044136927
000320 8e 95 37 bc 57 45 7e 3d 44 18 7c bd 47 c1 2b 3d
       -0.01120509 0.062077846 -0.06154658 0.04193237
000330 83 44 49 bc 33 7c ae bc 4e d3 41 3c 71 ae 0b bc
       -0.012284401 -0.021299457 0.011830164 -0.008525477
000340 77 a2 53 3a e8 f0 61 bc 68 a0 81 bd b0 ea 1a bc
       0.00080732204 -0.013790347 -0.06329423 -0.009455368
000350 1a 61 94 3d f5 21 3f 3d 64 0c 97 bc 85 02 e0 3c
       0.07245083 0.046663243 -0.018438525 0.027344951
000360 ef d6 7c 3c f1 43 81 bc 33 5f 7b bd d3 3b 0c 3c
       0.015432104 -0.015779467 -0.061370086 0.008559185
000370 f6 90 9b 3d 3c 5b ae 3b 0c 6e 1e 3d bb 86 07 3d
       0.075960085 0.0053209346 0.038679168 0.033087473
000380 56 d7 8f bd 02 de 85 bb 04 c5 86 bc 99 da 1b bd
       -0.07023494 -0.0040853033 -0.016451366 -0.038050268
000390 26 18 10 3c 91 a2 a6 bc 84 89 a1 3c 1c c3 8a bb
       0.00879482 -0.02034119 0.019718893 -0.0042346846
0003a0 22 6a 34 bd 98 e3 67 bd 23 b0 5d bd 37 00 a6 bd
       -0.04404653 -0.056613535 -0.054123055 -0.0810551
0003b0 29 7e 2d ba 93 01 31 bd 0c 15 aa bb e2 bb ff bc
       -0.00066182256 -0.043214392 -0.0051904973 -0.03121752
0003c0 f7 3b 07 bd 53 05 7c bd b0 d0 83 3b b1 6a ad 3c
       -0.03301617 -0.061528515 0.00402268 0.021169038
0003d0 bb 94 79 bc 5f 6f bf bc 9a f8 cd bd 28 04 ef 3c
       -0.015233214 -0.023368536 -0.100571826 0.029176787
0003e0 c9 c7 0e bd e0 bc 3d bd 1a 18 71 3c 9b da 8d bd
       -0.0348585 -0.046322703 0.014715219 -0.06926461
0003f0 54 2e b2 3d e9 a6 c7 bc 12 db 83 bd 0e f4 c3 3b
       0.08700243 -0.024371581 -0.06438269 0.0059800213

deconv2.0.bias f4 [16]
000000 ca d9 f1 3c a4 b7 76 bd 07 76 f6 3c 84 14 da 3c
       0.029522795 -0.060233727 0.030085577 0.02662111
000010 4c 5e 1e 3d c5 6a 66 bd 71 a6 46 3d 10 18 86 bc
       0.038664147 -0.056254167 0.048498575 -0.016368896
000020 eb f0 77 bd f5 be 53 3d 90 46 e0 3c 56 95 62 bd
       -0.06053249 0.051695783 0.027377397 -0.0553182
000030 79 c8 d1 3c 01 45 6b bc 0e e9 74 3c 0f 2a 85 3c
       0.025608288 -0.0143597135 0.014948143 0.016255407

deconv2.1.weight f4 [16]
000000 ad c4 73 3f f4 6e 81 3f 9b 85 80 3f 02 71 79 3f
       0.9522198 1.0111985 1.0040773 0.9743806
000010 87 16 7d 3f 5f 8e 72 3f 33 f4 72 3f d5 60 71 3f
       0.988625 0.9474849 0.9490387 0.9428838
000020 a6 10 77 3f b1 50 83 3f bf a6 76 3f f1 1c 8e 3f
       0.9650978 1.0259 0.96348184 1.1102582
000030 81 e5 7b 3f f1 2b 74 3f b1 aa 85 3f 2d 30 80 3f
       0.9839707 0.9537955 1.0442716 1.0014702

deconv2.1.bias f4 [16]
000000 26 6c 0c 3c 73 cb b8 3d 76 0a 61 3d 31 f7 5d 3c
       0.0085707065 0.0902318 0.054941617 0.013547705
000010 a8 52 b1 3c 20 85 7d 3c d4 89 ed 3c d2 11 33 bd
       0.021645859 0.015473634 0.028996386 -0.043718167
000020 26 56 71 bc 80 8e 09 3e d3 ee 02 3d a7 97 4a bd
       -0.014730012 0.13433266 0.03196604 -0.049461033
000030 c5 54 0b bd b5 ef df 3c 76 e4 35 3d b1 8c 94 3c
       -0.03401639 0.02733598 0.04440733 0.018133493

deconv2.1.running_mean f4 [16]
000000 c4 d8 36 bf 89 02 15 bf 78 71 93 be de f1 17 bf
       -0.7142451 -0.58206993 -0.28797507 -0.59353435
000010 0e 64 87 be 21 79 56 bf 8c 9d 06 bf 9c 13 cb be
       -0.26443523 -0.8377858 -0.5258415 -0.39663398
000020 f3 c2 33 bf 66 7f 53 bf f6 37 6d bf 31 b3 45 bf
       -0.70219344 -0.8261627 -0.92663515 -0.7722655
000030 b5 ff 21 bd 94 c7 78 be f5 89 51 bf f7 d2 68 bf
       -0.0395505 -0.24294883 -0.8185113 -0.90946907

deconv2.1.running_var f4 [16]
000000 29 e4 48 3f 22 08 60 3f 5e 81 65 3f 72 e1 2d 3f
       0.78473145 0.8751241 0.89650524 0.6792213
000010 8a 28 0a 3f 87 63 ba 3f dc 27 a7 3f 2c 67 36 3f
       0.5396811 1.4561623 1.3059039 0.7125118
000020 c2 68 0b 3f 04 51 0a 40 62 1c e7 3f 71 b6 fa 3d
       0.5445672 2.1611948 1.8055537 0.12241829
000030 7e 78 b2 3e b3 eb 97 3f 03 55 11 3f ba 38 49 3f
       0.34857553 1.1868805 0.5677034 0.7860218

deconv3.0.weight f4 [16, 8, 4, 4]
000000 3f 9d 67 bd 0a d0 9c 3c 1c 35 4c bc 0f 16 bd bd
       -0.056546446 0.01914217 -0.012463834 -0.09232723
000010 44 75 ae bd 80 90 51 bd 77 60 ab 3c 0e bc 95 bc
       -0.085184604 -0.051163197 0.020920021 -0.018278148
000020 48 cb 67 bd 89 8e ac 3c a4 06 b4 3c 11 4a 92 3d
       -0.05659035 0.02106406 0.021975823 0.07143033
000030 dd a1 7a bd db 9e 06 bd 0c 68 10 3d 4b 27 d0 bb
       -0.06118952 -0.03286634 0.035255477 -0.0063523403
000040 d1 bb f8 bb 36 80 1d bd d5 81 b8 3c 34 33 a7 3d
       -0.007590749 -0.03845235 0.022522846 0.08164063
000050 91 a6 15 3d 64 d1 e1 3c 80 74 66 3d ad ef b0 3c
       0.036535803 0.027565666 0.056263447 0.021598661
000060 c2 7f cc bb 7e 23 c2 3d ab 14 51 3d 10 49 25 3d
       -0.006240816 0.09479426 0.0510451 0.04035288
000070 cc f8 ba 3a 69 1f 8b 3d 4c e7 81 3d fe fe e5 bc
       0.0014264821 0.067931004 0.063429445 -0.028075691
000080 07 be 59 3d f2 9f 03 3d fb e5 e7 bc 19 62 81 3d
       0.05315974 0.032134958 -0.028307905 0.06317539
000090 f6 3a 4b 3d 37 bd 06 3e c0 95 6c 3c 70 11 e8 3c
       0.049616776 0.13158117 0.01444 0.028328627
0000a0 9c af a1 3c 88 ec 93 3d f2 63 5b bd d7 52 8c 3d
       0.019737057 0.07222849 -0.053562112 0.06851738
0000b0 4a 9c 72 3c 55 85 ec 3c 15 16 0b bc 47 aa 2a bc
       0.01480777 0.028872171 -0.0084891515 -0.010416574
0000c0 1e f9 e5 3c 18 dd bb 3d 9b d1 88 bd ed 1e 2d 3a
       0.02807289 0.0917303 -0.06680604 0.00066040346
0000d0 54 7b dd 3b 0e 33 15 bd 21 8b ec 3c f2 4e b1 3d
       0.0067590866 -0.036425643 0.028874936 0.08657636
0000e0 0d 98 11 3d 2f 13 ab 3d 79 cb c0 bc 49 27 9c 3d
       0.035545398 0.08353268 -0.023534523 0.076246805
0000f0 76 eb fc 3c b9 a6 fc 3c 75 25 97 3c 83 27 bf 3c
       0.030873995 0.030841218 0.018450478 0.02333427
000100 f7 fc 0b 3d fc bd 5c 3d d5 27 1d bc 7f ba 4c bd
       0.034176793 0.05389212 -0.009592016 -0.049982544
000110 af e3 0f 3d 13 ff 52 3c 58 8a 93 3c 36 0a 84 bd
       0.035129245 0.012878197 0.018010303 -0.0644726
000120 2c 6b 9f bc 11 35 24 3d 12 7f 0e bd ec 75 a1 3b
       -0.019460283 0.04008967 -0.034789152 0.0049273875
000130 4c 68 42 3b 32 4c 91 3c 7d 38 46 bc 40 e8 3f 3d
       0.0029664217 0.017736528 -0.012098429 0.04685235
000140 ca 3d 9c 3c d2 56 a5 bc 7e 63 fd 3a 2e d2 97 ba
       0.019072432 -0.020183 0.0019332019 -0.0011583024
000150 f8 7f 0d 3c d4 61 30 bc 1b 44 90 3c ff 75 90 3d
       0.008636467 -0.010765512 0.0176106 0.07053756
000160 3c 69 36 ba e6 26 33 3d 56 65 22 bd 07 3f d6 bb
       -0.000695843 0.04373827 -0.039647423 -0.006538275
000170 bd 7d 53 3d ab 54 3a 3c 6b 7d e8 3c e0 58 a9 3c
       0.051633585 0.0113727255 0.028380116 0.020672262
000180 94 05 e9 bc 0d da a4 bd 97 6c 00 bd 1b fd 7c bd
       -0.028445043 -0.080494024 -0.03135356 -0.061764818
000190 fc ef 36 3d 9c 75 29 bd 05 13 aa bb 49 ab 96 bc
       0.04466246 -0.041371927 -0.0051902556 -0.018392222
0001a0 a5 fc 03 3c cb b4 a6 3d a9 ce 06 3d 8a 02 e3 3b
       0.008055841 0.08139952 0.03291193 0.006927793
0001b0 7b ea 80 3b df c4 05 bd 27 cb b2 bc 69 e6 3d bd
       0.0039342023 -0.032658454 -0.021825386 -0.046362314
0001c0 50 88 25 3d aa 50 a1 3d 0d 34 09 3d fc 7c f9 3c
       0.0404132 0.078767136 0.033496905 0.030455105
0001d0 54 75 b1 3c b4 b1 ce 3d 00 5b 71 bd d5 c5 ee bc
       0.021662392 0.10092488 -0.058924675 -0.029147068
0001e0 82 25 44 3d 1a db 98 bd f1 f3 d1 bc 7e 5d 19 bc
       0.047887333 -0.07463665 -0.025629016 -0.009360669
0001f0 e6 d5 3c 3d 18 d2 67 3d ae c3 f8 bc 4a 66 1c 3d
       0.046102427 0.056596845 -0.030366745 0.038183488
000200 04 bf 4d bc 28 35 c1 3b d6 c9 81 3d 31 dd ba bd
       -0.012557749 0.0058962293 0.06337325 -0.0912422
000210 cc 6f 27 bd c6 f3 12 bd 67 7a 0e 3e 5a cf 4e 3d
       -0.040878102 -0.03587701 0.1391388 0.050490715
000220 fd 1e 8e 3c ad 3d 62 3c 68 35 07 3d 6b 09 14 bc
       0.01734876 0.01380865 0.033009917 -0.009035449
000230 01 b8 b3 bb fd 49 11 bd 0f 1e 53 3d 25 99 39 3b
       -0.0054845815 -0.03547095 0.051542338 0.002832004
000240 2d 95 4a 3d a5 7d c5 bd 82 06 ec 3a 64 ae 13 bd
       0.04945867 -0.096431054 0.001800731 -0.036054984
000250 25 cb e4 bc 1c b7 a0 bd 4f 52 c6 3d c8 73 44 bd
       -0.027928898 -0.07847425 0.09683668 -0.04796198
000260 b9 3b 85 3c 48 e8 13 bb 79 55 22 3c ea 0f 8d 3c
       0.01626383 -0.002256887 0.009908074 0.017219502
000270 0c f0 a8 3a 28 d9 42 3b af 8e 2f 3d 13 9d f9 3c
       0.0012888922 0.0029731486 0.042860683 0.030470407
000280 cd ad 23 3c d4 75 b1 3c f9 2a e5 3d 5d b9 27 bb
       0.009990168 0.02166263 0.11189837 -0.0025592663
000290 f3 41 1f bb 83 d9 d3 3b 19 08 28 bc 4d 97 5a 3d
       -0.0024300783 0.0064651384 -0.010255837 0.053366948
0002a0 66 79 88 bc f0 fc 0e 3d ac 74 ef 3a 1d 06 e3 bb
       -0.01665945 0.03490919 0.0018269024 -0.006928219
0002b0 7b 36 b0 bc af cb b8 bc f8 f4 f7 3c fe 16 6d bd
       -0.021510353 -0.022558061 0.030268177 -0.057883255
0002c0 f7 10 a0 bd 0d 34 07 bd 88 07 77 3d 90 fe 0a bd
       -0.07815736 -0.033008624 0.060309917 -0.033934176
0002d0 5a 60 a0 3d f8 1a 4a bd 47 9c 45 bd 20 aa 29 3d
       0.078308776 -0.049342126 -0.04824474 0.04142201
0002e0 83 16 4c bd 15 f9 09 3d 30 11 db 3d 8d 4d 57 3c
       -0.049826156 0.03368481 0.10696638 0.013141048
0002f0 2e f9 51 3d 48 83 47 3b d6 eb 4e bd 39 81 27 3d
       0.051263027 0.003044324 -0.05051788 0.04089472
000300 3d 8c 48 3d 3a 15 4b bb c7 70 a5 3c 4a f1 52 3d
       0.048961867 -0.0030987994 0.020195378 0.051499642
000310 8c a6 a2 3d e0 29 6a 3d 82 d6 0a bd a8 7e d5 3c
       0.079419225 0.05716884 -0.033895977 0.026061371
000320 c4 06 4c 3d 24 0e 1a 3d d4 02 0c 3d 12 91 e2 3d
       0.04981114 0.03761114 0.034182385 0.11062826
000330 45 06 0c 3c 10 75 05 bd 4b ee 36 3d 17 e3 80 3c
       0.008546417 -0.032582343 0.044660848 0.015733285
000340 6d 87 bc 3c f9 78 6a bd cf c1 17 bd 15 9c 7a 3d
       0.023013795 -0.057244275 -0.037050065 0.061184008
000350 f9 13 31 bd 62 73 33 3d 0a 51 fb 3d 9f 7b 00 3e
       -0.043231938 0.04381121 0.12271316 0.12547158
000360 a6 2e 27 3c cb b0 5c 3d b4 bc ec 3a 67 59 eb 3d
       0.010203993 0.05387954 0.0018061609 0.114916615
000370 4f d4 bd 3d eb e8 e5 3c 2b 59 ac 3d fe 55 f6 3d
       0.0926901 0.028065166 0.08415445 0.120281205
000380 e1 4f 0d bd 6e 28 b5 bd fb c7 9e bc ad a0 c8 3c
       -0.034500007 -0.08845602 -0.019382467 0.024490679
000390 30 2c 15 3d b8 f9 a8 3c 74 62 da 3d 84 21 6d ba
       0.036419094 0.020626888 0.1066331 -0.0009045827
0003a0 04 e8 d8 3c e8 ba e9 bc f0 f4 9b 3c 7f 00 9f 3c
       0.026477821 -0.028531507 0.019037694 0.019409416
0003b0 9c 4d 8e bb 0b 99 6a 3b 1d b4 db 3d 95 32 0e 3d
       -0.004342748 0.0035796787 0.10727713 0.034716208
0003c0 87 6c b3 3c 5e 22 44 3d 78 7b e0 bb 4b 05 54 3d
       0.021902336 0.047884338 -0.006850656 0.05176286
0003d0 bd 32 5a 3c 4d e0 7d bc 14 1c 9c bd 84 65 ac bd
       0.013317761 -0.015495372 -0.07622543 -0.084178
0003e0 2c c1 4a bd be 10 22 bc d9 f8 2a bd b8 07 84 bd
       -0.04950063 -0.009891687 -0.041741226 -0.06446785
0003f0 8a b6 64 bc d6 3c 38 bc 8e d4 c8 bd 9c b1 a1 bd
       -0.013959536 -0.011244973 -0.098061666 -0.078952044

deconv3.0.bias f4 [8]
000000 45 bd 90 bd e2 26 9d 3d ea 52 5b bd 3e 34 44 3d
       -0.0706735 0.07673432 -0.05354587 0.047901385
000010 06 52 d0 3c ed 9d 7f 3d d4 bf 06 3d 39 31 81 3d
       0.025429737 0.06240647 0.032897785 0.063082166

deconv3.1.weight f4 [8]
000000 da bc 9e 3f c7 de 9b 3f 83 6a 9c 3f 9f 73 9c 3f
       1.2401383 1.2177361 1.2220005 1.2222785
000010 a4 29 99 3f 88 55 9c 3f 27 fd 9d 3f f5 45 97 3f
       1.1965833 1.2213602 1.2342881 1.1818224

deconv3.1.bias f4 [8]
000000 51 ce 72 3e 14 53 58 3e f3 ab 5c 3e 07 de 5e 3e
       0.23711516 0.21125442 0.21549968 0.21764384
000010 8d 77 4b 3e 62 65 5c 3e 24 cd 6b 3e 0e 2b 40 3e
       0.19869824 0.2152305 0.23027474 0.18766424

deconv3.1.running_mean f4 [8]
000000 ee 5a 3a be 28 15 15 bd ea 6e a7 3d 05 b2 01 3e
       -0.1819875 -0.03639713 0.08175452 0.12665565
000010 39 c4 d0 3e dc 1f eb 3e 98 50 09 3d 07 fe ed bd
       0.40774706 0.45922744 0.033524126 -0.116207175

deconv3.1.running_var f4 [8]
000000 23 be 9f 3d 71 82 73 3d 7c 96 c4 3d 1a ba 8e 3d
       0.077999376 0.05945057 0.09599015 0.0696909
000010 c3 37 4a 3d c7 e0 80 3d 71 6e 9e 3d d7 7b 99 3d
       0.049369585 0.06292873 0.07735909 0.07494324
