03_hw/Pix2Pix/checkpoints/pix2pix_model_epoch_240.pth (torch, 99191 bytes, 32 tensors)

conv1.0.weight f4 [8, 3, 4, 4]
00000000: 80bd e2bd 2f97 f3bd b943 6fbd d074 48be
00000010: abb2 513d 9a9a e1bd 877d b8bc 1d5a 8e3d
00000020: c0c3 12be b5e8 46bd b971 2ebb ed89 183d
00000030: 28b1 70bc 1687 9d3d 8770 923d 759c 0bbe
00000040: c4fe 033e d248 413e e38e 653d e467 73bc
00000050: 99b8 f53c 2fec f8bc 9d3f a1bd 9511 573d
00000060: 817f ef3d 0ff8 4b3d edc6 253d 69b8 38bd
00000070: e740 8dbd 8d8b f93c 1521 85bd d323 283e
00000080: 5957 d5bd 30bd 323d a7dc 13be 2085 4d3d
00000090: 755a e2bd 5f6f d8bd c730 2fbb 47fd ebbd
000000a0: 4324 d73c 3dd2 c6bc 8533 e43a caa9 1bbd
000000b0: fba5 27bd 7600 3e3d ae65 963d 88d1 383d
000000c0: 799c 91bd 2fe6 8c3d a6f5 9bbc 2a85 9dbc
000000d0: 2595 a8bb 76bb e63d ff2d 0a3d e1e7 36bc
000000e0: a276 143e 466a b13d abfa cebd baaf 94bd
000000f0: 5972 0f3d 8e25 023e e7cc f6bc 538b a5bc
00000100: 5dc1 2dbb 2a10 0b3e 44f9 4a3c 00a6 aabd
00000110: 07d2 3abd bcea 9bbd 45c9 1f3d 6e1e fdbc
00000120: f70a fc3c 1539 0dbc f65d 173d 4841 01be
00000130: 55fa 803d 69a6 d9bc 8da4 793d 9d95 c23d
00000140: 9601 de39 b533 82bd 1f1e 433d 7b7d 06be
00000150: 823b 6cbd d980 a93d 5df8 94bd 2906 873d
00000160: adec cbbb abed a2bb fc2a 98bc 4af9 b03b
00000170: 8f45 7fbd d5bb bdbd 10dd ecbc 1550 c1bd
00000180: 6791 05be ae08 6e3d e390 213c 7da6 6bbd
00000190: 9b7f b03c 13d3 86bc c45e 853d 1a38 103e
000001a0: aa22 9bbd 2631 433d be37 debd 762b 4dbd
000001b0: aad7 163e 3a25 1f3d 2f97 1b3d 1a27 81bd
000001c0: d269 73bd fc90 a03b dcb0 c33d 815a e0bd
000001d0: 8172 0c3e 0990 dbbc 0076 e43b 5bbd 063e
000001e0: 56e3 d63c 30c4 8d3d 3aa6 bcbd 96bc e2bd
000001f0: 820e d03c ce13 243d f653 55bc 78d2 d43d
00000200: 50e1 debd 8d13 be3d 9067 b0bc 09d8 2f3d
00000210: d676 743c ecf8 893d 3825 ac3d 5b4f 84bb
00000220: bc04 8c3d 73eb 293e cc37 013e b2e8 a23d
00000230: 9cf7 c2bd 5ed1 0f3d b72b d93d 83f1 f83d
00000240: a55f 753d b3ff e43d 9c95 323e 0ef0 5a3d
00000250: ac42 2a3b 76ff 54bd 43da 3bbb 4eb6 55bd
00000260: 1326 163d 83af 8cbd 0c55 123e cd1e 65bd
00000270: d30d 5d3d f419 eb3d 7529 d63d ddf2 22be
00000280: df8b e1bd 671c ad3d 8e81 213e 3aaa c93c
00000290: 3b29 833d ce22 c23d f25f c7ba 7d51 33bd
000002a0: ce00 c5bd 0434 babd 78f1 893d 267f cc3d
000002b0: e661 b5bd 9604 6cbd 6c56 51bc 76e1 b4bd
000002c0: 8d0e ab3d 504d 31be 5172 b63c 759f f73c
000002d0: e452 61bd 1d32 e4bd bf01 2ebd f566 643c
000002e0: bf69 ecbd ce23 dd3d 59ac a0bd c7a2 e13d
000002f0: fb65 68bd 7996 21bd 7824 dbbd 4a29 ff3d
00000300: 0b10 b0bd dec9 0fbe 3b76 383d 5d08 413d
00000310: bdb0 093e 5b4c 9dbc 2846 40bb 4bf3 0bbe
00000320: e958 ba3d f0f1 d9bd 8815 b13d 652c 073d
00000330: 7379 553d 1385 46be 466d fbbd 1caa 17bd
00000340: 3138 a9bc a6db 803d 76b4 3d3d 6345 c83d
00000350: de48 bfbd a4ed 99bd faee ae39 7af0 b23d
00000360: 3213 f7bc 2e80 08be 79f2 46be d428 66be
00000370: 875b d2bd 903d 99bc 9f2a 45be 4e30 0b3d
00000380: b693 e03d da0e 733c 0913 813d c154 d8bd
00000390: 1749 903d 4fef 7bbd f7fd be3d 88c6 93bd
000003a0: 4884 6dbd 99d7 b33d 2008 60bd 56a5 883d
000003b0: 92e6 d03d cbdf fb3c 399c 2bbb 7c67 5cbd
000003c0: fa35 1e3d fcd8 edbd 2001 8dbd f1eb 2fbd
000003d0: 563a 61bd f82b c6bd 0e18 f83d f18c e93a
000003e0: ea37 ce3d f695 873c 8c89 c53d 829a e1bd
000003f0: 0576 25bd 18dc e03d 413c 003e c451 773d
-0.110713005 -0.1189407 -0.058414195 -0.1957581 0.05119578 -0.11015816 -0.022520794 0.069507815
-0.14332485 -0.04856177 -0.0026618077 0.03724091 -0.014690675 0.07691781 0.07150369 -0.13633902
0.12890154 0.18875435 0.05604447 -0.014856312 0.02999525 -0.030386059 -0.078734614 0.052507002
0.11694241 0.049797114 0.040472914 -0.045097742 -0.06897145 0.03046205 -0.065004505 0.16419916
-0.10417051 0.043637455 -0.14439641 0.050175786 -0.110524096 -0.10568117 -0.0026731954 -0.11522918
0.026262408 -0.024270171 0.0017410374 -0.03800372 -0.040929776 0.04638716 0.073436126 0.0451217
-0.07109923 0.068798415 -0.019038033 -0.019228537 -0.0051447325 0.11266224 0.03373527 -0.011163683
0.1449838 0.08662848 -0.10106405 -0.0726008 0.03502116 0.12709638 -0.030127002 -0.020208037
-0.0026512959 0.13580385 0.012388531 -0.08332443 -0.045610454 -0.076131314 0.039010305 -0.030898299
0.030766947 -0.008619566 0.036954843 -0.12622559 0.06297747 -0.026568608 0.060947943 0.09501193
0.0004234432 -0.063575186 0.047636148 -0.13133805 -0.05767394 0.08276529 -0.07273934 0.06592972
-0.0062232823 -0.00497218 -0.018575184 0.0054008113 -0.062322196 -0.09264342 -0.028914005 -0.094391026
-0.13043748 0.058113746 0.009861204 -0.057531822 0.021545222 -0.01645807 0.06512216 0.14083901
-0.07574971 0.047654293 -0.10850476 -0.050090276 0.14730707 0.03885386 0.037985977 -0.06306286
-0.05942709 0.004900096 0.095552176 -0.10954762 0.13715555 -0.02680208 0.0069720745 0.13158171
0.02623145 0.069221854 -0.09211393 -0.11071126 0.025397543 0.04005795 -0.013020506 0.10391706
-0.10882819 0.09281073 -0.021533757 0.042930637 0.014920911 0.06736931 0.084055364 -0.00403778
0.068368405 0.16593723 0.12618941 0.07954539 -0.09519884 0.035111777 0.10604041 0.1215544
0.059905667 0.11181583 0.17439884 0.05345159 0.002597968 -0.05200144 -0.002866403 -0.052175812
0.036657404 -0.06869414 0.14290255 -0.055937577 0.053968262 0.114795595 0.10457126 -0.15912957
-0.110130064 0.08452683 0.15772077 0.024617303 0.064043485 0.09479295 -0.0015211089 -0.043778885
-0.09619294 -0.090919524 0.0673551 0.09985189 -0.08856563 -0.05762156 -0.012776952 -0.08832066
0.08352385 -0.17314649 0.022271307 0.030227402 -0.05501069 -0.11142371 -0.042482134 0.0139405625
-0.11543607 0.10797845 -0.07845373 0.110173754 -0.05673788 -0.039450143 -0.10700315 0.12459047
-0.0859681 -0.1404185 0.04503463 0.047127116 0.13446327 -0.019201448 -0.0029338691 -0.13667028
0.090989895 -0.10641849 0.08646685 0.033001322 0.052117776 -0.19386701 -0.12276702 -0.037027463
-0.020656677 0.062918946 0.04631468 0.097788595 -0.0934007 -0.075160295 0.00033365918 0.087372735
-0.03016052 -0.13330147 -0.19428433 -0.22476512 -0.10271364 -0.018706113 -0.1925454 0.033981614
0.109656736 0.014835084 0.06302459 -0.105630405 0.07045191 -0.06150752 0.09325784 -0.07215601
-0.05798748 0.08781356 -0.05469525 0.0667216 0.10200228 0.030746361 -0.0026185645 -0.053809628
0.038625695 -0.11613652 -0.0688498 -0.04294962 -0.054987274 -0.09676355 0.12113963 0.0017818493
0.100692585 0.016551 0.096453756 -0.11015798 -0.040395755 0.109794796 0.12522985 0.060380712

conv1.0.bias f4 [8]
00000000: 7ae8 073e e84c 773b a6a7 0fbd 569e fe3d
00000010: bc70 913d 420a cd3d 18bd ddbd 37bd 35bc
0.13272277 0.0037735049 -0.03507199 0.12432544 0.071015805 0.10011722 -0.108270824 -0.011092476

conv1.1.weight f4 [8]
00000000: 03d2 803f 4b64 7a3f b7e5 7d3f 4787 753f
00000010: 1992 803f 7f78 763f 561d 823f aeeb 883f
1.006409 0.97809285 0.9917864 0.9590954 1.0044585 0.9627761 1.0165203 1.0696924

conv1.1.bias f4 [8]
00000000: ff89 3f3b f1df 43bd 7f17 efbc 0f6f 2ebb
00000010: 1d31 32bc 8009 9d3d c9f5 30bd a6cf be3d
0.002922654 -0.04782099 -0.029186008 -0.002661649 -0.010875967 0.076678276 -0.04320315 0.093169495

conv1.1.running_mean f4 [8]
00000000: 2cf2 523e dc83 eabc 97f6 cebd 9c43 773d
00000010: 7163 443e c16d 9b3d 985d e8bd 210b 21bc
0.20600194 -0.028627329 -0.10105627 0.06036721 0.19178559 0.07589293 -0.113459766 -0.0098293135

conv1.1.running_var f4 [8]
00000000: 2df8 633d 4914 623c d274 773e c341 c43c
00000010: 33eb 2a3e 2321 0e3d ce71 a43c 4ed3 f73c
0.0556566 0.013798782 0.24165657 0.023957139 0.16691284 0.03469957 0.020073798 0.030252125

conv2.0.weight f4 [16, 8, 4, 4]
00000000: c899 973d 71e9 cb3d a8f6 043d 927c 493d
00000010: 6c6a 9ebd d1d1 983d d861 42bd 5e2d 943d
00000020: dcdd 9cbd c1a8 8b3d 82b8 5b3d f0f2 8a3c
00000030: c05d e0bc 85e6 c8bd 5b44 cebd 09e3 a13c
00000040: c4e8 8cbc b5a9 ae3d 82dd 8b3d 1601 e4bc
00000050: 66f3 583d a3b3 9cbd 2c5f ff3c 7903 fcbc
00000060: b2a5 c23c 8e7b 2e3c 37ba 5ebd c5c5 d63c
00000070: b052 1a3d a52d f53c d349 c5bc ff9d b3bd
00000080: 410d 30bd fb57 9c3c 4071 303d 4026 1abd
00000090: d0cd adbd ffe9 91bc a400 fabb f815 403d
000000a0: 442e 0abd bd5f 88bd 117d 32bc 6681 cbbc
000000b0: 5d46 d2bd ba86 b9bd 3d8b 9abd 0cc0 bcbd
000000c0: bc02 483d 6961 b4bc f627 323d 6c31 813c
000000d0: fcbf e23c ead9 003d 5df9 51bd 6640 31bd
000000e0: f391 683b 456c d7bc 23a2 363c 3454 3a3a
000000f0: bd16 a33d d476 b1bc a1e1 18bb fcb9 0cbb
00000100: d6cd 803d 6777 d8bc 96e7 a93b 0499 413d
00000110: b62e 223d 92cb a33a 7366 cd3d 0a61 22bc
00000120: e19d 563d 3c6a 08bd 8098 a63d 0926 4e3d
00000130: 2b88 a0bd bb51 e3bc 4caf 60bd 787e 28bd
00000140: f483 a9bd b1c8 c1bd 6570 b43b a5cf 80ba
00000150: 03c7 79b9 4322 a4bc a423 183d b2a5 373c
00000160: 82e7 833b 3112 893d baf0 3f3d 1fa6 983d
00000170: 477d 59bb e798 273c 1394 91bd 435e 383c
00000180: c5c6 963d 15e2 73ba 42bb af3d c643 453d
00000190: c9c1 a33d e841 0a3d 05db a63c 83e3 3a3d
000001a0: e820 9abc 8c32 f23c 2cde 7abc a7ce 6d3d
000001b0: e2cf 01bc befd c63d be1b ea3c 8e06 b53d
000001c0: 4c45 19bc 75ed 993c c419 efbc 907c 3a3c
000001d0: cf05 1dbd e741 3ebb 56a9 f0bc 5500 febc
000001e0: 6348 983d 3a4c a73c ed5c 533d 99bb 443d
000001f0: 21a8 5c3d 02c6 a7bb aca5 7b3d 35a5 01bd
00000200: f57e f03c a19b 283c 7296 d8bc 57d0 66bd
00000210: 9cb7 3dbd aea0 91bd 3454 11bd 7d2b a23d
00000220: aaba 673d 0551 a53b 7590 8fbb 680d 973d
00000230: cae5 59bd 836a 20bb 0bf3 bd3d b495 41bd
00000240: 04b5 a73c 42a9 da3c a746 48bd 0eae 9fbd
00000250: 3c6f b7bd a7f2 4dbd 7327 acbd 2b47 10bd
00000260: 84f3 893c c814 3fbd c9ac 763d 2a77 f83c
00000270: 15fc 3c3b cc83 1abd 9d8d 9d3d 85bb e53d
00000280: c6a4 c1bd 8d72 cbbc 6fa1 8b3d bf3b a2bc
00000290: 87ec 8e3d 468d 163d 6eff 333d 7fbe 79bd
000002a0: 600a b53c adc4 2dbc 516f b0bd ce87 0f3d
000002b0: 361a 8b3c 4ffd 5fbd 49af 9d3c 0466 7d3d
000002c0: 1df9 b2bc 1524 bdbc 016f d23d ea22 90bb
000002d0: 17cb 45bd 7fd3 06bd 0fe0 4bbd fef3 e23c
000002e0: 18ba edbc dce0 8abd 0af4 9bbd 830b a63b
000002f0: 7961 8dbd 6942 43bb 8e86 0f3d d47e c5bc
00000300: db7e e7bc f3a0 82bd e686 a8bb e4b9 313b
00000310: d89d 97bc 6b69 2d3d 4b98 0c3d 59e8 56bd
00000320: 81e7 7abd b373 85bd 14d0 a1bd 471f 453d
00000330: 80b9 30bc 1727 f7bc 1f57 c43d 968b 12bd
00000340: a6d4 e0bc 4833 10bd 6088 96bd 5bef 54bd
00000350: 0783 0d3d 114e 23bd 7243 b9bd 956a f6bd
00000360: e003 9e3c 4414 3abd f8fe 03bd 6822 c3bc
00000370: f544 663c bf01 8bbd d2e1 2dbd 7abd 6c3c
00000380: bb36 d03c 9f2e 3a3c d54f dfbc 248c a23d
00000390: 9703 4e3d 9e1a 4abd 828d 32bd d6f3 9a3c
000003a0: 4008 afbd a6af 6dbc be85 33be 37b8 72bd
000003b0: cd77 903b 6994 95bd d346 b5bd 21de a53c
000003c0: 7c52 c03c 90db 73bd c966 eb3b 71cd 12bc
000003d0: a641 1cbe 31f0 10be 146f c7bd b842 983c
000003e0: 9bc8 f1bc ddc1 5bbe 0f73 01be 1f07 86bd
000003f0: daf8 5abc 374e c8bc b4da 83bd 71f8 1a3d
0.07402378 0.09956635 0.032461792 0.049191065 -0.07735142 0.07461894 -0.047456592 0.072352156
-0.07659504 0.06819297 0.053642757 0.016961545 -0.027388453 -0.09809593 -0.100716315 0.01976158
-0.017200835 0.08528463 0.06829359 -0.027832549 0.052966498 -0.076514505 0.031173311 -0.030763375
0.02376065 0.010649575 -0.054376807 0.02621735 0.037676513 0.029928992 -0.024083054 -0.0877037
-0.04298139 0.019084921 0.043076754 -0.037634134 -0.08486521 -0.017811773 -0.007629471 0.04689595
-0.03373553 -0.06658886 -0.010894076 -0.024841975 -0.10267327 -0.090589 -0.07546089 -0.092163175
0.048830733 -0.022019105 0.04349514 0.015770636 0.027679436 0.03145782 -0.051263202 -0.043274306
0.0035487383 -0.026296744 0.011147055 0.0007107884 0.07963321 -0.021663107 -0.0023327845 -0.002147316
0.0628926 -0.026424123 0.005185078 0.047265068 0.03959533 0.0012496582 0.10029306 -0.009910831
0.05239666 -0.033304438 0.08134556 0.050329242 -0.07838472 -0.027748933 -0.054854676 -0.041136235
-0.08277121 -0.09462107 0.0055065625 -0.0009827508 -0.00023820628 -0.020035869 0.037143365 0.011208938
0.0040254006 0.06692923 0.046860434 0.0745356 -0.0033186243 0.010229326 -0.07108321 0.0112529425
0.07362131 -0.0009303403 0.085806385 0.048160337 0.07995946 0.03375426 0.020368109 0.04562713
-0.018814519 0.029565118 -0.015311759 0.058058407 -0.007923098 0.09716366 0.028577682 0.08839141
-0.009354901 0.018789986 -0.02918709 0.011382237 -0.038335618 -0.002903098 -0.02937762 -0.031006018
0.07435682 0.02042209 0.051602293 0.04803047 0.053871278 -0.00512004 0.061437294 -0.031651694
0.029357413 0.010291011 -0.026438925 -0.056351032 -0.04631768 -0.07110725 -0.035480693 0.07918451
0.0565745 0.0050450587 -0.0043812343 0.07375604 -0.05319766 -0.0024477548 0.092748724 -0.04726191
0.020472057 0.026692037 -0.048895504 -0.0779687 -0.08956763 -0.05028024 -0.08405962 -0.03522412
0.01683975 -0.046650678 0.060223375 0.03033026 0.0028836776 -0.037723348 0.07693026 0.11217407
-0.09455256 -0.024834896 0.068179004 -0.01980388 0.06978708 0.036755823 0.04394477 -0.060972687
0.022099674 -0.010605973 -0.08614982 0.035041623 0.016980272 -0.054684933 0.019248622 0.061864868
-0.021847302 -0.023088494 0.102750786 -0.0043986933 -0.048289385 -0.032916542 -0.049774226 0.027704235
-0.0290194 -0.0678117 -0.07614906 0.0050672903 -0.06903357 -0.0029794222 0.03504043 -0.024108328
-0.028258732 -0.06378355 -0.0051430343 0.0027118856 -0.018507883 0.042336863 0.034324925 -0.052467678
-0.061255936 -0.065162085 -0.07901016 0.04812553 -0.010786414 -0.030170007 0.095869295 -0.03577765
-0.027445149 -0.035205156 -0.0735023 -0.05198608 0.034548786 -0.03986937 -0.09046067 -0.12032048
0.019288957 -0.045429483 -0.03222558 -0.023820117 0.014054527 -0.067874424 -0.042451687 0.014449472
0.025416723 0.011363654 -0.027259747 0.07936886 0.050296392 -0.04934179 -0.043591984 0.018915098
-0.085464954 -0.01450721 -0.17531487 -0.059257712 0.0044088126 -0.073036976 -0.08851399 0.02024752
0.023476832 -0.059535563 0.007183884 -0.008960114 -0.15259418 -0.14154126 -0.09737983 0.018586501
-0.029514601 -0.21460672 -0.12641548 -0.06544327 -0.013364995 -0.024451358 -0.06438199 0.03783459

conv2.0.bias f4 [16]
00000000: e74d b2bd e048 aa3d 9705 883d 3e60 44bc
00000010: 9399 10bd 587d da3b 9d69 13bd 116c 6fbd
00000020: 84df a7bc da5d 2c3d b222 72bd 39e2 07bd
00000030: 5364 32bd 4257 adbd 0afa 8c3d 7096 93bd
-0.08706265 0.08314681 0.06641691 -0.011985837 -0.03530271 0.006667774 -0.035989393 -0.05845267
-0.020492323 0.04208169 -0.05911512 -0.033174727 -0.043552708 -0.08463909 0.06883629 -0.07206428

conv2.1.weight f4 [16]
00000000: 5ceb 783f 2888 873f 1656 7b3f 31d5 7c3f
00000010: 1357 7d3f ddad 7a3f 2b21 803f 3553 833f
00000020: ebf6 743f 3c2b 803f f6d9 803f d17d 813f
00000030: b99a 8a3f d207 7e3f f127 803f 0a5b 803f
0.9723413 1.0588427 0.9817823 0.98762804 0.9896099 0.97921544 1.0010122 1.0259768
0.95689267 1.0013194 1.0066516 1.0116521 1.0828468 0.9923068 1.0012189 1.0027783

conv2.1.bias f4 [16]
00000000: ae80 0cbc c7a6 62bb 6b58 283c 0e7d 94bd
00000010: ff32 94bb 62d8 17bd 67a5 dcbc 9f99 08bd
00000020: b357 edbc 212e 9d3c eb27 2b3c 2a7e 7ebc
00000030: f8d4 09bd 7065 893c 1fb6 b03c c792 95bb
-0.0085756015 -0.003458427 0.010274987 -0.07250415 -0.004522681 -0.037071593 -0.026934339 -0.03334963
-0.028972482 0.019187035 0.010446529 -0.01553301 -0.03365037 0.016772002 0.021571217 -0.0045646164

conv2.1.running_mean f4 [16]
00000000: 69a5 b93d a1c8 4fbf 3df6 58be cffa 8b3f
00000010: b618 40be 71e4 3fbe 892f babc 0733 2f3d
00000020: 2d6d 29be 9e7b 2bbf 3cf3 95bb 4825 123f
00000030: d46a 65bd b642 eabe 8f7a 983d 9288 063e
0.090647526 -0.8116551 -0.21187682 1.0935916 -0.18759426 -0.18739487 -0.022727745 0.042773273
-0.16545554 -0.669855 -0.004576115 0.57088137 -0.056010082 -0.4575402 0.07445251 0.13138035

conv2.1.running_var f4 [16]
00000000: 4d0d 813e 1f5b b63e 126a 0c3f 970f af3e
00000010: dc6c 673e cf3a e53d d2c5 973d 727d 483e
00000020: 7d7d e83e d65c d53e 9038 393e 9888 5e3e
00000030: d69d c93e babf 6e3e 581b 6e3e 4275 883e
0.2520546 0.35616395 0.5484935 0.34191582 0.2260012 0.111928575 0.07410778 0.19579104
0.4540824 0.4167239 0.18087983 0.21731794 0.39378232 0.23315325 0.23252618 0.2665196

conv3.0.weight f4 [32, 16, 4, 4]
00000000: 251d b43c 25df 23bb 6b4f 6bbd 6b35 85bd
00000010: 4274 3dbd 5427 bf3a 41d6 be3b bd5a 51bc
00000020: a43f 16bd 9bb1 53bc 86c3 d8ba 0663 3bbd
00000030: 5bde 0ebd 28eb 023d afcd e13c b987 203c
00000040: a672 90bd 40df c3bc 8290 44bb c4f8 333c
00000050: 5e34 7cbc a305 e7bc 5ab3 1c3d 1817 1ebd
00000060: c3ce 31bd cc9b 82bd fa20 84bc f6ae 8a3b
00000070: be42 f6bc f908 153c a69f 36bd dddc 77bd
00000080: 87c9 4b3d 990b bdbb 0000 6dbb 6cac e13c
00000090: 1db5 823c 58b1 6fbc 97ca d73b e784 693d
000000a0: 4a84 063c b27c 303d 5260 553c 66ce e1bb
000000b0: a7b3 523b 0f75 863c 8475 a03c a921 3a3c
000000c0: 2a8d 77ba ba68 2ebc 7469 0dbd 2621 87bd
000000d0: 4da7 21bc 23fd 5f3d f0c4 05bd 2507 1dbd
000000e0: 0b7f b83c 9822 01bd 56e1 2ebd 3cba 5bbd
000000f0: 3f25 1c3d dd04 04bd 1e60 2f3d 1f48 7abd
00000100: bfcb 483d b68d 633c e32a dd3c 3835 d13c
00000110: bddc fc3b e329 fd3b f99b 123d 6115 4fbc
00000120: 4c75 ebbb 0c42 cdbc 0ad6 8bbc 7ce8 e23c
00000130: fa28 49bd b7e2 723d bedc 30bc ce25 d1bb
00000140: ca91 2fbb 2645 223d 2065 993c 7fbb 1fbc
00000150: 9896 e9bc 2440 183d 73f2 1a3c bce8 183c
00000160: 7959 753d 83df e5bc 705e 833c ee9d f73c
00000170: 181f 3cbb e9ee 4bbd 095f 88ba 4b8d 00bd
00000180: 09f4 893d 3a63 273d 3f17 13bc 276b 96bc
00000190: 9a21 d23c cd5d a9ba d575 48bd 99a9 5fbc
000001a0: ffa0 e93c ce66 80bd 50b1 82bd 8067 a5bc
000001b0: 254e 3b3d 997f abbc edef 29bd 5b9c 943c
000001c0: e96c 2e3c c27c 593d 3360 5abd 9f1d 77bd
000001d0: ffbb 7e3d 4d83 fabb fa96 4fbd 8c81 1cbd
000001e0: d8ab 85bd 9fc4 be3b 8b32 9bbd b64f e7bd
000001f0: ca0a 8cbb 0a4c 933d a3a6 3d3b b94c 61bd
00000200: 8b25 acbb a4b8 4fbd 8f33 efbc 9252 35bd
00000210: 63c9 1abc 5478 313d 7daa 78bc 7874 d1bc
00000220: d947 43bd c5a8 99bc 34d3 a4ba 6e07 51bd
00000230: c145 12bd 4862 e73c 189a 1c3c 5d85 9bbd
00000240: 13f1 a2bc 84a5 003d 36ee 2b3d 728e 33bd
00000250: cf24 e3bb 7185 5ebd b5e9 c8ba 0530 21bd
00000260: f6cf 5ebd da6c 45bd 2c4a 47bc c4a2 853d
00000270: c32e 593c 45af cd3c b98b 4cbd 4cb2 92bd
00000280: caca 3c3d 86fa a13d 319e ba3b 4c4e 193d
00000290: f868 93bc 9e8e 783c cc51 5abb 72eb 633c
000002a0: 5692 893d 89ad 323d d400 1e3d da85 0bbd
000002b0: 0cd4 2d3d 68c1 23bd e604 a53c c731 f13c
000002c0: 01af 483c 07e9 363d 1e0e 9d37 ef77 9abd
000002d0: 1b34 92bb 0d4b c03c deca a6bd 57f2 7abd
000002e0: bd43 893d 08eb dc3c 7d76 2a3d e9f3 a63a
000002f0: 0861 503d 721a 33bd 7e43 70bd b0f3 c23a
00000300: a498 22bd 4dea 303c b36d 403d 736d aabd
00000310: 92a2 f63c 8348 4fbc 5c23 1bbd 6aa0 afbd
00000320: 6b3c 9bbc 1ae0 b5bd d34a 2cbd a4b4 03be
00000330: c47f 66bd 0b6b 4e3d 004a 49bd c163 41bd
00000340: c445 573d 3496 203c 4953 133d b9ee 01bd
00000350: 15d9 a93c 661e 123b 8b16 b9ba 7b0f 01bd
00000360: 412e 083d 9846 073d 296b 123d 8277 5cbc
00000370: 44e9 93bc 40f8 97bd 1d52 183d 7bdd 2ebc
00000380: 32db 913d 26c4 623d 3105 23bd 29d6 fdbc
00000390: 2d06 d13c a630 42bd cc26 08bd f359 e73c
000003a0: e6cf 4c3c 5fc1 463d e09c 413d 93e7 4ebd
000003b0: 77a4 07bd 985a 3f3d f1ab 84bd 59d4 1bbc
000003c0: b173 e7bb 3a43 593c 8e64 bb3c 9cbc 623b
000003d0: b2e2 853d 6a6e d2bc 09e5 323d 45d7 343d
000003e0: 53c4 323d e5e6 443d 5349 93bd fa7e b2bd
000003f0: 9d71 02bd f715 9bbb fc99 6fbd f74b 78bd
0.021986553 -0.002500483 -0.057448786 -0.06504329 -0.04625345 0.0014583864 0.005823881 -0.012777981
-0.036681786 -0.012920762 -0.0016537763 -0.045748733 -0.034880023 0.031962544 0.027563898 0.009797984
-0.070531175 -0.023910165 -0.002999336 0.010984603 -0.015393345 -0.02820093 0.03825698 -0.038596243
-0.043410074 -0.06377372 -0.016129006 0.0042322828 -0.030061122 0.0090963775 -0.044585846 -0.060513366
0.04975274 -0.005769205 -0.003616333 0.027548037 0.015955502 -0.014629684 0.00658543 0.05701151
0.008210251 0.04308767 0.013023453 -0.0068910597 0.0032150538 0.01641324 0.019587286 0.011360564
-0.00094433373 -0.010645086 -0.034524396 -0.065981194 -0.009866548 0.05468477 -0.032658517 -0.03833689
0.022521516 -0.03152713 -0.042695366 -0.053644404 0.03812146 -0.0322312 0.042816274 -0.061103936
0.049022432 0.013888767 0.026997989 0.025538072 0.0077167437 0.0077259406 0.03579328 -0.0126393745
-0.0071856137 -0.025055908 -0.017069835 0.027698748 -0.049111344 0.059298243 -0.010794817 -0.0063826805
-0.0026789778 0.039616726 0.018724978 -0.009749292 -0.028514192 0.037170544 0.009457218 0.009332832
0.05989978 -0.02806068 0.016036242 0.030226674 -0.0028705057 -0.04978839 -0.0010404299 -0.031384747
0.06735999 0.040866114 -0.00897771 -0.018361641 0.025650788 -0.0012921632 -0.0489405 -0.013651275
0.028519152 -0.062696084 -0.06381476 -0.020190954 0.04572882 -0.020934867 -0.041488577 0.018140962
0.010646083 0.053097494 -0.0533144 -0.060330983 0.062191006 -0.007645047 -0.05068109 -0.038209483
-0.06526917 0.005821779 -0.07578 -0.112945005 -0.004273747 0.07192238 0.0028938435 -0.05500481
-0.005253499 -0.050713196 -0.02919939 -0.0442682 -0.009447428 0.043327644 -0.015177366 -0.025568232
-0.04767594 -0.018757233 -0.001257515 -0.051032476 -0.035711054 0.028245106 0.009558223 -0.075937964
-0.019890344 0.031407848 0.041975223 -0.04383702 -0.006931878 -0.05432648 -0.0015328439 -0.039352436
-0.054397546 -0.048199512 -0.01216368 0.06525186 0.013255778 0.02510799 -0.049937937 -0.07162914
0.046091832 0.07909112 0.0056951274 0.037428185 -0.017994389 0.015170721 -0.0033312915 0.013911115
0.067173645 0.043622527 0.03857501 -0.034063198 0.04243855 -0.03997937 0.020143937 0.029442681
0.012248755 0.044655826 1.8722432e-05 -0.07542407 -0.004461778 0.023473287 -0.081441626 -0.06126627
0.06702373 0.02696754 0.041616905 0.0012737486 0.050873786 -0.043726392 -0.058658116 0.001487365
-0.03969635 0.010798049 0.046979617 -0.08321657 0.030106816 -0.0126515655 -0.03787552 -0.085755184
-0.018949708 -0.088806346 -0.042063545 -0.12861878 -0.05627419 0.050395053 -0.049142838 -0.047214273
0.052556768 0.009801436 0.0359681 -0.031721804 0.020733396 0.002229595 -0.0014121098 -0.031508904
0.033247236 0.033026308 0.035746727 -0.013456227 -0.018055566 -0.07420397 0.037187684 -0.010672922
0.07121886 0.055362843 -0.039799873 -0.030985909 0.02551564 -0.047409676 -0.033240125 0.028241133
0.012500739 0.048524257 0.04726875 -0.050513815 -0.03311583 0.046717256 -0.06478108 -0.009511077
-0.007063352 0.013260657 0.022875097 0.0034597283 0.06537379 -0.025687415 0.043675456 0.04415061
0.04364426 0.04807176 -0.0719172 -0.08715625 -0.03184663 -0.004732843 -0.05849646 -0.06061932

conv3.0.bias f4 [32]
00000000: 7165 6c3c c128 6d3d 02d9 693c e5fb 71bd
00000010: ca01 863b c1a4 61bd 0cbe c1bc 35d3 793d
00000020: cf4d 0d3d 3199 aa3c 0f3f 73bc c068 fe3c
00000030: 8bb0 ff3c bcd0 edbb 60e6 7bbd e759 2c3c
00000040: fa26 02bd f44e 963c 3dea 403d f708 d23c
00000050: 2d32 3d3d 7a5f 503d 1b45 383c acf6 3f3d
00000060: 0990 3f3c 867d 26bd b10f 3ebc 866c 54bc
00000070: 86ef 7ebd b7b3 4fbd cacf 5cbd f4fc 743d
0.014428482 0.057900194 0.01427293 -0.059078116 0.0040895687 -0.055088762 -0.023650192 0.06099244
0.034498032 0.020825 -0.014846577 0.031055808 0.031212112 -0.007257549 -0.061499 0.010519481
-0.031775452 0.018348195 0.047098387 0.02563904 0.04619043 0.050872304 0.011246945 0.046866104
0.0116920555 -0.040647052 -0.011600421 -0.012965327 -0.062240146 -0.0507085 -0.0539091 0.059811547

conv3.1.weight f4 [32]
00000000: 4001 7d3f 99f6 7d3f 3ba4 803f a360 823f
00000010: 85ea 793f a620 7e3f e33c 7d3f f319 7c3f
00000020: a882 783f 5e48 813f 0eeb 7b3f f544 7c3f
00000030: ec7f 823f 5089 793f 8655 813f e904 823f
00000040: 5333 813f d42e 813f 259f 7f3f ce4d 7f3f
00000050: f353 7c3f 64c5 863f a02d 803f b7ae 803f
00000060: c7f8 7a3f e15d 793f a371 863f 0840 813f
00000070: 6c50 7d3f f24c 853f 53b0 883f 100e 813f
0.9883003 0.99204403 1.0050119 1.0185741 0.97623473 0.9926857 0.9892103 0.98477095
0.97074366 1.010021 0.9840554 0.9854272 1.0195289 0.9747515 1.0104225 1.0157748
1.0093788 1.0092416 0.9985221 0.99728096 0.98565596 1.0528989 1.0013924 1.0053319
0.98035854 0.9740887 1.0503429 1.0097666 0.9895084 1.0414107 1.067881 1.0082417

conv3.1.bias f4 [32]
00000000: 9862 7fbd 0945 c6b9 f2f3 15bc 1ce9 18be
00000010: 2b44 9abc 7259 bfbb 0337 e23c ae13 b93b
00000020: b6f0 843c 391f d3bb 43fd 313a 2a91 283d
00000030: eacd 683d 6084 b6bc 8558 b1ba 3756 eebc
00000040: 2563 803c caa0 41b9 8a2a 8dbb a8a7 76bd
00000050: 5dff bebb 9c8e 20bd 875f 503c 261a 4ebc
00000060: 3b2e 033b edac 3abc 6d24 a4bb fe1c 3f3c
00000070: 03a9 26bd 2d37 23bd fe8c 81bd ba6e a03b
-0.062349886 -0.00037816938 -0.009152399 -0.14932674 -0.018831333 -0.00583952 0.027614122 0.005648098
0.016228061 -0.006442931 0.0006789753 0.041154064 0.056837 -0.022279918 -0.0013530409 -0.029093845
0.015672276 -0.00018465813 -0.0043080496 -0.060218483 -0.0058287815 -0.039198503 0.012718088 -0.012579476
0.002001657 -0.011393768 -0.005009225 0.011664627 -0.040688526 -0.03984754 -0.0632572 0.004896012

conv3.1.running_mean f4 [32]
00000000: 8685 01bf edb5 23bf b312 b4bd 6ac9 c4bd
00000010: 1d21 b0be 2594 bb3e 3b11 99bd 9f73 61bd
00000020: bec5 01be 1d9c 87be 1406 42be 1e0d d2be
00000030: 43f8 febe a588 68bf 98fd c8be b8bc a9be
00000040: 27fc fcbe 568a 11be 6a67 463d f2b2 523e
00000050: 1742 15bf 6da8 2ebe 6cf0 adbe 225b afbe
00000060: 4775 273e 8f24 e3be ff36 b7be f507 13bf
00000070: ae14 0ebe 4800 323e f848 f1be d5ae 07bf
-0.50594366 -0.6394947 -0.08792629 -0.09608729 -0.34400263 0.36636463 -0.074739896 -0.055041905
-0.12673089 -0.26486292 -0.18947631 -0.41025633 -0.49798784 -0.90833503 -0.39255977 -0.33151793
-0.49411127 -0.14212927 0.048438467 0.20576075 -0.5830397 -0.17056437 -0.3397249 -0.34249216
0.16353332 -0.4436383 -0.35784146 -0.57434016 -0.13875076 0.1738292 -0.47125983 -0.5300115

conv3.1.running_var f4 [32]
00000000: f1b9 583e 7a5f 9c3e e3f2 143e 2e55 6e3e
00000010: 1ff8 8d3e bed0 703e af49 da3e c4c1 963e
00000020: baf9 fb3d 7326 9a3e 2cc7 873e 21c2 803e
00000030: abc9 db3e 3220 303e e05b 4a3e e1d0 173e
00000040: 0357 3e3e 30c2 2f3e 6687 233e f9c8 083e
00000050: c7e1 503e 9199 143e b2b7 8a3e ae07 873e
00000060: 6e02 5b3e 8d2f 6b3e 7f41 0f3e cb98 cf3e
00000070: af2a 743e e962 253e 1527 1c3e a24b 813e
0.21164681 0.30541593 0.14545779 0.23274681 0.27728364 0.23517129 0.4263434 0.29444706
0.12303491 0.3010746 0.26519144 0.2514811 0.42927298 0.17199782 0.1976161 0.14825775
0.1858788 0.1716392 0.15969619 0.13357915 0.20398627 0.14511706 0.27093273 0.26373047
0.21387646 0.22967358 0.13989829 0.4054626 0.23844407 0.16151012 0.15249284 0.25253016

deconv2.0.weight f4 [32, 16, 4, 4]
00000000: 6c8e 9dbd 4d77 123c a591 bcbc 358e 023c
00000010: 9197 16bd cf29 903c 86bd abbc aea2 2b3c
00000020: f5ca 25bd e474 1d3a 4695 2bbd f6e2 75bd
00000030: ca71 f1bc f62a 223d 588d 4ebd c200 0c3d
00000040: c18b a63b 17c5 76bc 73c2 b63c 3a06 b6bd
00000050: 4edd 09bd a0a7 ba3c 2908 ee3d 8aec 9c3c
00000060: ce98 f23c c89d d0bc 351f 5d3d e0b9 423c
00000070: f188 8ebd 5355 3c3d ca4a 343d 3627 b5bb
00000080: 3607 123d 739f fa3b bd00 443d c417 f63b
00000090: 5bce 043d 0788 3d3d 6db1 393b 8e6a bb3c
000000a0: 404e e03c 79e8 2c3d 5a69 103b 10e0 ea3c
000000b0: 77ec a93b c549 60bd 916c 203b 2014 a43b
000000c0: e048 c7bc f917 dd3c 7e3a 44bd afb8 133d
000000d0: 7b26 91bd ee24 c2bd 66ce d83d 521f adbc
000000e0: 2fc2 95bd ac2a 7a3c 8c99 8fbd 31b9 d4bb
000000f0: d21e 8cbc 8e9c e6bd 2f0e 953d 52f1 f7bd
00000100: 04d7 6f3c 0173 683d c1d2 abbb 8e62 2c3b
00000110: 8ff9 06bd c259 a7bd 39c5 22bd 1848 d3bc
00000120: f574 2cb9 015d 3c3d 9f0f f6bb e14b e63c
00000130: 6fba 8d3d a134 fb3c d116 7e3c c3e4 653c
00000140: 9bc3 c6bc 17a5 a73c 2f00 19bd 6d57 87bd
00000150: 1f61 5c3d 97eb c93c 79e6 463d e700 c0bb
00000160: 089c dd3b d8e2 ffbb 2575 86bd c33a a8bd
00000170: 32dc a9bc 674f 953c 207e e93c e2e4 413c
00000180: 8ea3 38bc 4220 3bbd 4ed7 9bbd a804 813c
00000190: 737d 713d 7b2f 97bd 0260 4e3c c555 9abc
000001a0: ea14 bbbc d015 8ebc f7d7 c4ba 6ab0 733c
000001b0: 8635 b23c 00fc 373d 04e8 0d3d 6ba2 54bc
000001c0: 8b3d 9bbd 293c ae3c d9c3 7b3a 55fc c53b
000001d0: 3c74 6ebc 3bcc f3ba 1460 9e3c e722 923a
000001e0: be3d 88bd e321 113a 020e 453d 2e77 803c
000001f0: 2006 b2bc 19fc fb3c ca4f 8cbc fd52 983b
00000200: 58de 14bb 9959 74bc 6dae 8cbc 2917 7239
00000210: a576 3cbd 8c16 5dbd 4d98 243c da30 05bd
00000220: 8be6 163d f13b 06bd a823 233d ec57 27bd
00000230: ae4b b2bc 9c4f 233d 61a8 bc3c cde6 1cbd
00000240: 8aab 19bc dbb4 59bc 2ae4 603c c633 23bd
00000250: 8ac6 263d d04a b7bc 8815 febd 0470 7d3c
00000260: d430 7e3d 1e51 85bc 11aa 6a3d 460e bfbd
00000270: 57ec 863d 6700 e3bb 1e18 e8bd 1fa2 1fbc
00000280: eaf3 32bd 3257 a3bd 72c2 45bd 8d08 a1bd
00000290: dfda d23c a3df 96bc cbc8 1dbd 211a b3bc
000002a0: e067 fcbc d64b b4bd fa2e 92ba 47fd ffbc
000002b0: 66de 183d 1d28 02bc 97da 613c b4e2 9c3a
000002c0: 0c6d 77bd ddfa eebc d761 4ebd 8c1f 95bd
000002d0: 2f2a 3abb f1a9 3dbd 76a5 8e3c 2784 c9bd
000002e0: 36af 8bbd 5b72 9dbd 3778 60bd 88ce a7bc
000002f0: ee31 2ebd 4ba0 babc a1f8 d43c 6ed8 65ba
00000300: fc1d 863b 9fc5 9e3c ca52 8fbd d549 213d
00000310: f2bc 70bd ded5 a7bc fa97 a63c 643a 6fbd
00000320: 7a6b bcbc 90c1 8c3d 0a6b 76bd 84e0 393d
00000330: b419 08bd cfad 11bd f9d5 b63c da48 d6bc
00000340: b02f 0dbb a5f4 7bbc 3bb7 87bd a6d0 15bc
00000350: 321a 963d bf2e 363d 54f5 77bc 3b6e e73c
00000360: 12fb 4c3c 980e 86bc 3e8f 83bd d2f2 273c
00000370: 509b 963d 1be5 9db9 f3e5 1d3d 0a2a d33c
00000380: eb1a 9ebd c3ff b1bb a11c a2bc a044 08bd
00000390: 2948 fa3b abef a4bc aab0 df3c 3521 bdbb
000003a0: 36f5 3bbd b6f2 6bbd 2247 4bbd c8a5 93bd
000003b0: e94d 1bbc 5109 36bd 54ba 0838 8840 0abd
000003c0: 2c80 0dbd 069a 7cbd 09d0 1dba e23d b93c
000003d0: 09e6 f0bb 2925 ddbc bc57 ccbd 896e 003d
000003e0: 7a8b 06bd 55c8 26bd 6b8f 533c 559a 81bd
000003f0: 7a86 963d fbe5 e1bc 0846 89bd e793 9039
-0.076931804 0.008939576 -0.023018667 0.007968475 -0.03676564 0.01759806 -0.020964395 0.010475798
-0.040476758 0.0006006493 -0.041890405 -0.0600309 -0.029473204 0.039591752 -0.050427765 0.03418041
0.005082578 -0.015061638 0.022309517 -0.088879064 -0.03365832 0.022785008 0.1162265 0.01915576
0.029613879 -0.025465861 0.05398484 0.011885136 -0.06959713 0.04597981 0.044016637 -0.005528356
0.035651408 0.0076484024 0.047852267 0.0075101573 0.03242336 0.046272304 0.0028334514 0.022877958
0.027381063 0.04221389 0.002203545 0.028671294 0.0051856595 -0.054757852 0.0024478773 0.005007282
-0.024326742 0.02698897 -0.047907345 0.0360648 -0.07087418 -0.094797 0.105862424 -0.021133099
-0.07312428 0.015268963 -0.070117086 -0.006491803 -0.01710454 -0.11260329 0.07278096 -0.12106575
0.014638666 0.0567503 -0.0052436297 0.002630386 -0.03295284 -0.08171417 -0.039738867 -0.025791213
-0.00016446768 0.045987133 -0.0075091864 0.028112354 0.06920325 0.030664744 0.01550837 0.014031592
-0.024263194 0.020464463 -0.03735369 -0.06608472 0.05380356 0.02464847 0.04855964 -0.0058594826
0.006762985 -0.0078090243 -0.06565312 -0.08214333 -0.02073488 0.018226339 0.028502524 0.011834355
-0.011269463 -0.04568506 -0.076094255 0.01574929 0.05895753 -0.07382103 0.012596132 -0.018839726
-0.022837121 -0.017344385 -0.0015017976 0.014873603 0.021754038 0.04491806 0.034645095 -0.012978177
-0.07580098 0.021268921 0.0009604074 0.006042043 -0.01455408 -0.0018600294 0.019332923 0.0011149318
-0.066524014 0.00055363605 0.048109062 0.01568183 -0.021731436 0.030759858 -0.01712789 0.004648565
-0.0022715535 -0.01491394 -0.017173016 0.00023087546 -0.046011586 -0.05397658 0.010046077 -0.03251729
0.036840957 -0.03277201 0.039828926 -0.040855333 -0.021764603 0.039870843 0.023029508 -0.038306046
-0.009379277 -0.013287748 0.013726274 -0.039844297 0.040716685 -0.02237454 -0.124064505 0.015468601
0.062058285 -0.016274031 0.057291094 -0.09328894 0.06588047 -0.006927538 -0.11332725 -0.0097432425
-0.043689646 -0.079756156 -0.04828114 -0.07862959 0.025739131 -0.018417185 -0.03852157 -0.021863045
-0.03081125 -0.08803527 -0.0011152916 -0.031248702 0.03732147 -0.007944134 0.013785026 0.0011969418
-0.06040673 -0.029172355 -0.050386276 -0.07281408 -0.002840649 -0.046304647 0.017412882 -0.09839659
-0.06820528 -0.07687827 -0.054802146 -0.020484224 -0.042528085 -0.022781512 0.025997462 -0.0008767907
0.00409293 0.019381342 -0.06998213 0.039377052 -0.058773942 -0.020487722 0.02033614 -0.058405295
-0.023000468 0.068728566 -0.060160674 0.04538013 -0.033227637 -0.035566147 0.022318827 -0.026157785
-0.0021543317 -0.015378152 -0.06626745 -0.009143984 0.07329215 0.044478174 -0.015134174 0.028250804
0.012511032 -0.01636438 -0.06423806 0.010250764 0.07353842 -0.0003011607 0.038549375 0.025776882
-0.07719978 -0.0054321005 -0.019789042 -0.03326857 0.0076379967 -0.020133814 0.02730592 -0.005771781
-0.04588815 -0.057604514 -0.049628384 -0.07209355 -0.009479024 -0.04444248 3.259846e-05 -0.033752948
-0.034546062 -0.061670326 -0.00060200744 0.022612516 -0.007351641 -0.026995258 -0.099776715 0.031355415
-0.03284786 -0.040718395 0.0129126115 -0.063282646 0.07349868 -0.027575484 -0.067028105 0.00027576016

deconv2.0.bias f4 [16]
00000000: 2ada f13c 52df 76bd c9d1 f63c 6ee9 d93c
00000010: 1474 1e3d 1b62 66bd f79d 463d 6a29 86bc
00000020: 84d1 77bd 7ac9 533d 6e3f e03c 2647 63bd
00000030: fe9f d13c cb97 6bbc ec4b 753c 8f13 853c
0.029522974 -0.06027157 0.03012933 0.026600566 0.03868492 -0.056245904 0.04849049 -0.01637717
-0.060502544 0.051705815 0.027373996 -0.055487774 0.025588986 -0.014379452 0.0149717145 0.016244678

deconv2.1.weight f4 [16]
00000000: b980 773f 002c 823f 5137 813f 04e8 7b3f
00000010: c6c4 7e3f 7c8e 733f 70f5 743f f820 723f
00000020: a53f 773f 1f5f 833f 9c9a 783f be0a 8c3f
00000030: 0e68 7b3f 159f 743f 4ff2 843f 6630 813f
0.9668079 1.0169678 1.0095006 0.984009 0.99519 0.9513929 0.9568701 0.94581556
0.9658149 1.0263404 0.97110915 1.0940778 0.9820565 0.9555524 1.0386447 1.0092895

deconv2.1.bias f4 [16]
00000000: 051b 113c 5971 c93d 1581 6f3d e976 973c
00000010: a6ed 263d da5d 863c e1e9 073d afb4 2cbd
00000020: 7d07 a6bc f549 023e a4f4 0e3d 0d07 1ebd
00000030: 9bed e9bc 4dc7 183d b926 473d 1750 be3c
0.00885654 0.098360725 0.05847271 0.018489318 0.040753983 0.016402174 0.03318203 -0.0421645
-0.020267243 0.12723525 0.034901276 -0.038580943 -0.028555682 0.037299443 0.048620913 0.02323155

deconv2.1.running_mean f4 [16]
00000000: 2a4b 26bf 854f 19bf 346a 90be 78a2 0dbf
00000010: 7ba5 9fbe d2a3 4fbf 447b 02bf ebb9 bfbe
00000020: ca27 23bf 4dd3 42bf abee 60bf 66c8 45bf
00000030: 7c4d 23be c1d7 96be f33e 5dbf b3f7 61bf
-0.6495844 -0.5988696 -0.28206027 -0.5532603 -0.3118094 -0.81109345 -0.5096934 -0.37446532
-0.6373259 -0.7610367 -0.8786418 -0.7725891 -0.15947527 -0.29461482 -0.8642418 -0.88268584

deconv2.1.running_var f4 [16]
00000000: b82d 343f bd7b 603f d9b2 5c3f 4d83 203f
00000010: 0350 243f 019d ad3f 350f 9f3f e08f 203f
00000020: b6ed 023f 95ea f63f 8625 ce3f a6e5 113e
00000030: 8b64 f63e a7ff a93f 612a 2d3f a9c5 3d3f
0.7038226 0.8768881 0.862104 0.6270035 0.6418459 1.3563539 1.2426516 0.62719536
0.5114397 1.9290339 1.6105201 0.1424776 0.48123583 1.3281144 0.6764279 0.7412973

deconv3.0.weight f4 [16, 8, 4, 4]
00000000: 9bb8 6abd b5e8 ad3c b244 8fbc 2410 b9bd
00000010: dd5a efbd f258 3cbd dc08 e33c 390c a8bc
00000020: 2e3e 64bd a119 ac3c 31ce bb3c e159 873d
00000030: 265f 58bd 647f 01bd 306e 383d f147 e1bb
00000040: 4d6e dcbb aeb0 30bd c89d 923c 3bc9 aa3d
00000050: c5b7 2f3d 3d31 043d d0ae 5c3d f084 9d3c
00000060: dfb2 13ba ff63 c43d f17c 583d f36e 3b3d
00000070: 00fc a23a a4d4 933d 9263 853d a46c 01bd
00000080: 9e33 663d b394 f23c f3e0 a6bb ac36 7e3d
00000090: cc23 533d 723a 113e 894e 363c 3908 083d
000000a0: 182a b13c 3daa 9d3d bc16 66bd 98fe 953d
000000b0: 76db 973c 03d2 f73c f9b1 2dbc 784e 40bc
000000c0: bd3b b53c c6af 9a3d 0516 6ebd da95 b63b
000000d0: ade2 e63a ebfe 34bd cff2 ee3c 31f7 cc3d
000000e0: efb8 0f3d c5a0 b33d c549 e6bc 099b a43d
000000f0: 0d2c fb3c 0f5c 0d3d 8da4 6c3c 7211 013d
00000100: 752c 283d 1ef3 733d 81a8 aebb 020e 55bd
00000110: ab63 163d f879 413c 78af 813c fbc2 81bd
00000120: 1db7 afbc 82e4 3d3d 139b 1abd fa61 b03b
00000130: 3e87 213a 3bba 4c3c f364 69bc 9a1e 2f3d
00000140: b14c ac3c 1433 e1bc 89de a03b 74c1 9c39
00000150: be50 223c c88f 5abc 68be bf3c 8b31 953d
00000160: 5aa8 32bb 20cc 403d 232d 2abd d6fa f6bb
00000170: 5e08 5a3d fe05 ca3c 2186 da3c f73c d03c
00000180: d3f1 c9bc 9c40 afbd 3f23 1abd 65a9 80bd
00000190: c73c 553d 7704 36bd 4374 06bc 0f29 bfbc
000001a0: 0697 1a3c e28a a63d 2c18 033d 10c6 173c
000001b0: b584 f03b 1393 e7bc 0064 c8bc ab0d 39bd
000001c0: 9af9 303d 56ca a63d 154b 123d cede 013d
000001d0: efb6 6a3c d99b dc3d 8eed 6fbd ae08 f2bc
000001e0: 131d 583d a159 95bd 8a74 dfbc de64 32bc
000001f0: 59b2 3d3d e510 763d 75af ebbc 5ec5 153d
00000200: 1376 86bc 4802 d53b 5c02 8b3d d3b1 c7bd
00000210: 19e4 79bd 3ea6 20bd 9d43 203e d331 633d
00000220: 4889 7c3c 430b db3c f08d 333d 28d5 71bb
00000230: 6690 31bc 004a 14bd 1b2c 4a3d 3da3 21bb
00000240: 7f57 4b3d 2b10 bcbd 5b1d 223a ab82 4cbd
00000250: ba39 dabc 3f31 a2bd 122b cb3d 3cd0 52bd
00000260: 918b 613c 2cc7 c33b f5a4 a43c e60e 9b3c
00000270: e6f2 473c 3f7a 44bb f68a 193d d209 de3c
00000280: c4c1 f03b 466d fa3c 3aec 0b3e 08f5 36ba
00000290: 50c6 b53a 21aa bd3b 574a 033a b98d 483d
000002a0: b7f5 96bc 6669 0f3d 3d8d 503b e04b 20bc
000002b0: 5cf1 f8bc f23c 7abc a7ae 243d 7163 5fbd
000002c0: 22dd aabd 866f 0fbd 963c 8a3d 6009 dcbc
000002d0: 10dc a53d eab4 47bd 0abb 39bd c98f 293d
000002e0: 1374 36bd cc0f 1a3d 1425 f43d f50f d03b
000002f0: 677a 4a3d 9c87 f2ba 99d6 57bd b4cc 0a3d
00000300: a673 513d e03f 2bbc 2fcd 063c d318 3f3d
00000310: b6de a13d 8291 513d a282 32bd 970e b43c
00000320: ac10 433d 0769 f73c 82f6 343c f87a d93d
00000330: 9afd 293c 3eb3 00bd a09a 3b3d b548 b13c
00000340: d683 c73c d381 3dbd f1da 32bd 9a79 6d3d
00000350: 6c00 4dbd 4cec 2d3d d1d3 003e 83f7 e43d
00000360: 92b7 4b3c bbd5 603d dbf6 caba 911d e33d
00000370: a474 b33d e229 963c 8549 c13d 3068 f33d
00000380: 8d42 25bd 5dcc bbbd e8f9 c2bc 5940 b43c
00000390: ec47 ea3c e167 b43c 98fb d03d bc8a 10bb
000003a0: 6dbb d93c 6cfe d5bc 6125 7f3c 2f6d 673c
000003b0: 95d4 24bc 816e c93b 28a1 d73d 4ddf 0d3d
000003c0: feb8 cc3c 6fb9 503d e5ec 9eb9 96ea 7e3d
000003d0: 3612 8a3c 17b7 0f39 2be8 98bd e921 b6bd
000003e0: 5e4e 5abd 7b41 873a ab6c 20bd eca7 57bd
000003f0: 5c1e 23bb e8f3 7cbb 696e c6bd f1f4 a4bd
-0.05730496 0.021229127 -0.017488811 -0.09036282 -0.11687253 -0.045983262 0.027714185 -0.02051364
-0.05572336 0.021008315 0.022925468 0.0660894 -0.052825116 -0.03161563 0.045026958 -0.006875031
-0.006727016 -0.043137245 0.017897502 0.08339163 0.042899866 0.03227352 0.05387765 0.019228429
-0.0005634259 0.09589385 0.05285353 0.045760106 0.0012434721 0.07218292 0.06513132 -0.03159775
0.05620157 0.029611921 -0.005092734 0.062063858 0.05154781 0.14182451 0.011127123 0.033210967
0.021626517 0.07698486 -0.056174025 0.073239505 0.018537264 0.030251509 -0.010601514 -0.011737458
0.022123212 0.075530574 -0.05812647 0.005572063 0.0017615162 -0.04418842 0.029168515 0.100080855
0.035088476 0.08770899 -0.028111348 0.08037383 0.030660653 0.034511622 0.014443529 0.031510778
0.041058023 0.059558026 -0.005330146 -0.052015312 0.036716145 0.011808865 0.01583074 -0.06336018
-0.02144962 0.0463605 -0.037745547 0.0053827735 0.0006161815 0.012495573 -0.01424526 0.042753793
0.021032663 -0.027490176 0.0049093408 0.00029898772 0.009906946 -0.013339944 0.023406222 0.0728484
-0.002726099 0.04706967 -0.041546952 -0.007537226 0.053230636 0.02466106 0.026675286 0.025419695
-0.024651444 -0.08557245 -0.03763127 -0.062823094 0.052059915 -0.04443785 -0.00820643 -0.023335008
0.009435421 0.081319585 0.032005474 0.00926353 0.0073400387 -0.028268373 -0.024461746 -0.04517905
0.04320679 0.08144061 0.035716135 0.031706624 0.014325841 0.10771913 -0.05857616 -0.029545154
0.052762102 -0.07292486 -0.02727725 -0.010888306 0.046312664 0.060074706 -0.028770188 0.036565177
-0.016413724 0.006500516 0.067875594 -0.09750714 -0.061008547 -0.03922104 0.15650792 0.055467438
0.01541359 0.026738768 0.043836534 -0.0036900733 -0.01083765 -0.036203384 0.04935847 -0.0024663948
0.04964399 -0.09182771 0.0006184184 -0.049929302 -0.026638854 -0.07919549 0.099203244 -0.05146812
0.013766185 0.005974671 0.020098189 0.018928003 0.012203908 -0.002998009 0.03748604 0.027104292
0.0073473174 0.030569684 0.13664332 -0.00069792615 0.0013868306 0.005788103 0.0005008331 0.048963282
-0.018427713 0.035012625 0.0031822466 -0.009783715 -0.030388527 -0.01527332 0.040205624 -0.054538194
-0.08342959 -0.035018466 0.06749837 -0.02685994 0.08098614 -0.048756517 -0.04534439 0.04139689
-0.04454429 0.03761272 0.119211346 0.0063495585 0.04943314 -0.001850355 -0.05269489 0.033886626
0.05113568 -0.010452241 0.0082276305 0.046654534 0.07903807 0.051164158 -0.043581612 0.021979613
0.04762332 0.030201448 0.0110451 0.106191576 0.010375405 -0.03142094 0.04580176 0.021641115
0.024354856 -0.04626639 -0.04366583 0.057977296 -0.05004923 0.04246168 0.12580802 0.111800216
0.012433903 0.05489133 -0.0015484946 0.11089624 0.08762482 0.018330518 0.09437851 0.118851066
-0.04034667 -0.091698386 -0.023800805 0.02200334 0.028598748 0.02202219 0.10204238 -0.0022055348
0.02657863 -0.026122294 0.015572877 0.0141251525 -0.010060449 0.0061472063 0.10528785 0.034636784
0.024990555 0.050958093 -0.0003031261 0.062235437 0.016854387 0.00013705749 -0.074661575 -0.088931866
-0.053297393 0.0010319197 -0.039166134 -0.052650377 -0.0024889922 -0.0038597528 -0.09689028 -0.08054531

deconv3.0.bias f4 [8]
00000000: 8f91 93bd af5b 9b3d a5ec 5cbd b29e 413d
00000010: 766c d03c 5ce6 803d cc52 043d 60fe 803d
-0.072054975 0.07585847 -0.05393662 0.047270484 0.025442343 0.062939376 0.032305524 0.06298518

deconv3.1.weight f4 [8]
00000000: f72a 9c3f 9592 993f 9621 9a3f 511a 9a3f
00000010: f0fc 963f c68b 993f e165 9b3f 2e58 953f
1.2200612 1.1997858 1.20415 1.2039281 1.179594 1.199578 1.2140466 1.1667535

deconv3.1.bias f4 [8]
00000000: d86e 5d3e ba68 463e 644e 4b3e b483 4c3e
00000010: 7ec0 3b3e d8dd 473e 00c4 573e 98f4 2f3e
0.21624315 0.19375888 0.19854122 0.19972116 0.18335149 0.1951822 0.21070862 0.17183149

deconv3.1.running_mean f4 [8]
00000000: 0bc9 16be 53d8 243c e3a5 283e 139f 2c3e
00000010: 0ea7 c83e 83e7 f43e 4dc0 363d 62a8 0ebd
-0.1472513 0.010061341 0.16469531 0.16857557 0.39189953 0.4783288 0.044616986 -0.03482855

deconv3.1.running_var f4 [8]
00000000: 9c42 9f3d 523a a13d e654 fa3d bb86 ce3d
00000010: 54c3 783d 6aa8 a93d 99a9 cc3d 83ec d03d
0.077763766 0.07872452 0.12223224 0.100842915 0.060733154 0.082840756 0.09993286 0.10201361

deconv4.0.weight f4 [8, 3, 4, 4]
00000000: 7efc 34bd f607 b13d ed5d 0c3e de05 953d
00000010: 3b4e 1dbd 9549 a43d 0f03 bc3d 20d5 943c
00000020: d500 1d3c c9be 203e 0bbe e53d 9584 72bd
00000030: 9483 77bd 768c cf3c 9af2 4a3e 7de6 263b
00000040: 3836 82be ce83 87be 29a3 4fbe 4cb1 fcbc
00000050: 43ae a0bd cacb 15be c6a5 80be ffa4 11bc
00000060: 7841 cfbd 9d3e 66be d35d f0bd a341 9bbc
00000070: 0cda 8ebd 2050 c3bd dffd 82be e9ba a2bd
00000080: b69a 77bd e9f6 c7bd ff7c 0cbe a351 2abe
00000090: 4426 05be fc5b ffbd 5290 85be 9274 6abd
000000a0: 8c8f 74be f9ff febd cea4 89be 99a0 15be
000000b0: ece8 1fbe 5203 63be c235 13bd 64e5 47be
000000c0: 6080 3c3e f169 cbbd b516 07bd c9fe c5bd
000000d0: a4ae 093d 96a0 2bbc 99af fd3d 2637 803d
000000e0: ca70 7fbd 4f0e 013e 4f25 083e 0904 293e
000000f0: 41a3 4c3e 2fbb ca3d d2b3 efbb 927c 47bd
00000100: 94bd 21be 7da3 7abe 2735 97bc b592 86be
00000110: 1d82 d8bc 19e3 75bd 2147 debd 187b 2bbe
00000120: 5906 83be abc8 5abe b20f 5abe c7aa e1bd
00000130: eca0 a93b b535 2bbe 216c 19be a332 12be
00000140: 7879 0fbe 03b5 cabd 0f00 39be 084a 20be
00000150: 0dfa dabd ecc8 34be 5a22 87be b17e 81be
00000160: d493 acbd 02fc 92bd ccff 82be 6c93 2bbe
00000170: 138e 34be 74dd 50be 572f 12be 62e8 84bd
00000180: d8ba e73a b856 afbb b2ed 9d3d 7c80 0a3e
00000190: a8cf 393e c21c 1d3e f330 413e 190c 233e
000001a0: 6d4a 493c dd51 103d 3d4f 463e babd e63c
000001b0: 4872 a4bc 7eda 913d 2eb5 e83d 70eb 4bbb
000001c0: 1662 8cbe bd99 28be 1c69 61be d768 b2bd
000001d0: 3960 b2bc 0d05 d4bd 506a 28be e7d3 16be
000001e0: 13a4 67be 66b4 87be 9b0a 6fbc cc85 c8bd
000001f0: 39f9 21be f2c7 34be 5c64 2fbd aca4 8fbe
00000200: 4475 80bd bf04 6abe 1313 b0bd e629 a9bd
00000210: da9d 0dbe 8ded c0bd 4012 7fbe 0b65 84be
00000220: 2e9a c4bd a565 70bd 4fd5 e3bd 95e7 e0bd
00000230: 5376 babd 4deb fe3b 7316 97bd 46e1 14be
00000240: afac 533e cd31 4f3d e3c3 183d 4b0b b93d
00000250: 1dc4 493d 40ae 9b3d fa85 c93c d1d9 473c
00000260: b878 f83d 42ae 223e 89cd 323d 4570 cd3d
00000270: 4162 1d3e 98b0 1d3d d862 f33c 09c6 293b
00000280: 5154 36be d03f 31be dfe9 46be f143 31be
00000290: dce9 a5bd 8afc 48be 94d1 11bd 27c8 f4bd
000002a0: 6bb5 2dbe 33cb f5bd 78ee ddbc 31da 88bd
000002b0: f5ca 84be afaf 5bbd 879a 0fbe 9aa7 2abe
000002c0: 431c 80be 3d78 31be 8c49 7ebe 4f82 65be
000002d0: 5381 01be 4fdc dabc cb5c 2bbe f051 a5bd
000002e0: 182c 00be a6e1 8cbe b27a 4abb 5f76 bdbc
000002f0: 93d0 76be 343e 24bd cc5a 96bd 097f 84be
00000300: 5efe 613e 6007 3f3e 02b9 603e df1e 683d
00000310: d227 233e 46fa e93d 4eb5 1e3d 35f9 063e
00000320: 8eea 023e 2e2f 4d3c ddbc acbc 4311 483e
00000330: a168 663e 73bb 7a3e b455 893d 038f aa3d
00000340: e227 5bbe 731b e4bd f92d 543c bd90 79be
00000350: 089c 64be ffa5 8abe 9db8 8ebd 69f6 5ebe
00000360: ae53 46be d432 c5bc dc4a dbbd 0e74 3bbd
00000370: 5611 4ebd a90b 87be efe2 5cbe b87b 39be
00000380: cd4a bdbd 3394 7fbe 4139 41be bd5e 30be
00000390: 653e 22bd a375 5dbe acaf cabd acb6 4bbe
000003a0: fd8a 82be 2fde 83bd 96b8 68bc 41a5 3cbe
000003b0: e3b9 7fbd a945 05be 2797 b0bd 3481 eebd
000003c0: 4510 513e b18e 343e 1bd4 a03d 9b8b 613e
000003d0: 6169 953d f296 d13d 3daf d03d 1fa5 6dba
000003e0: 13c5 a4bc 9a00 a5bc dd71 a03d bd25 1e3e
000003f0: f1b0 463e 7992 2e3e 275b 4cbc 72f7 8f3c
-0.044186108 0.086440966 0.13707705 0.0727651 -0.038404685 0.08021847 0.09180271 0.018168032
0.009582718 0.15697779 0.112178884 -0.05920847 -0.060428217 0.025335532 0.19819108 0.0025466972
-0.2543199 -0.26467746 -0.20277084 -0.03084626 -0.07845738 -0.1462852 -0.25126475 -0.008889436
-0.10119909 -0.22484823 -0.117366455 -0.018952196 -0.06975183 -0.09536767 -0.25584313 -0.079458065
-0.06045028 -0.09763891 -0.13719557 -0.16632704 -0.13002878 -0.124687165 -0.2608667 -0.057240076
-0.23882884 -0.12451167 -0.26883548 -0.14612044 -0.15616196 -0.22169235 -0.03593994 -0.195211
0.18408346 -0.09932316 -0.03298064 -0.09667737 0.033613816 -0.010475298 0.12387008 0.06260519
-0.062363423 0.12603115 0.13295482 0.16505446 0.19984151 0.09898984 -0.0073151374 -0.048702784
-0.15794975 -0.24476428 -0.018457962 -0.26283804 -0.02642923 -0.06003103 -0.108534105 -0.16746175
-0.2559078 -0.21365611 -0.2129505 -0.11018901 0.005176654 -0.16719706 -0.14982654 -0.14277129
-0.1401118 -0.098978065 -0.18066429 -0.1565324 -0.10692225 -0.1765477 -0.26393396 -0.2529197
-0.084266335 -0.07176973 -0.25585783 -0.16755456 -0.17632322 -0.20396978 -0.14275871 -0.06489636
0.0017679585 -0.005350914 0.077113524 0.13525575 0.18145621 0.15343001 0.18866329 0.15922584
0.012285811 0.03523432 0.19366165 0.02816664 -0.020074025 0.07121752 0.11362682 -0.0031115673
-0.27418584 -0.16464897 -0.22012752 -0.08711403 -0.021774398 -0.10352526 -0.16446805 -0.14729272
-0.22621183 -0.2650482 -0.014589931 -0.09791145 -0.15817727 -0.17654398 -0.04282032 -0.28055322
-0.06272367 -0.22853373 -0.08597388 -0.082599446 -0.13829747 -0.09420309 -0.24909306 -0.2585834
-0.0959972 -0.058690686 -0.1112467 -0.10981671 -0.091046 0.007779515 -0.07377329 -0.1453906
0.20671342 0.050584603 0.037296187 0.09035357 0.049259294 0.07601595 0.024600018 0.012197928
0.121324 0.15886787 0.043653045 0.10031179 0.15369512 0.03849849 0.029710218 0.0025905392
-0.17805602 -0.17309499 -0.19425152 -0.17311074 -0.08101246 -0.19627586 -0.03560026 -0.119522385
-0.16963737 -0.12001648 -0.02709125 -0.06682242 -0.25936094 -0.05363434 -0.14023791 -0.16665497
-0.25021562 -0.17331024 -0.24832743 -0.2241299 -0.1264699 -0.02671638 -0.16734616 -0.08072269
-0.1251682 -0.27515906 -0.0030895886 -0.023127733 -0.24103002 -0.040098384 -0.07341537 -0.2587817
0.2206969 0.18655157 0.21945575 0.056670066 0.15933159 0.11424689 0.038747124 0.13181002
0.12784788 0.012523456 -0.02108615 0.19537835 0.2250085 0.24485569 0.067058 0.083280586
-0.21401933 -0.11138048 0.012950414 -0.2437162 -0.22325146 -0.2707977 -0.06968806 -0.21773686
-0.19367859 -0.024072088 -0.10707638 -0.045764975 -0.0503095 -0.26376083 -0.21570943 -0.18113601
-0.09242783 -0.24958877 -0.18869497 -0.1722364 -0.039610285 -0.21626906 -0.09896788 -0.19893903
-0.25496665 -0.064388625 -0.014204165 -0.18422414 -0.062433135 -0.13014854 -0.0862258 -0.11645737
0.20416363 0.17632557 0.07852956 0.22025912 0.0729549 0.10233869 0.10189674 -0.00090654375
-0.020113504 -0.020141888 0.07834218 0.15444084 0.19403435 0.17048062 -0.012472904 0.017574046

deconv4.0.bias f4 [3]
00000000: 5077 afbd 055e debb 98e7 67bd
-0.08567679 -0.0067861103 -0.05661735
