03_hw/Pix2Pix/checkpoints/pix2pix_model_epoch_360.pth (torch, 99191 bytes, 32 tensors)

conv1.0.weight f4 [8, 3, 4, 4]
-0.10385306 -0.11655893 -0.05595048 -0.1889468 0.0558786 -0.10633607 -0.022050032 0.063861564
-0.14202078 -0.046351764 -0.0026070108 0.039541546 -0.019578137 0.074598595 0.071202725 -0.13621533
0.13189627 0.18753867 0.055344306 -0.01000916 0.03299966 -0.02840908 -0.07846894 0.04997356
0.11820532 0.051942576 0.040818833 -0.042130787 -0.07231757 0.029330827 -0.06460398 0.16541019
-0.104400165 0.040578905 -0.14685106 0.05174308 -0.11048828 -0.10678627 -0.004703251 -0.118801944
0.026189167 -0.024086885 0.0005189258 -0.0367708 -0.044221878 0.044784352 0.07332057 0.04583603
-0.07027973 0.06903048 -0.018940562 -0.018844921 -0.0043575186 0.1130687 0.033823825 -0.011491696
0.14563774 0.08735668 -0.100119494 -0.07270248 0.034822162 0.12719844 -0.029844005 -0.021174962
-0.0024301545 0.13519876 0.011615995 -0.083884366 -0.0454026 -0.076529294 0.03823144 -0.03223552
0.030925358 -0.008580061 0.037165195 -0.12717824 0.062358063 -0.027040364 0.06061691 0.09335391
0.0016468712 -0.063190274 0.047903582 -0.1304113 -0.056827817 0.082983874 -0.072878726 0.06551809
-0.0057579214 -0.004628448 -0.018019274 0.004968178 -0.06271744 -0.09292701 -0.028959166 -0.09567215
-0.13057394 0.05619394 0.01218195 -0.05701517 0.017360704 -0.020944754 0.064467855 0.13967162
-0.07603282 0.04620223 -0.110756256 -0.04951449 0.15167634 0.03581051 0.03947428 -0.057120558
-0.057426672 0.003051224 0.09965487 -0.111389995 0.1341317 -0.030539567 0.010447587 0.13040964
0.030258657 0.070796676 -0.0927569 -0.10783029 0.03418705 0.033065114 -0.008162814 0.11426866
-0.10399968 0.09373806 -0.016816664 0.04031096 0.01770142 0.0659084 0.089610316 -0.009016279
0.07530747 0.16850698 0.12379266 0.07984887 -0.09052004 0.029316561 0.1042748 0.12194525
0.060346372 0.112916335 0.17325598 0.051168825 0.0040651443 -0.051034495 -0.0017529252 -0.05116849
0.03791989 -0.067343295 0.1435601 -0.056820396 0.05334643 0.11389946 0.10343362 -0.15860346
-0.10968561 0.08563626 0.15571178 0.02488838 0.06631962 0.09653452 -0.00047001205 -0.040766425
-0.09405243 -0.08881177 0.06817327 0.10057689 -0.08750038 -0.057333477 -0.013532242 -0.086224064
0.081050865 -0.17520568 0.0183686 0.030664533 -0.055542048 -0.112277955 -0.043090563 0.016923103
-0.115595825 0.108230725 -0.078817494 0.11087681 -0.057776142 -0.04081888 -0.1083113 0.12708877
-0.08971244 -0.14006507 0.041763768 0.048283394 0.13567603 -0.01633852 -0.0011410402 -0.13803917
0.092540756 -0.08915533 0.1023534 0.042840384 0.046861243 -0.18456723 -0.103912175 -0.027710145
-0.02412347 0.06168992 0.041593984 0.09565804 -0.0937272 -0.07611139 -0.002412948 0.082342744
-0.03186678 -0.13122854 -0.19573139 -0.22927248 -0.10838743 -0.02072573 -0.19536592 0.030815864
0.10965107 0.016203718 0.061694723 -0.10536962 0.07244489 -0.060080763 0.09327655 -0.07448196
-0.057177458 0.09045506 -0.054116555 0.06439913 0.09893575 0.029795742 -0.004614462 -0.057085123
0.038762014 -0.11567777 -0.06844486 -0.041861918 -0.056471128 -0.09668762 0.11968181 -0.0007870424
0.10045572 0.015617404 0.095271274 -0.11249814 -0.039417952 0.108640395 0.12560214 0.056655284
00000000: eab0 d4bd 73b6 eebd 552c 65bd 457b 41be
00000010: f5e0 643d bac6 d9bd 45a2 b4bc dac9 823d
00000020: e56d 11be 59db 3dbd 62da 2abb 51f6 213d
00000030: 5462 a0bc 26c7 983d bcd2 913d 087c 0bbe
00000040: d10f 073e 230a 403e b6b0 623d 76fd 23bc
00000050: a72a 073d 29ba e8bc 53b4 a0bd 13b1 4c3d
00000060: a115 f23d bdc1 543d a631 273d 5591 2cbd
00000070: 3c1b 94bd 3447 f03c 174f 84bd 4a61 293e
00000080: c1cf d5bd 1136 263d 2060 16be 8df0 533d
00000090: ae47 e2bd c3b2 dabd bb1d 9abb 6f4e f3bd
000000a0: aa8a d63c dc51 c5bc 8508 083a fa9c 16bd
000000b0: 0022 35bd cc6f 373d 1829 963d 90be 3b3d
000000c0: d2ee 8fbd da5f 8d3d 3d29 9bbc aa60 9abc
000000d0: 84c9 8ebb 9090 e73d da8a 0a3d ab47 3cbc
000000e0: 0f22 153e 0fe8 b23d 730b cdbd 0ae5 94bd
000000f0: afa1 0e3d 4f40 023e 6a7b f4bc 1d77 adbc
00000100: 3a43 1fbb 8b71 0a3e 0451 3e3c 91cb abbd
00000110: 14f8 39bd 64bb 9cbd 9298 1c3d 6509 04bd
00000120: 2d57 fd3c 6293 0cbc 883a 183d 033b 02be
00000130: 2b6b 7f3d c183 ddbc 7049 783d 5630 bf3d
00000140: d4db d73a e769 81bd 8c36 443d 8a8a 05be
00000150: 49c4 68bd 73f3 a93d 7141 95bd 592e 863d
00000160: f2ac bcbb 3caa 97bb 289d 93bc 19cc a23b
00000170: 0072 80bd 8450 bebd c63b edbc c3ef c3bd
00000180: 2db5 05be 9e2b 663d cd96 473c bd88 69bd
00000190: 0938 8e3c 5594 abbc b907 843d 1406 0f3e
000001a0: 18b7 9bbd 8d3e 3d3d 2dd4 e2bd b5cf 4abd
000001b0: 0b51 1b3e 0bae 123d c8af 213d 3ff7 69bd
000001c0: 3b38 6bbd 0bf7 473b da17 cc3d 7020 e4bd
000001d0: d259 093e 1d2e fabc 5b2c 2b3c 1b8a 053e
000001e0: 01e1 f73c d9fd 903d 54f7 bdbd 21d6 dcbd
000001f0: b807 0c3d 496f 073d 53bd 05bc b005 ea3d
00000200: c9fd d4bd bdf9 bf3d 1ac3 89bc 1b1d 253d
00000210: 9102 913c fcfa 863d 9d85 b73d 04b9 13bc
00000220: ce3a 9a3d 188d 2c3e 0287 fd3d ce87 a33d
00000230: 9262 b9bd 4929 f03c 078e d53d 6ebe f93d
00000240: c22d 773d ae40 e73d 046a 313e 6796 513d
00000250: e734 853b 8c09 51bd 69c2 e5ba 0d96 51bd
00000260: e351 1b3d 48eb 89bd 6b01 133e 81bc 68bd
00000270: c981 5a3d 1f44 e93d 01d5 d33d f268 22be
00000280: d9a2 e0bd 1062 af3d e972 1f3e b7e2 cb3c
00000290: 95d2 873d e4b3 c53d f36b f6b9 b2fa 26bd
000002a0: 8f9e c0bd f2e2 b5bd 6d9e 8b3d 42fb cd3d
000002b0: 6633 b3bd 82d6 6abd 56b6 5dbc 3e96 b0bd
000002c0: fffd a53d 1e69 33be bf79 963c 3034 fb3c
000002d0: 0f80 63bd fcf1 e5bd bb7f 30bd 52a2 8a3c
000002e0: 81bd ecbd 12a8 dd3d 116b a1bd 6213 e33d
000002f0: ada6 6cbd b331 27bd 51d2 ddbd 8f23 023e
00000300: 28bb b7bd 386d 0fbe 7c10 2b3d cfc4 453d
00000310: a8ee 0a3e 5cd8 85bc f58e 95ba 245a 0dbe
00000320: 0286 bd3d 1297 b6bd a99e d13d 6679 2f3d
00000330: 93f1 3f3d 31ff 3cbe e8cf d4bd 6300 e3bc
00000340: 959e c5bc 92ae 7c3d 745e 2a3d 5de8 c33d
00000350: 0cf4 bfbd 4ae0 9bbd 8d22 1ebb 50a3 a83d
00000360: be86 02bd c660 06be cf6d 48be 68c6 6abe
00000370: 3bfa ddbd 02c9 a9bc 010e 48be 8d71 fc3c
00000380: bd90 e03d a9bd 843c 9bb3 7c3d 07cc d7bd
00000390: fd5d 943d 3f17 76bd c707 bf3d ff89 98bd
000003a0: e932 6abd 8140 b93d 52a9 5dbd b1e3 833d
000003b0: d49e ca3d 3316 f43c ea34 97bb 17d2 69bd
000003c0: ebc4 1e3d 77e8 ecbd d22c 8cbd 6777 2bbd
000003d0: 454e 67bd 2904 c6bd bd1b f53d 8551 4eba
000003e0: bbbb cd3d 24e0 7f3c 961d c33d 6d65 e6bd
000003f0: b874 21bd db7e de3d d99d 003e 5f0f 683d

conv1.0.bias f4 [8]
0.13286212 0.004135112 -0.035096552 0.1241984 0.07115319 0.10088687 -0.108918905 -0.012183462
00000000: 020d 083e d57f 873b 67c1 0fbd bb5b fe3d
00000010: c4b8 913d c69d ce3d e010 dfbd 259d 47bc

conv1.1.weight f4 [8]
1.0060127 0.98134667 0.9955209 0.95661485 1.0057986 0.9538977 1.0202266 1.061136
00000000: 06c5 803f 8939 7b3f 75da 7e3f b6e4 743f
00000010: 02be 803f a432 743f c996 823f 4ed3 873f

conv1.1.bias f4 [8]
0.0017397479 -0.044373356 -0.03077134 -0.006114695 -0.007175692 0.07858031 -0.042706747 0.09923308
00000000: 4108 e43a d6c0 35bd 2d14 fcbc c85d c8bb
00000010: 1122 ebbb b7ee a03d 45ed 2ebd b73a cb3d

conv1.1.running_mean f4 [8]
0.20247558 -0.028529732 -0.10277374 0.058707345 0.18455058 0.077611126 -0.114484325 -0.011345695
00000000: c255 4f3e 2fb7 e9bc 0a7b d2bd 1d77 703d
00000010: d4fa 3c3e 95f2 9e3d c276 eabd 4be3 39bc

conv1.1.running_var f4 [8]
0.051775575 0.014031845 0.25561786 0.02458963 0.15856199 0.03408178 0.020034676 0.030194141
00000000: a012 543d d3e5 653c 58e0 823e 3170 c93c
00000010: 135e 223e 5699 0b3d c31f a43c b459 f73c

conv2.0.weight f4 [16, 8, 4, 4]
0.06968518 0.09691213 0.030736994 0.046174753 -0.079631805 0.073416606 -0.04745736 0.07116565
-0.07709306 0.06827225 0.05172122 0.017073933 -0.028197996 -0.100263506 -0.101701595 0.018614113
-0.016461499 0.094710566 0.07100797 -0.02414542 0.054755162 -0.071154684 0.027709475 -0.026826428
0.026328273 0.008684737 -0.05344927 0.02339119 0.03739006 0.028276293 -0.025283681 -0.08884811
-0.0421789 0.018752612 0.042559575 -0.03830875 -0.08634335 -0.018808413 -0.009060291 0.04722232
-0.036004215 -0.06883985 -0.01197189 -0.025661973 -0.10495078 -0.09184731 -0.07627571 -0.09468477
0.044750456 -0.02428504 0.035424933 0.015390384 0.021499235 0.027694982 -0.057430517 -0.046873353
0.0025981034 -0.029282505 0.010277232 -0.0011968728 0.086118124 -0.019498758 0.0026994385 -0.0007556793
0.060785215 -0.027032768 0.0041447696 0.04546777 0.039880924 0.0024287286 0.10065423 -0.009872797
0.053068954 -0.03374516 0.08227352 0.04972383 -0.07778547 -0.025776321 -0.05342315 -0.03985815
-0.082904615 -0.09712608 0.006112412 -0.0002092173 -0.003427262 -0.021090625 0.040619288 0.009165698
0.0039197057 0.0668932 0.046946764 0.07190332 -0.0041023237 0.008902587 -0.06955949 0.011257956
0.07148805 0.0002743851 0.08824827 0.04860827 0.07760252 0.03757868 0.024026249 0.05162518
-0.017864887 0.029496558 -0.013210905 0.05681547 -0.0040743975 0.09624718 0.027687293 0.09135397
-0.0023191953 0.017298814 -0.031336006 0.008511831 -0.03467998 -0.0043974505 -0.028329121 -0.02598123
0.07400092 0.020136986 0.050453585 0.04763898 0.05456112 -0.00900461 0.0534801 -0.03387855
0.026355106 0.006614933 -0.030559355 -0.059316225 -0.04705117 -0.072976135 -0.036947325 0.07678342
0.052881416 0.0016494382 -0.006879163 0.07223076 -0.054024085 -0.004832815 0.09346625 -0.048875947
0.018862482 0.03192898 -0.0504314 -0.075178236 -0.091540076 -0.051735938 -0.084391795 -0.034192923
0.013101983 -0.048215967 0.060073595 0.029275097 0.0014254814 -0.033117488 0.079857305 0.11389469
-0.10076434 -0.029047444 0.06556498 -0.020600673 0.065250844 0.03453851 0.043095563 -0.061484132
0.018948287 -0.011667687 -0.08587964 0.035234656 0.014253051 -0.055058308 0.019411754 0.06169161
-0.023022031 -0.03040378 0.100783534 -0.0069573545 -0.05166308 -0.038950205 -0.052394725 0.037139073
-0.028345503 -0.06477511 -0.08072975 0.010611387 -0.069684096 0.0043332074 0.037212037 -0.0149616515
-0.02752968 -0.06360568 -0.005003444 0.0030705696 -0.01861096 0.042371746 0.0343143 -0.05145263
-0.06160127 -0.065484904 -0.07828783 0.04751339 -0.008464488 -0.026331026 0.09647573 -0.03474564
-0.028478602 -0.036675878 -0.07418971 -0.05261205 0.03778588 -0.03627956 -0.09019379 -0.11833979
0.01967431 -0.039646205 -0.030467562 -0.017795216 0.0137878265 -0.06757557 -0.03981828 0.014207105
0.018295955 0.0015272667 -0.028896147 0.07330566 0.050789822 -0.050507247 -0.04256531 0.020700239
-0.08369069 -0.014193355 -0.17706032 -0.06060318 0.0019941104 -0.07361886 -0.08717525 0.023244029
0.024648203 -0.059312265 0.0057531316 -0.012091087 -0.16331552 -0.13974556 -0.09323112 0.017333977
-0.030281574 -0.21234943 -0.12603647 -0.07332464 -0.0059393826 -0.020472554 -0.0689386 0.031614512
00000000: 1bb7 8e3d de79 c63d 26cc fb3c bd21 3d3d
00000010: 0016 a3bd 725b 963d a662 42bd 4cbf 913d
00000020: f7e2 9dbd 52d2 8b3d a1d9 533d a2de 8b3c
00000030: 7cff e6bc f456 cdbd ed48 d0bd a07c 983c
00000040: 44da 86bc 9df7 c13d a06c 913d 9ecc c5bc
00000050: f346 603d 8cb9 91bd fbfe e23c 19c3 dbbc
00000060: 64ae d73c 6d4a 0e3c 9fed 5abd e29e bf3c
00000070: 5226 193d afa3 e73c b91f cfbc fff5 b5bd
00000080: c8c3 2cbd 149f 993c f352 2e3d a3e9 1cbd
00000090: c8d4 b0bd 1a14 9abc 9d71 14bc 316c 413d
000000a0: 2879 13bd e8fb 8cbd bf25 44bc 0f39 d2bc
000000b0: 6ff0 d6bd 711a bcbd 7036 9cbd 17ea c1bd
000000c0: 414c 373d 6cf1 c6bc bc19 113d f327 7c3c
000000d0: 2a1f b03c 96e0 e23c 433c 6bbd 46fe 3fbd
000000e0: f144 2a3b dde1 efbc d661 283c 63e0 9cba
000000f0: b35e b03d dcbb 9fbc 10e9 303b c818 46ba
00000100: ebf9 783d d373 ddbc d9d0 873b 6a3c 3a3d
00000110: 2e5a 233d 4e2b 1f3b ce23 ce3d 83c1 21bc
00000120: d55e 593d 5d38 0abd 057f a83d 37ab 4b3d
00000130: fd4d 9fbd dd28 d3bc 3cd2 5abd 4d42 23bd
00000140: e5c9 a9bd 0aea c6bd a14a c83b 5761 5bb9
00000150: ea9b 60bb 3fc6 acbc 6960 263d b92b 163c
00000160: e070 803b 4dff 883d 404b 403d 0c42 933d
00000170: c96c 86bb 28dc 113c 3575 8ebd 4a73 383c
00000180: 5468 923d 58db 8f39 82bb b43d 7719 473d
00000190: 12ee 9e3d 1aec 193d b2d2 c43c ed74 533d
000001a0: 6259 92bc c4a2 f13c 8d72 58bc 57b7 683d
000001b0: 8682 85bb 3e1d c53d 76d0 e23c ca17 bb3d
000001c0: a4fd 17bb 3eb6 8d3c 2f5a 00bd 3575 0b3c
000001d0: 980c 0ebd 7d18 90bb 7912 e8bc 97d6 d4bc
000001e0: cb8d 973d 52f6 a43c 6ba8 4e3d 1721 433d
000001f0: 7b7b 5f3d 1288 13bc f30d 5b3d 3cc4 0abd
00000200: aae6 d73c 14c2 d83b 9d57 fabc 92f5 72bd
00000210: bab8 40bd 8374 95bd 1456 17bd a040 9d3d
00000220: 2f9a 583d f631 d83a 9a6a e1bb b8ed 933d
00000230: 5c48 5dbd 975c 9ebb 3c6b bf3d 2532 48bd
00000240: 7e85 9a3c f6c7 023d 2891 4ebd 0cf7 99bd
00000250: 5d79 bbbd 10e9 53bd 9bd5 acbd e10d 0cbd
00000260: b3a9 563c 1b7e 45bd bb0f 763d 54d2 ef3c
00000270: 38d7 ba3a 34a6 07bd 3a8c a33d 9f41 e93d
00000280: 895d cebd e8f4 edbc ef46 863d bec2 a8bc
00000290: 3ca2 853d 4178 0d3d f984 303d c9d6 7bbd
000002a0: 7039 9b3c d429 3fbc aae1 afbd 3752 103d
000002b0: a185 693c d284 61bd 6605 9f3c 57b0 7c3d
000002c0: b398 bcbc 5911 f9bc 9967 ce3d 85fa e3bb
000002d0: aa9c 53bd 408a 1fbd da9b 56bd 241f 183d
000002e0: d434 e8bc d0a8 84bd a455 a5bd 62db 2d3c
000002f0: 89b6 8ebd 94fd 8d3b a66b 183d b721 75bc
00000300: ec85 e1bc b243 82bd eef3 a3bb 9c3b 493b
00000310: 0376 98bc ff8d 2d3d 278d 0c3d febf 52bd
00000320: 9d51 7cbd f31c 86bd 5f55 a0bd 679d 423d
00000330: a3ae 0abc 2ab4 d7bc 1195 c53d 7251 0ebd
00000340: f54b e9bc 7239 16bd c6f0 97bd bc7f 57bd
00000350: 5ec5 1a3d e099 14bd 86b7 b8bd 225c f2bd
00000360: 052c a13c 0f64 22bd 1c97 f9bc 46c7 91bc
00000370: 56e6 613c 0f65 8abd 7e18 23bd ebc4 683c
00000380: 66e1 953c 912e c83a 9db7 ecbc 4721 963d
00000390: fd08 503d b0e0 4ebd f658 2ebd 8c93 a93c
000003a0: 0666 abbd 3f8b 68bc 4d4f 35be 0a3b 78bd
000003b0: 9faf 023b 7cc5 96bd f088 b2bd 436a be3c
000003c0: 07eb c93c 6bf1 72bd c484 bc3b b219 46bc
000003d0: 2f3c 27be 7619 0fbe f5ef bebd fcff 8d3c
000003e0: 1011 f8bc 2172 59be b40f 01be 3b2b 96bd
000003f0: 279f c2bb 0fb6 a7bc ae2f 8dbd 387e 013d

conv2.0.bias f4 [16]
-0.086898044 0.08313786 0.066467956 -0.01200859 -0.035180617 0.0068252175 -0.035870686 -0.05840236
-0.02048053 0.042059172 -0.059115846 -0.0331568 -0.043580048 -0.08464988 0.068815894 -0.07209564
00000000: 9af7 b1bd 2f44 aa3d 5a20 883d adbf 44bc
00000010: 8d19 10bd 13a6 df3b 24ed 12bd 5037 6fbd
00000020: c9c6 a7bc 3d46 2c3d 7523 72bd 6dcf 07bd
00000030: fe80 32bd eb5c adbd 59ef 8c3d e1a6 93bd

conv2.1.weight f4 [16]
0.9724419 1.0649195 0.9813683 0.9840568 0.990247 0.98059034 1.0007449 1.0224563
0.9579357 1.0018442 1.0076319 1.0107145 1.0806707 0.99294627 1.0014338 0.99933344
00000000: f4f1 783f 484f 883f f43a 7b3f 25eb 7b3f
00000010: d480 7d3f f807 7b3f 6918 803f d9df 823f
00000020: 463b 753f 6e3c 803f 15fa 803f 185f 813f
00000030: 6b53 8a3f ba31 7e3f fc2e 803f 51d4 7f3f

conv2.1.bias f4 [16]
-0.0069255005 -0.006219247 0.009408052 -0.07942812 -0.00844797 -0.039850134 -0.03105494 -0.039380673
-0.02889489 0.020329077 0.010842818 -0.012611519 -0.039381597 0.019328425 0.021332294 -0.0043389495
00000000: 4fef e2bb d3ca cbbb 3b24 1a3c 36ab a2bd
00000010: 5b69 0abc e539 23bd ee66 febc a14d 21bd
00000020: fab4 ecbc 2a89 a63c 13a6 313c 8ba0 4ebc
00000030: 994e 21bd a556 9e3c 10c1 ae3c bf2d 8ebb

conv2.1.running_mean f4 [16]
0.07461123 -0.83198196 -0.19647415 1.079736 -0.20355362 -0.21177414 -0.008815338 0.038668413
-0.16476609 -0.68676955 -0.012321869 0.52760655 -0.054137863 -0.46819302 0.0656204 0.1398647
00000000: c6cd 983d c5fc 54bf 8530 49be ca34 8a3f
00000010: 5c70 50be 52db 58be 356e 10bc c562 1e3d
00000020: 71b8 28be 21d0 2fbf aae1 49bc 3911 073f
00000030: aabf 5dbd ffb6 efbe fd63 863d b138 0f3e

conv2.1.running_var f4 [16]
0.2632424 0.36154878 0.52537394 0.34519485 0.22132082 0.11882558 0.07503675 0.18428387
0.48952895 0.41991228 0.16555871 0.21567804 0.3965106 0.24201782 0.22608583 0.26734942
00000000: b5c7 863e ec1c b93e e87e 063f 61bd b03e
00000010: eda1 623e d35a f33d deac 993d e9b4 3c3e
00000020: 8aa3 fa3e befe d63e 3988 293e b4da 5c3e
00000030: 7003 cb3e 85d3 773e 0b83 673e 06e2 883e

conv3.0.weight f4 [32, 16, 4, 4]
0.022405082 -0.0036235014 -0.05658972 -0.06616233 -0.04884687 -0.000551669 0.00320639 -0.015872614
-0.039376084 -0.014646121 -0.0023787417 -0.046357397 -0.036287643 0.03017168 0.0269692 0.010696031
-0.078203574 -0.030783845 -0.008376583 0.003106533 -0.020279428 -0.029636975 0.0359665 -0.03911411
-0.043364972 -0.065971844 -0.017306278 0.0024547619 -0.032575227 0.007445667 -0.04176963 -0.06152059
0.051189262 -0.0048140017 -0.0027371568 0.028689615 0.017922869 -0.013107048 0.007911737 0.058398668
0.010197499 0.04507399 0.013561946 -0.0060562002 0.007512194 0.018964728 0.02096063 0.012164179
-0.0007594223 -0.0096178455 -0.03224524 -0.06667523 -0.009873873 0.055495743 -0.029467324 -0.03803747
0.023527373 -0.029301273 -0.040436503 -0.053521335 0.040957954 -0.029908732 0.045628615 -0.06080609
0.04812663 0.0143241435 0.0298502 0.025548296 0.0049058874 0.008366905 0.035928205 -0.014424496
-0.007800635 -0.024172006 -0.015975975 0.026367327 -0.047976345 0.05972784 -0.009246855 -0.008987527
-0.0052690567 0.034866944 0.012508431 -0.019046063 -0.030550696 0.03270886 0.006506754 0.0043169763
0.05711764 -0.028111622 0.0130523965 0.026417682 -0.008868947 -0.050812922 -0.0057496526 -0.03162794
0.07302166 0.03848463 0.002248068 -0.0051771984 0.031758808 -0.00014033646 -0.03718339 -0.01642778
0.027322732 -0.062284347 -0.06266844 -0.019043656 0.047696184 -0.023401806 -0.039078105 0.018937008
0.008691783 0.048907585 -0.054392647 -0.061695162 0.06416058 -0.005254563 -0.049818162 -0.038336184
-0.06918096 0.0059975185 -0.07667446 -0.116992705 -0.009419031 0.070519894 0.0004081046 -0.049661927
-0.0071935677 -0.051223923 -0.027576637 -0.04427908 -0.009158862 0.04311579 -0.015412203 -0.027091188
-0.045963895 -0.01764921 -0.00037090466 -0.05027918 -0.035445105 0.028228445 0.009866954 -0.07533989
-0.017069789 0.031914078 0.041324824 -0.04487126 -0.0058719036 -0.053091858 -0.0013299054 -0.03878283
-0.053038754 -0.046998594 -0.011829426 0.06728346 0.015873104 0.02700681 -0.04786958 -0.07020606
0.04560965 0.07987865 0.006949865 0.036981307 -0.021142585 0.009146193 -0.0066841897 0.011151601
0.06755879 0.04540501 0.04082725 -0.030647973 0.042509343 -0.039390724 0.01765964 0.02784262
0.015254332 0.043232176 -0.0008701544 -0.074807815 -0.007128031 0.019524474 -0.08369523 -0.05893469
0.06798943 0.02889442 0.04489692 0.004250258 0.05228504 -0.043661337 -0.058139794 0.0028556196
-0.03884809 0.008411012 0.0436942 -0.07938645 0.026560644 -0.014403309 -0.0435608 -0.086407326
-0.017841872 -0.0891014 -0.040523387 -0.12666154 -0.05780094 0.04424537 -0.058261815 -0.051752146
0.051722962 0.011338062 0.03516651 -0.028030988 0.019954745 0.0035419958 -0.0024966449 -0.028564641
0.03298391 0.033031955 0.035392907 -0.011574214 -0.017662656 -0.076303996 0.033900153 -0.010395646
0.07122168 0.054780375 -0.038508844 -0.03130237 0.021123216 -0.049533132 -0.036345955 0.024867944
0.007033943 0.043370616 0.050641928 -0.04767952 -0.036596473 0.043379452 -0.07044871 -0.0115243215
-0.009274007 0.007556041 0.019280672 0.0017820792 0.06452044 -0.027064506 0.04193944 0.044541135
0.04193206 0.046280622 -0.0749554 -0.08703892 -0.03325653 -0.0054520005 -0.057109624 -0.05273992
00000000: dd8a b73c 4478 6dbb 9fca 67bd 1e80 87bd
00000010: a813 48bd e19d 10ba 4c22 523b 4907 82bc
00000020: d148 21bd 49f6 6fbc aae4 1bbb 41e1 3dbd
00000030: 5aa2 14bd 992a f73c 83ee dc3c 683e 2f3c
00000040: 3229 a0bd 672e fcbc f03d 09bc fa96 4b3b
00000050: 0b21 a6bc 3ec9 f2bc 9c51 133d 1e36 20bd
00000060: 789f 31bd 3f1c 87bd e5c5 8dbc 12e0 203b
00000070: 9a6d 05bd c8fa f33b a216 2bbd 04fd 7bbd
00000080: d5ab 513d c6be 9dbb df61 33bb 7c06 eb3c
00000090: fbd2 923c f2be 56bc 3ba0 013c 7133 6f3d
000000a0: 6913 273c 819f 383d ed32 5e3c 1773 c6bb
000000b0: da28 f63b eb5b 9b3c a1b5 ab3c 444c 473c
000000c0: f813 47ba 2b94 1dbc 9613 04bd 068d 88bd
000000d0: 06c6 21bc 814f 633d 7565 f1bc 2ecd 1bbd
000000e0: 7abc c03c 3909 f0bc bfa0 25bd 3039 5bbd
000000f0: 87c3 273d 2803 f5bc 12e5 3a3d ce0f 79bd
00000100: 6e20 453d d0af 6a3c 6888 f43c a94a d13c
00000110: 91c1 a03b 5815 093c 7429 133d b954 6cbc
00000120: 789c ffbb 5f04 c6bc 0ce0 82bc 4b00 d83c
00000130: d882 44bd 2ea5 743d 1f80 17bc 6c40 13bc
00000140: 0da8 acbb a4d0 0e3d 2af0 4c3c 7d06 9cbc
00000150: 7445 fabc baf9 053d 9c36 d53b 6c75 8d3b
00000160: 30f4 693d 584a e6bc b8d9 553c e569 d83c
00000170: 0f4f 11bc 3621 50bd 9567 bcbb 4c8c 01bd
00000180: 618c 953d 0fa2 1d3d 5354 133b 7da5 a9bb
00000190: 8615 023d 4827 13b9 9c4d 18bd 8d93 86bc
000001a0: ecd3 df3c df1d 7fbd 5058 80bd 7101 9cbc
000001b0: 135d 433d 25b5 bfbc 5d10 20bd c921 9b3c
000001c0: fb67 0e3c 5253 483d d3ca 5ebd 11b4 7cbd
000001d0: 9f66 833d 782e acbb 210e 4cbd 6706 1dbd
000001e0: bfae 8dbd d586 c43b 8007 9dbd df99 efbd
000001f0: 4852 1abc bc6c 903d dff6 d539 4e6a 4bbd
00000200: 05b8 ebbb 2dd0 51bd 66e8 e1bc fb5d 35bd
00000210: 0d0f 16bc 2f9a 303d 7783 7cbc 57ee ddbc
00000220: a344 3cbd 1395 90bc fb75 c2b9 8bf1 4dbd
00000230: e32e 11bd 573f e73c 01a9 213c cd4b 9abd
00000240: f1d5 8bbc 56b8 023d 3844 293d edca 37bd
00000250: 1969 c0bb d976 59bd 3850 aeba bfda 1ebd
00000260: 2a3f 59bd 9981 40bd 35d0 41bc e9cb 893d
00000270: 5008 823c 633d dd3c e512 44bd 32c8 8fbd
00000280: 2fd1 3a3d 6b97 a33d b1bb e33b b679 173d
00000290: 3733 adbc ead9 153c 0c07 dbbb 34b5 363c
000002a0: 435c 8a3d 9bfa 393d 793a 273d 7511 fbbc
000002b0: 471e 2e3d 2b58 21bd f3aa 903c 3516 e43c
000002c0: 4eed 793c 3914 313d 131b 64ba d734 99bd
000002d0: 4292 e9bb caf1 9f3c 6868 abbd 8065 71bd
000002e0: 0b3e 8b3d feb3 ec3c d5e5 373d c045 8b3b
000002f0: d728 563d 3bd6 32bd fe23 6ebd 5925 3b3b
00000300: 2d1f 1fbd 57ce 093c b1f8 323d 5d95 a2bd
00000310: b595 d93c dbfb 6bbc cf6c 32bd 53f6 b0bd
00000320: 1e29 92bc cb7a b6bd dafb 25bd 90b3 01be
00000330: aec0 6cbd a23a 353d f1a3 6ebd 0ffa 53bd
00000340: 75db 533d 47c3 393c c20a 103d 3ea1 e5bc
00000350: 2278 a33c d420 683b c09e 23bb 6500 eabc
00000360: 231a 073d 844c 073d 27f8 103d c6a1 3dbc
00000370: 46b1 90bc 4545 9cbd e3da 0a3d 8052 2abc
00000380: acdc 913d 6361 603d 73bb 1dbd ea36 00bd
00000390: 980a ad3c 41e3 4abd 7fdf 14bd dcb7 cb3c
000003a0: fe7c e63b 63a5 313d e96d 4f3d 9a4b 43bd
000003b0: 2fe6 15bd a7ae 313d 6a47 90bd 82d0 3cbc
000003c0: 01f2 17bc aa98 f73b 80f2 9d3c a894 e93a
000003d0: 4b23 843d 62b6 ddbc b1c8 2b3d c470 363d
000003e0: f4c0 2b3d c090 3d3d 3782 99bd 7641 b2bd
000003f0: 0038 08bd b2a6 b2bb c8eb 69bd d005 58bd

conv3.0.bias f4 [32]
0.014414986 0.057914354 0.014186386 -0.059073336 0.00411424 -0.055101756 -0.02365154 0.06103219
0.034493584 0.020842373 -0.014870112 0.031071413 0.031224294 -0.0072606876 -0.06157219 0.010520625
-0.031742506 0.018384205 0.04710883 0.025641376 0.046151184 0.050852027 0.011214883 0.046859697
0.011689324 -0.040648375 -0.01160863 -0.01293626 -0.06226635 -0.05069176 -0.053850804 0.059769474
00000000: d52c 6c3c 9a37 6d3d 046e 683c e2f6 71bd
00000010: bfd0 863b 61b2 61bd e0c0 c1bc e4fc 793d
00000020: 2549 0d3d a0bd aa3c c5a1 73bc 7a89 fe3c
00000030: 17ca ff3c 10eb edbb 1f33 7cbd b35e 2c3c
00000040: 6e04 02bd 799a 963c 30f5 403d dd0d d23c
00000050: 0609 3d3d 374a 503d a1be 373c f4ef 3f3d
00000060: 9484 3f3c e97e 26bd 2032 3ebc 9bf2 53bc
00000070: 000b 7fbd 2aa2 4fbd a992 5cbd d6d0 743d

conv3.1.weight f4 [32]
0.9881512 0.9917783 1.0041636 1.0312105 0.9770748 0.9917058 0.98745775 0.983956
0.97271985 1.0084958 0.98636085 0.98734146 1.0298396 0.97405124 1.0102204 1.0169344
1.0090816 1.0107361 0.99833685 0.9994129 0.9840926 1.0509207 1.0006896 1.0045805
0.9782748 0.9742177 1.0469671 1.0107268 0.9894406 1.0398387 1.066078 1.0083548
00000000: 7af7 7c3f 2fe5 7d3f 6f88 803f b5fe 833f
00000010: 9321 7a3f 6ee0 7d3f 08ca 7c3f 8ae4 7b3f
00000020: 2b04 793f 6416 813f 2582 7c3f 69c2 7c3f
00000030: c9d1 833f 6c5b 793f e74e 813f e82a 823f
00000040: 9629 813f cd5f 813f 0193 7f3f 86d9 7f3f
00000050: 7eed 7b3f 9284 863f 9916 803f 1896 803f
00000060: 3870 7a3f 5566 793f 0503 863f 7f5f 813f
00000070: fb4b 7d3f 6f19 853f 3e75 883f c511 813f

conv3.1.bias f4 [32]
-0.06858029 -0.004945478 -0.015934907 -0.16155256 -0.024341298 -0.008566842 0.02441207 0.002115397
0.021297486 -0.01405449 -0.0020234752 0.04870149 0.06926657 -0.026063915 -0.011958579 -0.037268978
0.01403811 -0.0075161415 -0.0050848527 -0.057561968 -0.011205561 -0.0377409 0.009759816 -0.013092669
-0.0039161807 -0.013595991 -0.010540482 0.009987933 -0.043687332 -0.039477035 -0.06270098 0.0033552097
00000000: d373 8cbd ad0d a2bb ec89 82bc 096e 25be
00000010: 6767 c7bc f15b 0cbc d2fb c73c 79a2 0a3b
00000020: 1178 ae3c ce44 66bc 489c 04bb 377b 473d
00000030: a2db 8d3d fe83 d5bc eaed 43bc 5ba7 18bd
00000040: 1a00 663c f749 f6bb d69e a6bb 19c6 6bbd
00000050: 8897 37bc 3496 1abd a3e7 1f3c a282 56bc
00000060: 4e53 80bb b8c1 5ebc fcb1 2cbc 6da4 233c
00000070: 7df1 32bd acb2 21bd 5f69 80bd 14e3 5b3b

conv3.1.running_mean f4 [32]
-0.53269887 -0.62710524 -0.12992547 -0.06399797 -0.3763697 0.31229603 -0.11164046 0.007186335
-0.094244756 -0.27337435 -0.2543026 -0.49463734 -0.48800707 -0.8923351 -0.38648117 -0.32331985
-0.45604607 -0.15256166 0.061037056 0.17754638 -0.586088 -0.08320097 -0.28987044 -0.31053495
0.17209719 -0.40827754 -0.316854 -0.54432625 -0.13737004 0.16973048 -0.5026526 -0.46421427
00000000: f45e 08bf f889 20bf 2f0b 05be 5e11 83bd
00000010: 88b3 c0be 44e5 9f3e c1a3 e4bd 597b eb3b
00000020: 6503 c1bd b9f7 8bbe f333 82be 1b41 fdbe
00000030: 10dc f9be 1370 64bf dce0 c5be 2e8a a5be
00000040: df7e e9be 2039 1cbe fe01 7a3d b8ce 353e
00000050: dd09 16bf 4565 aabd e669 94be 70fe 9ebe
00000060: 3f3a 303e c109 d1be b03a a2be f758 0bbf
00000070: bbaa 0cbe d4cd 2d3e d7ad 00bf 7ead edbe

conv3.1.running_var f4 [32]
0.20592281 0.2914698 0.1365661 0.20789367 0.253112 0.21700168 0.4270041 0.26852694
0.11124663 0.30693993 0.2212596 0.2714359 0.41919422 0.1656498 0.19388853 0.14566809
0.18292215 0.17725728 0.16484456 0.124097005 0.19616668 0.13638037 0.25330314 0.2561937
0.19596054 0.19830425 0.13059984 0.39420033 0.23519091 0.16028474 0.1431884 0.23953126
00000000: 6edd 523e 883b 953e fcd7 0b3e 14e2 543e
00000010: e597 813e b035 5e3e 48a0 da3e 5d7c 893e
00000020: 46d5 e33d 3b27 9d3e e091 623e a5f9 8a3e
00000030: a0a0 d63e 1aa0 293e b78a 463e 042a 153e
00000040: f24f 3b3e ef82 353e 03cd 283e 9226 fe3d
00000050: ebdf 483e 4ca7 0b3e f3b0 813e d22b 833e
00000060: e1a9 483e 4510 4b3e f7bb 053e a0d4 c93e
00000070: e3d5 703e af21 243e fb9f 123e af47 753e

deconv2.0.weight f4 [32, 16, 4, 4]
-0.07841695 0.0109810475 -0.019621894 0.010000449 -0.04030453 0.016318107 -0.022624167 0.0039132345
-0.045212947 0.0021308886 -0.039345 -0.061291832 -0.034177072 0.040680405 -0.053689428 0.032674264
0.009474053 -0.014961093 0.022007907 -0.08885293 -0.030181888 0.024844099 0.113400824 0.015603436
0.027259424 -0.025329763 0.04709006 0.012020417 -0.06615934 0.052903827 0.04405094 0.0017650045
0.045064908 0.0037085689 0.048698775 0.0041267676 0.029572962 0.045908455 0.0027851108 0.02263759
0.036960978 0.035118263 0.002251867 0.024154572 0.00956062 -0.055092994 0.0048496276 0.0047269054
-0.026906217 0.030992422 -0.040889084 0.036099274 -0.07083363 -0.09604237 0.1055324 -0.028941818
-0.07808453 0.01721288 -0.071206816 -0.00409328 -0.016355574 -0.118899085 0.07348741 -0.12050931
0.012120802 0.054769557 -0.0073031355 0.002125237 -0.03282444 -0.07679735 -0.036666065 -0.021743562
0.0015396773 0.040694095 -0.008945997 0.027547015 0.065811776 0.036468867 0.012565727 0.018828277
-0.025097014 0.020111794 -0.03951381 -0.06648407 0.05475479 0.029633017 0.046270587 -0.002941513
0.005937158 -0.008704206 -0.065718606 -0.0836341 -0.020131828 0.015814727 0.026542328 0.0090520205
-0.011824717 -0.044338692 -0.07660786 0.014189446 0.055972807 -0.074378334 0.011264342 -0.019200524
-0.023342935 -0.020753486 -0.001917502 0.011140601 0.023167111 0.044437382 0.036566354 -0.013493447
-0.07754627 0.02174767 0.0011290896 0.009495044 -0.016092306 0.008469248 0.013899951 0.004583828
-0.068148136 0.004083392 0.04873441 0.016224604 -0.022778478 0.031944394 -0.022799121 0.006402314
0.003795797 -0.011406491 -0.01525741 -0.006209066 -0.04762454 -0.048691086 0.0068500764 -0.035768513
0.03416328 -0.032561097 0.032495167 -0.046900593 -0.021035204 0.04467465 0.021635266 -0.04444205
-0.007830934 -0.01651869 0.014096723 -0.042658117 0.04422339 -0.019381545 -0.12611972 0.013788873
0.059864275 -0.01957806 0.050170887 -0.096041396 0.06521958 -0.008917751 -0.121159635 -0.010007176
-0.0460497 -0.082839444 -0.050401006 -0.08123766 0.026624145 -0.018561147 -0.037956394 -0.023227338
-0.0331663 -0.09280802 -0.004311218 -0.03517855 0.037093986 -0.0068109715 0.014950557 0.0035755723
-0.060388412 -0.031366587 -0.056126233 -0.07304389 -0.0028822857 -0.05092053 0.016477687 -0.10157162
-0.074002996 -0.069627725 -0.05677636 -0.023590364 -0.041307583 -0.032743026 0.017558109 -0.014859666
-0.009461843 0.01868343 -0.068283886 0.036905386 -0.059544872 -0.012791411 0.00855312 -0.049244963
-0.01576167 0.063959174 -0.061086956 0.044014756 -0.021953497 -0.025932016 0.015713515 -0.01425213
-0.00013966725 -0.014809152 -0.06423893 -0.009932374 0.07274854 0.04619515 -0.016995395 0.028525181
0.014499696 -0.016076569 -0.06228207 0.009165108 0.075308286 0.0035870974 0.03911163 0.031891596
-0.07236861 -0.0043668067 -0.017213566 -0.035765566 0.0086677885 -0.020394783 0.022086233 -0.0049422146
-0.044317976 -0.057743777 -0.053280205 -0.07809316 -0.0034510333 -0.0437828 -0.0039570304 -0.03234978
-0.033433355 -0.061424203 0.0027168717 0.021657456 -0.0122407 -0.024188051 -0.099485695 0.029653916
-0.03435598 -0.044758383 0.014369485 -0.0676953 0.0837614 -0.024831526 -0.0644045 0.004254395
00000000: 1199 a0bd dae9 333c 18be a0bc ecd8 233c
00000010: 5d16 25bd 8dad 853c 5156 b9bc 973a 803b
00000020: 3631 39bd 61a6 0b3b 3928 21bd 250d 7bbd
00000030: 42fd 0bbd 7fa0 263d 72e9 5bbd 73d5 053d
00000040: 0f39 1b3c 5f1f 75bc ed49 b43c 86f8 b5bd
00000050: 0240 f7bc da85 cb3c b13e e83d 8ea5 7f3c
00000060: 284f df3c 5d80 cfbc 82e1 403d 48f1 443c
00000070: 8c7e 87bd afb1 583d c26e 343d b957 e73a
00000080: fb95 383d 760b 733b 5e78 473d d639 873b
00000090: ff42 f23c 810a 3c3d 6886 363b 7872 b93c
000000a0: 6564 173d 2bd8 0f3d 0f94 133b cfdf c53c
000000b0: 26a4 1c3c 31a9 61bd a0e9 9e3b 28e4 9a3b
000000c0: 6d6a dcbc d2e3 fd3c 507b 27bd d5dc 133d
000000d0: 3911 91bd ddb1 c4bd 5f21 d83d 6417 edbc
000000e0: c8ea 9fbd 0702 8d3c e1d4 91bd ec20 86bb
000000f0: 20fc 85bc 5d81 f3bd 9180 963d 96cd f6bd
00000100: 5496 463c 0b56 603d 244f efbb 8f47 0b3b
00000110: ec72 06bd ee47 9dbd 282f 16bd 8e1f b2bc
00000120: ffce c93a daae 263d 3b92 12bc 47aa e13c
00000130: 53c8 863d 6160 153d 7be0 4d3c c23d 9a3c
00000140: 4198 cdbc 7dc1 a43c 3cd9 21bd cd28 88bd
00000150: 8f46 603d f1c0 f23c 3a86 3d3d 66c6 40bb
00000160: 7e8c c23b 169c 0ebc 7a97 86bd 5b48 abbd
00000170: 81eb a4bc e38d 813c 4c6f d93c ed4e 143c
00000180: 75bc 41bc 7d9c 35bd 95e4 9cbd da7a 683c
00000190: be43 653d ab53 98bd 138e 383c 6b4a 9dbc
000001a0: af39 bfbc 3703 aabc b154 fbba 1187 363c
000001b0: f4c8 bd3c f903 363d 9ac6 153d 9e13 5dbc
000001c0: 94d0 9ebd 2b28 b23c f6fd 933a 1a91 1b3c
000001d0: 03d4 83bc 9ac2 0a3c 9fbc 633c f033 963b
000001e0: 4091 8bbd facd 853b bc9d 473d 76e9 843c
000001f0: ee99 babc 20d8 023d 39c5 babc 81ca d13b
00000200: e8c2 783b 4ae2 3abc 37fa 79bc 6c75 cbbb
00000210: f311 43bd 4e70 47bd 9b76 e03b 0182 12bd
00000220: ccee 0b3d c95e 05bd a719 053d d61a 40bd
00000230: 0552 acbc c4fc 363d 713c b13c de08 36bd
00000240: 514d 00bc 3452 87bc f1f5 663c 47ba 2ebd
00000250: 9623 353d 0cc6 9ebc 8725 01be baea 613c
00000260: 3e34 753d 2b62 a0bc fd7f 4d3d 5ab1 c4bd
00000270: d891 853d c21b 12bc 8b22 f8bd 23f5 23bc
00000280: 9c9e 3cbd baa7 a9bd 4971 4ebd ee5f a6bd
00000290: e11a da3c 8c0d 98bc 2a78 1bbd 4247 bebc
000002a0: 63d9 07bd 2212 bebd 1e45 8dbb 6217 10bd
000002b0: ddef 173d 922e dfbb 2ef3 743c 2654 6a3b
000002c0: d759 77bd 407a 00bd 9fe4 65bd 0998 95bd
000002d0: bbe4 3cbb 0c92 50bd 37fc 863c c804 d0bd
000002e0: e28e 97bd fb98 8ebd 548e 68bd 9440 c1bc
000002f0: 2432 29bd 8d1d 06bd 06d6 8f3c f575 73bc
00000300: d905 1bbc fe0d 993c 6cd8 8bbd 1a2a 173d
00000310: 53e5 73bd 1193 51bc 6322 0c3c 16b5 49bd
00000320: 9e1e 81bc 07fd 823d 5136 7abd d148 343d
00000330: d2d7 b3bc 616f d4bc a1b9 803c c481 69bc
00000340: a473 12b9 16a2 72bc b38f 83bd 65bb 22bc
00000350: 30fd 943d 2037 3d3d ed39 8bbc a4ad e93c
00000360: 2290 6d3c 02b3 83bc 7c1b 7fbd 4029 163c
00000370: 3b3b 9a3d 8215 6b3b 8433 203d c3a0 023d
00000380: fe35 94bd 6e17 8fbb 7703 8dbc ea7e 12bd
00000390: 5703 0e3c f612 a7bc 30ee b43c 4df2 a1bb
000003a0: c486 35bd bd84 6cbd 583c 5abd 4fef 9fbd
000003b0: bb2a 62bb 9855 33bd faa9 81bb 3481 04bd
000003c0: 6af1 08bd f297 7bbd 8b0d 323b fa6a b13c
000003d0: 388d 48bc 0526 c6bc 28bf cbbd c5ec f23c
000003e0: dbb8 0cbd 9154 37bd fd6d 6b3c d5a3 8abd
000003f0: 198b ab3d 7c6b cbbc 82e6 83bd 7468 8b3b

deconv2.0.bias f4 [16]
0.029524805 -0.060249433 0.030097004 0.026607461 0.038666155 -0.056251097 0.048487112 -0.016368572
-0.06052242 0.05170006 0.027372163 -0.055406403 0.025592174 -0.014376408 0.014948878 0.01625307
00000000: 01de f13c 1cc8 76bd fe8d f63c e4f7 d93c
00000010: 6760 1e3d 8d67 66bd 6c9a 463d 6217 86bc
00000020: 5be6 77bd 71c3 533d 963b e03c d3f1 62bd
00000030: aea6 d13c 078b 6bbc 24ec 743c 2925 853c

deconv2.1.weight f4 [16]
0.95530015 1.012509 1.0059489 0.9767545 0.9905067 0.9501307 0.95181173 0.9438616
0.9652669 1.0267504 0.9654421 1.1057181 0.9829058 0.9541029 1.0424275 1.0040144
00000000: 8d8e 743f e599 813f efc2 803f 950c 7a3f
00000010: d991 7d3f c43b 733f efa9 733f eaa0 713f
00000020: bb1b 773f 8f6c 833f 3727 773f 2c88 8d3f
00000030: b79f 7b3f 1640 743f 446e 853f 8b83 803f

deconv2.1.bias f4 [16]
0.0078046103 0.09240424 0.056262996 0.014622619 0.026608007 0.016905412 0.030634334 -0.04302145
-0.015961206 0.13301751 0.03245036 -0.046051744 -0.032198865 0.030110233 0.04656409 0.019738354
00000000: d1bd ff3b 6f3e bd3d 0774 663d b693 6f3c
00000010: 09f9 d93c 387d 8a3c dbf4 fa3c 4337 30bd
00000020: 13c1 82bc be35 083e abea 043d c1a0 3cbd
00000030: f5e2 03bd bca9 f63c fdb9 3e3d 54b2 a13c

deconv2.1.running_mean f4 [16]
-0.6866364 -0.58804667 -0.28411472 -0.5779207 -0.27776858 -0.8274198 -0.51997536 -0.3931727
-0.6839269 -0.80689365 -0.9106142 -0.7743748 -0.06559773 -0.26241893 -0.8365131 -0.90110743
00000000: 67c7 2fbf 3a8a 16bf 7c77 91be 9cf2 13bf
00000010: af37 8ebe c9d1 53bf 1b1d 05bf ef4d c9be
00000020: d515 2fbf 9590 4ebf 031e 69bf 6d3d 46bf
00000030: 1a58 86bd c65b 86be b925 56bf faae 66bf

deconv2.1.running_var f4 [16]
0.7480926 0.88138413 0.8848613 0.65808153 0.56441945 1.4196839 1.288089 0.6857347
0.5387749 2.096058 1.742382 0.1271838 0.38485333 1.2393461 0.6068584 0.7707904
00000000: ff82 3f3f 64a2 613f 4586 623f 0878 283f
00000010: cb7d 103f 34b8 b53f 1ae0 a43f 4f8c 2f3f
00000020: 27ed 093f d025 0640 6006 df3f 783c 023e
00000030: 7f0b c53e e5a2 9e3f 125b 1b3f 8552 453f

deconv3.0.weight f4 [16, 8, 4, 4]
-0.05645229 0.020271704 -0.014678004 -0.092540585 -0.08693645 -0.050104357 0.019600075 -0.019306498
-0.057059336 0.020893915 0.022382297 0.06931164 -0.056560453 -0.03247274 0.03462352 -0.0073075807
-0.007675143 -0.040695187 0.021740781 0.08255639 0.037759606 0.02890218 0.055708848 0.020673655
-0.0051870896 0.09537704 0.052120764 0.042187598 0.00054925715 0.069675304 0.06488153 -0.02888207
0.053949907 0.031872023 -0.020879837 0.06309437 0.05035256 0.13513859 0.013041092 0.029763063
0.019523028 0.073741406 -0.05391281 0.06994037 0.016154705 0.029409869 -0.009375006 -0.010920048
0.026500138 0.08349927 -0.065079205 0.0020757855 0.0062374375 -0.038849752 0.02815587 0.090929046
0.03473113 0.085196026 -0.024752086 0.07759776 0.031683687 0.03293931 0.017644834 0.026451882
0.036401257 0.055639748 -0.008720687 -0.05016426 0.035630874 0.012548751 0.017540231 -0.06371428
-0.020244868 0.04189522 -0.0357 0.0045307823 0.0024089373 0.015969085 -0.0125677325 0.04569633
0.01968323 -0.022165375 0.0029536544 0.0005787388 0.009253732 -0.013102014 0.01969436 0.07239133
-0.0012724184 0.044828925 -0.040252388 -0.007037692 0.051720597 0.015244692 0.028825998 0.022284184
-0.027326655 -0.082912885 -0.03327997 -0.062015075 0.04607862 -0.042313915 -0.00591802 -0.019563643
0.008167201 0.08134444 0.032659125 0.007943491 0.0043208166 -0.031209411 -0.022234669 -0.045809258
0.041054312 0.07992999 0.034332145 0.030900205 0.020466758 0.10381175 -0.059445526 -0.029341
0.049159504 -0.074549146 -0.02610329 -0.00989082 0.045952175 0.05818833 -0.029658012 0.03823259
-0.012955081 0.006138892 0.06304264 -0.09376479 -0.047373146 -0.03751924 0.14435112 0.051791802
0.015921997 0.016879307 0.035713796 -0.0073608775 -0.007911985 -0.035412658 0.052304845 0.00046142263
0.05015942 -0.09581713 0.0007038674 -0.039978825 -0.02629524 -0.0788661 0.09669155 -0.049114466
0.016112635 -0.00023271888 0.012727294 0.017858965 0.0050313706 0.0010840861 0.041132234 0.02954198
0.009444022 0.024141448 0.118631706 -0.002314836 -0.0016734254 0.0065622567 -0.006661714 0.051631417
-0.016989108 0.03506302 0.0021682936 -0.007814231 -0.023937855 -0.020269312 0.03335357 -0.057960253
-0.07902656 -0.03669683 0.061861537 -0.032732874 0.07851887 -0.049954943 -0.04721289 0.040828608
-0.04805603 0.03607943 0.11132628 0.013659121 0.050591026 0.0020639612 -0.050628047 0.038650777
0.050201736 -0.005430883 0.016548561 0.050238986 0.079399444 0.055778652 -0.03659226 0.025180511
0.049047362 0.03481257 0.027651636 0.10966544 0.009177544 -0.03214155 0.04469254 0.017242445
0.023445357 -0.05387093 -0.03892146 0.06050674 -0.044964626 0.043165352 0.123919204 0.1204939
0.010950931 0.05463573 0.0007954029 0.113621354 0.091307 0.024726592 0.08736275 0.11962626
-0.036031883 -0.08976957 -0.020451518 0.023070794 0.034320816 0.020830333 0.10514525 -0.0010613797
0.026511433 -0.02757826 0.0184032 0.017492663 -0.00545195 0.0045918603 0.10628728 0.034478948
0.022571357 0.04918863 -0.005246527 0.05500664 0.0139600765 -0.011135292 -0.07574407 -0.08554704
-0.050174408 -0.006417901 -0.041267276 -0.06126702 -0.011096451 -0.008592283 -0.09706658 -0.080086276
00000000: 843a 67bd d810 a63c 037c 70bc eb85 bdbd
00000010: bd0b b2bd 3a3a 4dbd 5690 a03c a928 9ebc
00000020: 0db7 69bd b729 ab3c 145b b73c 43f3 8d3d
00000030: efab 67bd 2302 05bd 64d1 0d3d 6e74 efbb
00000040: c47f fbbb ffaf 26bd b919 b23c 5313 a93d
00000050: d1a9 1a3d 44c4 ec3c f62e 643d cc5b a93c
00000060: 76f8 a9bb 0a55 c33d 957c 553d e7cc 2c3d
00000070: 06fc 0f3a edb1 8e3d 9ce0 843d 179a ecbc
00000080: 94fa 5c3d 3d8c 023d 310c abbc 9f37 813d
00000090: 7c3e 4e3d c561 0a3e 4eaa 553c abd1 f33c
000000a0: c2ee 9f3c bc05 973d aed3 5cbd e63c 8f3d
000000b0: df56 843c f7ec f03c a099 19bc 00ea 32bc
000000c0: d116 d93c aa01 ab3d 3f48 85bd e709 083b
000000d0: 6b63 cc3b eb20 1fbd 24a7 e63c 0239 ba3d
000000e0: 3b42 0e3d 417b ae3d e3c4 cabc 93eb 9e3d
000000f0: c1c6 013d 5feb 063d e68b 903c 9eb1 d83c
00000100: 7c19 153d 81e6 633d 36e1 0ebc 0a79 4dbd
00000110: aef1 113d 4799 4d3c 88b0 8f3c a27c 82bd
00000120: 91d8 a5bc 529a 2b3d 2a3a 12bd f576 943b
00000130: 43df 1d3b 99d1 823c e4e8 4dbc 132c 3b3d
00000140: ba3e a13c 2994 b5bc 1992 413b 81b6 173a
00000150: f79c 173c d4a9 56bc 1156 a13c e841 943d
00000160: 47c7 a6ba 899e 373d b0df 24bd 709c e6bb
00000170: fad8 533d dfc4 793c 8024 ec3c 528d b63c
00000180: 26dc dfbc 3bce a9bd 9450 08bd 8503 7ebd
00000190: efbc 3c3d 5b51 2dbd f3eb c1bb ef43 a0bc
000001a0: b9cf 053c ea97 a63d 93c5 053d 6b25 023c
000001b0: a395 8d3b e1aa ffbc 7b25 b6bc 7da2 3bbd
000001c0: 9128 283d 56b2 a33d dd9f 0c3d 6d22 fd3c
000001d0: e7a9 a73c 419b d43d 277d 73bd 895c f0bc
000001e0: 7a5b 493d 39ad 98bd 91d6 d5bc 1b0d 22bc
000001f0: 5938 3c3d e356 6e3d 5cf5 f2bc c799 1c3d
00000200: 8c41 54bc c228 c93b 801c 813d c107 c0bd
00000210: 580a 42bd c6ad 19bd c8d0 133e a423 543d
00000220: d96e 823c 7946 8a3c a148 123d 8433 f1bb
00000230: 45a1 01bc dd0c 11bd 9b3d 563d 19eb f139
00000240: f773 4d3d c53b c4bd be83 383a d6c0 23bd
00000250: 1d69 d7bc 8d84 a1bd 3806 c63d 402c 49bd
00000260: a5fe 833c 0006 74b9 2486 503c f74c 923c
00000270: 32de a43b e517 8e3a 467a 283d 0602 f23c
00000280: 19bb 1a3c 49c4 c53c 2ef5 f23d 81b4 17bb
00000290: d756 dbba 3308 d73b 824a dabb 777b 533d
000002a0: be2c 8bbc 3e9e 0f3d ee19 0e3b 4307 00bc
000002b0: 5219 c4bc d40b a6bc c19d 083d bb67 6dbd
000002c0: add8 a1bd 6a4f 16bd 8662 7d3d e812 06bd
000002d0: 80ce a03d 8e9d 4cbd 4e62 41bd e63b 273d
000002e0: 66d6 44bd 06c8 133d 08ff e33d 81ca 5f3c
000002f0: 8938 4f3d 8643 073b 5b5f 4fbd 4750 1e3d
00000300: 56a0 4d3d 8cf5 b1bb d990 873c 65c7 4d3d
00000310: 2d9c a23d 2878 643d c4e1 15bd 5c47 ce3c
00000320: e3e5 483d a097 0e3d af85 e23c 4698 e03d
00000330: 695d 163c dca6 03bd 860f 373d 0740 8d3c
00000340: 7a10 c03c c4a7 5cbd 1c6c 1fbd ead5 773d
00000350: d42c 38bd 27ce 303d 5ac9 fd3d 81c5 f63d
00000360: 896b 333c b7c9 5f3d 9682 503a 50b2 e83d
00000370: 2aff ba3d 6c8f ca3c 3eeb b23d 9dfe f43d
00000380: 2b96 13bd 1cd9 b7bd f189 a7bc f6fe bc3c
00000390: fc93 0c3d 60a4 aa3c 6556 d73d fe1d 8bba
000003a0: 812e d93c ceeb e1bc 4fc2 963c c64c 8f3c
000003b0: 45a6 b2bb 5177 963b 25ad d93d cc39 0d3d
000003c0: 91e7 b83c 047a 493d 0feb abbb a44e 613d
000003d0: ceb8 643c cd70 36bc b51f 9bbd 4933 afbd
000003e0: ae83 4dbd 414d d2bb e007 29bd 20f3 7abd
000003f0: e4cd 35bc a6c6 0cbc d8ca c6bd 4604 a4bd

deconv3.0.bias f4 [8]
-0.07105767 0.07643728 -0.053654335 0.047645416 0.025427561 0.06230635 0.032961924 0.063372284
00000000: af86 91bd 268b 9c3d a6c4 5bbd d727 433d
00000010: 764d d03c f134 7f3d 1503 073d 54c9 813d

deconv3.1.weight f4 [8]
1.2347134 1.212972 1.2172338 1.2173828 1.1919658 1.2155355 1.2289177 1.1777639
00000000: 170b 9e3f ab42 9b3f 51ce 9b3f 33d3 9b3f
00000010: 5692 983f ab96 9b3f 2d4d 9d3f f8c0 963f

deconv3.1.bias f4 [8]
0.23126979 0.20660216 0.21098916 0.21284232 0.19462964 0.20992748 0.22509444 0.1834243
00000000: fdd1 6c3e 848f 533e 8b0d 583e 56f3 593e
00000010: fe4c 473e 3bf7 563e 287f 663e 94d3 3b3e

deconv3.1.running_mean f4 [8]
-0.17806745 -0.02106944 0.10895725 0.14248922 0.4029623 0.46474972 0.03709708 -0.089946
00000000: 5057 36be d199 acbc fb24 df3d b2e8 113e
00000010: 1351 ce3e adf3 ed3e 1cf3 173d 9c35 b8bd

deconv3.1.running_var f4 [8]
0.07926525 0.06442762 0.1038659 0.077625476 0.05224903 0.068349294 0.083478004 0.08329655
00000000: d255 a23d a1f2 833d a5b7 d43d 1bfa 9e3d
00000010: 1403 563d b7fa 8b3d 84f6 aa3d 6297 aa3d

deconv4.0.weight f4 [8, 3, 4, 4]
-0.04916757 0.07521192 0.12933265 0.06461971 -0.042983744 0.076418936 0.0860458 0.01824249
0.0060941926 0.14344983 0.10635606 -0.061539106 -0.06392497 0.022582145 0.19131121 0.0035767897
-0.26246408 -0.27255896 -0.21143648 -0.03942705 -0.08771647 -0.1561757 -0.26102212 -0.0188823
-0.110436864 -0.23429221 -0.12643284 -0.028336063 -0.078731395 -0.1048967 -0.2646863 -0.08856056
-0.06805732 -0.106044516 -0.14465529 -0.17404372 -0.13778065 -0.13309844 -0.2689241 -0.06485493
-0.24676357 -0.13384464 -0.2771267 -0.15515696 -0.16333206 -0.2289723 -0.044100635 -0.2028944
0.17718889 -0.10523915 -0.037627723 -0.10141829 0.031289004 -0.0115736555 0.118951455 0.06042169
-0.06563803 0.112632394 0.12838903 0.15886912 0.19506553 0.096885525 -0.012019333 -0.050501093
-0.1657029 -0.25221848 -0.027198294 -0.2710477 -0.03517597 -0.06957052 -0.11788311 -0.17677656
-0.26381558 -0.22227414 -0.22132663 -0.118580855 -0.0035589808 -0.17649914 -0.15817362 -0.15139604
-0.14717492 -0.10719071 -0.18792875 -0.16393076 -0.11426512 -0.18433183 -0.2712879 -0.25977117
-0.09126178 -0.08032692 -0.2634226 -0.17545977 -0.18330559 -0.21087351 -0.15037249 -0.07199165
0.0007542244 -0.0036207316 0.07683744 0.13221903 0.1829548 0.15249701 0.18859808 0.1590032
0.012103618 0.03550914 0.19317596 0.02780265 -0.02129269 0.06929042 0.114692815 -0.0016010108
-0.2817301 -0.17286347 -0.22796386 -0.09460066 -0.03044313 -0.11237316 -0.17306192 -0.15583234
-0.23345315 -0.27216902 -0.022997798 -0.1059286 -0.16550308 -0.18460897 -0.05123202 -0.288493
-0.06987795 -0.23617956 -0.09353313 -0.090208024 -0.14607619 -0.10183032 -0.25707486 -0.26625654
-0.103434876 -0.06684938 -0.1186959 -0.11746334 -0.09810035 0.00035260024 -0.08103316 -0.15144356
0.204574 0.049385447 0.0375235 0.08917763 0.04836783 0.07507 0.025648635 0.01553867
0.122785866 0.15941247 0.045883585 0.101403855 0.15158597 0.037224565 0.030403327 0.006568823
-0.18550962 -0.1807877 -0.20155254 -0.1804676 -0.08859343 -0.20464577 -0.043538254 -0.12771297
-0.17792866 -0.12828138 -0.035734728 -0.07540129 -0.26630014 -0.06171221 -0.14823256 -0.17451258
-0.25741726 -0.18127644 -0.25535542 -0.23171623 -0.13381974 -0.03442766 -0.17488365 -0.08745444
-0.13324378 -0.28382367 -0.011251253 -0.031546067 -0.2476508 -0.04741427 -0.08087297 -0.26537445
0.2292208 0.19846733 0.22771443 0.06909963 0.16791102 0.12118186 0.047246125 0.1389902
0.13812976 0.025761474 -0.011016994 0.207279 0.23233739 0.25190112 0.07459848 0.09048997
-0.22030757 -0.11817233 0.0067657465 -0.25003186 -0.22975682 -0.27727106 -0.07609242 -0.22411938
-0.20020941 -0.03078231 -0.11400257 -0.052533787 -0.056605548 -0.26991248 -0.22214586 -0.18746491
-0.09891579 -0.25607887 -0.19531174 -0.17873949 -0.046337508 -0.22230361 -0.10572951 -0.2052951
-0.26185486 -0.07143996 -0.02105167 -0.19119334 -0.06897932 -0.13648452 -0.092777774 -0.12267411
0.21081601 0.18818042 0.08493833 0.23021398 0.07901713 0.10598225 0.10877046 0.005879886
-0.012930699 -0.011337646 0.08582164 0.1651268 0.19924866 0.17324577 -0.005329772 0.025552195
00000000: ef63 49bd b508 9a3d c76f 043e 5757 843d
00000010: b90f 30bd 8881 9c3d c838 b03d 4671 953c
00000020: cbb1 c73b 83e4 123e 35d1 d93d 6e10 7cbd
00000030: 18eb 82bd 31fe b83c 16e7 433e 9368 6a3b
00000040: b161 86be d98c 8bbe ce82 58be 427e 21bd
00000050: b1a4 b3bd 86ec 1fbe b1a4 85be 0eaf 9abc
00000060: b92c e2bd 4cea 6fbe 9c77 01be 0821 e8bc
00000070: ed3d a1bd 15d4 d6bd f684 87be 3d5f b5bd
00000080: a361 8bbd de2d d9bd 8420 14be 8438 32be
00000090: 5f16 0dbe f54a 08be 6bb0 89be a9d2 84bd
000000a0: 97af 7cbe 920e 09be 8de3 8dbe 77e1 1ebe
000000b0: 8540 27be b777 6abe dea2 34bd 8dc3 4fbe
000000c0: 0171 353e a087 d7bd 871f 1abd 64b4 cfbd
000000d0: e628 003d 6e9f 3dbc d29c f33d bc7c 773d
000000e0: 3b6d 86bd d0ab e63d 6a78 033e 96ae 223e
000000f0: 42bf 473e eb6b c63d bdec 44bc 3cda 4ebd
00000100: 05ae 29be c822 81be f5ce debc c4c6 8abe
00000110: ae14 10bd fd7a 8ebd b36c f1bd ea04 35be
00000120: d612 87be d59b 63be 73a3 62be 85da f2bd
00000130: ca3d 69bb 31bc 34be 44f8 21be 9007 1bbe
00000140: 06b5 16be ce86 dbbd 6570 40be 77dd 27be
00000150: d503 eabd 7cc1 3cbe 3fe6 8abe ba00 85be
00000160: 75e7 babd 7182 a4bd 54df 86be baab 33be
00000170: 76b4 3bbe 3aef 57be 3ffb 19be 5c70 93bd
00000180: 25b7 453a cc49 6dbb f35c 9d3d 6d64 073e
00000190: 8158 3b3e 2d28 1c3e db1f 413e bcd1 223e
000001a0: 414e 463c 0872 113d ebcf 453e 62c2 e33c
000001b0: 026e aebc 23e8 8d3d 11e4 ea3d 02d9 d1ba
000001c0: ed3e 90be 1f03 31be 5c6f 69be febd c1bd
000001d0: df63 f9bc e623 e6bd 2537 31be 8392 1fbe
000001e0: 580e 6fbe bd59 8bbe e165 bcbc 18f1 d8bd
000001f0: a479 29be 220a 3dbe abd8 51bd 5bb5 93be
00000200: 2c1c 8fbd 0ed9 71be 4c8e bfbd fcbe b8bd
00000210: ff94 15be 6a8c d0bd 519f 83be c752 88be
00000220: aad5 d3bd 54e8 88bd d616 f3bd 9f90 f0bd
00000230: d6e8 c8bd 34dd b839 b7f4 a5bd 0514 1bbe
00000240: d97b 513e 6548 4a3d 3eb2 193d c3a2 b63d
00000250: 591d 463d 4dbe 993d 161d d23c e895 7e3c
00000260: 2877 fb3d 063d 233e 6df0 3b3d d3ac cf3d
00000270: 5a39 1b3e c978 183d 6610 f93c 483f d73b
00000280: 3cf6 3dbe 6920 39be ca63 4ebe 80cc 38be
00000290: 7970 b5bd a98e 51be 2b55 32bd 30c7 02be
000002a0: ee32 36be 325c 03be 945e 12bd fe6b 9abd
000002b0: 7e58 88be f1c5 7cbd 47ca 17be 6db3 32be
000002c0: 32cc 83be 88a0 39be f2bd 82be 0547 6dbe
000002d0: 0b08 09be 0504 0dbd b314 33be 501b b3bd
000002e0: 0f71 08be 5651 91be 2d57 38bc 7336 01bd
000002f0: 2c98 7dbe 7735 42bd baa0 a5bd 29df 87be
00000300: dbb8 6a3e 053b 4b3e f92d 693e 1b84 8d3d
00000310: def0 2b3e 322e f83d 2785 413d 7253 0e3e
00000320: e371 0d3e ba09 d33c 9f80 34bc f240 543e
00000330: dae9 6d3e 2ff9 803e 16c7 983d ce52 b93d
00000340: 4f98 61be 5604 f2bd 32b3 dd3b 2d04 80be
00000350: 5f45 6bbe 79f6 8dbe 58d6 9bbd 8d7f 65be
00000360: b203 4dbe 2f2b fcbc 2e7a e9bd ab2d 57bd
00000370: 38db 67bd f831 8abe 347a 63be cdf6 3fbe
00000380: 5d94 cabd c51c 83be cdff 47be 7c07 37be
00000390: 66cc 3dbd 8fa3 63be b788 d8bd e138 52be
000003a0: d711 86be 1d4f 92bd 8d74 acbc 30c8 43be
000003b0: 0845 8dbd 99c2 0bbe 4602 bebd 903c fbbd
000003c0: 27e0 573e 5eb2 403e 26f4 ad3d 37bd 6b3e
000003d0: bcd3 a13d 390d d93d 0cc3 de3d 0fac c03b
000003e0: 48db 53bc 89c1 39bc 42c3 af3d 0017 293e
000003f0: d707 4c3e 5767 313e 5ea5 aebb d652 d13c

deconv4.0.bias f4 [3]
-0.09871797 -0.015175459 -0.060475275
00000000: a62c cabd 7da2 78bc ecb4 77bd
