03_hw/Pix2Pix/checkpoints/pix2pix_model_epoch_220.pth (torch, 99191 bytes, 32 tensors)

conv1.0.weight f4 [8, 3, 4, 4]
0	0xbde56fc7	-0.112029605
1	0xbdf52c06	-0.119712874
2	0xbd718daf	-0.05897301
3	0xbe49960d	-0.19686146
4	0x3d501d9f	0.0508095
5	0xbde1e194	-0.11029354
6	0xbcb6770a	-0.02227356
7	0x3d8ff7f3	0.070297144
8	0xbe12f171	-0.14349915
9	0xbd482ae9	-0.048869047
10	0xbb3418d9	-0.002748063
11	0x3d167480	0.036732197
12	0xbc6613bb	-0.01404279
13	0x3d9e306c	0.077240795
14	0x3d927d2b	0.0715278
15	0xbe0bb1f8	-0.13642108
16	0x3e0365f7	0.12831865
17	0x3e41397e	0.18869588
18	0x3d65315b	0.055955272
19	0xbc7f327b	-0.015576
20	0x3cf44ee6	0.029822778
21	0xbcf89259	-0.030343222
22	0xbda101fd	-0.07861707
23	0x3d587190	0.052842677
24	0x3def312f	0.11679303
25	0x3d4ac635	0.04950543
26	0x3d250e54	0.040296867
27	0xbd3b210c	-0.045685813
28	0xbd8c5822	-0.068527475
29	0x3cfad004	0.030616768
30	0xbd855a92	-0.065114155
31	0x3e27e46a	0.16395727
32	0xbdd5928a	-0.10428341
33	0x3d33cae8	0.04389468
34	0xbe13a228	-0.14417326
35	0x3d4c9238	0.049944133
36	0xbde225bc	-0.110423535
37	0xbdd7ce46	-0.105373904
38	0xbb194ea9	-0.0023392832
39	0xbdeb14bf	-0.114785664
40	0x3cd7097c	0.02624964
41	0xbcc74d64	-0.024328895
42	0x3ae96ab3	0.0017808288
43	0xbd1d0744	-0.038337007
44	0xbd25f389	-0.040515456
45	0x3d3ed841	0.046592955
46	0x3d964d16	0.07338922
47	0x3d382155	0.044953663
48	0xbd91e1ff	-0.071231835
49	0x3d8cc469	0.068734
50	0xbc9c7f44	-0.019103654
51	0xbc9e4c39	-0.019323455
52	0xbbab9f65	-0.005237507
53	0x3de6a023	0.112610124
54	0x3d0a0f78	0.03370616
55	0xbc362333	-0.011116791
56	0x3e1465aa	0.14491907
57	0x3db1395c	0.086535186
58	0xbdcf4a2b	-0.10121568
59	0xbd94adcc	-0.072597116
60	0x3d0fc88a	0.03510336
61	0x3e02293f	0.12711047
62	0xbcf70fdf	-0.030158935
63	0xbca43ea7	-0.020049406
64	0xbb30f724	-0.0027002776
65	0x3e0b1e0a	0.13585678
66	0x3c4be819	0.012445473
67	0xbdaa9487	-0.083291106
68	0xbd3ad4ae	-0.045612983
69	0xbd9bc609	-0.076061316
70	0x3d203579	0.039113495
71	0xbcfb7fe4	-0.030700631
72	0x3cfc3524	0.030787058
73	0xbc0cec7b	-0.008601303
74	0x3d173ae2	0.03692139
75	0xbe011d35	-0.12608798
76	0x3d814e16	0.06313722
77	0xbcd8b4fb	-0.026453486
78	0x3d79f416	0.061023794
79	0x3dc32709	0.0952893
80	0x3977aa83	0.00023619276
81	0xbd825cc8	-0.06365353
82	0x3d42cedf	0.04756057
83	0xbe06a543	-0.1314898
84	0xbd6c8eb5	-0.057753284
85	0x3da9821f	0.08276772
86	0xbd94e376	-0.07269947
87	0x3d873c50	0.066033006
88	0xbbcc173b	-0.006228355
89	0xbba2e1c0	-0.004970759
90	0xbc9890ef	-0.018623797
91	0x3bb47d04	0.005508067
92	0xbd7ea08b	-0.062164824
93	0xbdbd7af8	-0.0925197
94	0xbcec3416	-0.02883343
95	0xbdc0bef3	-0.09411421
96	0xbe05d937	-0.13071142
97	0x3d6ef163	0.058335673
98	0x3c1aa2bd	0.009438214
99	0xbd6b76a2	-0.057486184
100	0x3cb38d00	0.02191782
101	0xbc80fa5c	-0.01574438
102	0x3d85c5ee	0.06531893
103	0x3e10525e	0.1409392
104	0xbd9b4460	-0.07581401
105	0x3d456316	0.0481902
106	0xbddd1684	-0.1079531
107	0xbd4dcb4e	-0.050242715
108	0x3e163787	0.1466962
109	0x3d219c15	0.039455492
110	0x3d1ac2a7	0.03778329
111	0xbd8369ba	-0.0641665
112	0xbd74dd9e	-0.059781663
113	0x3bb19924	0.005419867
114	0x3dc2b851	0.09507812
115	0xbddea066	-0.10870437
116	0x3e0cc33f	0.13746355
117	0xbcd35863	-0.025798982
118	0x3be3d057	0.0069523263
119	0x3e0714a3	0.13191466
120	0x3cd28b9f	0.025701342
121	0x3d8f03b9	0.06983132
122	0xbdbb4b7f	-0.09145259
123	0xbde36b2a	-0.11104424
124	0x3cc835eb	0.024439773
125	0x3d2b2fe5	0.041793723
126	0xbc5d03ca	-0.013489673
127	0x3dd10abe	0.10207127
128	0xbde0d263	-0.10977628
129	0x3dbd938c	0.09256658
130	0xbcb842ef	-0.022492854
131	0x3d31ab9d	0.043376554
132	0x3c652156	0.013984999
133	0x3d8a6732	0.06757964
134	0x3daa6656	0.083203
135	0xbb863af9	-0.0040963856
136	0x3d8920fb	0.06695744
137	0x3e2a0e8d	0.16607113
138	0x3e01b8b9	0.12668122
139	0x3da18310	0.07886326
140	0xbdc4d92f	-0.09611737
141	0x3d12aaff	0.035807606
142	0x3dd8cb85	0.10585693
143	0x3df6f735	0.1205887
144	0x3d748abd	0.059702624
145	0x3de4bc5e	0.11168741
146	0x3e32a542	0.17445853
147	0x3d5c74ed	0.053822447
148	0x3b1e374d	0.0024141849
149	0xbd5540f5	-0.0520639
150	0xbb3e3bb4	-0.0029027285
151	0xbd55e988	-0.052224666
152	0x3d1584b9	0.036503527
153	0xbd8cfa6c	-0.06883702
154	0x3e124e2a	0.1428763
155	0xbd6459b9	-0.05574963
156	0x3d5d37da	0.054008342
157	0x3deb188c	0.11479291
158	0x3dd64bf9	0.104637094
159	0xbe231e5a	-0.15929547
160	0xbde1cb63	-0.11025121
161	0x3dad01ff	0.08447646
162	0x3e21c854	0.15799075
163	0x3cca58b4	0.0247005
164	0x3d829bb7	0.063773565
165	0x3dc1dc4b	0.09465846
166	0xbac56d65	-0.0015062509
167	0xbd348c22	-0.044078954
168	0xbdc58aa3	-0.096455835
169	0xbdbab08d	-0.09115706
170	0x3d89e23a	0.067326024
171	0x3dcc6b51	0.099814065
172	0xbdb5bd0b	-0.08873948
173	0xbd6ca860	-0.057777762
174	0xbc50c316	-0.012741825
175	0xbdb5acca	-0.088708475
176	0x3dabaaff	0.08382224
177	0xbe30eeb8	-0.17278564
178	0x3cba8db2	0.022772644
179	0x3cf7a9d7	0.030232353
180	0xbd60d6af	-0.05489224
181	0xbde3caf5	-0.11122695
182	0xbd2d2def	-0.042280134
183	0x3c5ec9f2	0.013597952
184	0xbdec56f0	-0.115400195
185	0x3ddd17ac	0.10795531
186	0xbda083d5	-0.07837645
187	0x3de174a0	0.110085726
188	0xbd682c73	-0.056683015
189	0xbd21a519	-0.03946409
190	0xbddb1c96	-0.10698812
191	0x3dfe124d	0.12405834
192	0xbdae92aa	-0.08524068
193	0xbe0f836f	-0.14014982
194	0x3d3b0726	0.045661114
195	0x3d40e699	0.047094915
196	0x3e097355	0.13422902
197	0xbc9fca92	-0.019505773
198	0xbb51d7fb	-0.0032019604
199	0xbe0bc5b6	-0.1364964
200	0x3dba18af	0.09086739
201	0xbddf84b5	-0.10913984
202	0x3dab655a	0.08368941
203	0x3d0214ea	0.031758226
204	0x3d5bd976	0.053674184
205	0xbe465878	-0.19369686
206	0xbdff5ed5	-0.1246926
207	0xbd18b2b0	-0.037279785
208	0xbca36d88	-0.01994969
209	0x3d81e07c	0.06341645
210	0x3d41628d	0.047213126
211	0x3dc93e3d	0.09826324
212	0xbdbf10f0	-0.093294024
213	0xbd99437d	-0.074835755
214	0x3a6548e3	0.00087465177
215	0x3db4959d	0.08817599
216	0xbcf3a391	-0.02974108
217	0xbe08a928	-0.13345778
218	0xbe46b538	-0.19405067
219	0xbe653df5	-0.22386916
220	0xbdcf86b3	-0.10133114
221	0xbc916ee1	-0.017753066
222	0xbe44404d	-0.19165154
223	0x3d0fa2cd	0.03506737
224	0x3de1621a	0.110050395
225	0x3c77b53b	0.015118892
226	0x3d824568	0.063608944
227	0xbdd7b2dc	-0.105321616
228	0x3d904697	0.07044714
229	0xbd7b2bad	-0.06132095
230	0x3dbfb325	0.09360341
231	0xbd927ec9	-0.071530886
232	0xbd6c6367	-0.057711985
233	0x3db3e155	0.08783213
234	0xbd5ef5db	-0.054433685
235	0x3d8a2c13	0.06746688
236	0x3dd30621	0.10303903
237	0x3d00e858	0.03147158
238	0xbaf4a093	-0.0018663578
239	0xbd582c50	-0.052776635
240	0x3d1e0e8a	0.038588084
241	0xbdee0125	-0.11621312
242	0xbd8d2148	-0.068911135
243	0xbd30998b	-0.04311518
244	0xbd602789	-0.054725204
245	0xbdc616e6	-0.09672336
246	0x3df89b11	0.121389516
247	0x3b0eb964	0.0021777982
248	0x3dce9d9a	0.10088654
249	0x3c897615	0.016779939
250	0x3dc60a3c	0.09669921
251	0xbde0ac38	-0.10970348
252	0xbd257e0e	-0.04040342
253	0x3de15138	0.11001819
254	0x3e003ed1	0.12523963
255	0x3d79e49b	0.06100903

conv1.0.bias f4 [8]
0	0x3e079f71	0.13244416
1	0x3b854ade	0.0040677628
2	0xbd0fe7e7	-0.03513327
3	0x3dfe292e	0.12410198
4	0x3d9185e5	0.071056165
5	0x3dccf548	0.10007721
6	0xbddd53e0	-0.108070135
7	0xbc3572c0	-0.011074722

conv1.1.weight f4 [8]
0	0x3f80dd89	1.0067607
1	0x3f7a3702	0.97740185
2	0x3f7dc879	0.9913402
3	0x3f75a202	0.9595033
4	0x3f808b5c	1.0042529
5	0x3f76dcfd	0.9643095
6	0x3f81f2d1	1.0152227
7	0x3f891f20	1.0712624

conv1.1.bias f4 [8]
0	0x3b3e43ba	0.0029032067
1	0xbd4611e3	-0.0483569
2	0xbcec5aeb	-0.028851947
3	0xbb10ee1b	-0.0022114578
4	0xbc38846a	-0.011262039
5	0x3d9c413d	0.07629631
6	0xbd3153eb	-0.04329292
7	0x3dbd18d3	0.092332505

conv1.1.running_mean f4 [8]
0	0x3e53807c	0.20654482
1	0xbce92ede	-0.02846473
2	0xbdd0cc99	-0.10195274
3	0x3d788aac	0.060679123
4	0x3e440a8a	0.19144645
5	0x3d9a8fca	0.07546957
6	0xbde7fa73	-0.11327066
7	0xbc1d391d	-0.009596136

conv1.1.running_var f4 [8]
0	0x3d6832f4	0.056689218
1	0x3c60c604	0.013719086
2	0x3e78a6f2	0.24282435
3	0x3cc2ee93	0.023795402
4	0x3e271845	0.16317852
5	0x3d0ef450	0.034900963
6	0x3ca44b15	0.020055333
7	0x3cf7fd21	0.030272068

conv2.0.weight f4 [16, 8, 4, 4]
0	0x3d98cd78	0.07461065
1	0x3dcca5f1	0.09992588
2	0x3d0619ef	0.032739576
3	0x3d4b39ba	0.0496156
4	0xbd9da0a3	-0.07696655
5	0x3d995512	0.07486929
6	0xbd42124f	-0.04738074
7	0x3d94986c	0.07255635
8	0xbd9c9ba3	-0.07646873
9	0x3d8bc0f0	0.06823909
10	0x3d5d10e0	0.05397117
11	0x3c8b508d	0.017006183
12	0xbcdff537	-0.027338607
13	0xbdc86e80	-0.09786701
14	0xbdce0ce7	-0.10061055
15	0x3ca2dc07	0.019880308
16	0xbc8db42e	-0.01729783
17	0x3dac7e94	0.0842258
18	0x3d8ac3b5	0.067756094
19	0xbce79bf2	-0.028272603
20	0x3d587ada	0.052851535
21	0xbd9d5efe	-0.07684134
22	0x3d00b255	0.03142007
23	0xbcfde2e6	-0.030991983
24	0x3cc19411	0.023630174
25	0x3c391dc1	0.011298598
26	0xbd5edc22	-0.054409154
27	0x3cdbcbfb	0.026830664
28	0x3d1b31bc	0.037889227
29	0x3cf81a45	0.030285964
30	0xbcc379d4	-0.023861803
31	0xbdb34bbf	-0.08754682
32	0xbd3050a3	-0.04304565
33	0x3c9c7837	0.019100292
34	0x3d308bbe	0.04310202
35	0xbd19b2fa	-0.0375242
36	0xbdadb25d	-0.08481286
37	0xbc91e513	-0.017809426
38	0xbbf93eb2	-0.007606351
39	0x3d3fc1fe	0.046815865
40	0xbd09d24e	-0.033647828
41	0xbd882827	-0.066482835
42	0xbc3380c4	-0.010955993
43	0xbccb6970	-0.02483055
44	0xbdd21296	-0.10257451
45	0xbdb97b96	-0.09056775
46	0xbd9a7e75	-0.07543651
47	0xbdbbed07	-0.09176069
48	0x3d499b26	0.049220227
49	0xbcb44354	-0.02200476
50	0x3d359282	0.044329174
51	0x3c80f0a7	0.015739752
52	0x3ce9a76b	0.028522214
53	0x3d0339f9	0.03203771
54	0xbd4ed78e	-0.050498538
55	0xbd2ef6a8	-0.0427157
56	0x3b6ee072	0.0036449698
57	0xbcd4dee3	-0.025985187
58	0x3c37ed22	0.01122597
59	0x3a813c4d	0.000985989
60	0x3da14a69	0.07875521
61	0xbcb464c3	-0.022020703
62	0xbb471bc9	-0.0030381551
63	0xbb1a63d6	-0.0023558042
64	0x3d818a66	0.063252255
65	0xbcd74fb6	-0.026283126
66	0x3bb132bc	0.0054076593
67	0x3d42be3b	0.0475447
68	0x3d21de67	0.03951874
69	0x3a8d3986	0.001077459
70	0x3dcd4126	0.10022192
71	0xbc22e7fa	-0.009943003
72	0x3d560c30	0.052257717
73	0xbd0851b8	-0.033281058
74	0x3da63b77	0.08116811
75	0x3d4e4bab	0.05036513
76	0xbda0c3b5	-0.07849828
77	0xbce57ea0	-0.028014481
78	0xbd619e1e	-0.055082433
79	0xbd294b15	-0.04133137
80	0xbda98e5f	-0.08279108
81	0xbdc125b1	-0.09431017
82	0x3bb2f6e6	0.0054615615
83	0xba87c0d2	-0.0010357148
84	0x38b04963	8.406003e-05
85	0xbca43926	-0.020046782
86	0x3d161cd1	0.036648575
87	0x3c3c0713	0.011476296
88	0x3b88d10d	0.0041753114
89	0x3d88fbb8	0.066886365
90	0x3d402adf	0.046915885
91	0x3d9975f2	0.074931994
92	0xbb5c1975	-0.003358451
93	0x3c26d926	0.010183608
94	0xbd91c1eb	-0.07117065
95	0x3c394114	0.01130702
96	0x3d9654fe	0.0734043
97	0xbaa67025	-0.0012698217
98	0x3dae8a4f	0.08522474
99	0x3d43a3a2	0.047763474
100	0x3da3c9ca	0.079974726
101	0x3d074cf4	0.033032373
102	0x3ca1621d	0.019700104
103	0x3d36d8a9	0.044640217
104	0xbc999ebb	-0.018752446
105	0x3cf39c3f	0.02973759
106	0xbc7e9c23	-0.015540156
107	0x3d6e8df6	0.058240853
108	0xbc0faed5	-0.008769711
109	0x3dc69070	0.09695518
110	0x3ce98bbf	0.028509019
111	0x3db4442e	0.08802067
112	0xbc2a0aad	-0.010378522
113	0x3c99241a	0.018693972
114	0xbcee6a11	-0.02910331
115	0x3c3989b9	0.01132434
116	0xbd20b7bb	-0.03923772
117	0xbb50e55d	-0.0031874992
118	0xbcf4ae3b	-0.029868236
119	0xbd03377f	-0.032035347
120	0x3d9816b9	0.07426209
121	0x3ca63cdd	0.020292694
122	0x3d53a78f	0.05167347
123	0x3d43d22f	0.04780787
124	0x3d5cb1a8	0.053880364
125	0xbb91626b	-0.004436781
126	0x3d7feac0	0.062479734
127	0xbd00c741	-0.031440023
128	0x3cf7f992	0.030270372
129	0x3c388dc1	0.0112642655
130	0xbcd02202	-0.025406841
131	0xbd63492c	-0.055489704
132	0xbd3c1de1	-0.045926932
133	0xbd90ae34	-0.070644766
134	0xbd0f9fd2	-0.035064526
135	0x3da33158	0.07968396
136	0x3d6b3c2c	0.05743043
137	0x3bc13732	0.0058964724
138	0xbb72436a	-0.0036966451
139	0x3d97f5fe	0.07419966
140	0xbd58503c	-0.052810892
141	0xbaf56956	-0.0018723409
142	0x3dbe1627	0.09281569
143	0xbd4079b0	-0.04699105
144	0x3cac1282	0.021004919
145	0x3cd4c683	0.025973564
146	0xbd46b8e7	-0.04851618
147	0xbda0882c	-0.07838473
148	0xbdb63588	-0.08896929
149	0xbd4ce89f	-0.050026532
150	0xbdabdbc3	-0.083915256
151	0xbd0f9442	-0.0350535
152	0x3c907356	0.017633121
153	0xbd3e8f7f	-0.046523567
154	0x3d77472d	0.060370613
155	0x3cfc36ee	0.030787911
156	0x3b5c89a5	0.0033651378
157	0xbd1e0d9b	-0.038587194
158	0x3d9d22b1	0.076726325
159	0x3de5c622	0.112194315
160	0xbdbf4932	-0.09340133
161	0xbcc42ad1	-0.023946198
162	0x3d8cf921	0.06883455
163	0xbc9e95b6	-0.019358497
164	0x3d90a514	0.07062736
165	0x3d18add5	0.037275154
166	0x3d35475a	0.0442575
167	0xbd786f2e	-0.060652904
168	0x3cba0a9f	0.022710143
169	0xbc2883c0	-0.010285318
170	0xbdb033a7	-0.08603602
171	0x3d102213	0.035188746
172	0x3c8fbebe	0.017547008
173	0xbd5ee598	-0.054418176
174	0x3c9f2fa2	0.019431893
175	0x3d7e5b7f	0.062098976
176	0xbcb21142	-0.021736745
177	0xbcb51020	-0.022102416
178	0x3dd29334	0.10281983
179	0xbb847c8b	-0.004043167
180	0xbd434f15	-0.04768284
181	0xbd02dafc	-0.03194712
182	0xbd496f8b	-0.04917864
183	0x3cdad3c3	0.026712304
184	0xbced83e9	-0.028993564
185	0xbd8b1ae8	-0.06792241
186	0xbd99d75f	-0.07511782
187	0x3b949d13	0.0045353263
188	0xbd8d803b	-0.06909224
189	0xbb857526	-0.004072803
190	0x3d0db290	0.03459412
191	0xbcd10a28	-0.025517538
192	0xbce5729a	-0.028008748
193	0xbd821c9a	-0.063531116
194	0xbba0f6d8	-0.0049122386
195	0x3b3f63f4	0.0029203864
196	0xbc94cac2	-0.018163089
197	0x3d2efa15	0.042718966
198	0x3d0dc12b	0.034608047
199	0xbd568311	-0.05237109
200	0xbd794c24	-0.06086363
201	0xbd84b48a	-0.064797476
202	0xbda180fc	-0.0788593
203	0x3d464c82	0.048412807
204	0xbc31ae31	-0.010844753
205	0xbcf99ff0	-0.030471772
206	0x3dc49594	0.09598842
207	0xbd123ac5	-0.03570058
208	0xbcdef3c9	-0.027215855
209	0xbd0f7bff	-0.03503036
210	0xbd963676	-0.07334606
211	0xbd53ccb6	-0.0517089
212	0x3d0ad1f3	0.03389163
213	0xbd273ca6	-0.040829323
214	0xbdb9d6ad	-0.09074149
215	0xbdf74ea5	-0.12075547
216	0x3c9d3107	0.019188417
217	0xbd3d82a6	-0.046267174
218	0xbd04e337	-0.03244325
219	0xbcc93c2b	-0.024564823
220	0x3c6289ad	0.01382677
221	0xbd8b596a	-0.06804164
222	0xbd304046	-0.043030046
223	0x3c6aa092	0.0143205095
224	0x3cd98340	0.026551843
225	0x3c508d2e	0.012728972
226	0xbcde420c	-0.027131103
227	0x3da43bc9	0.080192156
228	0x3d4bb2b4	0.04973097
229	0xbd4b8947	-0.049691465
230	0xbd35da19	-0.044397447
231	0x3c96c153	0.018402731
232	0xbdaf5113	-0.085603856
233	0xbc6c187e	-0.014410136
234	0xbe332187	-0.17493258
235	0xbd72045e	-0.059086196
236	0x3b917480	0.0044389367
237	0xbd96abf7	-0.073570184
238	0xbdb67c2f	-0.08910405
239	0x3c9b1a66	0.018933486
240	0x3cbd4f72	0.023109172
241	0xbd751f82	-0.0598445
242	0x3be6efc2	0.0070476243
243	0xbc10447a	-0.008805389
244	0xbe1a9100	-0.15094376
245	0xbe1094ac	-0.14119214
246	0xbdc82509	-0.09772689
247	0x3c9e2a68	0.01930733
248	0xbcecbb33	-0.028897857
249	0xbe5bc4b4	-0.21461755
250	0xbe00c809	-0.12576307
251	0xbd828b87	-0.06374269
252	0xbc7268cb	-0.014795492
253	0xbcd23e65	-0.025664518
254	0xbd83ef1b	-0.0644209
255	0x3d1d35cf	0.038381394

conv2.0.bias f4 [16]
0	0xbdb26832	-0.0871128
1	0x3daa42ef	0.08313548
2	0x3d87ff2d	0.06640468
3	0xbc445403	-0.011982921
4	0xbd1095d3	-0.035299134
5	0x3bda2a30	0.006657861
6	0xbd133ad9	-0.035944793
7	0xbd6f6969	-0.058450136
8	0xbca7bd2d	-0.020475948
9	0x3d2c75c8	0.042104512
10	0xbd71f6d0	-0.05907327
11	0xbd07e173	-0.03317399
12	0xbd326a23	-0.04355825
13	0xbdad59fa	-0.08464427
14	0x3d8cf6ab	0.06882986
15	0xbd9397ab	-0.07206663

conv2.1.weight f4 [16]
0	0x3f78e5db	0.9722573
1	0x3f87743f	1.058235
2	0x3f7b56b2	0.9817916
3	0x3f7d0880	0.98841095
4	0x3f7d51fc	0.98953223
5	0x3f7aa7c6	0.9791225
6	0x3f801d67	1.0008973
7	0x3f835b47	1.0262231
8	0x3f750255	0.95706683
9	0x3f8025f1	1.0011579
10	0x3f80d3e0	1.0064659
11	0x3f8180da	1.0117447
12	0x3f8aa569	1.0831729
13	0x3f7e0775	0.9923013
14	0x3f802950	1.0012608
15	0x3f806e27	1.0033616

conv2.1.bias f4 [16]
0	0xbc11bfa9	-0.008895793
1	0xbb2ff7d9	-0.002685061
2	0x3c291879	0.010320776
3	0xbd917737	-0.071028166
4	0xbb835c3b	-0.0040087975
5	0xbd163b44	-0.036677614
6	0xbcd804fa	-0.02636956
7	0xbd05d16e	-0.03267043
8	0xbcea511b	-0.028603127
9	0x3c9ba3f5	0.01899908
10	0x3c2a12d7	0.010380468
11	0xbc84e71b	-0.01622348
12	0xbd05f16d	-0.032700945
13	0x3c879bd3	0.016553795
14	0x3cb03808	0.021511093
15	0xbb930fd9	-0.004487973

conv2.1.running_mean f4 [16]
0	0x3db4c05d	0.08825753
1	0xbf4de788	-0.80431414
2	0xbe575ff4	-0.21032697
3	0x3f8bd546	1.0924461
4	0xbe3dd7d9	-0.1853937
5	0xbe3c8b7e	-0.18412587
6	0xbcc411d8	-0.02393429
7	0x3d39d6b8	0.045370787
8	0xbe28ede7	-0.16497003
9	0xbf2b644f	-0.66949934
10	0xbb8c9de1	-0.0042912816
11	0x3f148dc1	0.580288
12	0xbd62bc18	-0.05535516
13	0xbee998c5	-0.45624366
14	0x3d9c167a	0.076214746
15	0x3e067e7b	0.13134186

conv2.1.running_var f4 [16]
0	0x3e80704c	0.25085676
1	0x3eb54c1a	0.35409623
2	0x3f0d4d85	0.5519641
3	0x3eae09bd	0.33991805
4	0x3e69f9a6	0.2284914
5	0x3de23078	0.11044401
6	0x3d978f6f	0.07400405
7	0x3e4a0d25	0.19731577
8	0x3ee4fef0	0.44725752
9	0x3ed637b6	0.4183938
10	0x3e3addc8	0.18248665
11	0x3e5ebf18	0.21752584
12	0x3ec8f7af	0.39251468
13	0x3e6c241e	0.23060653
14	0x3e6ee99a	0.233313
15	0x3e881435	0.26577917

conv3.0.weight f4 [32, 16, 4, 4]
0	0x3cb29338	0.021798715
1	0xbb276016	-0.002553945
2	0xbd6befa0	-0.05760157
3	0xbd84e560	-0.06489062
4	0xbd3bdd02	-0.045865066
5	0x3aeab298	0.0017906008
6	0x3bcb7ae3	0.0062097176
7	0xbc486610	-0.012231365
8	0xbd148e92	-0.03626878
9	0xbc4f4f0c	-0.012653124
10	0xbac6e0af	-0.0015173162
11	0xbd3b0332	-0.045657344
12	0xbd0e2c37	-0.034710135
13	0x3d03f2dc	0.03221403
14	0x3ce22a89	0.027608173
15	0x3c1ee09e	0.009697108
16	0xbd8e1eb7	-0.06939452
17	0xbcbc9b4d	-0.023023272
18	0xbb1c5489	-0.0023854098
19	0x3c425f35	0.011863519
20	0xbc71f069	-0.014766791
21	0xbce4ebce	-0.027944472
22	0x3d1ddce1	0.038540725
23	0xbd1de0cf	-0.038544472
24	0xbd326e60	-0.043562293
25	0xbd81fcba	-0.06347032
26	0xbc838160	-0.016052902
27	0x3b8e446d	0.004341653
28	0xbcf3ddf0	-0.029768914
29	0x3c176965	0.009241437
30	0xbd39059f	-0.045171376
31	0xbd7805e0	-0.060552478
32	0x3d4b38a4	0.049614564
33	0xbbbff656	-0.005858223
34	0xbb701d86	-0.003663869
35	0x3ce09322	0.027413908
36	0x3c803f45	0.01565517
37	0xbc739aea	-0.014868477
38	0x3bd3d6e2	0.006464825
39	0x3d68b4a3	0.056812894
40	0x3bfffdb6	0.007812227
41	0x3d2eefcc	0.042709157
42	0x3c53400e	0.01289369
43	0xbbe8c31e	-0.007103338
44	0x3b276285	0.00255409
45	0x3c82b09e	0.015953358
46	0x3c9e7dc0	0.019347072
47	0x3c377dbe	0.011199413
48	0xba92c69b	-0.0011198105
49	0xbc32f67c	-0.010923024
50	0xbd0f06a7	-0.034918454
51	0xbd8708af	-0.06593453
52	0xbc209519	-0.009801173
53	0x3d602198	0.054719537
54	0xbd06decc	-0.03292732
55	0xbd1c9b48	-0.038234025
56	0x3cb7ef0b	0.022452852
57	0xbd01f799	-0.03173027
58	0xbd2f8a7e	-0.042856686
59	0xbd5b4253	-0.05353005
60	0x3d1ad041	0.037796263
61	0xbd0505f8	-0.032476395
62	0x3d2e1eae	0.042509727
63	0xbd79e101	-0.061005596
64	0x3d4956dc	0.0491551
65	0x3c631fe0	0.01386258
66	0x3cdac9b3	0.026707506
67	0x3cd17e02	0.02557278
68	0x3c03c009	0.00804139
69	0x3bf8af62	0.0075892666
70	0x3d12ead4	0.03586848
71	0xbc4bb026	-0.012432134
72	0xbbf11cde	-0.0073581776
73	0xbccf0b09	-0.025273817
74	0xbc8d72b8	-0.017266616
75	0x3ce3b1f5	0.027794817
76	0xbd4b11fb	-0.049577694
77	0x3d71adee	0.059003763
78	0xbc37775c	-0.011197891
79	0xbbcc3e10	-0.0062329844
80	0xbb1ac45f	-0.0023615581
81	0x3d247226	0.040147923
82	0x3c9dfd64	0.019285865
83	0xbc0ede06	-0.008719927
84	0xbce6fc90	-0.028196603
85	0x3d1b1a10	0.037866652
86	0x3c1fce66	0.009753799
87	0x3c260865	0.010133837
88	0x3d77aaf6	0.060465775
89	0xbce72ab6	-0.028218608
90	0x3c84fad4	0.016232885
91	0x3cfa9349	0.03058781
92	0xbb1036bf	-0.0022005287
93	0xbd4c109e	-0.049820535
94	0xba3bc377	-0.00071626104
95	0xbd01b0e9	-0.031662855
96	0x3d87a8f7	0.06624024
97	0x3d2778e8	0.04088679
98	0xbc2b02ea	-0.0104377065
99	0xbca49396	-0.020089906
100	0x3ccc4395	0.02493457
101	0xbad897b1	-0.00165247
102	0xbd4f4710	-0.05060488
103	0xbc5f7625	-0.013639008
104	0x3cebe5a1	0.028796019
105	0xbd7f9345	-0.062396307
106	0xbd8304a0	-0.063973665
107	0xbca5d8dc	-0.020245008
108	0x3d3985af	0.045293506
109	0xbca83cab	-0.020536741
110	0xbd2b5f11	-0.04183871
111	0x3c965e93	0.018355643
112	0x3c3066ba	0.010766679
113	0x3d5bc1af	0.053651508
114	0xbd59d347	-0.053180005
115	0xbd760984	-0.06006767
116	0x3d7d77a1	0.061881665
117	0xbc037583	-0.008023622
118	0xbd51095f	-0.051034328
119	0xbd1d31b9	-0.038377497
120	0xbd837784	-0.0641928
121	0x3bc9a5d6	0.0061538024
122	0xbd9aa848	-0.07551628
123	0xbde5b47c	-0.11216065
124	0xbb722d1c	-0.0036953157
125	0x3d93efff	0.0722351
126	0x3b5b5602	0.0033468013
127	0xbd64467c	-0.05573128
128	0xbba9c2ec	-0.005180707
129	0xbd4febf2	-0.050762124
130	0xbcf12a83	-0.029439216
131	0xbd35c619	-0.044378374
132	0xbc1a755b	-0.009427394
133	0x3d31bd50	0.043393433
134	0xbc776a60	-0.015101045
135	0xbccf6c79	-0.025320278
136	0xbd4463c6	-0.047946714
137	0xbc9a9b48	-0.018872872
138	0xbaae094f	-0.0013277921
139	0xbd513aeb	-0.05108158
140	0xbd12feac	-0.035887405
141	0x3ce6b257	0.028161211
142	0x3c1ae4b8	0.009453945
143	0xbd9bd686	-0.076092765
144	0xbca5f3ce	-0.020257857
145	0x3d003755	0.03130277
146	0x3d2c5d18	0.04208097
147	0xbd334129	-0.043763313
148	0xbbe87c51	-0.007094898
149	0xbd5f1852	-0.054466553
150	0xbac4fb5e	-0.0015028527
151	0xbd212ca2	-0.039349206
152	0xbd5fd6c1	-0.054648165
153	0xbd4604ac	-0.0483443
154	0xbc47cd13	-0.01219489
155	0x3d852b63	0.06502416
156	0x3c51af8c	0.012798201
157	0x3ccaf5f4	0.024775483
158	0xbd4dcf30	-0.050246418
159	0xbd932fd8	-0.0718686
160	0x3d3cb571	0.046071474
161	0x3da177cc	0.078841776
162	0x3bb2af5e	0.0054530343
163	0x3d17f8ed	0.03710263
164	0xbc8f7947	-0.017513884
165	0x3c82e3da	0.015977789
166	0xbb301e02	-0.0026873355
167	0x3c697cb7	0.014250926
168	0x3d896dec	0.06710419
169	0x3d315218	0.04329118
170	0x3d1cc167	0.03827038
171	0xbd0dead1	-0.034647767
172	0x3d2dc582	0.042424686
173	0xbd244242	-0.04010225
174	0x3ca821af	0.020523874
175	0x3cf2e8a8	0.029651955
176	0x3c3d4967	0.011553145
177	0x3d36f0cc	0.044663236
178	0xb8dc3954	-0.00010501096
179	0xbd9ae77c	-0.075636834
180	0xbb7dd514	-0.003873174
181	0x3cc559b8	0.024090633
182	0xbda5b4c2	-0.080911174
183	0xbd7b4092	-0.061340876
184	0x3d888d8b	0.06667622
185	0x3cd9921c	0.026558928
186	0x3d2776fe	0.040884964
187	0x3a3d7b53	0.00072281546
188	0x3d509b4d	0.050929356
189	0xbd33025b	-0.04370342
190	0xbd70c1c9	-0.058778558
191	0x3aae1808	0.0013282308
192	0xbd22bd79	-0.039731476
193	0x3c3944d4	0.011307914
194	0x3d42f6a3	0.047598492
195	0xbdab1684	-0.08353904
196	0x3cf9d9a5	0.030499289
197	0xbc4ab201	-0.012371541
198	0xbd17a343	-0.037020933
199	0xbdaf5e2a	-0.08562882
200	0xbc9c0edb	-0.019050052
201	0xbdb61d80	-0.088923454
202	0xbd2e2d12	-0.04252345
203	0xbe040cc8	-0.128955
204	0xbd649626	-0.055807255
205	0x3d524a73	0.05134053
206	0xbd446158	-0.047944397
207	0xbd3e65a4	-0.04648365
208	0x3d579289	0.05262998
209	0x3c1c9a5a	0.009558285
210	0x3d13b0dd	0.03605734
211	0xbd042a2b	-0.032266777
212	0x3caabe37	0.020842655
213	0x3b0b7b3f	0.0021283177
214	0xbaa22995	-0.0012372012
215	0xbd02e7e1	-0.03195942
216	0x3d089b28	0.033351094
217	0x3d07a282	0.033113964
218	0x3d130e3a	0.03590224
219	0xbc5fef0f	-0.013667836
220	0xbc936ee1	-0.017997207
221	0xbd972ed1	-0.073819764
222	0x3d1abe1a	0.03777895
223	0xbc2e2348	-0.010628529
224	0x3d91381f	0.070907824
225	0x3d623aef	0.055231985
226	0xbd23f6cf	-0.040030297
227	0xbcfe2876	-0.031025153
228	0x3cd7d9f2	0.026349042
229	0xbd3f9b6e	-0.04677909
230	0xbd069d47	-0.032864835
231	0x3ceb8b37	0.028752906
232	0x3c5d66af	0.013513251
233	0x3d4a1de4	0.049344912
234	0x3d3ff075	0.046860177
235	0xbd4f52fc	-0.05061625
236	0xbd063015	-0.0327607
237	0x3d416b58	0.04722151
238	0xbd83379d	-0.06407092
239	0xbc16cdd4	-0.009204347
240	0xbbd7cb3b	-0.0065855063
241	0x3c6810dc	0.014164176
242	0x3cc04639	0.023470985
243	0x3b70bfe6	0.0036735474
244	0x3d85e5a1	0.06537939
245	0xbcd1fd9e	-0.02563363
246	0x3d3390d6	0.0438393
247	0x3d34814b	0.044068616
248	0x3d3519aa	0.04421393
249	0x3d46e1bf	0.048555132
250	0xbd92348a	-0.07138927
251	0xbdb239c1	-0.08702422
252	0xbd007405	-0.031360645
253	0xbb8dd657	-0.00432853
254	0xbd6eed36	-0.05833169
255	0xbd7bc164	-0.06146373

conv3.0.bias f4 [32]
0	0x3c6c7b39	0.014433675
1	0x3d6d299c	0.05790101
2	0x3c69e13f	0.014274894
3	0xbd71f6a1	-0.059073094
4	0x3b864641	0.0040977304
5	0xbd61a9a6	-0.05509343
6	0xbcc1c510	-0.023653537
7	0x3d79d450	0.060993493
8	0x3d0d45aa	0.034490265
9	0x3caaa158	0.020828888
10	0xbc732b5e	-0.0148418825
11	0x3cfe6af5	0.03105686
12	0x3cffaa9e	0.031209286
13	0xbbed8f77	-0.0072497684
14	0xbd7be056	-0.06149324
15	0x3c2c3ff3	0.010513294
16	0xbd021f26	-0.031767987
17	0x3c9640b3	0.018341398
18	0x3d40e17c	0.04709004
19	0x3cd20642	0.02563775
20	0x3d3d3928	0.046197087
21	0x3d50682d	0.0508806
22	0x3c381598	0.011235617
23	0x3d4016c5	0.046896715
24	0x3c3f68bf	0.011682688
25	0xbd267e0d	-0.040647555
26	0xbc3e3d9b	-0.011611368
27	0xbc544c70	-0.012957677
28	0xbd7ef10c	-0.0622416
29	0xbd4faa32	-0.05069942
30	0xbd5cdabc	-0.05391954
31	0x3d74ee04	0.059797302

conv3.1.weight f4 [32]
0	0x3f7d009a	0.9882904
1	0x3f7df539	0.99202305
2	0x3f80ab88	1.0052347
3	0x3f8221b2	1.0166533
4	0x3f79e18c	0.9760978
5	0x3f7e230d	0.99272233
6	0x3f7d58de	0.98963726
7	0x3f7c28a1	0.98499495
8	0x3f786c99	0.97040707
9	0x3f815200	1.010315
10	0x3f7bd828	0.98376703
11	0x3f7c3ca7	0.9853005
12	0x3f824be2	1.0179408
13	0x3f7993f3	0.9749138
14	0x3f8154eb	1.010404
15	0x3f8200a3	1.0156444
16	0x3f8135d3	1.0094551
17	0x3f81279b	1.0090212
18	0x3f7fa364	0.9985869
19	0x3f7f28ba	0.9967152
20	0x3f7c61d4	0.98586774
21	0x3f86da93	1.0535454
22	0x3f803111	1.0014974
23	0x3f80b07a	1.0053856
24	0x3f7b0a37	0.9806246
25	0x3f795ae6	0.97404325
26	0x3f868750	1.0510044
27	0x3f813930	1.0095577
28	0x3f7d4dac	0.9894664
29	0x3f855298	1.0415831
30	0x3f88b8a2	1.0681345
31	0x3f8109ae	1.0081079

conv3.1.bias f4 [32]
0	0xbd7bd369	-0.061480913
1	0x387dc307	6.0501534e-05
2	0xbc056a2e	-0.008142991
3	0xbe16e730	-0.14736629
4	0xbc94a4fe	-0.01814508
5	0xbbb228f7	-0.0054370123
6	0x3ce6806a	0.028137404
7	0x3bc9800f	0.006149299
8	0x3c7ffecc	0.015624713
9	0xbba7e31e	-0.00512351
10	0x3a9375c2	0.0011250305
11	0x3d240f9e	0.040053956
12	0x3d6139e5	0.054986853
13	0xbcb32b04	-0.021871097
14	0x39d0ed70	0.00039849756
15	0xbce68dae	-0.02814373
16	0x3c828718	0.015933558
17	0x3a518866	0.0007993042
18	0xbb880439	-0.004150894
19	0xbd785b4c	-0.060633942
20	0xbba8f097	-0.0051556337
21	0xbd210b1b	-0.03931723
22	0x3c58487b	0.013200874
23	0xbc4e0a82	-0.012575747
24	0x3b32cbec	0.0027282191
25	0xbc373087	-0.011181003
26	0xbb606982	-0.0034242575
27	0x3c43256f	0.01191078
28	0xbd24e2ea	-0.040255465
29	0xbd23ee7d	-0.040022362
30	0xbd81d9a9	-0.063403435
31	0x3ba20f12	0.004945644

conv3.1.running_mean f4 [32]
0	0xbf01053c	-0.5039861
1	0xbf238eb1	-0.63889605
2	0xbda41655	-0.08012072
3	0xbdd72e57	-0.105068855
4	0xbeab695e	-0.33478826
5	0x3ec1217b	0.37720856
6	0xbd8b2778	-0.067946374
7	0xbd831bb9	-0.06401772
8	0xbe077886	-0.1322957
9	0xbe85227e	-0.26002878
10	0xbe362967	-0.17789231
11	0xbecc5442	-0.39908034
12	0xbf001318	-0.50029135
13	0xbf689bb2	-0.9086257
14	0xbec9e6db	-0.3943394
15	0xbead07c8	-0.33795
16	0xbefedb5b	-0.4977673
17	0xbe0fabee	-0.1403043
18	0x3d2d583b	0.04232047
19	0x3e50b2bb	0.2038068
20	0xbf154121	-0.58302504
21	0xbe41752d	-0.18892355
22	0xbeaf39db	-0.34223828
23	0xbeaf831a	-0.3427971
24	0x3e23991f	0.1597638
25	0xbee50fd1	-0.4473863
26	0xbebd8c99	-0.3702133
27	0xbf15b4d3	-0.5847904
28	0xbe0935fb	-0.13399498
29	0x3e2fe8e3	0.17178683
30	0xbeedda48	-0.46455598
31	0xbf0a83c2	-0.54107296

conv3.1.running_var f4 [32]
0	0x3e599ff0	0.21252418
1	0x3e9e2b84	0.30892575
2	0x3e17bee8	0.14818919
3	0x3e736c61	0.23771812
4	0x3e9111b8	0.2833383
5	0x3e769abc	0.24082464
6	0x3ed9a5c4	0.42509282
7	0x3e998a33	0.2998825
8	0x3e01af92	0.12664631
9	0x3e9959ea	0.2995141
10	0x3e8b7528	0.2723782
11	0x3e7f76be	0.2494764
12	0x3ed90d12	0.42392784
13	0x3e30578b	0.17220895
14	0x3e4a3bbe	0.19749352
15	0x3e197264	0.14985043
16	0x3e3e5564	0.18587261
17	0x3e2fb25e	0.17157885
18	0x3e2269db	0.15860693
19	0x3e0bb012	0.13641384
20	0x3e511bea	0.20420805
21	0x3e161996	0.14658198
22	0x3e8bae4e	0.2728142
23	0x3e8667a5	0.2625095
24	0x3e5df3a1	0.21674968
25	0x3e73bc5c	0.23802322
26	0x3e116482	0.14198497
27	0x3ed29362	0.4112807
28	0x3e737e3c	0.23778623
29	0x3e257283	0.16156964
30	0x3e1fda7b	0.15610687
31	0x3e824be1	0.25448516

deconv2.0.weight f4 [32, 16, 4, 4]
0	0xbd9d51e0	-0.07681632
1	0x3c120cfa	0.008914227
2	0xbcc0015c	-0.023438148
3	0x3c008c5f	0.007845967
4	0xbd14d561	-0.036336306
5	0x3c90e637	0.0176879
6	0xbcaaa725	-0.020831654
7	0x3c3ad9c8	0.011404462
8	0xbd23d197	-0.039994802
9	0x3a136091	0.00056219945
10	0xbd2d0c95	-0.042248327
11	0xbd75c851	-0.06000549
12	0xbcecbb48	-0.028897896
13	0x3d20ea86	0.03928616
14	0xbd4d34c8	-0.050099164
15	0x3d0cb49f	0.03435194
16	0x3b979583	0.0046259775
17	0xbc759e91	-0.014991418
18	0x3cb8b4ac	0.022547089
19	0xbdb5ded1	-0.088803895
20	0xbd0ab3dc	-0.033862934
21	0x3cb73161	0.022362413
22	0x3def21d6	0.116763756
23	0x3c9f1526	0.019419264
24	0x3cf791ee	0.030220952
25	0xbcd017d4	-0.025401987
26	0x3d616f6f	0.055037912
27	0x3c43c95a	0.011949861
28	0xbd8f2ff6	-0.0699157
29	0x3d37fa70	0.04491657
30	0x3d3437cb	0.04399852
31	0xbbda22c3	-0.006656976
32	0x3d0b74f2	0.034047075
33	0x3c03b556	0.008038839
34	0x3d427d79	0.04748294
35	0x3bff63ae	0.007793865
36	0x3d06c49d	0.03290235
37	0x3d3dbef7	0.046324696
38	0x3b329dae	0.002725463
39	0x3cbbb633	0.022914028
40	0x3cd32a3c	0.025776975
41	0x3d30b230	0.043138683
42	0x3ae319d8	0.0017326428
43	0x3cee963e	0.029124375
44	0x3b99a7e3	0.004689203
45	0xbd601a28	-0.054712445
46	0x3b02cdaf	0.0019959023
47	0x3ba5670e	0.0050476855
48	0xbcc27bcf	-0.023740677
49	0x3cd766a4	0.02629406
50	0xbd493b0d	-0.04912858
51	0x3d13266b	0.03592531
52	0xbd913c2b	-0.07091554
53	0xbdc0eb82	-0.094199196
54	0x3dd9b5e3	0.10630395
55	0xbca2a83c	-0.019855611
56	0xbd93bcd4	-0.072137505
57	0x3c74be64	0.014937971
58	0xbd8f91ca	-0.07010229
59	0xbbe3efcc	-0.0069560762
60	0xbc8b5195	-0.017006675
61	0xbde3c729	-0.11121971
62	0x3d957abf	0.072988026
63	0xbdf76703	-0.12080195
64	0x3c766aa9	0.015040078
65	0x3d68b64e	0.056814484
66	0xbba0fd7e	-0.004913031
67	0x3b202340	0.0024435073
68	0xbd0717e2	-0.03298176
69	0xbda882e9	-0.08228094
70	0xbd247e18	-0.040159315
71	0xbcd6cc8e	-0.026220586
72	0xb999a27e	-0.000293035
73	0x3d3e715e	0.046494834
74	0xbbef2729	-0.0072983694
75	0x3ce43168	0.02785559
76	0x3d8e57f7	0.06950372
77	0x3cf5a74c	0.029987
78	0x3c80895a	0.015690494
79	0x3c5db102	0.0135309715
80	0xbcc6a177	-0.024246914
81	0x3ca78e6b	0.020453652
82	0xbd181e35	-0.037138183
83	0xbd876026	-0.06610136
84	0x3d5c0f82	0.053725727
85	0x3cc695c4	0.024241336
86	0x3d487813	0.048942637
87	0xbbc3b0aa	-0.0059719877
88	0x3bde1124	0.0067769457
89	0xbbfd3226	-0.0077269254
90	0xbd86a875	-0.065750994
91	0xbda7f718	-0.08201426
92	0xbca9d6e4	-0.02073235
93	0x3c9a2aa3	0.018819159
94	0x3ced3747	0.028957022
95	0x3c4d4455	0.012528499
96	0xbc3678f7	-0.011137239
97	0xbd3b57bb	-0.045737963
98	0xbd9b95be	-0.075969204
99	0x3c83acb0	0.016073555
100	0x3d72e9cc	0.059304997
101	0xbd96ea27	-0.0736888
102	0x3c4ed00c	0.012622844
103	0xbc998e48	-0.018744603
104	0xbcba14f1	-0.022715064
105	0xbc896cf3	-0.016775584
106	0xbab6ad73	-0.001393719
107	0x3c7dbc5e	0.015486805
108	0x3cb07391	0.021539481
109	0x3d388329	0.04504696
110	0x3d0befae	0.034164123
111	0xbc52cd6a	-0.012866357
112	0xbd9a9c02	-0.075492874
113	0x3cadbef6	0.021209221
114	0x3a8819d6	0.0010383676
115	0x3bb801c0	0.005615443
116	0xbc69a1f5	-0.014259805
117	0xbb506db1	-0.0031803662
118	0x3ca5a12b	0.020218452
119	0x3a2fbd29	0.0006703907
120	0xbd87a795	-0.066237606
121	0x39269a8f	0.00015888571
122	0x3d44fed6	0.048094593
123	0x3c814c89	0.015783565
124	0xbcb0796e	-0.021542277
125	0x3cfb9636	0.030711275
126	0xbc854471	-0.016267987
127	0x3b92cbe7	0.0044798735
128	0xbb45591d	-0.003011293
129	0xbc72f5b3	-0.014829087
130	0xbc8bfc45	-0.017088065
131	0x3ad03fd5	0.0015888164
132	0xbd3b7b40	-0.045771837
133	0xbd5eac7d	-0.054363716
134	0x3c2b8f97	0.010471246
135	0xbd02b22c	-0.0319082
136	0x3d19d1c9	0.037553582
137	0xbd061f02	-0.032744415
138	0x3d29127a	0.041277386
139	0xbd245b7f	-0.04012632
140	0xbcb3262b	-0.021868786
141	0x3d21d657	0.03951105
142	0x3cbcc2b5	0.023042062
143	0xbd18e147	-0.037324216
144	0xbc1ca75b	-0.009561385
145	0xbc523f80	-0.012832522
146	0x3c62209a	0.013801718
147	0xbd21923b	-0.039446097
148	0x3d258121	0.04040635
149	0xbcbb23c8	-0.02284421
150	0xbdfd6c19	-0.123741336
151	0x3c7ec5f2	0.0155501235
152	0x3d7ff8b9	0.06249306
153	0xbc8196b8	-0.015818939
154	0x3d6eee44	0.058332697
155	0xbdbe425e	-0.09290002
156	0x3d86aa9f	0.06575512
157	0xbbda9a69	-0.006671239
158	0xbde688a6	-0.11256532
159	0xbc20c2e3	-0.00981209
160	0xbd317b5d	-0.04333054
161	0xbda27d12	-0.079340115
162	0xbd44795c	-0.0479673
163	0xbda07920	-0.07835603
164	0x3cd245ec	0.025668107
165	0xbc96fbcc	-0.018430613
166	0xbd1e09e6	-0.03858366
167	0xbcb206e2	-0.021731798
168	0xbcf991ed	-0.03046509
169	0xbdb2d394	-0.087317616
170	0xba2fe20c	-0.0006709404
171	0xbcfc7d56	-0.030821484
172	0x3d192df9	0.03739736
173	0xbc06c9e1	-0.008226843
174	0x3c5e01b6	0.013550213
175	0x3a42bdc2	0.0007428789
176	0xbd76eb3c	-0.06028293
177	0xbce78e56	-0.028266113
178	0xbd4b29ff	-0.049600597
179	0xbd9384d1	-0.07203067
180	0xbb4140e2	-0.0029488136
181	0xbd3b2073	-0.045685243
182	0x3c8fa1fb	0.017533293
183	0xbdc783e6	-0.097419545
184	0xbd8a5f25	-0.06756429
185	0xbd9efa46	-0.077625796
186	0xbd5ff5d7	-0.05467781
187	0xbca43c06	-0.020048153
188	0xbd2f4212	-0.04278762
189	0xbcb681a1	-0.022278609
190	0x3cdfe078	0.027328715
191	0x399b8b83	0.00029667848
192	0x3baf379b	0.005347205
193	0x3c9eb504	0.019373424
194	0xbd8fd807	-0.07023626
195	0x3d212fd0	0.03935224
196	0xbd72178a	-0.05910448
197	0xbcb0fed3	-0.021605885
198	0x3caa2ca7	0.020773245
199	0xbd73da37	-0.059534278
200	0xbcca6f47	-0.024711264
201	0x3d8dbb55	0.069204964
202	0xbd76ee00	-0.06028557
203	0x3d389e20	0.045072675
204	0xbd0aff6c	-0.033934996
205	0xbd174f4b	-0.036940854
206	0x3cbc9b8b	0.023023387
207	0xbce1fa4b	-0.02758517
208	0xbb1412c8	-0.0022594202
209	0xbc7ff575	-0.015622486
210	0xbd87f1e2	-0.06637932
211	0xbc16d020	-0.009204894
212	0x3d96554c	0.07340488
213	0x3d34c1d1	0.04413015
214	0xbc738049	-0.0148621285
215	0x3ce42a43	0.027852183
216	0x3c4b4026	0.012405431
217	0xbc86cf64	-0.016456313
218	0xbd83c77d	-0.06434534
219	0x3c273e16	0.010207674
220	0x3d966b2c	0.0734466
221	0xba58a17f	-0.0008263811
222	0x3d1dfb63	0.03856982
223	0x3cc9419b	0.024567416
224	0xbd9ec0be	-0.077516064
225	0xbbbc0502	-0.0057379017
226	0xbca8101f	-0.0205155
227	0xbd08515c	-0.033280715
228	0x3bf6f18a	0.007536118
229	0xbca3b0c3	-0.019981747
230	0x3ce5c6f5	0.028048972
231	0xbbbe1bc2	-0.005801649
232	0xbd3de3ae	-0.04635971
233	0xbd6c3b66	-0.057673834
234	0xbd4aabfb	-0.04948042
235	0xbd92a8a7	-0.07161074
236	0xbc28e0e4	-0.010307524
237	0xbd35d932	-0.044396587
238	0x3a43c0ef	0.0007467409
239	0xbd0a9f56	-0.03384336
240	0xbd0e2e34	-0.03471203
241	0xbd7d50d2	-0.061844654
242	0xba857ecb	-0.0010184882
243	0x3cb93ad0	0.022611052
244	0xbbe4d29d	-0.006983115
245	0xbce0ae0e	-0.027426746
246	0xbdcc9502	-0.099893585
247	0x3d01256f	0.03152984
248	0xbd05abe7	-0.032634642
249	0xbd245bba	-0.04012654
250	0x3c4fecd9	0.012690746
251	0xbd803866	-0.06260757
252	0x3d926ee1	0.07150055
253	0xbce5af34	-0.028037645
254	0xbd8a88ae	-0.06764351
255	0xb95b8c79	-0.00020937798

deconv2.0.bias f4 [16]
0	0x3cf1c34d	0.029512072
1	0xbd76e1f0	-0.060274065
2	0x3cf6c656	0.03012387
3	0x3cd9fce9	0.026609855
4	0x3d1e6e5e	0.038679473
5	0xbd66612b	-0.05624501
6	0x3d46996a	0.04848615
7	0xbc86254c	-0.016375206
8	0xbd77c927	-0.06049457
9	0x3d53c670	0.051702917
10	0x3ce041ba	0.02737509
11	0xbd6381aa	-0.05554358
12	0x3cd19f35	0.025588611
13	0xbc6b8675	-0.014375319
14	0x3c755016	0.014972707
15	0x3c851e58	0.01624982

deconv2.1.weight f4 [16]
0	0x3f77cf2b	0.9680049
1	0x3f823cd4	1.0174813
2	0x3f8143f1	1.0098859
3	0x3f7c372d	0.9852169
4	0x3f7ee80e	0.9957284
5	0x3f73a018	0.9516616
6	0x3f75328d	0.9578026
7	0x3f722d2c	0.94600177
8	0x3f773b47	0.96574825
9	0x3f835f64	1.0263486
10	0x3f78ded2	0.97214997
11	0x3f8bd0e0	1.0923119
12	0x3f7b6c52	0.9821216
13	0x3f74b561	0.9558926
14	0x3f84f14a	1.0386136
15	0x3f814dc0	1.0101852

deconv2.1.bias f4 [16]
0	0x3c128f8a	0.008945355
1	0x3dca6863	0.098831914
2	0x3d7050c5	0.058670778
3	0x3c9bc941	0.019016864
4	0x3d2d6aa1	0.042338017
5	0x3c87e5bb	0.016589036
6	0x3d0958db	0.033532005
7	0xbd2d3510	-0.042286932
8	0xbcacc958	-0.021092102
9	0x3e0184df	0.12648343
10	0x3d117f98	0.035522074
11	0xbd19dd66	-0.037564658
12	0xbce4562a	-0.027873117
13	0x3d1bd91c	0.03804885
14	0x3d488f75	0.048964936
15	0x3cc45ec4	0.023970969

deconv2.1.running_mean f4 [16]
0	0xbf24f2b9	-0.64432865
1	0xbf199ddc	-0.600065
2	0xbe909dd0	-0.282454
3	0xbf0c9246	-0.54910696
4	0xbea1ab76	-0.31576127
5	0xbf4f7080	-0.81031036
6	0xbf018ec9	-0.506085
7	0xbebdf050	-0.37097406
8	0xbf213e41	-0.62985617
9	0xbf40aa9b	-0.75260323
10	0xbf5fbc69	-0.87396866
11	0xbf460541	-0.77351767
12	0xbe312eb6	-0.17302975
13	0xbe98a320	-0.29811954
14	0xbf5daea2	-0.86594594
15	0xbf616176	-0.8803934

deconv2.1.running_var f4 [16]
0	0x3f32f263	0.699011
1	0x3f5fb722	0.87388813
2	0x3f5c1766	0.85973203
3	0x3f1f46c4	0.62217355
4	0x3f26cc28	0.6515527
5	0x3fad093b	1.3518442
6	0x3f9d59c4	1.2293019
7	0x3f1ea565	0.6197112
8	0x3f01dae1	0.5072461
9	0x3ff3521c	1.9009433
10	0x3fcb65b9	1.5890418
11	0x3e18e92e	0.14932701
12	0x3efe322b	0.4964765
13	0x3faa8fb8	1.332511
14	0x3f2fc0d3	0.686536
15	0x3f3cd29e	0.73758876

deconv3.0.weight f4 [16, 8, 4, 4]
0	0xbd6dd552	-0.058064766
1	0x3cb0259b	0.021502307
2	0xbc936cd5	-0.017996231
3	0xbdb9ab5f	-0.090658896
4	0xbdf3fda4	-0.119136125
5	0xbd3b73c2	-0.045764692
6	0x3ce94c09	0.02847864
7	0xbca8b41d	-0.020593697
8	0xbd65e8f5	-0.05613037
9	0x3cae62f3	0.021287417
10	0x3cbd5908	0.023113742
11	0x3d8606b5	0.06544248
12	0xbd5aae54	-0.05338891
13	0xbd012213	-0.031526636
14	0x3d3a26a5	0.04544701
15	0xbbee5fe7	-0.007274616
16	0xbbdc10ce	-0.0067158705
17	0xbd3179cd	-0.04332905
18	0x3c8d305f	0.01723498
19	0x3daa9f9f	0.083312266
20	0x3d30faf8	0.043208092
21	0x3d05fe36	0.032713138
22	0x3d5ccf43	0.053908598
23	0x3c9c18d5	0.01905481
24	0x352773bf	6.238078e-07
25	0x3dc440d2	0.09582676
26	0x3d591877	0.053001847
27	0x3d3dafe9	0.04631034
28	0x3a82653b	0.0009948382
29	0x3d9489cb	0.072528444
30	0x3d8521da	0.06500597
31	0xbd037d7f	-0.032102104
32	0x3d667e61	0.056272868
33	0x3cecebf5	0.028921107
34	0xbb9f8a83	-0.004868807
35	0x3d7c0db4	0.061536506
36	0x3d52a4db	0.05142675
37	0x3e11f99f	0.14255379
38	0x3c2e76ae	0.010648413
39	0x3d09b6c6	0.033621572
40	0x3cb1d720	0.021709025
41	0x3d9e8bb3	0.07741489
42	0xbd69ac40	-0.057049036
43	0x3d96b6f6	0.07359116
44	0x3c994189	0.018708007
45	0x3cf5fbc9	0.030027287
46	0xbc36d090	-0.011158124
47	0xbc479289	-0.012180933
48	0x3caea19e	0.0213173
49	0x3d9913fb	0.07474514
50	0xbd680842	-0.0566485
51	0x3bc9c045	0.0061569535
52	0x3a6ddac0	0.0009073429
53	0xbd38c305	-0.04510786
54	0x3ceff242	0.029290322
55	0x3dcf8d89	0.101344176
56	0x3d0fa2b8	0.03506729
57	0x3db46815	0.088089146
58	0xbceb2c04	-0.028707512
59	0x3da53267	0.08066254
60	0x3cf8ae60	0.030356586
61	0x3d0d8769	0.034552965
62	0x3c61fb19	0.0137927765
63	0x3d03667c	0.03208016
64	0x3d29f0b1	0.041489307
65	0x3d75e1cd	0.060029794
66	0xbb94be2e	-0.0045392727
67	0xbd562447	-0.05228069
68	0x3d16d3d0	0.036823094
69	0x3c3e8e2d	0.011630577
70	0x3c7f213a	0.015571887
71	0xbd81ad0d	-0.06331835
72	0xbcb0accd	-0.021566773
73	0x3d400c75	0.04688688
74	0xbd1aaca4	-0.0377623
75	0x3bbad0e1	0.00570117
76	0x39c90222	0.00038339297
77	0x3c44b517	0.012006066
78	0xbc6e1e8c	-0.01453365
79	0x3d2da8c6	0.042397283
80	0x3cadbe16	0.021208804
81	0xbce87858	-0.028377697
82	0x3ba7ffbf	0.005126923
83	0x39139751	0.00014075382
84	0x3c22d1d4	0.009937722
85	0xbc56d013	-0.013111132
86	0x3cc2e652	0.023791466
87	0x3d94407a	0.072388604
88	0xbb3f5dfa	-0.0029200302
89	0x3d427bf9	0.04748151
90	0xbd2b0d72	-0.04176087
91	0xbbf77bce	-0.0075526005
92	0x3d5a4e52	0.05329735
93	0x3cd41c20	0.025892317
94	0x3cd74888	0.026279703
95	0x3cd47f6a	0.025939662
96	0xbcc79b9f	-0.024366198
97	0xbdaf6ebd	-0.085660435
98	0xbd1cd38a	-0.038287677
99	0xbd80fc82	-0.06298162
100	0x3d5716bb	0.05251191
101	0xbd37b2b6	-0.044848166
102	0xbc0ab9e3	-0.00846717
103	0xbcc3ae43	-0.023886805
104	0x3c1c3ec6	0.009536451
105	0x3da7211a	0.081606105
106	0x3d0331c5	0.032029886
107	0x3c173179	0.009228104
108	0x3bff4773	0.0077905
109	0xbce50d03	-0.027960306
110	0xbcc9bd89	-0.02462651
111	0xbd38bde6	-0.045102976
112	0x3d322ea3	0.043501507
113	0x3da6f7af	0.08152711
114	0x3d13386c	0.03594248
115	0x3d025c7b	0.031826477
116	0x3c54755c	0.012967434
117	0x3ddd3f46	0.10803084
118	0xbd6f47e4	-0.05841817
119	0xbcf2a2b7	-0.029618604
120	0x3d59bda2	0.053159364
121	0xbd95234e	-0.072821245
122	0xbce126d7	-0.02748434
123	0xbc367459	-0.011136138
124	0x3d3eb451	0.046558682
125	0x3d76b4be	0.060230963
126	0xbcec2ece	-0.028830912
127	0x3d14a4e3	0.03629006
128	0xbc8dadf2	-0.017294858
129	0x3bd0eb52	0.0063757086
130	0x3d8c2333	0.06842651
131	0xbdc944f5	-0.09827606
132	0xbd7ad9c5	-0.061242837
133	0xbd22c3dc	-0.039737567
134	0x3e214a5e	0.15751025
135	0x3d656ce8	0.056012064
136	0x3c7583d0	0.01498504
137	0x3ce38e04	0.02777768
138	0x3d379c0e	0.04482656
139	0xbb5f6c6c	-0.0034091724
140	0xbc3eece4	-0.011653159
141	0xbd155729	-0.036460076
142	0x3d4f0f65	0.05055179
143	0xbb5bc1c5	-0.0033532244
144	0x3d4a4ca6	0.049389504
145	0xbdbaca3c	-0.091206044
146	0x3a754477	0.00093562104
147	0xbd51c955	-0.051217396
148	0xbcdc3bc3	-0.026883965
149	0xbda21893	-0.079148434
150	0x3dccb5b3	0.09995594
151	0xbd54a06d	-0.051910806
152	0x3c599230	0.013279483
153	0x3bdeb2b7	0.006796207
154	0x3cadc1b2	0.021210525
155	0x3c9d37bc	0.019191615
156	0x3c4e7580	0.012601256
157	0xbb611ded	-0.0034350113
158	0x3d178f3c	0.037001833
159	0x3cda58a4	0.026653595
160	0x3bd599a6	0.0065185605
161	0x3cffd14a	0.031227726
162	0x3e0cfb63	0.13767771
163	0xba4710a6	-0.00075937284
164	0x3ac879bc	0.0015295069
165	0x3bb2ed70	0.0054604337
166	0x3a875bb6	0.0010327015
167	0x3d45da11	0.048303667
168	0xbc97b07c	-0.018516771
169	0x3d0e7db4	0.03478785
170	0x3b423b7f	0.0029637513
171	0xbc2853e3	-0.010273906
172	0xbd01bf6f	-0.031676706
173	0xbc79e9b9	-0.015253478
174	0x3d26ff96	0.04077109
175	0xbd5d91b5	-0.054094035
176	0xbdac77e3	-0.08421304
177	0xbd0d0c3b	-0.034435492
178	0x3d8c6776	0.06855671
179	0xbcd29543	-0.02570594
180	0x3da6a795	0.081374325
181	0xbd45b340	-0.04826665
182	0xbd38c404	-0.04510881
183	0x3d2b22c0	0.041781187
184	0xbd33baec	-0.043879434
185	0x3d1a7159	0.037705753
186	0x3df5e3d6	0.12006347
187	0x3ba68b1d	0.0050825016
188	0x3d499f00	0.0492239
189	0xbb234582	-0.0024913256
190	0xbd59588e	-0.053062968
191	0x3d07d1bf	0.033159014
192	0x3d508948	0.05091217
193	0xbc379547	-0.011205024
194	0x3be526bf	0.0069931443
195	0x3d3cf6ff	0.04613399
196	0x3da16bc8	0.07881886
197	0x3d4e78cf	0.05040818
198	0xbd367316	-0.04454335
199	0x3cafdc56	0.021467369
200	0x3d4325c0	0.047643423
201	0x3cf39817	0.029735608
202	0x3c0d0e8a	0.008609423
203	0x3dd7f8d8	0.1054551
204	0x3c2c378d	0.010511291
205	0xbd000517	-0.031254854
206	0x3d3cae34	0.04606457
207	0x3cb54b9a	0.022130776
208	0x3cc7e52e	0.024401274
209	0xbd388716	-0.045050703
210	0xbd35b370	-0.044360578
211	0x3d6a7d8f	0.05724865
212	0xbd4f00ab	-0.050537746
213	0x3d2e1778	0.04250285
214	0x3e00fe00	0.12596893
215	0x3de3182d	0.110885955
216	0x3c4e64f0	0.012597308
217	0x3d60f5b9	0.05492184
218	0xbaf89b74	-0.0018967227
219	0x3de224a4	0.11042145
220	0x3db261e9	0.08710081
221	0x3c8ef2c3	0.017449742
222	0x3dc368bf	0.09541463
223	0x3df33409	0.11875159
224	0xbd282b94	-0.041057184
225	0xbdbc4a89	-0.09193904
226	0xbcc708e9	-0.02429624
227	0x3cb4dbea	0.02207752
228	0x3ce67c80	0.028135538
229	0x3cb642ed	0.02224871
230	0x3dd00995	0.101580776
231	0xbb21426d	-0.0024606243
232	0x3cd9463b	0.026522746
233	0xbcd48c42	-0.025945786
234	0x3c78b69e	0.015180258
235	0x3c5f7d71	0.013640747
236	0xbc310b05	-0.01080585
237	0x3bcfca9a	0.0063412907
238	0x3dd6523c	0.10464904
239	0x3d0dc684	0.034613147
240	0x3cd07408	0.025445953
241	0x3d512888	0.051064044
242	0x39ef1be9	0.00045606427
243	0x3d8162ba	0.06317659
244	0x3c8e3613	0.017359769
245	0x3af09759	0.0018355652
246	0xbd986f34	-0.07443085
247	0xbdb74184	-0.08948043
248	0xbd5caa3e	-0.053873293
249	0x3b06c17a	0.0020562098
250	0xbd1f228a	-0.0388513
251	0xbd5258ac	-0.051354095
252	0xba961793	-0.0011451117
253	0xbb67d283	-0.0035373277
254	0xbdc7135d	-0.0972049
255	0xbda4bcdf	-0.08043837

deconv3.0.bias f4 [8]
0	0xbd939284	-0.0720568
1	0x3d9ab94d	0.075548746
2	0xbd5c1328	-0.053729206
3	0x3d420b10	0.04737383
4	0x3cd3124f	0.025765566
5	0x3d8111fe	0.0630226
6	0x3d03ebd5	0.03220733
7	0x3d810830	0.0630039

deconv3.1.weight f4 [8]
0	0x3f9bdbd3	1.217646
1	0x3f994b5d	1.1976124
2	0x3f99db4a	1.2020047
3	0x3f99d1da	1.2017167
4	0x3f96bbf2	1.1776106
5	0x3f9935a1	1.1969491
6	0x3f9b1531	1.2115842
7	0x3f951d97	1.1649655

deconv3.1.bias f4 [8]
0	0x3e5af7a2	0.21383527
1	0x3e443f26	0.19164714
2	0x3e49382b	0.19650333
3	0x3e4a4fc8	0.19756997
4	0x3e39d9aa	0.18149439
5	0x3e455b2c	0.1927306
6	0x3e555315	0.20832475
7	0x3e2e049a	0.16993943

deconv3.1.running_mean f4 [8]
0	0xbe134fe1	-0.1438594
1	0x3c8359fb	0.016034117
2	0x3e2aa6b7	0.16665159
3	0x3e31dd60	0.17369604
4	0x3ec7ed14	0.39048064
5	0x3ef61fc6	0.48071116
6	0x3d3b88aa	0.04578463
7	0xbcccec85	-0.025015125

deconv3.1.running_var f4 [8]
0	0x3da4716b	0.08029445
1	0x3da91d37	0.082575254
2	0x3e0273bc	0.12739462
3	0x3ddb65af	0.10712754
4	0x3d806520	0.06269288
5	0x3db153fb	0.08658596
6	0x3dd4e22b	0.103947006
7	0x3dd97917	0.10618799
