03_hw/Pix2Pix/checkpoints/pix2pix_model_epoch_140.pth (torch, 99191 bytes, 32 tensors)

conv1.0.weight f4 [8, 3, 4, 4]
000000 e8 0f 03 be 20 ad 03 be ab 09 6d bd 2e 6e 4f be
       -0.12799037 -0.1285901 -0.05787055 -0.20256874
000010 c8 0d 4e 3d 8d 31 df bd 41 b5 82 bc fc e9 ad 3d
       0.05030611 -0.10898123 -0.01595557 0.084918946
000020 ab 87 12 be 95 68 49 bd 00 66 7c ba 5c bc 03 3d
       -0.14309566 -0.049172003 -0.00096282363 0.032162055
000030 d6 2d 31 bc c1 3d a1 3d b8 d6 8c 3d 46 88 0f be
       -0.010814151 0.07873107 0.06876892 -0.14016828
000040 2f 49 f6 3d fb d4 3e 3e 80 1c 71 3d 60 c8 a7 bc
       0.120256774 0.18635933 0.05886507 -0.020481288
000050 fa 64 f6 3c 90 bc ec bc a9 c6 9d bd 85 7e 75 3d
       0.030077446 -0.028898507 -0.07703907 0.05993511
000060 b1 bf ee 3d 9b 82 42 3d 42 37 20 3d 74 b3 5b bd
       0.11657656 0.047487836 0.039115198 -0.053637937
000070 0c af 89 bd ff 8c f3 3c 4f db 8f bd 7b 37 21 3e
       -0.06722841 0.029730318 -0.07024252 0.1574382
000080 88 9c db bd 1e 36 3e 3d 70 a8 0d be 41 23 49 3d
       -0.10723215 0.04643833 -0.13833785 0.049105886
000090 05 a9 da bd e5 cd cb bd ab 24 56 3b b1 18 d9 bd
       -0.10676769 -0.09951381 0.0032675664 -0.10600413
0000a0 1c 6e e1 3c 87 e1 bc bc 70 5c 72 3b 14 6c 30 bd
       0.027518325 -0.023056759 0.0036981367 -0.04307182
0000b0 92 fb 20 bd 27 99 3f 3d 00 b1 8d 3d 6f eb 1f 3d
       -0.039302416 0.046776917 0.06918526 0.039042886
0000c0 8e ab 98 bd e5 de 8b 3d f0 68 99 bc 4b 22 96 bc
       -0.074545965 0.06829623 -0.018726796 -0.018326899
0000d0 57 ed 07 bc 35 ef e3 3d da e0 08 3d 65 21 15 bc
       -0.008296332 0.111296095 0.03341756 -0.0091022
0000e0 29 40 11 3e 9d 28 ab 3d bb 21 d6 bd 14 67 94 bd
       0.14184631 0.08357356 -0.10455652 -0.07246223
0000f0 e8 09 0e 3d 8c 85 00 3e 6d d8 01 bd 44 1f 91 bc
       0.034677416 0.12550944 -0.03170054 -0.017715104
000100 4f f4 b0 bb 5c 09 0c 3e e1 cc 6b 3c c6 46 a5 bd
       -0.0054002176 0.13675445 0.014392109 -0.080701396
000110 c6 9d 43 bd ec 48 9b bd 5a 82 26 3d 12 69 d9 bc
       -0.047757886 -0.07582268 0.040651657 -0.02653936
000120 da 7f ea 3c d6 b6 26 bc c0 24 10 3d db 23 fe bd
       0.028625418 -0.010175427 0.035191298 -0.12409183
000130 7f 03 82 3d 05 4e dc bc 6b 64 79 3d b3 25 cb 3d
       0.06348323 -0.026892671 0.06088678 0.099193
000140 54 d0 69 bb b8 f0 81 bd e8 bc 48 3d 8d 1e 05 be
       -0.0035677152 -0.063447416 0.04900828 -0.12999935
000150 cf 22 75 bd ff da aa 3d 87 3d 90 bd 1f 8f 90 3d
       -0.05984765 0.083425514 -0.070429854 0.07058548
000160 ee 9c f7 bb a4 b7 ae bb 8c b5 9a bc 1a bc 11 3c
       -0.0075565493 -0.0053319503 -0.018885396 0.008894945
000170 6d 5f 78 bd d0 27 bb bd 19 c4 de bc 21 ea b4 bd
       -0.06063788 -0.09138453 -0.027193116 -0.08833719
000180 54 66 04 be 1b 9e 82 3d ec 55 cf 3b 45 99 52 bd
       -0.1292966 0.063778125 0.0063273814 -0.0514157
000190 9b 60 bd 3c e0 2b d3 bb 2b 42 83 3d 43 73 13 3e
       0.023117354 -0.0064444393 0.06409105 0.14399438
0001a0 db 65 a1 bd 89 6b 69 3d c6 97 cd bd 31 5e 46 bd
       -0.078807555 0.05698732 -0.10038714 -0.04842967
0001b0 15 77 0c 3e 53 58 3e 3d a1 ad 13 3d eb 86 95 bd
       0.13717301 0.04647095 0.036054257 -0.07301124
0001c0 0d e7 5c bd fb 9d 9c 3c 3b 48 c8 3d 7f 22 a7 bd
       -0.053931285 0.0191183 0.09779402 -0.081608765
0001d0 10 5e 0c 3e 6d 2b 17 bc 77 0d 9e 3b 4a eb 16 3e
       0.13707757 -0.009226662 0.0048233825 0.14738193
0001e0 f2 6b 99 3c 48 d8 aa 3d 89 21 a0 bd e4 09 d5 bd
       0.01872823 0.083420336 -0.07818896 -0.10402277
0001f0 1a 1a 62 3c 38 05 85 3d f0 3f 4b bc fc 6c c6 3d
       0.013800168 0.06495136 -0.012405381 0.09688756
000200 a2 d9 f3 bd 9f ac b8 3d e9 96 03 bd 1f 36 7b 3d
       -0.119067445 0.090173 -0.03212634 0.06133091
000210 86 da 35 bc a6 b1 83 3d 2a b9 7d 3d e3 69 74 3a
       -0.011099463 0.06430368 0.061944164 0.00093236397
000220 b7 8b 23 3d 99 00 2b 3e 94 60 06 3e 53 a2 a3 3d
       0.039928164 0.16699447 0.13122779 0.07989945
000230 92 3b e9 bd 17 29 1c 3d 78 0f cd 3d 5e 22 ea 3d
       -0.11388315 0.038125124 0.10012716 0.11432336
000240 eb c7 5c 3d 30 8d e0 3d 62 11 2d 3e 6a c7 61 3d
       0.053901594 0.109644294 0.16901162 0.055121817
000250 03 7a 05 bb 25 98 57 bd 4f d6 a1 bb 5b 71 5a bd
       -0.0020366914 -0.05263533 -0.0049388777 -0.05333076
000260 a3 0b 0d 3d da d0 8b bd 1f 72 13 3e d4 27 4e bd
       0.034434926 -0.06826945 0.14399002 -0.05033095
000270 5b 3c 6c 3d cf 76 f6 3d 0f 74 e0 3d b2 76 20 be
       0.057674747 0.1203438 0.109596364 -0.15670279
000280 75 68 e5 bd 17 1a b0 3d 36 42 21 3e 48 21 be 3c
       -0.11201564 0.08598726 0.15747914 0.02320923
000290 83 8e 71 3d 35 8d bf 3d 82 30 30 bb 7a 6c 47 bd
       0.0589738 0.09353105 -0.0026884382 -0.048687436
0002a0 6e 07 cd bd 19 b2 bd bd 82 61 8a 3d c8 76 cf 3d
       -0.10011183 -0.09262485 0.067568794 0.101300776
0002b0 5e 1d b5 bd 9d 90 63 bd fe fb 1e bc e7 32 b9 bd
       -0.08843492 -0.055557836 -0.009703634 -0.09042912
0002c0 70 e6 b6 3d 72 e1 27 be 4f 31 e3 3c 0f 0a f2 3c
       0.08930671 -0.16394594 0.027733473 0.029545812
0002d0 69 25 5d bd 59 1b dc bd 7b 60 26 bd 67 43 0e 3c
       -0.053990755 -0.10747404 -0.040619355 0.008683062
0002e0 99 0c ed bd f2 fb de 3d 24 35 9e bd f9 19 e2 3d
       -0.115746684 0.108878985 -0.077249795 0.1104011
0002f0 34 1f 64 bd 76 a5 18 bd 46 fe d8 bd 6c 42 f3 3d
       -0.05569382 -0.03726717 -0.10595374 0.11877903
000300 c0 bf 9c bd d2 0a 0a be c4 86 5b 3d 09 e7 3d 3d
       -0.07653761 -0.1348069 0.05359532 0.04636291
000310 67 e0 03 3e 33 95 c2 bc 8e c2 df bb 84 a0 0d be
       0.12878571 -0.023752784 -0.0068286126 -0.13830763
000320 14 9f bd 3d 4a 37 04 be a3 41 7f 3d 48 03 13 3c
       0.09258857 -0.12911716 0.062318455 0.00897295
000330 2c 3b 8d 3d 87 88 48 be 0b 01 1d be b2 78 4d bd
       0.06896052 -0.19583331 -0.15332429 -0.050163932
000340 c8 20 5c bc f0 4d 8e 3d e2 f3 6a 3d 15 34 d3 3d
       -0.01343555 0.06948459 0.05736149 0.10312668
000350 50 72 c3 bd c3 e7 92 bd df e1 eb 3b 71 a2 c4 3d
       -0.09543288 -0.07173111 0.007198557 0.09601296
000360 6f 61 cb bc 85 d1 05 be cb ad 3a be a9 e0 5c be
       -0.024826733 -0.13068207 -0.1823036 -0.21570076
000370 7f d5 b6 bd 3e 73 30 bc f0 f0 3d be da 65 2c 3d
       -0.0892744 -0.010769663 -0.18548942 0.04208932
000380 c8 67 db 3d 59 8c 37 3c 5f c3 80 3d 86 e1 de bd
       0.10713154 0.011202895 0.06287264 -0.10882859
000390 c7 55 7b 3d b6 c3 8a bd 01 7e b6 3d fd 13 94 bd
       0.0613611 -0.0677561 0.08910752 -0.07230375
0003a0 b0 19 7f bd c6 b7 a2 3d 1c 21 75 bd a9 6e 86 3d
       -0.062280357 0.07945208 -0.05984603 0.065640755
0003b0 aa 76 d7 3d 13 17 e1 3c 84 f6 da bb 1d b4 58 bd
       0.1052068 0.027476823 -0.006682219 -0.052906144
0003c0 9f ac 2a 3d 50 42 ec bd e0 4b 8c bd 6d ce 30 bd
       0.04166853 -0.115360856 -0.068504095 -0.043165613
0003d0 9a eb 4a bd 75 aa ca bd 84 25 f9 3d 2a a5 dd 3b
       -0.049541093 -0.09895793 0.12165359 0.006764074
0003e0 81 0c d4 3d 59 1d 87 3c b7 aa c7 3d 27 15 d8 bd
       0.103539474 0.016493486 0.09749358 -0.105509095
0003f0 39 83 2d bd ff 99 e1 3d 84 db fc 3d 4f 49 8e 3d
       -0.04236147 0.110157005 0.12346557 0.06947576

conv1.0.bias f4 [8]
000000 4e fa 05 3e 84 36 b2 3b 3c 55 10 bd 25 cc fb 3d
       0.13083765 0.0054386277 -0.035237536 0.12294797
000010 e1 e9 91 3d a7 e6 ce 3d 3e 96 e5 bd 5a f8 78 bc
       0.07124687 0.10102587 -0.11210297 -0.01519593

conv1.1.weight f4 [8]
000000 ee 77 81 3f fd 41 79 3f 58 86 7c 3f cc c0 76 3f
       1.0114725 0.97366315 0.9864249 0.96387935
000010 01 b4 80 3f 06 24 7c 3f 35 12 7e 3f 1b 51 89 3f
       1.0054933 0.9849247 0.9924653 1.0727876

conv1.1.bias f4 [8]
000000 1d f0 04 3b d5 7f 44 bd e0 bf bc bc 20 c0 b6 bb
       0.002028472 -0.047973473 -0.023040712 -0.0055771023
000010 a7 56 11 bc c3 c7 9c 3d df ff ef bc 64 e2 98 3d
       -0.008870757 0.07655289 -0.029296814 0.074650556

conv1.1.running_mean f4 [8]
000000 a8 1c 55 3e c5 91 cc bc 09 03 ed bd 24 cf 79 3d
       0.20811713 -0.024971852 -0.115728445 0.06098856
000010 2a a5 4c 3e 6b 2e 93 3d 57 cf ec bd 6b a2 46 bc
       0.1998488 0.07186588 -0.115629844 -0.012123684

conv1.1.running_var f4 [8]
000000 5d c2 6f 3d ce 66 46 3c ab 64 88 3e f6 f4 bf 3c
       0.05853497 0.0121094715 0.26639304 0.023432236
000010 97 1c 39 3e 22 14 0c 3d 38 0a 99 3c 37 e6 eb 3c
       0.18077312 0.034198888 0.01868163 0.028796298

conv2.0.weight f4 [16, 8, 4, 4]
000000 91 d9 a4 3d cb bb d2 3d e7 2e 08 3d 35 a9 57 3d
       0.0804931 0.10289725 0.033247855 0.052651603
000010 2f 51 92 bd 98 fc 9d 3d be 81 41 bd eb 45 99 3d
       -0.07144391 0.07714194 -0.047242872 0.07484039
000020 fe 70 9b bd ef 49 89 3d 03 82 66 3d 39 d3 8b 3c
       -0.07589911 0.06703555 0.056276333 0.017068492
000030 aa 1e e0 bc 76 41 c5 bd 0a 07 ce bd 83 e6 a9 3c
       -0.027358372 -0.09631626 -0.10059936 0.0207398
000040 61 78 a9 bc 2f 19 89 3d 40 0d 7b 3d bc 38 09 bd
       -0.020687284 0.066942565 0.061291933 -0.03350137
000050 a0 d5 3a 3d 2b 7b 9f bd d8 17 0e 3d 10 28 07 bd
       0.045613885 -0.07787164 0.034690708 -0.03299719
000060 a3 01 9e 3c 23 ab c7 3c 29 1d 49 bd 9d 03 1f 3d
       0.01928789 0.024373597 -0.049100075 0.038821805
000070 3f d4 1a 3d d1 ec 16 3d fd 85 9d bc 42 69 ac bd
       0.03780007 0.03684694 -0.01922893 -0.08418514
000080 10 7d 3a bd 1d 43 a0 3c b8 ee 33 3d 13 71 0d bd
       -0.045529425 0.019563252 0.04392883 -0.034531664
000090 a3 aa ae bd 2b 64 84 bc ef ce 06 bc c6 95 3d 3d
       -0.0852864 -0.016161045 -0.008228048 0.046285413
0000a0 f9 1a 14 bd fa 78 87 bd 5b fc 81 bc 21 51 dc bc
       -0.036158536 -0.06614871 -0.015867403 -0.026894154
0000b0 2c 49 c5 bd bd b9 ab bd bf c1 92 bd f3 5c a8 bd
       -0.09633097 -0.08385036 -0.071658604 -0.08220854
0000c0 16 3d 66 3d 02 63 88 bc af e8 63 3d 81 41 97 3c
       0.0562106 -0.016648773 0.055641826 0.018463852
0000d0 c8 35 1d 3d 97 1d 2d 3d 98 c2 22 bd 9d 57 05 bd
       0.038381368 0.042264547 -0.03973636 -0.032554258
0000e0 38 b8 21 3b fb c0 b6 bc 43 64 00 3c 01 47 c0 3b
       0.0024676453 -0.022308817 0.007836404 0.0058678393
0000f0 39 9d 88 3d d5 47 c9 bc 12 c8 55 bc b4 cb e2 bb
       0.06670613 -0.024570385 -0.013048189 -0.006921256
000100 df 51 8a 3d 18 16 da bc 7c a7 f1 3b fa 31 52 3d
       0.06753897 -0.026621863 0.007374702 0.051317193
000110 91 81 16 3d 26 a3 57 bb 5a 59 c9 3d ba 21 2f bc
       0.036744658 -0.003290364 0.098314956 -0.010689193
000120 92 44 4f 3d a9 f9 08 bd e0 aa a1 3d 5d 3f 54 3d
       0.050602503 -0.03344122 0.0789392 0.05181824
000130 26 73 9e bd 09 b7 ed bc e5 f9 63 bd 00 5d 28 bd
       -0.077368066 -0.029017942 -0.05565824 -0.041104317
000140 79 da a8 bd e7 10 b0 bd 91 38 76 3b 19 ab 28 ba
       -0.08244795 -0.08596974 0.0037570337 -0.0006434187
000150 51 0b ad 3b ca 29 99 bc 25 10 e3 3c b0 b3 7c 3c
       0.00528089 -0.018696684 0.02771766 0.0154237
000160 cf fe 91 3b d2 a5 85 3d 67 57 38 3d cd 87 9c 3d
       0.0044554244 0.06525768 0.04500523 0.076430894
000170 d9 3b a5 bb f8 b8 6d 3b 42 7a 9a bd 88 b9 d9 3b
       -0.005042535 0.003627358 -0.0754285 0.0066444315
000180 f8 ed 87 3d 76 78 d6 bb 34 88 9c 3d 1c 4f 26 3d
       0.06637186 -0.006545122 0.07643166 0.04060279
000190 a3 ad aa 3d 28 81 e5 3c 5a 46 3d 3c b2 db 05 3d
       0.083339 0.028015688 0.011552418 0.03268022
0001a0 d3 3c 96 bc 18 10 05 3d 26 e2 96 bc cb 83 78 3d
       -0.01833955 0.03248605 -0.018418383 0.060672563
0001b0 74 34 d6 bc 8e 0c ae 3d 1c 2e 9b 3c 10 33 9d 3d
       -0.026148058 0.08498488 0.018942885 0.07675755
0001c0 7e 7a a9 bc b2 3a 47 3c e3 b7 ef bc 7f d8 1b 3c
       -0.020688292 0.01215999 -0.029262489 0.009512066
0001d0 ba 40 48 bd 1b c0 b3 bb f5 2b ec bc 08 96 0c bd
       -0.048889853 -0.0054855472 -0.028829554 -0.03432277
0001e0 83 6b 9d 3d ce ab 9e 3c e1 c1 67 3d d0 ff 42 3d
       0.07686522 0.019369032 0.05658138 0.047607243
0001f0 4a 39 61 3d 41 4f bc 3b e0 0c 96 3d df af 14 bd
       0.054986276 0.0057467525 0.073266745 -0.036300536
000200 44 48 fc 3c 95 62 65 3c cf 39 ba bc fe 7d 5f bd
       0.030796178 0.014000555 -0.022732643 -0.054563515
000210 94 52 47 bd a0 55 92 bd 9e d9 13 bd ca e5 a2 3d
       -0.048662737 -0.07145238 -0.036096208 0.07953985
000220 10 f6 7e 3d b9 99 26 3c 57 02 d0 ba 2b f9 94 3d
       0.062246382 0.010168486 -0.0015869838 0.072740875
000230 eb cf 57 bd 4c ca 4d 39 66 04 b6 3d 43 99 49 bd
       -0.05268852 0.00019625685 0.08887558 -0.049218427
000240 5a 75 cc 3c 11 91 87 3c c0 ce 2b bd 2a d8 b9 bd
       0.024958301 0.016548665 -0.04194522 -0.09074433
000250 52 51 ad bd 6d f5 39 bd a8 6b a3 bd b2 16 05 bd
       -0.08462776 -0.045400072 -0.07979518 -0.032492347
000260 a2 76 c7 3c ef 62 3b bd 6b d4 7e 3d 6b 92 0b 3d
       0.02434856 -0.045748647 0.062214296 0.034075182
000270 cc 11 14 3b 36 2d 5e bd 60 b9 8e 3d 4b 83 e0 3d
       0.0022593616 -0.054242335 0.06968951 0.10962542
000280 d7 cf a2 bd 21 8e 59 bc ee 39 9b 3d 53 5c 83 bc
       -0.079497986 -0.013278515 0.075794086 -0.016035235
000290 f3 4e a6 3d 74 ab 33 3d b9 b5 40 3d 15 63 70 bd
       0.08120527 0.043864682 0.047048304 -0.058688242
0002a0 bb 35 01 3d c6 99 b0 bb f9 5f ac bd f5 f0 14 3d
       0.031545382 -0.005389425 -0.08416743 0.036362607
0002b0 83 75 d2 3c 02 c9 4c bd d6 8a b4 3c 17 22 85 3d
       0.0256908 -0.049996383 0.022038858 0.06500643
0002c0 19 17 ea bc 5c 92 39 bc 34 35 ca 3d 98 ab ee bb
       -0.028575467 -0.011326399 0.09873429 -0.007283639
0002d0 a3 cd 33 bd 77 fd 8d bc 72 1f 25 bd 63 e1 29 3c
       -0.043897282 -0.017332776 -0.04031319 0.010368678
0002e0 60 f8 ea bc 38 65 79 bd e7 62 74 bd 62 93 02 bb
       -0.028682888 -0.060887545 -0.059664633 -0.0019924273
0002f0 01 e9 93 bd 20 5d 5c bc 8f ea 07 3d 31 53 40 bd
       -0.07222176 -0.013449937 0.033182677 -0.046954338
000300 c8 a2 d8 bc 07 96 7f bd 18 c4 1e bb ae 65 62 3b
       -0.026444808 -0.062398937 -0.0024225768 0.003454547
000310 c2 e9 86 bc c1 46 38 3d 57 78 0f 3d c0 ec 61 bd
       -0.016468886 0.04498935 0.035026874 -0.055157423
000320 1a f8 68 bd 5d ea 7a bd bd 8e a0 bd da 0b 46 3d
       -0.056877233 -0.061258662 -0.07839725 0.048351146
000330 54 0a 62 bc 9b de 15 bd 7f b5 c0 3d d9 78 1f bd
       -0.013796408 -0.036589246 0.09409618 -0.03893361
000340 27 ee c1 bc 40 67 02 bd dd 89 98 bd f2 ee 4d bd
       -0.02367313 -0.031836748 -0.0744817 -0.050276704
000350 60 bc f8 3c 0e 2b 44 bd c5 ba b9 bd 35 3a fa bd
       0.030363262 -0.047892623 -0.090688266 -0.12218133
000360 18 5e b2 3c 81 49 55 bd 0e db 0b bd 34 22 f7 bc
       0.021773383 -0.052072052 -0.034144454 -0.030167677
000370 ea 74 16 3c d6 61 96 bd b5 8b 47 bd 3b fe 54 3c
       0.009183148 -0.073428795 -0.04871722 0.013000066
000380 62 ef 27 3d fc 0d ef 3c 40 6b b3 bc df 64 b5 3d
       0.040999778 0.029181473 -0.021901727 0.0885713
000390 f4 94 4c 3d e7 5e 2f bd f8 46 26 bd 59 65 e3 3c
       0.04994674 -0.042815115 -0.040595025 0.027758287
0003a0 fd 0c a3 bd 24 16 1a bb 78 b4 25 be 4e 5b 5a bd
       -0.07961462 -0.0023511732 -0.16182125 -0.05330973
0003b0 73 1c 01 3c f5 80 9c bd a8 72 b2 bd eb 22 8c 3c
       0.007880318 -0.07641784 -0.08713275 0.017106494
0003c0 82 2b b6 3c 66 1c 70 bd 37 7f 00 3c 19 55 34 bb
       0.022237543 -0.058620833 0.00784283 -0.0027516542
0003d0 a7 41 fd bd 75 19 08 be b1 06 d2 bd ae 00 d0 3c
       -0.12366038 -0.13290961 -0.102551825 0.02539095
0003e0 28 9a 7e bc af 29 53 be c9 1f e2 bd 29 93 55 bd
       -0.015539683 -0.2062137 -0.11041219 -0.052142296
0003f0 ce 1b 08 bd 88 42 32 bd 24 4f 8e bd 79 4a 25 3d
       -0.03322964 -0.04352048 -0.069486886 0.040354226

conv2.0.bias f4 [16]
000000 30 09 b2 bd 05 76 aa 3d 4f 20 88 3d e4 47 44 bc
       -0.086931586 0.08323292 0.066467874 -0.011980031
000010 4a f6 10 bd f9 b6 c6 3b 70 a1 11 bd 37 e1 6e bd
       -0.03539113 0.0060642925 -0.03555435 -0.05832025
000020 90 d3 a8 bc e8 ab 2c 3d 3c 87 72 bd c2 d4 07 bd
       -0.020608693 0.04215613 -0.059211 -0.033161886
000030 e7 73 32 bd 4a 18 ad bd f0 21 8c 3d 45 6c 93 bd
       -0.043567564 -0.084518984 0.068424106 -0.07198385

conv2.1.weight f4 [16]
000000 a0 fe 78 3f 21 23 85 3f da 1d 7c 3f 70 c8 7d 3f
       0.97263527 1.0401345 0.9848305 0.9913397
000010 bb 5e 7d 3f 1d a6 7a 3f bb 75 7f 3f a3 1d 83 3f
       0.9897267 0.9790972 0.9978902 1.024342
000020 a3 a3 77 3f c7 3d 80 3f 42 04 81 3f 96 e2 81 3f
       0.96734065 1.0018853 1.0079424 1.0147274
000030 85 6b 89 3f e0 20 7e 3f 4b f6 7f 3f 1b c3 81 3f
       1.0735937 0.99268913 0.9998519 1.0137666

conv2.1.bias f4 [16]
000000 5a dc 20 bc 03 b8 bd bb 6a 58 65 3c 93 ee 3b bd
       -0.009818161 -0.005789758 0.01399813 -0.04588182
000010 59 ac 66 3b f8 ee ba bc 5b f3 8b bc 04 37 60 bc
       0.0035197942 -0.022819027 -0.017083814 -0.013684992
000020 98 5a 6e bc 26 6f a9 3c 0c 89 93 3c b8 e7 9e bc
       -0.014547966 0.020682883 0.018009685 -0.019397601
000030 6d 3f 87 bc 9a d1 64 3c 51 e4 9a 3c f0 c5 fb 3a
       -0.016509736 0.0139659885 0.018907698 0.001920877

conv2.1.running_mean f4 [16]
000000 af 94 aa 3d c2 32 3e bf 0a 61 91 be d3 69 85 3f
       0.083291404 -0.742962 -0.28394347 1.042292
000010 88 ec 0c be 6b a6 44 be 1e 18 11 bd 85 bc 59 3d
       -0.13762105 -0.19204108 -0.03542339 0.0531583
000020 0b f8 64 be 7b 5a 27 bf 41 dc 1c 3c 61 dc 1e 3f
       -0.22360246 -0.6537244 0.009573997 0.6205502
000030 86 49 56 bd 99 d2 e5 be 6d 07 c6 3d 7c c0 09 3e
       -0.05231621 -0.44887236 0.09669385 0.13452333

conv2.1.running_var f4 [16]
000000 be 19 6e 3e 74 5c 97 3e 41 be 10 3f d7 f7 a6 3e
       0.23252007 0.29562724 0.56540304 0.32610962
000010 9d 16 74 3e 0b 0b c2 3d 38 5a 8d 3d 52 e4 4d 3e
       0.23836751 0.094747625 0.069019735 0.20106629
000020 2a e3 e3 3e 7b 80 d2 3e 86 8c 4b 3e 0a 9f 4e 3e
       0.4450925 0.41113648 0.19877824 0.20177856
000030 c7 0a ad 3e 5a ca 62 3e af 49 65 3e 50 cc 6b 3e
       0.33797285 0.22147503 0.2239139 0.23027158

conv3.0.weight f4 [32, 16, 4, 4]
000000 f9 bc 7b 3c a2 72 0f bc d7 24 78 bd a9 3a 84 bd
       0.015364879 -0.008755358 -0.06058201 -0.06456501
000010 d0 5e 2d bd a7 a5 8c 3b d3 be 31 3c 37 a5 9d bb
       -0.04232675 0.0042922082 0.010848719 -0.004810955
000020 2c fc 04 bd 13 8f 34 bc 90 92 61 39 e3 a4 32 bd
       -0.032467052 -0.01102044 0.00021512271 -0.04361428
000030 3e db 04 bd 2a 0f 0b 3d c2 ed ec 3c 6f 29 1e 3c
       -0.03243565 0.03395001 0.028921966 0.009653433
000040 db 1c 59 bd cd 79 0a bc c7 c5 67 3b c6 fd 83 3c
       -0.053006034 -0.008451891 0.0035365687 0.01611222
000050 f4 a2 1d 39 50 fc ac bc 0b 72 30 3d bf a2 27 bd
       0.00015033392 -0.021116406 0.04307751 -0.04092669
000060 65 27 11 bd c7 4e 61 bd 7f 7c 58 bc f0 69 98 3b
       -0.03543796 -0.05500677 -0.013213276 0.0046513006
000070 e1 79 88 bc 9a 38 99 3c eb 8c 34 bd 2d 9e 60 bd
       -0.016659679 0.018703748 -0.044079702 -0.05483835
000080 a6 50 46 3d 2a 52 04 bc 7a 6d d1 bb 3a 3c bf 3c
       0.048416756 -0.00807623 -0.0063912245 0.023344148
000090 e3 e4 35 3c 9f 01 98 bc ce 99 86 3b e0 4d 58 3d
       0.011101934 -0.01855546 0.0041076904 0.052808642
0000a0 83 d5 33 3b 64 6f 19 3d 68 13 32 3c a7 2a 23 bc
       0.0027440495 0.037459746 0.010868885 -0.0099589
0000b0 d3 83 9d bb 82 d7 30 3c a6 00 89 3c f5 53 1d 3c
       -0.0048069744 0.010793569 0.016723942 0.009602536
0000c0 97 a4 24 bb 7f f8 52 bc 37 2a 21 bd 44 64 85 bd
       -0.0025122517 -0.012876629 -0.0393469 -0.06513265
0000d0 6f dd 13 bc 5f 41 62 3d 05 43 14 bd aa 03 1d bd
       -0.009024962 0.055238124 -0.036196727 -0.038333572
0000e0 05 04 a8 3c e9 8a 0f bd 54 55 3b bd 75 aa 5f bd
       0.02050973 -0.035044584 -0.045735672 -0.05460592
0000f0 0e 95 04 3d 4d 78 17 bd 6b 95 17 3d a4 25 81 bd
       0.032368712 -0.036979962 0.03700773 -0.063060075
000100 83 86 58 3d d5 7a 62 3c 49 7b c3 3c 05 cd d6 3c
       0.052862655 0.013823231 0.023862498 0.026220808
000110 04 dd 29 3c 33 09 a5 3b 0d 1b 17 3d e1 de 27 bc
       0.010367636 0.005036497 0.036891032 -0.01024601
000120 ea e5 10 bc d6 03 df bc d0 3a 8a bc 5f c1 04 3d
       -0.008843878 -0.027223509 -0.016873747 0.032410976
000130 fd 59 5d bd b1 ed 65 3d ac fa 6f bc 96 1d 0f bb
       -0.054040898 0.056134883 -0.014647167 -0.0021837703
000140 bc bd 20 bc e4 08 28 3d a1 2e a8 3c 46 b8 0e bc
       -0.009810861 0.041024104 0.020530047 -0.008710926
000150 0a 1d da bc fa b5 3c 3d 91 b9 54 3c 1b 24 84 3c
       -0.026625175 0.046071984 0.012983696 0.016130498
000160 fb c6 77 3d 03 16 08 bd f8 ff 88 3c 92 2e f0 3c
       0.060492497 -0.033224117 0.016723618 0.029319081
000170 a2 b0 cd 3b bb 47 52 bd a8 c6 0a 3a 2c 97 18 bd
       0.00627716 -0.05133794 0.00052938843 -0.037253544
000180 4b 05 3c 3d 7a 9a e5 3c f4 eb f2 bc 26 1c 18 bd
       0.045903485 0.028027762 -0.029653527 -0.03713622
000190 46 30 8b 3c d2 a7 5d bc 89 09 83 bd 37 cc 03 bc
       0.016990792 -0.013528781 -0.06398303 -0.008044294
0001a0 14 24 cb 3c 3c e8 74 bd c2 9b 7d bd e8 b7 c7 bc
       0.024797477 -0.05979179 -0.06191612 -0.024379686
0001b0 b0 4f 15 3d 7f a2 bb bc 6d e5 30 bd 60 6e a8 3c
       0.03645295 -0.022904633 -0.043187547 0.020560443
0001c0 98 50 d2 3b 9b ee 5b 3d 36 c9 5d bd 61 42 5b bd
       0.006418299 0.05369435 -0.054146968 -0.0535301
0001d0 f2 b3 4c 3d 7e c3 8c bc 2e 9b 67 bd bb 39 1f bd
       0.049976297 -0.017183062 -0.056544475 -0.038873415
0001e0 b4 cc 5a bd 80 73 0d 3c f1 f4 9e bd c8 01 d0 bd
       -0.053417876 0.008633494 -0.077615626 -0.1015659
0001f0 d3 b4 a2 3b e5 e0 97 3d d3 47 10 3c 8c 54 83 bd
       0.0049654036 0.07415942 0.008806187 -0.064126104
000200 6c 0f 00 bc 54 19 62 bd 6b 16 0b bd eb 22 46 bd
       -0.007816177 -0.055199936 -0.033956926 -0.048373144
000210 7d 54 1e bc b2 2b 2a 3d 70 b6 80 bc ba ea cc bc
       -0.009663698 0.041545577 -0.015711993 -0.02501427
000220 0f a0 57 bd 63 1c b2 bc 33 a8 3a bb 30 bf 58 bd
       -0.05264288 -0.021742051 -0.0028481602 -0.052916706
000230 fe d6 1a bd 6f 03 d9 3c cb a7 14 3c c6 21 9d bd
       -0.03780269 0.026490895 0.009073208 -0.076724574
000240 ee fb b4 bc ec b0 00 3d af 30 36 3d 21 86 35 bd
       -0.022092786 0.031418726 0.044480022 -0.04431737
000250 1a c9 1c bc 8d 78 6c bd 70 13 4c bb aa 57 30 bd
       -0.009569431 -0.057732154 -0.0031139515 -0.043052353
000260 6c 21 6a bd ce 43 4e bd 23 31 57 bc d1 46 76 3d
       -0.05716078 -0.050357632 -0.013134274 0.06012613
000270 d0 81 0e 3c ae c6 b0 3c a0 19 58 bd 2b 43 97 bd
       0.008697942 0.021579113 -0.052758813 -0.07385858
000280 41 f4 2e 3d f1 f7 95 3d 95 28 58 b9 be ea ff 3c
       0.042713407 0.07322682 -0.00020614483 0.031239863
000290 13 1b 60 bc 41 fa bd 3c ac 00 6e 3b be a3 8a 3c
       -0.01367833 0.02319062 0.0036316318 0.016923781
0002a0 a9 f3 86 3d 67 25 23 3d 3a 93 0e 3d 4d 2e 29 bd
       0.06589443 0.03983059 0.034808375 -0.04130392
0002b0 e4 11 2f 3d 5e 80 28 bd 05 21 c8 3c 04 f4 fb 3c
       0.04274167 -0.041138045 0.024429807 0.030756004
0002c0 cf e2 6a 3b e1 18 39 3d 2e 03 2b 3b 60 2f 82 bd
       0.0035840755 0.045189742 0.0026094425 -0.06356692
0002d0 e5 a8 20 b8 46 63 e4 3c 26 79 8d bd 24 30 55 bd
       -3.8304268e-05 0.027879369 -0.06907873 -0.052047864
0002e0 aa e0 81 3d 38 9f c2 3c a7 2d 0a 3d 65 80 2f ba
       0.063416794 0.023757562 0.033734944 -0.00066948525
0002f0 a3 8d 52 3d 87 c8 39 bd 16 f5 77 bd 0e ac ae 3a
       0.051404607 -0.045357253 -0.060536467 0.0013326423
000300 f4 6e 13 bd 0d 6f a7 3c d7 f4 7b 3d 23 d6 9a bd
       -0.035994485 0.020438695 0.061512794 -0.075603746
000310 bc de 22 3d d1 a7 25 bc 47 ea 81 bc f8 ab 8d bd
       0.039763197 -0.010110811 -0.015858782 -0.06917566
000320 2d ac 2a bc 0c 17 a7 bd d3 01 26 bd 2f df f8 bd
       -0.0104170265 -0.08158693 -0.040529083 -0.12151944
000330 9a 6f 66 bd 4a 81 56 3d 43 cc 22 bd a8 c9 2d bd
       -0.056258775 0.052369393 -0.03974558 -0.042428643
000340 5c 63 3c 3d a0 7f 0e bb 92 60 f9 3c be dc 35 bd
       0.045993194 -0.002174355 0.030441556 -0.04439997
000350 14 5b 8e 3c 9f 88 a3 bb 32 f8 7c bb 63 d6 23 bd
       0.017377414 -0.0049906517 -0.0038600084 -0.039999377
000360 57 57 0e 3d d7 ab 09 3d be 65 13 3d 89 ed 79 bc
       0.034751263 0.033611145 0.0359857 -0.015254387
000370 a6 ab 40 bc 10 f4 7e bd 62 1d 4e 3d a6 12 b7 bb
       -0.011759674 -0.062244475 0.05032099 -0.00558694
000380 42 59 82 3d 10 20 46 3d 35 fa 35 bd 78 60 e9 bc
       0.06364681 0.04837042 -0.04442807 -0.028488383
000390 71 32 f4 3c 3c dc 43 bd 13 28 0c bd b0 ea 03 3d
       0.029809209 -0.047817454 -0.034217905 0.032206237
0003a0 8e 45 a7 3c 74 61 5f 3d 40 d3 2b 3d 5b 8e 4c bd
       0.020418908 0.054536298 0.04194951 -0.04994045
0003b0 cd 56 b3 bc 66 1a 5d 3d 42 75 61 bd b9 d4 ce ba
       -0.021891976 0.053980254 -0.055043466 -0.0015779949
0003c0 ff 09 2f 39 f5 66 d0 3c 1d a9 fd 3c 89 53 26 3c
       0.00016693024 0.025439719 0.030964429 0.010151752
0003d0 a8 7a 7e 3d b6 0d dd bc 8c 9d 38 3d 0e 87 3a 3d
       0.062128693 -0.026984077 0.045072123 0.045538954
0003e0 06 14 45 3d 23 79 53 3d eb dd 8b bd 6c 3b b1 bd
       0.0481148 0.051629197 -0.06829437 -0.08653912
0003f0 2e 4a dc bc d9 3f ce ba 45 0c 67 bd 60 40 93 bd
       -0.02689084 -0.0015735581 -0.056408186 -0.07190013

conv3.0.bias f4 [32]
000000 a4 90 6c 3c 68 dc 6c 3d 6c 1b 6d 3c 12 f6 71 bd
       0.014438782 0.057827383 0.01447187 -0.05907256
000010 67 fd 8a 3b 40 86 61 bd 8e d8 c1 bc d0 bb 79 3d
       0.0042416337 -0.05505967 -0.023662832 0.060970128
000020 55 09 0d 3d c7 7a aa 3c 1c 6c 73 bc 5a fb fd 3c
       0.034432728 0.020810498 -0.014857318 0.031003643
000030 ff b1 ff 3c af 9b ec bb 66 7c 7c bd 1b 2b 2b 3c
       0.031212805 -0.0072207074 -0.061642073 0.010447289
000040 48 b7 01 bd df 8a 96 3c 35 10 42 3d 5e 94 d2 3c
       -0.03166893 0.018376766 0.047378737 0.025705513
000050 de 47 3d 3d 77 57 50 3d 9b 8e 3a 3c b9 63 40 3d
       0.046211116 0.050864663 0.011386539 0.046970103
000060 77 db 3e 3c f4 71 26 bd 3e b2 3c bc 03 49 53 bc
       0.011649004 -0.040636018 -0.011517106 -0.012895825
000070 fc ea 7e bd 4c e3 4f bd 70 6e 5d bd cd 76 74 3d
       -0.062235817 -0.050753877 -0.0540604 0.05968361

conv3.1.weight f4 [32]
000000 e7 27 7d 3f d1 db 7d 3f 61 bb 80 3f 30 69 7f 3f
       0.9888901 0.9916354 1.0057184 0.9976988
000010 a6 d0 79 3f b5 09 7e 3f 6c 93 7e 3f a5 d1 7c 3f
       0.97584 0.9923356 0.994437 0.9875739
000020 08 6b 77 3f b1 7f 81 3f 08 91 7b 3f ea 11 7c 3f
       0.9664769 1.0117093 0.98268175 0.98464835
000030 08 0f 81 3f b8 cd 79 3f 90 86 80 3f 8e 65 81 3f
       1.0082712 0.97579527 1.0041065 1.0109117
000040 56 37 81 3f 00 e4 80 3f 0d ed 7f 3f b8 ef 7d 3f
       1.0095012 1.006958 0.99971086 0.99193907
000050 f0 be 7c 3f e8 43 86 3f 8a 38 80 3f 5c be 80 3f
       0.9872885 1.0489473 1.0017254 1.0058093
000060 08 bf 7b 3f 1d 0b 7a 3f 42 9d 85 3f 07 fe 80 3f
       0.98338366 0.9767321 1.0438616 1.0077523
000070 88 85 7d 3f b1 a1 85 3f 9e 93 89 3f 22 d4 80 3f
       0.9903188 1.0439969 1.0748174 1.0064738

conv3.1.bias f4 [32]
000000 d5 3e 0d bd b7 cc ef 3b 1a 03 1d 3c 7c 53 e8 bd
       -0.03448375 0.007318105 0.009583259 -0.113440484
000010 88 48 f0 bb 2d b3 9e 3b 58 86 07 3d bd 78 3c 3c
       -0.007332865 0.0048431368 0.033087105 0.011503396
000020 e4 c9 83 3c b6 97 3e 3c 7e ac ce 3b 19 af ec 3c
       0.01608748 0.01163285 0.0063071838 0.028892087
000030 4d 00 1f 3d f3 b6 77 bc 27 1b bf 3c 61 f0 0e bc
       0.038818646 -0.015119302 0.023328377 -0.008724303
000040 54 0a aa 3c 52 f7 72 3c 8c 56 30 3b 70 41 68 bd
       0.020756878 0.014829474 0.0026907055 -0.05670303
000050 e7 29 2c 3b 12 f0 a1 bc a5 82 9d 3c 1f 0d 44 bc
       0.0026270093 -0.019767795 0.019227335 -0.011966019
000060 68 1b 84 3c 5c b9 c1 ba 1c d2 ca 3c 2b 9b 8d 3c
       0.01612635 -0.0014779973 0.024758391 0.017285904
000070 9d 88 f8 bc e7 07 1e bd d4 e0 49 bd 79 d5 ed 3b
       -0.03033858 -0.038581755 -0.04928668 0.007258114

conv3.1.running_mean f4 [32]
000000 c2 0e 05 bf e4 54 12 bf 04 b1 8f bd 24 01 3a bd
       -0.51975644 -0.5716078 -0.07016185 -0.045411244
000010 94 ff 60 be 32 b0 cb 3e cd 73 35 bd 30 f2 85 bd
       -0.21972495 0.39782864 -0.04429989 -0.06540334
000020 86 53 27 be 25 40 84 be d3 34 4e be f9 6a 97 be
       -0.16340455 -0.25830188 -0.20137338 -0.295738
000030 c0 72 04 bf 6b ff 5a bf 99 d8 da be 42 97 bb be
       -0.51737595 -0.85545987 -0.42743376 -0.36638838
000040 03 42 fb be a5 8a 1c be 9f 9e 9f ba 1f 6c 8d 3e
       -0.490738 -0.15287264 -0.001217801 0.27621552
000050 ba 6d 0b bf 53 fc bd be 84 1e a0 be 0c 89 b6 be
       -0.54464304 -0.3710657 -0.31273282 -0.35651433
000060 5a 10 8f 3a 87 f8 d0 be eb 19 0c bf c3 94 25 bf
       0.0010914907 -0.4081461 -0.5472705 -0.6468012
000070 2e 4c 67 bd 3e da 08 3e 8d c8 c1 be 97 e1 1c bf
       -0.056469135 0.13364503 -0.3784832 -0.6128172

conv3.1.running_var f4 [32]
000000 61 4f 5c 3e 15 c9 a2 3e 03 01 17 3e 6f 5d 55 3e
       0.21514656 0.31794038 0.1474648 0.20836423
000010 f4 32 85 3e b9 da 70 3e d9 5a b9 3e f0 b4 9f 3e
       0.26015437 0.23520936 0.36202124 0.31192732
000020 0c a3 1d 3e 07 68 8e 3e 52 a6 9f 3e 01 ad 6c 3e
       0.15394229 0.27813742 0.3118158 0.23112871
000030 10 fd b8 3e ee a5 23 3e e7 49 35 3e 05 e8 17 3e
       0.3613057 0.15981266 0.17703973 0.14834602
000040 23 53 41 3e 96 53 42 3e ab 61 10 3e 75 be 04 3e
       0.1887937 0.18977198 0.14099757 0.12963279
000050 26 6b 48 3e 4b e7 00 3e cc fe 93 3e a9 7c 88 3e
       0.19572124 0.12588231 0.28905332 0.26657608
000060 b3 33 63 3e 56 12 82 3e f5 87 39 3e 82 9f b5 3e
       0.2218769 0.25404614 0.1811827 0.35473257
000070 df 02 65 3e 76 48 26 3e 66 95 20 3e 71 bc 7d 3e
       0.22364376 0.16238579 0.15681991 0.24778916

deconv2.0.weight f4 [32, 16, 4, 4]
000000 d2 53 98 bd f2 5b 35 3c 25 33 c8 bc 31 d1 cf 3b
       -0.074378625 0.011069285 -0.02443845 0.006342076
000010 1c bf eb bc 16 c2 61 3c 82 bf 60 bc 8c 64 a7 3c
       -0.028777651 0.013779184 -0.013717534 0.020433687
000020 ba 97 08 bd e4 65 df 3a 7d 6f 2a bd ce 11 74 bd
       -0.033347823 0.0017043916 -0.04161023 -0.059587292
000030 56 6f af bc c0 c5 f3 3c 7f 3b 2b bd 7f 6c 08 3d
       -0.021415394 0.02975738 -0.041804787 0.033306595
000040 8f 97 84 bb c3 6b 37 bc a0 c7 a0 3c f0 21 ae bd
       -0.0040463875 -0.011195126 0.019626439 -0.08502567
000050 c8 34 fe bc 0f e7 93 3c a2 6f f8 3d 1a cc b6 3c
       -0.031031027 0.018054513 0.12130667 0.02231412
000060 d5 3e 19 3d 10 64 b1 bc cc 52 78 3d 28 10 80 3c
       0.037413437 -0.021654159 0.060625836 0.015632704
000070 c5 3f 91 bd 4b 02 f6 3c 6d a3 2e 3d 31 c9 b0 bc
       -0.07092241 0.03003039 0.042636324 -0.02158031
000080 51 ed 4f 3c cb c1 48 3c 96 6e 45 3d 0b 71 0d 3c
       0.012690858 0.012253235 0.048201166 0.008632909
000090 d8 0d 20 3d 0c 66 43 3d dd d9 ac 3a 92 a2 c5 3c
       0.039075702 0.04770474 0.0013187487 0.024125371
0000a0 5f cb bb 3b ce 3e 59 3d 14 c0 84 ba a8 c4 02 3d
       0.005731031 0.05303841 -0.0010128045 0.031925827
0000b0 b2 c0 bf bb be e8 59 bd d9 75 60 bb 82 da ce 3b
       -0.0058518285 -0.053200476 -0.003424993 0.0063126693
0000c0 ae 05 df bb 75 99 a1 3c b1 1d 4f bd 92 17 0f 3d
       -0.006806097 0.019726494 -0.050565425 0.034934588
0000d0 a0 71 93 bd 15 7e a5 bd df df d9 3d 9f ef 6d 3b
       -0.071994066 -0.08080689 0.10638403 0.0036306155
0000e0 88 46 71 bd db 89 f9 3b 4a ee 88 bd 5f ef 6c bc
       -0.058905154 0.0076153106 -0.06686075 -0.014461367
0000f0 6f 51 4b bc 15 40 a5 bd 28 cc 94 3d d7 59 d2 bd
       -0.012409552 -0.08068863 0.07265502 -0.10271042
000100 e7 8b 9d 3c 23 ee 6b 3d e7 8c e7 b9 3f 7a 66 3a
       0.01923175 0.05760015 -0.00044164734 0.000879202
000110 0b 21 06 bd 00 11 b1 bd 3f a1 23 bd ae 0d ed bc
       -0.032746356 -0.086458206 -0.039948698 -0.028937187
000120 b4 e2 47 bb bc 38 49 3d 8c 3a 88 bb 97 fd b9 3c
       -0.0030500116 0.04912637 -0.00415737 0.022703929
000130 e7 b5 88 3d 73 33 c6 3c 9b f6 a0 3c 2e 25 27 3c
       0.0667532 0.024194455 0.01964884 0.010201735
000140 15 98 b1 bc 15 3c b1 3c 89 8c 00 bd 79 52 86 bd
       -0.021678964 0.021635095 -0.031384025 -0.06558699
000150 3f 57 5a 3d f2 6f b3 3c 20 9c 65 3d 93 03 b8 bb
       0.05330586 0.021903966 0.056057096 -0.0056156605
000160 95 9b 17 3c a8 6b 9f bb 06 bd 82 bd 6f b2 a1 bd
       0.009253402 -0.0048651285 -0.063837096 -0.07895362
000170 5b 6c cd bc 7e ef b8 3c 91 3e 1b 3d e5 7f 8d 3c
       -0.025076082 0.022575136 0.037901465 0.017272899
000180 13 e6 0b bc d0 38 3a bd 19 08 96 bd 5d fb af 3c
       -0.008538741 -0.045464337 -0.07325763 0.021482164
000190 f5 08 7d 3d 16 6e 91 bd 01 83 5b 3c c4 89 87 bc
       0.06177612 -0.07101075 0.013397933 -0.016545184
0001a0 f5 2a a6 bc 1f db 43 bc f6 72 85 3a ad d0 b8 3c
       -0.020284155 -0.011954098 0.0010181356 0.022560442
0001b0 90 ae 81 3c bc 01 3f 3d 7d 29 e9 3c 4a af 28 bc
       0.015830308 0.046632513 0.028462166 -0.010295698
0001c0 36 38 96 bd 6d 69 bb 3c a4 1e a3 ba b4 a6 32 bb
       -0.0733494 0.02287742 -0.0012445045 -0.0027260007
0001d0 46 84 04 bc 09 f6 95 bc 3c 01 07 3d 2e 80 c6 bb
       -0.008088177 -0.018305795 0.03296016 -0.0060577607
0001e0 fe e4 83 bd e9 61 09 bc 4b ba 37 3d f9 55 69 3c
       -0.06440161 -0.00838516 0.044855397 0.014241689
0001f0 59 74 75 bc d8 06 ed 3c 88 c6 eb ba 9a d3 aa 38
       -0.014981353 0.028933927 -0.0017988244 8.1456456e-05
000200 88 10 53 bc c5 d2 37 bb c8 d1 3d bc 60 d2 83 3c
       -0.012882359 -0.0028049212 -0.01158566 0.016091526
000210 37 2b 07 bd 6c eb 6b bd db 31 1f 3c 6b 9c b9 bc
       -0.033000197 -0.057597563 0.009716476 -0.022657594
000220 3c f7 1a 3d 05 cb 04 bd 07 79 71 3d 34 cf 0a bd
       0.037833437 -0.032420177 0.05895331 -0.03388901
000230 5f 01 43 bc b1 43 13 3d 14 c8 a4 3c 8f 64 c5 bc
       -0.011902182 0.035953227 0.020114936 -0.024095802
000240 a6 4a 2e bc d8 17 90 bb 75 28 76 3c 97 1f 03 bd
       -0.010637915 -0.0043973736 0.015024294 -0.03201255
000250 29 cf 16 3d 0d 2b fb bc 35 bb db bd 74 de 62 3c
       0.036818657 -0.030660177 -0.10729066 0.013846982
000260 46 25 90 3d 4e 71 f7 bb 8c 02 8d 3d 59 6e af bd
       0.07038359 -0.007551349 0.068852514 -0.08565969
000270 56 c7 83 3d 02 8a 25 bc 0f a3 c0 bd f3 6a 70 bc
       0.06434505 -0.010103704 -0.09406101 -0.014673936
000280 d2 b0 15 bd 2a 4f 98 bd 19 97 2b bd ba 78 99 bd
       -0.036545582 -0.07436974 -0.041892145 -0.0749373
000290 e9 e0 c0 3c 7f 67 97 bc 7f ee 1d bd 30 40 ae bc
       0.023544746 -0.018481968 -0.038557526 -0.021270841
0002a0 0d ad c4 bc 6a e5 92 bd b4 54 f4 3b 62 8c a9 bc
       -0.024008298 -0.071726635 0.0074563865 -0.020696823
0002b0 3e bb 0e 3d 06 d7 66 bc 02 dc 23 3c 4c f4 0c bc
       0.034846537 -0.0140893515 0.010001184 -0.008603167
0002c0 70 36 70 bd 1a 8e 66 bc 6d 3b 42 bd f7 9e 86 bd
       -0.058645666 -0.014071966 -0.047419954 -0.06573289
0002d0 67 c0 af ba 59 d4 15 bd dc 20 80 3c 53 5c aa bd
       -0.0013408781 -0.036579464 0.015640669 -0.08318391
0002e0 58 56 42 bd af e0 a1 bd fd fa 5a bd a5 fd 8d bc
       -0.047445625 -0.07904183 -0.053462017 -0.017332861
0002f0 d5 ac 35 bd bc 8b 13 bd fc 04 3c 3d 59 c5 5f bc
       -0.04435428 -0.036021933 0.04590319 -0.013657891
000300 a0 c8 dc 3c ae df 7d 3c 9e 1d 85 bd 30 e4 16 3d
       0.026951134 0.015495224 -0.0649979 0.03683871
000310 7c 3d 81 bd d7 fd c5 bc 81 be d1 3c 90 26 7d bd
       -0.06310555 -0.024168892 0.025603535 -0.061804354
000320 da 20 4a bd 0e 62 95 3d f5 05 57 bd 3f 55 27 3d
       -0.049347736 0.07294093 -0.052495915 0.04085278
000330 96 56 19 bd ca a9 36 bd 14 d4 e8 3c 9a c0 18 bd
       -0.03743609 -0.044595517 0.02842144 -0.037293054
000340 84 6f ad b9 68 6d a3 bc 8c 65 84 bd b7 04 29 bc
       -0.00033080217 -0.01994963 -0.06464681 -0.0103160655
000350 07 8e 93 3d 52 ec 34 3d 1f 4a 33 bc 17 d3 af 3c
       0.07204824 0.044170685 -0.010942965 0.02146296
000360 ee 23 69 3c f7 78 a2 bc 08 60 80 bd de a5 16 3c
       0.014229758 -0.019833071 -0.062683165 0.009194819
000370 68 f6 8a 3d a3 ab e2 bb 1e 83 20 3d 06 7e 97 3b
       0.067852795 -0.0069174333 0.039187543 0.0046231775
000380 fd cf a5 bd f8 b8 4e bc 99 bd fc bc 7a 92 22 bd
       -0.08096311 -0.012617342 -0.030852126 -0.039690472
000390 6f e1 da 3b f7 6f 84 bc 50 59 1d 3d 10 47 8f bb
       0.006679706 -0.01616667 0.038415253 -0.004372485
0003a0 ce 14 51 bd 8f f7 58 bd 9b dd 46 bd c4 3a 84 bd
       -0.05104523 -0.052970465 -0.048551183 -0.06456521
0003b0 90 10 89 bc 79 5c 24 bd 92 d5 6d 3c 78 c2 02 bd
       -0.01673153 -0.04012725 0.014516251 -0.03192374
0003c0 53 55 09 bd bb 3f 7d bd e7 9e c3 b8 07 be b8 3c
       -0.033528637 -0.061828356 -9.3279225e-05 0.02255155
0003d0 4a 44 1b bc d1 3b 09 bd 6d a4 c2 bd 02 41 04 3d
       -0.009476731 -0.03350431 -0.09504018 0.03228856
0003e0 5d 1f df bc 3c a2 f5 bc 31 b3 87 3c b0 7a 5c bd
       -0.027236635 -0.029984586 0.016564937 -0.05382794
0003f0 bb d5 13 3d bc 48 16 bd 5e 8d 84 bd 39 0e 07 bc
       0.0360925 -0.03669046 -0.06472276 -0.008243137

deconv2.0.bias f4 [16]
000000 a2 03 f2 3c 31 d1 76 bd 5b 68 f6 3c 95 45 db 3c
       0.029542748 -0.060258094 0.030079057 0.026766578
000010 d4 0f 1f 3d 1d 5a 66 bd 21 a3 46 3d 15 b5 85 bc
       0.038833454 -0.056238282 0.048495416 -0.016321698
000020 bb de 77 bd ec b1 53 3d b2 99 e1 3c 44 d3 64 bd
       -0.060515147 0.05168335 0.027539108 -0.05586554
000030 86 55 d1 3c a7 2c 6b bc eb 63 75 3c 73 ad 85 3c
       0.025553476 -0.014353908 0.014977436 0.016318059

deconv2.1.weight f4 [16]
000000 bd 3c 7c 3f 26 72 83 3f 35 c8 81 3f 9a 08 80 3f
       0.9853018 1.026921 1.0139223 1.0002625
000010 7b 05 80 3f f7 8a 75 3f 4e ef 78 3f 07 50 73 3f
       1.0001673 0.9591517 0.9724015 0.9504399
000020 19 10 78 3f 3e 30 83 3f 2a 74 7d 3f a3 2d 87 3f
       0.96899563 1.0249097 0.9900538 1.0560802
000030 70 ad 7b 3f ea 9c 76 3f 2a d5 83 3f 9c be 82 3f
       0.9831152 0.9633318 1.0299428 1.0214419

deconv2.1.bias f4 [16]
000000 21 78 18 3c 60 6d cf 3d fa 84 6a 3d 52 fe cf 3c
       0.009305985 0.101282835 0.057255723 0.025389824
000010 05 bf 5c 3d 27 97 97 3c 35 e9 18 3d c1 5e 18 bd
       0.053893108 0.018504692 0.03733178 -0.03719974
000020 6b 04 c6 bc 00 7b e2 3d 36 e7 3f 3d 5a 88 a1 bb
       -0.024172029 0.11058617 0.04685136 -0.0049295845
000030 a9 e0 ad bc 5e 1f 35 3d 70 dd 30 3d 4d df 06 3d
       -0.02122529 0.044219367 0.04317993 0.0329278

deconv2.1.running_mean f4 [16]
000000 a1 85 03 bf a8 69 0f bf 1b c2 85 be 6b 85 ec be
       -0.51375777 -0.56020594 -0.26124653 -0.4619554
000010 b4 20 aa be ad 42 3d bf fc 53 da be 48 b3 a8 be
       -0.33228076 -0.73929864 -0.426422 -0.3294928
000020 f8 9f 04 bf 40 4b 17 bf c6 53 44 bf 27 e8 2f bf
       -0.5180659 -0.590992 -0.7669033 -0.6871361
000030 a7 83 77 be 3f d7 9d be b6 a3 52 bf 65 e6 48 bf
       -0.24171315 -0.30828282 -0.82281053 -0.78476554

deconv2.1.running_var f4 [16]
000000 33 02 11 3f 4a a6 31 3f 05 6c 41 3f 82 81 06 3f
       0.5664398 0.6939436 0.7555545 0.52541363
000010 3f 86 31 3f 66 9b 95 3f 20 32 7c 3f 80 da 0c 3f
       0.6934547 1.1688049 0.98513985 0.55020905
000020 d1 61 d7 3e 43 0e b3 3f f3 67 97 3f f4 4e 34 3e
       0.42066815 1.3988727 1.1828598 0.17608243
000030 50 93 17 3f 57 3f 98 3f a4 54 3e 3f f1 9e 19 3f
       0.59209156 1.189433 0.743479 0.6000815

deconv3.0.weight f4 [16, 8, 4, 4]
000000 f0 0e 80 bd 1f 65 f1 3c c3 9c dd bc 84 91 bc bd
       -0.06252849 0.029467164 -0.027052289 -0.092074424
000010 67 21 16 be c5 43 12 bd 9f 03 24 3d c2 4c bd bc
       -0.1466118 -0.03570916 0.040042516 -0.02310789
000020 8f 13 88 bd be 79 c5 3c df 1b da 3c 31 fc 61 3d
       -0.066443555 0.024105903 0.026624618 0.05517215
000030 e1 19 89 bd 6d 95 ff bc 8c 95 4e 3d 93 2b 93 bc
       -0.06694389 -0.031199181 0.050435588 -0.017965114
000040 53 21 f2 b9 24 15 31 bd 0d ef 31 3b 3b ac a3 3d
       -0.00046182665 -0.043233052 0.0027150542 0.07991835
000050 c1 b9 2d 3d 6c 3a 28 3d d1 f7 84 3d 86 9b af 3c
       0.042413477 0.04107134 0.0649258 0.021436464
000060 83 e9 5f ba ec fc b2 3d 5d 0d 64 3d cc c3 60 3d
       -0.0008541571 0.08739647 0.055676807 0.054874226
000070 c2 86 de 3a b9 82 90 3d 4f 3a 72 3d 47 23 2a bd
       0.0016977417 0.07056183 0.05913764 -0.04153755
000080 0c 31 68 3d 30 ad c9 3c 52 61 25 bc 84 44 68 3d
       0.0566874 0.024618715 -0.010094004 0.056705967
000090 6f fa 50 3d e7 91 17 3e 90 2f 01 3c 6e a0 17 3d
       0.051020082 0.14801751 0.007884875 0.037018232
0000a0 86 63 c9 3c 9e cf aa 3d 7a 27 89 bd 85 c3 9b 3d
       0.02458359 0.08340381 -0.06696983 0.07605652
0000b0 3a 3f 9d 3c 78 b1 d9 3c 9e dd c3 bc ad 33 9f bc
       0.019195188 0.026573882 -0.023909386 -0.01943382
0000c0 70 b6 8b 3c 7d 73 8d 3d 29 85 d7 bc ca 1c a7 3c
       0.017054766 0.06906793 -0.026308613 0.02039947
0000d0 35 90 41 bc 3c 2f 5d bd fe 16 f4 3c 1c ca eb 3d
       -0.011814167 -0.054000124 0.02979612 0.11513159
0000e0 52 63 2d 3d f2 fd bd 3d 16 22 fe bc 3e 04 ab 3d
       0.042331047 0.09276952 -0.031022113 0.083504185
0000f0 f4 0d da 3c d8 81 02 3d 7e 3d dc 3b 80 bf 11 3d
       0.026617981 0.03186211 0.0067211976 0.03558302
000100 d9 fe 27 3d b4 0a 8e 3d 65 98 1e 3c f9 8d 5b bd
       0.041014526 0.06935635 0.009679888 -0.053602193
000110 61 4d 1c 3d e8 4e 09 3c ea 8e 3b 3c 88 d3 79 bd
       0.03815973 0.008380629 0.011447648 -0.060992748
000120 64 34 ac bc b4 9d 52 3d 38 b6 14 bd 13 94 e8 3b
       -0.021021076 0.05141993 -0.03630659 0.00709773
000130 6e 10 d3 ba de cb bf 3b 11 3d ae bc 3a 87 1b 3d
       -0.0016102919 0.0058531603 -0.021269353 0.03797076
000140 ff e0 b5 3c ae 22 23 bd 37 d5 f9 3b 61 6a 76 3b
       0.022202013 -0.039827995 0.007624294 0.0037600028
000150 8a ec fd 3b 28 06 eb ba 87 8f 0a 3d c0 cf 89 3d
       0.007749145 -0.0017930912 0.033828285 0.06729078
000160 5f d0 5e bb aa 1b 58 3d 6c 8b 38 bd ea 59 21 bc
       -0.003399871 0.052760758 -0.045054838 -0.009848097
000170 dc d7 57 3d 97 8c 0b 3d 41 78 b0 3c 0f cf 10 3d
       0.052696094 0.034069624 0.021541717 0.035353716
000180 fa 25 a1 bc b5 fb 9c bd 97 4b 41 bd 5c be 83 bd
       -0.019671429 -0.07665197 -0.04719123 -0.064327925
000190 66 9e 66 3d 5f 81 49 bd 94 55 21 bc e1 e1 08 bd
       0.056303404 -0.049195644 -0.009847064 -0.03341854
0001a0 2f 71 c4 3b 5e a2 b4 3d b5 52 1c 3d 5d 1d 75 3b
       0.005994938 0.088200316 0.038164813 0.0037401535
0001b0 1d 19 84 3c ba 44 b5 bc b5 6a de bc dd e2 44 bd
       0.016125256 -0.022127498 -0.027150491 -0.048067916
0001c0 bf 2b 56 3d ec 29 a8 3d fb 81 1e 3d 16 57 0c 3d
       0.052287813 0.08211121 0.038698178 0.03426274
0001d0 96 69 ec 3a 29 fd d3 3d 26 65 6f bd 07 6d f9 bc
       0.0018036838 0.10351021 -0.058446072 -0.030447496
0001e0 cb 77 6b 3d aa d0 9b bd 02 29 06 bd 7e 27 63 bc
       0.05748729 -0.07608159 -0.03275395 -0.013864396
0001f0 00 aa 56 3d 96 05 74 3d 85 25 ef bc 31 e9 13 3d
       0.05240822 0.05957564 -0.029192695 0.03611106
000200 0a 10 e1 bc bc 5d 37 3c 39 e7 ab 3d eb b2 ce bd
       -0.027473468 0.011191782 0.083937116 -0.1009272
000210 bf b3 91 bd 00 eb 12 bd 5a db 2a 3e 44 99 89 3d
       -0.07114362 -0.035868645 0.16685238 0.06718686
000220 c7 78 09 3c 6e a7 3f 3d e0 8f 72 3d 49 74 11 3c
       0.008390612 0.046790533 0.05921924 0.008877822
000230 a4 31 97 bc a3 3b 1a bd fe f2 98 3d 9a 17 91 bc
       -0.018456288 -0.03765453 0.07468222 -0.01771145
000240 d5 44 50 3d 85 32 9a bd 3f f7 7c 3c 0d fa 82 bd
       0.050846893 -0.07529167 0.015439807 -0.0639535
000250 5f 00 b6 bc f4 b5 90 bd c7 8e ef 3d 34 09 6d bd
       -0.022216974 -0.07065955 0.116971545 -0.057870105
000260 36 52 6f 3b cf f2 97 3c 16 3e 27 3d cd 42 cb 3c
       0.0036517507 0.018548397 0.040830694 0.024812127
000270 dd 38 4c 3c 6b 73 9f bb ac 69 2d 3d ab ad 8d 3c
       0.012464729 -0.004866054 0.042337105 0.017294725
000280 80 9e 36 bb e5 6d 38 3d dd ac 1b 3e 92 b4 7e bb
       -0.002786547 0.04502668 0.15202661 -0.0038864953
000290 70 62 26 3b ca ad 86 3a eb ab 1d 3c cc ed 48 3d
       0.0025388263 0.0010275182 0.009623508 0.049054906
0002a0 4d 2d 9a bc 3d 8f 0f 3d f1 1b 5d bb 80 e7 99 bc
       -0.01882043 0.035048712 -0.0033738578 -0.018787146
0002b0 dc b0 55 bd 88 13 88 bc 92 fd 4a 3d e6 59 1f bd
       -0.05217062 -0.016610876 0.04955823 -0.038904093
0002c0 d0 ba b8 bd 9f 0c b4 bc 28 e3 b9 3d 2d 62 1e bb
       -0.09020007 -0.021978674 0.0907653 -0.0024167404
0002d0 b0 18 b3 3d d7 18 05 bd 4d 31 20 bd 3c 44 6c 3d
       0.08744943 -0.032494392 -0.039109517 0.05768226
0002e0 5f 29 12 bd 1f 3c 1f 3d aa 85 fd 3d 2b f3 11 bc
       -0.035683986 0.038875695 0.1237901 -0.008908073
0002f0 76 a4 33 3d d3 8c 19 bc 93 10 4a bd 38 31 e4 3c
       0.043858014 -0.009371954 -0.049332213 0.0278555
000300 44 82 30 3d 64 0b b0 bc 05 31 4e 3a 87 ea 33 3d
       0.04309298 -0.021489806 0.0007865581 0.043924835
000310 73 06 98 3d 92 31 26 3d b4 14 5c bd 5f 0b 89 3c
       0.07423105 0.040574618 -0.05373068 0.016729055
000320 fc 6a 57 3d 31 2c dd 3c 11 d4 86 bc 9f 24 ba 3d
       0.052592263 0.026998611 -0.016458543 0.09089016
000330 ae ae 34 3c b1 59 ed bc 49 4b 57 3d f5 8b e3 3c
       0.011027975 -0.028973432 0.052562032 0.027776698
000340 8d 6d c0 3c cb ae c3 bc 75 eb 5c bd 01 4e 60 3d
       0.023489738 -0.023887059 -0.053935487 0.05476189
000350 65 85 48 bd 7c 93 51 3d 0c a2 f5 3d b6 aa d2 3d
       -0.04895534 0.051166043 0.119937986 0.10286467
000360 d5 52 8c 3c 7b 29 5e 3d 56 bf 0c bc 30 d5 d0 3d
       0.017129341 0.054238778 -0.00859054 0.10196912
000370 e2 5b af 3d 10 04 06 3c c3 42 d4 3d 72 ec eb 3d
       0.08562447 0.0081796795 0.10364296 0.11519708
000380 82 b0 3a bd ff 9a af bd fe 02 02 bd 2c f1 ec 3c
       -0.045578487 -0.08574485 -0.031741135 0.028923593
000390 07 0c 13 3d 7d d6 ee 3c 69 01 c0 3d a4 96 a4 bb
       0.035900142 0.02915501 0.09375269 -0.0050228406
0003a0 8c c1 d9 3c 16 07 9b bc 53 35 27 3c eb ba ce 3b
       0.026581548 -0.018924277 0.010205585 0.0063089035
0003b0 02 3a 6f bc c0 7d 3b 3c 94 37 c4 3d 87 4a 0f 3d
       -0.0146012325 0.011443555 0.09580913 0.034983184
0003c0 e5 46 0a 3d ee b3 77 3d 11 84 a9 3c ad f2 9d 3d
       0.033759017 0.06047433 0.020692857 0.07712302
0003d0 68 dd eb 3c 9d 10 09 3d f6 30 8a bd 15 12 be bd
       0.028792098 0.03346311 -0.0674762 -0.092807926
0003e0 e2 0e 7d bd f9 f3 ce 3c 9f 27 ac bc 7a b8 d2 bc
       -0.06178177 0.02526282 -0.021014987 -0.02572273
0003f0 cc 6e 57 3c 40 84 2c 3b a2 0f c0 bd 11 6e 89 bd
       0.013148975 0.0026323944 -0.09377982 -0.067104466

deconv3.0.bias f4 [8]
000000 1a e9 93 bd 98 f5 98 3d a6 94 68 bd 59 d8 39 3d
       -0.07222195 0.07468718 -0.056782387 0.04537234
000010 a6 eb d6 3c ef bd 80 3d 1e 6c 00 3d 25 a0 76 3d
       0.026235413 0.06286227 0.03135311 0.06021132

deconv3.1.weight f4 [8]
000000 29 38 96 3f 72 36 94 3f aa d9 94 3f 87 a7 94 3f
       1.1735889 1.1579115 1.1628926 1.1613625
000010 9b 42 92 3f f7 20 93 3f bd 53 95 3f 93 f5 90 3f
       1.1426576 1.1494435 1.166618 1.1324943

deconv3.1.bias f4 [8]
000000 e8 65 2e 3e 32 bd 1c 3e 6f b6 22 3e 04 f7 21 3e
       0.17031062 0.15306547 0.15889905 0.15816885
000010 ea 1a 16 3e d5 9f 16 3e 07 63 28 3e 96 a9 0a 3e
       0.14658704 0.14709409 0.16444026 0.13541254

deconv3.1.running_mean f4 [8]
000000 cb 5b 59 bc 9f e0 35 3e be 85 4a 3e fe 23 a5 3e
       -0.013266514 0.17761467 0.19777581 0.32254022
000010 38 e4 c2 3e de 6a 09 3f 2c cc f8 3d 09 7d 2c 3e
       0.38064742 0.5367869 0.12148318 0.16844572

deconv3.1.running_var f4 [8]
000000 e3 a7 ea 3d 06 fa 13 3e 61 a3 30 3e b2 50 36 3e
       0.11457803 0.14450845 0.17249824 0.1780422
000010 5f 1b bf 3d d0 87 0d 3e fe ff 0c 3e 07 cd 21 3e
       0.093313925 0.1382134 0.13769528 0.15800868
