03_hw/Pix2Pix/checkpoints/pix2pix_model_epoch_650.pth (torch, 99191 bytes, 32 tensors)

conv1.0.weight f4 [8, 3, 4, 4]
0	0xbdca6275	-0.098820604
1	0xbde97acf	-0.11400377
2	0xbd5a12a9	-0.053240452
3	0xbe3c5fa6	-0.18395862
4	0x3d74ff02	0.059813507
5	0xbdcd053e	-0.100107655
6	0xbcab47eb	-0.020908317
7	0x3d7658f3	0.060143422
8	0xbe112019	-0.141724
9	0xbd3a198b	-0.045434516
10	0xbb9ebbac	-0.0048441496
11	0x3d24fb61	0.040278796
12	0xbcc3c8fd	-0.02389955
13	0x3d9410af	0.07229745
14	0x3d8fc002	0.070190445
15	0xbe0bd50e	-0.13655493
16	0x3e09f2d6	0.13471541
17	0x3e4081b8	0.18799484
18	0x3d6197d1	0.055076424
19	0xbbb7c501	-0.0056082015
20	0x3d14c9fc	0.03632544
21	0xbcc1dc22	-0.023664538
22	0xbd9f44ac	-0.0777677
23	0x3d4a3a2e	0.04937189
24	0x3df442db	0.11926814
25	0x3d5c2ec8	0.05375555
26	0x3d212806	0.03934481
27	0xbd2363ce	-0.039890103
28	0xbd9938c0	-0.07481527
29	0x3ceae3c4	0.02867306
30	0xbd84571b	-0.064619265
31	0x3e2ac142	0.16675285
32	0xbdd55f53	-0.10418572
33	0x3d1fbe8d	0.039000083
34	0xbe187bb0	-0.14890933
35	0x3d58b71d	0.052909005
36	0xbde1d3ca	-0.11026724
37	0xbdd92879	-0.10603423
38	0xbbdbd24a	-0.006708418
39	0xbdf8e988	-0.121539176
40	0x3cd29138	0.025704011
41	0xbcc7e4a1	-0.024401011
42	0xbb232ab4	-0.002489728
43	0xbd164826	-0.0366899
44	0xbd403a5e	-0.046930663
45	0x3d316d9d	0.043317426
46	0x3d944d24	0.07241276
47	0x3d3c6dcd	0.04600315
48	0xbd8f18c2	-0.06987144
49	0x3d8dd308	0.06925017
50	0xbc9937cb	-0.018703362
51	0xbc95c6c5	-0.018283257
52	0xbb7697f6	-0.0037627197
53	0x3de8922d	0.11356006
54	0x3d0bb80b	0.034111064
55	0xbc3d370d	-0.01154877
56	0x3e158c14	0.14604217
57	0x3db409bf	0.087909214
58	0xbdcbcfee	-0.09951769
59	0xbd954ce5	-0.07290057
60	0x3d0e83c7	0.03479364
61	0x3e024310	0.12720895
62	0xbcf39dc6	-0.029738318
63	0xbcb501a4	-0.022095509
64	0xbb28ae42	-0.0025738631
65	0x3e09e4cf	0.1346619
66	0x3c352ea7	0.011058486
67	0xbdac6f9e	-0.08419727
68	0xbd39b450	-0.045337975
69	0xbd9d31bc	-0.07675502
70	0x3d1a9811	0.037742678
71	0xbd07e599	-0.033177946
72	0x3cfd0fb6	0.03089128
73	0xbc0d8177	-0.008636824
74	0x3d180461	0.03711355
75	0xbe0335cb	-0.12813489
76	0x3d7dd79c	0.0619732
77	0xbce15954	-0.027508415
78	0x3d76960e	0.060201697
79	0x3dbc2486	0.09186654
80	0x3b15be0d	0.0022848875
81	0xbd80bac3	-0.06285622
82	0x3d460362	0.04834307
83	0xbe045662	-0.12923577
84	0xbd6637b9	-0.056205485
85	0x3daabfe7	0.08337384
86	0xbd94cbf3	-0.07265463
87	0x3d865fc7	0.06561237
88	0xbbb4734d	-0.005506909
89	0xbb8d8d91	-0.0043198545
90	0xbc9056a3	-0.017619437
91	0x3b9a2b38	0.004704859
92	0xbd80b763	-0.06284978
93	0xbdbeb840	-0.09312487
94	0xbced3967	-0.028958036
95	0xbdc5dc4b	-0.09661158
96	0xbe076248	-0.13221085
97	0x3d61a79d	0.05509149
98	0x3c6257e5	0.013814901
99	0xbd67b6b1	-0.056570712
100	0x3c4157f8	0.011800759
101	0xbcc85bf1	-0.024457904
102	0x3d84cfce	0.06484948
103	0x3e0de123	0.13855414
104	0xbd9f48db	-0.07777568
105	0x3d3b6086	0.04574635
106	0xbde50f6d	-0.11184583
107	0xbd4d7c6b	-0.050167482
108	0x3e1e729a	0.15473405
109	0x3d0eb4df	0.03484046
110	0x3d2837d9	0.041068885
111	0xbd5dd701	-0.05416012
112	0xbd6d43d5	-0.057926018
113	0x3b040724	0.0020145858
114	0x3dcf4f01	0.10122491
115	0xbde704b3	-0.11280193
116	0x3e02d87d	0.12777896
117	0xbd05feb6	-0.032713614
118	0x3c6f4082	0.014602782
119	0x3e04b941	0.12961294
120	0x3cff629f	0.031174956
121	0x3d96d60b	0.07365044
122	0xbdbda2e4	-0.092595845
123	0xbddb7646	-0.10715918
124	0x3d22dc46	0.03976085
125	0x3cf97bdb	0.030454567
126	0xbbb0e410	-0.005398281
127	0x3df17f9b	0.11791917
128	0xbdcff431	-0.10153998
129	0x3dc25c3d	0.09490249
130	0xbc6f9c89	-0.014624723
131	0x3d19c547	0.037541654
132	0x3c849713	0.016185319
133	0x3d86888e	0.065690145
134	0x3dc2ef80	0.09518337
135	0xbc6799fb	-0.014135833
136	0x3d9f72fd	0.07785604
137	0x3e2fcca5	0.1716791
138	0x3df946e1	0.12171722
139	0x3d9b1fff	0.07574462
140	0xbdb5b342	-0.08872081
141	0x3ccac57f	0.024752377
142	0x3dcd8ba4	0.100364
143	0x3deede0d	0.116634466
144	0x3d76d180	0.06025839
145	0x3deacb9b	0.11464616
146	0x3e317ad6	0.17332014
147	0x3d49a0aa	0.049225487
148	0x3b973fcc	0.0046157595
149	0xbd4f664d	-0.05063467
150	0xba09345e	-0.00052339386
151	0xbd51c28c	-0.051210925
152	0x3d1d6167	0.03842297
153	0xbd8a4ea3	-0.0675328
154	0x3e126051	0.14294554
155	0xbd70aab2	-0.058756538
156	0x3d595831	0.05306262
157	0x3de69181	0.112582214
158	0x3dcf772c	0.10130152
159	0xbe22934b	-0.158765
160	0xbddf3ce9	-0.109002896
161	0x3db4b09f	0.0882275
162	0x3e1ff72c	0.15621632
163	0x3cd33d30	0.025786012
164	0x3d8bc219	0.068241306
165	0x3dc957d1	0.09831203
166	0x3ac80dd0	0.0015262906
167	0xbd1e1fa9	-0.038604412
168	0xbdbc9beb	-0.092094265
169	0xbdb36cf5	-0.08761016
170	0x3d8c8cff	0.0686283
171	0x3dcde6cb	0.10053786
172	0xbdaea6de	-0.08527921
173	0xbd67e0e8	-0.05661097
174	0xbc66ca6e	-0.014086349
175	0xbdac6195	-0.0841705
176	0x3da15522	0.07877566
177	0xbe3409e2	-0.17581895
178	0x3c8b29ec	0.016987763
179	0x3d011a54	0.03151925
180	0xbd673921	-0.056450967
181	0xbde7873a	-0.11305089
182	0xbd2ec7e5	-0.042671103
183	0x3c9b58be	0.018963214
184	0xbdedca13	-0.11610808
185	0x3ddc2050	0.107483506
186	0xbda32300	-0.0796566
187	0x3de2986e	0.1106423
188	0xbd6dc3b7	-0.058047976
189	0xbd2cd437	-0.04219457
190	0xbde13a7f	-0.10997485
191	0x3e03f1f6	0.1288527
192	0xbdbefe04	-0.093257934
193	0xbe0e2ee7	-0.1388508
194	0x3d1f8a0b	0.038950007
195	0x3d4c48af	0.049874004
196	0x3e091245	0.13385876
197	0xbc6cee5f	-0.014461129
198	0x3906c0a0	0.00012850994
199	0xbe0f3c96	-0.13987955
200	0x3dc1a047	0.094543986
201	0xbd95183d	-0.07280014
202	0x3df09136	0.11746447
203	0x3d65b55d	0.056081165
204	0x3d402720	0.046912313
205	0xbe2ea85a	-0.17056409
206	0xbdb50067	-0.08837967
207	0xbc6de165	-0.01451907
208	0xbce42b69	-0.02785273
209	0x3d78e49d	0.060764898
210	0x3d184e89	0.037184272
211	0x3dbffe0b	0.09374627
212	0xbdc5a770	-0.09651077
213	0xbd9f55bd	-0.07780025
214	0xbbadac7c	-0.0053001028
215	0x3d9dfe8d	0.07714567
216	0xbd0a4ea5	-0.033766408
217	0xbe03589b	-0.12826769
218	0xbe483672	-0.19552019
219	0xbe6ce11b	-0.23132746
220	0xbde3a8f3	-0.11116209
221	0xbcaa4c05	-0.020788202
222	0xbe4af70e	-0.19820806
223	0x3cf72568	0.030169204
224	0x3de14816	0.110000774
225	0x3c97dbf5	0.0185375
226	0x3d7b40c4	0.061341062
227	0xbdd51f50	-0.10406363
228	0x3d95eba0	0.073203325
229	0xbd6fb572	-0.05852265
230	0x3dc02ea6	0.093838975
231	0xbd9c3f8f	-0.0762931
232	0xbd652ca6	-0.055950783
233	0x3dc0dd1b	0.094171725
234	0xbd55fc6a	-0.052242674
235	0x3d8352a6	0.06412248
236	0x3dc973a6	0.09836511
237	0x3cf9706b	0.030449113
238	0xbbc6d258	-0.0060675554
239	0xbd6ed12a	-0.058304943
240	0x3d1e1dfe	0.03860282
241	0xbdec471a	-0.11536999
242	0xbd8bbf63	-0.068236135
243	0xbd279e68	-0.040922552
244	0xbd6a58b9	-0.05721352
245	0xbdc53b90	-0.09630501
246	0x3df349f5	0.118793406
247	0xbb3a7a27	-0.0028454156
248	0x3dce7bca	0.10082205
249	0x3c7b4108	0.015335329
250	0x3dc150ef	0.09439265
251	0xbde91b5e	-0.11382173
252	0xbd1c881d	-0.038215745
253	0x3ddcbf36	0.10778658
254	0x3e010ded	0.12602969
255	0x3d5d88f2	0.05408568

conv1.0.bias f4 [8]
0	0x3e089350	0.13337445
1	0x3b9228cb	0.0044604293
2	0xbd0f5ca5	-0.035000462
3	0x3dfeb85e	0.12437509
4	0x3d91ba25	0.071155824
5	0x3dce5871	0.100754626
6	0xbdde96a4	-0.10868576
7	0xbc41752a	-0.011807719

conv1.1.weight f4 [8]
0	0x3f80cfd3	1.0063423
1	0x3f7bc438	0.9834628
2	0x3f7fc75c	0.99913573
3	0x3f747881	0.95496374
4	0x3f80df91	1.0068227
5	0x3f7280dd	0.9472788
6	0x3f82a89a	1.0207703
7	0x3f87090d	1.0549637

conv1.1.bias f4 [8]
0	0xbb28f5b6	-0.002578122
1	0xbd2a7864	-0.04161872
2	0xbd03cef0	-0.032179773
3	0xbc2758ed	-0.010214073
4	0xbb773cc6	-0.0037725433
5	0x3da0c570	0.07850158
6	0xbd34f881	-0.044182304
7	0x3dd5fa99	0.10448188

conv1.1.running_mean f4 [8]
0	0x3e4c10b9	0.19928254
1	0xbce69076	-0.028145056
2	0xbdd0d2d6	-0.10196464
3	0x3d6d19a1	0.05788577
4	0x3e2f9a21	0.1714864
5	0x3da08758	0.07838315
6	0xbdeb23f4	-0.11481467
7	0xbc3815f9	-0.011235707

conv1.1.running_var f4 [8]
0	0x3d42d673	0.047567796
1	0x3c6818bd	0.014166054
2	0x3e80ee02	0.25181586
3	0x3cd08c86	0.025457632
4	0x3e08ceae	0.13360092
5	0x3d08fc9f	0.033444043
6	0x3ca3af03	0.019980913
7	0x3cf75b13	0.030194795

conv2.0.weight f4 [16, 8, 4, 4]
0	0x3d88e841	0.06684924
1	0x3dc37cc3	0.09545281
2	0x3cf6b3bc	0.030115
3	0x3d36c4ac	0.044621155
4	0xbda52a2c	-0.08064684
5	0x3d95f792	0.07322611
6	0xbd3e62c9	-0.046480928
7	0x3d918509	0.071054526
8	0xbd9bc25f	-0.07605433
9	0x3d8eed35	0.069788374
10	0x3d5269eb	0.051370542
11	0x3c9575db	0.018244674
12	0xbcea1892	-0.02857617
13	0xbdd07f0e	-0.10180484
14	0xbdd125ff	-0.10212325
15	0x3c905a37	0.017621143
16	0xbc8aacff	-0.016928194
17	0x3dd259ab	0.10271009
18	0x3d9745e1	0.07386375
19	0xbca91f8a	-0.020644922
20	0x3d60dc63	0.054897677
21	0xbd85a013	-0.06524672
22	0x3cc26b59	0.023732828
23	0xbcbc6669	-0.022998052
24	0x3cefac7f	0.029257057
25	0x3c05b660	0.008161157
26	0xbd57a716	-0.05264958
27	0x3cae24ac	0.02125772
28	0x3d1c3e68	0.038145453
29	0x3ce20e88	0.02759482
30	0xbcd00eb1	-0.02539763
31	0xbdb60852	-0.08888306
32	0xbd2e4e8c	-0.042555377
33	0x3c8e80ce	0.017395403
34	0x3d28ba87	0.04119351
35	0xbd2161d0	-0.039399922
36	0xbdb30071	-0.087403186
37	0xbc9efcfc	-0.019407742
38	0xbc2ad6b1	-0.010427163
39	0x3d46ab2f	0.048503097
40	0xbd1c20b0	-0.03811711
41	0xbd9028ab	-0.07039007
42	0xbc4c6d7c	-0.012477275
43	0xbcd33705	-0.025783071
44	0xbddb509b	-0.10708734
45	0xbdbe8bde	-0.09304021
46	0xbd9d2441	-0.076729305
47	0xbdc45509	-0.09586532
48	0x3d255b0e	0.04037004
49	0xbcd51335	-0.026010135
50	0x3ce71774	0.028209426
51	0x3c7d860e	0.015473856
52	0x3c86a2af	0.016434995
53	0x3cd69ec5	0.026198754
54	0xbd7eb98b	-0.062188666
55	0xbd46d56d	-0.048543382
56	0x3a8d369e	0.0010773723
57	0xbd01fd40	-0.03173566
58	0x3c22e536	0.009942343
59	0xbb25a3f2	-0.002527472
60	0x3db83ea2	0.08996321
61	0xbc9b012e	-0.018921461
62	0x3bf6625a	0.0075190486
63	0x39c5f7da	0.00037759432
64	0x3d73a28d	0.059481192
65	0xbce1a3a6	-0.027543854
66	0x3b603d34	0.0034216167
67	0x3d350aa5	0.044199605
68	0x3d254a51	0.040354077
69	0x3b7abeb1	0.0038260634
70	0x3dcef6be	0.10105656
71	0xbc20e32c	-0.009819787
72	0x3d5c8f8e	0.053847842
73	0xbd0ae26c	-0.03390734
74	0x3da9b283	0.082860015
75	0x3d49422b	0.04913537
76	0xbd9e2d54	-0.077234894
77	0xbcc20deb	-0.023688277
78	0xbd561e09	-0.052274738
79	0xbd1d2541	-0.038365606
80	0xbda9d913	-0.08293357
81	0xbdc89ed5	-0.0979592
82	0x3bd0572d	0.0063580484
83	0x3ac40cd1	0.0014957433
84	0xbbd2d507	-0.0064340862
85	0xbcb4358e	-0.021998193
86	0x3d33fbd3	0.04394133
87	0x3bfd8076	0.007736261
88	0x3b5c1a8c	0.003358516
89	0x3d885081	0.0665598
90	0x3d41201f	0.047149774
91	0x3d8f33eb	0.069923244
92	0xbbda68d4	-0.0066653285
93	0x3bec5ed7	0.007213454
94	0xbd88a771	-0.06672562
95	0x3c3ac175	0.011398663
96	0x3d8a538b	0.06754216
97	0x3b1a42e3	0.0023538403
98	0x3db785b2	0.08961047
99	0x3d44a33c	0.048007235
100	0x3d976a71	0.07393349
101	0x3d257c76	0.0404019
102	0x3cd57080	0.02605462
103	0x3d639949	0.055566106
104	0xbc79ac23	-0.0152387945
105	0x3cf4a27f	0.02986264
106	0xbc297a95	-0.010344167
107	0x3d6498e4	0.05580987
108	0xbb13267e	-0.0022453363
109	0x3dc0dbc7	0.09416919
110	0x3ce5869b	0.028018286
111	0x3dc1f7a1	0.094710596
112	0x3b3ebbf6	0.0029103733
113	0x3c737f90	0.014861956
114	0xbd03443c	-0.032047495
115	0x3bb5ff97	0.0055541503
116	0xbd046cb7	-0.03233024
117	0xbbec8c67	-0.0072188857
118	0xbcee7e19	-0.029112862
119	0xbcbb5ca1	-0.022871317
120	0x3d990aba	0.07472749
121	0x3ca4047a	0.020021666
122	0x3d4aee8c	0.049543902
123	0x3d444bd9	0.047923896
124	0x3d58dbce	0.052943997
125	0xbc2e5a6d	-0.010641676
126	0x3d459943	0.048241865
127	0xbd0520f6	-0.032502137
128	0x3cd21d8b	0.025648853
129	0x3bc08638	0.005875375
130	0xbd031723	-0.032004487
131	0xbd77c1cd	-0.060487557
132	0xbd3de719	-0.04636297
133	0xbd956891	-0.07295335
134	0xbd1772f8	-0.036974877
135	0x3d9ab33d	0.07553718
136	0x3d513145	0.051072378
137	0x3a2b450d	0.00065334217
138	0xbbfd44d1	-0.007729151
139	0x3d921ed3	0.071347855
140	0xbd5cd313	-0.053912234
141	0xbbc6745c	-0.0060563516
142	0x3dc09ade	0.094045386
143	0xbd4f28d3	-0.050576042
144	0x3ca31eca	0.019912142
145	0x3d124a0c	0.035715148
146	0xbd590d73	-0.05299134
147	0xbd93ffda	-0.07226534
148	0xbdbdbd06	-0.09264569
149	0xbd57bb2e	-0.052668743
150	0xbdae940b	-0.08524331
151	0xbd02a0d8	-0.031891674
152	0x3c137eab	0.009002368
153	0xbd537c52	-0.051632233
154	0x3d7515ab	0.059835117
155	0x3cf42575	0.029803017
156	0x39414f4e	0.00018435458
157	0xbcfdfa56	-0.031003159
158	0x3da94f0d	0.08267031
159	0x3ded591d	0.11589263
160	0xbdd4ce45	-0.10390905
161	0xbcf9a88e	-0.030475881
162	0x3d86ec97	0.06588095
163	0xbc96d7f8	-0.018413529
164	0x3d81b90d	0.06334124
165	0x3d0d3fd0	0.034484684
166	0x3d34f009	0.044174228
167	0xbd746891	-0.059670035
168	0x3c933950	0.017971665
169	0xbc34e242	-0.011040272
170	0xbdac8e25	-0.084255494
171	0x3d1706e5	0.03687181
172	0x3c615687	0.01375354
173	0xbd5c58ff	-0.05379581
174	0x3cabbe5f	0.0209648
175	0x3d80ee4b	0.06295451
176	0xbcce8a02	-0.025212292
177	0xbd120c2c	-0.03565614
178	0x3dcb9424	0.09940365
179	0xbbf2ff36	-0.0074156774
180	0xbd61fe5a	-0.05517421
181	0xbd32bec3	-0.043638956
182	0xbd596ae0	-0.05308044
183	0x3d3dbebe	0.046324484
184	0xbcce5a9a	-0.025189687
185	0xbd714aa6	-0.05890908
186	0xbda69876	-0.08134548
187	0x3c9558d5	0.018230835
188	0xbd91ac98	-0.07112998
189	0x3c3858d5	0.011251648
190	0x3d23fa72	0.040033765
191	0xbbf8607c	-0.007579861
192	0xbcd1d4b6	-0.025614124
193	0xbd803d80	-0.0626173
194	0xbb8fb379	-0.0043854085
195	0x3b709273	0.0036708384
196	0xbc9023bd	-0.017595166
197	0x3d2f926b	0.042864244
198	0x3d0c8291	0.034304205
199	0xbd509934	-0.050927356
200	0xbd7921a2	-0.06082309
201	0xbd86ba8d	-0.065785505
202	0xbda0222b	-0.07819017
203	0x3d3dbca7	0.04632249
204	0xbbca9da6	-0.006183344
205	0xbcbd994b	-0.023144385
206	0x3dc626fe	0.09675406
207	0xbd0e45ac	-0.034734413
208	0xbcedfc4c	-0.029050969
209	0xbd1a8017	-0.037719812
210	0xbd97b60d	-0.0740777
211	0xbd537ebb	-0.05163453
212	0x3d23c1e4	0.03997983
213	0xbd0e37d4	-0.03472121
214	0xbdbb5ba2	-0.09148337
215	0xbdefce64	-0.11709288
216	0x3c9fcafc	0.01950597
217	0xbd10006d	-0.035156656
218	0xbce880d9	-0.028381752
219	0xbc4a3cd9	-0.012343609
220	0x3c5ce390	0.0134819895
221	0xbd8a8511	-0.06763662
222	0xbd17818c	-0.03698878
223	0x3c7089d4	0.014681298
224	0x3c5ed58c	0.013600718
225	0xbbd902f8	-0.0066226684
226	0xbd008a67	-0.03138199
227	0x3d8bacc7	0.06820064
228	0x3d48510e	0.048905425
229	0xbd53f69f	-0.051748868
230	0xbd2b34da	-0.04179845
231	0x3cb1dc73	0.021711564
232	0xbda871f0	-0.08224857
233	0xbc595274	-0.013264287
234	0xbe35735b	-0.17719786
235	0xbd77ba8c	-0.06048064
236	0x3ac559e4	0.0015056697
237	0xbd9944fc	-0.07483861
238	0xbdac4a32	-0.08412589
239	0x3cd611a3	0.026131457
240	0x3cd45e0c	0.025923751
241	0xbd74144b	-0.059589665
242	0x3b79c612	0.0038112444
243	0xbc6799c0	-0.014135778
244	0xbe2ea2dc	-0.17054313
245	0xbe0f9ec7	-0.14025412
246	0xbdbae996	-0.09126584
247	0x3c89e70e	0.016833808
248	0xbcd53454	-0.026025929
249	0xbe571399	-0.2100357
250	0xbdfade4a	-0.122494295
251	0xbd96ea32	-0.07368888
252	0x39e60018	0.00043869088
253	0xbc8ee215	-0.017441789
254	0xbd98f9d3	-0.07469525
255	0x3ccddb0f	0.02512887

conv2.0.bias f4 [16]
0	0xbdb22293	-0.08698001
1	0x3daa32f1	0.083104976
2	0x3d88241e	0.06647514
3	0xbc45188b	-0.012029777
4	0xbd0fef80	-0.035140514
5	0x3be40962	0.0069591263
6	0xbd135ea4	-0.03597893
7	0xbd6f0052	-0.058349915
8	0xbca7bd9f	-0.02047616
9	0x3d2c44f3	0.042057943
10	0xbd7209b2	-0.059091277
11	0xbd079afa	-0.03310678
12	0xbd328e01	-0.043592457
13	0xbdad5860	-0.08464122
14	0x3d8ce3ed	0.06879411
15	0xbd9398b6	-0.07206862

conv2.1.weight f4 [16]
0	0x3f78ce55	0.9718984
1	0x3f8908d3	1.0705818
2	0x3f7b145b	0.98077935
3	0x3f7b9993	0.9828121
4	0x3f7d93f2	0.9905387
5	0x3f7b85e6	0.9825119
6	0x3f802375	1.0010821
7	0x3f8279bf	1.0193404
8	0x3f75d042	0.960209
9	0x3f803c0f	1.0018328
10	0x3f811234	1.008368
11	0x3f813925	1.0095564
12	0x3f89f95a	1.0779221
13	0x3f7e5f8d	0.9936455
14	0x3f804502	1.002106
15	0x3f7f4c20	0.9972553

conv2.1.bias f4 [16]
0	0xbbbe606b	-0.0058098338
1	0xbbe7c5d3	-0.007073143
2	0x3c0ba08f	0.008522167
3	0xbda93906	-0.082628295
4	0xbc462cb5	-0.01209562
5	0xbd2b4244	-0.041811243
6	0xbd0f78a7	-0.035027172
7	0xbd34e6f7	-0.044165578
8	0xbce0257e	-0.027361628
9	0x3cae08e0	0.021244466
10	0x3c3d0d22	0.011538776
11	0xbc2f7c05	-0.010710721
12	0xbd3155e2	-0.043294795
13	0x3cb120f3	0.021622157
14	0x3caa95a4	0.020823307
15	0xbb9712c8	-0.004610393

conv2.1.running_mean f4 [16]
0	0x3d83673f	0.06416177
1	0xbf50c9bc	-0.8155782
2	0xbe2fafe3	-0.17156939
3	0x3f870ac4	1.055016
4	0xbe5bc0d7	-0.21460281
5	0xbe6d50c8	-0.23175347
6	0xbaca9707	-0.0015456387
7	0x3d0d776d	0.03453772
8	0xbe1454ff	-0.14485548
9	0xbf31127a	-0.6916882
10	0xbcd74fac	-0.026283108
11	0x3f01c23f	0.5068702
12	0xbd52eaba	-0.051493384
13	0xbef40f3b	-0.4766787
14	0x3d66ad4e	0.05631762
15	0x3e17b316	0.1481441

conv2.1.running_var f4 [16]
0	0x3e8f7523	0.28019056
1	0x3eb52732	0.35381466
2	0x3eff28d6	0.49835843
3	0x3eadf197	0.3397338
4	0x3e5c5cf3	0.21519832
5	0x3dfeee3b	0.124477826
6	0x3d9b9399	0.075965114
7	0x3e326581	0.17421533
8	0x3ef73321	0.48281196
9	0x3ed8f0c6	0.42371196
10	0x3e20b944	0.15695673
11	0x3e5e0f0f	0.21685432
12	0x3ecb5af0	0.39717817
13	0x3e7c4cb0	0.24638629
14	0x3e61b6ad	0.22042342
15	0x3e871870	0.26385832

conv3.0.weight f4 [32, 16, 4, 4]
0	0x3cb259b7	0.021771295
1	0xbba2fc47	-0.0049739215
2	0xbd604baf	-0.054759677
3	0xbd85c21e	-0.065311655
4	0xbd5151f0	-0.051103532
5	0xbacb03ba	-0.0015488782
6	0x3ac6adec	0.0015158034
7	0xbc897564	-0.016779609
8	0xbd29276b	-0.041297358
9	0xbc8270cf	-0.015922932
10	0xbb3d56bb	-0.0028890807
11	0xbd3e23fa	-0.04642103
12	0xbd19e6e6	-0.037573718
13	0x3cebcbb7	0.028783662
14	0x3cd9d1d7	0.026589317
15	0x3c4086e3	0.0117509095
16	0xbdaa4677	-0.08314221
17	0xbd11ea31	-0.035623733
18	0xbc435a62	-0.011923404
19	0xbb6f9ab9	-0.0036560728
20	0xbcbe9a5c	-0.023266964
21	0xbcf72d73	-0.030173039
22	0x3d0d3b98	0.03448066
23	0xbd2066a4	-0.039160386
24	0xbd2f698b	-0.042825263
25	0xbd8aa1ea	-0.06769164
26	0xbc9a8d08	-0.018866077
27	0x39e7008b	0.00044060158
28	0xbd091a76	-0.0334725
29	0x3bf1e325	0.007381814
30	0xbd229cba	-0.039700247
31	0xbd7dc82b	-0.061958473
32	0x3d565707	0.05232909
33	0xbb83d8cf	-0.0040236483
34	0xbafdf2a4	-0.0019374681
35	0x3ceed2f9	0.029153334
36	0x3c9a013e	0.01879942
37	0xbc508a93	-0.012728351
38	0x3c0a296b	0.008432726
39	0x3d6df13c	0.058091387
40	0x3c377c4f	0.011199071
41	0x3d3bf469	0.045887385
42	0x3c5ec64d	0.013597083
43	0xbbce8ba1	-0.006303266
44	0x3c2f26be	0.010690389
45	0x3ca4e694	0.02012948
46	0x3cad5958	0.021160766
47	0x3c461179	0.012089127
48	0xbad70474	-0.0016404525
49	0xbc1bc698	-0.009507798
50	0xbcf8a200	-0.030350685
51	0xbd8b0711	-0.06788457
52	0xbc354284	-0.011063222
53	0x3d650a8f	0.055918273
54	0xbcdc5260	-0.026894748
55	0xbd1bdc11	-0.03805167
56	0x3cc3bf85	0.023895035
57	0xbcde9918	-0.02717261
58	0xbd1e301d	-0.038620103
59	0xbd5c5985	-0.05379631
60	0x3d2f3a2d	0.04278009
61	0xbce9d20b	-0.02854254
62	0x3d42afbc	0.047530875
63	0xbd79e844	-0.06101252
64	0x3d3f3344	0.04667975
65	0x3c690b39	0.014223867
66	0x3d037b42	0.03209997
67	0x3cce1d07	0.025160326
68	0x3b246b8c	0.0025088517
69	0x3c044600	0.00807333
70	0x3d12ffff	0.03588867
71	0xbc85adbb	-0.016318193
72	0xbc138724	-0.009004388
73	0xbcc1cbe5	-0.023656795
74	0xbc7c4a87	-0.015398628
75	0x3cc9c628	0.024630621
76	0xbd47504c	-0.04866056
77	0x3d711643	0.05885912
78	0xbc1293eb	-0.008946399
79	0xbc407e8b	-0.01174892
80	0xbba78cd9	-0.005113226
81	0x3d043a01	0.03228188
82	0x3c05f67d	0.008176443
83	0xbcda7d98	-0.026671216
84	0xbcf93807	-0.030422224
85	0x3ce7d4b8	0.028299674
86	0x3b984a0b	0.0046474985
87	0xb9b0928e	-0.00033678528
88	0x3d687fd4	0.05676253
89	0xbce6d073	-0.028175568
90	0x3c2e67c7	0.01064486
91	0x3cb934ee	0.022608247
92	0xbc5f3423	-0.01362327
93	0xbd589eb5	-0.05288573
94	0xbc3fb7f9	-0.011701577
95	0xbd0e232c	-0.03470151
96	0x3d9b88fc	0.07594487
97	0x3d06a6be	0.03287386
98	0x3c171d8d	0.009223354
99	0x3bd9718e	0.006635851
100	0x3d152cc3	0.03641964
101	0xbb39a499	-0.0028326868
102	0xbcfec4a8	-0.031099632
103	0xbc970487	-0.018434776
104	0x3cbe2e5a	0.023215462
105	0xbd87d971	-0.066332705
106	0xbd8354c4	-0.06412652
107	0xbca006f6	-0.01953457
108	0x3d4758b9	0.048668597
109	0xbcd5dd9a	-0.026106644
110	0xbd26834d	-0.040652562
111	0x3c9d32ea	0.019189317
112	0x3c08121e	0.008305101
113	0x3d3deecb	0.04637031
114	0xbd5d3abd	-0.054011095
115	0xbd805f5e	-0.0626819
116	0x3d899064	0.067169935
117	0xbb22f551	-0.0024865458
118	0xbd480323	-0.048831116
119	0xbd1a5b7b	-0.0376849
120	0xbd8d6500	-0.0690403
121	0x3c20255d	0.009774533
122	0xbd9cf84e	-0.07664548
123	0xbdf4efff	-0.11959838
124	0xbc3c28e8	-0.011484362
125	0x3d8d7976	0.069079325
126	0xbb953792	-0.0045537436
127	0xbd417426	-0.04722991
128	0xbc1e36c6	-0.009656614
129	0xbd544727	-0.05182567
130	0xbcd56b28	-0.026052073
131	0xbd38c589	-0.04511026
132	0xbc105aeb	-0.008810739
133	0x3d309e13	0.0431195
134	0xbc7c4ebb	-0.01539963
135	0xbce65d4e	-0.028120663
136	0xbd38745f	-0.045032855
137	0xbc88cc64	-0.016699024
138	0x394f5494	0.00019772566
139	0xbd4e1fa8	-0.05032316
140	0xbd12cbe5	-0.03583898
141	0x3ce43f3c	0.027862184
142	0x3c1e39f5	0.009657373
143	0xbd9a8d09	-0.075464316
144	0xbc6b8cd3	-0.014376837
145	0x3d0430a7	0.03227296
146	0x3d25ff13	0.04052646
147	0xbd3fea69	-0.04685441
148	0xbbaa7462	-0.005201862
149	0xbd561cc1	-0.052273516
150	0xba86d3cf	-0.0010286513
151	0xbd1d57df	-0.03841388
152	0xbd577b05	-0.052607555
153	0xbd3de235	-0.046358306
154	0xbc4586b3	-0.012056041
155	0x3d8bd5db	0.06827899
156	0x3c9346aa	0.017978031
157	0x3ce8ae99	0.028403567
158	0xbd3c6037	-0.045990195
159	0xbd8e09a5	-0.06935433
160	0x3d30b860	0.043144584
161	0x3da1dbc5	0.07903246
162	0x3bfe9ca4	0.007770138
163	0x3d145497	0.036213484
164	0xbcbe63b2	-0.023240898
165	0x3b900489	0.004395072
166	0xbc027f07	-0.007964856
167	0x3c1b00af	0.009460612
168	0x3d8c11df	0.06839346
169	0x3d3fae0c	0.046796843
170	0x3d32ceba	0.04365418
171	0xbce3549d	-0.027750308
172	0x3d2dc09f	0.042420026
173	0xbd1e83dd	-0.038699973
174	0x3c82f4f7	0.015985949
175	0x3cdcdbdc	0.026960306
176	0x3c8c6037	0.017135723
177	0x3d2b0e1f	0.041761514
178	0xba7d4c0a	-0.0009662515
179	0xbd94b28b	-0.07260617
180	0xbc10b8b6	-0.008833101
181	0x3c82c5a2	0.01596338
182	0xbdaea029	-0.08526642
183	0xbd6421ef	-0.055696424
184	0x3d8d4fa9	0.068999596
185	0x3cf5797c	0.029965155
186	0x3d397d37	0.04528543
187	0x3bd41745	0.0064725005
188	0x3d61e6ee	0.055151872
189	0xbd323361	-0.04350603
190	0xbd6a34fa	-0.05717943
191	0x3bb54f80	0.005533159
192	0xbd1344b0	-0.035954177
193	0x3c0572fe	0.008145092
194	0x3d2dfd41	0.04247785
195	0xbd93e31a	-0.072210506
196	0x3cdb0093	0.026733672
197	0xbc5ebd09	-0.013594874
198	0xbd3f11fa	-0.046648003
199	0xbdae22b4	-0.08502713
200	0xbc8579a4	-0.016293354
201	0xbdb90216	-0.09033601
202	0xbd237e15	-0.039915163
203	0xbdfe13d9	-0.124061294
204	0xbd66197f	-0.05617666
205	0x3d297d12	0.041379042
206	0xbd838a72	-0.06422891
207	0xbd5c7484	-0.053822055
208	0x3d555e2c	0.052091762
209	0x3c5c04e1	0.013428898
210	0x3d0da140	0.034577608
211	0xbcc95aa7	-0.02457936
212	0x3ca09367	0.019601537
213	0x3ba2eb99	0.004971933
214	0xbb4ff029	-0.003172884
215	0xbcd2a8a6	-0.025715183
216	0x3d0b65aa	0.0340325
217	0x3d0b7728	0.034049183
218	0x3d13f6bc	0.036123976
219	0xbc16fc14	-0.009215374
220	0xbc893f8b	-0.016753932
221	0xbd9e1be7	-0.07720166
222	0x3d005a50	0.03133613
223	0xbc2d6056	-0.01058205
224	0x3d8e4053	0.069458626
225	0x3d570ef1	0.052504484
226	0xbd21aa03	-0.039468776
227	0xbd0d0a8b	-0.034433883
228	0x3c8d8073	0.017273163
229	0xbd4cf83e	-0.05004143
230	0xbd1f1b49	-0.03884438
231	0x3cbac919	0.022800969
232	0x3b7d345e	0.003863595
233	0x3d1f376a	0.038871206
234	0x3d58e8d7	0.05295643
235	0xbd3b60e3	-0.045746695
236	0xbd1e3d88	-0.0386329
237	0x3d2afdd0	0.04174596
238	0xbd9995fa	-0.07499309
239	0xbc4b0c53	-0.012393075
240	0xbc042b01	-0.008066894
241	0x3b9d9dfa	0.004810092
242	0x3c949b52	0.018140469
243	0x3acd2a4f	0.0015652868
244	0x3d835c9e	0.0641415
245	0xbce7c0a0	-0.028290093
246	0x3d25f7ac	0.0405194
247	0x3d3726a3	0.04471458
248	0x3d278e79	0.040907357
249	0x3d3c4baa	0.045970596
250	0xbd9da669	-0.07697756
251	0xbdae98fe	-0.08525275
252	0xbd025fb6	-0.03182956
253	0xbbb315f6	-0.0054652644
254	0xbd665b83	-0.056239616
255	0xbd3d4b72	-0.04621453

conv3.0.bias f4 [32]
0	0x3c6c5b10	0.014426008
1	0x3d6d22f9	0.05789468
2	0x3c675b67	0.014120913
3	0xbd71f1ad	-0.05906837
4	0x3b8695a8	0.004107196
5	0xbd61c6ec	-0.055121347
6	0xbcc1c1fb	-0.023652067
7	0x3d7a02b8	0.06103775
8	0x3d0d4170	0.034486234
9	0x3caa9baf	0.020826189
10	0xbc741d5c	-0.014899578
11	0x3cfe6cff	0.031057833
12	0x3cffbcc9	0.03121795
13	0xbbeddc31	-0.007258915
14	0xbd7c1ea3	-0.061552655
15	0x3c2baccc	0.01047821
16	0xbd01fd24	-0.031735554
17	0x3c96ac98	0.018392846
18	0x3d412283	0.047152054
19	0x3cd20093	0.02563504
20	0x3d3d26e8	0.046179682
21	0x3d502265	0.05081405
22	0x3c378390	0.011200801
23	0x3d3fdbe9	0.046840582
24	0x3c3f9ed2	0.011695581
25	0xbd267826	-0.040641926
26	0xbc3ed02d	-0.011646313
27	0xbc53fefd	-0.012939212
28	0xbd7f1ef4	-0.06228538
29	0xbd4fab1f	-0.050700303
30	0xbd5c466d	-0.0537781
31	0x3d74cd52	0.05976612

conv3.1.weight f4 [32]
0	0x3f7cc639	0.98739964
1	0x3f7daf0b	0.9909522
2	0x3f8075af	1.0035914
3	0x3f8532ed	1.0406166
4	0x3f7a356b	0.9773776
5	0x3f7dc4ea	0.9912859
6	0x3f7c9056	0.9865774
7	0x3f7bfdde	0.98434246
8	0x3f797c0f	0.97454923
9	0x3f80ee12	1.0072653
10	0x3f7cf6c1	0.98814017
11	0x3f7d2d60	0.9889736
12	0x3f84dad7	1.0379285
13	0x3f793d77	0.9735941
14	0x3f812d3f	1.0091933
15	0x3f8237cb	1.0173277
16	0x3f811646	1.0084922
17	0x3f8188d5	1.0119883
18	0x3f7f98d8	0.99842596
19	0x3f7fe5db	0.99960107
20	0x3f7b9744	0.9827769
21	0x3f865b62	1.0496638
22	0x3f80036a	1.0001042
23	0x3f807336	1.003516
24	0x3f79caff	0.9757537
25	0x3f7987cb	0.9747283
26	0x3f85a90b	1.0442213
27	0x3f8187aa	1.0119526
28	0x3f7d4c72	0.9894477
29	0x3f84eb3d	1.0384289
30	0x3f884f0a	1.0649121
31	0x3f81055d	1.0079762

conv3.1.bias f4 [32]
0	0xbd934467	-0.07190781
1	0xbc19fa4d	-0.009398055
2	0xbcad1e7d	-0.021132702
3	0xbe30ded8	-0.17272508
4	0xbce54fa5	-0.027992079
5	0xbc2ad7dd	-0.010427442
6	0x3cb1022d	0.021607483
7	0xba077ed2	-0.0005168739
8	0x3cd61e0d	0.026137376
9	0xbca85c4b	-0.020551821
10	0xbb82d312	-0.0039924467
11	0x3d5b6e97	0.053572264
12	0x3da37559	0.07981367
13	0xbceb5d04	-0.028730877
14	0xbca2b19e	-0.019860085
15	0xbd39442b	-0.045231026
16	0x3c52d1b9	0.012867385
17	0xbc66051e	-0.014039306
18	0xbbaa73de	-0.0052018007
19	0xbd6c0fac	-0.057632133
20	0xbc82dac2	-0.015973452
21	0xbd077ab5	-0.033076007
22	0x3bf12555	0.0073591867
23	0xbc641f60	-0.013923496
24	0xbbf88881	-0.007584632
25	0xbc7aa5de	-0.015298335
26	0xbc6d45b4	-0.014481951
27	0x3c1403b8	0.00903409
28	0xbd3f3d3d	-0.04668926
29	0xbd2334fe	-0.03984546
30	0xbd8126d6	-0.063062355
31	0x3ada5d63	0.0016659911

conv3.1.running_mean f4 [32]
0	0xbf0e9c88	-0.557076
1	0xbf1c90a1	-0.61158186
2	0xbe2c6b3d	-0.16837783
3	0xbd9e4175	-0.07727329
4	0xbec49921	-0.38398078
5	0x3e8d3c34	0.27584994
6	0xbdd49ebb	-0.10381838
7	0x3d3ce204	0.046113983
8	0xbd82c5d5	-0.0638539
9	0xbe90a019	-0.28247145
10	0xbe815193	-0.2525755
11	0xbf1a6729	-0.6031366
12	0xbef55755	-0.47918192
13	0xbf609890	-0.8773279
14	0xbec8b276	-0.39198655
15	0xbea3e99a	-0.3201416
16	0xbed66b49	-0.41878727
17	0xbe21b687	-0.15792285
18	0x3d6d9766	0.058005713
19	0x3e020130	0.12695765
20	0xbf13a3ad	-0.57671624
21	0x3bb8e5ef	0.0056426446
22	0xbe88cc74	-0.26718485
23	0xbe7bdd7c	-0.24596208
24	0x3e2a5996	0.16635737
25	0xbec2d606	-0.38053912
26	0xbe9b2525	-0.30301777
27	0xbf037475	-0.51349574
28	0xbdd98d9c	-0.10622713
29	0x3e2621ea	0.16223875
30	0xbf058843	-0.52161044
31	0xbed09c72	-0.40744358

conv3.1.running_var f4 [32]
0	0x3e4e6f1b	0.20159571
1	0x3e8f750a	0.2801898
2	0x3e0499a9	0.12949242
3	0x3e47b45d	0.19502397
4	0x3e6b9f1e	0.23009917
5	0x3e547c3e	0.2075052
6	0x3ed14752	0.40874726
7	0x3e7bfd6b	0.2460839
8	0x3dddf572	0.108378306
9	0x3e9e99a3	0.3097659
10	0x3e4ebc9f	0.2018914
11	0x3e9615b1	0.29313424
12	0x3ec25eb1	0.3796287
13	0x3e2528b5	0.1612881
14	0x3e3fe05b	0.18737929
15	0x3e126ab0	0.1429851
16	0x3e38ad4c	0.18034858
17	0x3e40c9a6	0.18826923
18	0x3e2928ea	0.16519514
19	0x3df3aa61	0.118977316
20	0x3e40acaa	0.18815866
21	0x3e049065	0.12945707
22	0x3e8257ef	0.25457713
23	0x3e7014ed	0.23445483
24	0x3e37e2d0	0.17957616
25	0x3e366d40	0.17815113
26	0x3dfef9bd	0.124499775
27	0x3ec8049c	0.39066017
28	0x3e625714	0.2210353
29	0x3e225b84	0.15855223
30	0x3e0f5683	0.13997845
31	0x3e69da98	0.22837293

deconv2.0.weight f4 [32, 16, 4, 4]
0	0xbda4f2f7	-0.08054154
1	0x3c65cef1	0.014026389
2	0xbc9084f0	-0.017641515
3	0x3c467a2f	0.012114092
4	0xbd31c2b3	-0.04339857
5	0x3c701141	0.014652551
6	0xbcc9558e	-0.024576928
7	0x38620282	5.3884934e-05
8	0xbd4ea358	-0.050448745
9	0x3b6d880c	0.003624442
10	0xbd1bb2ac	-0.03801219
11	0xbd82d7b2	-0.06388797
12	0xbd1c8989	-0.0382171
13	0x3d21dd5c	0.039517745
14	0xbd67cc24	-0.056591168
15	0x3d00ae86	0.03141644
16	0x3c6a3cd5	0.01429673
17	0xbc6e07d4	-0.014528234
18	0x3cb1b1b8	0.021691188
19	0xbdb54348	-0.088507235
20	0xbcd81f3c	-0.026382081
21	0x3cd2edf8	0.025748238
22	0x3de4b51a	0.11167355
23	0x3c510515	0.012757559
24	0x3ccf5726	0.02531011
25	0xbccbf1d2	-0.024895582
26	0x3d20fa3f	0.039301153
27	0x3c4bca75	0.012438406
28	0xbd7ffd8c	-0.06249766
29	0x3d6c05a0	0.057622552
30	0x3d2d39e8	0.04229155
31	0x3be915c9	0.0071131927
32	0x3d51fd73	0.0512671
33	0x3acfd92b	0.0015857568
34	0x3d42c7ac	0.047553703
35	0x3b17bfb9	0.0023155047
36	0x3ce31d1a	0.027723838
37	0x3d3acc19	0.0456048
38	0x3a6c3210	0.00090101454
39	0x3cb82ac2	0.022481326
40	0x3d271cd8	0.040798992
41	0x3cef9443	0.029245501
42	0xba8d584c	-0.0010783761
43	0x3ca21724	0.019786425
44	0x3c4d12b3	0.012516665
45	0xbd62e8d2	-0.055397816
46	0x3b86ad1d	0.004109992
47	0x3b941309	0.0045188707
48	0xbccfb779	-0.025356041
49	0x3d0d2543	0.034459364
50	0xbd037da7	-0.032102253
51	0x3d1920cc	0.037384793
52	0xbd928152	-0.07153572
53	0xbdc4f627	-0.09617262
54	0x3ddbee80	0.1073885
55	0xbd083e51	-0.033262555
56	0xbdaabd02	-0.08336832
57	0x3c943f31	0.018096538
58	0xbd92f9a7	-0.07176524
59	0xbafc1066	-0.0019230961
60	0xbc6b4825	-0.014360462
61	0xbdf74a2a	-0.120746925
62	0x3d98662c	0.07441363
63	0xbdf640bd	-0.120240666
64	0x3c4b12c3	0.01239461
65	0x3d5b9c5f	0.053615924
66	0xbc098b61	-0.008395047
67	0x3ad8c812	0.0016539118
68	0xbd09f898	-0.033684343
69	0xbd948536	-0.072519705
70	0xbd0842c1	-0.033266786
71	0xbc9677b5	-0.018367628
72	0x3b6c9507	0.003609957
73	0x3d0fe4ea	0.03513042
74	0xbc415106	-0.011799103
75	0x3ccc5227	0.024941517
76	0x3d74a7de	0.059730403
77	0x3d293cf4	0.041317895
78	0x3c180a06	0.0092797335
79	0x3cbc905b	0.023018053
80	0xbcd21ad1	-0.025647553
81	0x3ca4dd56	0.020125072
82	0xbd26395e	-0.040582053
83	0xbd884f0e	-0.066557035
84	0x3d658f30	0.056044757
85	0x3d0a9684	0.03383495
86	0x3d37462a	0.044744648
87	0xbaa7946d	-0.0012785323
88	0x3bb1356a	0.005407979
89	0xbc1812e2	-0.009281846
90	0xbd851405	-0.06497959
91	0xbdad9f55	-0.08477656
92	0xbc9f7876	-0.01946662
93	0x3c6a1f1f	0.014289646
94	0x3ccfd72d	0.025371158
95	0x3bf755b5	0.007548059
96	0xbc4b08f7	-0.012392274
97	0xbd2be6ee	-0.04196828
98	0xbd9e0673	-0.07716074
99	0x3c6a510a	0.014301548
100	0x3d5a6110	0.053315222
101	0xbd999115	-0.07498375
102	0x3c145be4	0.009055112
103	0xbca0e019	-0.019638108
104	0xbcc36f11	-0.023856672
105	0xbcc0ae3f	-0.023520587
106	0xbb1b44f0	-0.0023692213
107	0x3c0e691f	0.008692055
108	0x3cc19355	0.023629824
109	0x3d340521	0.043950204
110	0x3d154ecc	0.0364521
111	0xbc655c75	-0.013999094
112	0xbda1674e	-0.07881032
113	0x3cb39f11	0.021926435
114	0x3acf1bf7	0.0015801181
115	0x3c4a59de	0.012350528
116	0xbc929b81	-0.017896416
117	0x3c87a3a4	0.016557522
118	0x3c222163	0.009895655
119	0x3c045996	0.008078
120	0xbd8e0a92	-0.0693561
121	0x3bcf706e	0.0063305413
122	0x3d4afe13	0.04955871
123	0x3c8a193c	0.016857736
124	0xbccd0e29	-0.025031166
125	0x3d04872b	0.03235547
126	0xbcea9ee7	-0.028640224
127	0x3c128617	0.008943102
128	0x3c062b4e	0.008189036
129	0xbc030734	-0.007997323
130	0xbc46771b	-0.012113358
131	0xbc0fbb24	-0.008772645
132	0xbd4c30b0	-0.04985112
133	0xbd348276	-0.04406973
134	0x3b7e6646	0.0038818284
135	0xbd190a43	-0.037363302
136	0x3d06d2e5	0.03291597
137	0xbd0dbaca	-0.034601964
138	0x3cea760a	0.028620739
139	0xbd51d56b	-0.05122892
140	0xbca588be	-0.020206805
141	0x3d44ba42	0.04802919
142	0x3c9ff782	0.0195272
143	0xbd4a66e8	-0.049414545
144	0xbbb5c78c	-0.0055474695
145	0xbc98989a	-0.018627454
146	0x3c779054	0.015110094
147	0xbd3628f0	-0.044472635
148	0x3d43a491	0.047764365
149	0xbc90eb89	-0.017690437
150	0xbdfe4a71	-0.12416542
151	0x3c378398	0.011200808
152	0x3d702254	0.058626488
153	0xbcb3442b	-0.021883091
154	0x3d360a6d	0.044443537
155	0xbdc855e5	-0.09782008
156	0x3d821558	0.06351727
157	0xbc4588d0	-0.012056544
158	0xbe02d6e1	-0.12777282
159	0xbc3edcca	-0.01164932
160	0xbd445335	-0.047930915
161	0xbdaf8574	-0.08570376
162	0xbd558038	-0.052124232
163	0xbdaa6860	-0.08320689
164	0x3ce3cba6	0.027807068
165	0xbc9908ba	-0.018680919
166	0xbd19f53d	-0.037587393
167	0xbcc43088	-0.023948923
168	0xbd0fd298	-0.035112947
169	0xbdc7d192	-0.09756769
170	0xbbe2e038	-0.0069237016
171	0xbd1e9ad0	-0.03872186
172	0x3d16075e	0.03662812
173	0xbbe0d613	-0.006861457
174	0x3c730c45	0.014834468
175	0x3bad0179	0.0052797166
176	0xbd761730	-0.060080707
177	0xbcf244ff	-0.029573916
178	0xbd78e371	-0.06076378
179	0xbd8d6a34	-0.06905022
180	0xbb32e581	-0.002729744
181	0xbd591b1c	-0.05300437
182	0x3c869ea2	0.016433064
183	0xbdcce9fa	-0.10005565
184	0xbd9cea9f	-0.07661938
185	0xbd78b9b5	-0.06072398
186	0xbd669745	-0.056296606
187	0xbce2adb9	-0.027670728
188	0xbd2176e3	-0.03942002
189	0xbd21ca00	-0.039499283
190	0x3c448763	0.011995169
191	0xbccd8c3c	-0.025091283
192	0xbc2e091f	-0.010622292
193	0x3ca184f3	0.019716715
194	0xbd7025fc	-0.058629975
195	0x3d062dd4	0.03275855
196	0xbd732a1a	-0.059366323
197	0xbba7b55b	-0.005118055
198	0xbc089ae0	-0.008337706
199	0xbd1ff2e1	-0.039049987
200	0xbbc0d190	-0.005884357
201	0x3d7b82c8	0.06140402
202	0xbd758d18	-0.05994901
203	0x3d1e8175	0.03869768
204	0xbbc4abb4	-0.006001914
205	0xbc85b069	-0.01631947
206	0x3c141248	0.009037562
207	0xbb67bdcb	-0.0035360928
208	0x3add61af	0.0016890074
209	0xbc454d79	-0.012042397
210	0xbd7fa7b3	-0.06241579
211	0xbc0cca87	-0.008593208
212	0x3d93ae11	0.07210935
213	0x3d3ff8cc	0.04686813
214	0xbca55cbc	-0.02018582
215	0x3cc96dc1	0.024588468
216	0x3c858876	0.016300421
217	0xbc788a2a	-0.01516966
218	0xbd77e57e	-0.060521595
219	0x3bfdbe14	0.0077436063
220	0x3d9cbafb	0.07652851
221	0x3be82256	0.0070841713
222	0x3d1b8ea5	0.037977833
223	0x3d06fd08	0.032956153
224	0xbd8bc193	-0.06824031
225	0xbb5c3eab	-0.003360669
226	0xbc893298	-0.016747758
227	0xbd24ac48	-0.040203363
228	0x3c149471	0.009068594
229	0xbca3f244	-0.020012982
230	0x3c8df36e	0.01732799
231	0xbb53fee6	-0.0032347976
232	0xbd34512a	-0.044022717
233	0xbd5ccc3c	-0.05390571
234	0xbd62c8b7	-0.055367198
235	0xbdac70d0	-0.08419955
236	0x3b2262a8	0.0024778042
237	0xbd2d612b	-0.042328995
238	0xbbcb28a2	-0.006199912
239	0xbcf511a7	-0.029915644
240	0xbd04b8f4	-0.032402948
241	0xbd7db4c1	-0.06193996
242	0x3bb5d7d3	0.00554941
243	0x3ca8c856	0.02060334
244	0xbc98a5b5	-0.018633703
245	0xbcb84a65	-0.022496412
246	0xbdd16d61	-0.102259405
247	0x3ced68cc	0.028980635
248	0xbd0ff5a5	-0.035146374
249	0xbd42a5a0	-0.047521234
250	0x3c78b1c8	0.015179105
251	0xbd90e247	-0.07074409
252	0x3db96069	0.09051592
253	0xbcc45d95	-0.023970405
254	0xbd82f7c9	-0.063949175
255	0x3c027477	0.007962338

deconv2.0.bias f4 [16]
0	0x3cf1d7aa	0.029521782
1	0xbd76b65f	-0.060232516
2	0x3cf695eb	0.030100783
3	0x3cda1741	0.026622416
4	0x3d1e58dc	0.03865896
5	0xbd666c86	-0.05625584
6	0x3d46aca1	0.048504476
7	0xbc861751	-0.01636854
8	0xbd77f1a9	-0.0605332
9	0x3d53bdfd	0.05169486
10	0x3ce04a1d	0.02737909
11	0xbd62a19b	-0.0553299
12	0x3cd1bbfd	0.025602335
13	0xbc6b3bc5	-0.014357512
14	0x3c74f003	0.014949801
15	0x3c851086	0.01624323

deconv2.1.weight f4 [16]
0	0x3f72d351	0.94853693
1	0x3f813de6	1.0097015
2	0x3f80455e	1.0021169
3	0x3f78db03	0.97209185
4	0x3f7ca6ef	0.9869222
5	0x3f723b51	0.9462176
6	0x3f7237df	0.946165
7	0x3f713944	0.94228005
8	0x3f770152	0.9648639
9	0x3f834ef7	1.0258473
10	0x3f762521	0.96150404
11	0x3f8ea574	1.1144242
12	0x3f7c3676	0.985206
13	0x3f741ae7	0.9535355
14	0x3f85e394	1.0460076
15	0x3f7f9da2	0.99849904

deconv2.1.bias f4 [16]
0	0x3c118cf8	0.008883707
1	0x3db3e207	0.08783346
2	0x3d5b53b6	0.05354663
3	0x3c4c8f5c	0.012485351
4	0x3c89aa0b	0.016804716
5	0x3c720e6a	0.014773944
6	0x3ce1872a	0.027530272
7	0xbd33ad1a	-0.043866254
8	0xbc577f24	-0.013152871
9	0x3e0b5eed	0.1361043
10	0x3d008511	0.031376902
11	0xbd598523	-0.053105485
12	0xbd152862	-0.036415465
13	0x3ccbb198	0.024864957
14	0x3d2a4c7b	0.041576844
15	0x3c85be1e	0.016326007

deconv2.1.running_mean f4 [16]
0	0xbf3c0259	-0.7344108
1	0xbf13779f	-0.576044
2	0xbe95ae1f	-0.29234406
3	0xbf1baced	-0.6081074
4	0xbe7d3aa2	-0.24729398
5	0xbf57e3de	-0.8433207
6	0xbf089a78	-0.533607
7	0xbecd10e8	-0.4005196
8	0xbf37f2cf	-0.7185487
9	0xbf585f31	-0.8452025
10	0xbf70d73f	-0.9407844
11	0xbf446ca4	-0.7672827
12	0xbca81f10	-0.020522624
13	0xbe689da1	-0.2271638
14	0xbf4c6919	-0.79847866
15	0xbf6a58cd	-0.9154175

deconv2.1.running_var f4 [16]
0	0x3f512b28	0.81706476
1	0x3f5dd7ec	0.86657596
2	0x3f68bb87	0.90911144
3	0x3f337669	0.70102555
4	0x3f027865	0.5096496
5	0x3fbbe1c3	1.4678272
6	0x3faa6a0d	1.3313614
7	0x3f3bad10	0.7331095
8	0x3f0da319	0.5532699
9	0x400dfb96	2.2184806
10	0x3fee8e34	1.8637147
11	0x3df339c6	0.11876254
12	0x3ea0d581	0.3141289
13	0x3f9262a7	1.1436356
14	0x3f07381d	0.5282
15	0x3f4d77fd	0.8026121

deconv3.0.weight f4 [16, 8, 4, 4]
0	0xbd65140c	-0.05592732
1	0x3c89a2d7	0.01680128
2	0xbc2f364a	-0.010694096
3	0xbdbbfdac	-0.091792434
4	0xbdab7bf2	-0.0837325
5	0xbd57e45f	-0.052708026
6	0x3cb2f8ba	0.021847118
7	0xbc90103e	-0.01758587
8	0xbd663d61	-0.05621088
9	0x3cab546c	0.020914279
10	0x3caf0850	0.021366268
11	0x3d96d245	0.073643245
12	0xbd845305	-0.06461147
13	0xbd098ab5	-0.033579547
14	0x3d0f7007	0.035018947
15	0xbbc87633	-0.006117606
16	0xbbf44237	-0.0074541825
17	0xbcf93fdd	-0.03042596
18	0x3cba3e41	0.022734763
19	0x3da4c379	0.08045096
20	0x3d1105fe	0.035406105
21	0x3cd5fd0f	0.026121644
22	0x3d66ada7	0.05631795
23	0x3cb52227	0.022111012
24	0xbbeda6dd	-0.0072525577
25	0x3dc06a9b	0.093953334
26	0x3d4a607d	0.049408425
27	0x3d1b686f	0.037941393
28	0x3ab1bc06	0.0013560064
29	0x3d85f2c8	0.065404475
30	0x3d7c8559	0.061650608
31	0xbce21dfd	-0.02760219
32	0x3d581078	0.05275008
33	0x3d046b69	0.032328997
34	0xbd085e00	-0.03329277
35	0x3d81bc0d	0.06334696
36	0x3d48ccbe	0.049023382
37	0x3e02f0ae	0.12787125
38	0x3c83a90e	0.016071822
39	0x3cde9b61	0.0271737
40	0x3ca59a8c	0.020215295
41	0x3d91b8b4	0.071153075
42	0xbd58532d	-0.052813698
43	0x3d8951a9	0.067050286
44	0x3c64425d	0.013931838
45	0x3ce7989f	0.028271018
46	0xbbf6330f	-0.007513411
47	0xbc236ce7	-0.009974695
48	0x3cf3a5a1	0.029742064
49	0x3dc5f2ac	0.096654266
50	0xbd8aae75	-0.06771556
51	0xb92ff9d2	-0.00016782366
52	0x3bf19c4d	0.007373369
53	0xbd0acdcb	-0.033887666
54	0x3cf8cde8	0.030371621
55	0x3da891e2	0.0823095
56	0x3d14f1ba	0.03636334
57	0x3da80539	0.08204121
58	0xbcb44cf9	-0.02200936
59	0x3d998923	0.0749686
60	0x3cf79daa	0.030226547
61	0x3ceac3ec	0.028657876
62	0x3c9c696f	0.019093243
63	0x3ca5b1c1	0.020226361
64	0x3d036180	0.032075405
65	0x3d56fea1	0.052488927
66	0xbc20a0ae	-0.009803934
67	0xbd4ccce4	-0.050000086
68	0x3d0db4b9	0.03459618
69	0x3c4e230b	0.012581597
70	0x3c95e66a	0.018298347
71	0xbd85ff80	-0.065428734
72	0xbc993de0	-0.018706262
73	0x3d1dfc54	0.038570717
74	0xbd0aaf95	-0.033858854
75	0x3bb3f146	0.0054914085
76	0x3b716500	0.0036833882
77	0x3c9c8e0a	0.019110698
78	0xbc4066b0	-0.011743233
79	0x3d44137a	0.047870137
80	0x3c96a18b	0.018387577
81	0xbc9a6908	-0.01884891
82	0x3a4fecc1	0.00079317024
83	0xbb439f89	-0.002984973
84	0x3c001aa9	0.007818856
85	0xbc08c0c1	-0.008346737
86	0x3c7d103a	0.015445763
87	0x3d8bf294	0.068333775
88	0xb8fc85d7	-0.00012041226
89	0x3d2edce0	0.04269111
90	0xbd1ffc20	-0.039058805
91	0xbbca634b	-0.0061763874
92	0x3d52ea66	0.05149307
93	0x3bfa2523	0.0076338216
94	0x3ce45cb8	0.027876243
95	0x3c9a9c6c	0.018873416
96	0xbcf16e68	-0.029471591
97	0xbda04f74	-0.078276545
98	0xbcf030fb	-0.02932023
99	0xbd7b3f1f	-0.061339494
100	0x3d2fbf8f	0.042907294
101	0xbd25335e	-0.04033219
102	0xbb925fb5	-0.0044669756
103	0xbc8b8f77	-0.017036183
104	0x3bfc632c	0.007702252
105	0x3da6b7f5	0.08140556
106	0x3d07bb8d	0.033137847
107	0x3bc35518	0.0059610717
108	0x3b607dcc	0.0034254668
109	0xbd0aefe7	-0.033920195
110	0xbcaecd67	-0.021338178
111	0xbd40ed9e	-0.04710161
112	0x3d241a7c	0.04006432
113	0x3d9e988b	0.07743939
114	0x3d069d50	0.03286487
115	0x3cf81447	0.030283106
116	0x3cb77796	0.02239589
117	0x3dc7ecfe	0.097619995
118	0xbd6d87a7	-0.057990696
119	0xbcec8a96	-0.028874677
120	0x3d4008c7	0.04688337
121	0xbd98461b	-0.074352466
122	0xbccd3a59	-0.025052236
123	0xbc0d17d6	-0.00861164
124	0x3d3e894e	0.046517663
125	0x3d613385	0.054980773
126	0xbcfca28d	-0.030839229
127	0x3d1ac339	0.037783835
128	0xbc40b490	-0.011761799
129	0x3ba42e62	0.005010412
130	0x3d8035a8	0.06260234
131	0xbdb6900b	-0.08914193
132	0xbd15564c	-0.036459252
133	0xbd0d539b	-0.03450356
134	0x3e09aa14	0.13443786
135	0x3d4835a4	0.04887928
136	0x3c993369	0.018701272
137	0x3c277652	0.010221081
138	0x3cf4dbc0	0.029889941
139	0xbc385d4e	-0.011252714
140	0xbb5a9965	-0.003335559
141	0xbd11b93b	-0.03557704
142	0x3d4a6309	0.049410854
143	0x3b9ef86d	0.004851392
144	0x3d457bd3	0.04821379
145	0xbdbe663a	-0.09296842
146	0x3b41e11f	0.0029583646
147	0xbd065d91	-0.032804076
148	0xbcf491aa	-0.029854614
149	0xbd9fd77a	-0.07804771
150	0x3dc5a697	0.09650915
151	0xbd3e98b8	-0.046532363
152	0x3c844a0d	0.016148591
153	0xbba34cb3	-0.0049835085
154	0x3be286ef	0.006913058
155	0x3c63e467	0.013909436
156	0xbb34b696	-0.002757465
157	0x3b8b9530	0.004259728
158	0x3d33b31f	0.043871995
159	0x3cff85c9	0.031191723
160	0x3c3829e7	0.011240459
161	0x3ca14d4f	0.019690184
162	0x3dda4ae3	0.10658815
163	0xbb094dcd	-0.0020950914
164	0xbb4149a9	-0.0029493368
165	0x3bcd6ba1	0.006268934
166	0xbc5ddbdd	-0.013541189
167	0x3d63c013	0.055603098
168	0xbc83eeec	-0.016105138
169	0x3d0f9f66	0.035064124
170	0x3aaf0189	0.0013351898
171	0xbbbee47d	-0.005825578
172	0xbc9abdd3	-0.018889343
173	0xbcc440a2	-0.0239566
174	0x3cdd0973	0.026982045
175	0xbd68daa7	-0.056849148
176	0xbd9df27e	-0.07712267
177	0xbcfa4c31	-0.030553909
178	0x3d738e7a	0.059462048
179	0xbd0b1250	-0.03395301
180	0x3da02f33	0.078215025
181	0xbd44992b	-0.047997635
182	0xbd48715d	-0.048936237
183	0x3d30973b	0.043112975
184	0xbd4ed47d	-0.050495613
185	0x3d0036c9	0.031302247
186	0x3dd33334	0.103125006
187	0x3c5c8eb7	0.01346176
188	0x3d55c030	0.052185237
189	0x3b961646	0.004580292
190	0xbd4eb5b9	-0.050466273
191	0x3d321b3e	0.04348301
192	0x3d435113	0.04768474
193	0xba17c435	-0.000578943
194	0x3cc1567e	0.023600813
195	0x3d56c10e	0.052430205
196	0x3da214f3	0.07914152
197	0x3d6d5626	0.057943486
198	0xbd002ca2	-0.031292565
199	0x3cd98c7f	0.026556252
200	0x3d4db68b	0.050222915
201	0x3d266c3c	0.040630564
202	0x3d250a50	0.040293038
203	0x3de3c1d7	0.111209564
204	0x3c02d5a2	0.007985504
205	0xbd05cbc1	-0.032665018
206	0x3d37a7ea	0.04483787
207	0x3c717ae4	0.014738772
208	0x3cb7641f	0.022386609
209	0xbd775932	-0.060387798
210	0xbd1084d4	-0.035282925
211	0x3d7d1abc	0.061793074
212	0xbd2a44c5	-0.04156949
213	0x3d38a976	0.045083486
214	0x3df790ea	0.12088187
215	0x3e04c3f4	0.12965375
216	0x3c18b859	0.009321296
217	0x3d592a05	0.05301859
218	0x3b2aad5d	0.0026043274
219	0x3decc690	0.1156131
220	0x3dc06a1d	0.093952395
221	0x3d031188	0.03199914
222	0x3da614b0	0.081094146
223	0x3df76d0b	0.12081345
224	0xbd065836	-0.03279897
225	0xbdb1e09a	-0.086854175
226	0xbc972784	-0.01845146
227	0x3cd5069a	0.026004124
228	0x3d1c5eec	0.038176462
229	0x3ca83c41	0.020536544
230	0x3ddd76a1	0.10813642
231	0xba502609	-0.0007940238
232	0x3cd92179	0.026505219
233	0xbceef01c	-0.029167227
234	0x3ca19c34	0.019727804
235	0x3cafe056	0.021469276
236	0xbb223c4b	-0.0024755176
237	0x3b26f354	0.0025474625
238	0x3dde772b	0.10862573
239	0x3d0f8a49	0.03504399
240	0x3cb24c0a	0.021764774
241	0x3d3e73d3	0.046497177
242	0xbbffd3c3	-0.0078072264
243	0x3d482c48	0.048870355
244	0x3c524107	0.012832887
245	0xbc9e2709	-0.019305723
246	0xbd9c88cf	-0.07643282
247	0xbda88632	-0.08228721
248	0xbd4708b9	-0.048592303
249	0xbc5e0458	-0.01355084
250	0xbd2c034a	-0.041995324
251	0xbd896567	-0.06708794
252	0xbc86cd43	-0.016455298
253	0xbc659827	-0.014013327
254	0xbdcaaafb	-0.09895893
255	0xbd9d454c	-0.07679233

deconv3.0.bias f4 [8]
0	0xbd8fe27e	-0.07025622
1	0x3d9d86a3	0.076916955
2	0xbd5ab303	-0.053393375
3	0x3d443b25	0.047907967
4	0x3ccea54e	0.025225308
5	0x3d7f0f66	0.062270544
6	0x3d076763	0.03305758
7	0x3d81cfb6	0.06338446

deconv3.1.weight f4 [8]
0	0x3f9f5f8e	1.2451036
1	0x3f9c6f23	1.2221416
2	0x3f9cfbb4	1.2264314
3	0x3f9d0805	1.2268072
4	0x3f99b8a6	1.2009475
5	0x3f9d041f	1.2266883
6	0x3f9e9e52	1.2392066
7	0x3f97c2f6	1.1856372

deconv3.1.bias f4 [8]
0	0x3e783741	0.24239828
1	0x3e5cc0ed	0.2155797
2	0x3e60f6d0	0.21969151
3	0x3e636b9f	0.22209023
4	0x3e4f5f2a	0.20251146
5	0x3e615f44	0.22008997
6	0x3e70a9cc	0.23502272
7	0x3e4438b6	0.19162259

deconv3.1.running_mean f4 [8]
0	0xbe4362a5	-0.19080599
1	0xbd67ea44	-0.056619897
2	0x3d8c943e	0.068642125
3	0x3df68c41	0.1203847
4	0x3ed234fa	0.41056043
5	0x3ee7f042	0.4530049
6	0x3d0c66bc	0.034277663
7	0xbe08effe	-0.133728

deconv3.1.running_var f4 [8]
0	0x3d96f9dd	0.073718764
1	0x3d5f9064	0.05458106
2	0x3db858ad	0.090012886
3	0x3d83e13b	0.06439444
4	0x3d4314f1	0.047627393
5	0x3d733014	0.059372023
6	0x3d93f552	0.072245255
7	0x3d8ce21b	0.06879064
